RL/CC2-Cardiff-implementation/GT-Cardiff-CC2/Models/PPOxCCE-C1/10000.pth (torch, 78866 bytes, 11 tensors)

actor.0.weight f4 [64, 62]
-0.0009508271 0.0681284 -0.10452683 -0.093464345 -0.26254845 0.22937655 0.02641136 0.5475678
-0.02937222 -0.0087409895 -0.106948845 -0.2765085 -0.49121898 -0.39398113 -0.24913773 0.1019451
0.05020762 0.076202966 -0.086098604 -0.055303834 0.04612862 0.10545937 -0.026136648 0.09503569
-0.020470306 0.013438404 0.11499559 -0.11781425 -0.104798734 0.10641577 0.13834752 0.35140485
-0.082318895 -0.058462333 -0.08872742 -0.11894336 -0.18523595 -0.004520592 0.082156956 0.10328268
-0.029332811 -0.045635752 -0.2580316 -0.023438547 0.029938651 0.025082696 0.61645573 -0.11909952
0.20811212 0.33094883 0.116899215 0.22141702 0.050404087 0.0607356 0.11997538 -0.0760085
0.23355444 -0.09846389 -0.19252354 -0.013423616 0.08263514 0.19221261 -0.07522884 0.03836764
0.069719516 -0.01602962 -0.074500576 -0.043451954 -0.20872964 -0.0017218014 0.24071296 0.42986184
0.033022918 0.21244456 0.04603507 0.42176104 0.30311602 0.016440902 0.011683059 -0.079451956
-0.11835829 0.112838656 0.09656578 -0.12668617 0.023770874 -0.021394443 -0.020899286 -0.058135178
0.048838682 -0.07522262 0.3885648 0.45175326 0.32517168 -0.11969134 -0.1256965 -0.08238459
0.06341307 0.026581297 -0.23986131 -0.34009627 0.31632736 0.34148344 -0.018369086 -0.20250364
-0.20539156 -0.20541666 -0.05042703 -0.06409632 -0.22313158 -0.04200471 -0.2013842 -0.0674723
-0.42145786 -0.16054769 0.08703317 -0.4421883 -0.061930876 -0.15248829 -0.08076585 0.030121163
-0.0038023738 0.03288435 -0.36527717 -0.08953641 -0.12182473 -0.07527382 -0.03179192 -0.061863456
-0.307773 0.23167343 -0.28160867 -0.060123067 -0.048528124 0.19479392 0.1045279 0.26526266
0.35079432 0.23835 -0.30063364 0.026752269 0.12030038 0.08065218 0.12057564 -0.009184859
-0.11408694 -0.060207866 0.086475044 -0.000823276 -0.06312495 -0.09732169 -0.11885332 -0.10718915
-0.16862088 0.21560809 -0.12274619 -0.35319164 0.0792204 -0.099378794 -0.026849132 -0.051495075
-0.06034797 -0.16600592 -0.010921474 -0.03393626 -0.15174538 -0.11252104 -0.043952823 -0.08153134
-0.10073311 -0.16733527 0.18802841 -0.06527824 0.26386866 0.21318153 -0.07389165 -0.032840006
-0.014655112 -0.35365388 0.10926329 -0.37449712 -0.33424574 -0.026589852 0.052698504 -0.14027037
0.22263838 0.07820203 -0.030540317 -0.026708819 -0.10465844 0.06881427 0.3622946 0.2070342
-0.09841331 -0.28669202 -0.36681703 -0.5125226 -0.4538621 -0.27407077 -0.24445583 -0.4482282
0.5470977 0.6813116 -0.09600194 -0.08718714 -0.07374409 0.08889163 -0.0456521 0.10712317
0.045924205 0.01608152 -0.00094539195 -0.02510558 0.015934242 -0.028999802 0.27129325 0.25838467
-0.27668887 -0.3512949 0.10255168 -0.10306653 -0.009119395 0.12563345 0.2504375 0.47182092
0.0057485877 0.04339752 -0.24763359 -0.0072860084 0.05272517 0.25320426 -0.0834079 0.106143385
-0.08153254 -0.09224454 -0.21865442 -0.4477379 0.14040479 0.06653698 -0.053825844 0.084296405
0.046232928 0.19792728 -0.026415221 0.00020330961 0.059501532 0.10164887 -0.16812487 0.08112769
0.0017503793 -0.02159215 -0.06688753 0.016785737 -0.19792366 0.07687404 -0.033454925 -0.43312097
00000000: ed40 79ba e786 8b3d 2a12 d6bd 3c6a bfbd
00000010: c06c 86be b0e1 6a3e a35c d83c 672d 0c3f
00000020: 039e f0bc 5e36 0fbc ff07 dbbd 8692 8dbe
00000030: 0e81 fbbe e5b7 c9be f61d 7fbe 98c8 d03d
00000040: 81a6 4d3d 4d10 9c3d 7754 b0bd 4686 62bd
00000050: 5df1 3c3d 15fb d73d 861c d6bc 12a2 c23d
00000060: 58b1 a7bc c02c 5c3c cf82 eb3d 9948 f1bd
00000070: b8a0 d6bd 83f0 d93d f9aa 0d3e 56eb b33e
00000080: cf96 a8bd 3376 6fbd b9b6 b5bd 9498 f3bd
00000090: 7eae 3dbe 7921 94bb e841 a83d df85 d33d
000000a0: 5d4b f0bc 8eec 3abd b81c 84be 3202 c0bc
000000b0: e741 f53c 3a7a cd3c 0bd0 1d3f 73ea f3bd
000000c0: 581b 553e 2072 a93e db68 ef3d 25bb 623e
000000d0: 8474 4e3d e4c5 783d a7b5 f53d 58aa 9bbd
000000e0: e528 6f3e 70a7 c9bd e424 45be baee 5bbc
000000f0: 9d3c a93d 62d3 443e 9411 9abd 6327 1d3d
00000100: 1bc9 8e3d 8d50 83bc c293 98bd adfa 31bd
00000110: 39bd 55be 11ae e1ba 757d 763e da16 dc3e
00000120: 0a43 073d 118b 593e 458f 3c3d 10f1 d73e
00000130: 0632 9b3e 12af 863c 4d6a 3f3c b5b7 a2bd
00000140: d565 f2bd f417 e73d 48c4 c53d 05ba 01be
00000150: 23bb c23c 6643 afbc fb34 abbc 271f 6ebd
00000160: 120b 483d 510e 9abd f7f1 c63e 344c e73e
00000170: e77c a63e bc20 f5bd 95b6 00be 40b9 a8bd
00000180: b6de 813d 05c1 d93c 349e 75be 1921 aebe
00000190: a9f5 a13e ebd6 ae3e c47a 96bc 1d5d 4fbe
000001a0: 2a52 52be bf58 52be 938c 4ebd ee44 83bd
000001b0: 9b7c 64be 210d 2cbd a937 4ebe eb2e 8abd
000001c0: 53c9 d7be 9d66 24be 723e b23d 8166 e2be
000001d0: 3bab 7dbd e425 1cbe 9168 a5bd a8c0 f63c
000001e0: 3f31 79bb bdb1 063d 9c05 bbbe de5e b7bd
000001f0: 3e7f f9bd 2929 9abd 3f38 02bd 8964 7dbd
00000200: 6c94 9dbe cd3b 6d3e 032f 90be 9b43 76bd
00000210: 6dc5 46bd 0f78 473e b912 d63d 82d0 873e
00000220: 509b b33e 0612 743e a7ec 99be 9327 db3c
00000230: 0c60 f63d f82c a53d 5cf0 f63d 177c 16bc
00000240: 6aa6 e9bd 869c 76bd d419 b13d 1ed1 57ba
00000250: a747 81bd 9850 c7bd 5f69 f3bd fc85 dbbd
00000260: f4aa 2cbe 5ec8 5c3e 5b62 fbbd 89d5 b4be
00000270: 4e3e a23d 1c87 cbbd b6f2 dbbc 80ec 52bd
00000280: 6f2f 77bd 75fd 29be fbef 32bc bf00 0bbd
00000290: 2463 1bbe 6e71 e6bd e007 34bd e7f9 a6bd
000002a0: 294d cebd f059 2bbe 858a 403e 99b0 85bd
000002b0: cb19 873e 424c 5a3e 8154 97bd 3e83 06bd
000002c0: ff1b 70bc 1f12 b5be 6fc5 df3d 16be bfbe
000002d0: 4222 abbe f6d2 d9bc 63da 573d 09a3 0fbe
000002e0: 51fb 633e 6328 a03d b02f fabc 74cc dabc
000002f0: 2a57 d6bd 7fee 8c3d ae7e b93e c600 543e
00000300: eb8c c9bd 4cc9 92be 71cf bbbe ae34 03bf
00000310: 9d60 e8be 0153 8cbe a152 7abe 2b7e e5be
00000320: 980e 0c3f 706a 2e3f aa9c c4bd 2c8f b2bd
00000330: 2407 97bd d10c b63d b2fd 3abd 6463 db3d
00000340: 051b 3c3d 64bd 833c 2ed4 77ba 38aa cdbc
00000350: 8788 823c fe90 edbc f3e6 8a3e ff4a 843e
00000360: 2aaa 8dbe eddc b3be 9d06 d23d 8b14 d3bd
00000370: 8469 15bc 0ea6 003e 5839 803e 8392 f13e
00000380: a65e bc3b 99c1 313d a993 7dbe 78bf eebb
00000390: 59f6 573d fda3 813e c3d1 aabd b461 d93d
000003a0: 88fa a6bd b5ea bcbd f2e6 5fbe e73d e5be
000003b0: 46c6 0f3e 8a44 883d 7d78 5cbd 98a3 ac3d
000003c0: bd5e 3d3d 73ad 4a3e bc64 d8bc 822f 5539
000003d0: e1b7 733d 482d d03d ed28 2cbe 4626 a63d
000003e0: fc6c e53a 05e2 b0bc 54fc 88bd 3e82 893c
000003f0: 80ac 4abe 2370 9d3d 0808 09bd 08c2 ddbe

actor.0.bias f4 [64]
-0.018656302 -0.04999194 -0.08139828 -0.07420245 -0.14339037 -0.21991344 0.09523352 -0.054215822
0.0013214136 -0.039100617 -0.10578492 -0.05679862 0.09383467 -0.1414816 -0.20981464 0.17347293
-0.074227266 0.03150035 -0.24391374 -0.20398246 -0.14625394 -0.26412785 -0.058047183 -0.019479213
-0.1102774 0.06807201 0.07476419 -0.009019514 -0.060897473 -0.09602035 -0.10932836 0.15048328
0.09512576 -0.13265239 0.11641639 -0.21305874 0.08863588 -0.002468958 -0.09431167 -0.27126175
0.16648991 0.085914284 0.08712579 0.1194804 -0.035704993 0.1636701 -0.021370336 0.0890933
-0.038194492 -0.0158324 0.13196747 -0.27409723 -0.21263948 -0.09352815 0.23213534 -0.10596964
0.19872455 0.0847989 -0.16613695 0.048732925 -0.099090435 -0.099123105 -0.044149384 -0.076929554
00000000: 1ad5 98bc 59c4 4cbd 24b4 a6bd 74f7 97bd
00000010: edd4 12be fd30 61be cb09 c33d 6911 5ebd
00000020: 4833 ad3a f827 20bd c4a5 d8bd aba5 68bd
00000030: 642c c03d 8de0 10be a6d9 56be e3a2 313e
00000040: 7704 98bd 8306 013d 86c4 79be c7e0 50be
00000050: 98c3 15be c43b 87be e2c2 6dbd df92 9fbc
00000060: 1ed9 e1bd 5769 8b3d f81d 993d 95c6 13bc
00000070: a16f 79bd 51a6 c4bd 8ce7 dfbd 4a18 1a3e
00000080: 4bd1 c23d 07d6 07be b76b ee3d 122c 5abe
00000090: ba86 b53d 3ece 21bb 7a26 c1bd d2e2 8abe
000000a0: 557c 2a3e d4f3 af3d 026f b23d 24b2 f43d
000000b0: 663f 12bd 2299 273e d810 afbc 8c76 b63d
000000c0: d471 1cbd f3b2 81bc 7b22 073e 7956 8cbe
000000d0: 2abe 59be b08b bfbd e3b4 6d3e 9c06 d9bd
000000e0: 737e 4b3e 0cab ad3d ce1f 2abe 2d9c 473d
000000f0: edef cabd 0e01 cbbd fcd5 34bd 3e8d 9dbd

actor.2.weight f4 [64, 64]
-0.20671497 -0.33255908 0.026219588 0.12444357 0.13251211 0.40622216 -0.07736109 -0.08251844
-0.37689403 0.09472436 -0.019758346 -0.025438033 0.026954414 -0.22806235 0.123283096 -0.104229
-0.26259845 -0.016353164 0.10847044 -0.20360109 0.17035776 -0.02359206 0.070598595 -0.31995037
-0.11675623 0.11301983 0.2226958 -0.032224067 0.13895345 0.4039378 -0.09939986 0.16283906
-0.095173374 0.07756249 -0.23178132 0.12864482 -0.185246 0.059237614 -0.07598606 -0.027557606
-0.2934093 -0.3118089 0.12574805 -0.3995603 -0.18521173 -0.11427417 -0.2864165 0.07724824
-0.2516265 -0.14453243 0.102533266 0.26084515 0.060762204 -0.002358743 -0.14155006 -0.21630576
-0.3081963 0.029955162 0.21511646 -0.46443975 -0.0335838 -0.04711052 0.012932607 -0.26799098
-0.18585554 -0.102374874 -0.12518924 0.059307247 -0.10873218 0.12600031 -0.107237756 0.034353178
-0.17343225 0.15150662 0.0613187 0.10421532 -0.12095464 -0.011455537 -0.21649131 -0.59169716
-0.057894755 -0.39513358 0.15443054 0.245553 -0.23448582 -0.1298927 -0.017639112 0.13684988
-0.09669254 0.050947186 -0.4014472 0.19309232 -0.3400864 0.2626891 0.13747168 -0.03519795
-0.54239583 0.08540556 -0.019652821 -0.18908012 -0.0490094 -0.4182086 0.23054726 0.15749808
-0.0038129222 -0.0965121 -0.10071414 0.20226856 0.18932176 -0.03887576 -0.35644823 -0.111702584
0.028254863 0.37024927 0.022096206 0.18855858 0.3506359 -0.22590469 -0.1988674 0.3932502
0.033941388 -0.08837229 -0.13852558 -0.12034952 0.06811748 0.37394583 -0.3488547 -0.013639253
-0.2584187 0.11735216 -0.01786835 -0.044206977 0.14257418 0.14450034 -0.06612166 0.08351815
0.013029966 0.04168194 -0.2100582 -0.18244289 0.08542848 0.046414237 -0.04069873 -0.060625006
0.19716974 0.049933556 -0.032571353 0.16977185 0.14517933 -0.13510214 -0.17407346 0.17948876
-0.08814852 -0.03093952 0.06444576 0.050101873 0.09104276 0.16643104 0.012141236 -0.047411706
0.051821202 0.04035171 -0.14767231 -0.066485785 -0.0031504005 0.09356426 -0.0045308713 -0.15848215
0.04027284 0.13389836 -0.2071633 0.15247364 -0.13525578 -0.0017790243 -0.021245493 0.023409083
0.088062875 -0.0647728 -0.098881364 0.03906798 -0.21973495 0.08598347 -0.094749056 -0.4563243
-0.2471616 0.14661776 0.40446925 0.11427827 0.022961853 -0.21974042 -0.021228572 -0.23850295
0.061925992 -0.08354497 -0.19583528 0.37826908 -0.320323 -0.05955472 -0.05602744 0.2848259
-0.06171378 0.1471666 -0.18454343 0.0979659 -0.04489018 -0.016926968 -0.24032788 -0.089215055
0.31758407 -0.15256666 -0.060213797 0.23874047 -0.39785975 0.39943665 0.0027189264 0.11369913
-0.25448355 0.10667274 0.23708394 0.059004694 0.11263143 -0.35209176 0.112197064 0.1903762
0.43296322 -0.15980798 -0.08516666 -0.053320676 -0.020441981 -0.091673724 0.10364529 0.055160258
-0.32191145 0.37926537 -0.050505873 -0.17784123 0.021492153 0.0028939755 -0.20288388 -0.0066377996
-0.24770972 0.37022448 -0.014814964 -0.094982855 -0.07506482 0.11686445 -0.017216237 0.03519364
0.071618006 0.24952441 -0.001037553 -0.29072618 -0.23154502 -0.1908873 0.0099698575 0.24698046
00000000: 17ad 53be 2f45 aabe 76ca d63c 45dc fe3d
00000010: 41b1 073e 5afc cf3e 7e6f 9ebd 6eff a8bd
00000020: 41f8 c0be d8fe c13d 41dc a1bc 6c63 d0bc
00000030: 81cf dc3c 2d89 69be d97b fc3d 0476 d5bd
00000040: 4e73 86be 12f7 85bc c025 de3d ce7c 50be
00000050: 4472 2e3e 2344 c1bc ff95 903d 89d0 a3be
00000060: e41d efbd f176 e73d 5e0a 643e 62fd 03bd
00000070: d049 0e3e efd0 ce3e 2792 cbbd 48bf 263e
00000080: 42ea c2bd 15d9 9e3d 1558 6dbe 78bb 033e
00000090: 21b1 3dbe 24a3 723d 949e 9bbd 7dc0 e1bc
000000a0: be39 96be 6ba5 9fbe 19c4 003e 2b93 ccbe
000000b0: 25a8 3dbe 9308 eabd 2fa5 92be 5334 9e3d
000000c0: 30d5 80be 4f00 14be f6fc d13d 7f8d 853e
000000d0: cae1 783d 2495 1abb 80f2 10be 427f 5dbe
000000e0: e8cb 9dbe 8764 f53c 7d47 5c3e 0ccb edbe
000000f0: 2b8f 09bd f6f6 40bd 49e3 533c 1d36 89be
00000100: ea50 3ebe eba9 d1bd 9c31 00be 28ec 723d
00000110: faae debd 3a06 013e 789f dbbd ebb5 0c3d
00000120: 3998 31be 8d24 1b3e 5129 7b3d d76e d53d
00000130: 11b7 f7bd 01b0 3bbc e6af 5dbe 7779 17bf
00000140: 0d23 6dbd f34e cabe 0a23 1e3e 3f72 7b3e
00000150: 0d1d 70be 9802 05be e67f 90bc 6022 0c3e
00000160: bd06 c6bd ffad 503d 7d8a cdbe feb9 453e
00000170: ce1f aebe 307f 863e 60c5 0c3e ba2b 10bd
00000180: 74da 0abf 1ce9 ae3d f4fe a0bc 389e 41be
00000190: 15be 48bd 701f d6be 9514 6c3e 2d47 213e
000001a0: 38e2 79bb 23a8 c5bd 3743 cebd 7d1f 4f3e
000001b0: 90dd 413e 303c 1fbd 6280 b6be 53c4 e4bd
000001c0: be76 e73c 5091 bd3e 1a03 b53c 8015 413e
000001d0: 8c86 b33e 8f53 67be e5a3 4bbe 1758 c93e
000001e0: 2006 0b3d 88fc b4bd a6d9 0dbe cf79 f6bd
000001f0: 2d81 8b3d d475 bf3e 159d b2be 2c77 5fbc
00000200: 754f 84be 5456 f03d a560 92bc 6012 35bd
00000210: f7fe 113e e6f7 133e cb6a 87bd 900b ab3d
00000220: a37b 553c afba 2a3d 7f19 57be 4fd2 3abe
00000230: 20f5 ae3d db1c 3e3d b6b3 26bd ed51 78bd
00000240: dde6 493e 2187 4c3d 8a69 05bd acd8 2d3e
00000250: e4a9 143e 3758 0abe 5040 32be e7cb 373e
00000260: 3687 b4bd e074 fdbc 23fc 833d 9f37 4d3d
00000270: a074 ba3d e66c 2a3e 09ec 463c c732 42bd
00000280: 7842 543d d647 253d 6937 17be b329 88bd
00000290: f376 4ebb 9e9e bf3d b477 94bb 2549 22be
000002a0: 22f5 243d a71c 093e 9e22 54be 0d22 1c3e
000002b0: 7e80 0abe 262e e9ba 070b aebc 68c4 bf3c
000002c0: 4f5a b43d 9aa7 84bd 5082 cabd bf05 203d
000002d0: 3302 61be 1a18 b03d cb0b c2bd 57a3 e9be
000002e0: ee17 7dbe f722 163e 9816 cf3e ba0a ea3d
000002f0: 7f1a bc3c a203 61be 8be7 adbc 1e3a 74be
00000300: 1ca6 7d3d a019 abbd 0b89 48be 7cac c13e
00000310: 6001 a4be a6ef 73bd 077d 65bd b3d4 913e
00000320: 97c7 7cbd d7b2 163e f4f8 3cbe 59a2 c83d
00000330: c4de 37bd 6daa 8abc 8318 76be 62b6 b6bd
00000340: 619a a23e 6f3a 1cbe bea2 76bd 6278 743e
00000350: 46b4 cbbe f682 cc3e 0430 323b 17db e83d
00000360: ab4b 82be 3d77 da3d 22c6 723e e8ae 713d
00000370: 4fab e63d 5f45 b4be 93c7 e53d fbf1 423e
00000380: 5bad dd3e b4a4 23be dc6b aebd c866 5abd
00000390: f175 a7bc 6fbf bbbd fb43 d43d b9ef 613d
000003a0: 94d1 a4be 122f c23e 3fdf 4ebd 031c 36be
000003b0: 5010 b03c daa8 3d3b cbc0 4fbe e681 d9bb
000003c0: 9ea7 7dbe 108e bd3e 76ba 72bc 5f86 c2bd
000003d0: 96bb 99bd a156 ef3d 1109 8dbc 3527 103d
000003e0: 76ac 923d 5483 7f3e 80fe 87ba 10da 94be
000003f0: 231a 6dbe f677 43be 9d58 233c 72e8 7c3e

actor.2.bias f4 [64]
-0.18443824 -0.026118679 0.017524304 0.09907737 0.14552556 -0.06194184 -0.17730868 -0.037787724
0.037984654 0.06775779 -0.09262129 0.18112114 -0.119092055 -0.17745969 -0.05559546 0.122877754
-0.1367035 -0.1914942 -0.091246635 -0.14334431 -0.033707872 0.153282 0.15627842 -0.004155533
0.044140752 -0.106769696 -0.10049199 -0.115059525 -0.19991143 0.028448263 0.11253503 -0.04772809
-0.03684522 -0.09355367 -0.1121923 -0.13036712 -0.024857244 -0.12134154 0.12910217 -0.08223947
0.016468406 -0.2660449 0.07046106 -0.18582563 -0.038328424 -0.2164168 -0.25706434 -0.08932241
-0.04874145 -0.05547361 0.106384695 0.011610047 -0.17631608 -0.12123225 -0.11343059 0.0075125867
-0.04078811 0.38597217 -0.019878125 0.114307776 -0.034307435 -0.008813373 0.104271814 -0.035570648
00000000: 61dd 3cbe d7f6 d5bc 218f 8f3c 13e9 ca3d
00000010: a704 153e bab6 7dbd 6890 35be 4dc7 1abd
00000020: cc95 1b3d 99c4 8a3d 3bb0 bdbd d277 393e
00000030: 89e6 f3bd feb7 35be 11b8 63bd 55a7 fb3d
00000040: 01fc 0bbe 0e17 44be 84df babd dac8 12be
00000050: 4411 0abd f5f5 1c3e 7307 203e 232b 88bb
00000060: efcc 343d 12aa dabd bfce cdbd 54a4 ebbd
00000070: 95b5 4cbe 550c e93c c478 e63d 887e 43bd
00000080: 03eb 16bd 1199 bfbd 14c5 e5bd f57e 05be
00000090: 6ba1 cbbc ea81 f8bd 5c33 043e 2b6d a8bd
000000a0: c0e8 863c 0a37 88be e34d 903d 1349 3ebe
000000b0: 44fe 1cbd 5e9c 5dbe f09d 83be abee b6bd
000000c0: 1da5 47bd 4c38 63bd 38e0 d93d 1138 3e3c
000000d0: 348c 34be 9d48 f8bd 4c4e e8bd 252c f63b
000000e0: 6f11 27bd 259e c53e 73d7 a2bc 321a ea3d
000000f0: f485 0cbd f765 10bc 768c d53d 87b2 11bd

actor.4.weight f4 [36, 64]
-0.032143578 -0.4052283 0.14771652 -0.60860515 -0.36811998 -0.17613915 0.07136821 0.028841475
-0.48071873 -0.5948176 -0.1290379 -0.7073509 0.23000403 0.103713155 -0.5946336 0.8509215
0.1708017 0.070938766 0.19387175 -0.13880862 0.110868104 -0.5610018 -0.4127347 0.078785285
-0.5113497 -0.16222307 -0.099426694 0.15300368 -0.0599697 -0.27652034 0.486728 -0.23994726
-0.09804933 -0.43903852 0.07423342 0.19910228 0.081157155 0.06833623 -0.32927 0.2854231
-0.497491 -0.038493305 -0.26120397 -0.4061147 -0.0021876472 0.061837785 -0.31894997 0.044228528
0.09235263 -0.29662332 0.4780842 -0.2069926 -0.01807283 -0.23264901 0.04632207 0.3956913
-0.13523066 -1.0615685 -0.48725402 -0.3367023 -0.14621325 -0.18314399 -0.5802139 0.0324838
0.03935531 0.43482664 0.28961697 -0.3072695 0.006575617 -0.031295337 -0.002505625 0.034561105
-0.03717547 0.33176857 0.25603372 -0.30132544 -0.61638784 -0.46341687 0.4087337 -0.20827265
-0.41885912 0.3414016 0.066445805 -0.25535318 -0.14405075 0.3931731 -0.15406151 -0.057429362
-0.6818912 -0.16561647 0.15217626 0.02488601 0.09204631 0.10030665 -0.25921926 -0.2209794
-0.018884603 -0.5850972 0.19055639 -0.5723001 0.217588 -0.5982128 0.40393096 -0.14411311
0.10960624 0.047819708 0.55539954 -0.09374389 0.58180726 -0.045247223 -0.3369327 0.06099263
-0.12805967 0.20735788 -0.3148051 -0.806731 0.1247061 0.38305378 0.09200688 0.190006
-0.06483461 0.3343529 -0.39490756 0.7914388 0.0053804754 0.4302327 -0.39738435 -0.25648564
0.5930252 -0.2747475 0.3033794 -0.19889471 -0.20228072 -0.030875757 -0.032541666 -0.1507905
-0.043516215 -0.23231843 0.11141377 -0.016187377 0.39178127 -0.16133802 -0.30698803 -0.08611756
0.47434622 -0.19536741 0.8738931 0.12273498 0.591175 -0.47878778 0.03340941 -0.0690328
-0.20868069 -0.14759012 0.021911584 0.37547645 0.29437688 0.058341455 0.49091837 -0.8341172
-0.12939395 -0.3764103 0.050349984 -0.11710031 -0.036763858 -0.15172666 0.36618075 0.40324327
0.07300807 0.046758007 -0.45035905 -0.21856819 -0.22020319 0.021503402 -0.26879695 0.0785729
0.14227222 0.17618449 -0.14019415 0.5229853 0.44750598 -0.42788085 0.028623411 0.6119013
-0.14226575 -0.7488539 -0.3917582 -0.15976667 0.3391809 0.46496904 -0.42329985 -0.07408808
0.2546251 -0.6750541 0.0044698496 -0.37776205 0.043036137 -0.059004612 0.08166665 0.0926523
-0.7958798 -0.0022751063 0.20362744 -0.47679862 0.3704305 -0.64105755 -0.29483438 0.6485825
-0.14947753 0.14572066 -0.006627108 -0.01949724 -0.01983503 -0.32688197 -0.41942275 0.0075969063
-0.18121733 -0.18570825 0.11011437 -0.03362568 0.15190162 0.005566752 0.6008047 -0.7709741
0.009787291 -0.08704605 0.06941672 0.101154186 -0.13854669 -0.64694774 0.16269156 -0.05711271
0.19054964 0.17458102 -0.06559945 -0.2848991 -0.11460273 -0.2700635 -0.21796906 -0.022576502
1.4241253e-05 -0.31427473 0.46495906 -0.248902 0.41652554 -0.011366269 0.03020017 0.4449519
0.11470133 -0.8516147 -0.39717087 0.66896605 -0.37010238 0.4656618 -0.76395595 -0.0038544484
00000000: fca8 03bd 157a cfbe 0043 173e 8ccd 1bbf
00000010: 397a bcbe d25d 34be 7f29 923d f544 ec3c
00000020: c420 f6be f745 18bf 8322 04be f314 35bf
00000030: 2d86 6b3e 9067 d43d e839 18bf fed5 593f
00000040: a4e6 2e3e 5848 913d 5186 463e d923 0ebe
00000050: d10e e33d d09d 0fbf f651 d3be 2e5a a13d
00000060: d0e7 02bf ce1d 26be 39a0 cbbd ffac 1c3e
00000070: caa2 75bd 1394 8dbe 6a34 f93e bcb4 75be
00000080: 16ce c8bd a8c9 e0be b107 983d 78e1 4b3e
00000090: b935 a63d def3 8b3d 1496 a8be fa22 923e
000000a0: 24b7 febe 28ab 1dbd 87bc 85be 44ee cfbe
000000b0: a15e 0fbb 9e49 7d3d 694d a3be f928 353d
000000c0: 6023 bd3d 03df 97be 74c7 f43e def5 53be
000000d0: 790d 94bc 8b3b 6ebe 36bc 3d3d 0d98 ca3e
000000e0: e879 0abe 7ae1 87bf 5c79 f9be 3e64 acbe
000000f0: edb8 15be 198a 3bbe e688 14bf bc0d 053d
00000100: 0933 213d 99a1 de3e ad48 943e 6e52 9dbe
00000110: 4678 d73b 8a2f 00bd 6935 24bb f28f 0d3d
00000120: 4e45 18bd 92dd a93e da16 833e 5447 9abe
00000130: 98cb 1dbf fa44 edbe 8b45 d13e 6d45 55be
00000140: b474 d6be 31cc ae3e bd14 883d a7bd 82be
00000150: 0a82 13be fc4d c93e 4dc2 1dbe 0d3b 6bbd
00000160: 6c90 2ebf 5d97 29be 18d4 1b3e bfdd cb3c
00000170: c782 bc3d 936d cd3d 63b8 84be 6d48 62be
00000180: e2b3 9abc eec8 15bf 3721 433e 4282 12bf
00000190: 64cf 5e3e 7924 19bf 0ad0 ce3e 6392 13be
000001a0: 3d79 e03d 99de 433d aa2e 0e3f ccfc bfbd
000001b0: 52f1 143f 2755 39bd 7182 acbe 68d3 793d
000001c0: 1322 03be a055 543e 222e a1be ec85 4ebf
000001d0: e965 ff3d a01f c43e 1a6e bc3d ef90 423e
000001e0: 02c8 84bd 4e30 ab3e 5331 cabe bc9b 4a3f
000001f0: b34e b03b 7647 dc3e f675 cbbe 1652 83be
00000200: 80d0 173f b4ab 8cbe 8b54 9b3e 0eab 4bbe
00000210: ad22 4fbe 28ef fcbc 694a 05bd d368 1abe
00000220: 0f3e 32bd e2e4 6dbe e72c e43d 649b 84bc
00000230: 8e97 c83e cb35 25be 892d 9dbe 675e b0bd
00000240: 82dd f23e 650e 48be 75b7 5f3f 7a5c fb3d
00000250: 3f57 173f ac23 f5be 4ed8 083d 1261 8dbd
00000260: 64b0 55be dd21 17be ec7f b33c 733e c03e
00000270: 91b8 963e 73f7 6e3d a759 fb3e b488 55bf
00000280: d97f 04be dab8 c0be c93b 4e3d 4ad2 efbd
00000290: b395 16bd 3c5e 1bbe 0b7c bb3e e775 ce3e
000002a0: 4185 953d 5385 3f3d 7695 e6be 57d0 5fbe
000002b0: f27c 61be e727 b03c c19f 89be d4ea a03d
000002c0: cfaf 113e b569 343e 0e8f 0fbe 5de2 053f
000002d0: 811f e53e 3313 dbbe a57b ea3c 90a5 1c3f
000002e0: 1dae 11be e4b4 3fbf 8894 c8be e099 23be
000002f0: 1ea9 ad3e 6c10 ee3e c2ba d8be 7ebb 97bd
00000300: 395e 823e 58d0 2cbf d177 923b 076a c1be
00000310: a946 303d d2ae 71bd d840 a73d 7dc0 bd3d
00000320: c7be 4bbf f319 15bb b683 503e f31e f4be
00000330: 11a9 bd3e 591c 24bf 88f4 96be 8109 263f
00000340: a310 19be cc37 153e 3628 d9bb adb8 9fbc
00000350: 137d a2bc 135d a7be 94be d6be 78ef f83b
00000360: 0991 39be 4e2a 3ebe a583 e13d 15bb 09bd
00000370: 198c 1b3e 4d69 b63b 56ce 193f 8f5e 45bf
00000380: e05a 203c 3345 b2bd 5a2a 8e3d ed29 cf3d
00000390: 2fdf 0dbe 5e9e 25bf 9e98 263e 04ef 69bd
000003a0: 721f 433e 5ec5 323e 0159 86bd 4bde 91be
000003b0: d6b4 eabd c345 8abe 4833 5fbe 5bf2 b8bc
000003c0: b7ed 6e37 9ee8 a0be 1d0f ee3e 2ae0 7ebe
000003d0: d642 d53e 9639 3abc 5966 f73c bcd0 e33e
000003e0: 88e8 ea3d 6c03 5abf fb59 cbbe 5c41 2b3f
000003f0: 0f7e bdbe 396b ee3e 9e92 43bf ea9a 7cbb

actor.4.bias f4 [36]
0.07935629 0.23757021 -0.24593869 -0.16399126 0.3223635 -0.24410926 0.0039725467 0.2853484
0.0480206 -0.027234621 0.04252907 0.41586182 0.046566907 0.16679977 -0.17635001 -0.15714286
-0.0057509197 -0.27351055 0.121841416 0.087664016 -0.09940561 0.1570001 -0.06658643 -0.063273676
0.026324635 0.0011124266 0.20285706 -0.0044179927 0.03752915 0.2789789 0.18229887 -0.13771479
0.089184195 0.34219277 0.28572515 0.3401434
00000000: 8d85 a23d 9b45 733e 5ad7 7bbe 53ed 27be
00000010: d40c a53e c7f7 79be 232c 823b 2f19 923e
00000020: 40b1 443d 241b dfbc f632 2e3d d7eb d43e
00000030: f1bc 3e3d 8fcd 2a3e 1995 34be 0fea 20be
00000040: 3672 bcbb 9309 8cbe fe87 f93d 3189 b33d
00000050: 2b95 cbbd a2c4 203e 775e 88bd a195 81bd
00000060: c3a6 d73c d8ce 913a c3b9 4f3e cfc4 90bb
00000070: 2ab8 193d 53d6 8e3e 8eac 3a3e 1b05 0dbe
00000080: 34a6 b63d e433 af3e 914a 923e 4727 ae3e

critic.0.weight f4 [64, 62]
0.07635647 0.08354457 -0.083908446 0.009482246 -0.114656076 -0.059677098 0.017144151 -0.021554936
-0.055344675 0.0020891586 -0.10372113 0.0013503915 -0.109755196 -0.07987305 -0.14613453 -0.13209377
-0.008365868 -0.107972465 -0.12109008 0.089093745 -0.09144983 0.08891198 0.0087930765 -0.018583413
0.09826457 -0.09916525 0.060841322 0.084765814 0.14098419 -0.23090048 -0.009232748 -0.09965406
-0.09423055 0.08673783 -0.022362862 0.0858983 -0.068384334 -0.056324437 0.1232456 0.065380014
0.072785884 0.054177675 0.12841678 -0.11847865 -0.032936603 0.032695413 -0.04804538 -0.18672146
0.015671577 -0.15466924 -0.073228136 -0.17119107 0.03142459 -0.0049269754 -0.096892744 0.027965477
-0.024085816 0.043020763 -0.040254153 -0.16483192 -0.20138691 -0.03096935 -0.1128423 0.06433067
-0.017239168 -0.050084185 0.13416363 -0.25265458 0.033320997 0.2113907 -0.11009337 -0.21062475
-0.08345373 -0.023173088 -0.055692732 0.1498755 -0.027849508 -0.11702556 0.10398414 0.10897633
0.06814908 -0.006805929 -0.032562602 -0.12126438 0.066823736 -0.028784275 0.019905403 -0.028680766
0.08202378 0.0040353225 0.056256127 -0.0036682184 0.00683678 -0.06461061 0.05880494 -0.07486796
0.08931295 0.098380856 -0.046568755 -0.0005699302 0.27292636 0.17257404 0.17193723 -0.22937295
-0.14343117 -0.21340945 0.10584807 0.010996875 0.014825547 0.21080594 0.24804959 0.06965596
0.17300223 0.10267593 -0.046657264 0.11537596 -0.30255038 -0.7464732 -0.2577533 0.04889541
0.050378423 0.068545006 0.04142665 0.14489481 -0.10513134 0.07965675 0.105171435 0.048618447
-0.16885075 -0.09768728 -0.24083517 -0.3196153 -0.16395532 -0.3201782 0.05037305 -0.06284163
-0.18865551 0.3113948 -0.14518894 0.1059087 -0.019912245 -0.07501419 0.11838697 -0.10327836
0.11854204 -0.02147506 0.022991564 0.1105881 -0.05876423 -0.04705589 0.052543417 -0.032175787
0.1268606 0.11567474 -0.09725963 0.09897535 -0.055639885 0.051634572 0.012293336 -0.097683206
-0.18990803 -0.13718821 -0.35681078 -0.01588227 0.21767162 0.057824433 0.16385487 -0.052324407
-0.034950722 -0.0905127 -0.28010902 -0.27807024 -0.2913884 -0.09442485 -0.21839353 -0.054902676
0.06040179 0.10031932 -0.0032990645 -0.111790396 -0.12681147 -0.007129992 -0.12698472 0.40331528
-0.06851963 0.05774214 -0.11501763 -0.11673309 -0.10628424 0.08884689 -0.40379792 -0.18972486
-0.24120972 0.6204874 -0.076736346 -0.14106996 0.13063236 0.23338795 -0.017549252 0.10624171
0.1801742 0.19426031 -0.037932936 -0.07882174 -0.08388044 0.08991102 0.021075178 0.041679714
-0.092292465 0.023545597 0.11313734 0.06955967 -0.0055553075 -0.05846521 0.11695664 0.213834
-0.2963068 0.48259825 -0.03601746 -0.0050054374 -0.029890707 -0.07533561 -0.3446781 -0.37080216
-0.45271912 0.19951099 -0.05547914 -0.3707901 0.04191136 0.25831956 -0.46822667 -0.27122644
-0.029687462 0.1659147 -0.3092219 -0.11480548 0.29268914 0.039642993 0.08939693 0.043516442
-0.08402513 -0.025489045 0.03216305 -0.01956514 -0.10625161 -0.063434765 0.03449924 0.066640265
0.06834458 0.09007455 -0.1143471 -0.0821262 -0.0041251793 -0.11425089 -0.05033708 0.0021778266
00000000: c860 9c3d 6a19 ab3d 31d8 abbd 6c5b 1b3c
00000010: ced0 eabd f96f 74bd e471 8c3c fa93 b0bc
00000020: 19b1 62bd 44ea 083b be6b d4bd 9fff b03a
00000030: 55c7 e0bd 7b94 a3bd 4aa4 15be 9743 07be
00000040: fe10 09bc ab20 ddbd 13fe f7bd c876 b63d
00000050: 0c4a bbbd 7c17 b63d d610 103c 3e3c 98bc
00000060: ef3e c93d 2717 cbbd c034 793d b399 ad3d
00000070: 295e 103e 2d71 6cbe f444 17bc 6e17 ccbd
00000080: f2fb c0bd 9aa3 b13d 5232 b7bc 73eb af3d
00000090: 160d 8cbd 74b4 66bd 3068 fc3d f5e5 853d
000000a0: c410 953d 69e9 5d3d b07f 033e efa4 f2bd
000000b0: 88e8 06bd a0eb 053d 3bcb 44bd e933 3fbe
000000c0: ae61 803c 9d61 1ebe a2f8 95bd b64c 2fbe
000000d0: 12b7 003d 7772 a1bb b46f c6bd db17 e53c
000000e0: 9e4f c5bc 8a36 303d 8ae1 24bd b3c9 28be
000000f0: 5f38 4ebe 6fb3 fdbc dd19 e7bd ccbf 833d
00000100: 2839 8dbc 1325 4dbd 3162 093e f15b 81be
00000110: 997b 083d ce76 583e a278 e1bd 04ae 57be
00000120: cae9 aabd 7dd5 bdbc 101e 64bd f778 193e
00000130: a724 e4bc 19ab efbd a3f5 d43d fb2e df3d
00000140: bf91 8b3d 4504 dfbb 5d60 05bd 7659 f8bd
00000150: e2da 883d 00cd ebbc a810 a33c edf3 eabc
00000160: 15fc a73d bd3a 843b d36c 663d 7e66 70bb
00000170: 1107 e03b 9152 84bd 73dd 703d 5f54 99bd
00000180: b5e9 b63d e77b c93d e1be 3ebd 5e67 15ba
00000190: 01bd 8b3e 40b7 303e 5010 303e bee0 6abe
000001a0: 9fdf 12be 0288 5abe dfc6 d83d 3d2c 343c
000001b0: dae6 723c 83dd 573e b600 7e3e c9a7 8e3d
000001c0: 7f27 313e c247 d23d b01b 3fbd 3b4a ec3d
000001d0: e2e7 9abe de18 3fbf 3ef8 83be 8e46 483d
000001e0: 9b59 4e3d 5361 8c3d feae 293d 4e5f 143e
000001f0: 1a4f d7bd 1423 a33d 1f64 d73d 2324 473d
00000200: 36e7 2cbe 4510 c8bd 7f9d 76be 9ea4 a3be
00000210: e7e3 27be 66ee a3be f953 4e3d 1db3 80bd
00000220: e92e 41be 246f 9f3e 69ac 14be a9e6 d83d
00000230: 011f a3bc 0aa1 99bd de74 f23d 9b83 d3bd
00000240: 2bc6 f23d 77ec afbc ce58 bc3c 047c e23d
00000250: c3b2 70bd adbd 40bd c437 573d c2ca 03bd
00000260: bfe7 013e e1e6 ec3d 0f30 c7bd 97b3 ca3d
00000270: a6e6 63bd c67e 533d fd69 493c 220e c8bd
00000280: 4077 42be 117b 0cbe e7af b6be 891b 82bc
00000290: 4fe5 5e3e 50d9 6c3d 92c9 273e 1e52 56bd
000002a0: 7d28 0fbd b95e b9bd 736a 8fbe 395f 8ebe
000002b0: dc30 95be d161 c1bd 8ea2 5fbe a1e1 60bd
000002c0: de67 773d 3774 cd3d 1e35 58bb 5df2 e4bd
000002d0: deda 01be b5a2 e9bb 4808 02be 577f ce3e
000002e0: 0554 8cbd 0683 6c3d 5d8e ebbd c211 efbd
000002f0: 8dab d9bd 5cf5 b53d 9abe cebe 3c47 42be
00000300: aeff 76be 43d8 1e3f f227 9dbd a574 10be
00000310: 7dc4 053e 40fd 6e3e 73c3 8fbc 4195 d93d
00000320: 967f 383e 2dec 463e 915f 1bbd 4b6d a1bd
00000330: 82c9 abbd 4523 b83d daa5 ac3c 59b8 2a3d
00000340: d503 bdbd b2e2 c03c 8db4 e73d 4d75 8e3d
00000350: 4c09 b6bb 3779 6fbd f686 ef3d 4df7 5a3e
00000360: 86b5 97be 1e17 f73e 0b87 13bd a704 a4bb
00000370: 5bdd f4bc 8e49 9abd a679 b0be c8d9 bdbe
00000380: cdca e7be 9c4c 4c3e 183e 63bd 33d8 bdbe
00000390: 3fab 2b3d 7642 843e 68bb efbe 31de 8abe
000003a0: 1f33 f3bc 8be5 293e 5552 9ebe 231f ebbd
000003b0: 5adb 953e b160 223d bd15 b73d 4c3e 323d
000003c0: 5e15 acbd 67ce d0bc 67bd 033d 1347 a0bc
000003d0: 729a d9bd 16ea 81bd 134f 0d3d b17a 883d
000003e0: 3ef8 8b3d 0179 b83d d02e eabd c831 a8bd
000003f0: 832c 87bb 5ffc e9bd 412e 4ebd deb9 0e3b

critic.0.bias f4 [64]
-0.18121311 0.062080074 0.10752857 0.0010618571 -0.15874605 0.059949387 -0.07875494 -0.30334374
-0.13409944 -0.14937313 -0.17412111 -0.09954786 -0.16698875 -0.18667506 -0.10215984 -0.054688122
-0.11135964 0.17303173 -0.18556578 -0.032990962 -0.154583 0.046897255 -0.1896506 -0.10160981
-0.028648345 -0.18877201 -0.22524014 -0.23615669 0.046062805 0.02430845 -0.08439597 -0.17125121
-0.15441372 -0.11589628 -0.04719742 -0.045005538 0.038128693 -0.06969359 -0.12379579 -0.01570743
-0.15420409 -0.22094461 -0.32545575 -0.009619817 -0.1307636 -0.22556476 -0.059695344 0.044788286
-0.12252165 -0.07139373 -0.12311296 -0.09718036 0.013780182 -0.16737778 -0.089098506 -0.28145498
0.018465625 0.03712645 -0.11135776 0.02275691 0.14257753 -0.18394817 -0.18343544 -0.24413599
00000000: ee8f 39be ad47 7e3d f037 dc3d 032e 8b3a
00000010: 538e 22be 7d8d 753d 454a a1bd df4f 9bbe
00000020: 5d51 09be 45f5 18be ce4c 32be c0df cbbd
00000030: 19ff 2abe bf27 3fbe 2e39 d1bd a700 60bd
00000040: 8610 e4bd 3b2f 313e f504 3ebe 8821 07bd
00000050: 024b 1ebe 5617 403d c433 42be ce18 d0bd
00000060: efaf eabc 734d 41be 5aa5 66be 0fd3 71be
00000070: 5aac 3c3d 8422 c73c cbd7 acbd 7a5c 2fbe
00000080: a11e 1ebe 075b edbd 1552 41bd ba57 38bd
00000090: d52c 1c3d 83bb 8ebd a688 fdbd deac 80bc
000000a0: ade7 1dbe 4e3f 62be 23a2 a6be 709c 1dbc
000000b0: e5e6 05be 73fa 66be 1b83 74bd ec73 373d
000000c0: a1ec fabd e036 92bd a622 fcbd 7f06 c7bd
000000d0: 46c6 613c 1565 2bbe 4779 b6bd de1a 90be
000000e0: 3945 973c e811 183d 8a0f e4bd b36c ba3c
000000f0: d8ff 113e e95c 3cbe 80d6 3bbe c9fe 79be

critic.2.weight f4 [64, 64]
-0.030853003 0.061848454 -0.09243635 0.009670194 -0.04119672 -0.05151968 0.059939682 0.04805985
0.11681579 0.087875396 -0.003099122 0.75226545 0.14609154 0.2642116 -0.06989393 0.307398
0.027409127 0.40446213 -0.05759326 0.36442232 0.034633342 -0.36149228 -0.08587478 0.25091597
0.0767425 -0.08916288 -0.11601105 0.1721451 -0.11682487 0.23064868 -0.01230359 0.03938827
0.32101187 -0.11181893 0.040899057 0.30489498 -0.33855242 0.005164735 0.0054938514 0.15269813
0.0762026 0.32131746 0.15491542 -0.39871755 0.022933772 -0.22518742 0.12740412 -0.4602248
0.039288145 0.2257088 -0.19141483 0.1659288 -0.27802432 -0.09252825 0.22098887 -0.031647053
0.3383654 -0.03897656 0.10965745 0.047568366 -0.21340865 0.22271605 0.24013896 0.14304136
-0.014482945 -0.016647646 -0.017791312 -0.022396658 -0.08770548 -0.06966998 -0.08201435 0.081797525
-0.053943425 -0.13175945 -0.103823796 -0.10350632 -0.03988313 -0.103177235 -0.105450906 -0.055680837
0.0825936 -0.12696347 -0.030163405 0.055962365 0.0645357 -0.007494042 0.034515362 -0.057768427
-0.11310414 -0.08939123 -0.08894916 0.076389715 -0.033945695 -0.15212171 -0.11117375 -0.026230695
0.070362955 -0.029041516 -0.032285806 -0.040689126 -0.041993722 0.055345494 0.026000632 -0.031533834
0.124907136 0.073201455 0.029726336 0.022919955 0.053197443 -0.03151902 -0.028216127 -0.05154603
-0.05620297 -0.01832018 -0.097828835 0.03280115 -0.10108481 -0.09338387 -0.030615067 0.066608354
-0.11633326 -0.0263467 0.03519557 -0.116577774 0.08266702 0.05512363 -0.014242316 -0.012067709
0.083397284 -0.047484282 -0.09055651 0.0020994574 -0.10513536 -0.036571756 -0.022348791 0.03180946
-0.27418438 0.03707262 -0.14706011 -0.22542931 0.010338809 0.04263469 0.066291325 -0.06830496
-0.09123935 -0.100695096 -0.008339668 -0.13673258 -0.10885549 0.056507785 0.09273344 -0.18185219
-0.065446116 0.07919052 0.046042036 -0.02439808 0.055041734 -0.25415656 0.09194125 -0.07428706
-0.10330501 -0.015085927 -0.1977328 -0.045612145 0.048036877 -0.005486147 0.10579123 -0.12428681
-0.09014152 0.037454497 -0.19573765 -0.074083544 -0.25019696 -0.40546116 -0.154371 0.016472923
0.13697708 -0.005293333 -0.13211007 -0.14393546 -0.01636832 0.061117794 -0.08645692 0.04945965
0.01417129 0.0095600225 0.0005183698 -0.033231586 -0.08213169 -0.06145635 -0.018001461 -0.08822248
0.009104904 -0.030462334 -0.05365561 -0.03164003 0.027285354 -0.11583242 0.026381133 0.000466755
-0.045034017 -0.17385253 0.029843953 -0.029599447 0.026957268 -0.1215727 0.10898638 0.09719881
0.03113902 0.0026691156 -0.18071777 0.026181852 0.047394205 0.06942343 -0.08356441 0.06096824
-0.123801276 -0.112758264 -0.010021176 -0.014289803 0.022336675 -0.04833174 0.057921294 -0.10792723
0.09222945 0.083801314 -0.07126376 -0.109606445 -0.0030606107 -0.11744318 -0.085102335 6.490757e-05
-0.09810816 0.14381075 -0.054811694 0.03780419 -0.11072752 0.062317036 -0.061250445 -0.058968075
-0.09362437 -0.0014408213 -0.09244136 -0.12496741 0.05103263 0.020785643 -0.096762985 0.12711054
-0.033294506 0.06811745 -0.032248937 -0.17377907 -0.058013726 -0.065795265 0.092597134 0.0743934
00000000: 70bf fcbc ce54 7d3d 454f bdbd bc6f 1e3c
00000010: e4bd 28bd 4d06 53bd 5083 753d 68da 443d
00000020: 1e3d ef3d 04f8 b33d a41a 4bbb 7894 403f
00000030: 0599 153e be46 873e 8c24 8fbd 4563 9d3e
00000040: 1b89 e03c a915 cf3e e9e6 6bbd 9095 ba3e
00000050: b1db 0d3d 8415 b9be 1edf afbd 0f78 803e
00000060: 2c2b 9d3d 079b b6bd 3497 edbd ce46 303e
00000070: e141 efbd 2b2f 6c3e ff94 49bc 9855 213d
00000080: ab5b a43e 5301 e5bd c585 273d 321b 9c3e
00000090: be56 adbe f03c a93b c405 b43b e65c 1c3e
000000a0: 1c10 9c3d b983 a43e 26a2 1e3e b524 ccbe
000000b0: 9bdf bb3c 8897 66be 3a76 023e 96a2 ebbe
000000c0: 9bec 203d 3520 673e 4002 44be 3de9 293e
000000d0: 3459 8ebe 737f bdbd e84a 623e 57a0 01bd
000000e0: 3b3e ad3e e3a5 1fbd 1694 e03d 0cd7 423d
000000f0: cc87 5abe ad0f 643e fde6 753e 6f79 123e
00000100: e049 6dbc a560 88bc 16bf 91bc 3279 b7bc
00000110: ee9e b3bd 22af 8ebd 24f7 a7bd 7685 a73d
00000120: c8f3 5cbd f3eb 06be 92a1 d4bd 1ffb d3bd
00000130: 7e5c 23bd 964e d3bd a5f6 d7bd 9711 64bd
00000140: d526 a93d b602 02be 3f19 f7bc cb38 653d
00000150: 4b2b 843d 9590 f5bb fb5f 0d3d 969e 6cbd
00000160: 25a3 e7bd c012 b7bd fa2a b6bd 3672 9c3d
00000170: a40a 0bbd cbc5 1bbe 10af e3bd c1e1 d6bc
00000180: 741a 903d 79e8 edbc 1f3e 04bd a4a9 26bd
00000190: 9c01 2cbd f5b1 623d 47ff d43c 9f29 01bd
000001a0: 50cf ff3d a5ea 953d a584 f33c a1c2 bb3c
000001b0: 90e5 593d 171a 01bd 8225 e7bc ee21 53bd
000001c0: 1635 66bd 3414 96bc 7c5a c8bd 805a 063d
000001d0: 8e05 cfbd 0b40 bfbd 73cc fabc f669 883d
000001e0: 2240 eebd 09d5 d7bc 3b29 103d 54c0 eebd
000001f0: 544d a93d 51c9 613d 9a58 69bc a4b7 45bc
00000200: 32cc aa3d e17e 42bd b175 b9bd 0d97 093b
00000210: 3551 d7bd 44cc 15bd d014 b7bc a34a 023d
00000220: e561 8cbe 76d9 173d ed96 16be f1d6 66be
00000230: 1c64 293c b6a1 2e3d bfc3 873d 79e3 8bbd
00000240: b2db babd 3b39 cebd 1aa3 08bc a003 0cbe
00000250: a1ef debd b574 673d 08eb bd3d 7637 3abe
00000260: 9d08 86bd a42e a23d 9396 3c3d 7bde c7bc
00000270: 7173 613d cf20 82be b24b bc3d d023 98bd
00000280: 9491 d3bd f72a 77bc 787a 4abe cdd3 3abd
00000290: 51c2 443d 23c5 b3bb 13a9 d83d 158a febd
000002a0: 1e9c b8bd e369 193d 736f 48be 1db9 97bd
000002b0: d119 80be 9b98 cfbe 6e13 1ebe 39f2 863c
000002c0: b843 0c3e b273 adbb dd47 07be d163 13be
000002d0: db16 86bc a756 7a3d 5310 b1bd 3496 4a3d
000002e0: b32e 683c a4a1 1c3c 35e3 073a d81d 08bd
000002f0: a934 a8bd a7b9 7bbd cd77 93bc fdad b4bd
00000300: bc2c 153c 258c f9bc fcc5 5bbd fa98 01bd
00000310: 8985 df3c 8c39 edbd 3f1d d83c ccb6 f439
00000320: 9775 38bd 6606 32be 4e7b f43c 8a7a f2bc
00000330: 7dd5 dc3c 1cfb f8bd 4034 df3d 2b10 c73d
00000340: 4217 ff3c 54ec 2e3b 140e 39be 537b d63c
00000350: 6d20 423d df2d 8e3d d123 abbd d5b9 793d
00000360: 868b fdbd ceed e6bd dc2f 24bc c71f 6abc
00000370: 67fb b63c 81f7 45bd e13e 6d3d f408 ddbd
00000380: cbe2 bc3d 06a0 ab3d bcf2 91bd 5879 e0bd
00000390: 8794 48bb 0d86 f0bd 224a aebd fc1e 8838
000003a0: eeec c8bd 2043 133e 3a82 60bd 91d8 1a3d
000003b0: 1cc5 e2bd 2640 7f3d bfe1 7abd 8288 71bd
000003c0: 22be bfbd f1d9 bcba e551 bdbd eaee ffbd
000003d0: 9707 513d a746 aa3c ac2b c6bd 4429 023e
000003e0: d25f 08bd 2981 8b3d 7617 04bd 24f3 31be
000003f0: cd9f 6dbd abbf 86bd 91a3 bd3d 915b 983d

critic.2.bias f4 [64]
0.15099962 -0.13427956 -0.11267358 -0.09698897 -0.2492797 -0.080248065 -0.13822596 -0.01943586
-0.16422457 -0.13765204 0.09718196 0.09006988 -0.10475335 0.23803093 -0.08770537 -0.07489952
-0.11349579 -0.16138026 -0.034543943 -0.106437005 -0.08627061 -0.047933035 -0.18040344 -0.19532579
-0.01418805 -0.09956431 -0.10155869 -0.21021418 -0.07769568 -0.019894006 -0.11595371 -0.06956155
-0.08064443 -0.10695784 0.07775909 0.06678398 -0.18986216 -0.20218891 -0.031450804 -0.12439743
-0.034574997 -0.08008965 -0.084893174 -0.030633962 -0.097055435 -0.080650054 -0.17533492 -0.11381901
-0.066634275 -0.025306236 0.16107579 -0.13377738 -0.1618953 -0.16461974 -0.099924654 -0.11952922
0.02371229 0.16548003 -0.2600909 -0.11687885 -0.119255885 -0.066625476 -0.17281713 -0.19992857
00000000: a59f 1a3e 9580 09be 68c1 e6bd 27a2 c6bd
00000010: 2d43 7fbe 1959 a4bd 1b8b 0dbe f437 9fbc
00000020: 7c2a 28be a8f4 0cbe 5607 c73d 8f76 b83d
00000030: ed88 d6bd 61be 733e df9e b3bd eb64 99bd
00000040: 7b70 e8bd de40 25be f37d 0dbd a5fb d9bd
00000050: a5ae b0bd 6e55 44bd aebb 38be 7c03 48be
00000060: ff74 68bc 5fe8 cbbd 01fe cfbd 6342 57be
00000070: ea1e 9fbd c1f8 a2bc 2479 edbd 4976 8ebd
00000080: e828 a5bd b60c dbbd 2840 9f3d 0ac6 883d
00000090: 3a6b 42be 9c0a 4fbe 8fd2 00bd 14c4 febd
000000a0: 839e 0dbd 0b06 a4bd 79dc adbd 13f4 fabc
000000b0: 00c5 c6bd db2b a5bd ff8a 33be f119 e9bd
000000c0: 8d77 88bd 064f cfbc 0df1 243e f0fc 08be
000000d0: e2c7 25be 1492 28be 4ca5 ccbd bccb f4bd
000000e0: 4740 c23c 9973 293e a22a 85be 2e5e efbd
000000f0: 6e3c f4bd f072 88bd f9f6 30be 13ba 4cbe

critic.4.weight f4 [1, 64]
-0.095354035 -0.018070024 -0.0010767416 0.008849737 -0.039659753 -0.035247035 -0.0027543397 0.10020913
0.06445794 0.034126084 0.06895153 0.088952295 -0.0012771678 0.14924793 -0.006855184 0.016716527
-0.058216114 -0.016751396 -0.04094566 -0.013183994 0.0047134017 0.012908568 0.0059349565 0.11340372
-0.0005606026 0.011814721 0.12271515 0.009094471 0.00589172 -0.15339708 -0.03697008 0.00043074074
-0.030898988 0.062906116 -0.05704672 0.13289739 0.00983403 -0.007883309 -0.16045205 0.039036788
-0.009827024 0.08366624 -0.020008033 0.000968511 -0.03982563 0.011597544 0.02370513 0.0037615765
-0.078231804 -0.11202194 -0.1037132 0.055269305 0.05009554 0.033807524 0.012353376 0.02266458
-0.008603192 0.2569103 -0.0006040819 0.019088976 -0.15528415 0.03937103 0.003492629 -0.09676586
00000000: fa48 c3bd 9607 94bc 7421 8dba 7dfe 103c
00000010: 4472 22bd 325f 10bd 2782 34bb 723a cd3d
00000020: 8602 843d cbc7 0b3d 7636 8d3d 9f2c b63d
00000030: a466 a7ba 73d4 183e 74a1 e0bb 19f1 883c
00000040: 0574 6ebd 393a 89bc a3b6 27bd ae01 58bc
00000050: e172 9a3b 757e 533c 067a c23b 3640 e83d
00000060: 67f5 12ba 8892 413c 1552 fb3d fa00 153c
00000070: 540f c13b 2014 1dbe f06d 17bd 0bd5 e139
00000080: e01f fdbc ecd4 803d d2a9 69bd 4116 083e
00000090: e91e 213c ff28 01bc 8b4d 24be 0ae5 1f3d
000000a0: 8701 21bc 3559 ab3d e3e7 a3bc ace3 7d3a
000000b0: 3320 23bd a003 3e3c 4331 c23c c884 763b
000000c0: ff37 a0bd c26b e5bd 9667 d4bd 1162 623d
000000d0: fb30 4d3d c279 0a3d d065 4a3c 12ab b93c
000000e0: 67f4 0cbc bf89 833e 405b 1eba 7c60 9c3c
000000f0: cf02 1fbe 8443 213d 97e4 643b 2e2d c6bd
