RL/CC2-Cardiff-implementation/GT-Cardiff-CC2/Models/PPOxCCE-C1/2000.pth (torch, 78850 bytes, 11 tensors)

actor.0.weight f4 [64, 62]
-0.0009508271 0.0681284 -0.10452683 -0.093464345 0.010206074 0.089939 -0.012985732 0.07285316
0.087815 0.06873359 -0.018711394 0.09933218 -0.09365982 -0.14940086 -0.11265951 0.0025185153
0.05020762 0.076202966 -0.086098604 -0.055303834 0.04612862 0.10545937 -0.026136648 0.09503569
-0.020470306 0.013438404 0.11499559 -0.11781425 -0.18744643 -0.10669501 -0.06785623 0.025231484
-0.082318895 -0.058462333 -0.08872742 -0.11894336 -0.11177348 0.07153085 0.033380184 0.057180993
-0.03069077 -0.14568242 -0.02409178 -0.16645043 -0.13923651 -0.12674975 0.22908017 0.021639444
0.017660333 0.13146499 0.17106147 0.012375032 0.050404087 -0.073660165 0.21656513 -0.1443732
-0.113577284 -0.09846389 -0.047099236 -0.08519951 -0.016920011 0.04356357 -0.07522884 0.03836764
0.069719516 -0.01602962 0.025139406 0.060551412 -0.09839504 0.059442848 -0.057745457 0.049441546
-0.01892344 0.2302304 0.054633662 0.053737253 0.11507827 -0.09729453 0.011683059 -0.079451956
-0.11835829 0.112838656 0.09656578 -0.12668617 0.023770874 -0.021394443 -0.020899286 -0.058135178
0.048838682 -0.07522262 0.23401362 0.20815536 0.2697 -0.00036816875 -0.1256965 -0.08238459
0.06341307 0.026581297 -0.16805108 -0.15504485 0.10824566 0.09564035 0.008660186 -0.10779324
-0.08634737 0.06633112 -0.05042703 -0.06409632 -0.15512316 0.015685815 -0.09849439 -0.035705205
-0.27789432 -0.053223696 0.08703317 -0.2601285 0.031968553 -0.05096494 0.036779013 0.030121163
0.06854326 0.09651146 -0.1967204 -0.009507379 -0.12182473 -0.07527382 -0.03179192 -0.061863456
0.023001894 0.15513985 -0.15043424 0.14167431 0.115652494 0.17146681 0.1182977 0.14261787
-0.021884143 -0.14758259 -0.13463089 -0.004700682 0.12030038 0.08065218 0.12057564 -0.009184859
-0.11408694 -0.060207866 0.086475044 -0.000823276 -0.06312495 -0.09732169 -0.11885332 -0.10718915
-0.051502805 0.15160455 -0.06636998 -0.18527192 0.0792204 -0.099378794 -0.026849132 -0.051495075
-0.027669286 -0.055599093 -0.07184191 0.07529367 -0.09427065 0.013100036 -0.29361045 -0.04695316
-0.056448255 0.14809877 0.21601449 -0.008689438 0.21232918 0.18402043 -0.13355272 0.16433568
-0.014655112 0.062188026 0.24701045 -0.23631589 -0.08808357 -0.026589852 0.25869614 -0.11166568
0.10372182 0.1526384 -0.030540317 -0.026708819 -0.10465844 0.06881427 0.14167356 0.00089609646
-0.14971721 -0.058599748 -0.13471457 -0.14727055 -0.22392537 -0.13039812 0.11955989 0.072518125
0.11755077 0.22029231 -0.09600194 -0.08718714 -0.07374409 0.08889163 -0.0456521 0.10712317
0.045924205 0.01608152 -0.00094539195 -0.02510558 0.015934242 -0.028999802 -0.11374429 0.18591793
0.14098261 0.035564095 0.10255168 -0.10306653 -0.009119395 0.12563345 0.04784913 0.13778824
0.09674206 0.010230596 -0.05526469 -0.022170644 -0.160805 0.11969079 -0.16456106 -0.018817019
-0.045729317 0.1865672 0.06903085 -0.09155929 -0.19976759 -0.15056485 -0.053825844 0.023237962
-0.0055999854 0.09535945 -0.09532117 0.00020330961 0.011664348 -0.123417564 0.13224834 -0.2558322
0.0017503793 -0.02159215 -0.06688753 0.016785737 0.08906862 0.13592336 0.060345694 -0.11549054
00000000: ed40 79ba e786 8b3d 2a12 d6bd 3c6a bfbd
00000010: 6137 273c f031 b83d 1cc2 54bc 0a34 953d
00000020: 5ad8 b33d 32c4 8c3d a348 99bc ac6e cb3d
00000030: b8d0 bfbd 8afc 18be 07ba e6bd ad0d 253b
00000040: 81a6 4d3d 4d10 9c3d 7754 b0bd 4686 62bd
00000050: 5df1 3c3d 15fb d73d 861c d6bc 12a2 c23d
00000060: 58b1 a7bc c02c 5c3c cf82 eb3d 9948 f1bd
00000070: f5f1 3fbe ea82 dabd 35f8 8abd 42b2 ce3c
00000080: cf96 a8bd 3376 6fbd b9b6 b5bd 9498 f3bd
00000090: 7fe9 e4bd c47e 923d a9b9 083d 9e36 6a3d
000000a0: 366b fbbc c62d 15be 205c c5bc fb71 2abe
000000b0: 0494 0ebe b0ca 01be fe93 6a3e 3445 b13c
000000c0: 67ac 903c c29e 063e bd2a 2f3e a5c0 4a3c
000000d0: 8474 4e3d 24db 96bd 40c3 5d3e 91d6 13be
000000e0: 359b e8bd 70a7 c9bd 21eb 40bd 157d aebd
000000f0: d69b 8abc b76f 323d 9411 9abd 6327 1d3d
00000100: 1bc9 8e3d 8d50 83bc 28f1 cd3c c204 783d
00000110: 5783 c9bd 587a 733d 8086 6cbd 3883 4a3d
00000120: 5405 9bbc 85c1 6b3e 8cc7 5f3d 981b 5c3d
00000130: 28ae eb3d 5b42 c7bd 4d6a 3f3c b5b7 a2bd
00000140: d565 f2bd f417 e73d 48c4 c53d 05ba 01be
00000150: 23bb c23c 6643 afbc fb34 abbc 271f 6ebd
00000160: 120b 483d 510e 9abd 44a1 6f3e ae26 553e
00000170: 1e16 8a3e c606 c1b9 95b6 00be 40b9 a8bd
00000180: b6de 813d 05c1 d93c 9515 2cbe 14c4 1ebe
00000190: e7af dd3d 16df c33d 74e3 0d3c b4c2 dcbd
000001a0: e4d6 b0bd 9cd8 873d 938c 4ebd ee44 83bd
000001b0: 9bd8 1ebe 8a7f 803c 6db7 c9bd 9f3f 12bd
000001c0: 2a48 8ebe 1701 5abd 723e b23d 902f 85be
000001d0: 75f1 023d 9dc0 50bd 97a5 163d a8c0 f63c
000001e0: 6960 8c3d cda7 c53d 1371 49be d6c4 1bbc
000001f0: 3e7f f9bd 2929 9abd 3f38 02bd 8964 7dbd
00000200: 786e bc3c fbdc 1e3e 6f0b 1abe 1213 113e
00000210: 37db ec3d ff94 2f3e 1146 f23d 6b0a 123e
00000220: 6046 b3bc e41f 17be aedc 09be 2e08 9abb
00000230: 0c60 f63d f82c a53d 5cf0 f63d 177c 16bc
00000240: 6aa6 e9bd 869c 76bd d419 b13d 1ed1 57ba
00000250: a747 81bd 9850 c7bd 5f69 f3bd fc85 dbbd
00000260: 9bf4 52bd 393e 1b3e fcec 87bd ecb7 3dbe
00000270: 4e3e a23d 1c87 cbbd b6f2 dbbc 80ec 52bd
00000280: b3aa e2bc e0bb 63bd da21 93bd 9133 9a3d
00000290: f810 c1bd 89a1 563c 1c54 96be f551 40bd
000002a0: 4936 67bd 34a7 173e e732 5d3e 255e 0ebc
000002b0: d26c 593e da6f 3c3e 0bc2 08be 9d47 283e
000002c0: ff1b 70bc dfb8 7e3d 4ff0 7c3e cbfc 71be
000002d0: 2965 b4bd f6d2 d9bc d273 843e fab0 e4bd
000002e0: 1b6c d43d 3e4d 1c3e b02f fabc 74cc dabc
000002f0: 2a57 d6bd 7fee 8c3d e012 113e 04e8 6a3a
00000300: 784f 19be 4a06 70bd 9ef2 09be 17ce 16be
00000310: b14c 65be 1687 05be d1db f43d 6284 943d
00000320: 75be f03d 4f94 613e aa9c c4bd 2c8f b2bd
00000330: 2407 97bd d10c b63d b2fd 3abd 6463 db3d
00000340: 051b 3c3d 64bd 833c 2ed4 77ba 38aa cdbc
00000350: 8788 823c fe90 edbc c4f2 e8bd 4561 3e3e
00000360: bf5d 103e a8ab 113d 9d06 d23d 8b14 d3bd
00000370: 8469 15bc 0ea6 003e 73fd 433d 5c18 0d3e
00000380: b320 c63d 3b9e 273c 3a5d 62bd 369f b5bc
00000390: 11aa 24be 7220 f53d b282 28be 2626 9abc
000003a0: aa4e 3bbd 790b 3f3e 0c60 8d3d 7083 bbbd
000003b0: e08f 4cbe ac2d 1abe 7d78 5cbd 8a5d be3c
000003c0: 1580 b7bb d14b c33d bf37 c3bd 822f 5539
000003d0: d21b 3f3c 59c2 fcbd 1c6c 073e 70fc 82be
000003e0: fc6c e53a 05e2 b0bc 54fc 88bd 3e82 893c
000003f0: 9c69 b63d 7e2f 0b3e 0c2d 773d 4e86 ecbd

actor.0.bias f4 [64]
-0.07436144 0.063262165 0.1157569 -0.07922957 -0.023759084 -0.16043259 0.09060233 0.017084263
0.03543632 -0.012666276 0.039902337 -0.037344716 -0.018931579 0.047090255 -0.11877875 0.038456842
0.052266806 0.11202275 0.043141197 -0.16762882 -0.09746023 -0.087078266 -0.043015193 -0.0888386
0.01468047 0.048996054 0.057932835 0.18592349 0.02809857 -0.09815725 -0.0354384 0.066928215
0.00030527305 -0.00764144 0.1422932 -0.07767881 0.08072123 0.102016486 0.0132187195 -0.1616749
0.22630522 0.0069325943 0.03163608 0.007990817 0.14651862 0.14630872 -0.025463339 0.16003004
-0.017307965 0.035866212 0.052955367 -0.16931388 -0.032935753 -0.016967008 0.20380333 -0.009559878
0.15935999 0.058392487 -0.19169714 0.043905433 -0.06290454 -0.0815258 -0.051953994 -0.082745545
00000000: d04a 98bd 988f 813d f411 ed3d 1d43 a2bd
00000010: 69a2 c2bc 7148 24be b78d b93d 4cf4 8b3c
00000020: ad25 113d 3686 4fbc a270 233d c6f6 18bd
00000030: 6616 9bbc b6e1 403d 4642 f3bd ec84 1d3d
00000040: b815 563d 2f6c e53d d3b4 303d e4a6 2bbe
00000050: 3b99 c7bd 1756 b2bd b330 30bd 03f1 b5bd
00000060: 5b86 703c 16b0 483d fb4a 6d3d ba62 3e3e
00000070: f92e e63c ab06 c9bd db27 11bd a911 893d
00000080: 0e0d a039 0b65 fabb 4fb5 113e 1116 9fbd
00000090: 2c51 a53d 05ee d03d 5493 583c 1b8e 25be
000000a0: 8ebc 673e d12a e33b d694 013d eaeb 023c
000000b0: fa08 163e f4d1 153e 7e98 d0bc eade 233e
000000c0: 6fc9 8dbc 73e8 123d bae7 583d 9e60 2dbe
000000d0: a4e7 06bd 65fe 8abc d2b1 503e 09a1 1cbc
000000e0: 442f 233e f62c 6f3d 414c 44be 2fd6 333d
000000f0: 18d4 80bd 00f7 a6bd b6cd 54bd 7f76 a9bd

actor.2.weight f4 [64, 64]
-0.022060698 -0.114442125 0.12083591 -0.07456178 0.060296196 0.19091052 0.07139693 0.040171165
-0.16778359 0.07453707 -0.09961322 -0.0004664266 0.23666435 -0.027858099 0.06623701 0.06177583
-0.0058033345 -0.07137163 0.054398023 -0.0023903393 0.1221033 -0.0019067231 0.07091876 -0.077695586
-0.02584657 0.076942384 -0.043177456 0.039305083 -0.011561632 0.14301185 0.07932536 0.16439207
0.0773111 0.11419165 -0.058092367 -0.043224253 -0.113258764 -0.1042256 -0.13601299 -0.02366792
-0.1716631 -0.0546662 0.08110217 -0.15827803 -0.02859521 0.106378324 0.016362019 0.15318434
-0.1763932 0.024616554 -0.03245398 0.07554613 0.08879525 0.14538996 0.15341173 -0.2519554
-0.105861485 0.012051076 0.10567318 -0.16604196 0.044638667 0.073821515 0.07278697 -0.23029657
0.03173242 0.08316105 -0.060573038 0.055312198 -0.05377393 -0.03733546 0.17237191 -0.13911834
0.03420882 0.10561772 0.09466956 -0.064663656 -0.16008589 -0.019084176 -0.34496033 -0.19715326
-0.043533962 0.07044134 -0.003122514 0.06442632 -0.13330564 0.0140581075 -0.017415779 0.08562103
0.10646112 0.1445232 -0.11728699 0.17371279 -0.027292833 -0.026370062 -0.117506795 0.088175826
0.027326131 -0.073635206 -0.026734143 -0.09642943 0.05720272 -0.24025773 0.20628282 0.05104333
0.0368499 0.035929937 -0.01872908 0.14409691 0.1284122 0.016444398 -0.03418552 -0.15669116
-0.003365771 0.18466036 -0.15832418 0.055769555 0.21564044 -0.08381538 -0.11569627 0.4112133
-0.006849513 0.05035354 -0.07699977 0.12645182 -0.07167892 0.11520542 0.06446877 -0.0057651424
-0.1375404 0.039906833 -0.10451757 0.022078525 0.056703422 0.033003226 -0.045842767 -0.056727078
-0.10642032 -0.05176505 -0.09339569 -0.19568983 0.024957167 0.04734839 -0.045199443 0.021495186
0.124513425 0.04506866 -0.10469661 0.07356138 -0.072274975 -0.0109760985 -0.17407346 0.03459452
-0.25310814 -0.0286797 0.029219963 -0.07891447 0.08895293 -0.046399053 0.08012292 -0.03719957
-0.06763421 0.0083756475 -0.21286944 -0.14746991 -0.02455315 0.042816143 -0.12235048 -0.15848215
-0.02621708 -0.01765803 -0.07017679 -0.005313338 -0.10495439 -0.017578503 -0.024023809 -0.03697946
0.043993402 0.044077005 -0.06816424 -0.06260024 -0.090695865 -0.058135744 -0.09625 -0.23463586
-0.15079828 0.035505634 0.15257232 -0.0020780542 -0.06640937 -0.0721313 -0.07375042 -0.12749451
-0.011681945 0.07518547 0.08276981 0.12523715 -0.095819294 0.06788305 -0.124391615 -0.05607499
0.15211098 0.065628394 -0.004567339 -0.11911725 -0.035291024 0.09896325 -0.12881824 -0.16007844
0.1737966 0.019565506 0.26413944 0.13363253 -0.07587526 0.0936024 0.0027189264 -0.09861251
-0.066338174 0.18846264 0.088456914 -0.0946545 -0.05580028 -0.13099283 0.00096842623 0.081716776
0.173842 -0.09994652 0.1793082 0.027488798 -0.025298677 -0.002061465 0.13663714 -0.05316926
-0.13321519 0.07598131 -0.08573546 -0.057257626 0.03465444 0.0811181 -0.15120323 0.011996908
-0.023167644 0.08373921 -0.052888613 -0.008712059 -0.15865712 -0.15212177 -0.062428348 -0.20626734
-0.045644 0.10236046 -0.1046229 -0.025115883 0.13331042 -0.15983336 0.08600688 0.08836234
00000000: a3b8 b4bc a260 eabd d178 f73d d9b3 98bd
00000010: 25f9 763d 0c7e 433e 8e38 923d 858a 243d
00000020: 76cf 2bbe e4a6 983d 0402 ccbd b88a f4b9
00000030: 2458 723e ab36 e4bc 45a7 873d a708 7d3d
00000040: e629 bebb 4a2b 92bd 76d0 5e3d 3da7 1cbb
00000050: 4c11 fa3d 03eb f9ba db3d 913d dd1e 9fbd
00000060: 30bc d3bc f893 9d3d d8da 30bd 5efe 203d
00000070: 006d 3dbc b371 123e 5675 a23d 6556 283e
00000080: 4855 9e3d 50dd e93d 43f2 6dbd ea0b 31bd
00000090: 36f4 e7bd 3b74 d5bd fd46 0bbe 3ae3 c1bc
000000a0: 74c8 2fbe aae9 5fbd e518 a63d a313 22be
000000b0: 8040 eabc e1dc d93d a409 863c 5bdc 1c3e
000000c0: 6ba0 34be a8a8 c93c 77ee 04bd eeb7 9a3d
000000d0: 49da b53d 1be1 143e f717 1d3e 4c00 81be
000000e0: e8cd d8bd e071 453c 2e6b d83d e706 2abe
000000f0: 09d7 363d bc2f 973d 5611 953d ddd2 6bbe
00000100: dbf9 013d 5750 aa3d 6f1b 78bd 0b8f 623d
00000110: 0d42 5cbd 11ed 18bd 4382 303e 0a75 0ebe
00000120: 8c1e 0c3d 1a4e d83d 1de2 c13d 616e 84bd
00000130: 8eed 23be 6b56 9cbc a49e b0be 8be2 49be
00000140: ab50 32bd 8d43 903d 18a3 4cbb f2f1 833d
00000150: 4681 08be fa53 663c 89ab 8ebc 145a af3d
00000160: 4a08 da3d e4fd 133e 2934 f0bd c4e1 313e
00000170: 3895 dfbc 0706 d8bc 67a7 f0bd 8795 b43d
00000180: 0ddb df3c 0ece 96bd 9001 dbbc cb7c c5bd
00000190: 664d 6a3d 1f06 76be ce3b 533e d012 513d
000001a0: ecef 163d 452b 133d ba6d 99bc 248e 133e
000001b0: 7d7e 033e 67b6 863c 1e06 0cbd a673 20be
000001c0: 4494 5cbb 9b17 3d3e bc1f 22be 9e6e 643d
000001d0: d9d0 5c3e 66a7 abbd 2af2 ecbd 8d8a d23e
000001e0: e171 e0bb 833f 4e3d 0eb2 9dbd 967c 013e
000001f0: 66cc 92bd d2f0 eb3d 3408 843d 85e9 bcbb
00000200: 64d7 0cbe 5975 233d 4f0d d6bd 06de b43c
00000210: d941 683d 642e 073d a0c5 3bbd a75a 68bd
00000220: e6f2 d9bd 9707 54bd 3d46 bfbd ea62 48be
00000230: f972 cc3c 63f0 413d 0d23 39bd ac16 b03c
00000240: e500 ff3d ea99 383d 2d6b d6bd 59a7 963d
00000250: e704 94bd 18d5 33bc 5040 32be fcb2 0d3d
00000260: 6497 81be b1f1 eabc b45e ef3c e99d a1bd
00000270: f42c b63d ef0c 3ebd 7c17 a43d 945e 18bd
00000280: ce83 8abd 033a 093c 72fa 59be 5a02 17be
00000290: b023 c9bc fb5f 2f3d e392 fabd 2549 22be
000002a0: 34c5 d6bc 93a7 90bc d9b8 8fbd 821b aebb
000002b0: 54f2 d6bd cb00 90bc 94cd c4bc c677 17bd
000002c0: 6d32 343d 178a 343d b199 8bbd 8e34 80bd
000002d0: c1be b9bd bf1f 6ebd b81e c5bd 6244 70be
000002e0: dd6a 1abe 5b6e 113d eb3b 1c3e f72f 08bb
000002f0: a301 88bd 93b9 93bd 760a 97bd ec8d 02be
00000300: a165 3fbc d7fa 993d 3883 a93d 2b3e 003e
00000310: e83c c4bd 4506 8b3d 08c1 febd e4ae 65bd
00000320: fbc2 1b3e 2e68 863d 9ea9 95bb bff3 f3bd
00000330: 528d 10bd 3fad ca3d eee8 03be 9aeb 23be
00000340: bcf7 313e d747 a03c 493d 873e f7d6 083e
00000350: 7d64 9bbd 9db2 bf3d 0430 323b 5bf5 c9bd
00000360: 4fdc 87bd 5afc 403e e628 b53d 38da c1bd
00000370: d68e 64bd fc22 06be fcdd 7d3a 205b a73d
00000380: a303 323e c3b0 ccbd 929c 373e 3030 e13c
00000390: 2c3f cfbc a519 07bb 9bea 0b3e 03c8 59bd
000003a0: 9069 08be 179c 9b3d 1396 afbd f986 6abd
000003b0: d0f1 0d3d 3f21 a63d 05d5 1abe ae8e 443c
000003c0: 12ca bdbc 777f ab3d bba1 58bd 06bd 0ebc
000003d0: 0377 22be cfc5 1bbe deb4 7fbd bf37 53be
000003e0: 34f5 3abd 5ca2 d13d 8844 d6bd d3bf cdbc
000003f0: 8782 083e 5bab 23be 6024 b03d 51f7 b43d

actor.2.bias f4 [64]
-0.07439833 0.0029804343 -0.03701976 -0.09432514 0.16219394 0.016411906 -0.14107233 -0.022815013
-0.102926485 0.057566583 -0.09801874 0.013951439 -0.0012583709 -0.02487311 0.09074555 0.07100827
-0.11274315 0.11702438 0.09326888 0.11230527 -0.10232306 0.13204946 0.069027744 0.0059845857
0.07720621 0.070705466 0.05233151 0.079413086 -0.1483368 -0.03182731 0.0915798 -0.0515527
0.08886823 0.12693307 -0.043682035 0.04894306 0.019758172 -0.03432017 0.17711861 -0.045821737
0.1331439 -0.17990664 0.015992267 0.035253003 0.1465158 0.0027548182 -0.061150488 -0.08932241
-0.0068409103 0.054736942 0.019344047 -0.050209753 0.03879635 0.089462265 -0.103101216 0.15032212
0.05147075 0.27625147 0.08475774 0.10469259 -0.09960689 0.09215855 0.066514336 0.11541613
00000000: 275e 98bd 6453 433b 08a2 17bd 8a2d c1bd
00000010: 2b16 263e 4372 863c 4475 10be 8de6 babc
00000020: 1fcb d2bd f0ca 6b3d 0dbe c8bd 9494 643c
00000030: ecef a4ba b1c2 cbbc ced8 b93d c96c 913d
00000040: e1e5 e6bd 7aaa ef3d c103 bf3d 4e00 e63d
00000050: c18e d1bd f937 073e 6b5e 8d3d 581a c43b
00000060: 4a1e 9e3d 07ce 903d 9159 563d 54a3 a23d
00000070: 9ae5 17be 5a5d 02bd 318e bb3d ed28 53bd
00000080: 8c00 b63d befa 013e efeb 32bd 8578 483d
00000090: e4db a13c 4e93 0cbd 955e 353e 93af 3bbd
000000a0: e056 083e 7239 38be 3702 833c 7465 103d
000000b0: 3d08 163e 2e8a 343b ef78 7abd abee b6bd
000000c0: b729 e0bb d833 603d 6877 9e3c bea8 4dbd
000000d0: ece8 1e3d fe37 b73d bb26 d3bd 0bee 193e
000000e0: fed2 523d d570 8d3e 7795 ad3d 1269 d63d
000000f0: b2fe cbbd 9fbd bc3d ab38 883d 4b5f ec3d

actor.4.weight f4 [36, 64]
-0.08032008 -0.054559276 0.109165445 -0.16725585 -0.11988428 -0.07815922 0.07170194 0.028840257
-0.22533907 -0.04223586 -0.08237169 -0.0663121 -0.19813089 0.058196016 -0.22903241 0.12981507
0.20030051 0.030810665 0.14589502 0.00047089264 0.12446925 -0.3674544 -0.11694598 -0.0064846245
-0.057761647 -0.17584175 -0.03161591 0.0851958 -0.10625132 -0.227561 0.20860103 -0.089412905
-0.094356835 -0.18628293 0.040197637 -0.12406247 0.04823402 -0.076006 -0.036362108 0.15970048
-0.24257435 0.06866105 -0.1715292 -0.2906605 -0.0857661 0.03175307 -0.21671139 0.044228528
0.10721834 -0.08436848 -0.1219588 -0.07096972 0.07166961 -0.27058196 0.046326097 0.14684245
-0.045383304 -0.5595685 -0.22093563 -0.21835504 -0.11505478 -0.071694456 -0.24590419 -0.11138266
-0.17658767 0.22703348 0.10218466 0.03184314 0.0101758465 -0.09812008 0.0066053765 0.034558266
0.03299502 0.15521257 0.07425409 0.09279322 0.032751277 0.0004924598 0.2648698 -0.008990109
-0.2059298 0.0862896 -0.149034 -0.11290147 0.027128614 0.15248357 0.15067193 -0.08292748
-0.21322037 0.040475078 0.13936406 0.037546467 0.099555895 -0.051230088 -0.22014251 -0.10636764
0.036597118 -0.26191643 0.2685912 -0.14482442 0.13527152 0.11891312 0.15313527 -0.11133943
0.13999276 -0.08480718 -0.056540493 -0.04543682 0.050453138 0.22462209 -0.18149279 0.06099262
-0.121565394 0.12870237 0.061144188 -0.17828931 -0.022129308 0.26613653 0.09201017 -0.023992468
0.056241617 0.1614978 -0.074185915 0.12859 0.16636957 0.0631085 0.052957382 -0.21999484
0.242639 -0.020436343 0.22143967 -0.07834044 -0.02842431 0.051934335 -0.032356396 -0.15079099
-0.05749812 -0.013974177 0.061541095 0.16194719 0.35633564 -0.059807 0.00895707 0.008469248
0.22052687 -0.006754671 0.45505637 0.17146668 0.2766223 -0.09372666 0.09110427 -0.07040341
0.014203403 -0.07359923 0.1097871 0.20944515 0.2705418 -0.056535516 0.32668954 -0.4302619
-0.114068106 -0.06468705 0.055368338 0.05851154 0.006490415 0.03415827 0.13690458 0.24499382
0.2121136 0.1321681 -0.11762437 -0.00300167 -0.0012647759 0.05851978 -0.006229727 0.0785729
0.1587029 0.16931091 -0.0943247 0.20468293 0.23667507 0.044442732 0.035569917 0.3265847
-0.25464466 -0.338455 -0.036299273 -0.056253485 0.051408578 0.259337 -0.24495082 -0.0075431396
0.23955885 0.043301955 0.0026372743 -0.007415883 0.143121 0.04010206 0.08282014 0.09265135
-0.15089278 0.18726763 0.08760499 0.050740223 0.3644028 -0.01038143 0.066464454 0.22256783
-0.03706658 -0.022863174 0.0007860048 0.04876904 0.030383432 -0.02112654 -0.07682813 0.10636178
-0.05601014 -0.15359138 0.030126395 -0.06035061 0.16505165 0.04407473 0.260769 -0.24215955
0.22293015 0.01674642 0.07994523 -0.16966946 -0.018803865 0.085200496 0.06818137 -0.08593538
0.09793641 0.17560777 0.07235329 -0.29153785 -0.05713335 0.14110965 -0.094290875 -0.022576526
0.023227744 0.104262315 0.086547464 -0.041082583 0.13944587 0.20085132 0.030284729 0.11084922
0.07577083 -0.06883532 -0.030222801 0.016214091 -0.058352683 0.21905664 -0.27253678 -0.06123813
00000000: db7e a4bd 8c79 5fbd 2292 df3d 1e45 2bbe
00000010: e485 f5bd f111 a0bd 77d8 923d 6742 ec3c
00000020: 49bf 66be 82ff 2cbd 7db2 a8bd a3ce 87bd
00000030: d3e2 4abe f25e 6e3d 7987 6abe 3eee 043e
00000040: 941b 4d3e a666 fc3c 8165 153e 24e2 f639
00000050: bce9 fe3d fc22 bcbe 6081 efbd f97c d4bb
00000060: 7a97 6cbd dc0f 34be af7f 01bd 237b ae3d
00000070: 4b9a d9bd c005 69be 829b 553e 1d1e b7bd
00000080: 283e c1bd f4c0 3ebe 47a6 243d 7714 febd
00000090: 0991 453d 09a9 9bbd 6ff0 14bd 8688 233e
000000a0: 6965 78be 2a9e 8c3d 5aa5 2fbe 74d1 94be
000000b0: 23a6 afbd 820f 023d 97e9 5dbe f928 353d
000000c0: 4a95 db3d 62c9 acbd 89c5 f9bd 9358 91bd
000000d0: 84c7 923d b889 8abe 6fc0 3d3d de5d 163e
000000e0: d8e3 39bd e23f 0fbf f33c 62be 7798 5fbe
000000f0: d7a1 ebbd 8bd4 92bd 4fce 7bbe 981c e4bd
00000100: 66d3 34be 777b 683e 3146 d13d f46d 023d
00000110: 98b8 263c 2ef3 c8bd ea71 d83b f88c 0d3d
00000120: c925 073d 0bf0 1e3e 8712 983d 5f0a be3d
00000130: 3426 063d 6b18 013a 049d 873e 404b 13bc
00000140: 43df 52be 9ab8 b03d 5e9c 18be e338 e7bd
00000150: d43c de3c a724 1c3e be49 1a3e e2d5 a9bd
00000160: 7156 5abe 32c9 253d 74b5 0e3e 53ca 193d
00000170: f6e3 cb3d a4d6 51bd 0a6d 61be 47d7 d9bd
00000180: dce6 153d e919 86be c984 893e da4c 14be
00000190: 9e84 0a3e b988 f33d 7ecf 1c3e ed05 e4bd
000001a0: 435a 0f3e 63af adbd 0197 67bd f51b 3abd
000001b0: f3a7 4e3d 5503 663e 3fd9 39be 66d3 793d
000001c0: 47f7 f8bd 8eca 033e 5472 7a3d 7991 36be
000001d0: 8648 b5bc 0c43 883e d46f bc3d da8b c4bc
000001e0: 9c5d 663d ae5f 253e c9ee 97bd 19ad 033e
000001f0: c95c 2a3e 073f 813d d7e9 583d 5446 61be
00000200: 5c76 783e 1e6a a7bc 15c1 623e f470 a0bd
00000210: 19da e8bc 19b9 543d 2488 04bd f468 1abe
00000220: 2683 6bbd f2f3 64bc 8412 7c3d 7cd5 253e
00000230: a071 b63e 2ff8 74bd adc0 123c 9ac2 0a3c
00000240: ccd1 613e 4a56 ddbb 26fd e83e f694 2f3e
00000250: 70a1 8d3e c3f3 bfbd e094 ba3d aa2f 90bd
00000260: 64b5 683c 31bb 96bd 0fd8 e03d ca78 563e
00000270: 7484 8a3e c991 67bd da43 a73e 4a4b dcbe
00000280: 8a9c e9bd a57a 84bd e9c9 623d cca9 6f3d
00000290: 8cad d43b 8be9 0b3d b730 0c3e a9df 7a3e
000002a0: 4f34 593e 1357 073e 0ce5 f0bd aab7 44bb
000002b0: d6c6 a5ba 70b2 6f3d bd22 ccbb d4ea a03d
000002c0: 0383 223e d75f 2d3e 4f2d c1bd 6798 513e
000002d0: f35a 723e 9509 363d c3b1 113d 1c36 a73e
000002e0: c960 82be f949 adbe 8cae 14bd 0e6a 66bd
000002f0: cd91 523d d2c7 843e 63d4 7abe 712c f7bb
00000300: ea4e 753e 645d 313d 1fd6 2c3b ef00 f3bb
00000310: 508e 123e 0f42 243d 9b9d a93d febf bd3d
00000320: a383 1abe 16c3 3f3e 3f6a b33d fbd4 4f3d
00000330: 0193 ba3e e016 2abc 841e 883d d2e8 633e
00000340: 20d3 17bd 8d4b bbbc e40b 4e3a 0bc2 473d
00000350: ade6 f83c 9111 adbc 1158 9dbd 34d4 d93d
00000360: e36a 65bd 0f47 1dbe a1cb f63c 3432 77bd
00000370: 4d03 293e b487 343d 8483 853e acf8 77be
00000380: cd47 643e ca2f 893c 53ba a33d d5bd 2dbe
00000390: 900a 9abc 997d ae3d ada2 8b3d e3fe afbd
000003a0: e292 c83d 86d2 333e f62d 943d 7344 95be
000003b0: a904 6abd 0c7f 103e 931b c1bd 68f2 b8bc
000003c0: 1c48 be3c 7b87 d53d cc3f b13d 3646 28bd
000003d0: e6ca 0e3e f8ab 4d3e ae17 f83c ea04 e33d
000003e0: bd2d 9b3d 88f9 8cbd cf95 f7bc 6ad3 843c
000003f0: 3903 6fbd 6250 603e f189 8bbe d5d4 7abd

actor.4.bias f4 [36]
-0.23758407 0.15150043 -0.08274773 -9.514036e-05 0.007914911 -0.08679898 -0.0145502165 0.04107022
0.053014938 -0.048984203 -0.04053229 -0.047599103 0.06290704 0.059180543 0.13548942 0.05888666
-0.02949791 -0.20098057 0.16803439 0.067551374 -0.25189912 0.016422821 0.058507442 -0.2320219
0.025095679 -0.027736127 0.2372443 -0.13153143 -0.06273963 0.01969371 0.09973261 -0.03957266
0.0060768435 0.11862513 -0.032693498 0.29286474
00000000: 3d49 73be ee22 1b3e a477 a9bd 1886 c7b8
00000010: 8bad 013c aac3 b1bd 0864 6ebc 3f39 283d
00000020: 3126 593d a9a3 48bd 3005 26bd 47f7 42bd
00000030: 68d5 803d 4c67 723d bdbd 0a3e 2333 713d
00000040: 9aa5 f1bc dacd 4dbe 3511 2c3e 6058 8a3d
00000050: ecf8 80be 2789 863c 80a5 6f3d 2697 6dbe
00000060: 7495 cd3c e036 e3bc 2bf0 723e 2db0 06be
00000070: a37d 80bd b454 a13c 9c40 cc3d f116 22bd
00000080: 4220 c73b bbf1 f23d 9ee9 05bd 5ef2 953e

critic.0.weight f4 [64, 62]
0.07635647 0.08354457 -0.083908446 0.009482246 -0.11465368 -0.059677098 0.013753274 -0.009037825
-0.07507219 -0.020640172 -0.14818062 -0.0036141477 -0.13923067 -0.07987305 -0.07896853 -0.081312366
-0.008365868 -0.107972465 -0.12109008 0.089093745 -0.09144983 0.08891198 0.0087930765 -0.018583413
0.09826457 -0.09916525 0.060841322 0.084765814 0.18346033 -0.20951974 -0.009234631 -0.05969839
-0.09423055 0.08673783 -0.022362862 0.0858983 -0.068384334 -0.056324437 0.053182244 0.041904483
0.072785884 0.054177675 0.0840679 -0.11847865 -0.032936603 0.032695413 -0.04804599 -0.18671638
0.015678775 -0.15466924 -0.0714454 -0.1711877 0.03142459 -0.001611485 -0.11442215 0.023374131
0.025246456 0.043020763 -0.056091327 -0.13394447 -0.20136796 -0.027007898 -0.1128423 0.06433067
-0.017239168 -0.050084185 0.0784761 0.05776529 0.059809826 -0.012281675 -0.06916874 -0.21062475
-0.09007537 0.03383743 -0.02966683 0.17577426 0.10513803 0.027836371 0.10398414 0.10897633
0.06814908 -0.006805929 -0.032562602 -0.12126438 0.066823736 -0.028784275 0.019905403 -0.028680766
0.08202378 0.0040353225 0.1102497 0.016834276 0.006836476 -0.06721368 0.05880494 -0.07486796
0.08931295 0.098380856 0.1190027 0.032151483 0.14087729 0.16329333 -0.012170144 -0.09252328
-0.03035534 -0.0927487 -0.10430263 -0.22667906 -0.0038872706 0.10618113 0.14995897 -0.053874917
-0.049638312 -0.063918255 -0.046657264 -0.05124999 -0.15413427 -0.19141093 -0.059393063 0.04889541
0.0068971254 0.025098562 0.020150363 0.0070821377 -0.10513134 0.07965675 0.105171435 0.048618447
-0.14026289 0.0313124 -0.09404925 -0.09598112 0.016708154 -0.051632304 0.13674901 0.11751677
-0.12510258 0.01749905 -0.10741214 -0.08629853 -0.019912245 -0.07501419 0.11838697 -0.10327836
0.11854204 -0.02147506 0.022991564 0.1105881 -0.05876423 -0.04705589 0.052543417 -0.032175787
-0.08319472 0.0950566 0.024904273 0.13906804 -0.055639885 0.051634572 0.012293336 -0.097683206
-0.06092275 0.003319728 -0.20223117 0.10941106 -0.042265728 0.06496872 0.044562634 -0.046305005
-0.010432917 -0.0905127 -0.11923735 -0.12023036 -0.17897114 0.021997804 -0.09765684 0.042635504
0.06040179 -0.003890866 0.05247412 -0.053578816 -0.15122074 -0.007129992 -0.05326534 0.11564995
-0.011263435 -0.03273244 -0.11501763 -0.11673309 -0.10628424 0.08884689 -0.09599425 -0.16377634
-0.02459664 0.15017411 0.024969127 -0.08530839 -0.047598816 0.2272238 0.058856398 0.08897895
-0.011496803 0.17857018 -0.037932936 -0.07882174 -0.08388044 0.08991102 0.021075178 0.041679714
-0.092292465 0.023545597 0.11313734 0.06955967 -0.0055553075 -0.05846521 0.26330078 -0.02133177
-0.102684304 0.091779314 -0.03601746 -0.0050054374 -0.029890707 -0.07533561 -0.02836951 0.005883499
-0.20112361 0.16876191 0.059216894 -0.1727457 0.13752708 0.093273714 -0.10092639 -0.15596847
0.119322896 0.038978104 -0.1199634 -0.10327881 0.0061148964 -0.052963447 0.08939693 -0.06449849
-0.035149783 0.00578432 -0.014896961 -0.01956514 -0.005280439 0.052671984 -0.019415548 0.028519135
0.06834458 0.09007455 -0.1143471 -0.0821262 -0.0041251793 -0.11425089 -0.05033708 0.0021778266
00000000: c860 9c3d 6a19 ab3d 31d8 abbd 6c5b 1b3c
00000010: 8ccf eabd f96f 74bd 6a55 613c 6313 14bc
00000020: 73bf 99bd 9415 a9bc a9bc 17be 56db 6cbb
00000030: 7c92 0ebe 7b94 a3bd 41ba a1bd 1987 a6bd
00000040: fe10 09bc ab20 ddbd 13fe f7bd c876 b63d
00000050: 0c4a bbbd 7c17 b63d d610 103c 3e3c 98bc
00000060: ef3e c93d 2717 cbbd c034 793d b399 ad3d
00000070: 06dd 3b3e 588c 56be da4c 17bc 4d86 74bd
00000080: f2fb c0bd 9aa3 b13d 5232 b7bc 73eb af3d
00000090: 160d 8cbd 74b4 66bd a0d5 593d 09a4 2b3d
000000a0: c410 953d 69e9 5d3d cb2b ac3d efa4 f2bd
000000b0: 88e8 06bd a0eb 053d dfcb 44bd 9432 3fbe
000000c0: c670 803c 9d61 1ebe f751 92bd d44b 2fbe
000000d0: 12b7 003d 7738 d3ba 2956 eabd 1b7b bf3c
000000e0: a8d1 ce3c 8a36 303d 05c0 65bd bd28 09be
000000f0: 6733 4ebe ab3f ddbc dd19 e7bd ccbf 833d
00000100: 2839 8dbc 1325 4dbd 14b8 a03d 4c9b 6c3d
00000110: 26fb 743d 1439 49bc 57a8 8dbd 04ae 57be
00000120: 7079 b8bd 1e99 0a3d da07 f3bc 2bfe 333e
00000130: 9c52 d73d 1a09 e43c a3f5 d43d fb2e df3d
00000140: bf91 8b3d 4504 dfbb 5d60 05bd 7659 f8bd
00000150: e2da 883d 00cd ebbc a810 a33c edf3 eabc
00000160: 15fc a73d bd3a 843b 98ca e13d 09e8 893c
00000170: 8404 e03b 53a7 89bd 73dd 703d 5f54 99bd
00000180: b5e9 b63d e77b c93d b0b7 f33d 46b1 033d
00000190: 2342 103e 5e36 273e 4965 47bc d87c bdbd
000001a0: c3ab f8bc 08f3 bdbd 9e9c d5bd 8e1e 68be
000001b0: 94c1 7ebb 7e75 d93d d88e 193e f2ab 5cbd
000001c0: 8b51 4bbd 93e7 82bd b01b 3fbd 82eb 51bd
000001d0: 60d5 1dbe 3a01 44be 2446 73bd 8e46 483d
000001e0: 4801 e23b 809b cd3c 6012 a53c 4711 e83b
000001f0: 1a4f d7bd 1423 a33d 1f64 d73d 2324 473d
00000200: 13a1 0fbe 6e41 003d e59c c0bd c091 c4bd
00000210: 8adf 883c 657c 53bd ef07 0c3e a2ac f03d
00000220: e41a 00be 2b5a 8f3c e5fa dbbd 49bd b0bd
00000230: 011f a3bc 0aa1 99bd de74 f23d 9b83 d3bd
00000240: 2bc6 f23d 77ec afbc ce58 bc3c 047c e23d
00000250: c3b2 70bd adbd 40bd c437 573d c2ca 03bd
00000260: fe61 aabd 09ad c23d 0c04 cc3c da67 0e3e
00000270: a6e6 63bd c67e 533d fd69 493c 220e c8bd
00000280: 228a 79bd cb8f 593b b015 4fbe e812 e03d
00000290: d41e 2dbd 520e 853d 4f87 363d 51aa 3dbd
000002a0: d3ee 2abc b95e b9bd b632 f4bd 563b f6bd
000002b0: 3644 37be bd34 b43c 4f00 c8bd 91a2 2e3d
000002c0: de67 773d e6fd 7ebb 1aef 563d 7675 5bbd
000002d0: 9cd9 1abe b5a2 e9bb c22c 5abd e2d9 ec3d
000002e0: 458a 38bc 7312 06bd 5d8e ebbd c211 efbd
000002f0: 8dab d9bd 5cf5 b53d a298 c4bd fcb4 27be
00000300: e57e c9bc 3ec7 193e 0e8c cc3c 2ab6 aebd
00000310: faf6 42bd 5bad 683e 6813 713d 993a b63d
00000320: 165d 3cbc 1adb 363e 915f 1bbd 4b6d a1bd
00000330: 82c9 abbd 4523 b83d daa5 ac3c 59b8 2a3d
00000340: d503 bdbd b2e2 c03c 8db4 e73d 4d75 8e3d
00000350: 4c09 b6bb 3779 6fbd 5ccf 863e f7bf aebc
00000360: 264c d2bd cbf6 bb3d 0b87 13bd a704 a4bb
00000370: 5bdd f4bc 8e49 9abd 2d67 e8bc 5eca c03b
00000380: 59f3 4dbe eccf 2c3e 6a8d 723d 40e4 30be
00000390: e6d3 0c3e 4a06 bf3d 7fb2 cebd 33b6 1fbe
000003a0: 905f f43d 81a7 1f3d 5faf f5bd d783 d3bd
000003b0: 785f c83b 33f0 58bd bd15 b73d c917 84bd
000003c0: 38f9 0fbd 658a bd3b 6212 74bc 1347 a0bc
000003d0: 8807 adbb 94be 573d 5b0d 9fbc f6a0 e93c
000003e0: 3ef8 8b3d 0179 b83d d02e eabd c831 a8bd
000003f0: 832c 87bb 5ffc e9bd 412e 4ebd deb9 0e3b

critic.0.bias f4 [64]
-0.16436943 -0.058951586 -0.08887754 -0.009264021 -0.11708604 0.042234372 -0.040926285 -0.20210579
-0.11090818 -0.07041217 -0.09211957 -0.065842494 -0.068500206 -0.20427518 -0.044732522 0.006285364
-0.066185266 0.2744289 -0.0011100925 0.08017401 -0.08805315 -0.009057255 0.011103939 -0.09264669
0.013334177 -0.16515478 -0.0851391 -0.1029566 0.12873374 -0.040921096 -0.02489392 -0.095517665
-0.089645915 -0.09068145 -0.043443482 0.005096805 0.062403817 0.012361074 -0.084295794 0.04788746
-0.17256404 -0.10766145 -0.15102883 -0.029912323 -0.11319909 -0.18369615 0.042532526 0.03179259
-0.039681535 -0.08833362 0.060379334 -0.02674203 0.07725142 -0.16737778 -0.07180087 -0.21373205
0.096350305 -0.060408358 -0.16080032 -0.0003616186 0.06474642 -0.11971937 -0.11474395 -0.106672876
00000000: 7650 28be 3877 71bd 6d05 b6bd 1fc8 17bc
00000010: ceca efbd f3fd 2c3d 52a2 27bd d2f4 4ebe
00000020: d423 e3bd 4134 90bd 2fa9 bcbd 6ed8 86bd
00000030: d649 8cbd 832d 51be 7339 37bd 74f5 cd3b
00000040: 248c 87bd f281 8c3e 8680 91ba 4532 a43d
00000050: 3655 b4bd e264 14bc 4ced 353c 8cbd bdbd
00000060: 9877 5a3c 561e 29be 695d aebd e9da d2bd
00000070: c7d2 033e e19c 27bd 56ee cbbc c49e c3bd
00000080: 4798 b7bd 32b7 b9bd cbf1 31bd 1903 a73b
00000090: 259b 7f3d 1a86 4a3c 46a3 acbd a425 443d
000000a0: a1b4 30be 9b7d dcbd 4da7 1abe b00a f5bc
000000b0: edd4 e7bd d81a 3cbe 9636 2e3d f238 023d
000000c0: 1b89 22bd 42e8 b4bd 5250 773d 1a12 dbbc
000000d0: fe35 9e3d 1565 2bbe 560c 93bd 93dc 5abe
000000e0: 4f53 c53d c16e 77bd d7a8 24be a097 bdb9
000000f0: c599 843d 6e2f f5bd e0fe eabd 4f77 dabd

critic.2.weight f4 [64, 64]
-0.032227628 0.11149404 0.07534042 0.0134858135 -0.058633134 -0.07120137 -0.048209567 0.11271573
0.0043982933 -0.0077770255 -0.017055828 0.18173005 -0.036076847 0.14371642 -0.031310216 0.09367652
0.03123558 0.39485198 -0.002976525 0.2088297 0.0094229635 -0.085946225 0.054807235 0.17859732
-0.00019568793 -0.06843862 -0.05379404 0.102747306 -0.010258678 0.1991586 -0.02455014 0.0035335817
0.14900461 -0.1007015 -0.0041811955 0.19852373 -0.2839978 0.06377034 0.036034204 -0.021530263
-0.06833695 0.15438254 0.09679196 -0.17184572 -0.011509081 -0.10604451 0.037083548 -0.13118343
0.12296021 0.06361569 -0.20133595 0.18929157 -0.10201288 -0.09252825 -0.09103671 -0.0626995
0.1739962 0.060701378 -0.029474804 -0.034416396 -0.024151167 0.018296111 0.16741683 -0.05510422
-0.014482945 0.004287364 -0.017791312 -0.022272745 -0.08770548 -0.06966998 -0.08201435 0.102372825
-0.053943425 -0.104059525 -0.103823796 -0.10350632 -0.03988313 -0.06745575 -0.105450906 -0.055680837
0.0825936 -0.11113593 -0.030163405 0.09797902 0.0645357 0.013436564 0.034515362 -0.057768427
-0.11310414 -0.08939123 -0.08894916 0.076389715 -0.0130192265 -0.11500399 -0.11117375 -0.026230695
0.070362955 -0.001261817 0.007490417 -0.040689126 -0.021051029 0.055345494 0.026000632 -0.031533834
0.124907136 0.073201455 0.029726336 0.043825716 0.066638395 -0.03151902 0.008721508 -0.05154603
-0.05620297 -0.012352163 -0.097828835 0.091459215 -0.10108481 -0.09338387 -0.030615067 0.066608354
-0.07586768 -0.0263467 0.05612974 -0.116577774 0.10360036 0.05512363 0.024305157 -0.012067709
0.083397314 -0.019835277 -0.046045322 0.07943735 -0.07154714 0.06489567 0.04245049 0.060433082
-0.18939634 -0.036810923 -0.08933042 -0.1331888 -0.038861364 0.05327969 0.080362506 -0.07328246
-0.08315203 -0.078155436 0.009664715 0.015481381 0.056443665 0.15956208 0.15364464 0.027443474
-0.028014442 0.07918818 0.043198843 -0.07850202 0.15649286 -0.11891645 0.09628152 -0.0833581
-0.1462088 -0.01527776 0.013061095 0.0022490285 0.19926833 0.08439423 0.10534885 -0.07198966
-0.086052954 0.045650434 -0.07990198 0.017511759 -0.047231335 -0.15688115 -0.034420688 0.11924486
0.14869551 0.025849704 -0.112123914 -0.07704134 0.12856181 0.061117794 -0.073601544 0.049475383
0.1049112 0.036365796 -0.050113656 -0.066742726 -0.039277393 -0.08178865 0.033810243 -0.09123876
0.009104904 -0.011958765 -0.05365561 -0.030925468 0.027285354 -0.103130326 0.026381133 0.000466755
-0.043697335 -0.17385253 0.029843953 -0.029399645 0.009213724 -0.12457224 0.10716859 0.10029654
0.03113902 0.0026691156 -0.166943 0.03607017 0.052382726 0.090344205 -0.08357084 0.06096824
-0.11961843 -0.112758264 -0.009819111 -0.0124030225 0.036548123 -0.04271623 0.057921294 -0.07256907
0.08783007 0.08446106 -0.07126376 -0.10828876 0.01509883 -0.11746824 -0.085102335 6.490757e-05
-0.09810816 0.14380705 -0.050568625 0.05793901 -0.11072903 0.09113842 -0.061250445 -0.058968075
-0.09362437 -6.8391855e-05 -0.09244136 -0.12496741 0.06535626 0.020785643 -0.096587084 0.12711054
-0.03394794 0.06811745 -0.036088627 -0.17361626 -0.047424134 -0.06269213 0.100183316 0.07689353
00000000: 1e01 04bd fd56 e43d 144c 9a3d 9af3 5c3c
00000010: 4c29 70bd 06d2 91bd 6577 45bd 81d7 e63d
00000020: 8f1f 903b 6bd6 febb aab8 8bbc 7117 3a3e
00000030: 51c5 13bd 662a 133e 243f 00bd 7ad9 bf3d
00000040: c2e1 ff3c 0a2a ca3e ce11 43bb 74d7 553e
00000050: c662 1a3c 9304 b0bd 8d7d 603d 37e2 363e
00000060: 9431 4db9 8c29 8cbd 2457 5cbd 2e6d d23d
00000070: 0414 28bc 3bf0 4b3e 601d c9bc aa93 673b
00000080: aa94 183e 973c cebd 6902 89bb ce49 4b3e
00000090: 2968 91be 069a 823d 9a98 133d 3c60 b0bc
000000a0: 3ef4 8bbd 7516 1e3e dd3a c63d 53f8 2fbe
000000b0: 9690 3cbc dd2d d9bd ebe4 173d f354 06be
000000c0: 90d2 fb3d f148 823d 032b 4ebe a6d5 413e
000000d0: 21ec d0bd 737f bdbd 7471 babd 9868 80bd
000000e0: 0f2c 323e 02a2 783d 2575 f1bc 35f8 0cbd
000000f0: abd8 c5bc bae1 953c 516f 2b3e f6b4 61bd
00000100: e049 6dbc 047d 8c3b 16bf 91bc 5575 b6bc
00000110: ee9e b3bd 22af 8ebd 24f7 a7bd d8a8 d13d
00000120: c8f3 5cbd 291d d5bd 92a1 d4bd 1ffb d3bd
00000130: 7e5c 23bd 3e26 8abd a5f6 d7bd 9711 64bd
00000140: d526 a93d 3c9b e3bd 3f19 f7bc 39a9 c83d
00000150: 4b2b 843d 0925 5c3c fb5f 0d3d 969e 6cbd
00000160: 25a3 e7bd c012 b7bd fa2a b6bd 3672 9c3d
00000170: 984e 55bc 3687 ebbd 10af e3bd c1e1 d6bc
00000180: 741a 903d 8d63 a5ba 2c72 f53b a4a9 26bd
00000190: 3573 acbc f5b1 623d 47ff d43c 9f29 01bd
000001a0: 50cf ff3d a5ea 953d a584 f33c 9882 333d
000001b0: b679 883d 171a 01bd a8e4 0e3c ee21 53bd
000001c0: 1635 66bd ba60 4abc 7c5a c8bd f84e bb3d
000001d0: 8e05 cfbd 0b40 bfbd 73cc fabc f669 883d
000001e0: 8460 9bbd 09d5 d7bc 4ce8 653d 54c0 eebd
000001f0: 6d2c d43d 51c9 613d 9c1b c73c a4b7 45bc
00000200: 36cc aa3d 977d a2bc 059a 3cbd 0db0 a23d
00000210: 4f87 92bd 05e8 843d 91e0 2d3d ae88 773d
00000220: 1df1 41be 0dc7 16bd def2 b6bd a562 08be
00000230: 182d 1fbd ce3b 5a3d 1995 a43d 1d15 96bd
00000240: 9d4b aabd f50f a0bd c158 1e3c 9ea5 7d3c
00000250: 7931 673d 3e64 233e 0555 1d3e 23d1 e03c
00000260: 8b7e e5bc 6a2d a23d 45f1 303d abc5 a0bd
00000270: aa3f 203e 788a f3bd 3f2f c53d a7b7 aabd
00000280: c2b7 15be 924f 7abc 34fe 553c 7064 133b
00000290: ff0c 4c3e e2d6 ac3d 23c1 d73d 516f 93bd
000002a0: 883c b0bd f3fb 3a3d a6a3 a3bd d274 8f3c
000002b0: a575 41bd 74a5 20be b5fc 0cbd a636 f43d
000002c0: a343 183e c2c2 d33c 39a1 e5bd dac7 9dbd
000002d0: b5a5 033e a756 7a3d 68bc 96bd b3a6 4a3d
000002e0: afdb d63d 4df4 143d fa43 4dbd 69b0 88bd
000002f0: 55e1 20bd cf80 a7bd 9c7c 0a3d 63db babd
00000300: bc2c 153c b2ee 43bc fcc5 5bbd 6857 fdbc
00000310: 8985 df3c fe35 d3bd 3f1d d83c ccb6 f439
00000320: fafb 32bd 6606 32be 4e7b f43c 86d7 f0bc
00000330: 29f5 163c bb1f ffbd 357b db3d 4668 cd3d
00000340: 4217 ff3c 54ec 2e3b 1bf3 2abe 51be 133d
00000350: 458f 563d 6206 b93d 3027 abbd d5b9 793d
00000360: 82fa f4bd ceed e6bd 56e0 20bc 0c36 4bbc
00000370: 7cb3 153d 37f7 2ebd e13e 6d3d 189f 94bd
00000380: 40e0 b33d ecf9 ac3d bcf2 91bd 7fc6 ddbd
00000390: 1561 773c 3093 f0bd 224a aebd fc1e 8838
000003a0: eeec c8bd 2842 133e 0c21 4fbd 7551 6d3d
000003b0: e7c5 e2bd c8a6 ba3d bfe1 7abd 8288 71bd
000003c0: 22be bfbd 996d 8fb8 e551 bdbd eaee ffbd
000003d0: 81d9 853d a746 aa3c 73cf c5bd 4429 023e
000003e0: ff0c 0bbd 2981 8b3d abd1 13bd 76c8 31be
000003f0: cf3f 42bd bb64 80bd e92c cd3d 5b7a 9d3d

critic.2.bias f4 [64]
0.13168742 -0.06599453 0.058383424 -0.07755677 -0.061845552 -0.0084825745 -0.008336123 -0.120100394
-0.1171197 -0.10857036 0.08042442 0.15927672 0.006923149 0.15890403 -0.04577034 -0.04415014
-0.14245264 -0.13687322 0.037359666 0.09148246 0.00115657 0.021896642 -0.12515034 -0.16898267
0.021330437 -0.12387604 -0.07582561 -0.12812689 0.006530334 0.07072088 -0.110497504 -0.050882112
-0.09715434 -0.106952876 0.09608128 0.013269018 -0.111517064 -0.17631844 -0.122422606 -0.08976367
0.026345182 -0.080430284 -0.024112882 -0.0056824978 0.012701008 0.13933498 -0.09676247 -0.03707737
-0.013931302 0.0010032153 0.11960808 -0.110585265 -0.033442363 -0.11013705 -0.03518703 0.027674086
0.14032616 -0.021872258 -0.016365657 -0.06264897 -0.10289509 -0.02874158 -0.12876585 -0.115721
00000000: 11d9 063e 2428 87bd 7523 6f3d 15d6 9ebd
00000010: c351 7dbd 7ffa 0abc 3c94 08bc 32f7 f5bd
00000020: 74dc efbd 235a debd 8fb5 a43d 7019 233e
00000030: 95db e23b bdb7 223e ae79 3bbd c7d6 34bd
00000040: 1bdf 11be 7e28 0cbe 7306 193d 285b bb3d
00000050: 0d98 973a 9660 b33c 6927 00be cb09 2dbe
00000060: 2bbd ae3c b9b2 fdbd 754a 9bbd b233 03be
00000070: 69fc d53b 1cd6 903d 844c e2bd c369 50bd
00000080: dbf8 c6bd 1c0a dbbd 43c6 c43d 4c66 593c
00000090: 0f63 e4bd d28c 34be b4b8 fabd 04d6 b7bd
000000a0: dad1 d73c a2b8 a4bd 6188 c5bc 3f34 babb
000000b0: e317 503c d4ad 0e3e 672b c6bd 71de 17bd
000000c0: 1e40 64bc 527e 833a 15f5 f43d 877a e2bd
000000d0: dcfa 08bd 898f e1bd 4620 10bd c4b4 e23c
000000e0: a9b1 0f3e 732d b3bc 4511 86bc 1a4e 80bd
000000f0: a9ba d2bd 7673 ebbc 32db 03be 22ff ecbd

critic.4.weight f4 [1, 64]
-0.08423524 0.033024196 0.07450515 -0.00086235313 -0.09832463 -0.07078852 0.033429228 0.09466068
0.075254485 0.0025589096 0.1014351 0.06456847 -0.008654296 0.13221885 -0.040328782 0.03233909
0.005189685 0.014334997 0.050210595 0.076491185 0.0050679003 -0.003107489 -0.05818359 0.109143674
-0.0008022092 0.011634917 0.011313642 -0.0032202029 0.0006294837 -0.01390984 -0.03795807 0.015011602
0.012575375 0.06290818 -0.1007637 -0.011569961 -0.008959768 -0.034590185 -0.17606431 -0.025372164
0.0028772075 0.10707414 0.12904315 -0.0042086616 -0.011785368 0.07127864 0.02501509 0.08596903
-0.024951557 -0.0044005965 -0.06563326 0.08562955 0.11298615 0.05748061 -0.007184703 0.011609329
0.09209276 0.04806842 -0.023156425 5.9067184e-05 -0.075335525 0.0961215 -0.016154174 -0.0795159
00000000: 8783 acbd 6144 073d 2896 983d 8a0f 62ba
00000010: 6c5e c9bd 92f9 90bd 16ed 083d 75dd c13d
00000020: 061f 9a3d 61b3 273b 35bd cf3d 793c 843d
00000030: c0ca 0dbc 6164 073e cb2f 25bd fe75 043d
00000040: 3c0e aa3b 56dd 6a3c a0a9 4d3d 69a7 9c3d
00000050: a110 a63b 04a7 4bbb eb51 6ebd b886 df3d
00000060: 594b 52ba 61a0 3e3c db5c 393c 0a0a 53bb
00000070: f003 253a 19e6 63bc ec79 1bbd 39f3 753c
00000080: f208 4e3c 01d6 803d 335d cebd ef8f 3dbc
00000090: fecb 12bc 70ae 0dbd 344a 34be 49d9 cfbc
000000a0: 888f 3c3b b049 db3d e323 043e d0e8 89bb
000000b0: 6b17 41bc 89fa 913d 72ec cc3c 8810 b03d
000000c0: 3567 ccbc e132 90bb bb6a 86bd 8c5e af3d
000000d0: 4865 e73d ca70 6b3d a86d ebbb 0e35 3e3c
000000e0: 219b bc3d 64e3 443d 8bb2 bdbc e8be 7738
000000f0: 8349 9abd 59db c43d c255 84bc 3bd9 a2bd
