RL/CC2-Cardiff-implementation/GT-Cardiff-CC2/Models/PPOxCCE-C1/4000.pth (torch, 78850 bytes, 11 tensors)

actor.0.weight f4 [64, 62]
0	0xba7940ed	-0.0009508271
1	0x3d8b86e7	0.0681284
2	0xbdd6122a	-0.10452683
3	0xbdbf6a3c	-0.093464345
4	0x3d96fe39	0.07372708
5	0x3ea0a1e6	0.3137352
6	0x3e180962	0.1484733
7	0x3ea7724f	0.32704398
8	0xbd872867	-0.06599503
9	0xbd9451b8	-0.07242149
10	0xbbfdba72	-0.0077431733
11	0xbe18479f	-0.14871071
12	0xbe4ced72	-0.20012453
13	0xbd96707c	-0.073456734
14	0xbde50cfe	-0.11184119
15	0x3e085966	0.13315353
16	0x3d4da681	0.05020762
17	0x3d9c104d	0.076202966
18	0xbdb05477	-0.086098604
19	0xbd628646	-0.055303834
20	0x3d3cf15d	0.04612862
21	0x3dd7fb15	0.10545937
22	0xbcd61c86	-0.026136648
23	0x3dc2a212	0.09503569
24	0xbca7b158	-0.020470306
25	0x3c5c2cc0	0.013438404
26	0x3deb82cf	0.11499559
27	0xbdf14899	-0.11781425
28	0xbd7954b0	-0.06087178
29	0x3e4c3b49	0.1994449
30	0xbd486c4a	-0.048931397
31	0x3e1cecad	0.1532466
32	0xbda896cf	-0.082318895
33	0xbd6f7633	-0.058462333
34	0xbdb5b6b9	-0.08872742
35	0xbdf39894	-0.11894336
36	0xbe23ab39	-0.15983285
37	0x3cc04753	0.02347151
38	0xbb4007d8	-0.002930155
39	0xbd6b148a	-0.057392634
40	0xbc1b5d11	-0.009482638
41	0xbdaa1729	-0.08305199
42	0xbe12df5a	-0.14343014
43	0xbdde0b96	-0.108420536
44	0xbe136100	-0.14392471
45	0xbe0970ff	-0.13422011
46	0x3ee06ce4	0.43833077
47	0x3d2e6756	0.042579018
48	0x3cbe0cd1	0.02319947
49	0x3e510b9a	0.20414582
50	0x3ec3b7d2	0.3822618
51	0x3d9075ac	0.07053694
52	0x3d4e7484	0.050404087
53	0x3dee9011	0.11648572
54	0x3e33d0be	0.17560098
55	0xbd73b67f	-0.059500214
56	0x3dc6dc19	0.09709949
57	0xbdc9a770	-0.09846389
58	0xbe409dee	-0.18810245
59	0xbc096448	-0.008385725
60	0x3cd33e48	0.025786534
61	0x3d9f6198	0.077822864
62	0xbd9a1194	-0.07522884
63	0x3d1d2763	0.03836764
64	0x3d8ec91b	0.069719516
65	0xbc83508d	-0.01602962
66	0xbd9893c2	-0.074500576
67	0xbd31faad	-0.043451954
68	0xbe54c6aa	-0.2077891
69	0x3d43c75e	0.047797553
70	0xbdeff57d	-0.11716745
71	0xbc8f2bed	-0.017477
72	0xbd979030	-0.074005485
73	0x3e658764	0.22414929
74	0x3d1eeccf	0.038800057
75	0x3da405eb	0.08008941
76	0x3e46defd	0.19421001
77	0xbdcd1ea4	-0.1001561
78	0x3c3f6a4d	0.011683059
79	0xbda2b7b5	-0.079451956
80	0xbdf265d5	-0.11835829
81	0x3de717f4	0.112838656
82	0x3dc5c448	0.09656578
83	0xbe01ba05	-0.12668617
84	0x3cc2bb23	0.023770874
85	0xbcaf4366	-0.021394443
86	0xbcab34fb	-0.020899286
87	0xbd6e1f27	-0.058135178
88	0x3d480b12	0.048838682
89	0xbd9a0e51	-0.07522262
90	0x3e93b324	0.2884761
91	0x3e6df22e	0.23236915
92	0x3dfc0acb	0.12306746
93	0xbcd54eda	-0.026038576
94	0xbe00b695	-0.1256965
95	0xbda8b940	-0.08238459
96	0x3d81deb6	0.06341307
97	0x3cd9c105	0.026581297
98	0xbdad2da0	-0.08455968
99	0xbdd6688e	-0.10469161
100	0x3e8e0d13	0.2774435
101	0x3e5a7737	0.2133454
102	0xbcc16777	-0.023608906
103	0xbe4f5d1d	-0.20250364
104	0xbe266018	-0.16247594
105	0xbd9afb1d	-0.07567427
106	0xbd4e8c93	-0.05042703
107	0xbd8344ee	-0.06409632
108	0xbe647c9b	-0.22313158
109	0xbd2c0d21	-0.04200471
110	0xbe4e37a9	-0.2013842
111	0xbd8a2eeb	-0.0674723
112	0xbed7c953	-0.42145786
113	0xbc789623	-0.015172514
114	0x3db23e72	0.08703317
115	0xbec46921	-0.38361457
116	0xbd935b7d	-0.071951844
117	0xbe19f462	-0.15034631
118	0xba025223	-0.0004971346
119	0x3cf6c0a8	0.030121163
120	0x3e1214e2	0.14265779
121	0xbd7375f9	-0.05943868
122	0xbea3bfee	-0.31982368
123	0xbcd00d24	-0.025396891
124	0xbdf97f3e	-0.12182473
125	0xbd9a2929	-0.07527382
126	0xbd02383f	-0.03179192
127	0xbd7d6489	-0.061863456
128	0xbdd8576b	-0.10563549
129	0x3eca3ece	0.3950104
130	0xbe7363d8	-0.23768556
131	0x3e285008	0.1643678
132	0x3d9e8ca5	0.077416696
133	0x3e4bdf15	0.19909318
134	0x3de466fe	0.11152457
135	0x3eaf6948	0.3426001
136	0x3e22fd74	0.15916997
137	0xbe133962	-0.14377359
138	0xbe375591	-0.17903735
139	0xbe202b97	-0.15641628
140	0x3df6600c	0.12030038
141	0x3da52cf8	0.08065218
142	0x3df6f05c	0.12057564
143	0xbc167c17	-0.009184859
144	0xbde9a66a	-0.11408694
145	0xbd769c86	-0.060207866
146	0x3db119d4	0.086475044
147	0xba57d11e	-0.000823276
148	0xbd8147a7	-0.06312495
149	0xbdc75098	-0.09732169
150	0xbdf3695f	-0.11885332
151	0xbddb85fc	-0.10718915
152	0xbe141b98	-0.14463651
153	0x3e6bf2af	0.23041795
154	0xbce8a441	-0.028398635
155	0xbe6ac37c	-0.22926134
156	0x3da23e4e	0.0792204
157	0xbdcb871c	-0.099378794
158	0xbcdbf2b6	-0.026849132
159	0xbd52ec80	-0.051495075
160	0xb9a0355c	-0.00030557334
161	0xbe0e04e4	-0.13869053
162	0x3cd3d990	0.025860578
163	0x3dd6c607	0.104869895
164	0xbe1cbd47	-0.15306579
165	0xbdc03bb5	-0.09386388
166	0xbde578bd	-0.112046696
167	0xbd36571b	-0.044516664
168	0xbe69eeb9	-0.22844972
169	0x3c362023	0.01111606
170	0x3e9dc9ce	0.30818027
171	0xbd49b800	-0.04924774
172	0x3e6b1fe8	0.2296139
173	0x3e6e2210	0.23255181
174	0xbdcc5fcb	-0.099792086
175	0x3dac6914	0.084184796
176	0xbc701bff	-0.014655112
177	0xbdc6a259	-0.09698934
178	0x3e997dd9	0.29978827
179	0xbe1382bc	-0.1440534
180	0xbe1d56f1	-0.15365197
181	0xbcd9d2f6	-0.026589852
182	0x3e8e2fb9	0.27770784
183	0xbd3c5860	-0.04598272
184	0x3d3790a9	0.044815693
185	0x3de05da2	0.10955359
186	0xbcfa2fb0	-0.030540317
187	0xbcdacc74	-0.026708819
188	0xbdd6572a	-0.10465844
189	0x3d8cee7f	0.06881427
190	0x3eaa35c4	0.33244145
191	0x3d82da56	0.063893005
192	0xbe9cc307	-0.30617544
193	0xbdfb885e	-0.12281869
194	0xbe24938f	-0.16071914
195	0xbe17fef5	-0.14843352
196	0xbeb270d4	-0.34851706
197	0xbe3abd53	-0.18236284
198	0x3cae6e1f	0.021292744
199	0xbd38893c	-0.045052752
200	0x3e325c22	0.17417958
201	0x3e76d64e	0.24105188
202	0xbdc49caa	-0.09600194
203	0xbdb28f2c	-0.08718714
204	0xbd970724	-0.07374409
205	0x3db60cd1	0.08889163
206	0xbd3afdb2	-0.0456521
207	0x3ddb6364	0.10712317
208	0x3d3c1b05	0.045924205
209	0x3c83bd64	0.01608152
210	0xba77d42e	-0.00094539195
211	0xbccdaa38	-0.02510558
212	0x3c828887	0.015934242
213	0xbced90fe	-0.028999802
214	0xbc9eb471	-0.01937315
215	0x3e2fdf25	0.17174967
216	0x3e38932d	0.18024893
217	0xbd85b43c	-0.065285176
218	0x3dd2069d	0.10255168
219	0xbdd3148b	-0.10306653
220	0xbc156984	-0.009119395
221	0x3e00a60e	0.12563345
222	0x3cad2de3	0.021140045
223	0x3e275c9b	0.1634392
224	0xbd14bde2	-0.0363139
225	0x3c1205fd	0.0089125605
226	0xbe0b17a3	-0.13583235
227	0x3e0fba4a	0.14035907
228	0x3d8465b4	0.06464711
229	0x3e2bd4ae	0.1678035
230	0xbde29a82	-0.11064626
231	0x3ccb73c3	0.024835473
232	0xbe053646	-0.13008985
233	0x3e3b03c4	0.18263155
234	0xbd5396ef	-0.051657613
235	0xbe596c42	-0.21232703
236	0xbe122d3d	-0.1427507
237	0xbd1f6292	-0.038912363
238	0xbd5c787d	-0.053825844
239	0x3dddaca1	0.10823942
240	0xbc9f9775	-0.0194814
241	0x3d161326	0.036639355
242	0xbd8e0eaf	-0.069363944
243	0x39552f82	0.00020330961
244	0xbd5b277c	-0.053504452
245	0xbde5afba	-0.11215158
246	0x3e33846e	0.17530987
247	0xbe776bf0	-0.24162269
248	0x3ae56cfc	0.0017503793
249	0xbcb0e205	-0.02159215
250	0xbd88fc54	-0.06688753
251	0x3c89823e	0.016785737
252	0x3c9bd22e	0.01902112
253	0x3d562ba9	0.05228773
254	0xbdcf05f6	-0.10108559
255	0xbe870702	-0.26372534

actor.0.bias f4 [64]
0	0xbc1bc823	-0.0095081655
1	0x3d6860f7	0.056733098
2	0x3d849405	0.06473545
3	0xbd7ee08f	-0.062225875
4	0xbdd66112	-0.104677334
5	0xbe4033dc	-0.18769783
6	0x3e066000	0.13122559
7	0xbd0b2dda	-0.033979274
8	0xbcc2adcb	-0.023764512
9	0xbdbf3b75	-0.093375124
10	0xbd4f5bb6	-0.05062457
11	0xbe055cdf	-0.13023709
12	0xbd952c4f	-0.07283842
13	0xbcd2f7e0	-0.025752962
14	0xbd839854	-0.06425539
15	0x3d0f4b87	0.034984138
16	0xbcf69a03	-0.030102735
17	0x3d99835c	0.07495758
18	0xbd8686de	-0.065686926
19	0xbddcc79b	-0.10780259
20	0xbe167811	-0.14694239
21	0xbe5b1e65	-0.21398313
22	0xbd6dc2e2	-0.058047183
23	0xbd9bbc9f	-0.07604336
24	0xbccfbff0	-0.025360078
25	0x3da0cf7c	0.078520745
26	0x3bf8fff6	0.0075988723
27	0x3e465dd5	0.19371732
28	0xbc28c56d	-0.010300976
29	0xbda2cd9f	-0.07949375
30	0xbe09db15	-0.1346248
31	0x3db20f97	0.0869438
32	0xbbe2de4f	-0.006923474
33	0xbe009bb1	-0.12559392
34	0x3dbd6c85	0.09249214
35	0xbdf0e6e6	-0.117627904
36	0x3da27c62	0.079338804
37	0x3d3ff28d	0.046862174
38	0xbd515f0d	-0.051116038
39	0xbe013c86	-0.12620744
40	0x3ded5500	0.11588478
41	0xbd9fbe28	-0.07799941
42	0x3c94ff79	0.018188225
43	0x3d712a40	0.058878183
44	0x3dcb5d59	0.09929914
45	0x3dc4e0c9	0.09613187
46	0xbd0c79a0	-0.03429568
47	0x3e3bdbe3	0.18345599
48	0xbcb4bcbd	-0.022062654
49	0x3c7ecdc6	0.01555199
50	0x3e11c29e	0.14234397
51	0xbe1d2dbd	-0.15349479
52	0xbda58855	-0.08082644
53	0xbd7fb893	-0.062431883
54	0x3dcc8511	0.09986318
55	0x3e13fc75	0.14451773
56	0x3dcf7687	0.10130029
57	0x3df97468	0.12180406
58	0xbe43466c	-0.19069833
59	0xbc93b000	-0.01802826
60	0xbcf3d6f9	-0.029765593
61	0xbd99f5db	-0.07517596
62	0xbe275e55	-0.16344579
63	0xbe3d61a4	-0.18494278

actor.2.weight f4 [64, 64]
0	0xbdab6f94	-0.08370891
1	0xbe36f5c0	-0.17867184
2	0x3daf592b	0.08561929
3	0xbd40b8fd	-0.04705142
4	0x3d9bcfc1	0.07607985
5	0x3e819cd4	0.25314963
6	0x3dbfb13d	0.093599774
7	0x3cb1d3f3	0.02170751
8	0xbe98ee0a	-0.2986911
9	0x3d80aab7	0.06282561
10	0xbdf38bfe	-0.11891936
11	0x3d20eafd	0.039286602
12	0x3e540baf	0.20707582
13	0xbd9e4eac	-0.07729849
14	0x3d8bc3bb	0.06824442
15	0xbb1feea0	-0.0024403706
16	0xbd907d92	-0.07055201
17	0xbdd1b355	-0.10239283
18	0x3da6154a	0.08109529
19	0xbe3086dc	-0.17238945
20	0x3dbad71c	0.0912306
21	0x3d18f717	0.03734502
22	0x3d9095ff	0.070598595
23	0xbe434c50	-0.1907208
24	0x3d3aff7c	0.045653805
25	0x3dcc06b3	0.09962215
26	0x3d565526	0.052327298
27	0xbc06824d	-0.008209777
28	0xbb81bddc	-0.0039594006
29	0x3e1a5939	0.15073098
30	0x3dd55e58	0.10418385
31	0x3e3ab0d8	0.18231523
32	0x3dccba7a	0.09996505
33	0x3d87bd41	0.06627894
34	0xbccf8143	-0.025330191
35	0xbd736cbf	-0.05942988
36	0xbe25a3bc	-0.16175741
37	0xbd602575	-0.05472322
38	0xbe295b83	-0.16538815
39	0x3e10ff2e	0.14159843
40	0xbe405839	-0.18783654
41	0xbdea6dbd	-0.11446712
42	0x3d8f3f9c	0.069945544
43	0xbe643780	-0.22286797
44	0xbde3e8b3	-0.11128368
45	0x3cdb7e46	0.02679361
46	0xbc6c20d0	-0.01441212
47	0x3e2b5b36	0.16734013
48	0xbe6736ae	-0.22579452
49	0x3d09e4ef	0.033665594
50	0xbd2927cd	-0.041297723
51	0x3d8dfad1	0.06932605
52	0x3d7e3ef7	0.062071767
53	0x3e00dec1	0.12584974
54	0x3deaca5c	0.11464378
55	0xbe22317d	-0.15839191
56	0xbdb14110	-0.08654988
57	0xbd07a1ea	-0.033113398
58	0x3dfc8cff	0.1233158
59	0xbe2dc760	-0.16970587
60	0xbd52ddcb	-0.05148105
61	0x3dc58edf	0.09646391
62	0x3d57596e	0.05257552
63	0xbe6722fc	-0.22571939
64	0xbddc408e	-0.107545
65	0x3dcc9d05	0.099908866
66	0xbc8a2648	-0.016863957
67	0xbca0dd79	-0.019636856
68	0xbe071130	-0.1319015
69	0xbcb24c7c	-0.021764986
70	0x3cc247ce	0.02371588
71	0xbe965654	-0.29362738
72	0xbe3195db	-0.17342322
73	0x3a18d5d2	0.00058302016
74	0x3e51f538	0.205037
75	0xbe189332	-0.148999
76	0xbcf204a5	-0.02954323
77	0x3c3ea300	0.011635542
78	0xbee500a0	-0.4472704
79	0xbe673f90	-0.22582841
80	0xbdaa4c78	-0.083153665
81	0x3deda6a7	0.11604052
82	0x3d256a5b	0.04038463
83	0xbae1590c	-0.0017192676
84	0xbe48808a	-0.19580284
85	0xbe0aa017	-0.13537632
86	0xbc907fe6	-0.017639112
87	0x3e204e69	0.15654911
88	0x3cd13b43	0.025540954
89	0x3dc98b76	0.09841053
90	0xbe8530af	-0.26013705
91	0x3dba4428	0.09095031
92	0xbd852889	-0.06501872
93	0xbd3305dc	-0.04370676
94	0xbdc87adb	-0.09789058
95	0x3d434cf8	0.047680825
96	0xbe368ddc	-0.17827553
97	0xbd380b49	-0.044932637
98	0xbda3ce2d	-0.07998309
99	0xbe1bf93c	-0.15231794
100	0x3d7639f3	0.06011386
101	0xbea7e991	-0.32795385
102	0x3e9d81f0	0.30763197
103	0x3d6c64ce	0.057713322
104	0x3e155c5f	0.14586018
105	0xbc7a42b7	-0.015274695
106	0xbe25519f	-0.16144417
107	0x3e0fa446	0.14027509
108	0x3e1fa902	0.15591815
109	0xbd5216ef	-0.051291402
110	0xbe3621c8	-0.17786324
111	0xbe539d6c	-0.2066552
112	0xbe475d32	-0.19469145
113	0x3e093144	0.133977
114	0xbe1da08f	-0.1539328
115	0x3ce88f2f	0.028388588
116	0x3e4351f8	0.19074237
117	0xbe235811	-0.15951563
118	0xbd533b01	-0.051569942
119	0x3e586d89	0.21135534
120	0xbdaad681	-0.083416946
121	0xbd16d3b7	-0.036823
122	0x3b4aede4	0.0030964548
123	0x3d1edff0	0.038787782
124	0xbdec5411	-0.11539472
125	0x3e1deee6	0.15423164
126	0xbc90781b	-0.017635396
127	0x3d7f372e	0.062308483
128	0xbe0cd764	-0.1375404
129	0x3cd4af13	0.025962388
130	0xbdd60f3b	-0.10452124
131	0x3c273c7b	0.010207291
132	0x3d3c57ad	0.04598205
133	0x3cbeb7e8	0.023281053
134	0xbd3b6a1e	-0.045755498
135	0xbd8ebeba	-0.06969972
136	0xbdd9f2e6	-0.10642032
137	0xbd93ed81	-0.07223035
138	0xbdc0272a	-0.0938247
139	0xbe4862ea	-0.19568983
140	0x3ccc72f9	0.024957167
141	0x3d3e1cdb	0.046414237
142	0xbd3db2b9	-0.04631302
143	0x3cb016ac	0.021495186
144	0x3dff00e5	0.124513425
145	0x3ce96a1f	0.028492985
146	0xbdd685da	-0.10474749
147	0x3d8f972d	0.07011256
148	0xbd9fb205	-0.077976264
149	0xbc33d518	-0.0109760985
150	0xbe324050	-0.17407346
151	0x3d0db2fc	0.03459452
152	0xbe819764	-0.25310814
153	0xbcfc3c6e	-0.030790534
154	0x3ca9a4a0	0.020708382
155	0xbda1a692	-0.07893099
156	0x3da6046b	0.081063114
157	0xbd3fb525	-0.046803612
158	0x3da42f46	0.08016829
159	0xbd185e94	-0.03719957
160	0xbd8a83ce	-0.06763421
161	0x3be5c245	0.007011684
162	0xbe59fa72	-0.21286944
163	0xbe196cac	-0.14982861
164	0xbcda04bd	-0.026613588
165	0x3d0923c6	0.03348138
166	0xbdfb684d	-0.12275753
167	0xbe224925	-0.15848215
168	0xbd3e4e6c	-0.046461508
169	0xbc90a793	-0.01765803
170	0xbda3681d	-0.079788424
171	0xbbb05a80	-0.005381882
172	0xbddbbc3b	-0.107292615
173	0xbc9000cb	-0.017578503
174	0xbd204731	-0.039130393
175	0xbd2e844c	-0.042606637
176	0x3c22e14e	0.009941412
177	0x3d348a17	0.044077005
178	0xbd9c410c	-0.07629594
179	0xbd9d7aa0	-0.076894045
180	0xbdb9c0fe	-0.090700135
181	0xbd6e1fbf	-0.058135744
182	0xbdc51ee7	-0.09625035
183	0xbe704462	-0.23463586
184	0xbe1a6add	-0.15079828
185	0x3ca5034a	0.02014317
186	0x3e1c3beb	0.15257232
187	0xbb082ff7	-0.0020780542
188	0xbd8801a3	-0.06640937
189	0xbd93b993	-0.0721313
190	0xbda94624	-0.082653314
191	0xbe028dec	-0.12749451
192	0xbdc5bc62	-0.09655072
193	0x3d3fdfe2	0.04684437
194	0x3e288668	0.16457522
195	0x3e12d8ad	0.14340468
196	0xbdee2fb2	-0.11630191
197	0x3d2a92f9	0.04164407
198	0xbdfb53ad	-0.12271819
199	0x3ce7088b	0.028202316
200	0xbcd88b1d	-0.026433522
201	0x3d0841e2	0.033265956
202	0x3a29a720	0.0006471742
203	0xbe12022c	-0.14258641
204	0x3ce58814	0.028018989
205	0x3d98ad68	0.074549496
206	0xbe84f55f	-0.25968453
207	0xbe04a057	-0.1295179
208	0x3e3f84a8	0.18702948
209	0xbcb53790	-0.02212122
210	0x3e6a743a	0.228959
211	0x3e83e310	0.25759172
212	0xbddb0c5a	-0.10695715
213	0x3e3a6f77	0.18206583
214	0x3b323004	0.0027189264
215	0xbdab7ae6	-0.083730504
216	0xbd690dd7	-0.056897964
217	0x3d835f35	0.06414644
218	0x3d3bc2a1	0.04583991
219	0xbdd5f796	-0.10447614
220	0xbd852a3b	-0.065021954
221	0xbe22f4e5	-0.15913732
222	0xbd888ee1	-0.06667877
223	0x3d2aec59	0.041729305
224	0x3e24ac7e	0.16081426
225	0xbdf09434	-0.117470175
226	0x3e47aeca	0.1950027
227	0x3cffce57	0.03122632
228	0xbde30d71	-0.11086548
229	0x3b004129	0.0019570088
230	0x3df58d75	0.119898714
231	0x3d4a05e1	0.049322013
232	0xbe41a99e	-0.1891236
233	0x3dcfb9db	0.10142871
234	0xbe1eff4a	-0.15527073
235	0xbe058901	-0.13040544
236	0x3d95f4fb	0.07322117
237	0x3de24eaf	0.11050164
238	0xbe23a085	-0.15979202
239	0x3b61af64	0.0034436816
240	0xbb8327cb	-0.0040025464
241	0x3e3b6474	0.18300039
242	0x3c8ba791	0.017047675
243	0x3d8907db	0.066909514
244	0xbe37904c	-0.17926139
245	0xbe352bb5	-0.17692454
246	0x3c5db88c	0.013532769
247	0xbe8b1acf	-0.2716889
248	0xbd2b2eef	-0.041792806
249	0x3d85bbcc	0.0652996
250	0xbd5e4754	-0.054267243
251	0xbcb9fe19	-0.022704171
252	0x3dfc658d	0.12324057
253	0xbe673eb8	-0.22582519
254	0x3d7e5eaa	0.062101997
255	0x3da89d4c	0.08233127

actor.2.bias f4 [64]
0	0xbdf4bb41	-0.11949778
1	0xb97409f0	-0.00023273355
2	0xbd2ff003	-0.042953502
3	0xbdeadaa7	-0.11467486
4	0x3df19547	0.117960505
5	0x3c867243	0.016411906
6	0xbe1ddfa7	-0.15417348
7	0xbcbae68d	-0.022815013
8	0xbdf9e50e	-0.12201892
9	0x3c474696	0.012162825
10	0xbdc8be0d	-0.09801874
11	0x3acb09da	0.0015490607
12	0xbd884209	-0.0665322
13	0xbdc612f0	-0.09671581
14	0x3dac0c7a	0.08400817
15	0x3e031e4f	0.1280453
16	0xbe3f365a	-0.18673077
17	0xbd0bd48b	-0.034138244
18	0x3d9a06a9	0.075208016
19	0x3d81064a	0.06300028
20	0xbce3fa51	-0.027829321
21	0x3c95b4f0	0.018274754
22	0xbb919a01	-0.0044434075
23	0x3bc41581	0.005984009
24	0x3e17a86e	0.14810345
25	0x3c7825a4	0.015145693
26	0xbd01491e	-0.03156387
27	0xbd89d8bf	-0.06730794
28	0xbe353388	-0.17695439
29	0xbd4a65ff	-0.049413677
30	0x3dd27cbe	0.10277699
31	0xbe0a83f0	-0.13526893
32	0xbd4b75cf	-0.049672898
33	0x3d84b6e0	0.06480193
34	0xbde5c514	-0.1121923
35	0x3da5480e	0.08070384
36	0x3c7e27ae	0.01551239
37	0xbc8d60c3	-0.017258054
38	0x3debb305	0.11508755
39	0x3d25cddf	0.040479537
40	0x3cb2bc82	0.021818403
41	0xbe3494db	-0.17634909
42	0x3ae3ab0e	0.0017369704
43	0xbdc5e8a1	-0.09663511
44	0x3df00d74	0.11721316
45	0x3cdd5121	0.027016224
46	0xbcc4a777	-0.024005635
47	0xbdb6eeab	-0.08932241
48	0xbc98686f	-0.018604485
49	0x3de48fb5	0.111602224
50	0x3cd9e19d	0.026596839
51	0xbd3c0522	-0.045903333
52	0xbc603fc8	-0.013687082
53	0x3df1b3cf	0.11801874
54	0xbde84e4c	-0.11343059
55	0x3dd05db8	0.101741254
56	0xbcf4f29e	-0.029900845
57	0x3e89afb0	0.2689185
58	0x3dcfcfa4	0.10147026
59	0x3e2bbd13	0.16771345
60	0xbdd38a85	-0.10329155
61	0x3ce70ff3	0.028205847
62	0x3d9f9b7f	0.077933304
63	0x3c311d78	0.010810249

actor.4.weight f4 [36, 64]
0	0xbc4b75e3	-0.012418243
1	0xbca968c7	-0.020679845
2	0x3ddf8dda	0.10915728
3	0xbe58c98a	-0.21170631
4	0xbe79879b	-0.24368136
5	0xbda011f1	-0.07815922
6	0x3d92f5a7	0.07175761
7	0x3cec4267	0.028840257
8	0xbe66c8fb	-0.22537605
9	0xbda9a96d	-0.082842685
10	0xbda8b27d	-0.08237169
11	0xbe4a176e	-0.197355
12	0xbdb56891	-0.08857835
13	0xbd84edc3	-0.06490662
14	0xbeca5007	-0.3951418
15	0x3ed49a72	0.41524082
16	0x3e0daaed	0.13834734
17	0x3d9559e8	0.07292539
18	0x3d5916d1	0.053000275
19	0xbda80ed5	-0.08205954
20	0x3c6e9d8f	0.014563932
21	0xbee99909	-0.4562457
22	0xbe9f44f4	-0.31107295
23	0xbbd473c2	-0.006483526
24	0xbe26f522	-0.16304448
25	0xbe6fa3d2	-0.23402336
26	0xbdd8ef64	-0.10592535
27	0xbd07952e	-0.033101253
28	0xbd812211	-0.06305326
29	0xbe688e15	-0.2271045
30	0x3e6718f3	0.22568111
31	0xbda27652	-0.07932724
32	0xbe1adbb9	-0.1512288
33	0xbe9d1e05	-0.30686966
34	0x3d9807b1	0.07423342
35	0xbd5ce4ed	-0.05392926
36	0x3d4699eb	0.04848663
37	0x3ceb8e86	0.028754484
38	0xbe316fb2	-0.17327765
39	0x3dff9d9a	0.12481232
40	0xbeb907c7	-0.36138746
41	0xbd3198b2	-0.043358512
42	0xbe83d131	-0.25745538
43	0xbecb51c8	-0.39710832
44	0xbe2c3bdb	-0.16819708
45	0x3c4299e1	0.011877508
46	0xbe8fbc59	-0.28073385
47	0x3d3528f9	0.044228528
48	0x3dde704c	0.10861263
49	0xbe25b1db	-0.16181128
50	0x3d10108e	0.035172038
51	0xbe324d41	-0.17412283
52	0xbce21b94	-0.02760104
53	0xbe4ca1c5	-0.19983585
54	0x3d3dbc36	0.04632207
55	0x3e1b5596	0.15169367
56	0xbde2f7f3	-0.11082449
57	0xbf37a832	-0.7174102
58	0xbe9309ef	-0.28718516
59	0xbececc5f	-0.40390298
60	0xbdeba13d	-0.11505363
61	0xbe4090a0	-0.1880517
62	0xbeb32500	-0.34989166
63	0xbda5e035	-0.08099405
64	0xbe0b5bac	-0.13609189
65	0x3ebcbb60	0.36861706
66	0x3dd142d5	0.10217825
67	0xbdf30b33	-0.118673705
68	0x3da56ddc	0.08077595
69	0xbdc8f32e	-0.09812008
70	0x3bda4bef	0.006661884
71	0x3d0d8cf8	0.034558266
72	0x3cbedec7	0.023299588
73	0x3e7c2417	0.24623142
74	0x3d981287	0.07425409
75	0xbbf76240	-0.007549554
76	0x3cb14f96	0.021644395
77	0x3c0d8e62	0.008639904
78	0x3eb896e1	0.3605261
79	0xbd9f921c	-0.0779154
80	0xbe80a2fb	-0.25124344
81	0x3e060362	0.13087228
82	0xbe09e95c	-0.13467926
83	0xbe2cd2e2	-0.1687732
84	0x3c6de8c4	0.014520828
85	0x3e4489d2	0.191932
86	0x3d6cd0d4	0.05781634
87	0xbda9d615	-0.08292786
88	0xbea10f45	-0.31456962
89	0xbe200d07	-0.1562997
90	0x3e18fc99	0.14940108
91	0x3d89a479	0.06720824
92	0x3dbc88a4	0.0920575
93	0xbda8d04d	-0.08242855
94	0xbe5577ac	-0.20846432
95	0xbe495e28	-0.19664824
96	0x3e09a3a0	0.13441324
97	0xbeb6b2b5	-0.35683218
98	0x3e432137	0.19055639
99	0xbe5de8a0	-0.2167077
100	0x3e0ab99a	0.13547364
101	0xbc2a8724	-0.010408197
102	0x3e5e0771	0.21682526
103	0xbd810fea	-0.063018635
104	0x3e676b9a	0.2259964
105	0xbcc9a784	-0.02461601
106	0x3dfe062a	0.124035195
107	0xbdc428c9	-0.09578092
108	0x3e5b59a9	0.21420921
109	0x3ec094a1	0.37613395
110	0xbe804fb5	-0.25060812
111	0x3d79d368	0.06099263
112	0xbdf565a7	-0.11982279
113	0x3dc5c7a0	0.09657216
114	0x3c935514	0.017984904
115	0xbe750cd9	-0.23930682
116	0xbc337a88	-0.010954507
117	0x3eb58b0b	0.35457644
118	0x3dbc6e1a	0.09200688
119	0xbca5e3c4	-0.020250209
120	0x3c480b4c	0.012209725
121	0x3e9a6cbd	0.30161086
122	0xbc9f878b	-0.019473812
123	0x3e3a0a2e	0.18167946
124	0x3e2a49e5	0.16629751
125	0x3db09f93	0.08624186
126	0xbddec361	-0.10877109
127	0xbe79edf1	-0.24407174
128	0x3ea4ea89	0.32210186
129	0xbe73a560	-0.23793554
130	0x3e6249eb	0.2209851
131	0xbd68d68d	-0.056845237
132	0xbd889a90	-0.066701055
133	0x3d54b919	0.051934335
134	0xbd044ba6	-0.032298706
135	0xbe1a68f4	-0.15079099
136	0xbd7e99ca	-0.062158383
137	0xbdb93c30	-0.09044683
138	0x3d7c1284	0.061541095
139	0x3e03eed3	0.12884073
140	0x3ee0b0a5	0.4388477
141	0xbde3565f	-0.11100458
142	0xbdfe3336	-0.124121115
143	0x3da5a18f	0.080874555
144	0x3e999a6b	0.30000624
145	0xbda9a652	-0.08283676
146	0x3f1c45b2	0.61043847
147	0x3e84b659	0.2592037
148	0x3ed9c6cc	0.42534482
149	0xbe53cf26	-0.2068449
150	0x3cf5ccda	0.030004907
151	0xbd902fbd	-0.07040355
152	0x3c09df63	0.008415076
153	0xbe26eb04	-0.16300589
154	0x3c88656f	0.01664993
155	0x3e7120ec	0.23547715
156	0x3e96c009	0.29443386
157	0xbd627a95	-0.055292685
158	0x3ec946b1	0.39311746
159	0xbf107ade	-0.5643748
160	0xbe398f93	-0.18121175
161	0xbdf77d44	-0.120844394
162	0x3d4e3bc9	0.050349984
163	0xbc02878a	-0.007966885
164	0x3be3df11	0.006954082
165	0x3ba1c43b	0.0049367226
166	0x3e6a27bb	0.22866718
167	0x3e4d6da6	0.20061359
168	0x3e14db85	0.14536865
169	0x3d3c53e9	0.04597846
170	0xbea1a9cb	-0.31574854
171	0xbdeabf1f	-0.11462235
172	0xbdd7b40a	-0.105323866
173	0xbd099f48	-0.033599168
174	0xbde16dd1	-0.11007274
175	0x3da0ead4	0.0785729
176	0x3e1fe6cd	0.15615387
177	0x3e76db26	0.24107036
178	0xbd2aa3a4	-0.041659966
179	0x3e9138f1	0.28363755
180	0x3e9f5e21	0.31126502
181	0xbda2f1c8	-0.07956272
182	0x3cea7ba5	0.028623411
183	0x3eea28fe	0.457344
184	0xbe37fc59	-0.17967357
185	0xbf1196b8	-0.56870604
186	0xbe5ac025	-0.2136236
187	0x3ce9ccbd	0.02854001
188	0x3d528c70	0.051403463
189	0x3ea2ac7c	0.3177222
190	0xbe95d409	-0.29263332
191	0x3c965dc1	0.018355252
192	0x3e4c56a2	0.19954923
193	0xbdbacf1f	-0.091215365
194	0x3b69eadf	0.0035692973
195	0xbcbb896d	-0.022892678
196	0x3e1b5709	0.1516992
197	0x3d24420f	0.04010206
198	0x3da7c089	0.0819102
199	0x3dbdbffe	0.09265135
200	0xbe1906ce	-0.14944002
201	0x3d8c73ab	0.068579994
202	0x3db36a3f	0.08760499
203	0xbca04415	-0.019563714
204	0x3eabfffb	0.33593735
205	0xbe5289cf	-0.20560382
206	0x3c8af71c	0.016963534
207	0x3e83e1f4	0.25758326
208	0x3d81641e	0.06317924
209	0x3b970439	0.0046086577
210	0x3d60c00e	0.054870658
211	0x3de8f6ea	0.1137522
212	0x3cb6bf1d	0.022307927
213	0xbd521d19	-0.05129728
214	0xbe5a6b6c	-0.2133004
215	0x3dd9d425	0.106361665
216	0x3d1b842b	0.037967842
217	0xbe2c8d52	-0.16850784
218	0x3dd75d6e	0.10515867
219	0xbd077945	-0.033074636
220	0x3e1ba0fd	0.15198131
221	0x3d36ec33	0.04465885
222	0x3ea2a39c	0.3176545
223	0xbe9d0583	-0.30668268
224	0x3e770534	0.24123079
225	0x3ce13b84	0.0274942
226	0x3d8e2a5a	0.06941672
227	0xbe087b71	-0.13328339
228	0xbcac93ed	-0.02106663
229	0xbdbb2aca	-0.09139021
230	0x3d46414c	0.048402116
231	0xbdfead80	-0.12435436
232	0x3ddce1b2	0.107852355
233	0x3e4ca1a7	0.1998354
234	0xbd09099d	-0.033456434
235	0xbe8be615	-0.27323976
236	0xbdcf7285	-0.10129265
237	0x3e00bdaf	0.12572359
238	0xbe262e5f	-0.16228627
239	0xbcb8f25b	-0.022576502
240	0x3c8626c4	0.016375907
241	0x3cc5c153	0.024140036
242	0x3cf43d22	0.029814307
243	0x3ca2f8fa	0.019894112
244	0x3e6a959f	0.22908638
245	0x3e09e195	0.13464959
246	0x3cf76659	0.03020017
247	0x3e4d572e	0.20052788
248	0x3e107c5c	0.1410994
249	0xbe2fe652	-0.17177704
250	0xbe0726ba	-0.13198367
251	0x3de7d1a1	0.113192804
252	0xbd6f21db	-0.058381896
253	0x3e6a8651	0.229028
254	0xbebf7ca9	-0.37399796
255	0x3cf92114	0.03041128

actor.4.bias f4 [36]
0	0xbe29bb77	-0.16575418
1	0x3e928a8d	0.2862133
2	0xbe0f15e9	-0.13973202
3	0xbc7d968b	-0.015477787
4	0x3e303cb3	0.17210655
5	0xbe21bd49	-0.15794863
6	0x3bcb76e1	0.00620924
7	0x3e1cd56a	0.15315786
8	0x3defc838	0.117081106
9	0xbdf767e4	-0.120803624
10	0xbc074293	-0.008255619
11	0xbc45a731	-0.012063787
12	0x3e32369b	0.17403643
13	0x3d6db9df	0.05803859
14	0x3d9e85b2	0.07740344
15	0x3d876f62	0.066130415
16	0xbdcee7c1	-0.10102797
17	0x3c9a3a22	0.018826548
18	0x3dcbfffe	0.09960936
19	0xbe0fce90	-0.14043641
20	0xbe99aca3	-0.30014524
21	0x3d758446	0.0599406
22	0xbb7b6f9d	-0.0038366087
23	0xbe8bc0b6	-0.27295464
24	0x3e520849	0.20510973
25	0xbdfdc16e	-0.123904094
26	0x3e816c3f	0.25277898
27	0x3ca888f9	0.020573126
28	0xbdb93f8c	-0.09045324
29	0x3dc05581	0.093913086
30	0x3d4819a6	0.048852585
31	0xbd65f5fa	-0.056142785
32	0x3d05203a	0.032501437
33	0x3c9fb670	0.019496173
34	0x3d70aa4c	0.058756158
35	0x3e964f36	0.29357308

critic.0.weight f4 [64, 62]
0	0x3d9c60c8	0.07635647
1	0x3dab196a	0.08354457
2	0xbdabd831	-0.083908446
3	0x3c1b5b6c	0.009482246
4	0xbdead0ce	-0.114656076
5	0xbd746ff9	-0.059677098
6	0x3c8c71e4	0.017144151
7	0xbcb093fa	-0.021554936
8	0xbd62b119	-0.055344675
9	0x3b08ea44	0.0020891586
10	0xbdd46bbe	-0.10372113
11	0x3ab333c6	0.0013672046
12	0xbde0c755	-0.109755196
13	0xbda3947b	-0.07987305
14	0xbe15a44a	-0.14613453
15	0xbe074397	-0.13209377
16	0xbc0910fe	-0.008365868
17	0xbddd20ab	-0.107972465
18	0xbdf7fe13	-0.12109008
19	0x3db676c8	0.089093745
20	0xbdbb4a0c	-0.09144983
21	0x3db6177c	0.08891198
22	0x3c1010d6	0.0087930765
23	0xbc983c3e	-0.018583413
24	0x3dc93eef	0.09826457
25	0xbdcb1727	-0.09916525
26	0x3d7934c0	0.060841322
27	0x3dad99b3	0.084765814
28	0x3e106881	0.14102365
29	0xbe6c712d	-0.23090048
30	0xbc1744f4	-0.009232748
31	0xbdcc176e	-0.09965406
32	0xbdc0fbf2	-0.09423055
33	0x3db1a39a	0.08673783
34	0xbcb73252	-0.022362862
35	0x3dafeb73	0.0858983
36	0xbd8c0d16	-0.068384334
37	0xbd66b474	-0.056324437
38	0x3dfc6ee6	0.1232584
39	0x3d85ec09	0.06539161
40	0x3d9510c4	0.072785884
41	0x3d5de969	0.054177675
42	0x3e037fb0	0.12841678
43	0xbdf2a4ef	-0.11847865
44	0xbd06e888	-0.032936603
45	0x3d05eba0	0.032695413
46	0xbd44cb3b	-0.04804538
47	0xbe3f33e9	-0.18672146
48	0x3c8061ae	0.015671577
49	0xbe1e619d	-0.15466924
50	0xbd95f8a2	-0.073228136
51	0xbe2f4cb6	-0.17119107
52	0x3d00b712	0.03142459
53	0xbba17277	-0.0049269754
54	0xbdc66a89	-0.09688289
55	0x3ce5285e	0.02797335
56	0xbcc53342	-0.024072293
57	0x3d30368a	0.043020763
58	0xbd24d730	-0.04024428
59	0xbe28c9b3	-0.16483192
60	0xbe4e385f	-0.20138691
61	0xbcfdb36f	-0.03096935
62	0xbde719dd	-0.1128423
63	0x3d83bfcc	0.06433067
64	0xbc8d3928	-0.017239168
65	0xbd4d2513	-0.050084185
66	0x3de167b7	0.1100611
67	0x3cd15726	0.02555425
68	0xbd33a592	-0.043859072
69	0x3d0e90c5	0.03480603
70	0xbd8da857	-0.06916874
71	0xbe57ae04	-0.21062475
72	0xbdaae9ca	-0.08345373
73	0x3caf4534	0.021395303
74	0xbd641e10	-0.055692732
75	0x3e1978f7	0.1498755
76	0x3c91a61b	0.0177794
77	0xbc00836f	-0.007843836
78	0x3dd4f5a3	0.10398414
79	0x3ddf2efb	0.10897633
80	0x3d8b91bf	0.06814908
81	0xbbdf0445	-0.006805929
82	0xbd05605d	-0.032562602
83	0xbdf85976	-0.12126438
84	0x3d88dae2	0.066823736
85	0xbcebcd00	-0.028784275
86	0x3ca310a8	0.019905403
87	0xbceaf3ed	-0.028680766
88	0x3da7fc15	0.08202378
89	0x3b843abd	0.0040353225
90	0x3db10a15	0.08644501
91	0xbb70667e	-0.0036682184
92	0x3be00711	0.00683678
93	0xbd845291	-0.06461061
94	0x3d70dd73	0.05880494
95	0xbd99545f	-0.07486796
96	0x3db6e9b5	0.08931295
97	0x3dc97be7	0.098380856
98	0x3ce651f0	0.028115243
99	0xbc94e558	-0.018175766
100	0x3de5c370	0.11218917
101	0x3de1090a	0.10988052
102	0xbd0fe00c	-0.035125777
103	0xbe0fab21	-0.14030124
104	0xbd4a55ae	-0.049398117
105	0xbdfea4cb	-0.124337755
106	0x3d9a7104	0.07541087
107	0xbe07d371	-0.13264252
108	0xbd480701	-0.048834804
109	0x3e3cfba4	0.18455368
110	0x3e770a25	0.24124964
111	0x3c0ee3aa	0.0087212715
112	0xbcd22c08	-0.025655761
113	0x3d05bd89	0.032651458
114	0xbd3f1bb0	-0.046657264
115	0x3b65be87	0.003505619
116	0xbe4b20b7	-0.19836698
117	0xbee67f95	-0.45019212
118	0xbe1c1234	-0.15241319
119	0x3d48468e	0.04889541
120	0xbd808d45	-0.06276945
121	0xbbab3ba6	-0.0052256165
122	0x3dd89bfe	0.10576628
123	0x3ddf119d	0.10892031
124	0xbdd74f1a	-0.10513134
125	0x3da32314	0.07965675
126	0x3dd7641f	0.105171435
127	0x3d472423	0.048618447
128	0xbe0fa113	-0.14026289
129	0x3d00416e	0.0313124
130	0xbdc09ce5	-0.09404925
131	0xbdc491c0	-0.09598112
132	0xbd046cf8	-0.032330483
133	0xbdd0187a	-0.101609185
134	0x3dc92e06	0.098232314
135	0x3d9c848d	0.076424696
136	0xbe25693d	-0.16153426
137	0x3cdcb784	0.026942976
138	0xbdf7e88a	-0.121049
139	0xbdd3363f	-0.10313081
140	0xbca31f01	-0.019912245
141	0xbd99a10a	-0.07501419
142	0x3df274de	0.11838697
143	0xbdd3839b	-0.10327836
144	0x3df2c62b	0.11854204
145	0xbcafec77	-0.02147506
146	0x3cbc58ce	0.022991564
147	0x3de27c04	0.1105881
148	0xbd70b2c3	-0.05876423
149	0xbd40bdad	-0.04705589
150	0x3d5737c4	0.052543417
151	0xbd03cac2	-0.032175787
152	0xbdec0e2e	-0.11526142
153	0x3cd31263	0.025765603
154	0x3b4ae879	0.0030961318
155	0x3d8d1204	0.06888202
156	0xbd63e6a6	-0.055639885
157	0x3d537ec6	0.051634572
158	0x3c4969fd	0.012293336
159	0xbdc80e22	-0.097683206
160	0xbdc28d22	-0.09499575
161	0xbd159b43	-0.036525022
162	0xbe49f3dc	-0.19721931
163	0x3dd9dccf	0.10637819
164	0xbd75aa48	-0.059976846
165	0xbced39de	-0.028958257
166	0xbd2749f6	-0.04084202
167	0xbbbae4cb	-0.005703544
168	0xbc2aeed3	-0.010432917
169	0xbdb95eb9	-0.0905127
170	0xbdf432b6	-0.11923735
171	0xbdf63b56	-0.12023036
172	0xbe374436	-0.17897114
173	0x3cb434bd	0.021997804
174	0xbdc8004f	-0.09765684
175	0x3d2ea291	0.042635504
176	0x3d7767de	0.06040179
177	0xbb7efde6	-0.003890866
178	0x3c30783a	0.010770852
179	0xbdc69e9d	-0.09698222
180	0xbe6a5327	-0.22883283
181	0xbbe9a2b5	-0.007129992
182	0xbd5292d7	-0.05140957
183	0x3db99be5	0.09062938
184	0xbc388a45	-0.011263435
185	0xbd061273	-0.03273244
186	0xbdeb8e5d	-0.11501763
187	0xbdef11c2	-0.11673309
188	0xbdd9ab8d	-0.10628424
189	0x3db5f55c	0.08884689
190	0xbea25e1a	-0.3171242
191	0xbe635ce8	-0.2220341
192	0xbe18ea16	-0.14933047
193	0x3e70753f	0.23482226
194	0x3d733d5b	0.059384685
195	0xbd5a5d9d	-0.053311933
196	0x3dde8bd8	0.10866517
197	0x3e99f813	0.30072078
198	0x3d2ecee1	0.042677764
199	0x3cd7105c	0.026252918
200	0x3df615cf	0.120158784
201	0x3e28a289	0.16468252
202	0xbd1b5f91	-0.037932936
203	0xbda16d4b	-0.07882174
204	0xbdabc982	-0.08388044
205	0x3db82345	0.08991102
206	0x3caca5da	0.021075178
207	0x3d2ab859	0.041679714
208	0xbdbd03d5	-0.092292465
209	0x3cc0e2b2	0.023545597
210	0x3de7b48d	0.11313734
211	0x3d8e754d	0.06955967
212	0xbbb6094c	-0.0055553075
213	0xbd6f7937	-0.05846521
214	0x3e6cf23b	0.23139279
215	0xbabde5a6	-0.0014487996
216	0xbde9a0f9	-0.11407656
217	0x3e260965	0.16214521
218	0xbd13870b	-0.03601746
219	0xbba404a7	-0.0050054374
220	0xbcf4dd5b	-0.029890707
221	0xbd9a498e	-0.07533561
222	0xbe151d5a	-0.14561978
223	0xbe03659e	-0.12831733
224	0xbea838ba	-0.3285578
225	0x3e436698	0.19082105
226	0x3d821bca	0.063529566
227	0xbe9761f3	-0.29566917
228	0x3e407506	0.18794641
229	0x3e52ee70	0.20598769
230	0xbe50f44a	-0.20405689
231	0xbe505404	-0.2034455
232	0x3d87ed5b	0.06637069
233	0xbe0460ab	-0.12927501
234	0xbe216fd8	-0.15765321
235	0xbe3a844c	-0.1821453
236	0x3dbff06d	0.093720295
237	0xbd92de9f	-0.07171368
238	0x3db715bd	0.08939693
239	0xbe055263	-0.1301971
240	0xbc8d16de	-0.017222818
241	0x3d0cbf1a	0.034361936
242	0xb94c9b50	-0.00019512814
243	0xbca04713	-0.01956514
244	0xbbf53547	-0.007483158
245	0x3d90143f	0.07035112
246	0xbe07d375	-0.13264258
247	0x3d4076e6	0.04698839
248	0x3d8bf83e	0.06834458
249	0x3db87901	0.09007455
250	0xbdea2ed0	-0.1143471
251	0xbda831c8	-0.0821262
252	0xbb872c83	-0.0041251793
253	0xbde9fc5f	-0.11425089
254	0xbd4e2e41	-0.05033708
255	0x3b0eb9de	0.0021778266

critic.0.bias f4 [64]
0	0xbe398d4e	-0.1812031
1	0x3c8b6b2c	0.017018877
2	0xbdf24c06	-0.118309066
3	0x3ca0f856	0.019649666
4	0xbe228e53	-0.15874605
5	0xbae7c6e4	-0.0017683175
6	0xbc2682f2	-0.010163056
7	0xbe8a384a	-0.2699607
8	0xbe270f04	-0.16314322
9	0xbde645b3	-0.11243763
10	0xbe324ccc	-0.17412108
11	0xbd7ed34a	-0.06221322
12	0xbdfc0d6f	-0.1230725
13	0xbe2fb011	-0.17157008
14	0xbdb3a04f	-0.08770811
15	0xbdb15601	-0.08658982
16	0xbdd1b79a	-0.10240097
17	0x3e79d437	0.2439736
18	0xbdf9827c	-0.12183091
19	0x3d5e5724	0.054282323
20	0xbe044cdc	-0.12919945
21	0x3d1c6122	0.03817857
22	0xbdb0e28f	-0.086369626
23	0xbe15cf17	-0.1462978
24	0xbd0bd357	-0.034137096
25	0xbe414d10	-0.18877053
26	0xbe683ca5	-0.22679384
27	0xbe2b9036	-0.16754231
28	0x3e041164	0.12897259
29	0xbd4427c4	-0.047889486
30	0xbd8a1dd2	-0.06743969
31	0xbd570de8	-0.052503496
32	0xbe09db97	-0.13462673
33	0xbd4a8c94	-0.049450472
34	0xbdd1bf57	-0.10241573
35	0xbb8e9cb1	-0.004352175
36	0x3df162c5	0.11786417
37	0x3caeac47	0.021322383
38	0xbdfc8c9f	-0.12331509
39	0x3da9be1b	0.08288213
40	0xbdf97bd8	-0.121818244
41	0xbe1ffe9a	-0.15624467
42	0xbe490076	-0.19629082
43	0xbd0c8eab	-0.034315746
44	0xbe2e0ece	-0.16997835
45	0xbe3772ea	-0.1791493
46	0x3b06869b	0.0020527008
47	0x3bffc856	0.0078058643
48	0xbdad7556	-0.08469646
49	0xbdee261c	-0.116283625
50	0x3d48a947	0.04898956
51	0x3d5f6ca6	0.054546975
52	0x3dd510f1	0.10403622
53	0xbe2b6515	-0.16737778
54	0xbe263f25	-0.16235025
55	0xbe715ee8	-0.2357136
56	0x3dcdeec3	0.10055306
57	0xbdb7944b	-0.089638315
58	0xbe069dca	-0.13146129
59	0x3c76922c	0.0150494985
60	0x3dce426a	0.10071261
61	0xbe3ed277	-0.18634973
62	0xbe35659e	-0.17714545
63	0xbe6a8560	-0.22902441

critic.2.weight f4 [64, 64]
0	0xbcfcbf00	-0.030852795
1	0x3dcbcab2	0.099507704
2	0x3d93bede	0.072141394
3	0x3d365407	0.04451373
4	0xbd28bde4	-0.04119672
5	0xbdd43261	-0.103611715
6	0x3c2348b0	0.0099660605
7	0x3e03d7ce	0.12875292
8	0x3d08955c	0.033345565
9	0x3cc7fad4	0.024411596
10	0xbb4b1a91	-0.0030991177
11	0x3e8ee2ee	0.2790751
12	0xbcdb9089	-0.026802318
13	0x3e8df64b	0.2772697
14	0xbd8effe6	-0.069824025
15	0x3deaf55d	0.114725806
16	0x3cf1a3cf	0.029497055
17	0x3eca39d0	0.39497232
18	0xbd6ceb71	-0.057841722
19	0x3e81c19e	0.2534303
20	0xbb9ebf0e	-0.004844553
21	0xbe5d0b50	-0.21586347
22	0x3d2b131f	0.041766282
23	0x3e2fdbcd	0.17173691
24	0xbd1177cc	-0.035514638
25	0xbdb69a19	-0.089161105
26	0xbd5c8dcf	-0.053846177
27	0x3d1f9341	0.03895879
28	0xbda8f1aa	-0.08249219
29	0x3e3fde89	0.18737234
30	0x3a308f34	0.0006735206
31	0x3c4161ba	0.011803085
32	0x3e32465b	0.17409651
33	0xbe3b11cd	-0.18268509
34	0x3c07fbbb	0.008299763
35	0x3e94b182	0.29041678
36	0xbed902e7	-0.42385027
37	0x3d8e5740	0.06950235
38	0xbb20e029	-0.0024547672
39	0x3c446efc	0.011989351
40	0x3d81872e	0.063246116
41	0x3e103f9a	0.14086762
42	0x3dcfadd5	0.10140578
43	0xbe11ee19	-0.14250983
44	0xbb2b4d00	-0.0026138425
45	0xbde6acef	-0.11263453
46	0x3ce52948	0.027973786
47	0xbe8f0651	-0.27934507
48	0x3df16d95	0.11788479
49	0x3df14006	0.117797896
50	0xbe85856f	-0.26078364
51	0x3e7f57ff	0.24935912
52	0xbe370bfc	-0.17875665
53	0xbdbd7f73	-0.09252825
54	0xbdab16fc	-0.08353993
55	0xbd855f7d	-0.065123536
56	0x3e8962f2	0.26833302
57	0x3d85651b	0.06513425
58	0xbd3e1dbb	-0.046415072
59	0xbddcebdd	-0.10787175
60	0xbe0eb27b	-0.13935272
61	0x3c4c0a13	0.012453574
62	0x3e09fb25	0.1347471
63	0xbd1ce005	-0.03829958
64	0xbc6d49e0	-0.014482945
65	0x3b8c7d04	0.004287364
66	0xbc91bf16	-0.017791312
67	0xbcb77932	-0.022396658
68	0xbdb39eee	-0.08770548
69	0xbd8eaf22	-0.06966998
70	0xbda7f724	-0.08201435
71	0x3da78576	0.081797525
72	0xbd5cf3c8	-0.053943425
73	0xbdf73814	-0.12071243
74	0xbdd4a192	-0.103823796
75	0xbdd3fb1f	-0.10350632
76	0xbd235c7e	-0.03988313
77	0xbd8a263e	-0.06745575
78	0xbdd7f6a5	-0.105450906
79	0xbd641197	-0.055680837
80	0x3da926d5	0.0825936
81	0xbe0202b6	-0.12696347
82	0xbcf7193f	-0.030163405
83	0x3dc8a939	0.09797902
84	0x3d842b4b	0.0645357
85	0x3c5c2509	0.013436564
86	0x3d0d5ffb	0.034515362
87	0xbd6c9e96	-0.057768427
88	0xbde7a325	-0.11310414
89	0xbdb712c0	-0.08939123
90	0xbdb62afa	-0.08894916
91	0x3d9c7236	0.076389715
92	0xbc554e98	-0.0130192265
93	0xbdeb8736	-0.11500399
94	0xbde3af10	-0.11117375
95	0xbcd6e1c1	-0.026230695
96	0x3d901a74	0.070362955
97	0xbc06bad3	-0.008223253
98	0x3bf5722c	0.007490417
99	0xbd26a9a4	-0.040689126
100	0xbcac7335	-0.021051029
101	0x3d62b1f5	0.055345494
102	0x3cd4ff47	0.026000632
103	0xbd01299f	-0.031533834
104	0x3dffcf50	0.124907136
105	0x3d95eaa5	0.073201455
106	0x3cf384a5	0.029726336
107	0x3d338298	0.043825716
108	0x3d59e590	0.053197443
109	0xbd011a17	-0.03151902
110	0x3c0ee4a8	0.008721508
111	0xbd5321ee	-0.05154603
112	0xbd663516	-0.05620297
113	0xbc961434	-0.01832018
114	0xbdc85a7c	-0.097828835
115	0x3d98c35d	0.074591376
116	0xbdcf058e	-0.10108481
117	0xbdbf400b	-0.09338387
118	0xbcfacc73	-0.030615067
119	0x3d8869f6	0.066608354
120	0xbd9b6084	-0.07586768
121	0xbcd7d509	-0.0263467
122	0x3d65e84c	0.05612974
123	0xbdeec054	-0.116577774
124	0x3dd42c6d	0.10360036
125	0x3d61c951	0.05512363
126	0x3cc71b9c	0.024305157
127	0xbc45b7a4	-0.012067709
128	0x3daacc32	0.083397284
129	0x3d8b5e20	0.06805062
130	0xbd8b45bd	-0.06800411
131	0x3c1ffa60	0.009764284
132	0xbdd75135	-0.10513536
133	0xbcaa36e5	-0.020778129
134	0xbcbbd344	-0.022927888
135	0x3d80eade	0.06294797
136	0xbe575b3c	-0.21030897
137	0xbd10b331	-0.03532714
138	0xbe1696ed	-0.14706011
139	0xbe2c886e	-0.16848919
140	0xbd126018	-0.035736173
141	0x3d4248d0	0.04743272
142	0x3d8e56f8	0.06950182
143	0xbd38f250	-0.045152962
144	0xbdbadbb2	-0.09123935
145	0xbe043cac	-0.1291377
146	0xbc007953	-0.007841426
147	0xbcf0a0bb	-0.029373517
148	0x3cf762bd	0.03019845
149	0x3e25fae0	0.16208982
150	0x3e0a5891	0.13510348
151	0x3ce514c0	0.027963996
152	0x3c2adc46	0.010428494
153	0x3da22ea4	0.07919052
154	0x3d36ea15	0.04465683
155	0xbc548fee	-0.012973769
156	0x3e1a4066	0.15063629
157	0xbe403548	-0.18770325
158	0x3dbc4bb2	0.09194125
159	0x3bfe6342	0.0077632973
160	0xbd71c0cd	-0.05902176
161	0xbd92c99a	-0.07167359
162	0x3a4386fe	0.0007458775
163	0xbd3ac00c	-0.045593306
164	0x3e2f835b	0.17139952
165	0x3cfe4ac7	0.031041516
166	0x3dd8a913	0.10579123
167	0x3dfc482c	0.12318453
168	0xbdb89b5d	-0.09014008
169	0x3d1b62ff	0.037936207
170	0xbce679d3	-0.028134262
171	0xbc37a1c8	-0.011208005
172	0xbd463e41	-0.048399214
173	0xbea99017	-0.33117744
174	0xbda992e4	-0.0827997
175	0x3d10ea5b	0.03537975
176	0x3dedb202	0.11606218
177	0xbc125671	-0.008931742
178	0xbe350a39	-0.17679681
179	0xbe39d803	-0.18148808
180	0x3dc692f5	0.096959986
181	0x3d7a56a7	0.061117794
182	0xbdad798d	-0.084704496
183	0x3d4a9634	0.04945965
184	0x3d7b450f	0.061345156
185	0x3c55f51d	0.013058928
186	0x3d124dd8	0.03571877
187	0x3d4fbf93	0.05071981
188	0x3a7ce3ea	0.0009646999
189	0xbd4a2e97	-0.049360838
190	0x3d353ea4	0.044249192
191	0xbd557508	-0.052113563
192	0x3c152cbc	0.009104904
193	0xbcf98c25	-0.030462334
194	0xbd5bc5fc	-0.05365561
195	0xbd0198fa	-0.03164003
196	0x3cdf8589	0.027285354
197	0xbded398c	-0.11583242
198	0x3cd81d3f	0.026381133
199	0x39f4b6cc	0.000466755
200	0xbd387597	-0.045034017
201	0xbe320666	-0.17385253
202	0x3cf47b4e	0.029843953
203	0xbcf27a8a	-0.029599447
204	0x3cdcd57d	0.026957268
205	0xbdf8fb1c	-0.1215727
206	0x3ddf3440	0.10898638
207	0x3dc7102b	0.09719881
208	0x3cff1742	0.03113902
209	0x3b2eec54	0.0026691156
210	0xbe390e14	-0.18071777
211	0x3cd67b53	0.026181852
212	0x3d42206d	0.047394205
213	0x3d8e2de1	0.069423445
214	0xbdab23d1	-0.08356441
215	0x3d79b9d5	0.06096824
216	0xbdfd8b86	-0.123801276
217	0xbde6edce	-0.112758264
218	0xbc242fdc	-0.010021176
219	0xbc6a1fc1	-0.014289797
220	0x3cb6fb85	0.02233673
221	0xbd45f781	-0.04833174
222	0x3d6d3ee1	0.057921294
223	0xbddd08f4	-0.10792723
224	0x3dbce2cb	0.09222945
225	0x3daba006	0.083801314
226	0xbd91f2bc	-0.07126376
227	0xbde07958	-0.109606445
228	0xbb489363	-0.0030605427
229	0xbdf0860d	-0.11744318
230	0xbdae4a22	-0.085102335
231	0x38881efc	6.490757e-05
232	0xbdc8ecee	-0.09810816
233	0x3e134320	0.14381075
234	0xbd608233	-0.054811668
235	0x3d1ad899	0.03780422
236	0xbde2c51c	-0.11072752
237	0x3d7f4026	0.062317036
238	0xbd7ae1bf	-0.061250445
239	0xbd718882	-0.058968075
240	0xbdbfbe22	-0.09362437
241	0xbabcd9f1	-0.0014408213
242	0xbdbd51e5	-0.09244136
243	0xbdffeeea	-0.12496741
244	0x3d510797	0.05103263
245	0x3caa46a7	0.020785643
246	0xbdc62bac	-0.096762985
247	0x3e022944	0.12711054
248	0xbd085fd2	-0.033294506
249	0x3d8b8129	0.06811745
250	0xbd041776	-0.032248937
251	0xbe31f324	-0.17377907
252	0xbd6d9fcd	-0.058013726
253	0xbd86bfab	-0.065795265
254	0x3dbda396	0.09259717
255	0x3d985b93	0.074393414

critic.2.bias f4 [64]
0	0x3e03d803	0.1287537
1	0xbd9615b5	-0.07328359
2	0x3c25c6bb	0.010118182
3	0xbdc6a223	-0.09698894
4	0xbdd918a9	-0.10600407
5	0xbbc6e536	-0.0060698045
6	0xbd7adb57	-0.061244335
7	0xbdf5f732	-0.120100394
8	0xbe0b5cff	-0.13609694
9	0xbe06e5eb	-0.13173644
10	0x3d93fdf3	0.07226171
11	0x3e041485	0.12898453
12	0xbda18f3f	-0.0788865
13	0x3e1efeeb	0.15526931
14	0xbd78b35a	-0.060717918
15	0xbc0c4d11	-0.008563296
16	0xbdad4871	-0.08461083
17	0xbe0f323f	-0.13984011
18	0xbc1a5f2d	-0.009422106
19	0x3d2064a0	0.039158463
20	0x39b6252c	0.0003474144
21	0xbc9b6fcd	-0.01897421
22	0xbe194524	-0.14967781
23	0xbe2e5f23	-0.1702848
24	0xbc6874ff	-0.01418805
25	0xbe13f55b	-0.14449064
26	0xbd9b5c53	-0.07585969
27	0xbe2af827	-0.16696225
28	0xbd017073	-0.03160138
29	0x3d36ef2e	0.044661693
30	0xbded7924	-0.11595371
31	0xbd635e9f	-0.05551016
32	0xbde2e6d1	-0.11079181
33	0xbddb0cb6	-0.10695784
34	0x3e36f425	0.17866571
35	0xbd739667	-0.059469607
36	0xbe20c8c7	-0.1570159
37	0xbe459763	-0.1929603
38	0xbde7af04	-0.113126785
39	0xbda3a5af	-0.07990586
40	0xbc3789d9	-0.011202299
41	0xbdb2dd8a	-0.087336615
42	0xbd6900a8	-0.05688539
43	0xbd3d0263	-0.046144854
44	0xbd335b21	-0.04378808
45	0x3db4a4f2	0.08820523
46	0xbc08fd6e	-0.008361204
47	0xbcf14f5b	-0.029456785
48	0x3d293fb6	0.041320525
49	0xbcece6dd	-0.028918678
50	0x3e19a120	0.1500287
51	0xbdfc7b9d	-0.12328265
52	0xbd8640e4	-0.06555346
53	0xbe2603fe	-0.1621246
54	0xbda2e3f7	-0.07953637
55	0xbd9e2f94	-0.077239186
56	0x3e06b5ae	0.13155243
57	0x3e014cd8	0.1262697
58	0xbdadf80d	-0.084945776
59	0xbdad4829	-0.08461029
60	0xbda2a5e8	-0.079418
61	0xbcb6fa9b	-0.022336295
62	0xbe288e4b	-0.1646053
63	0xbe2e4f4b	-0.17022435

critic.4.weight f4 [1, 64]
0	0xbdebec54	-0.115196854
1	0x3d03b76d	0.03215735
2	0x3d636dd7	0.055524673
3	0x3c10fe7d	0.008849737
4	0xbda71879	-0.08158965
5	0xbd7a4cc1	-0.061108354
6	0x3d4ccf3b	0.050002318
7	0x3dc1dd75	0.09466068
8	0x3d94e50b	0.07270249
9	0x3d0bf788	0.03417161
10	0x3de1d4e7	0.11026936
11	0x3d3f7705	0.046744365
12	0x3b1cd2fe	0.0023929472
13	0x3e1a9fc4	0.15100008
14	0xbcf32f2e	-0.029685583
15	0x3d986fe5	0.07443217
16	0xbd70af93	-0.05876119
17	0x3b240ad7	0.0025030875
18	0x3c928f32	0.017890546
19	0x3d158fdf	0.03651416
20	0xbd160166	-0.036622427
21	0xbaba6343	-0.0014220256
22	0xbbb27960	-0.005446598
23	0x3ddf8612	0.10914244
24	0xba12f572	-0.0005606032
25	0x3c53909b	0.012912895
26	0x3d51a020	0.051178098
27	0x3c9f9c3f	0.019483684
28	0x3c7ad01f	0.015308409
29	0x3bc953a9	0.0061440063
30	0xbd176df0	-0.03697008
31	0x3c49353b	0.012280758
32	0xbb84745e	-0.0040421924
33	0x3d80d4ec	0.062906116
34	0xbde84aa9	-0.11342365
35	0x3bc5d23d	0.0060370252
36	0x3ad13d7d	0.001596376
37	0xbd0df863	-0.03466071
38	0xbe36dbaf	-0.1785724
39	0xbac481ea	-0.0014992331
40	0x3ac326be	0.0014888865
41	0x3d0b79e2	0.034051783
42	0x3d7b9456	0.06142076
43	0xba78967f	-0.0009482875
44	0xbc87d244	-0.016579755
45	0x3d3fb056	0.046799026
46	0x3dffb4bc	0.12485644
47	0x3da51820	0.08061242
48	0xbd96f328	-0.07370597
49	0xbb954f43	-0.004556568
50	0xbdd37656	-0.10325305
51	0x3d70e8b6	0.05881568
52	0x3de46135	0.11151353
53	0x3d0db40f	0.034595545
54	0x3c8b0f12	0.01697496
55	0xbc9d5c77	-0.01920913
56	0x3dd4fc52	0.10399689
57	0x3e167b28	0.14695418
58	0x3d489192	0.04896695
59	0xbac6c53d	-0.0015164983
60	0xbdd551e7	-0.10416012
61	0x3d935a12	0.07194914
62	0xbc57e949	-0.013178178
63	0xbcfcb616	-0.030848544
