RL/CC2-Cardiff-implementation/GT-Cardiff-CC2/Models/PPOxCCE-C1/5000.pth (torch, 78850 bytes, 11 tensors)

actor.0.weight f4 [64, 62]
0	0xba7940ed	-0.0009508271
1	0x3d8b86e7	0.0681284
2	0xbdd6122a	-0.10452683
3	0xbdbf6a3c	-0.093464345
4	0xbd11c0c6	-0.035584234
5	0x3e814c50	0.25253534
6	0x3d999dbd	0.07500789
7	0x3e8c2728	0.27373624
8	0x3dc36412	0.09540571
9	0x3dbf96ad	0.09354911
10	0xbb5f259f	-0.0034049524
11	0xbdc639b8	-0.09678978
12	0xbe76ed02	-0.24113849
13	0xbdabd60f	-0.08390438
14	0xbddee7f1	-0.10884083
15	0x3dd0ea95	0.10200993
16	0x3d4da681	0.05020762
17	0x3d9c104d	0.076202966
18	0xbdb05477	-0.086098604
19	0xbd628646	-0.055303834
20	0x3d3cf15d	0.04612862
21	0x3dd7fb15	0.10545937
22	0xbcd61c86	-0.026136648
23	0x3dc2a212	0.09503569
24	0xbca7b158	-0.020470306
25	0x3c5c2cc0	0.013438404
26	0x3deb82cf	0.11499559
27	0xbdf14899	-0.11781425
28	0xbe06d3c0	-0.13166714
29	0x3d9f9c93	0.07793536
30	0xbdbb9669	-0.09159548
31	0x3e06d9b3	0.13168983
32	0xbda896cf	-0.082318895
33	0xbd6f7633	-0.058462333
34	0xbdb5b6b9	-0.08872742
35	0xbdf39894	-0.11894336
36	0xbc9722f8	-0.018449292
37	0x3e26323f	0.16230105
38	0x3c5c2c18	0.013438247
39	0xbd0c532d	-0.03425901
40	0xbd99b372	-0.075049296
41	0xbe388967	-0.18021165
42	0xbe1257ae	-0.1429126
43	0xbe030f56	-0.12798819
44	0xbe05e2d6	-0.13074812
45	0xbdc2112c	-0.094759315
46	0x3ed812f0	0.42201948
47	0xbd09f152	-0.033677407
48	0x3d8d368b	0.06895169
49	0x3e73c332	0.2380493
50	0x3eb29fdb	0.34887585
51	0x3cf989f2	0.030461285
52	0x3d4e7484	0.050404087
53	0x3ca38b5b	0.01996391
54	0x3e577253	0.21039705
55	0xbdba5736	-0.090986654
56	0x3dbc9af2	0.09209241
57	0xbdc9a770	-0.09846389
58	0xbe110db2	-0.1416538
59	0xbca5ba94	-0.020230569
60	0xbd5440d1	-0.051819626
61	0xbb8b03c8	-0.004242394
62	0xbd9a1194	-0.07522884
63	0x3d1d2763	0.03836764
64	0x3d8ec91b	0.069719516
65	0xbc83508d	-0.01602962
66	0xbd9893c2	-0.074500576
67	0xbd31faad	-0.043451954
68	0xbe54c6aa	-0.2077891
69	0x3d545a5a	0.05184398
70	0x3cb89706	0.022532951
71	0x3ded4e53	0.11587205
72	0xbe12b38d	-0.14326306
73	0x3e337c71	0.1752794
74	0xbbb7bf5c	-0.0056075286
75	0x3db81711	0.089887746
76	0x3d8a8b7d	0.067648865
77	0xbe243095	-0.16034158
78	0x3c3f6a4d	0.011683059
79	0xbda2b7b5	-0.079451956
80	0xbdf265d5	-0.11835829
81	0x3de717f4	0.112838656
82	0x3dc5c448	0.09656578
83	0xbe01ba05	-0.12668617
84	0x3cc2bb23	0.023770874
85	0xbcaf4366	-0.021394443
86	0xbcab34fb	-0.020899286
87	0xbd6e1f27	-0.058135178
88	0x3d480b12	0.048838682
89	0xbd9a0e51	-0.07522262
90	0x3e833d4b	0.256327
91	0x3e3fc643	0.18727975
92	0x3dea536c	0.11441693
93	0xbdb8bfd8	-0.09020966
94	0xbe00b695	-0.1256965
95	0xbda8b940	-0.08238459
96	0x3d81deb6	0.06341307
97	0x3cd9c105	0.026581297
98	0x3b4064d4	0.0029356973
99	0xbda643ad	-0.08118377
100	0x3e89b1be	0.2689342
101	0x3e8bcbba	0.2730387
102	0xbcc16777	-0.023608906
103	0xbe4f5d1d	-0.20250364
104	0xbe258d5c	-0.16167206
105	0xbdb88c39	-0.0901112
106	0xbd4e8c93	-0.05042703
107	0xbd8344ee	-0.06409632
108	0xbe647c9b	-0.22313158
109	0xbd2c0d21	-0.04200471
110	0xbe4e37a9	-0.2013842
111	0xbd8a2eeb	-0.0674723
112	0xbed7c953	-0.42145786
113	0xbcc5ac33	-0.024129963
114	0x3db23e72	0.08703317
115	0xbec0bec2	-0.37645537
116	0xbdb83806	-0.089950606
117	0xbe1fe8f1	-0.15616204
118	0xbcff92fc	-0.031198017
119	0x3cf6c0a8	0.030121163
120	0x3e4623b8	0.19349563
121	0xbdd3a384	-0.103339225
122	0xbea3bfee	-0.31982368
123	0x3c8bba79	0.01705669
124	0xbdf97f3e	-0.12182473
125	0xbd9a2929	-0.07527382
126	0xbd02383f	-0.03179192
127	0xbd7d6489	-0.061863456
128	0xbdb65cda	-0.08904429
129	0x3ed45ad5	0.4147555
130	0xbe87da93	-0.26533946
131	0x3e714c59	0.2356428
132	0x3d282380	0.04104948
133	0x3de4c91d	0.11171172
134	0x3dc8c436	0.09803049
135	0x3ea41d2c	0.32053506
136	0x3e84a2c4	0.2590543
137	0xbda1c508	-0.07898909
138	0xbeb5e38a	-0.3552516
139	0xbe53dc60	-0.20689535
140	0x3df6600c	0.12030038
141	0x3da52cf8	0.08065218
142	0x3df6f05c	0.12057564
143	0xbc167c17	-0.009184859
144	0xbde9a66a	-0.11408694
145	0xbd769c86	-0.060207866
146	0x3db119d4	0.086475044
147	0xba57d11e	-0.000823276
148	0xbd8147a7	-0.06312495
149	0xbdc75098	-0.09732169
150	0xbdf3695f	-0.11885332
151	0xbddb85fc	-0.10718915
152	0xbe0659dc	-0.13120216
153	0x3e7a072a	0.24416795
154	0xbcc688bb	-0.02423512
155	0xbe8767d9	-0.26446417
156	0x3da23e4e	0.0792204
157	0xbdcb871c	-0.099378794
158	0xbcdbf2b6	-0.026849132
159	0xbd52ec80	-0.051495075
160	0xbc76fc8a	-0.015074858
161	0xbd9cda50	-0.07658827
162	0x3d0255cc	0.031820104
163	0x3d8d173b	0.068891965
164	0xbe213daa	-0.15746179
165	0xbdc4f0c2	-0.096162334
166	0xbd950dfc	-0.07278058
167	0xbd85a14c	-0.065249056
168	0xbe5ae9a0	-0.21378183
169	0xbde56433	-0.11200752
170	0x3ee260db	0.4421452
171	0x3bf7ab66	0.007558274
172	0x3e56de70	0.2098329
173	0x3e6cee1e	0.2313771
174	0xbe1a2a65	-0.15055235
175	0x3d2594df	0.040425178
176	0xbc701bff	-0.014655112
177	0xbd91616c	-0.0709866
178	0x3ea6e816	0.32598943
179	0xbe16efe1	-0.14739944
180	0xbe13df1e	-0.14440581
181	0xbcd9d2f6	-0.026589852
182	0x3e863adb	0.26216778
183	0xbd7c24d5	-0.061558563
184	0x3e3a8a51	0.18216826
185	0x3d3eb46f	0.046558794
186	0xbcfa2fb0	-0.030540317
187	0xbcdacc74	-0.026708819
188	0xbdd6572a	-0.10465844
189	0x3d8cee7f	0.06881427
190	0x3eafe2b3	0.34352645
191	0x3e4327e1	0.19058181
192	0xbeb82829	-0.3596814
193	0xbe12d717	-0.14339863
194	0xbe65c146	-0.22437009
195	0xbe387d9f	-0.1801667
196	0xbe9c6d3a	-0.30552083
197	0xbe3643c7	-0.17799293
198	0xbcb01ea3	-0.021498984
199	0xbe8d29b6	-0.27570885
200	0x3ec8109b	0.3907517
201	0x3ed9107f	0.42395398
202	0xbdc49caa	-0.09600194
203	0xbdb28f2c	-0.08718714
204	0xbd970724	-0.07374409
205	0x3db60cd1	0.08889163
206	0xbd3afdb2	-0.0456521
207	0x3ddb6364	0.10712317
208	0x3d3c1b05	0.045924205
209	0x3c83bd64	0.01608152
210	0xba77d42e	-0.00094539195
211	0xbccdaa38	-0.02510558
212	0x3c828887	0.015934242
213	0xbced90fe	-0.028999802
214	0x3bf3e068	0.007442523
215	0x3ead5085	0.33850494
216	0x3e67761d	0.2260365
217	0xbcaaa783	-0.020831829
218	0x3dd2069d	0.10255168
219	0xbdd3148b	-0.10306653
220	0xbc156984	-0.009119395
221	0x3e00a60e	0.12563345
222	0xbdaed5c6	-0.08536868
223	0x3d71ff18	0.059081167
224	0xbcb97df0	-0.02264306
225	0xbdae3be7	-0.08507519
226	0xbe3f9128	-0.18707716
227	0x3dbc0c82	0.09182073
228	0xbb9e8cb3	-0.00483855
229	0x3e22e2aa	0.15906778
230	0xbdb3848d	-0.087655164
231	0x3d8a23e2	0.06745125
232	0xbe6997de	-0.22811839
233	0x3e1679a6	0.14694843
234	0xbd80bee2	-0.06286408
235	0xbe9f33b0	-0.31094122
236	0xbb6f332c	-0.0036499007
237	0xbd6dcbd4	-0.058055714
238	0xbd5c787d	-0.053825844
239	0x3decb873	0.115586184
240	0x3c020c09	0.00793744
241	0x3dc9bbd4	0.098502785
242	0xbc33252f	-0.010934158
243	0x39552f82	0.00020330961
244	0xbd872969	-0.06599695
245	0xbd75349e	-0.059864633
246	0x3e182f48	0.14861786
247	0xbe40e7d6	-0.18838438
248	0x3ae56cfc	0.0017503793
249	0xbcb0e205	-0.02159215
250	0xbd88fc54	-0.06688753
251	0x3c89823e	0.016785737
252	0x3b2b4ac2	0.0026137088
253	0x3d719360	0.05897844
254	0xbc831a30	-0.016003698
255	0xbe5f1e18	-0.21788824

actor.0.bias f4 [64]
0	0xbd9b0f4d	-0.07571278
1	0x3e1ca0c5	0.15295704
2	0x3df42dde	0.11922811
3	0xbd7ed2a1	-0.06221259
4	0xbdacdaf1	-0.08440197
5	0xbe5af599	-0.2138275
6	0x3e695f48	0.22790253
7	0xbcd445b2	-0.02591214
8	0xbca634af	-0.020288793
9	0x3b7f6192	0.0038968069
10	0xbd5a9bec	-0.053371355
11	0xbe61920f	-0.22028373
12	0xbd77bc0e	-0.060482077
13	0x3ba4e031	0.0050316085
14	0xbde2b349	-0.11069352
15	0x3dfb6e8c	0.122769445
16	0x3b17a9bc	0.002314194
17	0x3dfc4f70	0.12319839
18	0xbe0a6e71	-0.13518693
19	0xbe1a17bc	-0.15048116
20	0xbdd0a1e0	-0.10187125
21	0xbe933df5	-0.28758207
22	0xbd6dc2e2	-0.058047183
23	0xbd83ca49	-0.06435067
24	0xbdb5fa08	-0.0888558
25	0x3db2c2b2	0.087285414
26	0x3dae1b08	0.085012496
27	0x3e69ff3a	0.22851267
28	0xbb03f373	-0.002013412
29	0xbde10ffd	-0.10989378
30	0xbd901c7d	-0.07036684
31	0x3dccf69c	0.100079745
32	0x3d7bf623	0.06151403
33	0xbdf5fe4d	-0.12011395
34	0x3e053483	0.13008313
35	0xbe1b0227	-0.1513754
36	0x3d566a22	0.05234731
37	0x3d3c7057	0.046005573
38	0xbd13449d	-0.035954107
39	0xbe432a63	-0.19059138
40	0x3e660fd7	0.2246698
41	0xbd3f2ce8	-0.046673685
42	0x3d753ead	0.059874225
43	0x3d09160d	0.033468295
44	0x3d70d2f9	0.05879495
45	0x3dfcfcb8	0.1235289
46	0x39c77b54	0.00038048124
47	0x3e3b1730	0.18270564
48	0xbb0734f6	-0.0020630932
49	0x3c38490e	0.011247886
50	0x3d91ff9c	0.07128832
51	0xbe526d06	-0.20549402
52	0xbddae96c	-0.10689053
53	0xbdb99d4f	-0.09063207
54	0x3e0a1b43	0.13486962
55	0x3d251625	0.04030432
56	0x3dc933f9	0.09824366
57	0x3dd25ae6	0.10271244
58	0xbe40c04b	-0.18823354
59	0xbd229616	-0.039693914
60	0xbdf85f63	-0.121275686
61	0xbe30924b	-0.17243306
62	0xbd46e947	-0.048562314
63	0xbe1b7e58	-0.15184915

actor.2.weight f4 [64, 64]
0	0x3c6c517e	0.014423726
1	0xbe5deba1	-0.21671917
2	0xbafb2f26	-0.0019163832
3	0x3d28b220	0.0411855
4	0x3df7b5c3	0.12095215
5	0x3ea758b2	0.32684857
6	0x3d29189f	0.041283246
7	0x3d92e2c6	0.0717216
8	0xbe483fa7	-0.19555531
9	0xbd00b8b3	-0.031426143
10	0xbe2f1252	-0.17096832
11	0x3ce16e08	0.027518287
12	0x3df8ccb0	0.12148416
13	0xbe45d218	-0.19318426
14	0x3e317fea	0.17333952
15	0xbd21df08	-0.03951934
16	0xbdfe3a3b	-0.1241345
17	0xbda40bfd	-0.08010099
18	0x3d89b34f	0.067236535
19	0xbe45ec2b	-0.19328372
20	0x3e3599f0	0.17734504
21	0x3bed3f37	0.007240202
22	0x3d9095ff	0.070598595
23	0xbe5f5b76	-0.21812233
24	0xbd26f36a	-0.04075948
25	0x3e1b931d	0.15192838
26	0x3dee63b1	0.116401084
27	0xbd2583ac	-0.040408775
28	0x3de27208	0.11056906
29	0x3e5af68d	0.21383114
30	0x3e035374	0.12824804
31	0x3e3a9d0a	0.18223968
32	0x3cf21d16	0.029554885
33	0x3d5b1065	0.053482432
34	0xbdb3cc90	-0.087792516
35	0xbc869c45	-0.016431937
36	0xbd875b2e	-0.06609188
37	0x39774688	0.0002358203
38	0xbe3fc393	-0.1872695
39	0x3d971a20	0.0737803
40	0xbe36b322	-0.17841771
41	0xbe1748cc	-0.14773864
42	0x3dfeaaa2	0.124348894
43	0xbea46775	-0.3211018
44	0xbe27cec0	-0.16387463
45	0xbc8b625a	-0.017014671
46	0x3c0e47fb	0.008684154
47	0x3e444633	0.19167404
48	0xbe14a44a	-0.14515796
49	0xbd660505	-0.05615713
50	0x3c2b782d	0.010465664
51	0x3e02b52f	0.12764429
52	0x3dc7e7fb	0.09761044
53	0x3db1367a	0.08652969
54	0x3d4e8c50	0.05042678
55	0xbdf02507	-0.117258124
56	0xbe11b398	-0.14228666
57	0x3d344423	0.044010293
58	0x3da64155	0.0811793
59	0xbe41898a	-0.18900123
60	0xbda06702	-0.07832147
61	0x3d053b2c	0.032527134
62	0x3d493518	0.0491229
63	0xbe6722fc	-0.22571939
64	0x3ce7e610	0.028307945
65	0x3d5adced	0.053433347
66	0xbd05fb74	-0.032710508
67	0xbe270e9c	-0.16314167
68	0xbde2819f	-0.110598795
69	0x3dc96f7b	0.09835716
70	0x3d59b2c8	0.053149015
71	0xbe439904	-0.1910134
72	0xbe8ad59a	-0.2711609
73	0x3c56ddfd	0.01311445
74	0x3e063723	0.1310697
75	0xbd7933e9	-0.06084052
76	0xbd945852	-0.07243408
77	0xbc841fbf	-0.016128419
78	0xbebd3cbc	-0.369604
79	0xbec65438	-0.3873613
80	0xbde61673	-0.112347506
81	0x3d722939	0.059121344
82	0x3d3e1aaa	0.046412148
83	0x3cec7c84	0.028867967
84	0xbe1bc08e	-0.15210173
85	0xbd4b10c3	-0.049576532
86	0xbc907fe6	-0.017639112
87	0x3e123938	0.1427964
88	0x3d563461	0.052296046
89	0x3e6e9cef	0.23302053
90	0xbe70eadc	-0.23527092
91	0x3e16214d	0.1466114
92	0xbe8586ec	-0.260795
93	0x3d765433	0.060138892
94	0x3e0417a4	0.12899643
95	0x3d4bfee0	0.049803615
96	0xbe5e39ad	-0.21701689
97	0x3d81f0b9	0.06344742
98	0xbd17a84a	-0.037025727
99	0xbe527018	-0.20550573
100	0xbc5c03be	-0.013428627
101	0xbed9a3d1	-0.42507794
102	0x3e9c8fb2	0.3057838
103	0x3daeb677	0.08530896
104	0x3d6b3cd9	0.057431076
105	0xbd73139c	-0.059344873
106	0xbe2ac457	-0.1667646
107	0x3e5faba4	0.2184282
108	0x3e3484b0	0.17628741
109	0xbb51ffcb	-0.0032043334
110	0xbe51f172	-0.2050226
111	0xbe3b9ae8	-0.18320811
112	0xbcf679f6	-0.030087452
113	0x3e5d904e	0.21637079
114	0x3c8a6bf5	0.016897181
115	0x3e0d5c5c	0.13804764
116	0x3e8e7172	0.27820927
117	0xbe301ad5	-0.17197736
118	0xbd40ae30	-0.04704112
119	0x3eaf7ad1	0.3427339
120	0xbd07d6d5	-0.033163864
121	0xbd74b91b	-0.059746843
122	0xbdb0491d	-0.08607695
123	0x3b294aee	0.0025832015
124	0xbd6f7ac5	-0.05846669
125	0x3e9e7f28	0.30956388
126	0xbd864127	-0.065553956
127	0x3d2f8c98	0.04285869
128	0xbe0cd764	-0.1375404
129	0x3cd4af13	0.025962388
130	0xbdd60f3b	-0.10452124
131	0x3c273c7b	0.010207291
132	0x3d3c57ad	0.04598205
133	0x3cbeb7e8	0.023281053
134	0xbd3b6a1e	-0.045755498
135	0xbd8ebeba	-0.06969972
136	0xbdd9f2e6	-0.10642032
137	0xbd93ed81	-0.07223035
138	0xbdc0272a	-0.0938247
139	0xbe4862ea	-0.19568983
140	0x3ccc72f9	0.024957167
141	0x3d3e1cdb	0.046414237
142	0xbd3db2b9	-0.04631302
143	0x3cb016ac	0.021495186
144	0x3dff00e5	0.124513425
145	0x3ce96a1f	0.028492985
146	0xbdd685da	-0.10474749
147	0x3d8f972d	0.07011256
148	0xbd9fb205	-0.077976264
149	0xbc33d518	-0.0109760985
150	0xbe324050	-0.17407346
151	0x3d0db2fc	0.03459452
152	0xbe819764	-0.25310814
153	0xbcfc3c6e	-0.030790534
154	0x3ca9a4a0	0.020708382
155	0xbda1a692	-0.07893099
156	0x3da6046b	0.081063114
157	0xbd3fb525	-0.046803612
158	0x3da42f46	0.08016829
159	0xbd185e94	-0.03719957
160	0xbd8a83ce	-0.06763421
161	0x3be5c245	0.007011684
162	0xbe59fa72	-0.21286944
163	0xbe196cac	-0.14982861
164	0xbcda04bd	-0.026613588
165	0x3d0923c6	0.03348138
166	0xbdfb684d	-0.12275753
167	0xbe224925	-0.15848215
168	0xbd3e4e6c	-0.046461508
169	0xbc90a793	-0.01765803
170	0xbda3681d	-0.079788424
171	0xbbb05a80	-0.005381882
172	0xbddbbc3b	-0.107292615
173	0xbc9000cb	-0.017578503
174	0xbd204731	-0.039130393
175	0xbd2e844c	-0.042606637
176	0x3c22e14e	0.009941412
177	0x3d348a17	0.044077005
178	0xbd9c410c	-0.07629594
179	0xbd9d7aa0	-0.076894045
180	0xbdb9c0fe	-0.090700135
181	0xbd6e1fbf	-0.058135744
182	0xbdc51ee7	-0.09625035
183	0xbe704462	-0.23463586
184	0xbe1a6add	-0.15079828
185	0x3ca5034a	0.02014317
186	0x3e1c3beb	0.15257232
187	0xbb082ff7	-0.0020780542
188	0xbd8801a3	-0.06640937
189	0xbd93b993	-0.0721313
190	0xbda94624	-0.082653314
191	0xbe028dec	-0.12749451
192	0xbd90363d	-0.07041595
193	0x3d3f2740	0.04666829
194	0x3e3cb30e	0.18427679
195	0x3ea871b5	0.32899252
196	0xbe516469	-0.2044846
197	0x3d8fef06	0.07028012
198	0xbd2760aa	-0.04086367
199	0x3d980615	0.07423035
200	0x3c53ac78	0.012919538
201	0x3dc1bf95	0.094603695
202	0x3d65f991	0.05614621
203	0xbe145b59	-0.14487971
204	0x3d0cec2e	0.034404926
205	0x3daa163a	0.08305021
206	0xbe6a4b8d	-0.22880383
207	0xbdb4c52b	-0.08826669
208	0x3e9952b9	0.29945925
209	0xbc96a0e0	-0.018387258
210	0x3e89b92a	0.2689908
211	0x3eaa76dd	0.3329381
212	0xbe31d552	-0.17366531
213	0x3e36eb9e	0.17863318
214	0x3b323004	0.0027189264
215	0x3d391364	0.045184508
216	0x3cfe2f22	0.031028334
217	0x3d663284	0.05620052
218	0x3dff17b9	0.124556966
219	0xbdf28cc7	-0.118432574
220	0x3e186782	0.14883235
221	0xbe8aefec	-0.2713617
222	0x3bd56e59	0.0065133986
223	0x3d28b094	0.041184023
224	0x3eb757dc	0.3580922
225	0xbe8410d6	-0.25794095
226	0x3e823959	0.25434378
227	0x3a020bd8	0.00049608713
228	0x3d3ae128	0.045624882
229	0x3d88c062	0.06677319
230	0x3e8509f0	0.25984144
231	0xbd457113	-0.04820354
232	0xbe1497a9	-0.14510979
233	0x3e80c555	0.25150552
234	0xbe044200	-0.12915802
235	0xbdbe572f	-0.09293973
236	0x3e0a2bbc	0.13493246
237	0x3e6386ba	0.22219363
238	0xbe4528fe	-0.19253919
239	0xbd37f4fc	-0.04491137
240	0xbd09af9a	-0.033614732
241	0x3e3c5d91	0.18395068
242	0x3d14fbc0	0.0363729
243	0x3dcf108e	0.101105794
244	0xbe36cb50	-0.17850995
245	0x3cf7aff3	0.030235266
246	0xbda9a517	-0.082834415
247	0xbe4c22ae	-0.19935104
248	0x3cb7ef86	0.02245308
249	0x3e3bfe5f	0.18358754
250	0x3ccc1d94	0.024916448
251	0x3d15c082	0.036560543
252	0x3e2b9c1e	0.16758773
253	0xbe968bbf	-0.29403493
254	0x3dbddd90	0.09270775
255	0x3d6bc92a	0.057564892

actor.2.bias f4 [64]
0	0xbda22ab9	-0.07918305
1	0x3cf9011a	0.030396033
2	0xbd2ff003	-0.042953502
3	0xbc0cff94	-0.008605856
4	0x3e8620af	0.2619681
5	0x3d051b3d	0.03249668
6	0xbe20215d	-0.15637727
7	0xbcbae68d	-0.022815013
8	0xbdf9e50e	-0.12201892
9	0xbd2cbf5e	-0.04217469
10	0xbdc8be0d	-0.09801874
11	0x3d8b6d31	0.06807936
12	0xbdd3f975	-0.103503145
13	0xbe2e455e	-0.17018649
14	0x3dc16444	0.09442952
15	0x3e0b81a3	0.13623671
16	0xbe223e8f	-0.15844177
17	0xbdc8f28d	-0.09811888
18	0x3d94d950	0.072680116
19	0x3d7813c4	0.060565725
20	0x3d7402a5	0.059572835
21	0x3e2db644	0.1696406
22	0x3dcb1daf	0.09917771
23	0x3bc41581	0.005984009
24	0x3e41d322	0.18928197
25	0xbd347e34	-0.04406567
26	0xbd440525	-0.04785647
27	0xbd74a3ed	-0.059726644
28	0xbe353388	-0.17695439
29	0xbd9cf753	-0.07664361
30	0x3e6ff093	0.23431616
31	0xbe226cf0	-0.15861869
32	0xbdaf8083	-0.085694335
33	0x3e0f5ef3	0.14001064
34	0xbde5c514	-0.1121923
35	0xbc6a9c16	-0.01431944
36	0xbb76bf67	-0.0037650706
37	0xbd9a59ed	-0.07536683
38	0x3e1490f6	0.14508423
39	0x3c132bba	0.008982593
40	0x3d2df7c2	0.04247261
41	0xbe807986	-0.25092715
42	0x3ddc4420	0.10755181
43	0xbdcdb4a2	-0.100442186
44	0x3de0eb5c	0.10982391
45	0xbd29baea	-0.04143802
46	0xbc4e5928	-0.012594499
47	0xbdb6eeab	-0.08932241
48	0xbc9868d2	-0.01860467
49	0x3dc2a2d3	0.095037125
50	0xbcaf850d	-0.021425748
51	0xbda03453	-0.0782248
52	0xbd179226	-0.037004612
53	0x3d2a37b4	0.04155703
54	0xbde84e4c	-0.11343059
55	0x3d7f1396	0.062274538
56	0xbd411f4f	-0.047149
57	0x3e8d9198	0.27650142
58	0x3c95bbdf	0.01827806
59	0x3e44f3c5	0.19233616
60	0xbdd38a85	-0.10329155
61	0x3c2b5f34	0.01045971
62	0x3db264bd	0.087106206
63	0x3b897f77	0.004196103

actor.4.weight f4 [36, 64]
0	0x3c94d734	0.018169023
1	0xbd9bcdd6	-0.076076195
2	0x3ddf8dda	0.10915728
3	0xbe833070	-0.25622892
4	0xbe33c0ed	-0.17554064
5	0xbc9ba188	-0.018997923
6	0x3d92f0ef	0.07174861
7	0x3cec4267	0.028840257
8	0xbe66c8fb	-0.22537605
9	0xbdb13373	-0.08652391
10	0xbda8b27d	-0.08237169
11	0xbe8f3513	-0.2797018
12	0x3b4042b5	0.0029336635
13	0xbd9944aa	-0.074838
14	0xbeeacf4a	-0.45861274
15	0x3f1ce152	0.6128131
16	0x3df660c9	0.12030179
17	0x3d8b471d	0.06800673
18	0x3dd974c9	0.10617978
19	0xbdc44427	-0.095833115
20	0x3d831195	0.06399838
21	0xbedd4836	-0.43219155
22	0xbe74dbc8	-0.23911965
23	0xbbd473c2	-0.006483526
24	0xbe654905	-0.22391136
25	0xbe3ca2f1	-0.18421532
26	0xbdda02c9	-0.106450625
27	0xbb9ff1d1	-0.0048811217
28	0xbd812211	-0.06305326
29	0xbe69644a	-0.22792163
30	0x3eb7044f	0.35745475
31	0xbd0a7bbf	-0.03380942
32	0xbdf59683	-0.119915985
33	0xbec017aa	-0.37518054
34	0x3d9807b1	0.07423342
35	0x3dd581d5	0.10425154
36	0x3d469a8f	0.048487242
37	0x3d777f5b	0.06042419
38	0xbe2f4908	-0.17117703
39	0x3e68d95a	0.22739163
40	0xbea6625f	-0.32496926
41	0xbd1dd0b0	-0.038529098
42	0xbea3f113	-0.32019863
43	0xbecd3b46	-0.40084285
44	0xbe2e15b5	-0.17000468
45	0x3d170dab	0.03687827
46	0xbe48fb6e	-0.19627163
47	0x3d3528f9	0.044228528
48	0x3dde704c	0.10861263
49	0xbe51d96b	-0.20493095
50	0x3df19910	0.117967725
51	0xbe03ef51	-0.1288426
52	0x3b023b7a	0.0019871877
53	0xbe14ebd6	-0.1454309
54	0x3d3dbc36	0.04632207
55	0x3e6d6a1e	0.23185012
56	0xbdea149b	-0.114297114
57	0xbf3f3529	-0.7469049
58	0xbe909ec6	-0.28246135
59	0xbee612d2	-0.44936234
60	0xbdeba13d	-0.11505363
61	0xbe40eb6c	-0.18839806
62	0xbebdc6f3	-0.3706585
63	0xbda6417c	-0.08117959
64	0xbdd16cd0	-0.102258325
65	0x3eb611ec	0.35560548
66	0x3dd142d5	0.10217825
67	0xbd4fdf38	-0.050749987
68	0x3da0f18a	0.0785857
69	0xbd7adf1c	-0.06124793
70	0x3bda34b4	0.0066591147
71	0x3d0d8cf8	0.034558266
72	0x3cbedec7	0.023299588
73	0x3e66454f	0.22487377
74	0x3d981287	0.07425409
75	0xbda2dea3	-0.07952621
76	0xbdf231bb	-0.118258916
77	0xbdaef7ae	-0.08543335
78	0x3e9b11d1	0.3028703
79	0xbe502e64	-0.20330197
80	0xbe9332f5	-0.28749815
81	0x3de690d0	0.112580895
82	0xbd44d62e	-0.04805582
83	0xbe3e4b9e	-0.18583533
84	0x3daa69fc	0.08320996
85	0x3e5e5b0b	0.21714418
86	0xbd4e18f5	-0.05031677
87	0xbda9d615	-0.08292786
88	0xbed7fa3e	-0.42183107
89	0xbe3a2e0a	-0.18181625
90	0x3e0e966b	0.13924567
91	0x3d2ef3ef	0.042713102
92	0x3dbc88a4	0.0920575
93	0xbda9ff49	-0.08300645
94	0xbe91fcbf	-0.28513142
95	0xbe1940a4	-0.14966065
96	0x3da05cfc	0.07830235
97	0xbec82d1d	-0.3909692
98	0x3e432137	0.19055639
99	0xbe85f8b7	-0.26166317
100	0x3e0abeca	0.13549343
101	0xbe3b561f	-0.18294571
102	0x3e71ff22	0.23632482
103	0xbdffd559	-0.12491865
104	0x3e2dd981	0.16977502
105	0x3d3a799e	0.04552614
106	0x3e6ad6ae	0.22933456
107	0xbdcb3dd9	-0.09923906
108	0x3ea064fd	0.31327048
109	0x3e291dd6	0.16515288
110	0xbe70ed0d	-0.23527928
111	0x3d79d368	0.06099263
112	0xbdf565a7	-0.11982279
113	0x3d401fb7	0.046905246
114	0xbd16c5ef	-0.036809858
115	0xbe74d4b9	-0.23909272
116	0xbc0f11b6	-0.00873225
117	0x3e8f4756	0.27984113
118	0x3dbc6e1a	0.09200688
119	0x3c83cf3c	0.016090028
120	0x3c058861	0.008150191
121	0x3e908cb7	0.28232357
122	0xbd85b97d	-0.0652952
123	0x3e5921c8	0.21204293
124	0x3e2a49e5	0.16629751
125	0x3e0b3713	0.13595228
126	0xbde89a4d	-0.113575555
127	0xbe77fa9b	-0.24216692
128	0x3ed88adc	0.4229344
129	0xbea1806d	-0.31543294
130	0x3e6249eb	0.2209851
131	0xbe0b2bb6	-0.13590893
132	0xbdc7c5ec	-0.097545475
133	0x3e01a975	0.12662299
134	0xbd04831a	-0.03235159
135	0xbe1a68f4	-0.15079099
136	0xbd7e99ca	-0.062158383
137	0xbe2e04f9	-0.16994084
138	0x3d7c1284	0.061541095
139	0x3d310d2c	0.043225452
140	0x3ee88439	0.45413378
141	0xbe226bd4	-0.15861446
142	0xbe410ef9	-0.18853368
143	0x3dd65c92	0.10466875
144	0x3e94aacc	0.29036558
145	0xbe37d745	-0.17953213
146	0x3f2a5711	0.665391
147	0x3e44e9a7	0.19229756
148	0x3eec4701	0.46147922
149	0xbe93c9e2	-0.28864962
150	0x3d21e23e	0.039522402
151	0xbd902fbd	-0.07040355
152	0xbdd126f9	-0.102125116
153	0xbe2028f4	-0.15640622
154	0x3ca96c92	0.020681653
155	0x3e5e862a	0.21730867
156	0x3e96c009	0.29443386
157	0xbd64f102	-0.055893905
158	0x3edb5547	0.428385
159	0xbf19059a	-0.5977417
160	0xbe52e257	-0.20594154
161	0xbe3c1f52	-0.18371323
162	0x3d4e3bc9	0.050349984
163	0xbd936f3b	-0.0719895
164	0x3be456b4	0.0069683436
165	0xbdbb2ed6	-0.091397926
166	0x3e66ea55	0.22550328
167	0x3e7d77a3	0.24752669
168	0x3dc221f9	0.09479136
169	0x3d3f7e50	0.04675132
170	0xbebafb5c	-0.36519897
171	0xbe4b349f	-0.19844292
172	0xbe2aa733	-0.16665344
173	0xbdd06f55	-0.10177485
174	0xbe3538c9	-0.17697443
175	0x3da0ead4	0.0785729
176	0x3e1fe6cd	0.15615387
177	0x3e45d108	0.1931802
178	0xbd1ebead	-0.03875606
179	0x3ea4868a	0.32133895
180	0x3eb058e4	0.34442818
181	0xbe37bd3d	-0.17943282
182	0x3cea7ba5	0.028623411
183	0x3f024f76	0.509025
184	0xbe39ad26	-0.18132457
185	0xbf21e0dd	-0.6323374
186	0xbe998f94	-0.29992354
187	0x3cf22b02	0.029561523
188	0x3d528c70	0.051403463
189	0x3eac2ea4	0.33629334
190	0xbeb1b0a3	-0.34705076
191	0x3c97fe84	0.01855398
192	0x3e280daa	0.16411462
193	0xbe0cce01	-0.13750459
194	0x3b69eadf	0.0035692973
195	0x3c89e7b0	0.01683411
196	0x3e55e089	0.20886435
197	0x3bc79056	0.006090204
198	0x3da7bd3a	0.08190389
199	0x3dbdbffe	0.09265135
200	0xbe1906ce	-0.14944002
201	0x3d110942	0.03540922
202	0x3db36a3f	0.08760499
203	0xbdbd1a9d	-0.09233592
204	0x3e932f4c	0.28747022
205	0xbe90ead8	-0.28304172
206	0xbcb5d5ed	-0.022196734
207	0x3e62c15b	0.22144072
208	0x3da7d7f7	0.08195489
209	0x3c75d624	0.015004668
210	0x3da2824e	0.0793501
211	0x3d07955d	0.03310143
212	0x3d644517	0.05572995
213	0xbd1a9268	-0.03773728
214	0xbeba5ea5	-0.36400333
215	0x3dd9d425	0.106361665
216	0x3c3221d7	0.010872326
217	0xbe440ec2	-0.19146255
218	0x3ddf787f	0.10911655
219	0x3c45497c	0.012041446
220	0x3e1ba0fd	0.15198131
221	0x3d350e82	0.04420329
222	0x3ec2e0a9	0.38062027
223	0xbeb4ea45	-0.35334983
224	0x3e5149c1	0.20438291
225	0x3ba94fab	0.005166968
226	0x3d8e2a5a	0.06941672
227	0xbdcbd4e0	-0.09952712
228	0xbcac4a94	-0.021031655
229	0xbe2281b4	-0.1586979
230	0x3e0ab823	0.13546805
231	0xbe0c9a6e	-0.13730785
232	0x3e1cf638	0.153283
233	0x3e32b8fb	0.17453377
234	0xbce711da	-0.028206754
235	0xbe9101e6	-0.2832176
236	0xbdcacca8	-0.09902316
237	0x3ddb97be	0.10722302
238	0xbe9aac69	-0.30209664
239	0xbcb8f25b	-0.022576502
240	0x3c8626c4	0.016375907
241	0xbccbb81b	-0.024868062
242	0xbc0828b5	-0.008310487
243	0x3d86029c	0.065434664
244	0x3e8b9a90	0.2726636
245	0x3dd95909	0.10612685
246	0x3cf76659	0.03020017
247	0x3e7464db	0.23866598
248	0x3e165032	0.1467903
249	0xbe607f54	-0.21923572
250	0xbe3fbcac	-0.18724316
251	0x3e9b8889	0.30377606
252	0xbd6f21db	-0.058381896
253	0x3e82b3ac	0.25527704
254	0xbedce752	-0.43145233
255	0x3cfd0cc2	0.030889872

actor.4.bias f4 [36]
0	0xbca0ff87	-0.019653095
1	0x3e7dec1e	0.24797103
2	0xbe4eb6ec	-0.20186967
3	0x3c4377be	0.011930404
4	0x3dd459c7	0.10368686
5	0xbeabf424	-0.33584702
6	0x3cfd9f2d	0.03095969
7	0x3e422f94	0.18963462
8	0x3e0fe2d6	0.14051375
9	0xbe692eec	-0.22771806
10	0x3de99224	0.11404827
11	0x3bd00188	0.006347839
12	0x3e0ea35c	0.13929504
13	0x3e0e75e1	0.13912155
14	0xbbc43235	-0.0059874305
15	0x3c6cbcf1	0.014449344
16	0xbdd7f250	-0.10544264
17	0xbc1241e4	-0.008926842
18	0x3e1a38cd	0.1506073
19	0xbdf6e0d0	-0.12054598
20	0xbe65c09b	-0.22436754
21	0xbd02c947	-0.031930234
22	0xbd87c48b	-0.066292845
23	0xbe0c8320	-0.13721895
24	0x3e1a61e5	0.15076406
25	0xbdcc6362	-0.09979893
26	0x3e9c87a5	0.3057224
27	0x3d7310cb	0.059342187
28	0xbda03f5f	-0.07824587
29	0x3e1afdb0	0.15135837
30	0x3e24cf34	0.16094667
31	0xbdc4ec9f	-0.096154444
32	0x3daa8e59	0.08327932
33	0x3dd83287	0.10556512
34	0x3d765546	0.060139917
35	0x3e70b2e3	0.2350574

critic.0.weight f4 [64, 62]
0	0x3d9c60c8	0.07635647
1	0x3dab196a	0.08354457
2	0xbdabd831	-0.083908446
3	0x3c1b5b6c	0.009482246
4	0xbdead0ce	-0.114656076
5	0xbd746ff9	-0.059677098
6	0x3c8c71e4	0.017144151
7	0xbcb093fa	-0.021554936
8	0xbd62b119	-0.055344675
9	0x3b08ea44	0.0020891586
10	0xbdd46bbe	-0.10372113
11	0x3ab0ff9f	0.0013503915
12	0xbde0c755	-0.109755196
13	0xbda3947b	-0.07987305
14	0xbe15a44a	-0.14613453
15	0xbe074397	-0.13209377
16	0xbc0910fe	-0.008365868
17	0xbddd20ab	-0.107972465
18	0xbdf7fe13	-0.12109008
19	0x3db676c8	0.089093745
20	0xbdbb4a0c	-0.09144983
21	0x3db6177c	0.08891198
22	0x3c1010d6	0.0087930765
23	0xbc983c3e	-0.018583413
24	0x3dc93eef	0.09826457
25	0xbdcb1727	-0.09916525
26	0x3d7934c0	0.060841322
27	0x3dad99b3	0.084765814
28	0x3e105e29	0.14098419
29	0xbe6c712d	-0.23090048
30	0xbc1744f4	-0.009232748
31	0xbdcc176e	-0.09965406
32	0xbdc0fbf2	-0.09423055
33	0x3db1a39a	0.08673783
34	0xbcb73252	-0.022362862
35	0x3dafeb73	0.0858983
36	0xbd8c0d16	-0.068384334
37	0xbd66b474	-0.056324437
38	0x3dfc6830	0.1232456
39	0x3d85e5f5	0.065380014
40	0x3d9510c4	0.072785884
41	0x3d5de969	0.054177675
42	0x3e037fb0	0.12841678
43	0xbdf2a4ef	-0.11847865
44	0xbd06e888	-0.032936603
45	0x3d05eba0	0.032695413
46	0xbd44cb3b	-0.04804538
47	0xbe3f33e9	-0.18672146
48	0x3c8061ae	0.015671577
49	0xbe1e619d	-0.15466924
50	0xbd95f8a2	-0.073228136
51	0xbe2f4cb6	-0.17119107
52	0x3d00b712	0.03142459
53	0xbba17277	-0.0049269754
54	0xbdc66fb4	-0.096892744
55	0x3ce517db	0.027965477
56	0xbcc54f9e	-0.024085816
57	0x3d30368a	0.043020763
58	0xbd24e18a	-0.040254153
59	0xbe28c9b3	-0.16483192
60	0xbe4e385f	-0.20138691
61	0xbcfdb36f	-0.03096935
62	0xbde719dd	-0.1128423
63	0x3d83bfcc	0.06433067
64	0xbc8d3928	-0.017239168
65	0xbd4d2513	-0.050084185
66	0x3db9334a	0.09042986
67	0xbdb3c726	-0.08778219
68	0xbda0a4d5	-0.07843939
69	0x3b889ce0	0.0041690916
70	0xbd8da857	-0.06916874
71	0xbe57ae04	-0.21062475
72	0xbdaae9ca	-0.08345373
73	0x3caf4534	0.021395303
74	0xbd641e10	-0.055692732
75	0x3e1978f7	0.1498755
76	0xbd507705	-0.050894756
77	0xbd3ba0c6	-0.045807622
78	0x3dd4f5a3	0.10398414
79	0x3ddf2efb	0.10897633
80	0x3d8b91bf	0.06814908
81	0xbbdf0445	-0.006805929
82	0xbd05605d	-0.032562602
83	0xbdf85976	-0.12126438
84	0x3d88dae2	0.066823736
85	0xbcebcd00	-0.028784275
86	0x3ca310a8	0.019905403
87	0xbceaf3ed	-0.028680766
88	0x3da7fc15	0.08202378
89	0x3b843abd	0.0040353225
90	0x3db10a15	0.08644501
91	0xbb70667e	-0.0036682184
92	0x3be00711	0.00683678
93	0xbd845291	-0.06461061
94	0x3d70dd73	0.05880494
95	0xbd99545f	-0.07486796
96	0x3db6e9b5	0.08931295
97	0x3dc97be7	0.098380856
98	0xba64abd5	-0.0008723115
99	0xbd4f0911	-0.050545756
100	0x3e063e9c	0.13109821
101	0x3db52f63	0.08846929
102	0xbd0fe154	-0.035127
103	0xbe0fab21	-0.14030124
104	0xbd4a55ae	-0.049398117
105	0xbdfea4cb	-0.124337755
106	0x3d9943b3	0.07483616
107	0xbdb38096	-0.0876476
108	0x3d14b09e	0.036301248
109	0x3e345e2c	0.17614049
110	0x3e89252e	0.26786178
111	0x3d0cfbb5	0.034419734
112	0xbce26865	-0.02763767
113	0x3d47d236	0.048784457
114	0xbd3f1bb0	-0.046657264
115	0x3c6e6dbc	0.01455253
116	0xbe4b20b7	-0.19836698
117	0xbf0618d0	-0.5238161
118	0xbe309cc8	-0.17247307
119	0x3d48468e	0.04889541
120	0xbdaa220b	-0.083072744
121	0xbd2a0c6e	-0.04151576
122	0x3d8f5890	0.06999314
123	0x3df9da80	0.12199879
124	0xbdd74f1a	-0.10513134
125	0x3da32314	0.07965675
126	0x3dd7641f	0.105171435
127	0x3d472423	0.048618447
128	0xbe0fa113	-0.14026289
129	0x3d00416e	0.0313124
130	0xbdc09ce5	-0.09404925
131	0xbdc491c0	-0.09598112
132	0xbd182b7d	-0.03715085
133	0xbe56146b	-0.20906226
134	0x3dc64dae	0.09682785
135	0x3d7b7583	0.061391365
136	0xbe3a42a2	-0.18189481
137	0x3dd843ca	0.10559805
138	0xbd5a2ca7	-0.05326524
139	0xbdb92b9c	-0.09041521
140	0xbca31f01	-0.019912245
141	0xbd99a10a	-0.07501419
142	0x3df274de	0.11838697
143	0xbdd3839b	-0.10327836
144	0x3df2c62b	0.11854204
145	0xbcafec77	-0.02147506
146	0x3cbc58ce	0.022991564
147	0x3de27c04	0.1105881
148	0xbd70b2c3	-0.05876423
149	0xbd40bdad	-0.04705589
150	0x3d5737c4	0.052543417
151	0xbd03cac2	-0.032175787
152	0xbd8b709b	-0.06808587
153	0x3b1bf550	0.002379734
154	0xbd112f7e	-0.035445683
155	0x3d3a0ee1	0.045424346
156	0xbd63e6a6	-0.055639885
157	0x3d537ec6	0.051634572
158	0x3c4969fd	0.012293336
159	0xbdc80e22	-0.097683206
160	0xbde9b074	-0.11410609
161	0xbd787ac3	-0.06066395
162	0xbe249f59	-0.16076411
163	0x3d8246de	0.06361173
164	0x3d6c5ed6	0.05770763
165	0x3dcc4141	0.09973384
166	0x3c5cae24	0.013469253
167	0x3c77de66	0.0151287075
168	0xbd869727	-0.06571799
169	0xbdb95eb9	-0.0905127
170	0xbdf432b6	-0.11923735
171	0xbdf63b56	-0.12023036
172	0xbe374436	-0.17897114
173	0x3cb434bd	0.021997804
174	0xbdc8004f	-0.09765684
175	0xbb4db967	-0.0031391026
176	0x3d7767de	0.06040179
177	0xbd2b9fe8	-0.041900545
178	0x3d8d0a3e	0.06886719
179	0xbdb073f3	-0.086158656
180	0xbe54593b	-0.20737164
181	0xbbe9a2b5	-0.007129992
182	0xbdbf25a6	-0.09333353
183	0x3e9d0d76	0.30674332
184	0xbdb70df5	-0.08938209
185	0xbd9da98f	-0.07698356
186	0xbdeb8e5d	-0.11501763
187	0xbdef11c2	-0.11673309
188	0xbdd9ab8d	-0.10628424
189	0x3db5f55c	0.08884689
190	0xbeae8bf5	-0.34091154
191	0xbe94da59	-0.29072836
192	0xbdd87843	-0.10569813
193	0x3e972ef6	0.29528016
194	0x3d02762b	0.031850975
195	0xbda50696	-0.08057897
196	0x3dd0c19c	0.10193178
197	0x3e99811a	0.2998131
198	0x3d51856e	0.05115264
199	0x3d191600	0.037374496
200	0x3d4506c4	0.048102155
201	0x3e51fb7a	0.20506087
202	0xbd1b5f91	-0.037932936
203	0xbda16d4b	-0.07882174
204	0xbdabc982	-0.08388044
205	0x3db82345	0.08991102
206	0x3caca5da	0.021075178
207	0x3d2ab859	0.041679714
208	0xbdbd03d5	-0.092292465
209	0x3cc0e2b2	0.023545597
210	0x3de7b48d	0.11313734
211	0x3d8e754d	0.06955967
212	0xbbb6094c	-0.0055553075
213	0xbd6f7937	-0.05846521
214	0x3e8facaa	0.2806142
215	0xbd3594f5	-0.04433151
216	0xbe3da9df	-0.18521832
217	0x3e4fe962	0.20303872
218	0xbd13870b	-0.03601746
219	0xbba404a7	-0.0050054374
220	0xbcf4dd5b	-0.029890707
221	0xbd9a498e	-0.07533561
222	0xbdf61e99	-0.12017555
223	0xbdd42471	-0.10358513
224	0xbebce631	-0.36894372
225	0x3e6f42b0	0.23365283
226	0x3c545468	0.012959577
227	0xbeaf15ec	-0.34196413
228	0x3e3d6358	0.18494928
229	0x3e7d8d40	0.24760914
230	0xbe9a63c3	-0.30154237
231	0xbe4c25ea	-0.19936338
232	0x3d46fa41	0.048578504
233	0x3dbb1104	0.09134105
234	0xbe5a1bf6	-0.21299729
235	0xbe14b814	-0.14523345
236	0x3d433584	0.04765846
237	0xbd92ab98	-0.07161635
238	0x3db715bd	0.08939693
239	0xbd8a686c	-0.06758198
240	0xbce5b5e4	-0.028040834
241	0x3c8694b0	0.016428322
242	0x3c179655	0.009252151
243	0xbca04713	-0.01956514
244	0xbc92463d	-0.017855758
245	0xbb3df5c2	-0.0028985594
246	0x3cb13565	0.021631906
247	0x37f1b020	2.8811453e-05
248	0x3d8bf83e	0.06834458
249	0x3db87901	0.09007455
250	0xbdea2ed0	-0.1143471
251	0xbda831c8	-0.0821262
252	0xbb872c83	-0.0041251793
253	0xbde9fc5f	-0.11425089
254	0xbd4e2e41	-0.05033708
255	0x3b0eb9de	0.0021778266

critic.0.bias f4 [64]
0	0xbe398fee	-0.18121311
1	0x3c817345	0.015802035
2	0x3d3568b6	0.044289313
3	0xbbe221e5	-0.006901013
4	0xbe228e53	-0.15874605
5	0x3d1f7e68	0.03893891
6	0xbdb98b91	-0.09059823
7	0xbe8ffc02	-0.28121954
8	0xbe279304	-0.16364676
9	0xbe27b7fa	-0.16378775
10	0xbe324cce	-0.17412111
11	0xbde04cb3	-0.10952129
12	0xbe0aceab	-0.135554
13	0xbe1bbad5	-0.1520799
14	0xbdd13816	-0.10215776
15	0xbd36185c	-0.044456825
16	0xbde41086	-0.11135964
17	0x3e445d35	0.1917618
18	0xbe02e749	-0.12783541
19	0xbb2be52a	-0.0026229122
20	0xbd92022d	-0.07129321
21	0x3d8e35a9	0.069438286
22	0xbdf0108e	-0.117219076
23	0x3d791ebf	0.060820337
24	0xbc33d599	-0.010976219
25	0xbe414d73	-0.18877201
26	0xbe826655	-0.25468698
27	0xbe243e06	-0.16039285
28	0x3d9e6acb	0.07735213
29	0x3caa44b5	0.020784715
30	0xbd8a1de7	-0.06743985
31	0xbdbe8519	-0.0930273
32	0xbd88436b	-0.06653484
33	0xbdb5e68d	-0.08881865
34	0x3dbcd3a2	0.09220053
35	0xbd48c1e1	-0.049013022
36	0x3d91cf87	0.07119661
37	0x3d7a0134	0.061036304
38	0xbdf8bdaf	-0.12145554
39	0x3d61ee2f	0.05515879
40	0xbe2ab6b7	-0.16671263
41	0xbe2d48f6	-0.16922364
42	0xbe228185	-0.1586972
43	0xbd6bbdd0	-0.057554066
44	0xbda038ef	-0.07823359
45	0xbe4a4931	-0.19754483
46	0xbd96385e	-0.0733497
47	0xbc1df2d3	-0.009640413
48	0xbdad77cc	-0.08470115
49	0xbdaea375	-0.08527271
50	0x3cfd32e2	0.030908052
51	0xbd4525ce	-0.048131756
52	0x3d7b1669	0.06130067
53	0xbe2b6515	-0.16737778
54	0xbe518a6a	-0.20462957
55	0xbe738ae1	-0.23783447
56	0x3d8e9f33	0.069639586
57	0xbbc59e5c	-0.006030841
58	0xbde42859	-0.11140508
59	0x3b8c2bfc	0.0042777043
60	0x3d974cba	0.07387681
61	0xbe4d0c5e	-0.20024249
62	0xbe024b5b	-0.12724058
63	0xbe610703	-0.21975331

critic.2.weight f4 [64, 64]
0	0xbcfcbf70	-0.030853003
1	0x3d0d8f87	0.034560706
2	0xbdfd7615	-0.12376038
3	0x3c2a3881	0.010389448
4	0xbd28bde4	-0.04119672
5	0xbdba2649	-0.090893336
6	0x3c5281d3	0.012848335
7	0x3dd3948f	0.1033107
8	0x3bfd7a01	0.0077354913
9	0x3c16fb2f	0.00921516
10	0xbb4b1aa4	-0.003099122
11	0x3e922f77	0.28551838
12	0xbc5f358b	-0.0136236055
13	0x3e920f6b	0.28527388
14	0xbd8f248c	-0.06989393
15	0x3e1f17c8	0.15536416
16	0x3ce0891b	0.027409127
17	0x3ec9d944	0.39423573
18	0xbd5b48ce	-0.05353623
19	0x3e5718a7	0.21005498
20	0x3d4dc735	0.050238807
21	0xbed19b05	-0.40938583
22	0xbcf3f517	-0.029779954
23	0x3eba9559	0.36442068
24	0xbc2510da	-0.0100748185
25	0xbdb69b07	-0.08916288
26	0xbd2355f3	-0.03987689
27	0x3de250a2	0.11050536
28	0xbe101b0f	-0.14072822
29	0x3e82aa33	0.25520477
30	0x3a309aba	0.0006736923
31	0xbd5cc119	-0.05389509
32	0x3e88f752	0.2675119
33	0xbe0c245e	-0.13685748
34	0x3e0f4614	0.13991576
35	0x3e8b767f	0.27238843
36	0xbed08325	-0.40725055
37	0xbd50674a	-0.050879754
38	0xbb834773	-0.00400632
39	0x3d0a598a	0.033776797
40	0x3c8e6954	0.017384209
41	0x3e0410fc	0.12897104
42	0x3ded43fa	0.11585231
43	0xbe886e75	-0.26646772
44	0xbbae79ab	-0.0053245625
45	0xbe86f04e	-0.26355213
46	0x3e080b7d	0.13285632
47	0xbe842f89	-0.25817516
48	0x3df16c54	0.1178824
49	0x3e1f82ca	0.15577236
50	0xbe55c3c1	-0.20875455
51	0x3e675367	0.22590409
52	0xbe4398a7	-0.19101201
53	0xbdbd7f73	-0.09252825
54	0xbd9c9c48	-0.07646996
55	0xbd853ca2	-0.065057054
56	0x3e86c3a6	0.26321143
57	0xbdb28ec3	-0.08718636
58	0x3da32f41	0.07967997
59	0xbe14448d	-0.14479275
60	0xbe0fe57a	-0.14052382
61	0x3d6e5525	0.05818667
62	0x3e33e210	0.17566705
63	0xbdb43a11	-0.08800138
64	0xbc6d49e0	-0.014482945
65	0xbc8860a5	-0.016647646
66	0xbc91bf16	-0.017791312
67	0xbcb77932	-0.022396658
68	0xbdb39eee	-0.08770548
69	0xbd8eaf22	-0.06966998
70	0xbda7f724	-0.08201435
71	0x3da78576	0.081797525
72	0xbd5cf3c8	-0.053943425
73	0xbe06ebf3	-0.13175945
74	0xbdd4a192	-0.103823796
75	0xbdd3fb1f	-0.10350632
76	0xbd235c7e	-0.03988313
77	0xbd8a263e	-0.06745575
78	0xbdd7f6a5	-0.105450906
79	0xbd641197	-0.055680837
80	0x3da926d5	0.0825936
81	0xbe0202b6	-0.12696347
82	0xbcf7193f	-0.030163405
83	0x3dc8a939	0.09797902
84	0x3d842b4b	0.0645357
85	0xbbf59095	-0.007494042
86	0x3d0d5ffb	0.034515362
87	0xbd6c9e96	-0.057768427
88	0xbde7a325	-0.11310414
89	0xbdb712c0	-0.08939123
90	0xbdb62afa	-0.08894916
91	0x3d9c7236	0.076389715
92	0xbd0b0aa4	-0.033945695
93	0xbdeb8736	-0.11500399
94	0xbde3af10	-0.11117375
95	0xbcd6e1c1	-0.026230695
96	0x3d901a74	0.070362955
97	0xbcede879	-0.029041516
98	0x3bf5722c	0.007490417
99	0xbd26a9a4	-0.040689126
100	0xbd2c019c	-0.041993722
101	0x3d62b1f5	0.055345494
102	0x3cd4ff47	0.026000632
103	0xbd01299f	-0.031533834
104	0x3dffcf50	0.124907136
105	0x3d95eaa5	0.073201455
106	0x3cf384a5	0.029726336
107	0x3cbbc2a1	0.022919955
108	0x3d59e590	0.053197443
109	0xbd011a17	-0.03151902
110	0x3c0ee4a8	0.008721508
111	0xbd5321ee	-0.05154603
112	0xbd663516	-0.05620297
113	0xbc961434	-0.01832018
114	0xbdc85a7c	-0.097828835
115	0x3d98c35d	0.074591376
116	0xbdcf058e	-0.10108481
117	0xbdbf400b	-0.09338387
118	0xbcfacc73	-0.030615067
119	0x3d8869f6	0.066608354
120	0xbd9b6084	-0.07586768
121	0xbcd7d509	-0.0263467
122	0x3d10293b	0.03519557
123	0xbdeec054	-0.116577774
124	0x3da94d54	0.08266702
125	0x3d61c951	0.05512363
126	0x3cc71b9c	0.024305157
127	0xbc45b7a4	-0.012067709
128	0x3daacc32	0.083397284
129	0x3d535fde	0.051605098
130	0xbdde5275	-0.10855571
131	0x3bbe4e44	0.00580767
132	0xbdd75135	-0.10513536
133	0xbcdcf49f	-0.026972113
134	0xbcb714d0	-0.022348791
135	0x3d80ec01	0.06295014
136	0xbe89a9e8	-0.2688744
137	0x3d25608f	0.04037529
138	0xbe1696ed	-0.14706011
139	0xbe3a967c	-0.18221468
140	0x3ba25a41	0.0049546068
141	0x3d2ea1b6	0.04263469
142	0x3d87c40d	0.066291906
143	0xbd76e6c5	-0.060278673
144	0xbdbadbb2	-0.09123935
145	0xbdce3489	-0.10068614
146	0xbc0503db	-0.008118595
147	0xbdcf008c	-0.10107526
148	0xbda8b931	-0.082384475
149	0x3e2b188e	0.16708586
150	0x3dbdefc8	0.0927425
151	0x3d025a01	0.031824116
152	0xbc148aa8	-0.009066261
153	0x3da22ea4	0.07919052
154	0x3d3cc040	0.04608178
155	0xbcc02a2c	-0.02345761
156	0x3df7fdaa	0.121089295
157	0xbe730d44	-0.23735529
158	0x3dbc4bb2	0.09194125
159	0xbce79f3f	-0.028274177
160	0xbda99552	-0.08280434
161	0xbc7ab61f	-0.01530221
162	0xbd4ab4c8	-0.049488813
163	0xbd3ad3cd	-0.045612145
164	0x3e0991a6	0.13434467
165	0x3d562e0b	0.052290004
166	0x3dd8a913	0.10579123
167	0x3b56cdbd	0.0032776438
168	0xbdb89c1e	-0.09014152
169	0x3d1969e3	0.037454497
170	0xbe32f5eb	-0.17476623
171	0xbc8024ad	-0.015642488
172	0xbe6cf5de	-0.23140666
173	0xbecf989b	-0.40546116
174	0xbda8738f	-0.08225166
175	0x3d2e5dff	0.04257011
176	0x3dedb20d	0.11606226
177	0xbbad7400	-0.0052933693
178	0xbe18f94d	-0.1493885
179	0xbe135893	-0.14389257
180	0x3d97c0a1	0.07409788
181	0x3d7a56a7	0.061117794
182	0xbdb11053	-0.08645692
183	0x3d4a9634	0.04945965
184	0x3d3f6c75	0.046734292
185	0x3c1f43e6	0.009720778
186	0x3d063bbf	0.032771822
187	0x3adb6935	0.0016739728
188	0xbc62aa32	-0.013834523
189	0xbd3c385a	-0.04595218
190	0xbc8af543	-0.016962653
191	0xbda5a38c	-0.08087835
192	0x3c152cbc	0.009104904
193	0xbcf98c25	-0.030462334
194	0xbd5bc5fc	-0.05365561
195	0xbd0198fa	-0.03164003
196	0x3cdf8589	0.027285354
197	0xbded398c	-0.11583242
198	0x3cd81d3f	0.026381133
199	0x39f4b6cc	0.000466755
200	0xbd387597	-0.045034017
201	0xbe320666	-0.17385253
202	0x3cf47b4e	0.029843953
203	0xbcf27a8a	-0.029599447
204	0x3cdcd57d	0.026957268
205	0xbdf8fb1c	-0.1215727
206	0x3ddf3440	0.10898638
207	0x3dc7102b	0.09719881
208	0x3cff1742	0.03113902
209	0x3b2eec54	0.0026691156
210	0xbe390e14	-0.18071777
211	0x3cd67b53	0.026181852
212	0x3d42206d	0.047394205
213	0x3d8e2ddf	0.06942343
214	0xbdab23d1	-0.08356441
215	0x3d79b9d5	0.06096824
216	0xbdfd8b86	-0.123801276
217	0xbde6edce	-0.112758264
218	0xbc242fdc	-0.010021176
219	0xbc6a1fc7	-0.014289803
220	0x3cb6fb67	0.022336675
221	0xbd45f781	-0.04833174
222	0x3d6d3ee1	0.057921294
223	0xbddd08f4	-0.10792723
224	0x3dbce2cb	0.09222945
225	0x3daba006	0.083801314
226	0xbd91f2bc	-0.07126376
227	0xbde07958	-0.109606445
228	0xbb489487	-0.0030606107
229	0xbdf0860d	-0.11744318
230	0xbdae4a22	-0.085102335
231	0x38881efc	6.490757e-05
232	0xbdc8ecee	-0.09810816
233	0x3e134320	0.14381075
234	0xbd60823a	-0.054811694
235	0x3d1ad891	0.03780419
236	0xbde2c51c	-0.11072752
237	0x3d7f4026	0.062317036
238	0xbd7ae1bf	-0.061250445
239	0xbd718882	-0.058968075
240	0xbdbfbe22	-0.09362437
241	0xbabcd9f1	-0.0014408213
242	0xbdbd51e5	-0.09244136
243	0xbdffeeea	-0.12496741
244	0x3d510797	0.05103263
245	0x3caa46a7	0.020785643
246	0xbdc62bac	-0.096762985
247	0x3e022944	0.12711054
248	0xbd085fd2	-0.033294506
249	0x3d8b8129	0.06811745
250	0xbd041776	-0.032248937
251	0xbe31f324	-0.17377907
252	0xbd6d9fcd	-0.058013726
253	0xbd86bfab	-0.065795265
254	0x3dbda391	0.092597134
255	0x3d985b91	0.0743934

critic.2.bias f4 [64]
0	0x3e059238	0.1304406
1	0xbdc0f818	-0.0942232
2	0xbcbde937	-0.023182495
3	0xbdc6a227	-0.09698897
4	0xbde4a0aa	-0.11163457
5	0xbd0b2a9e	-0.03397619
6	0xbdc7a670	-0.09748542
7	0xbd3ef266	-0.046617888
8	0xbe12bf64	-0.14330822
9	0xbe070ee3	-0.13189273
10	0x3da1a67e	0.07893084
11	0x3de03264	0.10947111
12	0xbd30aa7c	-0.043131337
13	0x3e3a86de	0.1821551
14	0xbd82990f	-0.0637685
15	0xbd7273dd	-0.059192527
16	0xbdfa67f1	-0.122268565
17	0xbe0f2e6d	-0.13982554
18	0xbc1bee4e	-0.0095172655
19	0xbcfc7f92	-0.030822549
20	0xbd1fe21b	-0.03903399
21	0xbd130cbd	-0.03590082
22	0xbe267cd6	-0.16258559
23	0xbe2eec8a	-0.1708242
24	0xbc6874ff	-0.01418805
25	0xbe196411	-0.14979579
26	0xbcc1d43b	-0.02366077
27	0xbe4a941a	-0.19783059
28	0x3c59e9bf	0.013300358
29	0xbb67e276	-0.0035382784
30	0xbded7924	-0.11595371
31	0xbd8498fa	-0.064744905
32	0xbdeb8117	-0.11499231
33	0xbddb0cb6	-0.10695784
34	0x3e19c57a	0.15016738
35	0x3cd33c7e	0.02578568
36	0xbe378861	-0.17923118
37	0xbe4e490b	-0.20145051
38	0xbd3e1ab0	-0.04641217
39	0xbda5f9be	-0.08104275
40	0xbc3e34fa	-0.01160931
41	0xbd9f6c78	-0.07784361
42	0xbd85d741	-0.06535197
43	0xbd6c7b80	-0.057734966
44	0xbdf2d45e	-0.11856912
45	0x3d7c5d66	0.06161251
46	0xbd81484e	-0.06312619
47	0xbd0a11c4	-0.03370835
48	0x3d2c8f8e	0.042129092
49	0xbdab5e4a	-0.083675936
50	0x3e0d36b7	0.13790403
51	0xbe08fcf0	-0.13377738
52	0xbdaedebf	-0.08538579
53	0xbe27c3af	-0.16383241
54	0xbdcc954e	-0.09989415
55	0xbd9d3de4	-0.0767782
56	0x3e093a00	0.13401031
57	0x3e1e2846	0.1544505
58	0xbe42beea	-0.1901814
59	0xbdc3d16a	-0.09561427
60	0xbe0a80c6	-0.13525686
61	0x3c825f74	0.015914656
62	0xbe288e4b	-0.1646053
63	0xbe3799d4	-0.17929775

critic.4.weight f4 [1, 64]
0	0xbde93468	-0.11386949
1	0x3c9219c7	0.017834557
2	0x3cf5e82e	0.030017938
3	0x3c10fe7d	0.008849737
4	0xbdab4199	-0.08362121
5	0xbd3967cd	-0.045265008
6	0x3d04b848	0.032402307
7	0x3e1bceac	0.15215558
8	0x3d938619	0.072033115
9	0x3d0bceb0	0.03413266
10	0x3da1671e	0.07880996
11	0x3d19391c	0.03740798
12	0x3d704a6a	0.058664717
13	0x3e0757e8	0.13217127
14	0xbce90dca	-0.028448958
15	0x3cefd7cc	0.029277705
16	0xbd373dea	-0.04473678
17	0x3b2a374a	0.0025972896
18	0x3c923ab8	0.017850265
19	0x3be535b7	0.0069949287
20	0x3c62c0f6	0.013839951
21	0x3c7eb11a	0.015545154
22	0x3bd21035	0.0064106234
23	0x3ddf84fc	0.10914037
24	0xba12f567	-0.0005606026
25	0x3bd646e7	0.006539214
26	0x3e395b5e	0.1810126
27	0x3cab28da	0.020893503
28	0x3c449b6c	0.011999946
29	0x3d10c9d5	0.035348732
30	0xbd176df0	-0.03697008
31	0x3b968e97	0.0045946348
32	0xbb9c566b	-0.004771044
33	0x3d80d4ec	0.062906116
34	0xbdbaed75	-0.091273226
35	0x3da08ea8	0.078397095
36	0x3c35805e	0.011077968
37	0xbc12d431	-0.008961723
38	0xbe4914b6	-0.19636807
39	0x3a2be859	0.0006557755
40	0x3ab1e91a	0.0013573498
41	0x3dadba39	0.08482785
42	0x3d7ce5d5	0.061742622
43	0x3c45e396	0.0120781865
44	0xba6161c3	-0.00085976365
45	0x3bb5cda9	0.0055481982
46	0x3db38835	0.08766214
47	0x3d4363e3	0.04770268
48	0xbcb75ef4	-0.022384144
49	0xbcd250b9	-0.025673257
50	0xbdd93c09	-0.10607154
51	0x3d626211	0.055269305
52	0x3ddf7854	0.10911623
53	0x3d0a9ef0	0.03384298
54	0x3c4a7f3a	0.012359435
55	0xbc9ccff2	-0.019142125
56	0x3d9595ec	0.07303986
57	0x3e4ad19a	0.19806519
58	0x3c1fd6dd	0.009755817
59	0x3b639c7f	0.003473073
60	0xbda3efdc	-0.08004734
61	0x3d8500ec	0.064943165
62	0xbc57e949	-0.013178178
63	0xbcd31b65	-0.025769899
