RL/CC2-Cardiff-implementation/GT-Cardiff-CC2/Models/PPOxCCE-C1/7000.pth (torch, 78850 bytes, 11 tensors)

actor.0.weight f4 [64, 62]
0	0xba7940ed	-0.0009508271
1	0x3d8b86e7	0.0681284
2	0xbdd6122a	-0.10452683
3	0xbdbf6a3c	-0.093464345
4	0xbdba7e94	-0.09106174
5	0x3e84a70f	0.25908706
6	0x3d70562e	0.058675937
7	0x3e9e1f91	0.30883458
8	0x3e1eccf6	0.15507874
9	0x3dff5006	0.12466435
10	0x3d31cd11	0.043408457
11	0xbdc60f91	-0.09670938
12	0xbe9abfe8	-0.30224538
13	0xbe7423ec	-0.23841828
14	0xbdd3db62	-0.10344578
15	0xbd381b6b	-0.044948023
16	0x3d4da681	0.05020762
17	0x3d9c104d	0.076202966
18	0xbdb05477	-0.086098604
19	0xbd628646	-0.055303834
20	0x3d3cf15d	0.04612862
21	0x3dd7fb15	0.10545937
22	0xbcd61c86	-0.026136648
23	0x3dc2a212	0.09503569
24	0xbca7b158	-0.020470306
25	0x3c5c2cc0	0.013438404
26	0x3deb82cf	0.11499559
27	0xbdf14899	-0.11781425
28	0xbd80e490	-0.06293595
29	0x3e165585	0.1468106
30	0xbdee7672	-0.116436854
31	0x3e703442	0.23457435
32	0xbda896cf	-0.082318895
33	0xbd6f7633	-0.058462333
34	0xbdb5b6b9	-0.08872742
35	0xbdf39894	-0.11894336
36	0xbd38b8bc	-0.04509805
37	0x3e0ad7cf	0.13558887
38	0x3d8e40b7	0.06945937
39	0x3ddfdb3f	0.1093049
40	0xbd89b08c	-0.06723127
41	0xbe3bbf94	-0.183348
42	0xbdb006e5	-0.08595065
43	0x3c2725c5	0.010201876
44	0xbd647b5a	-0.0557817
45	0xbd1ca1e6	-0.038240336
46	0x3ef89c44	0.4855672
47	0xbd59d94e	-0.053185754
48	0x3e4f945c	0.20271438
49	0x3ec5f51d	0.3866357
50	0x3e9e1dca	0.30882102
51	0x3e0969fd	0.13419338
52	0x3d4e7484	0.050404087
53	0x3d28c16b	0.041200083
54	0x3e5f231b	0.21790735
55	0xbe13da1f	-0.14438675
56	0x3dd9b5e8	0.10630399
57	0xbdc9a770	-0.09846389
58	0xbe4ba778	-0.19888103
59	0xbc15b083	-0.009136322
60	0x3d93b41a	0.07212086
61	0x3b392fd9	0.002825728
62	0xbd9a1194	-0.07522884
63	0x3d1d2763	0.03836764
64	0x3d8ec91b	0.069719516
65	0xbc83508d	-0.01602962
66	0xbd9893c2	-0.074500576
67	0xbd31faad	-0.043451954
68	0xbe54c6aa	-0.2077891
69	0x3d545a5a	0.05184398
70	0x3d6963b7	0.05697986
71	0x3e4ff566	0.20308456
72	0xbe1c6e08	-0.15276349
73	0x3e218b1b	0.15775721
74	0xbd422cc9	-0.04740599
75	0x3e8b7e79	0.27244928
76	0x3e63c912	0.22244671
77	0xbdd2f0ea	-0.10299857
78	0x3c3f6a4d	0.011683059
79	0xbda2b7b5	-0.079451956
80	0xbdf265d5	-0.11835829
81	0x3de717f4	0.112838656
82	0x3dc5c448	0.09656578
83	0xbe01ba05	-0.12668617
84	0x3cc2bb23	0.023770874
85	0xbcaf4366	-0.021394443
86	0xbcab34fb	-0.020899286
87	0xbd6e1f27	-0.058135178
88	0x3d480b12	0.048838682
89	0xbd9a0e51	-0.07522262
90	0x3eb58d78	0.35459495
91	0x3e850726	0.25982016
92	0x3e4c2b5e	0.19938418
93	0xbdaad05b	-0.08340522
94	0xbe00b695	-0.1256965
95	0xbda8b940	-0.08238459
96	0x3d81deb6	0.06341307
97	0x3cd9c105	0.026581297
98	0xbdd352c5	-0.103185214
99	0xbe7763fa	-0.24159232
100	0x3e7818ea	0.24228254
101	0x3e3d037e	0.18458363
102	0xbcc16777	-0.023608906
103	0xbe4f5d1d	-0.20250364
104	0xbe2f21e2	-0.17102769
105	0xbde09a9c	-0.109669894
106	0xbd4e8c93	-0.05042703
107	0xbd8344ee	-0.06409632
108	0xbe647c9b	-0.22313158
109	0xbd2c0d21	-0.04200471
110	0xbe4e37a9	-0.2013842
111	0xbd8a2eeb	-0.0674723
112	0xbed7c953	-0.42145786
113	0xbde225f6	-0.11042397
114	0x3db23e72	0.08703317
115	0xbeb42e0f	-0.3519139
116	0xbe455656	-0.19271216
117	0xbe7933f5	-0.24336226
118	0xbcff3b33	-0.031156158
119	0x3cf6c0a8	0.030121163
120	0x3d9fc98a	0.078021124
121	0xbba42d64	-0.005010294
122	0xbea3bfee	-0.31982368
123	0xbd201b38	-0.039088458
124	0xbdf97f3e	-0.12182473
125	0xbd9a2929	-0.07527382
126	0xbd02383f	-0.03179192
127	0xbd7d6489	-0.061863456
128	0xbe8c0e81	-0.27354816
129	0x3e842b00	0.25814056
130	0xbea132d3	-0.31484088
131	0x3db3b9b9	0.08775658
132	0x3cfa3ff8	0.03054808
133	0x3e22e09d	0.15905996
134	0x3d07961c	0.03310214
135	0x3e73d6d6	0.23812422
136	0x3eb4a527	0.3528225
137	0x3c8b38e5	0.016994903
138	0xbeab6f0f	-0.33483168
139	0xbdce4234	-0.10071221
140	0x3df6600c	0.12030038
141	0x3da52cf8	0.08065218
142	0x3df6f05c	0.12057564
143	0xbc167c17	-0.009184859
144	0xbde9a66a	-0.11408694
145	0xbd769c86	-0.060207866
146	0x3db119d4	0.086475044
147	0xba57d11e	-0.000823276
148	0xbd8147a7	-0.06312495
149	0xbdc75098	-0.09732169
150	0xbdf3695f	-0.11885332
151	0xbddb85fc	-0.10718915
152	0xbda4ea6d	-0.08052526
153	0x3e5f1b03	0.21787648
154	0xbd544d99	-0.051831815
155	0xbedc9871	-0.43085054
156	0x3da23e4e	0.0792204
157	0xbdcb871c	-0.099378794
158	0xbcdbf2b6	-0.026849132
159	0xbd52ec80	-0.051495075
160	0x3d1e4c28	0.038646847
161	0xbd53075f	-0.0515207
162	0xbd96735f	-0.07346224
163	0xbcc20960	-0.023686111
164	0xbdfacc0f	-0.12245952
165	0xbda8e35c	-0.0824649
166	0x3a8c8387	0.001072035
167	0xbdda12e1	-0.10648132
168	0xbe49ea49	-0.19718279
169	0xbe036da7	-0.12834798
170	0x3e647e34	0.22313768
171	0xbcdf4080	-0.027252436
172	0x3e1b1eec	0.15148515
173	0x3e2399f9	0.15976705
174	0xbdad2cad	-0.08455787
175	0xbd8c9583	-0.068644546
176	0xbc701bff	-0.014655112
177	0xbe5828d2	-0.21109322
178	0x3e2bff6d	0.16796656
179	0xbe830bce	-0.25594944
180	0xbe8137db	-0.25237927
181	0xbcd9d2f6	-0.026589852
182	0x3e5b7413	0.21430998
183	0xbda83091	-0.08212388
184	0x3e240950	0.16019177
185	0xbc6f032e	-0.01458816
186	0xbcfa2fb0	-0.030540317
187	0xbcdacc74	-0.026708819
188	0xbdd6572a	-0.10465844
189	0x3d8cee7f	0.06881427
190	0x3eb536f6	0.35393494
191	0x3e662e41	0.22478582
192	0xbea9e5a7	-0.33183023
193	0xbe351d90	-0.17687058
194	0xbe9fe343	-0.31228074
195	0xbe816cf7	-0.25278446
196	0xbe987ff0	-0.2978511
197	0xbe03323d	-0.12812133
198	0xbe1d1986	-0.15341768
199	0xbeb00fcc	-0.34387052
200	0x3efede72	0.49779087
201	0x3f2cbf85	0.67479736
202	0xbdc49caa	-0.09600194
203	0xbdb28f2c	-0.08718714
204	0xbd970724	-0.07374409
205	0x3db60cd1	0.08889163
206	0xbd3afdb2	-0.0456521
207	0x3ddb6364	0.10712317
208	0x3d3c1b05	0.045924205
209	0x3c83bd64	0.01608152
210	0xba77d42e	-0.00094539195
211	0xbccdaa38	-0.02510558
212	0x3c828887	0.015934242
213	0xbced90fe	-0.028999802
214	0x3e24742a	0.16059938
215	0x3eb00f1b	0.34386525
216	0xbd6bcb9a	-0.057567216
217	0xbda8e47b	-0.08246704
218	0x3dd2069d	0.10255168
219	0xbdd3148b	-0.10306653
220	0xbc156984	-0.009119395
221	0x3e00a60e	0.12563345
222	0x3dbe9183	0.09305098
223	0x3e8b0ed9	0.27159765
224	0x3aebca8c	0.0017989441
225	0x3d252f89	0.040328536
226	0xbe49d5b3	-0.19710426
227	0x3da7bcbe	0.081902966
228	0x3d1df8fe	0.038567536
229	0x3e7496ba	0.23885623
230	0xbdb843de	-0.0899732
231	0x3de86bbf	0.11348676
232	0xbd88613c	-0.06659171
233	0x3e09f849	0.1347362
234	0xbd9232cb	-0.07138594
235	0xbeb0b583	-0.34513482
236	0xbd7dab6c	-0.06193106
237	0x3d42266c	0.047399923
238	0xbd5c787d	-0.053825844
239	0x3dfdf6ed	0.12400613
240	0x3d902c74	0.07039729
241	0x3e1ee9bb	0.15518849
242	0x3d6f89ce	0.05848103
243	0x39552f82	0.00020330961
244	0xbbab92ad	-0.005235991
245	0x39145f8a	0.00014149971
246	0x3d878c74	0.06618586
247	0xbd917438	-0.07102245
248	0x3ae56cfc	0.0017503793
249	0xbcb0e205	-0.02159215
250	0xbd88fc54	-0.06688753
251	0x3c89823e	0.016785737
252	0x3d12634a	0.03573922
253	0x3e3c8256	0.18409094
254	0xbdb0b0b9	-0.08627457
255	0xbe8f04b3	-0.27933273

actor.0.bias f4 [64]
0	0xbd693184	-0.056931987
1	0xbd20f2be	-0.039293997
2	0xbb0115bd	-0.0019696795
3	0xbd10549d	-0.035236944
4	0xbe130ff6	-0.14361557
5	0xbe384ba3	-0.17997603
6	0x3e033e17	0.12816654
7	0xbdf12b9a	-0.117758945
8	0x3c49a61d	0.012307671
9	0x3c9d6949	0.019215243
10	0xbe0da476	-0.13832268
11	0xbe29208e	-0.16516325
12	0xbd651193	-0.055924963
13	0xbe10e08d	-0.1414816
14	0xbe2f8858	-0.17141855
15	0x3de272cb	0.11057051
16	0xbd54ab06	-0.051920913
17	0xb9dcff21	-0.00042151756
18	0xbe338527	-0.17531262
19	0xbe2045c0	-0.15651608
20	0xbdb69b93	-0.08916392
21	0xbe8b553e	-0.27213472
22	0xbd6dc2e2	-0.058047183
23	0xbce37edd	-0.027770454
24	0xbdb77890	-0.08958542
25	0x3dbf4549	0.09339387
26	0x3d999dea	0.07500823
27	0x3ddc7fc7	0.10766559
28	0xbde5d261	-0.11221767
29	0xbd2fa638	-0.042883128
30	0xbd81801b	-0.06323262
31	0x3dd69399	0.10477371
32	0x3d28959e	0.04115831
33	0xbe1acc74	-0.15117055
34	0x3de7e306	0.11322598
35	0xbe47a9c8	-0.1949836
36	0x3e2442c6	0.16041097
37	0xbd31e507	-0.043431308
38	0xbd0e1427	-0.034687188
39	0xbde674e2	-0.112527624
40	0x3e0ff54f	0.14058422
41	0x3d733054	0.05937226
42	0x3d5c41fa	0.053773858
43	0x3db494d5	0.0881745
44	0xbdb3599f	-0.08757328
45	0x3e34dd1e	0.17662475
46	0xbd1bc94d	-0.038033772
47	0x3d55dac7	0.052210595
48	0x3d5dc22b	0.05414025
49	0x3cfea9e6	0.031086873
50	0x3d59e320	0.05319512
51	0xbe5eab6d	-0.21745081
52	0xbe0a9442	-0.13533118
53	0xbd499876	-0.049217664
54	0x3e168ebd	0.14702888
55	0xbd29c15f	-0.04144418
56	0x3e11fda9	0.1425692
57	0x3e1dc731	0.15408017
58	0xbe6654c2	-0.2249327
59	0xbe1556f0	-0.14583945
60	0xbd644a29	-0.055734787
61	0xbdb285b7	-0.0871691
62	0xbcd95757	-0.026530905
63	0x3c53a6da	0.0129181985

actor.2.weight f4 [64, 64]
0	0x3dabad43	0.083826564
1	0xbe3c22a5	-0.18372591
2	0xbd028895	-0.031868536
3	0x3e50cad0	0.20389867
4	0x3e37acc0	0.17936993
5	0x3ec9e25a	0.39430505
6	0xbd58c75e	-0.052924506
7	0xbdaa9fc9	-0.08331258
8	0xbe6c4a60	-0.23075247
9	0x3d3e0a26	0.046396397
10	0xbe3c9160	-0.18414831
11	0xbbddaf47	-0.0067652795
12	0xbd846d55	-0.06466166
13	0xbe69892d	-0.22806235
14	0x3e7e564e	0.2483761
15	0xbdfceb23	-0.12349536
16	0xbe67c1fa	-0.2263259
17	0xbc03c854	-0.008043367
18	0x3de491b6	0.11160605
19	0xbe8e93cd	-0.27847138
20	0x3e6e7b44	0.2328921
21	0xbcc143f9	-0.023591982
22	0x3d9095ff	0.070598595
23	0xbe521c03	-0.20518498
24	0xbd8a36fd	-0.067487694
25	0x3deafddc	0.11474201
26	0x3e632c70	0.2218492
27	0xbd181e6e	-0.037138395
28	0x3e51901c	0.2046513
29	0x3eaae051	0.33374265
30	0x3a30dd00	0.0006746799
31	0x3dec1a3f	0.115284435
32	0xbd86fe6a	-0.065914944
33	0x3c9a9984	0.01887203
34	0xbd911d2a	-0.07085641
35	0x3e0f8f9d	0.14019628
36	0xbddbd94d	-0.10734806
37	0x3d6f214f	0.058381375
38	0xbc4aa642	-0.0123687405
39	0x3cbf09d1	0.02332011
40	0xbe296098	-0.16540754
41	0xbe64ac56	-0.22331366
42	0x3e13a22c	0.14417332
43	0xbe4edcf6	-0.20201477
44	0xbdbe9a86	-0.09306817
45	0x3d6c48be	0.05768656
46	0xbe400e09	-0.18755354
47	0x3e6120a2	0.21985105
48	0xbd81ecf4	-0.06344023
49	0xbdf6fc4c	-0.120598406
50	0x3dbef6e2	0.09324433
51	0x3e8b32ab	0.27187094
52	0x3d02d241	0.031938795
53	0xbb4ccada	-0.0031248839
54	0xbd8b5c65	-0.06804732
55	0xbe8055e9	-0.25065544
56	0xbe06ac15	-0.13151582
57	0x3df89d20	0.12139344
58	0x3dbcc54b	0.09217318
59	0xbe2ce459	-0.16883983
60	0x3e146e5d	0.14495225
61	0xbcc9f0d4	-0.024650969
62	0x3dc26cc2	0.094934
63	0xbe7bd486	-0.2459279
64	0x3d15b433	0.036548804
65	0xbc28ee19	-0.010310673
66	0x3bef4fc2	0.007303209
67	0x3a730a90	0.0009271288
68	0xbe1873a5	-0.14887865
69	0x3daaa741	0.083326824
70	0x3da8b6bf	0.08237981
71	0xbdf4b971	-0.11949433
72	0xbe3347a7	-0.17507802
73	0x3e290171	0.16504456
74	0x3de52401	0.11188508
75	0x3de297dd	0.11064122
76	0xbddba783	-0.1072531
77	0xbc3bb00b	-0.011455546
78	0xbea61212	-0.32435662
79	0xbed461e9	-0.4148095
80	0x3bcd0903	0.006257178
81	0xbe189bbe	-0.14903161
82	0x3e4cefc4	0.20013338
83	0x3e5a71f3	0.2133253
84	0xbe8b2d67	-0.27183077
85	0xbe346c34	-0.17619401
86	0xbc907fe6	-0.017639112
87	0x3e14746b	0.14497535
88	0xbbbf631c	-0.005840672
89	0x3e3f3bf0	0.18675208
90	0xbe4a6bcf	-0.19767688
91	0x3e5be64d	0.21474572
92	0xbe6d19bc	-0.23154348
93	0x3dc3a2f2	0.09552564
94	0x3e615014	0.22003204
95	0x3cb691ae	0.022286262
96	0xbe4e883c	-0.20169157
97	0x3df3f404	0.11911777
98	0x3da5d155	0.080965675
99	0xbe4af653	-0.19820528
100	0xbd1eafac	-0.038741753
101	0xbee4545a	-0.44595605
102	0x3e9b95fc	0.30387866
103	0x3ccd2244	0.025040753
104	0x3d9de75f	0.07710146
105	0x3c00f394	0.007870574
106	0xbd55d847	-0.05220821
107	0x3e888284	0.26662076
108	0x3e6b02d8	0.22950304
109	0x3e31332d	0.17304678
110	0xbe4a27cd	-0.19741745
111	0xbe3e1475	-0.18562491
112	0x3d997b7b	0.07494255
113	0x3eaa3414	0.33242857
114	0x3bc5a990	0.0060321763
115	0x3e6f3dad	0.23363371
116	0x3eaf72ac	0.34267175
117	0xbe64df92	-0.2235091
118	0xbde49abd	-0.111623265
119	0x3ed2cca1	0.41171744
120	0x3d87f29f	0.06638073
121	0xbdf321b6	-0.11871664
122	0xbd953963	-0.07286336
123	0xbc18ae45	-0.009318893
124	0x3de74789	0.11292941
125	0x3ed9f2a7	0.42567942
126	0xbe197df9	-0.14989461
127	0x3cf56f94	0.029960431
128	0xbe0cd764	-0.1375404
129	0x3cd4af13	0.025962388
130	0xbdd60f3b	-0.10452124
131	0x3c273c7b	0.010207291
132	0x3d3c57ad	0.04598205
133	0x3cbeb7e8	0.023281053
134	0xbd3b6a1e	-0.045755498
135	0xbd8ebeba	-0.06969972
136	0xbdd9f2e6	-0.10642032
137	0xbd93ed81	-0.07223035
138	0xbdc0272a	-0.0938247
139	0xbe4862ea	-0.19568983
140	0x3ccc72f9	0.024957167
141	0x3d3e1cdb	0.046414237
142	0xbd3db2b9	-0.04631302
143	0x3cb016ac	0.021495186
144	0x3dff00e5	0.124513425
145	0x3ce96a1f	0.028492985
146	0xbdd685da	-0.10474749
147	0x3d8f972d	0.07011256
148	0xbd9fb205	-0.077976264
149	0xbc33d518	-0.0109760985
150	0xbe324050	-0.17407346
151	0x3d0db2fc	0.03459452
152	0xbe819764	-0.25310814
153	0xbcfc3c6e	-0.030790534
154	0x3ca9a4a0	0.020708382
155	0xbda1a692	-0.07893099
156	0x3da6046b	0.081063114
157	0xbd3fb525	-0.046803612
158	0x3da42f46	0.08016829
159	0xbd185e94	-0.03719957
160	0xbd8a83ce	-0.06763421
161	0x3be5c245	0.007011684
162	0xbe59fa72	-0.21286944
163	0xbe196cac	-0.14982861
164	0xbcda04bd	-0.026613588
165	0x3d0923c6	0.03348138
166	0xbdfb684d	-0.12275753
167	0xbe224925	-0.15848215
168	0xbd3e4e6c	-0.046461508
169	0xbc90a793	-0.01765803
170	0xbda3681d	-0.079788424
171	0xbbb05a80	-0.005381882
172	0xbddbbc3b	-0.107292615
173	0xbc9000cb	-0.017578503
174	0xbd204731	-0.039130393
175	0xbd2e844c	-0.042606637
176	0x3c22e14e	0.009941412
177	0x3d348a17	0.044077005
178	0xbd9c410c	-0.07629594
179	0xbd9d7aa0	-0.076894045
180	0xbdb9c0fe	-0.090700135
181	0xbd6e1fbf	-0.058135744
182	0xbdc51ee7	-0.09625035
183	0xbe704462	-0.23463586
184	0xbe1a6add	-0.15079828
185	0x3ca5034a	0.02014317
186	0x3e1c3beb	0.15257232
187	0xbb082ff7	-0.0020780542
188	0xbd8801a3	-0.06640937
189	0xbd93b993	-0.0721313
190	0xbda94624	-0.082653314
191	0xbe028dec	-0.12749451
192	0xbcd5016b	-0.026001653
193	0x3c260567	0.010133124
194	0x3e18ea21	0.14933063
195	0x3eb83d9f	0.35984513
196	0xbe64a6ad	-0.22329207
197	0x3c52bfea	0.012863139
198	0x3c78d665	0.015187834
199	0x3e1d950f	0.15388893
200	0xbd9ac4d1	-0.07557071
201	0x3e197199	0.1498474
202	0x3d59b6cd	0.053152848
203	0xbe028306	-0.12745294
204	0x3de3bc9c	0.11119959
205	0xbc8aaa69	-0.016926961
206	0xbe896da5	-0.26841465
207	0xbd1f35b7	-0.038869586
208	0x3eaa804a	0.33301002
209	0xbd826d48	-0.063685
210	0x3e14b9d6	0.14524016
211	0x3eccfb0e	0.4003529
212	0xbe7587c1	-0.23977567
213	0x3e432b89	0.19059576
214	0x3b323004	0.0027189264
215	0x3dd81287	0.10550409
216	0xbdb2f9fc	-0.08739087
217	0x3e3732b6	0.17890438
218	0x3e2b84ff	0.16749953
219	0x3be0add3	0.006856659
220	0x3df0664b	0.11738261
221	0xbebb9608	-0.36637902
222	0x3ded58e3	0.115892194
223	0x3e3d488d	0.18484707
224	0x3edf19ac	0.43574274
225	0xbe2ce716	-0.16885027
226	0x3e1cbbe5	0.15306051
227	0xbe17c800	-0.14822388
228	0x3da12276	0.07867901
229	0x3d530cfd	0.05152606
230	0x3e4fa817	0.20278965
231	0x3d669c9f	0.05630171
232	0xbe74c6be	-0.23903939
233	0x3ea4e3b3	0.3220497
234	0x3d1034f7	0.03520676
235	0xbe3be719	-0.18349876
236	0xba66038c	-0.0008774332
237	0x3e312020	0.17297411
238	0xbd0e20f8	-0.03469941
239	0xbca71504	-0.020395763
240	0xbe2b2411	-0.16712977
241	0x3e8c21ac	0.2736944
242	0x3da18ed6	0.07888572
243	0x3c09d7fe	0.008413313
244	0xbde0a491	-0.109688886
245	0x3c89f763	0.016841596
246	0x3dccef84	0.100066215
247	0xbdc14249	-0.09436471
248	0x3d8012ea	0.062536076
249	0x3e6d5d78	0.23180187
250	0x3d3e8acd	0.04651909
251	0xbcfac41a	-0.030611087
252	0xbcae597c	-0.021282904
253	0xbe2f5850	-0.17123532
254	0x3db60476	0.088875696
255	0x3e550be8	0.20805323

actor.2.bias f4 [64]
0	0xbd675e92	-0.056486674
1	0x3cb2c34d	0.021821642
2	0xbd2ff003	-0.042953502
3	0x3da785dd	0.08179829
4	0x3dd2a06d	0.10284505
5	0xbcdfbf02	-0.02731276
6	0xbe359068	-0.17730868
7	0xbd1ac74d	-0.037787724
8	0xbc999632	-0.018748377
9	0x3bb9aeff	0.005666613
10	0xbdd381b7	-0.103274755
11	0x3df54820	0.119766474
12	0xbe012878	-0.12613094
13	0xbe5cefc2	-0.21575835
14	0xbd36938b	-0.0445743
15	0x3e223c5e	0.15843341
16	0xbe41b997	-0.18918453
17	0xbde67721	-0.11253191
18	0x3ca083f7	0.019594176
19	0xbd58af8a	-0.052901782
20	0xbcb920dd	-0.022598678
21	0x3df953f9	0.1217422
22	0x3a6b29a4	0.00089707435
23	0x3bc41581	0.005984009
24	0x3daf7caf	0.085687034
25	0xbdb47b1e	-0.08812545
26	0xbd566e5e	-0.052351348
27	0xbdcbc8a0	-0.099503756
28	0xbe4cb595	-0.19991143
29	0xbd943627	-0.07236891
30	0x3e195b0e	0.14976141
31	0xbd47a915	-0.048745234
32	0xbdcb8967	-0.09938317
33	0xbd22ab80	-0.039714336
34	0xbde5c514	-0.1121923
35	0xbce65295	-0.02811555
36	0xbccba16b	-0.024857244
37	0xbd9bfe55	-0.07616869
38	0x3d0cb5f7	0.034353223
39	0x3cb48414	0.022035636
40	0xbd59f50e	-0.053212218
41	0xbe8777ef	-0.2645869
42	0x3d998516	0.07496087
43	0xbe202729	-0.15639938
44	0x3d8bf488	0.0683375
45	0xbddc4478	-0.10755247
46	0xbe09bd3d	-0.13451095
47	0xbdb6eeab	-0.08932241
48	0xbd47a51d	-0.04874145
49	0x3d4f64cd	0.05063324
50	0x3e023651	0.12716033
51	0xbdcd93f8	-0.100379884
52	0xbe06b858	-0.13156259
53	0xbdbf4476	-0.0933923
54	0xbde84e4c	-0.11343059
55	0x3d5b3935	0.053521354
56	0xbd27116f	-0.04078811
57	0x3ea27248	0.31727815
58	0xbcd02f25	-0.025413105
59	0x3dd8dba4	0.10588768
60	0x3c6284ae	0.013825579
61	0xbca94a2c	-0.02066525
62	0x3dcfd856	0.10148685
63	0xbd3aeaba	-0.04563401

actor.4.weight f4 [36, 64]
0	0xbdb3feee	-0.08788858
1	0xbe1f44ef	-0.1555364
2	0x3ddf8dda	0.10915728
3	0xbedc9083	-0.43079004
4	0xbe8fef10	-0.28112078
5	0xbe3465d4	-0.1761697
6	0x3d92297f	0.07136821
7	0x3cec44f5	0.028841475
8	0xbea2ed3b	-0.31821617
9	0xbe8780fc	-0.26465595
10	0xbda49418	-0.08036059
11	0xbf0b6ca2	-0.54462636
12	0x3d684cfe	0.05671405
13	0xbd7fe9f5	-0.06247898
14	0xbefd9b2c	-0.4953245
15	0x3f2bb80e	0.6707772
16	0x3e1ab345	0.15107448
17	0x3d97c051	0.07409728
18	0x3d8cb548	0.06870514
19	0xbe10eaaa	-0.14152017
20	0x3d593dc6	0.053037427
21	0xbefd77af	-0.49505374
22	0xbea92b6c	-0.3304094
23	0xbbd473c2	-0.006483526
24	0xbec3cc01	-0.3824158
25	0xbe2617e2	-0.16220048
26	0xbdda02c2	-0.10645057
27	0x3dd862c8	0.10565716
28	0xbd75a2ca	-0.0599697
29	0xbe3a0edf	-0.18169735
30	0x3ed7999c	0.42109382
31	0x3c1c2c6a	0.0095320735
32	0xbe3e28ae	-0.18570206
33	0xbee09d6d	-0.43870106
34	0x3d9807b1	0.07423342
35	0x3e2f5d19	0.17125358
36	0x3da635b9	0.081157155
37	0x3d36d622	0.044637807
38	0xbe925df5	-0.2858731
39	0x3e87105f	0.26379678
40	0xbeb84410	-0.35989428
41	0xbd1dadd9	-0.038495872
42	0xbe71b51c	-0.23604244
43	0xbecfe9da	-0.40608102
44	0xbdc01fdb	-0.09381076
45	0x3d8d7b7b	0.06908318
46	0xbe6bec61	-0.2303939
47	0x3d3528f9	0.044228528
48	0x3dbd2360	0.09235263
49	0xbe5a2fcc	-0.21307296
50	0x3e8214f9	0.25406626
51	0xbe0f7e0b	-0.14012925
52	0xbc4443ea	-0.011979083
53	0xbdc6a9b6	-0.097003385
54	0x3d3dbc36	0.04632207
55	0x3e77d9d0	0.24204183
56	0xbe0a79e8	-0.13523066
57	0xbf581d25	-0.8441947
58	0xbece06aa	-0.4023946
59	0xbeb72f70	-0.3577838
60	0xbe2080e8	-0.15674174
61	0xbe3b284c	-0.18277091
62	0xbeff10d1	-0.49817517
63	0xbda46b3f	-0.08028268
64	0x3cfcc6d7	0.030856533
65	0x3ec54e95	0.38536516
66	0x3dd142d5	0.10217825
67	0xbe4e8aa0	-0.20170069
68	0x3d81588d	0.06315718
69	0xbd00beb8	-0.031431884
70	0xbb243568	-0.0025056247
71	0x3d0d8ff2	0.034561105
72	0xbdefc5b9	-0.117076345
73	0x3ec18974	0.3780018
74	0x3daf426f	0.08557593
75	0xbe56a561	-0.20961525
76	0xbeb71c72	-0.3576389
77	0xbe819db9	-0.25315645
78	0x3e94cbb9	0.29061678
79	0xbeb57e4a	-0.35447913
80	0xbe9f07f6	-0.3106076
81	0x3ebcc9aa	0.36872607
82	0x3cf8d9a8	0.030377224
83	0xbe7b93d9	-0.24568118
84	0x3d64e882	0.0558858
85	0x3e9edd42	0.3102818
86	0xbe18953f	-0.14900683
87	0xbda9d615	-0.08292786
88	0xbf17f613	-0.59359854
89	0xbe298159	-0.16553248
90	0x3e0ea060	0.13928366
91	0x3c643747	0.013929195
92	0x3dbc82c7	0.09204631
93	0x3d55babf	0.052180048
94	0xbeacd9a6	-0.33759803
95	0xbe5e275d	-0.21694703
96	0x3d0b25d0	0.033971608
97	0xbf15abae	-0.5846509
98	0x3e432137	0.19055639
99	0xbf0066c4	-0.5015681
100	0x3e5ecf64	0.217588
101	0xbec33c2e	-0.3813185
102	0x3ea212ca	0.3165496
103	0xbdc2e7ac	-0.09516844
104	0x3e55ddb5	0.20885356
105	0x3d4301be	0.047609083
106	0x3eb82cfc	0.3597182
107	0xbdb96b08	-0.09053618
108	0x3ee71c9d	0.45139018
109	0x3d260d60	0.0405401
110	0xbea7a376	-0.32741898
111	0x3d79d368	0.06099263
112	0xbe032213	-0.12805967
113	0xb88dbfe0	-6.7591434e-05
114	0xbe8a4516	-0.27005833
115	0xbee303bc	-0.44338787
116	0x3d795231	0.0608694
117	0x3e81336e	0.2523455
118	0x3dbc6e1a	0.09200688
119	0x3e2b872c	0.16750783
120	0xbd84c802	-0.06483461
121	0x3e8ac7a8	0.2710545
122	0xbe7b3a19	-0.24533881
123	0x3f06a02e	0.52588165
124	0x3df661cf	0.12030374
125	0x3e9c3100	0.30506134
126	0xbea1bcdf	-0.3158941
127	0xbe6def35	-0.23235781
128	0x3ef1d96a	0.47236186
129	0xbe9503b5	-0.2910439
130	0x3e6249eb	0.2209851
131	0xbe87ede2	-0.26548678
132	0xbe1ce49c	-0.15321583
133	0xbcfd4d27	-0.030920578
134	0xbd054a69	-0.032541666
135	0xbe1a68d3	-0.1507905
136	0xbe81b8be	-0.2533626
137	0xbe5de75a	-0.21670285
138	0x3d9d1bf9	0.07671351
139	0xbda44276	-0.08020489
140	0x3eccaa35	0.39973608
141	0xbd83e2dc	-0.06439754
142	0xbe1e1efb	-0.15441506
143	0xbcbab1cf	-0.022789864
144	0x3e92802b	0.2861341
145	0xbe51cea0	-0.20488977
146	0x3f37afe1	0.71752745
147	0x3dfd4e38	0.12368435
148	0x3efd6585	0.49491516
149	0xbec7a7dc	-0.38995254
150	0xbd3f8e3f	-0.046766516
151	0xbd902fbd	-0.07040355
152	0xbe85ce77	-0.26134083
153	0xbe170f31	-0.14751889
154	0x3ca96c9c	0.020681672
155	0x3e8de91d	0.27716914
156	0x3e96b891	0.29437688
157	0xbce8129a	-0.028329182
158	0x3ec3fd65	0.38279262
159	0xbf4bc6f5	-0.7960046
160	0x3c180461	0.009278388
161	0xbebe8dce	-0.37217563
162	0x3d4e3bc9	0.050349984
163	0xbdbcdfbf	-0.09222364
164	0xbd1695b3	-0.036763858
165	0xbdc1103b	-0.09426924
166	0x3ea63ddf	0.3246908
167	0x3e85afd3	0.26110706
168	0x3d90e5d7	0.070750885
169	0x3d3f84fd	0.046757687
170	0xbed6aa4d	-0.41926804
171	0xbe5f988e	-0.21835539
172	0xbe303a22	-0.17209676
173	0xbd11e4ea	-0.0356187
174	0xbe92f864	-0.28705132
175	0x3da0ead4	0.0785729
176	0x3e11afcf	0.14227222
177	0x3e57fdac	0.21092862
178	0xbe247323	-0.16059546
179	0x3ec25ec5	0.37962928
180	0x3ebf2a42	0.37336928
181	0xbe26a78f	-0.16274856
182	0x3cea7ba5	0.028623411
183	0x3efe3bf7	0.49655125
184	0xbe11ae1d	-0.14226575
185	0xbf47bf94	-0.780267
186	0xbed98d2f	-0.42490527
187	0xbdb7ac54	-0.08968416
188	0x3e27b68b	0.16378228
189	0x3ec246d5	0.37944666
190	0xbf07f618	-0.53109884
191	0x3c909525	0.017649243
192	0x3e822410	0.25418139
193	0xbeb2b036	-0.34900063
194	0x3b69eadf	0.0035692973
195	0xbd8745fe	-0.06605147
196	0x3e589c5e	0.211534
197	0xbd71d65c	-0.05904232
198	0x3da740d8	0.08166665
199	0x3dbdc07d	0.0926523
200	0xbea49fe8	-0.3215325
201	0x3df04eb6	0.11733763
202	0x3dc26a70	0.094929576
203	0xbe487a3c	-0.19577879
204	0x3eb07ed0	0.3447175
205	0xbeffdf40	-0.49975014
206	0xbe315b12	-0.17319897
207	0x3ef3659c	0.4753846
208	0xba68b26b	-0.0008876684
209	0x3e24b56f	0.16084836
210	0x3dc5ee27	0.096645646
211	0xbca99f5b	-0.02070587
212	0x3dc4a6cf	0.09602129
213	0xbd924d4c	-0.071436495
214	0xbeb885ae	-0.3603949
215	0x3dd9d425	0.106361665
216	0xbcdd319b	-0.027001193
217	0xbe3e2323	-0.18568091
218	0x3ddf787f	0.10911655
219	0x3da19c3a	0.07891126
220	0x3e1b8c19	0.15190162
221	0xbdf10aca	-0.11769636
222	0x3ee4fce7	0.447242
223	0xbefd715c	-0.4950055
224	0x3e520341	0.20509054
225	0xbdb15a9c	-0.086598605
226	0x3d8e2a5a	0.06941672
227	0x3d947b8a	0.07250126
228	0xbe0ddf2f	-0.13854669
229	0xbec83741	-0.39104655
230	0x3e2b9518	0.16756094
231	0x3a93efce	0.0011286677
232	0x3e8c0abe	0.27351946
233	0x3e32c48e	0.17457792
234	0xbd705170	-0.058671415
235	0xbe91dd88	-0.28489327
236	0xbd9e408a	-0.077271536
237	0xbdc57ff0	-0.09643543
238	0xbea51cda	-0.32248574
239	0xbcb8f25b	-0.022576502
240	0x376eedc0	1.4241261e-05
241	0xbe5477d8	-0.20748842
242	0x3eaa4830	0.332582
243	0xbc8f7042	-0.017509583
244	0x3ebc40ff	0.36768338
245	0x3d6f88da	0.05848012
246	0x3cf76659	0.03020017
247	0x3ec5962a	0.3859113
248	0x3deae888	0.11470133
249	0xbee20ef7	-0.44152042
250	0xbe8bc2d5	-0.27297083
251	0x3ee781f7	0.45216343
252	0xbdf9548c	-0.12174329
253	0x3ea35fec	0.3190912
254	0xbf045e99	-0.51706845
255	0x3cfb5c44	0.030683644

actor.4.bias f4 [36]
0	0x3cf90abd	0.030400628
1	0x3e5a31d6	0.21308073
2	0xbea38182	-0.31934744
3	0x3d68cb06	0.056834243
4	0x3e52d87c	0.20590395
5	0xbe98ac79	-0.29819086
6	0x3cbd4ab7	0.023106916
7	0x3e83045d	0.25589266
8	0x3d66b546	0.05632522
9	0x3c99860a	0.018740673
10	0x3e174fb7	0.14776503
11	0x3e67a9d1	0.22623374
12	0x3dd0acae	0.10189186
13	0x3dfd662a	0.12373002
14	0xbe09e077	-0.13464533
15	0x3ca3cdfe	0.019995686
16	0x3de21d80	0.11040783
17	0xbe0bb5e7	-0.13643609
18	0x3de96053	0.113953255
19	0x3de09370	0.109656215
20	0xbdb618c7	-0.08891445
21	0x3e106022	0.14099172
22	0xbe04b105	-0.12958153
23	0xbdee7d91	-0.11645044
24	0x3e00318c	0.125189
25	0xbe0b0e11	-0.13579585
26	0x3e8090cd	0.25110474
27	0x3aa98372	0.001293285
28	0xbdb50cd0	-0.088403344
29	0x3e2fcacf	0.17167209
30	0x3e1b9f6a	0.1519753
31	0xbc43eacb	-0.0119578345
32	0xbbdafeb0	-0.006683193
33	0x3e69df00	0.22838974
34	0x3d8c48dc	0.06849834
35	0x3e84d6dc	0.25945175

critic.0.weight f4 [64, 62]
0	0x3d9c60c8	0.07635647
1	0x3dab196a	0.08354457
2	0xbdabd831	-0.083908446
3	0x3c1b5b6c	0.009482246
4	0xbdead0ce	-0.114656076
5	0xbd746ff9	-0.059677098
6	0x3c8c71e4	0.017144151
7	0xbcb093fa	-0.021554936
8	0xbd62b119	-0.055344675
9	0x3b08ea44	0.0020891586
10	0xbdd46bbe	-0.10372113
11	0x3ab0ff9f	0.0013503915
12	0xbde0c755	-0.109755196
13	0xbda3947b	-0.07987305
14	0xbe15a44a	-0.14613453
15	0xbe074397	-0.13209377
16	0xbc0910fe	-0.008365868
17	0xbddd20ab	-0.107972465
18	0xbdf7fe13	-0.12109008
19	0x3db676c8	0.089093745
20	0xbdbb4a0c	-0.09144983
21	0x3db6177c	0.08891198
22	0x3c1010d6	0.0087930765
23	0xbc983c3e	-0.018583413
24	0x3dc93eef	0.09826457
25	0xbdcb1727	-0.09916525
26	0x3d7934c0	0.060841322
27	0x3dad99b3	0.084765814
28	0x3e105e29	0.14098419
29	0xbe6c712d	-0.23090048
30	0xbc1744f4	-0.009232748
31	0xbdcc176e	-0.09965406
32	0xbdc0fbf2	-0.09423055
33	0x3db1a39a	0.08673783
34	0xbcb73252	-0.022362862
35	0x3dafeb73	0.0858983
36	0xbd8c0d16	-0.068384334
37	0xbd66b474	-0.056324437
38	0x3dfc6830	0.1232456
39	0x3d85e5f5	0.065380014
40	0x3d9510c4	0.072785884
41	0x3d5de969	0.054177675
42	0x3e037fb0	0.12841678
43	0xbdf2a4ef	-0.11847865
44	0xbd06e888	-0.032936603
45	0x3d05eba0	0.032695413
46	0xbd44cb3b	-0.04804538
47	0xbe3f33e9	-0.18672146
48	0x3c8061ae	0.015671577
49	0xbe1e619d	-0.15466924
50	0xbd95f8a2	-0.073228136
51	0xbe2f4cb6	-0.17119107
52	0x3d00b712	0.03142459
53	0xbba17277	-0.0049269754
54	0xbdc66fb4	-0.096892744
55	0x3ce517db	0.027965477
56	0xbcc54f9e	-0.024085816
57	0x3d30368a	0.043020763
58	0xbd24e18a	-0.040254153
59	0xbe28c9b3	-0.16483192
60	0xbe4e385f	-0.20138691
61	0xbcfdb36f	-0.03096935
62	0xbde719dd	-0.1128423
63	0x3d83bfcc	0.06433067
64	0xbc8d3928	-0.017239168
65	0xbd4d2513	-0.050084185
66	0x3dcf4fc7	0.10122638
67	0xbeb8f606	-0.361252
68	0x3d0869fa	0.033304192
69	0xbbaffec1	-0.005370945
70	0xbd8da857	-0.06916874
71	0xbe57ae04	-0.21062475
72	0xbdaae9ca	-0.08345373
73	0x3caf4534	0.021395303
74	0xbd641e10	-0.055692732
75	0x3e1978f7	0.1498755
76	0xbd4a8b6b	-0.049449366
77	0xbd3ba0c6	-0.045807622
78	0x3dd4f5a3	0.10398414
79	0x3ddf2efb	0.10897633
80	0x3d8b91bf	0.06814908
81	0xbbdf0445	-0.006805929
82	0xbd05605d	-0.032562602
83	0xbdf85976	-0.12126438
84	0x3d88dae2	0.066823736
85	0xbcebcd00	-0.028784275
86	0x3ca310a8	0.019905403
87	0xbceaf3ed	-0.028680766
88	0x3da7fc15	0.08202378
89	0x3b843abd	0.0040353225
90	0x3db10a15	0.08644501
91	0xbb70667e	-0.0036682184
92	0x3be00711	0.00683678
93	0xbd845291	-0.06461061
94	0x3d70dd73	0.05880494
95	0xbd99545f	-0.07486796
96	0x3db6e9b5	0.08931295
97	0x3dc97be7	0.098380856
98	0xba64b1b4	-0.00087239896
99	0xbd4f092c	-0.050545856
100	0x3e38ec9d	0.18059011
101	0x3dec29fd	0.11531446
102	0xbd0fe154	-0.035127
103	0xbe0fab21	-0.14030124
104	0xbd4a55ae	-0.049398117
105	0xbdfea4cb	-0.124337755
106	0x3d8f5471	0.06998528
107	0xbce8a5eb	-0.028399428
108	0xbc886056	-0.016647499
109	0x3e4edd34	0.2020157
110	0x3e75dfad	0.24011107
111	0x3d35db22	0.044398434
112	0xbd5f58a4	-0.054527894
113	0x3d2c8748	0.0421212
114	0xbd3f1bb0	-0.046657264
115	0x3cd2d03e	0.025734063
116	0xbe4b20b7	-0.19836698
117	0xbf203899	-0.6258636
118	0xbe309cc8	-0.17247307
119	0x3d48468e	0.04889541
120	0xbd7243d9	-0.059146736
121	0xbd2a0c6e	-0.04151576
122	0x3d2f3fa4	0.0427853
123	0x3d84170f	0.064497106
124	0xbdd74f1a	-0.10513134
125	0x3da32314	0.07965675
126	0x3dd7641f	0.105171435
127	0x3d472423	0.048618447
128	0xbe2af851	-0.16696288
129	0xbdbcacc0	-0.09212637
130	0xbd64227e	-0.055696957
131	0xbe77cd08	-0.24199307
132	0xbd9996d7	-0.074994735
133	0xbe5b247d	-0.21400638
134	0x3daf0e29	0.08547623
135	0xbd34eb20	-0.044169545
136	0xbe54b58c	-0.2077238
137	0x3e8a35c4	0.26994145
138	0xbe451b51	-0.19248702
139	0x3d5551e3	0.052080046
140	0xbca31f01	-0.019912245
141	0xbd99a10a	-0.07501419
142	0x3df274de	0.11838697
143	0xbdd3839b	-0.10327836
144	0x3df2c62b	0.11854204
145	0xbcafec77	-0.02147506
146	0x3cbc58ce	0.022991564
147	0x3de27c04	0.1105881
148	0xbd70b2c3	-0.05876423
149	0xbd40bdad	-0.04705589
150	0x3d5737c4	0.052543417
151	0xbd03cac2	-0.032175787
152	0x3dba7802	0.09104921
153	0x3dc58022	0.0964358
154	0xbc0baaf5	-0.008524646
155	0x3e11e305	0.14246757
156	0xbd63e6a6	-0.055639885
157	0x3d537ec6	0.051634572
158	0x3c4969fd	0.012293336
159	0xbdc80e22	-0.097683206
160	0xbe427740	-0.18990803
161	0xbe0c7b11	-0.13718821
162	0xbe85c7a4	-0.26128876
163	0xbd9b9cee	-0.07598291
164	0x3e30278f	0.1720259
165	0x3de2eb0d	0.11079989
166	0x3d735717	0.059409227
167	0x3ae15624	0.001719181
168	0xbdf7d979	-0.121020265
169	0xbdb95eb9	-0.0905127
170	0xbe61d35e	-0.22053286
171	0xbe8d2d38	-0.27573562
172	0xbe6a43ee	-0.22877476
173	0xbce2a961	-0.027668657
174	0xbe5d7d6b	-0.21629874
175	0xbd66b52c	-0.056325123
176	0x3d7767de	0.06040179
177	0x3d87c6fb	0.066297494
178	0x3d466ddd	0.048444618
179	0xbd92b817	-0.071640186
180	0xbd3915a6	-0.04518666
181	0xbbe9a2b5	-0.007129992
182	0xbdf6dfbe	-0.12054394
183	0x3ecb061e	0.39653105
184	0xbd54ccf2	-0.051953264
185	0x3d318106	0.043335937
186	0xbdeb8e5d	-0.11501763
187	0xbdef11c2	-0.11673309
188	0xbdd9ab8d	-0.10628424
189	0x3db5f55c	0.08884689
190	0xbef770a2	-0.4832812
191	0xbe8b2fd8	-0.2718494
192	0xbe668338	-0.22510993
193	0x3ed4455d	0.4145917
194	0xbd1219b5	-0.035669047
195	0xbdfb9e11	-0.12286008
196	0x3e2b877a	0.16750899
197	0x3ec12171	0.37720826
198	0x3cd86a79	0.026417958
199	0x3cdbd2cb	0.026833912
200	0x3d8fcc91	0.0702144
201	0x3e382aa2	0.17985013
202	0xbd1b5f91	-0.037932936
203	0xbda16d4b	-0.07882174
204	0xbdabc982	-0.08388044
205	0x3db82345	0.08991102
206	0x3caca5da	0.021075178
207	0x3d2ab859	0.041679714
208	0xbdbd03d5	-0.092292465
209	0x3cc0e2b2	0.023545597
210	0x3de7b48d	0.11313734
211	0x3d8e754d	0.06955967
212	0xbbb6094c	-0.0055553075
213	0xbd6f7937	-0.05846521
214	0x3e517e87	0.20458423
215	0x3df628dc	0.12019512
216	0xbe24587b	-0.16049378
217	0x3ebdc5e4	0.3706504
218	0xbd13870b	-0.03601746
219	0xbba404a7	-0.0050054374
220	0xbcf4dd5b	-0.029890707
221	0xbd9a498e	-0.07533561
222	0xbe9f54b3	-0.31119308
223	0xbe9502a6	-0.29103583
224	0xbeb0bdff	-0.34519956
225	0x3e8aa90b	0.27082095
226	0xbcaecd14	-0.021338023
227	0xbeb56986	-0.3543207
228	0x3e196c91	0.14982821
229	0x3e8e8ec3	0.27843294
230	0xbed20dc6	-0.41026133
231	0xbe78b2a5	-0.24286897
232	0xbdef12b7	-0.116734914
233	0x3e0bd4cd	0.13655396
234	0xbe8fcda5	-0.28086582
235	0xbdf93dd7	-0.12169998
236	0x3e850e96	0.2598769
237	0xbcdc8b11	-0.02692178
238	0x3db715bd	0.08939693
239	0xbd0647fc	-0.032783493
240	0x3c6a9084	0.014316682
241	0x3ce03606	0.02736951
242	0x3d788cf7	0.06068131
243	0xbca04713	-0.01956514
244	0x3c8abc0d	0.016935373
245	0xbcebd1f6	-0.02878664
246	0xb8982df0	-7.256481e-05
247	0x3cb362a2	0.021897618
248	0x3d8bf83e	0.06834458
249	0x3db87901	0.09007455
250	0xbdea2ed0	-0.1143471
251	0xbda831c8	-0.0821262
252	0xbb872c83	-0.0041251793
253	0xbde9fc5f	-0.11425089
254	0xbd4e2e41	-0.05033708
255	0x3b0eb9de	0.0021778266

critic.0.bias f4 [64]
0	0xbe398fee	-0.18121311
1	0xbc9602dc	-0.01831191
2	0x3ddeb1c8	0.10873753
3	0x3cb9c1e8	0.02267547
4	0xbe228e53	-0.15874605
5	0x3dad0dee	0.084499225
6	0xbd52d265	-0.05147018
7	0xbe4d87fa	-0.20071402
8	0xbda51d96	-0.08062284
9	0xbe4ff249	-0.20307268
10	0xbe324cce	-0.17412111
11	0xbd572032	-0.05252094
12	0xbe397168	-0.18109667
13	0xbe277e6e	-0.16356823
14	0xbdd1392e	-0.10215984
15	0xbcd6149a	-0.02613287
16	0xbde41086	-0.11135964
17	0x3e3365bd	0.17519279
18	0xbe3e04f5	-0.18556578
19	0xbd2b770b	-0.041861575
20	0xbe161c0d	-0.14659138
21	0x3c7b6b5a	0.015345419
22	0xbe12ef65	-0.14349134
23	0x3a179a9b	0.0005783231
24	0xbc36be3c	-0.011153754
25	0xbe414d73	-0.18877201
26	0xbe2202a1	-0.15821315
27	0xbe38dff6	-0.18054184
28	0xbc832bf1	-0.016012164
29	0x3ce0309c	0.027366929
30	0xbd8a1de7	-0.06743985
31	0xbdf5cb43	-0.1200166
32	0xbdd63fd9	-0.10461397
33	0xbe01a862	-0.12661889
34	0x3c8336b0	0.016017288
35	0xbd35c613	-0.04437835
36	0x3da6eb0b	0.081503
37	0xbcbdff15	-0.023192922
38	0xbd0ec346	-0.034854196
39	0x3d3973cb	0.045276444
40	0xbdc92dd3	-0.098231934
41	0xbe593351	-0.21210982
42	0xbe71d8d3	-0.23617868
43	0xbdf8d4db	-0.12149974
44	0xbe4315c4	-0.19051272
45	0xbe66fa73	-0.22556476
46	0xbc33d036	-0.010974934
47	0x3d41f58b	0.04735331
48	0xbdb66fa0	-0.089080095
49	0xbdd4d889	-0.10392863
50	0xbaa5fe81	-0.0012664349
51	0xbbbfba09	-0.0058510345
52	0x3b014acc	0.001972842
53	0xbe2b6515	-0.16737778
54	0xbe6226ad	-0.22085066
55	0xbe738ae1	-0.23783447
56	0x3d1678ee	0.03673642
57	0x3d2bfbd8	0.041988224
58	0xbe3ef31a	-0.18647423
59	0x3d3c0225	0.045900483
60	0x3d9a8f44	0.07546857
61	0xbe2e247f	-0.1700611
62	0xbe383890	-0.17990327
63	0xbe68dd49	-0.22740664

critic.2.weight f4 [64, 64]
0	0xbcfcbf70	-0.030853003
1	0x3d05a6fc	0.03262995
2	0xbdc3087e	-0.09523104
3	0x3d5b0957	0.053475704
4	0xbd28bde4	-0.04119672
5	0xbd8b95fd	-0.06815717
6	0x3d5f8b1b	0.05457602
7	0x3d63b7c0	0.05559516
8	0x3dc4bd41	0.0960641
9	0x3d39c7c7	0.04535654
10	0xbb4b1aa4	-0.003099122
11	0x3f089eae	0.53367126
12	0x3d9025f5	0.0703849
13	0x3e950209	0.29103115
14	0xbd8f248c	-0.06989393
15	0x3e86b1ce	0.2630753
16	0x3ce0891b	0.027409127
17	0x3ec171ee	0.37782234
18	0xbd6be6e9	-0.05759326
19	0x3e8b2a93	0.2718092
20	0x3d38ab19	0.045085046
21	0xbe888853	-0.26666507
22	0xbda8e11f	-0.082460634
23	0x3e9350f3	0.28772697
24	0xbbff6361	-0.0077938293
25	0xbdb69b07	-0.08916288
26	0x3bccc612	0.0062491978
27	0x3e023bec	0.12718171
28	0xbe139e32	-0.14415815
29	0x3e7fdc37	0.24986349
30	0x3a309aba	0.0006736923
31	0xbcdaeda8	-0.026724651
32	0x3e9a7e78	0.30174613
33	0xbe04142b	-0.12898318
34	0x3db6d11b	0.089266025
35	0x3e8d8202	0.2763825
36	0xbef99dce	-0.48753208
37	0x3aa96024	0.0012922329
38	0x3daeaf67	0.08529549
39	0x3e1143c5	0.14186008
40	0x3db11ae8	0.0864771
41	0x3e368521	0.17824222
42	0x3de01575	0.109415926
43	0xbe8955b5	-0.26823202
44	0xbb0b3829	-0.002124319
45	0xbe669788	-0.22518742
46	0x3dc2eab0	0.09517419
47	0xbee872a9	-0.4539998
48	0x3d1b5727	0.03792491
49	0x3e0b5f22	0.13610509
50	0xbe432302	-0.19056323
51	0x3e79b4a9	0.24385323
52	0xbe7d3d2a	-0.24730363
53	0xbdbd7f73	-0.09252825
54	0x3b7a6818	0.0038209017
55	0xbd853ca2	-0.065057054
56	0x3e984540	0.29740334
57	0xbd607dd4	-0.0548075
58	0x3da587b0	0.08082521
59	0xbdb7a29b	-0.089665614
60	0xbe323552	-0.17403153
61	0x3dcb5bfd	0.09929655
62	0x3e2baef3	0.16765957
63	0x3da359af	0.0797609
64	0xbc6d49e0	-0.014482945
65	0xbc8860a5	-0.016647646
66	0xbc91bf16	-0.017791312
67	0xbcb77932	-0.022396658
68	0xbdb39eee	-0.08770548
69	0xbd8eaf22	-0.06966998
70	0xbda7f724	-0.08201435
71	0x3da78576	0.081797525
72	0xbd5cf3c8	-0.053943425
73	0xbe06ebf3	-0.13175945
74	0xbdd4a192	-0.103823796
75	0xbdd3fb1f	-0.10350632
76	0xbd235c7e	-0.03988313
77	0xbd8a263e	-0.06745575
78	0xbdd7f6a5	-0.105450906
79	0xbd641197	-0.055680837
80	0x3da926d5	0.0825936
81	0xbe0202b6	-0.12696347
82	0xbcf7193f	-0.030163405
83	0x3dc8a939	0.09797902
84	0x3d842b4b	0.0645357
85	0xbbf59095	-0.007494042
86	0x3d0d5ffb	0.034515362
87	0xbd6c9e96	-0.057768427
88	0xbde7a325	-0.11310414
89	0xbdb712c0	-0.08939123
90	0xbdb62afa	-0.08894916
91	0x3d9c7236	0.076389715
92	0xbd0b0aa4	-0.033945695
93	0xbdeb8736	-0.11500399
94	0xbde3af10	-0.11117375
95	0xbcd6e1c1	-0.026230695
96	0x3d901a74	0.070362955
97	0xbcede879	-0.029041516
98	0x3bf5722c	0.007490417
99	0xbd26a9a4	-0.040689126
100	0xbd2c019c	-0.041993722
101	0x3d62b1f5	0.055345494
102	0x3cd4ff47	0.026000632
103	0xbd01299f	-0.031533834
104	0x3dffcf50	0.124907136
105	0x3d95eaa5	0.073201455
106	0x3cf384a5	0.029726336
107	0x3cbbc2a1	0.022919955
108	0x3d59e590	0.053197443
109	0xbd011a17	-0.03151902
110	0x3c0ee4a8	0.008721508
111	0xbd5321ee	-0.05154603
112	0xbd663516	-0.05620297
113	0xbc961434	-0.01832018
114	0xbdc85a7c	-0.097828835
115	0x3d98c35d	0.074591376
116	0xbdcf058e	-0.10108481
117	0xbdbf400b	-0.09338387
118	0xbcfacc73	-0.030615067
119	0x3d8869f6	0.066608354
120	0xbd9b6084	-0.07586768
121	0xbcd7d509	-0.0263467
122	0x3d10293b	0.03519557
123	0xbdeec054	-0.116577774
124	0x3da94d54	0.08266702
125	0x3d61c951	0.05512363
126	0x3cc71b9c	0.024305157
127	0xbc45b7a4	-0.012067709
128	0x3daacc32	0.083397284
129	0xbccd1a9e	-0.025037106
130	0xbd9ecb1c	-0.07753584
131	0x3b09970d	0.0020994574
132	0xbdd75135	-0.10513536
133	0xbd15cc44	-0.036571756
134	0xbcb714d0	-0.022348791
135	0x3d80ec01	0.06295014
136	0xbe8c61e5	-0.27418438
137	0x3d17d976	0.03707262
138	0xbe1696ed	-0.14706011
139	0xbe660861	-0.22464134
140	0x3c29641c	0.010338809
141	0x3d2ea1b6	0.04263469
142	0x3d87c3bf	0.066291325
143	0xbd8be379	-0.06830496
144	0xbdbadbb2	-0.09123935
145	0xbdce393b	-0.100695096
146	0xbc08a31a	-0.008339668
147	0xbe0c03a0	-0.13673258
148	0xbddeefa1	-0.10885549
149	0x3da10c9b	0.078637324
150	0x3dbdeb08	0.09273344
151	0xbe38f5db	-0.18062536
152	0xbd86089d	-0.065446116
153	0x3da22ea4	0.07919052
154	0x3d3c9693	0.046042036
155	0xbcc7de7b	-0.02439808
156	0x3d9073f8	0.07053369
157	0xbe81e3ad	-0.25369015
158	0x3dbc4bb2	0.09194125
159	0xbd911227	-0.070835404
160	0xbdd39194	-0.10330501
161	0xbc772af7	-0.015085927
162	0xbe4a7a78	-0.1977328
163	0xbd3ad3cd	-0.045612145
164	0x3d8991a2	0.067172304
165	0xbba8a388	-0.0051464476
166	0x3dd8a913	0.10579123
167	0xbdf4a434	-0.11945382
168	0xbdb89c1e	-0.09014152
169	0x3d1969e3	0.037454497
170	0xbe486f73	-0.19573765
171	0xbd8e672f	-0.069532745
172	0xbe8019d1	-0.25019696
173	0xbecf989b	-0.40546116
174	0xbe1e136e	-0.154371
175	0x3c63c5a0	0.013902098
176	0x3e0c43b8	0.13697708
177	0xbbad73b2	-0.005293333
178	0xbe1fe5ff	-0.1561508
179	0xbe1363d1	-0.14393546
180	0x3bb221ac	0.005436143
181	0x3d7a56a7	0.061117794
182	0xbdb11053	-0.08645692
183	0x3d4a9634	0.04945965
184	0x3c682eb3	0.01417129
185	0x3c1ca1a4	0.0095600225
186	0x3a07e335	0.0005183698
187	0xbcf510ea	-0.029915292
188	0xbd74c586	-0.059758686
189	0xbd7bb9a7	-0.06145635
190	0xbc9377cd	-0.018001461
191	0xbdb4adfd	-0.08822248
192	0x3c152cbc	0.009104904
193	0xbcf98c25	-0.030462334
194	0xbd5bc5fc	-0.05365561
195	0xbd0198fa	-0.03164003
196	0x3cdf8589	0.027285354
197	0xbded398c	-0.11583242
198	0x3cd81d3f	0.026381133
199	0x39f4b6cc	0.000466755
200	0xbd387597	-0.045034017
201	0xbe320666	-0.17385253
202	0x3cf47b4e	0.029843953
203	0xbcf27a8a	-0.029599447
204	0x3cdcd57d	0.026957268
205	0xbdf8fb1c	-0.1215727
206	0x3ddf3440	0.10898638
207	0x3dc7102b	0.09719881
208	0x3cff1742	0.03113902
209	0x3b2eec54	0.0026691156
210	0xbe390e14	-0.18071777
211	0x3cd67b53	0.026181852
212	0x3d42206d	0.047394205
213	0x3d8e2ddf	0.06942343
214	0xbdab23d1	-0.08356441
215	0x3d79b9d5	0.06096824
216	0xbdfd8b86	-0.123801276
217	0xbde6edce	-0.112758264
218	0xbc242fdc	-0.010021176
219	0xbc6a1fc7	-0.014289803
220	0x3cb6fb67	0.022336675
221	0xbd45f781	-0.04833174
222	0x3d6d3ee1	0.057921294
223	0xbddd08f4	-0.10792723
224	0x3dbce2cb	0.09222945
225	0x3daba006	0.083801314
226	0xbd91f2bc	-0.07126376
227	0xbde07958	-0.109606445
228	0xbb489487	-0.0030606107
229	0xbdf0860d	-0.11744318
230	0xbdae4a22	-0.085102335
231	0x38881efc	6.490757e-05
232	0xbdc8ecee	-0.09810816
233	0x3e134320	0.14381075
234	0xbd60823a	-0.054811694
235	0x3d1ad891	0.03780419
236	0xbde2c51c	-0.11072752
237	0x3d7f4026	0.062317036
238	0xbd7ae1bf	-0.061250445
239	0xbd718882	-0.058968075
240	0xbdbfbe22	-0.09362437
241	0xbabcd9f1	-0.0014408213
242	0xbdbd51e5	-0.09244136
243	0xbdffeeea	-0.12496741
244	0x3d510797	0.05103263
245	0x3caa46a7	0.020785643
246	0xbdc62bac	-0.096762985
247	0x3e022944	0.12711054
248	0xbd085fd2	-0.033294506
249	0x3d8b8129	0.06811745
250	0xbd041776	-0.032248937
251	0xbe31f324	-0.17377907
252	0xbd6d9fcd	-0.058013726
253	0xbd86bfab	-0.065795265
254	0x3dbda391	0.092597134
255	0x3d985b91	0.0743934

critic.2.bias f4 [64]
0	0x3e0231ac	0.12714261
1	0xbdc0f818	-0.0942232
2	0xbdc2cc1e	-0.095115885
3	0xbdc6a227	-0.09698897
4	0xbe21403e	-0.15747163
5	0x3c01cf98	0.007923029
6	0xbdf53479	-0.11972899
7	0xbd150c55	-0.036388714
8	0xbe282a7c	-0.16422457
9	0xbe0cf4a8	-0.13765204
10	0x3dd3f480	0.10349369
11	0x3ddbeaf4	0.10738173
12	0xbd857f1f	-0.06518387
13	0x3e53c56a	0.20680776
14	0xbd82990f	-0.0637685
15	0xbd7273dd	-0.059192527
16	0xbe4fcc8b	-0.2029287
17	0xbe31c4e3	-0.17360263
18	0xbd0d7df3	-0.034543943
19	0xbdbac36f	-0.09119307
20	0xbda371f7	-0.079807214
21	0xbd44556e	-0.047933035
22	0xbe267cda	-0.16258565
23	0xbe0c1d19	-0.13682975
24	0xbc6874ff	-0.01418805
25	0x3c129036	0.008945515
26	0xbdb03eb5	-0.086057104
27	0xbe574263	-0.21021418
28	0xbd388a8c	-0.045054004
29	0xbdbfa859	-0.09358282
30	0xbded7924	-0.11595371
31	0xbd84810b	-0.064699255
32	0xbdfa37aa	-0.12217648
33	0xbddb0cb6	-0.10695784
34	0x3e221e2b	0.1583182
35	0x3d8b664c	0.06806621
36	0xbe426b3a	-0.18986216
37	0xbe4f0a9c	-0.20218891
38	0xbd33de70	-0.043913305
39	0xbdcc896a	-0.09987147
40	0xbc9250b3	-0.017860746
41	0xbda4060b	-0.08008965
42	0xbd8699fb	-0.06572338
43	0x3ce55669	0.027995305
44	0xbe006cb8	-0.12541473
45	0xbd70f6cd	-0.058829118
46	0xbde5eaba	-0.11226411
47	0xbdaace86	-0.083401725
48	0xbd14d429	-0.036335144
49	0xbdacda5e	-0.08440088
50	0x3e10ae3f	0.1412897
51	0xbe08fcf0	-0.13377738
52	0xbe070d08	-0.13188565
53	0xbe289214	-0.16461974
54	0xbdcca54c	-0.099924654
55	0xbdf4cbbc	-0.11952922
56	0x3e231fed	0.15930147
57	0x3e1ee590	0.15517259
58	0xbe522d8c	-0.20525187
59	0xbde372d3	-0.11105885
60	0xbe172104	-0.14758688
61	0xbd49b634	-0.049246028
62	0xbe301042	-0.17193702
63	0xbe4cba10	-0.19992852

critic.4.weight f4 [1, 64]
0	0xbdf21f24	-0.11822346
1	0x3c9219c7	0.017834557
2	0x3aadbb85	0.0013254738
3	0x3c10fe7d	0.008849737
4	0xbd19526c	-0.03743212
5	0xbd3fa9e5	-0.046792883
6	0x3cfc531e	0.030801352
7	0x3e22af1b	0.1588711
8	0x3d840286	0.06445794
9	0x3d0bc7cb	0.034126084
10	0x3dd4390e	0.10362445
11	0x3de1fcac	0.110345215
12	0x3d03b0f7	0.03215119
13	0x3e1b78f4	0.15182859
14	0xbce90dca	-0.028448958
15	0x3cefd7cc	0.029277705
16	0xbc4d8df3	-0.01254605
17	0xbcd596e3	-0.026072925
18	0xbd27b6a3	-0.04094566
19	0x3adaf906	0.0016706295
20	0x3b8a00cd	0.0042115212
21	0x3c537e75	0.012908568
22	0x3bd20fd0	0.0064105764
23	0x3de9660b	0.11396416
24	0xba12f567	-0.0005606026
25	0x3cff8448	0.031191006
26	0x3e132ece	0.14373323
27	0x3c1500fa	0.009094471
28	0x39f44b36	0.00046595343
29	0xbc1d670a	-0.009607086
30	0xbd176df0	-0.03697008
31	0x3b981831	0.0046415557
32	0xbc66ee2b	-0.01409487
33	0x3d80d4ec	0.062906116
34	0xbdb3b2a0	-0.087743044
35	0x3e157fc9	0.14599527
36	0x3c211ee9	0.00983403
37	0xbc0128ff	-0.007883309
38	0xbe4860a4	-0.19568115
39	0x3b95fee1	0.004577503
40	0xb9f9b345	-0.00047626547
41	0x3dab5935	0.08366624
42	0x3d1741de	0.03692805
43	0x3dfdae24	0.1238673
44	0xbbf79c48	-0.007556472
45	0xba6578ad	-0.0008753639
46	0xbb84648b	-0.004040306
47	0xbc900e92	-0.017585073
48	0xbcc911f1	-0.024544688
49	0xbcd25061	-0.025673093
50	0xbdf59ede	-0.11993192
51	0x3d626211	0.055269305
52	0x3d9e2d63	0.077235006
53	0x3d0a79c2	0.033807524
54	0x3c4a65d0	0.012353376
55	0x3cb9ab07	0.02266456
56	0x3d309878	0.043114156
57	0x3e8166c6	0.25273722
58	0x3bd43dad	0.006477079
59	0x3b8c45dd	0.0042807893
60	0xbdbce313	-0.092229985
61	0x3d1f7fab	0.038940113
62	0x3baf15a3	0.0053431555
63	0xbdc62d2d	-0.09676585
