RL/CC2-Cardiff-implementation/GT-Cardiff-CC2/Models/PPOxCCE-C1/9000.pth (torch, 78850 bytes, 11 tensors)

actor.0.weight f4 [64, 62]
-0.0009508271 0.0681284 -0.10452683 -0.093464345 -0.22043347 0.24230482 -0.081155285 0.35068068
0.075449504 0.10926739 -0.039976798 -0.19001928 -0.37547964 -0.34487 -0.27292863 -0.027145147
0.05020762 0.076202966 -0.086098604 -0.055303834 0.04612862 0.10545937 -0.026136648 0.09503569
-0.020470306 0.013438404 0.11499559 -0.11781425 -0.21652097 0.021933401 0.069217354 0.29439065
-0.082318895 -0.058462333 -0.08872742 -0.11894336 -0.13940045 0.041314155 0.032557625 0.05890441
-0.03248444 -0.045861177 -0.25802144 -0.023465535 0.016850308 0.049031474 0.45905218 -0.051699247
0.11900939 0.268287 0.2686327 0.11277389 0.050404087 -0.016169041 0.119793035 -0.20372494
0.10015534 -0.09846389 -0.21701157 -0.023833398 -0.008506726 0.088015996 -0.07522884 0.03836764
0.069719516 -0.01602962 -0.074500576 -0.043451954 -0.20813599 -0.018116998 0.092796944 0.2976577
0.059545144 0.21925491 0.13095614 0.4580236 0.2317109 0.030540083 0.011683059 -0.079451956
-0.11835829 0.112838656 0.09656578 -0.12668617 0.023770874 -0.021394443 -0.020899286 -0.058135178
0.048838682 -0.07522262 0.46230146 0.46355253 0.14980589 -0.11997827 -0.1256965 -0.08238459
0.06341307 0.026581297 -0.21047513 -0.2892308 0.3697587 0.29268414 -0.011172018 -0.20250364
-0.20540373 -0.20541666 -0.05042703 -0.06409632 -0.22313158 -0.04200471 -0.2013842 -0.0674723
-0.42145786 -0.11042397 0.08703317 -0.45858103 -0.12284357 -0.15219614 -0.040879667 0.030121163
-0.007850175 0.12079387 -0.36527717 -0.10592305 -0.12182473 -0.07527382 -0.03179192 -0.061863456
-0.30777276 0.23167372 -0.2973564 -0.033542134 -0.074249506 0.18671708 0.15381257 0.32064432
0.4392192 0.1670618 -0.31034383 -0.033025555 0.12030038 0.08065218 0.12057564 -0.009184859
-0.11408694 -0.060207866 0.086475044 -0.000823276 -0.06312495 -0.09732169 -0.11885332 -0.10718915
-0.16862088 0.21560809 -0.12274639 -0.35319164 0.0792204 -0.099378794 -0.026849132 -0.051495075
-0.044487078 -0.1491539 0.07548852 -0.030881308 -0.15174538 -0.11252104 -0.043960318 -0.08153134
-0.07864396 -0.1437667 0.23301671 0.042752814 0.16191222 0.15804717 -0.07389165 -0.08251892
-0.014655112 -0.2826566 0.104395814 -0.3059528 -0.29975906 -0.026589852 0.08124078 -0.13479984
0.31330964 -0.019823808 -0.030540317 -0.026708819 -0.10465844 0.06881427 0.3697908 0.32096753
-0.17744082 -0.108176485 -0.23302974 -0.39209178 -0.4653572 -0.27952993 -0.27447435 -0.46372837
0.5733152 0.6797664 -0.09600194 -0.08718714 -0.07374409 0.08889163 -0.0456521 0.10712317
0.045924205 0.01608152 -0.00094539195 -0.02510558 0.015934242 -0.028999802 0.2211642 0.35857934
-0.28865874 -0.25975576 0.10255168 -0.10306653 -0.009119395 0.12563345 0.23688759 0.4644421
0.015851842 0.096222855 -0.24826965 -0.0079520885 0.05274139 0.25294116 0.078999855 0.2503391
-0.02438935 0.041888054 -0.20172215 -0.44501242 0.024804028 0.10666732 -0.053825844 0.14332843
0.087538056 0.21327664 0.036529034 0.00020330961 0.038917277 0.0029123016 -0.008292448 0.07535635
0.0017503793 -0.02159215 -0.06688753 0.016785737 -0.077575915 0.07760715 0.017794315 -0.3353168
00000000: ed40 79ba e786 8b3d 2a12 d6bd 3c6a bfbd
00000010: 50b9 61be c11e 783e be34 a6bd 6b8c b33e
00000020: 4585 9a3d 95c7 df3d b6be 23bd 6a94 42be
00000030: de3e c0be cd92 b0be 4dbd 8bbe 805f debc
00000040: 81a6 4d3d 4d10 9c3d 7754 b0bd 4686 62bd
00000050: 5df1 3c3d 15fb d73d 861c d6bc 12a2 c23d
00000060: 58b1 a7bc c02c 5c3c cf82 eb3d 9948 f1bd
00000070: acb7 5dbe adad b33c d4c1 8d3d 5fba 963e
00000080: cf96 a8bd 3376 6fbd b9b6 b5bd 9498 f3bd
00000090: febe 0ebe 0839 293d 255b 053d c045 713d
000000a0: 670e 05bd eed8 3bbd 631b 84be cb3a c0bc
000000b0: a809 8a3c 3ad5 483d e308 eb3e 97c2 53bd
000000c0: 32bb f33d ea5c 893e 3a8a 893e fff5 e63d
000000d0: 8474 4e3d f074 84bc 0d56 f53d 459d 50be
000000e0: 3e1e cd3d 70a7 c9bd 4838 5ebe 423e c3bc
000000f0: cb5f 0bbc bb41 b43d 9411 9abd 6327 1d3d
00000100: 1bc9 8e3d 8d50 83bc c293 98bd adfa 31bd
00000110: 9a21 55be 196a 94bc 530c be3d 9766 983e
00000120: 9ce5 733d 5c84 603e 5e19 063e 1282 ea3e
00000130: 9f45 6d3e 322f fa3c 4d6a 3f3c b5b7 a2bd
00000140: d565 f2bd f417 e73d 48c4 c53d 05ba 01be
00000150: 23bb c23c 6643 afbc fb34 abbc 271f 6ebd
00000160: 120b 483d 510e 9abd c7b2 ec3e c256 ed3e
00000170: b766 193e 2bb7 f5bd 95b6 00be 40b9 a8bd
00000180: b6de 813d 05c1 d93c cb86 57be 0f16 94be
00000190: 0351 bd3e b2da 953e d70a 37bc 1d5d 4fbe
000001a0: 5b55 52be bf58 52be 938c 4ebd ee44 83bd
000001b0: 9b7c 64be 210d 2cbd a937 4ebe eb2e 8abd
000001c0: 53c9 d7be f625 e2bd 723e b23d 22cb eabe
000001d0: 6995 fbbd 4ed9 1bbe 7071 27bd a8c0 f63c
000001e0: 059e 00bc c762 f73d 9c05 bbbe 2fee d8bd
000001f0: 3e7f f9bd 2929 9abd 3f38 02bd 8964 7dbd
00000200: 6494 9dbe e03b 6d3e 193f 98be 7a63 09bd
00000210: 2010 98bd c332 3f3e 0b81 1d3e 7e2b a43e
00000220: 57e1 e03e 4012 2b3e 63e5 9ebe ce45 07bd
00000230: 0c60 f63d f82c a53d 5cf0 f63d 177c 16bc
00000240: 6aa6 e9bd 869c 76bd d419 b13d 1ed1 57ba
00000250: a747 81bd 9850 c7bd 5f69 f3bd fc85 dbbd
00000260: f4aa 2cbe 5ec8 5c3e 7662 fbbd 89d5 b4be
00000270: 4e3e a23d 1c87 cbbd b6f2 dbbc 80ec 52bd
00000280: 1538 36bd cdbb 18be ba99 9a3d ccfa fcbc
00000290: 2463 1bbe 6e71 e6bd bc0f 34bd e7f9 a6bd
000002a0: 1610 a1bd 9437 13be ef9b 6e3e 931d 2f3d
000002b0: 51cc 253e 1ed7 213e 8154 97bd aeff a8bd
000002c0: ff1b 70bc 5eb8 90be 79cd d53d d8a5 9cbe
000002d0: 057a 99be f6d2 d9bc 9161 a63d f808 0abe
000002e0: 1f6a a03e 8a65 a2bc b02f fabc 74cc dabc
000002f0: 2a57 d6bd 7fee 8c3d 3855 bd3e db55 a43e
00000300: 0cb3 35be a28b ddbd 599f 6ebe 41c0 c8be
00000310: 4d43 eebe 8c1e 8fbe e787 8cbe ce6d edbe
00000320: c9c4 123f 2c05 2e3f aa9c c4bd 2c8f b2bd
00000330: 2407 97bd d10c b63d b2fd 3abd 6463 db3d
00000340: 051b 3c3d 64bd 833c 2ed4 77ba 38aa cdbc
00000350: 8788 823c fe90 edbc de78 623e b697 b73e
00000360: 14cb 93be b5fe 84be 9d06 d23d 8b14 d3bd
00000370: 8469 15bc 0ea6 003e a992 723e 5bcb ed3e
00000380: b9db 813c 7d10 c53d 663a 7ebe 7a49 02bc
00000390: 5b07 583d 8181 813e adca a13d 722c 803e
000003a0: 2dcc c7bc cf92 2b3d 4090 4ebe abd8 e3be
000003b0: d131 cb3c 6574 da3d 7d78 5cbd b0c4 123e
000003c0: 2747 b33d 3165 5a3e 789f 153d 822f 5539
000003d0: b967 1f3d 50dc 3e3b 0cdd 07bc 6e54 9a3d
000003e0: fc6c e53a 05e2 b0bc 54fc 88bd 3e82 893c
000003f0: 1fe0 9ebd 7ff0 9e3d 62c5 913c a5ae abbe

actor.0.bias f4 [64]
-0.13547112 -0.0024877905 -0.03190304 -0.035256203 -0.15285164 -0.1793368 0.19271085 -0.05317039
-0.04961164 0.049577046 -0.11956688 -0.04391728 -0.009399736 -0.1414816 -0.2385797 0.1669885
-0.016158048 -0.009668236 -0.14683841 -0.16079661 -0.15171845 -0.17903408 -0.058047183 -0.08878564
-0.13386236 0.09324177 0.077333875 0.019213585 -0.054836586 -0.23477139 -0.11637333 0.0516778
0.07357036 -0.13114606 0.14043002 -0.11472496 0.023410324 -0.028263297 -0.10338866 -0.22974478
0.19738498 0.11337456 0.11434399 0.116289005 0.006594847 0.2612206 -0.07858466 0.11084192
0.02534005 -0.014852768 0.09312301 -0.26582327 -0.17478581 -0.082888484 0.2344915 -0.16673496
0.2111755 0.08239676 -0.15735136 -0.054182433 0.0021994202 -0.052506153 0.0050271284 -0.04898927
00000000: f1b8 0abe 330a 23bb c3ac 02bd cf68 10bd
00000010: 2485 1cbe 11a4 37be fe55 453e 32c9 59bd
00000020: 9335 4bbd 4d11 4b3d 7bdf f4bd 9be2 33bd
00000030: 5a01 1abc 8de0 10be 3d4e 74be 09ff 2a3e
00000040: e25d 84bc 8567 1ebc cf5c 16be dea7 24be
00000050: 155c 1bbe b654 37be e2c2 6dbd 3fd5 b5bd
00000060: 3713 09be 8bf5 be3d 3961 9e3d cf65 9d3c
00000070: 549c 60bd e967 70be 2455 eebd 1aac 533d
00000080: 0fac 963d 274b 06be e3cc 0f3e ebf4 eabd
00000090: 02c7 bf3c 6e88 e7bc 6fbd d3bd 3742 6bbe
000000a0: 4a1f 4a3e ec30 e83d 2f2d ea3d ee28 ee3d
000000b0: 9619 d83b b5be 853e fff0 a0bd 1701 e33d
000000c0: f095 cf3c 0659 73bc 47b7 be3d fd19 88be
000000d0: 0dfb 32be 70c1 a9bd 8a1e 703e 92bc 2abe
000000e0: 643e 583e a2bf a83d b720 21be 66ee 5dbd
000000f0: 2624 103b b110 57bd 9cba a43b f9a8 48bd

actor.2.weight f4 [64, 64]
-0.014410055 -0.33657047 0.026219567 0.18458231 0.19278486 0.47425586 -0.07736109 -0.07630722
-0.2955276 0.09167223 -0.09467996 -0.00530665 -0.033562664 -0.22806235 0.21998632 -0.104229
-0.2684751 -0.03874541 0.099310115 -0.20890468 0.24897711 -0.02359206 0.070598595 -0.2767895
-0.13456798 0.15722989 0.2742881 -0.032224067 0.21963061 0.38675812 -0.109297805 0.15827815
-0.08630466 0.023400528 -0.13751468 0.22395232 -0.10597006 0.11301415 -0.116999224 -0.027557606
-0.26314017 -0.29505944 0.16527525 -0.34606186 -0.183491 -0.014078336 -0.16921702 0.15798832
-0.15544643 -0.14453243 0.119457826 0.26860297 0.060079664 0.0049797576 -0.10393035 -0.21630576
-0.14980295 0.09117846 0.19703251 -0.3196357 0.033786323 -0.047178373 0.04595312 -0.27994677
-0.034557085 -0.116104454 -0.0786475 -0.0094806105 -0.21997666 0.061435845 -0.043147337 0.04644255
-0.12555225 0.16895673 0.10395821 0.15440372 -0.10092081 -0.011455537 -0.16720727 -0.5881409
-0.04333432 -0.3341644 0.084890276 0.19916941 -0.2738478 -0.06120212 -0.017639112 0.16344766
-0.058187 0.07452904 -0.35824168 0.17054825 -0.45439383 0.038799986 0.17797014 -0.05896262
-0.3844574 0.10627383 0.060724106 -0.1871945 -0.0020023899 -0.4411126 0.3052224 0.13628623
0.014332578 -0.06606686 -0.10245117 0.28176552 0.20813525 0.043750826 -0.29239067 -0.14841543
0.023325607 0.3787373 0.021701291 0.17309816 0.3298569 -0.24887303 -0.09205969 0.38956487
0.07696565 -0.102165826 -0.117843695 0.0023904743 0.0946639 0.43034503 -0.31355268 0.021370528
-0.16007516 0.08547461 -0.03682116 -0.0042243632 0.09661581 0.11984088 -0.019180646 0.16056633
-0.022191728 0.022414604 -0.07889658 -0.18238461 -0.046534073 0.046414237 -0.06238892 -0.065809846
0.21294393 -0.013965375 0.04434825 0.15215485 0.119503334 -0.12778237 -0.17407346 0.16949718
-0.1638255 0.08006929 0.02297072 0.077583246 0.066992834 0.07425998 0.05255251 -0.016632983
-0.03526851 -0.08504977 -0.091876246 -0.004410332 0.053853475 0.02138411 0.03292781 -0.15848215
0.029959569 0.12707545 -0.17893992 0.16157897 -0.08513155 0.055212587 0.050406687 0.021782758
0.07653013 0.0656899 -0.12432611 0.04345709 -0.23480158 0.08866508 -0.19825006 -0.3943001
-0.19592668 0.17882562 0.25321865 0.025159666 0.08433306 -0.30973017 -0.09433361 -0.19603115
0.041183818 -0.11913417 -0.07211069 0.42240062 -0.3075841 -0.07628387 -0.018056152 0.28877658
-0.028147826 0.14450535 -0.12603705 0.09112554 0.1201418 -0.016926968 -0.24921264 -0.14996785
0.3259346 -0.14353001 -0.026074536 0.326282 -0.34451386 0.44367856 0.0027189264 0.10114488
-0.15043615 0.10709537 0.12748703 -0.033806607 0.06606727 -0.427115 0.097374104 0.0979015
0.391673 -0.28744262 0.1093089 -0.12135546 0.07324903 -0.04089545 0.21893686 0.07295475
-0.30706584 0.38086388 0.033597887 -0.17268313 -0.051200375 0.12186666 -0.13283813 0.024772314
-0.18389364 0.28637624 0.10792197 -0.05879994 -0.13785903 0.21994926 0.034945197 -0.092813
0.09455385 0.22107382 0.035114594 -0.22538306 -0.11267861 -0.17850636 -0.083486326 0.24152045
00000000: 2718 6cbc f752 acbe 6bca d63c 2503 3d3e
00000010: 6569 453e aad1 f23e 7e6f 9ebd f646 9cbd
00000020: 654f 97be a6be bb3d 91e7 c1bd 68e3 adbb
00000030: 0179 09bd 2d89 69be 1844 613e 0476 d5bd
00000040: 9175 89be 82b3 1ebd 1a63 cb3d 1ceb 55be
00000050: dbf3 7e3e 2344 c1bc ff95 903d 5ab7 8dbe
00000060: 30cc 09be df00 213e 7d6f 8c3e 62fd 03bd
00000070: d9e6 603e 2905 c63e 87d7 dfbd ab13 223e
00000080: 7fc0 b0bd 77b2 bf3c a6d0 0cbe c253 653e
00000090: d506 d9bd f673 e73d 4a9d efbd 7dc0 e1bc
000000a0: 4fba 86be 0812 97be ea3d 293e 052f b1be
000000b0: 11e5 3bbe d2a8 66bc 3a47 2dbe b1c7 213e
000000c0: 592d 1fbe 4f00 14be 4ea6 f43d 5486 893e
000000d0: 1816 763d 3c2d a33b 6fd9 d4bd 427f 5dbe
000000e0: f265 19be c6bb ba3d e4c2 493e 4aa7 a3be
000000f0: 8763 0a3d 1c3e 41bd 5739 3c3d 2f55 8fbe
00000100: bb8b 0dbd 2cc8 edbd f111 a1bd 9054 1bbc
00000110: 9041 61be 27a4 7b3d 43bb 30bd 8b3a 3e3d
00000120: c590 00be fe02 2d3e 0be8 d43d 021c 1e3e
00000130: 92af cebd 01b0 3bbc 6238 2bbe 6790 16bf
00000140: 547f 31bd 9917 abbe f4da ad3d 11f3 4b3e
00000150: c735 8cbe 13af 7abd e67f 90bc d35e 273e
00000160: 7e55 6ebd aea2 983d 746b b7be 33a4 2e3e
00000170: 4fa6 e8be bcec 1e3d ce3d 363e ca82 71bd
00000180: 9ad7 c4be 18a6 d93d d7b9 783d eaaf 3fbe
00000190: 873a 03bb 83d9 e1be 1c46 9c3e 9e8e 0b3e
000001a0: 30d3 6a3c 104e 87bd ebd1 d1bd 9243 903e
000001b0: 6821 553e 1134 333d 3bb4 95be 37fa 17be
000001c0: 5815 bf3c dbe9 c13e e8c6 b13c a540 313e
000001d0: 01e3 a83e 92d8 7ebe ca89 bcbd 0c75 c73e
000001e0: 2ba0 9d3d 513c d1bd 0958 f1bd 81a9 1c3b
000001f0: 26df c13d 2f56 dc3e fa89 a0be 3f11 af3c
00000200: beea 23be 500d af3d c9d1 16bd 876c 8abb
00000210: 83de c53d 236f f53d bb20 9dbc 806b 243e
00000220: 6dcb b5bc d59e b73c 8894 a1bd 08c3 3abe
00000230: 839a 3ebd db1c 3e3d 868b 7fbd 50c7 86bd
00000240: f90d 5a3e 07cf 64bc 83a6 353d 7bce 1b3e
00000250: 2abe f43d 62d9 02be 5040 32be ab90 2d3e
00000260: dfc1 27be 5efb a33d 172d bc3c f7e3 9e3d
00000270: 8a33 893d 9e15 983d 4d41 573d e541 88bc
00000280: b775 10bd 932e aebd 9d29 bcbd 8c84 90bb
00000290: 7695 5c3d bb2d af3c 50df 063d 2549 22be
000002a0: c56d f53c 1120 023e 073c 37be f574 253e
000002b0: 7359 aebd 9826 623d 3e77 4e3d c171 b23c
000002c0: d4bb 9c3d 6d88 863d b09e febd 1000 323d
000002d0: d36f 70be 0a96 b53d 1002 4bbe b4e1 c9be
000002e0: 01a1 48be 101e 373e e0a5 813e a51b ce3c
000002f0: d0b6 ac3d f494 9ebe fb31 c1bd 64bc 48be
00000300: 5db0 283d 9efc f3bd c5ae 93bd e544 d83e
00000310: aa7b 9dbe b83a 9cbd 7fea 93bc 86da 933e
00000320: 4596 e6bc 36f9 133e db0f 01be 07a0 ba3d
00000330: e70c f63d 6daa 8abc 9931 7fbe 2c91 19be
00000340: e6e0 a63e 88f9 12be 449a d5bc 6f0e a73e
00000350: 1f64 b0be d629 e33e 0430 323b 0c25 cf3d
00000360: ef0b 1abe d154 db3d f68b 023e cc78 0abd
00000370: 474e 873d d1ae dabe 136c c73d 9580 c83d
00000380: 5d89 c83e ae2b 93be 58dd df3d 3689 f8bd
00000390: 9603 963d fd81 27bd fc30 603e 4d69 953d
000003a0: bc37 9dbe 9700 c33e f09d 093d d9d3 30be
000003b0: 7cb7 51bd 3a95 f93d b806 08be 4fef ca3c
000003c0: 9d4e 3cbe e89f 923e 3206 dd3d 35d8 70bd
000003d0: eb2a 0dbe 613a 613e b222 0f3d be14 bebd
000003e0: 73a5 c13d 2d61 623e 52d4 0f3d d1ca 66be
000003f0: 0bc4 e6bd 5fca 36be e1fa aabd 2351 773e

actor.2.bias f4 [64]
-0.113588884 0.021260342 0.040392946 0.08890324 0.09091278 -0.047804777 -0.17730868 -0.037787724
0.028599981 0.032576613 -0.099015124 0.16552213 -0.17138492 -0.17498817 0.031414762 0.102200836
-0.14554626 -0.185984 -0.050776538 -0.14334184 0.04493783 0.1699389 0.077781595 0.0067066266
0.08865961 -0.100918494 -0.10049199 -0.0439517 -0.19991143 -0.13543175 0.064516105 -0.12966537
-0.12652336 -0.09355367 -0.1121923 -0.097690664 -0.024857244 -0.07795059 0.04631927 -0.061029173
0.026920643 -0.2660449 0.059731945 -0.18582563 -0.0087422 -0.17085604 -0.21598303 -0.08932241
-0.04874145 -0.03716908 0.038386133 0.03166446 -0.18114258 -0.047889385 -0.11343059 0.06857451
-0.04078811 0.38998753 0.027564274 0.11398842 -0.031729758 0.041273464 0.098311946 -0.0034622012
00000000: 4aa1 e8bd 2b2a ae3c 1373 253d e712 b63d
00000010: 7b30 ba3d f1ce 43bd 6890 35be 4dc7 1abd
00000020: 824a ea3c 0e6f 053d 71c8 cabd a27e 293e
00000030: 877f 2fbe 1930 33be c4ac 003d ac4e d13d
00000040: 140a 15be 9772 3ebe 0ffb 4fbd 34c8 12be
00000050: bb10 383d 7704 2e3e f54b 9f3d 43c3 db3b
00000060: 2b93 b53d 5bae cebd bfce cdbd b306 34bd
00000070: 95b5 4cbe 9fae 0abe 0521 843d 00c7 04be
00000080: 578f 01be 1199 bfbd 14c5 e5bd 0b12 c8bd
00000090: 6ba1 cbbc 8fa4 9fbd 46b9 3d3d baf9 79bd
000000a0: ae88 dc3c 0a37 88be 7ca9 743d 1349 3ebe
000000b0: 723b 0fbc e3f4 2ebe a82a 5dbe abee b6bd
000000c0: 1da5 47bd 9b3e 18bd c73a 1d3d 98b2 013d
000000d0: 717d 39be a927 44bd 4c4e e8bd cb70 8c3d
000000e0: 6f11 27bd 72ac c73e 79ce e13c c372 e93d
000000f0: 10f7 01bd 5d0e 293d c657 c93d 19e6 62bb

actor.4.weight f4 [36, 64]
-0.13543165 -0.23924671 0.030191954 -0.5435006 -0.3107628 -0.1761387 0.07136821 0.028841475
-0.42869228 -0.5212593 -0.065632954 -0.6573219 0.1478772 0.0048722466 -0.565398 0.7969792
0.14340794 0.070938766 0.028146818 -0.13880862 0.005374248 -0.4371706 -0.3272207 0.077559546
-0.52943003 -0.16221613 -0.099426694 0.057308007 -0.0599697 -0.12494664 0.47928423 -0.08924501
-0.1628291 -0.43903852 0.07423342 0.20121744 0.081157155 0.04237307 -0.2454623 0.22116522
-0.5045691 -0.038493305 -0.2324895 -0.4061147 0.008567783 0.0539743 -0.31880268 0.044228528
0.09235263 -0.2537827 0.4005243 -0.30636358 -0.05272469 -0.19425781 0.04632207 0.30344212
-0.13523066 -0.954127 -0.4209806 -0.29701778 -0.2075874 -0.15306817 -0.56410205 -0.09303352
0.009733444 0.42271292 0.21445955 -0.23991634 0.03588409 -0.03129387 -0.002505625 0.034561105
-0.106342815 0.3948789 0.1969154 -0.2875545 -0.43657422 -0.3245236 0.3881726 -0.29587618
-0.37431598 0.3414016 0.0043681636 -0.25535318 -0.09133353 0.38129863 -0.16312759 -0.058501996
-0.6363122 -0.16559038 0.15217626 0.0009427839 0.09204631 0.084496506 -0.29099578 -0.18254183
-0.017996589 -0.5850972 0.19055639 -0.5719988 0.217588 -0.45080298 0.4740706 -0.17358375
0.15376702 0.047819708 0.45768803 -0.09374389 0.53537446 0.032374978 -0.33697823 0.06099263
-0.12805967 0.1445207 -0.26840377 -0.7220241 0.045675267 0.3482271 0.09200688 0.17123386
-0.06483461 0.2970762 -0.399753 0.70653343 0.09412579 0.32528788 -0.44255567 -0.2950116
0.5858218 -0.32956788 0.2777356 -0.25675666 -0.24933831 -0.03085809 -0.032541666 -0.1507905
-0.094503045 -0.29115358 0.18158135 -0.07034456 0.33856714 -0.20801447 -0.23744623 -0.07738888
0.43421647 -0.19536749 0.8451157 0.12273498 0.5718977 -0.52585965 -0.066771 -0.07203634
-0.26509023 -0.14756796 0.021911584 0.37051085 0.29437688 -0.027572753 0.46859163 -0.8875392
-0.03364098 -0.3764103 0.050349984 -0.11673264 -0.036763858 -0.24879491 0.3420378 0.38957146
0.056026462 0.046758007 -0.39025915 -0.21856819 -0.2224214 -0.04272653 -0.27238843 0.0785729
0.14227222 0.18901095 -0.17931652 0.471959 0.4628186 -0.35695857 0.028623411 0.60168827
-0.14226575 -0.8396983 -0.43489954 -0.17517053 0.24576133 0.40201142 -0.49866247 -0.028264586
0.22631493 -0.62508386 0.034365032 -0.2592051 0.10958018 -0.059004117 0.08166665 0.0926523
-0.65285593 0.00026158706 0.2554768 -0.39202198 0.350222 -0.58390844 -0.22184554 0.687793
-0.08693621 0.14572066 -0.0032412685 -0.01949724 -0.0076572495 -0.26504582 -0.43292066 0.007909585
-0.15384878 -0.1856998 0.11011437 -0.049684934 0.15190162 -0.103698775 0.5765861 -0.70241517
0.10283324 -0.08704605 0.06941672 0.10117474 -0.13854669 -0.5763439 0.19392896 -0.04024031
0.24274503 0.17458102 -0.053646874 -0.2848991 -0.18269658 -0.22542845 -0.21810141 -0.022576502
1.4241253e-05 -0.29906616 0.5245084 -0.18086497 0.3322148 -0.005890967 0.03020017 0.45098364
0.11470133 -0.6943419 -0.33592287 0.63635397 -0.28569594 0.38948432 -0.69011724 0.06176752
00000000: 98ae 0abe 17fd 74be 1e55 f73c db22 0bbf
00000010: 4d1c 9fbe b45d 34be 7f29 923d f544 ec3c
00000020: 8e7d dbbe 4071 05bf 926a 86bd 3f46 28bf
00000030: 1f6d 173e 5ea7 9f3b ecbd 10bf d406 4c3f
00000040: 88d9 123e 5848 913d 2894 e63c d923 0ebe
00000050: 761a b03b d3d4 dfbe 7989 a7be 8ad7 9e3d
00000060: ba88 07bf fc1b 26be 39a0 cbbd cdbb 6a3d
00000070: caa2 75bd 06e4 ffbd be64 f53e 16c6 b6bd
00000080: acbc 26be a8c9 e0be b107 983d f20b 4e3e
00000090: b935 a63d 628f 2d3d 785a 7bbe 2379 623e
000000a0: 712b 01bf 28ab 1dbd ba11 6ebe 44ee cfbe
000000b0: e35f 0c3c 2814 5d3d 1b3a a3be f928 353d
000000c0: 6023 bd3d ceef 81be 8511 cd3e b0db 9cbe
000000d0: d8f5 57bd 85eb 46be 36bc 3d3d c45c 9b3e
000000e0: e879 0abe ab41 74bf c58a d7be b712 98be
000000f0: cb91 54be e7bd 1cbe fe68 10bf 5c88 bebd
00000100: 0679 1f3c d46d d83e 499b 5b3e a1ac 75be
00000110: 32fb 123d 002e 00bd 6935 24bb f28f 0d3d
00000120: 43ca d9bd 912d ca3e 31a4 493e 583a 93be
00000130: a886 dfbe f527 a6be 8fbe c63e 157d 97be
00000140: 58a6 bfbe 31cc ae3e d022 8f3b a7bd 82be
00000150: 130d bbbd 9339 c33e eb0a 27be ca9f 6fbd
00000160: 5be5 22bf 8690 29be 18d4 1b3e 2825 773a
00000170: c782 bc3d 810c ad3d 66fd 94be 3fec 3abe
00000180: 956d 93bc eec8 15bf 3721 433e 836e 12bf
00000190: 64cf 5e3e a6cf e6be 62b9 f23e f0bf 31be
000001a0: 1a75 1d3e 99de 433d 1656 ea3e ccfc bfbd
000001b0: 4d0e 093f a09b 043d 6988 acbe 68d3 793d
000001c0: 1322 03be 3cfd 133e 386c 89be 92d6 38bf
000001d0: fd15 3b3d d34a b23e 1a6e bc3d ee57 2f3e
000001e0: 02c8 84bd 5f1a 983e 6dac ccbe 60df 343f
000001f0: 06c5 c03d 228c a63e a896 e2be c30b 97be
00000200: 6bf8 153f 1fbd a8be 5c33 8e3e 9c75 83be
00000210: 8b52 7fbe 1bca fcbc 694a 05bd d368 1abe
00000220: d08a c1bd 1512 95be 76f0 393e cf10 90bd
00000230: ac58 ad3e bf01 55be 1b25 73be 107e 9ebd
00000240: 9f51 de3e 6a0e 48be 8159 583f 7a5c fb3d
00000250: e367 123f bd9e 06bf 3cbf 88bd ca87 93bd
00000260: e8b9 87be 0e1c 17be ec7f b33c 99b3 bd3e
00000270: 91b8 963e 41e0 e1bc 3eeb ef3e c535 63bf
00000280: 20cb 09bd dab8 c0be c93b 4e3d 8611 efbd
00000290: b395 16bd 18c4 7ebe 941f af3e e975 c73e
000002a0: 017c 653d 5385 3f3d 0cd0 c7be 57d0 5fbe
000002b0: 6fc2 63be 0402 2fbd 7f76 8bbe d4ea a03d
000002c0: cfaf 113e 168c 413e c09e 37be 9ca4 f13e
000002d0: 8ff6 ec3e 46c3 b6be a57b ea3c 3e08 1a3f
000002e0: 1dae 11be 78f6 56bf 27ab debe e75f 33be
000002f0: dca8 7b3e 71d4 cd3e b050 ffbe 228b e7bc
00000300: 1abf 673e 7f05 20bf 59c2 0c3d 88b6 84be
00000310: 936b e03d 4dae 71bd d840 a73d 7dc0 bd3d
00000320: 9121 27bf 9f25 8939 dbcd 823e 1bb7 c8be
00000330: 4c50 b33e 067b 15bf 7a2b 63be 3413 303f
00000340: 9d0b b2bd cc37 153e 766b 54bb adb8 9fbc
00000350: aae9 fabb 16b4 87be c7a7 ddbe 3497 013c
00000360: 898a 1dbe 1728 3ebe a583 e13d 6e82 4bbd
00000370: 198c 1b3e 0660 d4bd 269b 133f 7bd1 33bf
00000380: 3c9a d23d 3345 b2bd 5a2a 8e3d b434 cf3d
00000390: 2fdf 0dbe 468b 13bf 5095 463e 06d3 24bd
000003a0: 2792 783e 5ec5 323e d3bc 5bbd 4bde 91be
000003b0: d014 3bbe b7d6 66be fa55 5fbe 5bf2 b8bc
000003c0: b7ed 6e37 331f 99be 2f46 063f ab34 39be
000003d0: 0f18 aa3e 0309 c1bb 5966 f73c 54e7 e63e
000003e0: 88e8 ea3d 64c0 31bf 15fe abbe 18e8 223f
000003f0: bd46 92be 7d6a c73e 86ab 30bf f0ff 7c3d

actor.4.bias f4 [36]
0.08331742 0.22157246 -0.30423957 -0.009620297 0.32424694 -0.24095573 -0.004672483 0.2595812
0.12532027 -0.043227028 0.114280924 0.30963707 0.09631883 0.18095063 -0.16270626 -0.019999586
0.017501572 -0.21647504 0.06543545 0.013960895 -0.11765673 0.1030241 -0.046492305 -0.17380035
0.0028705066 0.05039243 0.21226078 0.047402862 -0.013037291 0.23634337 0.10778104 -0.08655211
0.08452084 0.32508218 0.19853619 0.2637992
00000000: 53a2 aa3d e4e3 623e 4ac5 9bbe 739e 1dbc
00000010: b203 a63e 19bd 76be a11b 99bb d4e7 843e
00000020: f553 003e d30e 31bd 1e0c ea3d c088 9e3e
00000030: cf42 c53d 1f4b 393e 789c 26be 2cd6 a3bc
00000040: 755f 8f3c a2ab 5dbe 0503 863d 3dbc 643c
00000050: 03f6 f0bd 4dfe d23d b76e 3ebd b8f8 31be
00000060: 1c1f 3c3b 4b68 4e3d e45a 593e 8129 423d
00000070: 5d9a 55bc ff03 723e 4ebc dc3d 3c42 b1bd
00000080: 4319 ad3d 2c71 a63e 124d 4b3e b010 873e

critic.0.weight f4 [64, 62]
0.07635647 0.08354457 -0.083908446 0.009482246 -0.114656076 -0.059677098 0.017144151 -0.021554936
-0.055344675 0.0020891586 -0.10372113 0.0013503915 -0.109755196 -0.07987305 -0.14613453 -0.13209377
-0.008365868 -0.107972465 -0.12109008 0.089093745 -0.09144983 0.08891198 0.0087930765 -0.018583413
0.09826457 -0.09916525 0.060841322 0.084765814 0.14098419 -0.23090048 -0.009232748 -0.09965406
-0.09423055 0.08673783 -0.022362862 0.0858983 -0.068384334 -0.056324437 0.1232456 0.065380014
0.072785884 0.054177675 0.12841678 -0.11847865 -0.032936603 0.032695413 -0.04804538 -0.18672146
0.015671577 -0.15466924 -0.073228136 -0.17119107 0.03142459 -0.0049269754 -0.096892744 0.027965477
-0.024085816 0.043020763 -0.040254153 -0.16483192 -0.20138691 -0.03096935 -0.1128423 0.06433067
-0.017239168 -0.050084185 0.1218031 -0.24826685 0.002055706 0.094833925 -0.09852642 -0.21062475
-0.08345373 0.089165464 -0.055692732 0.1498755 -0.12548226 -0.0748429 0.10398414 0.10897633
0.06814908 -0.006805929 -0.032562602 -0.12126438 0.066823736 -0.028784275 0.019905403 -0.028680766
0.08202378 0.0040353225 0.08644501 -0.0036682184 0.00683678 -0.06461061 0.05880494 -0.07486796
0.08931295 0.098380856 -0.074811436 -0.069275305 0.36265662 0.13637264 0.008587267 -0.19209252
-0.14340343 -0.17612904 0.12924135 0.031838857 0.020730738 0.23762698 0.24438299 0.051074497
0.10557608 0.06712299 -0.046657264 0.09361164 -0.22440422 -0.7919432 -0.25753173 0.04889541
0.00772137 0.055860918 0.07212708 0.11858735 -0.10513134 0.07965675 0.105171435 0.048618447
-0.16394491 -0.09768728 -0.19065633 -0.31075627 -0.17002778 -0.32011503 0.06633915 -0.07322928
-0.1883884 0.3118385 -0.1260656 0.11654242 -0.019912245 -0.07501419 0.11838697 -0.10327836
0.11854204 -0.02147506 0.022991564 0.1105881 -0.05876423 -0.04705589 0.052543417 -0.032175787
0.12734962 0.10481142 -0.0839025 0.08189512 -0.055639885 0.051634572 0.012293336 -0.097683206
-0.18990803 -0.13718821 -0.35681078 -0.01861028 0.1868371 0.076652296 0.1638696 -0.033519957
-0.1210469 -0.0905127 -0.2507773 -0.25832933 -0.29333568 -0.09442485 -0.20209149 -0.06524379
0.06040179 0.07237166 0.047269646 -0.09725755 -0.1038788 -0.007129992 -0.10792782 0.39709708
-0.09490593 0.046760734 -0.11501763 -0.11673309 -0.10628424 0.08884689 -0.43586808 -0.25839764
-0.3009635 0.4716495 -0.011185189 -0.03680805 0.1584696 0.3846209 0.02703683 0.0018362957
0.116438575 0.1459022 -0.037932936 -0.07882174 -0.08388044 0.08991102 0.021075178 0.041679714
-0.092292465 0.023545597 0.11313734 0.06955967 -0.0055553075 -0.05846521 0.16864637 0.14882201
-0.18660694 0.4448422 -0.03601746 -0.0050054374 -0.029890707 -0.07533561 -0.3286101 -0.31710994
-0.4004464 0.27414036 -0.055481706 -0.37078747 0.04190161 0.25832146 -0.41333154 -0.2513473
-0.11162745 0.10568856 -0.2858198 -0.16737713 0.15594931 -0.07438913 0.08939693 -0.078500465
0.0125527475 -0.017816024 -0.0025490932 -0.01956514 0.012171703 -0.060609683 -0.03166912 -0.027907638
0.06834458 0.09007455 -0.1143471 -0.0821262 -0.0041251793 -0.11425089 -0.05033708 0.0021778266
00000000: c860 9c3d 6a19 ab3d 31d8 abbd 6c5b 1b3c
00000010: ced0 eabd f96f 74bd e471 8c3c fa93 b0bc
00000020: 19b1 62bd 44ea 083b be6b d4bd 9fff b03a
00000030: 55c7 e0bd 7b94 a3bd 4aa4 15be 9743 07be
00000040: fe10 09bc ab20 ddbd 13fe f7bd c876 b63d
00000050: 0c4a bbbd 7c17 b63d d610 103c 3e3c 98bc
00000060: ef3e c93d 2717 cbbd c034 793d b399 ad3d
00000070: 295e 103e 2d71 6cbe f444 17bc 6e17 ccbd
00000080: f2fb c0bd 9aa3 b13d 5232 b7bc 73eb af3d
00000090: 160d 8cbd 74b4 66bd 3068 fc3d f5e5 853d
000000a0: c410 953d 69e9 5d3d b07f 033e efa4 f2bd
000000b0: 88e8 06bd a0eb 053d 3bcb 44bd e933 3fbe
000000c0: ae61 803c 9d61 1ebe a2f8 95bd b64c 2fbe
000000d0: 12b7 003d 7772 a1bb b46f c6bd db17 e53c
000000e0: 9e4f c5bc 8a36 303d 8ae1 24bd b3c9 28be
000000f0: 5f38 4ebe 6fb3 fdbc dd19 e7bd ccbf 833d
00000100: 2839 8dbc 1325 4dbd e773 f93d aa39 7ebe
00000110: 06b9 063b 4a38 c23d 38c8 c9bd 04ae 57be
00000120: cae9 aabd 629c b63d 101e 64bd f778 193e
00000130: 6c7e 00be 3c47 99bd a3f5 d43d fb2e df3d
00000140: bf91 8b3d 4504 dfbb 5d60 05bd 7659 f8bd
00000150: e2da 883d 00cd ebbc a810 a33c edf3 eabc
00000160: 15fc a73d bd3a 843b 150a b13d 7e66 70bb
00000170: 1107 e03b 9152 84bd 73dd 703d 5f54 99bd
00000180: b5e9 b63d e77b c93d bd36 99bd 36e0 8dbd
00000190: 21ae b93e 45a5 0b3e 9cb1 0c3c e7b3 44be
000001a0: 59d8 12be 2c5b 34be d857 043e 7669 023d
000001b0: 82d3 a93c 7d54 733e 893f 7a3e 7e33 513d
000001c0: 4638 d83d c777 893d b01b 3fbd 76b7 bf3d
000001d0: 38ca 65be cabc 4abf 33db 83be 8e46 483d
000001e0: 8c03 fd3b 6bce 643d 5db7 933d eddd f23d
000001f0: 1a4f d7bd 1423 a33d 1f64 d73d 2324 473d
00000200: 2de1 27be 4510 c8bd 6a3b 43be 721b 9fbe
00000210: c31b 2ebe 1ee6 a3be d2dc 873d 3cf9 95bd
00000220: e4e8 40be 4ca9 9f3e 5717 01be cbad ee3d
00000230: 011f a3bc 0aa1 99bd de74 f23d 9b83 d3bd
00000240: 2bc6 f23d 77ec afbc ce58 bc3c 047c e23d
00000250: c3b2 70bd adbd 40bd c437 573d c2ca 03bd
00000260: f067 023e 5fa7 d63d 13d5 abbd a1b8 a73d
00000270: a6e6 63bd c67e 533d fd69 493c 220e c8bd
00000280: 4077 42be 117b 0cbe e7af b6be 9674 98bc
00000290: 3a52 3f3e e1fb 9c3d 6fcd 273e 394c 09bd
000002a0: 70e7 f7bd b95e b9bd e265 80be be43 84be
000002b0: 1830 96be d161 c1bd 12f1 4ebe 899e 85bd
000002c0: de67 773d 9837 943d d19d 413d f72e c7bd
000002d0: 69be d4bd b5a2 e9bb 4309 ddbd 4f50 cb3e
000002e0: 0a5e c2bd 2f88 3f3d 5d8e ebbd c211 efbd
000002f0: 8dab d9bd 5cf5 b53d 1a2a dfbe b24c 84be
00000300: e317 9abe 0b7c f13e 1542 37bc 0ac4 16bd
00000310: db45 223e 08ed c43e 587c dd3c dcaf f03a
00000320: 5977 ee3d 6367 153e 915f 1bbd 4b6d a1bd
00000330: 82c9 abbd 4523 b83d daa5 ac3c 59b8 2a3d
00000340: d503 bdbd b2e2 c03c 8db4 e73d 4d75 8e3d
00000350: 4c09 b6bb 3779 6fbd a2b1 2c3e cc64 183e
00000360: e415 3fbe 5bc2 e33e 0b87 13bd a704 a4bb
00000370: 5bdd f4bc 8e49 9abd 953f a8be 3c5c a2be
00000380: 4f07 cdbe 205c 8c3e c940 63bd dbd7 bdbe
00000390: 06a1 2b3d b642 843e 31a0 d3be 98b0 80be
000003a0: ef9c e4bd 3e73 d83d f956 92be e964 2bbe
000003b0: 2db1 1f3e 5459 98bd bd15 b73d dac4 a0bd
000003c0: 0aaa 4d3c e9f2 91bc b00e 27bb 1347 a0bc
000003d0: d36b 473c dc41 78bd 7bb7 01bd 8f9e e4bc
000003e0: 3ef8 8b3d 0179 b83d d02e eabd c831 a8bd
000003f0: 832c 87bb 5ffc e9bd 412e 4ebd deb9 0e3b

critic.0.bias f4 [64]
-0.18121311 0.057876274 0.10639449 -0.040889643 -0.15874605 0.062177338 -0.04915472 -0.2801015
-0.16381142 -0.22046484 -0.17412111 -0.094750114 -0.2222371 -0.1868536 -0.10215984 -0.07420832
-0.11135964 0.18659498 -0.18556578 -0.022717375 -0.13706894 0.1134758 -0.1896506 -0.0649072
-0.046262342 -0.18877201 -0.23051077 -0.21099715 0.07121311 0.044202365 -0.08439597 -0.17125121
-0.18100555 -0.14123285 -0.051506113 -0.037307877 0.0561399 -0.047568213 -0.10122018 0.012988092
-0.12572286 -0.19920038 -0.32049796 -0.020131975 -0.21699357 -0.22556476 -0.04471011 0.05694292
-0.09664541 -0.066378795 -0.037890863 -0.053341206 0.024717554 -0.16737778 -0.1741255 -0.28145498
0.011591768 0.036537603 -0.20257321 0.031794414 0.11130675 -0.25310796 -0.1855851 -0.27337104
00000000: ee8f 39be ac0f 6d3d 5be5 d93d e67b 27bd
00000010: 538e 22be aaad 7e3d 7656 49bd 7769 8fbe
00000020: 2ebe 27be 89c1 61be ce4c 32be 590c c2bd
00000030: 1f92 63be 8d56 3fbe 2e39 d1bd 88fa 97bd
00000040: 8610 e4bd c112 3f3e f504 3ebe ca19 babc
00000050: cd5b 0cbe 0066 e83d c433 42be 11ee 84bd
00000060: 957d 3dbd 734d 41be 040b 6cbe a30f 58be
00000070: 2ed8 913d 8a0d 353d cbd7 acbd 7a5c 2fbe
00000080: 8559 39be 589f 10be 13f8 52bd 25d0 18bd
00000090: f4f2 653d e3d6 42bd 874c cfbd 02cc 543c
000000a0: 7ebd 00be 2ffb 4bbe 4f18 a4be d0eb a4bc
000000b0: 9033 5ebe 73fa 66be f321 37bd fb3c 693d
000000c0: 07ee c5bd 9bf1 87bd 7333 1bbd 4f7c 5abd
000000d0: 787c ca3c 1565 2bbe f44d 32be de1a 90be
000000e0: 66eb 3d3c 74a8 153d 5a6f 4fbe dc3a 023d
000000f0: cbf4 e33d 5e97 81be 050a 3ebe 4af7 8bbe

critic.2.weight f4 [64, 64]
-0.030853003 0.05821907 -0.110005006 0.03679562 -0.04119672 -0.04984643 0.059960786 0.041278165
0.08825167 0.008053263 -0.003099122 0.7063501 0.09854766 0.2590942 -0.06989393 0.2718075
0.027409127 0.41903526 -0.05759326 0.37565663 0.050665032 -0.4126154 -0.08587478 0.28368846
0.05981675 -0.08916288 -0.073084146 0.14284398 -0.19932403 0.22566128 -0.01230359 0.03938827
0.24853529 -0.062807105 0.034347594 0.32431275 -0.39289594 0.014607539 0.03878169 0.14443092
0.06665344 0.29279375 0.1752285 -0.36471063 0.056331627 -0.22518742 0.11894031 -0.46163258
-0.025845509 0.22388387 -0.20554167 0.21990985 -0.2889108 -0.09252825 0.10994072 -0.031647053
0.33653712 -0.031542476 0.08393421 -0.04176708 -0.33245662 0.13432945 0.23866639 0.14967738
-0.014482945 -0.016647646 -0.017791312 -0.022396658 -0.08770548 -0.06966998 -0.08201435 0.081797525
-0.053943425 -0.13175945 -0.103823796 -0.10350632 -0.03988313 -0.103177235 -0.105450906 -0.055680837
0.0825936 -0.12696347 -0.030163405 0.055962365 0.0645357 -0.007494042 0.034515362 -0.057768427
-0.11310414 -0.08939123 -0.08894916 0.076389715 -0.033945695 -0.15212171 -0.11117375 -0.026230695
0.070362955 -0.029041516 -0.032285806 -0.040689126 -0.041993722 0.055345494 0.026000632 -0.031533834
0.124907136 0.073201455 0.029726336 0.022919955 0.053197443 -0.03151902 -0.028216127 -0.05154603
-0.05620297 -0.01832018 -0.097828835 0.03280115 -0.10108481 -0.09338387 -0.030615067 0.066608354
-0.11633326 -0.0263467 0.03519557 -0.116577774 0.08266702 0.05512363 -0.014242316 -0.012067709
0.083397284 -0.047484282 -0.09055651 0.0020994574 -0.10513536 -0.036571756 -0.022348791 0.03180946
-0.27418438 0.03707262 -0.14706011 -0.22542931 0.010338809 0.04263469 0.066291325 -0.06830496
-0.09123935 -0.100695096 -0.008339668 -0.13673258 -0.10885549 0.056507785 0.09273344 -0.18185219
-0.065446116 0.07919052 0.046042036 -0.02439808 0.055041734 -0.25415656 0.09194125 -0.07428706
-0.10330501 -0.015085927 -0.1977328 -0.045612145 0.048036877 -0.005486147 0.10579123 -0.12428681
-0.09014152 0.037454497 -0.19573765 -0.074083544 -0.25019696 -0.40546116 -0.154371 0.016472923
0.13697708 -0.005293333 -0.13211007 -0.14393546 -0.01636832 0.061117794 -0.08645692 0.04945965
0.01417129 0.0095600225 0.0005183698 -0.033231586 -0.08213169 -0.06145635 -0.018001461 -0.08822248
0.009104904 -0.030462334 -0.05365561 -0.03164003 0.027285354 -0.11583242 0.026381133 0.000466755
-0.045034017 -0.17385253 0.029843953 -0.029599447 0.026957268 -0.1215727 0.10898638 0.09719881
0.03113902 0.0026691156 -0.18071777 0.026181852 0.047394205 0.06942343 -0.08356441 0.06096824
-0.123801276 -0.112758264 -0.010021176 -0.014289803 0.022336675 -0.04833174 0.057921294 -0.10792723
0.09222945 0.083801314 -0.07126376 -0.109606445 -0.0030606107 -0.11744318 -0.085102335 6.490757e-05
-0.09810816 0.14381075 -0.054811694 0.03780419 -0.11072752 0.062317036 -0.061250445 -0.058968075
-0.09362437 -0.0014408213 -0.09244136 -0.12496741 0.05103263 0.020785643 -0.096762985 0.12711054
-0.033294506 0.06811745 -0.032248937 -0.17377907 -0.058013726 -0.065795265 0.092597134 0.0743934
00000000: 70bf fcbc 1f77 6e3d 4e4a e1bd 01b7 163d
00000010: e4bd 28bd c52b 4cbd 7199 753d 4b13 293d
00000020: 4bbd b43d d5f1 033c a41a 4bbb 5cd3 343f
00000030: 5bd3 c93d ffa7 843e 8c24 8fbd 5a2a 8b3e
00000040: 1b89 e03c ca8b d63e e9e6 6bbd 1156 c03e
00000050: 2386 4f3d 5342 d3be 1edf afbd 9d3f 913e
00000060: 6902 753d 079b b6bd 24ad 95bd b145 123e
00000070: 991b 4cbe c013 673e ff94 49bc 9855 213d
00000080: 0980 7e3e 03a1 80bd 10b0 0c3d 520c a63e
00000090: a829 c9be 7654 6f3c 8dd9 1e3d b3e5 133e
000000a0: 9981 883d 10e9 953e 1a6f 333e 5abb babe
000000b0: febb 663d 8897 66be fa96 f33d 1b5b ecbe
000000c0: f6b9 d3bc d041 653e 8479 52be 0c30 613e
000000d0: 1eec 93be 737f bdbd 9a28 e13d 57a0 01bd
000000e0: 984e ac3e af32 01bd b3e5 ab3d f513 2bbd
000000f0: c137 aabe a98d 093e f664 743e 0745 193e
00000100: e049 6dbc a560 88bc 16bf 91bc 3279 b7bc
00000110: ee9e b3bd 22af 8ebd 24f7 a7bd 7685 a73d
00000120: c8f3 5cbd f3eb 06be 92a1 d4bd 1ffb d3bd
00000130: 7e5c 23bd 964e d3bd a5f6 d7bd 9711 64bd
00000140: d526 a93d b602 02be 3f19 f7bc cb38 653d
00000150: 4b2b 843d 9590 f5bb fb5f 0d3d 969e 6cbd
00000160: 25a3 e7bd c012 b7bd fa2a b6bd 3672 9c3d
00000170: a40a 0bbd cbc5 1bbe 10af e3bd c1e1 d6bc
00000180: 741a 903d 79e8 edbc 1f3e 04bd a4a9 26bd
00000190: 9c01 2cbd f5b1 623d 47ff d43c 9f29 01bd
000001a0: 50cf ff3d a5ea 953d a584 f33c a1c2 bb3c
000001b0: 90e5 593d 171a 01bd 8225 e7bc ee21 53bd
000001c0: 1635 66bd 3414 96bc 7c5a c8bd 805a 063d
000001d0: 8e05 cfbd 0b40 bfbd 73cc fabc f669 883d
000001e0: 2240 eebd 09d5 d7bc 3b29 103d 54c0 eebd
000001f0: 544d a93d 51c9 613d 9a58 69bc a4b7 45bc
00000200: 32cc aa3d e17e 42bd b175 b9bd 0d97 093b
00000210: 3551 d7bd 44cc 15bd d014 b7bc a34a 023d
00000220: e561 8cbe 76d9 173d ed96 16be f1d6 66be
00000230: 1c64 293c b6a1 2e3d bfc3 873d 79e3 8bbd
00000240: b2db babd 3b39 cebd 1aa3 08bc a003 0cbe
00000250: a1ef debd b574 673d 08eb bd3d 7637 3abe
00000260: 9d08 86bd a42e a23d 9396 3c3d 7bde c7bc
00000270: 7173 613d cf20 82be b24b bc3d d023 98bd
00000280: 9491 d3bd f72a 77bc 787a 4abe cdd3 3abd
00000290: 51c2 443d 23c5 b3bb 13a9 d83d 158a febd
000002a0: 1e9c b8bd e369 193d 736f 48be 1db9 97bd
000002b0: d119 80be 9b98 cfbe 6e13 1ebe 39f2 863c
000002c0: b843 0c3e b273 adbb dd47 07be d163 13be
000002d0: db16 86bc a756 7a3d 5310 b1bd 3496 4a3d
000002e0: b32e 683c a4a1 1c3c 35e3 073a d81d 08bd
000002f0: a934 a8bd a7b9 7bbd cd77 93bc fdad b4bd
00000300: bc2c 153c 258c f9bc fcc5 5bbd fa98 01bd
00000310: 8985 df3c 8c39 edbd 3f1d d83c ccb6 f439
00000320: 9775 38bd 6606 32be 4e7b f43c 8a7a f2bc
00000330: 7dd5 dc3c 1cfb f8bd 4034 df3d 2b10 c73d
00000340: 4217 ff3c 54ec 2e3b 140e 39be 537b d63c
00000350: 6d20 423d df2d 8e3d d123 abbd d5b9 793d
00000360: 868b fdbd ceed e6bd dc2f 24bc c71f 6abc
00000370: 67fb b63c 81f7 45bd e13e 6d3d f408 ddbd
00000380: cbe2 bc3d 06a0 ab3d bcf2 91bd 5879 e0bd
00000390: 8794 48bb 0d86 f0bd 224a aebd fc1e 8838
000003a0: eeec c8bd 2043 133e 3a82 60bd 91d8 1a3d
000003b0: 1cc5 e2bd 2640 7f3d bfe1 7abd 8288 71bd
000003c0: 22be bfbd f1d9 bcba e551 bdbd eaee ffbd
000003d0: 9707 513d a746 aa3c ac2b c6bd 4429 023e
000003e0: d25f 08bd 2981 8b3d 7617 04bd 24f3 31be
000003f0: cd9f 6dbd abbf 86bd 91a3 bd3d 915b 983d

critic.2.bias f4 [64]
0.16020995 -0.13427956 -0.11267358 -0.09698897 -0.2160945 -0.07261448 -0.13822596 -0.019036746
-0.16422457 -0.13765204 0.110929705 0.093179144 -0.10507579 0.23077914 -0.08770537 -0.07489952
-0.13650441 -0.1583831 -0.034543943 -0.106437005 -0.08627061 -0.047933035 -0.16258565 -0.15742186
-0.01418805 -0.068340294 -0.10155869 -0.21021418 -0.07769568 -0.013577325 -0.11595371 -0.06954014
-0.09766467 -0.10695784 0.114993736 0.068885274 -0.18986216 -0.20218891 -0.02711495 -0.12439743
-0.011202782 -0.08008965 -0.07511407 -0.0033870558 -0.13059907 -0.05924784 -0.1436304 -0.11131259
-0.054108758 -0.012397003 0.1577531 -0.13377738 -0.13188565 -0.16461974 -0.099924654 -0.11952922
0.028519949 0.15731132 -0.20964247 -0.11687714 -0.114509255 -0.058650184 -0.17281713 -0.19992857
00000000: 140e 243e 9580 09be 68c1 e6bd 27a2 c6bd
00000010: e047 5dbe e7b6 94bd 1b8b 0dbe f3f2 9bbc
00000020: 7c2a 28be a8f4 0cbe 1d2f e33d b5d4 be3d
00000030: fa31 d7bd 5e51 6c3e df9e b3bd eb64 99bd
00000040: d0c7 0bbe 2e2f 22be f37d 0dbd a5fb d9bd
00000050: a5ae b0bd 6e55 44bd da7c 26be 3233 21be
00000060: ff74 68bc fff5 8bbd 01fe cfbd 6342 57be
00000070: ea1e 9fbd 6e73 5ebc 2479 edbd 106b 8ebd
00000080: 6a04 c8bd b60c dbbd d681 eb3d b913 8d3d
00000090: 3a6b 42be 9c0a 4fbe 2c20 debc 14c4 febd
000000a0: e08b 37bc 0b06 a4bd 68d5 99bd 5ef9 5dbb
000000b0: c3bb 05be ddad 72bd d913 13be dbf7 e3bd
000000c0: 25a1 5dbd cd1c 4bbc 078a 213e f0fc 08be
000000d0: 080d 07be 1492 28be 4ca5 ccbd bccb f4bd
000000e0: aba2 e93c 3816 213e 84ac 56be 485d efbd
000000f0: d483 eabd 2d3b 70bd f9f6 30be 13ba 4cbe

critic.4.weight f4 [1, 64]
-0.11347094 -0.018070024 -0.0010767416 0.008849737 -0.019513818 -0.020504829 -0.0027543397 0.10342573
0.06445794 0.034126084 0.08399275 0.09069177 0.00019452933 0.15775624 -0.006855184 0.016716527
-0.062152326 -0.009680483 -0.04094566 -0.013183994 0.0047134017 0.012908568 0.0064105764 0.14302976
-0.0005606026 3.681633e-05 0.12271515 0.009094471 0.00589172 -0.13410978 -0.03697008 0.00044929655
-0.041237056 0.062906116 -0.07490284 0.12975891 0.00983403 -0.007883309 -0.15660301 0.039036788
-0.024311902 0.08366624 -0.0042039673 0.046207998 -0.007387917 -0.0010969839 -0.0042341985 0.0020696272
-0.07848115 -0.1410415 -0.11435945 0.055269305 0.077235006 0.033807524 0.012353376 0.02266458
-0.007866814 0.24961638 0.0057989657 0.019089734 -0.13729623 0.038705435 0.003492629 -0.09676586
00000000: 7463 e8bd 9607 94bc 7421 8dba 7dfe 103c
00000010: 71db 9fbc bef9 a7bc 2782 34bb ded0 d33d
00000020: 8602 843d cbc7 0b3d 6404 ac3d 9bbc b93d
00000030: 92fa 4b39 da8a 213e 74a1 e0bb 19f1 883c
00000040: 7093 7ebd e39a 1ebc a3b6 27bd ae01 58bc
00000050: e172 9a3b 757e 533c d00f d23b 6576 123e
00000060: 67f5 12ba 3c6b 1a38 1552 fb3d fa00 153c
00000070: 540f c13b 1354 09be f06d 17bd 908f eb39
00000080: 30e8 28bd ecd4 803d a966 99bd 85df 043e
00000090: e91e 213c ff28 01bc 8a5c 20be 0ae5 1f3d
000000a0: c129 c7bc 3559 ab3d 6fc1 89bb 9944 3d3d
000000b0: 5716 f2bb acc8 8fba 08bf 8abb 95a2 073b
000000c0: baba a0bd 2f6d 10be 4a35 eabd 1162 623d
000000d0: 632d 9e3d c279 0a3d d065 4a3c 12ab b93c
000000e0: cfe3 00bc 709b 7f3e 4005 be3b 1362 9c3c
000000f0: 6297 0cbe 9789 1e3d 97e4 643b 2e2d c6bd
