RL/CC2-Cardiff-implementation/GT-Cardiff-CC2/Models/PPOxCCE-C4/10000.pth (torch, 78866 bytes, 11 tensors)

actor.0.weight f4 [64, 62]
0	0xba7940ed	-0.0009508271
1	0x3d8b86e7	0.0681284
2	0xbdd6122a	-0.10452683
3	0xbdbf6a3c	-0.093464345
4	0x3e67cde8	0.22637141
5	0x3ec032f4	0.37538874
6	0xbe9a5bc8	-0.3014815
7	0xbeb251b2	-0.34827954
8	0x3d06a2cf	0.03287011
9	0xbc9b66da	-0.018969942
10	0xbdac08d9	-0.08400125
11	0xbe99220c	-0.29908788
12	0xbf29fc00	-0.66400146
13	0xbe9b86fa	-0.30376416
14	0xbd0a28f2	-0.033730455
15	0xbd2b5b63	-0.0418352
16	0x3d4da681	0.05020762
17	0x3d9c104d	0.076202966
18	0xbdb05477	-0.086098604
19	0xbd628646	-0.055303834
20	0x3d3cf15d	0.04612862
21	0x3dd7fb15	0.10545937
22	0xbcd61c86	-0.026136648
23	0x3dc2a212	0.09503569
24	0xbca7b158	-0.020470306
25	0x3c5c2cc0	0.013438404
26	0x3deb82cf	0.11499559
27	0xbdf14899	-0.11781425
28	0xbf3f3027	-0.7468285
29	0xbe41b864	-0.18917996
30	0xbd26e381	-0.04074431
31	0x3df259d7	0.11833542
32	0xbda896cf	-0.082318895
33	0xbd6f7633	-0.058462333
34	0xbdb5b6b9	-0.08872742
35	0xbdf39894	-0.11894336
36	0x3e2a1306	0.1660882
37	0x3f1cf5b7	0.6131243
38	0x3e8d25e5	0.27567974
39	0x3e5a0e59	0.21294536
40	0xbe7ce3e0	-0.24696302
41	0xbed8ea8f	-0.42366454
42	0xbe07fc63	-0.13279872
43	0xbe73324f	-0.2374966
44	0x3dfe7271	0.12424172
45	0x3e150e7d	0.14556308
46	0x3e2928c4	0.16519457
47	0x3e106f36	0.14104924
48	0x3daf9421	0.08573175
49	0xbdca9d77	-0.09893315
50	0xbb209ba4	-0.0024506832
51	0x3e896e92	0.2684217
52	0x3d4e7484	0.050404087
53	0x3d55cf4c	0.052199647
54	0x3e26f927	0.16305982
55	0x3d599198	0.053117365
56	0x3e2948ee	0.16531727
57	0xbdc9a770	-0.09846389
58	0x3e16dc51	0.14732482
59	0xbd4554ca	-0.048176564
60	0x3de3f1e9	0.11130125
61	0x3e541d94	0.20714408
62	0xbd9a1194	-0.07522884
63	0x3d1d2763	0.03836764
64	0x3d8ec91b	0.069719516
65	0xbc83508d	-0.01602962
66	0x3d95964f	0.0730406
67	0xbde61fa0	-0.11236501
68	0x3dcad797	0.09904402
69	0xbdd7a8da	-0.10530253
70	0xbf3918f8	-0.72303724
71	0xbf115574	-0.56771016
72	0x3ef1f304	0.4725572
73	0x3f6451e6	0.8918747
74	0x3d2c4ef0	0.04206747
75	0xbd640a52	-0.055673905
76	0xbd1536ac	-0.036429092
77	0xbe899d29	-0.26877716
78	0x3c3f6a4d	0.011683059
79	0xbda2b7b5	-0.079451956
80	0xbdf265d5	-0.11835829
81	0x3de717f4	0.112838656
82	0x3dc5c448	0.09656578
83	0xbe01ba05	-0.12668617
84	0x3cc2bb23	0.023770874
85	0xbcaf4366	-0.021394443
86	0xbcab34fb	-0.020899286
87	0xbd6e1f27	-0.058135178
88	0x3d480b12	0.048838682
89	0xbd9a0e51	-0.07522262
90	0x3d98af3b	0.074552976
91	0xbdd245f8	-0.10267252
92	0x3e0b10cc	0.13580626
93	0x3eb7fe36	0.35936135
94	0xbe00b695	-0.1256965
95	0xbda8b940	-0.08238459
96	0x3d81deb6	0.06341307
97	0x3cd9c105	0.026581297
98	0xbd3db7e1	-0.04631794
99	0x3dafc0e0	0.0858171
100	0x3e9a4802	0.30133063
101	0x3ed686d5	0.41899744
102	0xbe89d2d0	-0.2691865
103	0xbe1722f9	-0.14759435
104	0x3e268b79	0.16264142
105	0xbd8ca505	-0.068674125
106	0xbdd855e4	-0.10563257
107	0xbe03533c	-0.1282472
108	0xbcfaff81	-0.030639412
109	0xbd1caa75	-0.038248498
110	0xbe0d5417	-0.13801609
111	0xbbdfcac3	-0.006829591
112	0xbe4852ba	-0.19562808
113	0x3c54ae72	0.012981044
114	0x3db23e72	0.08703317
115	0xbe51c464	-0.20485073
116	0xbba574b0	-0.0050493106
117	0xbd58fb33	-0.052973937
118	0xbddee461	-0.108834036
119	0x3cf6c0a8	0.030121163
120	0x3e2d1cdc	0.1690554
121	0x3dac43ea	0.08411391
122	0xbe1dffe1	-0.15429641
123	0xbd9122f8	-0.07086748
124	0xbdf97f3e	-0.12182473
125	0xbd9a2929	-0.07527382
126	0xbd02383f	-0.03179192
127	0xbd7d6489	-0.061863456
128	0xbe31f216	-0.17377505
129	0x3cd30bd5	0.025762478
130	0xbeb89183	-0.36048517
131	0xbefbccd3	-0.49179706
132	0xbf183771	-0.59459597
133	0xbe659a41	-0.22422124
134	0x3ebd9900	0.37030792
135	0x3edf4136	0.4360444
136	0x3f2d58a0	0.67713356
137	0x3e75fb8a	0.24021736
138	0xbd56dbc8	-0.052455693
139	0x3eafbefe	0.34325403
140	0x3df6600c	0.12030038
141	0x3da52cf8	0.08065218
142	0x3df6f05c	0.12057564
143	0xbc167c17	-0.009184859
144	0xbde9a66a	-0.11408694
145	0xbd769c86	-0.060207866
146	0x3db119d4	0.086475044
147	0xba57d11e	-0.000823276
148	0xbd8147a7	-0.06312495
149	0xbdc75098	-0.09732169
150	0xbdf3695f	-0.11885332
151	0xbddb85fc	-0.10718915
152	0x3ecc852b	0.3994535
153	0x3e14df7d	0.14538379
154	0x3e07242d	0.13197394
155	0xbe7c6523	-0.24647956
156	0x3da23e4e	0.0792204
157	0xbdcb871c	-0.099378794
158	0xbcdbf2b6	-0.026849132
159	0xbd52ec80	-0.051495075
160	0xbe7e670c	-0.24843997
161	0xbedabefc	-0.42723835
162	0xbe816fac	-0.2528051
163	0xbebfd284	-0.37465298
164	0x3da4dd9f	0.08050083
165	0xbbca892a	-0.006180902
166	0x3d45a9bc	0.048257574
167	0x3e3cfe02	0.18456271
168	0xbe7fe661	-0.24990226
169	0xbe3913c2	-0.18073943
170	0x3e4ad050	0.19806027
171	0x3e336bc2	0.17521575
172	0xbd49b32b	-0.049243134
173	0x3beba702	0.0071915397
174	0x3cb4b765	0.022060106
175	0xbdbafcad	-0.09130225
176	0xbc701bff	-0.014655112
177	0x3cdcda81	0.02695966
178	0x3e225418	0.15852392
179	0x3c1026dd	0.008798328
180	0x3d46cd5f	0.0485357
181	0xbcd9d2f6	-0.026589852
182	0x3da071ab	0.078341804
183	0x3d347bd6	0.04406341
184	0x3e04579f	0.1292405
185	0xbe107101	-0.14105608
186	0xbcfa2fb0	-0.030540317
187	0xbcdacc74	-0.026708819
188	0xbdd6572a	-0.10465844
189	0x3d8cee7f	0.06881427
190	0xbda33833	-0.079697035
191	0xbcca003a	-0.024658311
192	0xbe0606c5	-0.1308852
193	0xbee87a5c	-0.45405853
194	0x3e8040cd	0.2504944
195	0x3ec1e036	0.37866372
196	0xbeaad80f	-0.33367965
197	0xbee8f73e	-0.4550113
198	0x3e3e432b	0.1858031
199	0x3d6955fb	0.056966763
200	0xbde02ff7	-0.109466486
201	0x3e2eee66	0.1708313
202	0xbdc49caa	-0.09600194
203	0xbdb28f2c	-0.08718714
204	0xbd970724	-0.07374409
205	0x3db60cd1	0.08889163
206	0xbd3afdb2	-0.0456521
207	0x3ddb6364	0.10712317
208	0x3d3c1b05	0.045924205
209	0x3c83bd64	0.01608152
210	0xba77d42e	-0.00094539195
211	0xbccdaa38	-0.02510558
212	0x3c828887	0.015934242
213	0xbced90fe	-0.028999802
214	0x3ea82b11	0.32845357
215	0xbbe48bfb	-0.006974695
216	0xbeba50a2	-0.36389643
217	0xbe2a3f60	-0.16625738
218	0x3dd2069d	0.10255168
219	0xbdd3148b	-0.10306653
220	0xbc156984	-0.009119395
221	0x3e00a60e	0.12563345
222	0x3d4a3f76	0.049376927
223	0xbcf4b7a2	-0.02987272
224	0xbeade008	-0.33959985
225	0xbe964310	-0.2934804
226	0xbdc37a33	-0.09544792
227	0xbea6b4db	-0.32559857
228	0xbdc1f6a8	-0.09470874
229	0x3d9c0a95	0.07619206
230	0x3e361f1d	0.17785306
231	0x3eb3f84d	0.35150376
232	0x3dbb74eb	0.0915316
233	0x3dd81014	0.10549942
234	0x3e025179	0.12726392
235	0x3cc56654	0.024096645
236	0x3e6a7251	0.22895171
237	0xbdc8c9ad	-0.098040916
238	0xbd5c787d	-0.053825844
239	0x3dbb9ce7	0.09160786
240	0xba9fb112	-0.0012183508
241	0x3e9e4254	0.3090998
242	0x3e4b5cfd	0.19859691
243	0x39552f82	0.00020330961
244	0x3d851d08	0.06499678
245	0xbe21b9a7	-0.15793477
246	0x3e52b1cd	0.20575638
247	0xbe13f11d	-0.14447446
248	0x3ae56cfc	0.0017503793
249	0xbcb0e205	-0.02159215
250	0xbd88fc54	-0.06688753
251	0x3c89823e	0.016785737
252	0x3e12e04c	0.14343375
253	0xbc9b3c57	-0.01894967
254	0x3d8d647b	0.06903931
255	0xbc570530	-0.013123795

actor.0.bias f4 [64]
0	0x3dee7f14	0.11645332
1	0xbc808a9a	-0.01569109
2	0x3c432202	0.011909964
3	0x3c80c626	0.015719485
4	0xbda21f42	-0.07916118
5	0xbe5926dc	-0.2120623
6	0xbd56739a	-0.05235634
7	0x3d2c410a	0.042054214
8	0x3e42a952	0.19009903
9	0xbca8afd7	-0.02059166
10	0x3cf3e118	0.029770419
11	0xbe299ca3	-0.16563658
12	0xbc1c5a24	-0.009542976
13	0x3c28a901	0.0102942
14	0x3d6aaa9e	0.05729162
15	0x3d282fe9	0.041061316
16	0xbe32c1ed	-0.1745679
17	0x3debd8f8	0.11515993
18	0xbe37d65d	-0.17952867
19	0xbe1eb0c5	-0.1549712
20	0xbd019661	-0.031637553
21	0xbe76af9b	-0.24090426
22	0x3cbeaabd	0.023274774
23	0xbc5e298b	-0.013559709
24	0x3d310915	0.043221552
25	0xbcf7486b	-0.030185899
26	0xbd99c627	-0.07508498
27	0xbdd6a222	-0.10480143
28	0xbdb995eb	-0.09061798
29	0xbe0507fb	-0.12991326
30	0xbcba0b38	-0.022710428
31	0x3d8d939b	0.06912919
32	0x3e17c65f	0.14821766
33	0xbe1d45d6	-0.15358672
34	0x3e202d3e	0.15642259
35	0xbe638956	-0.22220358
36	0x3e405cf0	0.18785453
37	0x3d8bf2bb	0.068334065
38	0xbdb58af0	-0.08864391
39	0xbe6902c8	-0.22754967
40	0x3e44e5b8	0.19228256
41	0x3d4cca51	0.04999763
42	0xbd6bd2a1	-0.05757392
43	0x3d211b21	0.039332513
44	0x3d7538ad	0.059868503
45	0x3d847cfd	0.06469152
46	0xbe04206c	-0.12902993
47	0x3bd07441	0.006361515
48	0x3e7792d9	0.24177112
49	0x3d91b198	0.071139514
50	0x3c264faf	0.010150834
51	0xbe92d7bc	-0.28680217
52	0x3e4a025d	0.19727464
53	0x3d4f0dc7	0.05055025
54	0x3e07bc5e	0.1325545
55	0xbdca2291	-0.09869874
56	0x3da72cce	0.08162843
57	0xbc94f9ba	-0.018185485
58	0xbe15d611	-0.14632441
59	0xbe43afdb	-0.19110052
60	0xbcd87a5d	-0.026425535
61	0xbe29c777	-0.16579996
62	0xbe617bd1	-0.22019888
63	0xbd5b5cb0	-0.05355519

actor.2.weight f4 [64, 64]
0	0xbdb28098	-0.087159336
1	0xbdf1c443	-0.11805012
2	0x3d9c1b48	0.07622391
3	0xbdd9790a	-0.106187895
4	0xbc6c6f53	-0.014430839
5	0x3d905148	0.07046753
6	0xbd37aacf	-0.04484063
7	0xbdd273f3	-0.10276022
8	0xbe0dc679	-0.13845243
9	0xbc842153	-0.016129171
10	0xbdc6dc04	-0.097099334
11	0x3c155a30	0.009115741
12	0x3ca0eed7	0.019645138
13	0xbd814ba3	-0.06313255
14	0x3d82d8a7	0.063889794
15	0xbd088a30	-0.03333491
16	0xbd4c5520	-0.04988587
17	0xbde8e170	-0.11371124
18	0x3bf7db93	0.007564017
19	0xbdc0e2eb	-0.09418281
20	0x3c528825	0.012849842
21	0xbd7ce650	-0.06174308
22	0x3d7b68d1	0.061379258
23	0xbdd40a70	-0.10353553
24	0xbd93fbcc	-0.07225761
25	0xbd50744c	-0.05089216
26	0xbde11a71	-0.109913714
27	0x3cf98c16	0.030462306
28	0xbdadc728	-0.08485252
29	0x3d271762	0.040793784
30	0x3cdc4833	0.026889896
31	0x3d30cd1d	0.04316436
32	0xbd95374b	-0.07285937
33	0x3cd5b198	0.02608566
34	0xbd9d42cc	-0.07678756
35	0xbdff10c0	-0.12454367
36	0xbcf23555	-0.029566446
37	0xbe0a5e18	-0.13512456
38	0xbe0bcf57	-0.13653313
39	0x3d022600	0.03177452
40	0x3d9710e6	0.0737627
41	0xbda8b4df	-0.082376234
42	0xbd7c5aa5	-0.061609883
43	0xbe04f54f	-0.12984203
44	0xbd14d474	-0.036335424
45	0xbbc9658e	-0.0061461395
46	0xbd002b00	-0.031291008
47	0x3d40e272	0.047090955
48	0xbe0b17d7	-0.13583313
49	0xbd87c800	-0.06629944
50	0xbdce89d0	-0.100848794
51	0x3d8b15b3	0.06791248
52	0x3d9e5c29	0.07732422
53	0x3dc06af1	0.093953975
54	0x3d5d3c67	0.054012682
55	0x3d4ac7f0	0.04950708
56	0xbdfa9726	-0.122358605
57	0xbdc7888b	-0.097428404
58	0x3b8cb295	0.0042937496
59	0xbe03aed7	-0.12859665
60	0x3d9ab7b9	0.075545736
61	0x3d5e9698	0.054342836
62	0x3c4afa6d	0.012388808
63	0xbe01179f	-0.12606667
64	0x3e7e1044	0.24810892
65	0x3d114515	0.035466272
66	0xbe2abb5a	-0.16673031
67	0x3ddd9837	0.10820048
68	0xbda72865	-0.081620015
69	0xbc05201d	-0.008125332
70	0x3e1f357f	0.15547751
71	0x3e639bba	0.22227374
72	0x3e2f59f4	0.17124158
73	0xbe0436a6	-0.12911472
74	0x3dc77332	0.09738769
75	0x3ddfe06d	0.10931478
76	0x3c1c4a46	0.009539193
77	0xbe749fa9	-0.2388903
78	0x3e1feb02	0.15616992
79	0x3e1d49e3	0.15360217
80	0xbd9e33a6	-0.07724695
81	0x3e36f939	0.17868508
82	0xbca05cfe	-0.019575592
83	0x3deaa17d	0.11456583
84	0xbd69a345	-0.05704047
85	0x3e68f661	0.22750236
86	0xbce871ba	-0.028374542
87	0xbe881a24	-0.26582444
88	0x3dabdc62	0.08391644
89	0xbd96cc18	-0.073631465
90	0xbe34cc14	-0.17655975
91	0x3dc6894f	0.09694158
92	0x3cad2b8a	0.021138925
93	0x3e045ede	0.12926814
94	0xbe7e43cd	-0.24830551
95	0xbdd64ae8	-0.10463506
96	0xbe8f5cc9	-0.28000477
97	0x3e1de556	0.15419516
98	0x3e2dc6fe	0.16970441
99	0xbd0b67dc	-0.034034595
100	0x3c77e138	0.01512938
101	0xbcc52f88	-0.024070516
102	0x3daa5bf6	0.083183214
103	0xbd1ad01d	-0.03779613
104	0xbcc712ae	-0.0243009
105	0x3e533467	0.20625459
106	0x3e30996c	0.17246026
107	0xbd918cd8	-0.07106942
108	0x3e6b0c00	0.22953796
109	0xbceab7b1	-0.028652044
110	0x3e162d56	0.14665732
111	0x3ce26239	0.027634727
112	0xbc0e4fd2	-0.008686023
113	0x3ee4e890	0.4470868
114	0xbd8d6415	-0.06903855
115	0xbdda20ea	-0.10650809
116	0xbea37801	-0.31927493
117	0x3e03f8ab	0.12887828
118	0xbb402f08	-0.0029324908
119	0x3ddba2fb	0.107244454
120	0x3e245e08	0.16051495
121	0xbe6c93fe	-0.2310333
122	0x3e29e5ab	0.16591518
123	0x3e21f687	0.15816699
124	0xbe0651aa	-0.1311709
125	0xbd51abf3	-0.051189374
126	0xba4743b1	-0.00076013344
127	0x3eb3f53c	0.35148036
128	0xbf282122	-0.65675557
129	0x3e46528f	0.19367431
130	0x3e8ef756	0.27923077
131	0x3d93cac0	0.07216406
132	0x3eb9b816	0.3627326
133	0x3e478e24	0.19487816
134	0x3de099d0	0.109668374
135	0xbf3f8053	-0.7480518
136	0xbe3bc68b	-0.18337457
137	0x3d9fd087	0.07803445
138	0xbe6daedd	-0.23211236
139	0xbe97fc26	-0.29684561
140	0xbea39724	-0.3195125
141	0x3eaabff0	0.33349562
142	0xbdad3246	-0.084568545
143	0xbcf54703	-0.029941088
144	0x3d081db5	0.033231456
145	0xbe16f994	-0.14743644
146	0x3eec19a4	0.46113312
147	0x3deb79ca	0.11497839
148	0x3ec7c89e	0.39020246
149	0xbd1cdf48	-0.038298875
150	0xbdef7017	-0.11691301
151	0xbe70d3d8	-0.23518312
152	0xbe0423cc	-0.1290428
153	0x3df611c7	0.120151095
154	0x3eaf9160	0.342906
155	0xbd21ffeb	-0.039550703
156	0x3e87d965	0.26533046
157	0x3ea4218d	0.32056847
158	0x3e9d65b3	0.30741653
159	0x3ef8803f	0.48535344
160	0x3e2e6781	0.17031671
161	0x3e730c9b	0.23735277
162	0xbdcd85b9	-0.10035271
163	0xbe149298	-0.14509046
164	0xbe7ebeec	-0.24877518
165	0x3e29a4ed	0.1656682
166	0x3e1d15d3	0.15340357
167	0xbe4e5a26	-0.20151576
168	0xbde40fd4	-0.111358315
169	0x3d35efc2	0.044418104
170	0x3d73fb68	0.05956593
171	0x3d5e368c	0.05425124
172	0x3dbceff3	0.09225454
173	0x3ec51dfd	0.38499442
174	0xbbd67909	-0.0065451902
175	0x3e83d0c5	0.25745216
176	0xbd60bbe1	-0.054866675
177	0xbe3b2513	-0.18275861
178	0x3dfc5bf0	0.12322223
179	0x3e6ad72c	0.22933644
180	0xbe0267fe	-0.12734982
181	0xbec50506	-0.38480395
182	0xbe27ae6a	-0.16375127
183	0xbc54e8e0	-0.012994975
184	0xbd89d709	-0.06730468
185	0x3ef41ff8	0.4768064
186	0x3e0d3095	0.13788064
187	0xbb0b82f6	-0.0021287776
188	0x3eba2b0c	0.36360967
189	0x3d627709	0.055289302
190	0xbdd4f506	-0.10398297
191	0xbe4ae664	-0.1981445
192	0xbd3f45ab	-0.0466973
193	0x3ead1d62	0.3381148
194	0x3e2b05c5	0.1670142
195	0xbdd2e8dc	-0.10298321
196	0xbe316b2d	-0.1732604
197	0xbe2d3229	-0.16913666
198	0xbe7c385f	-0.24630879
199	0xbca8296b	-0.020527562
200	0x3e009589	0.12557043
201	0x3e138405	0.1440583
202	0xbe9e33e4	-0.30898964
203	0xbdc9239f	-0.09821247
204	0xbe67808f	-0.22607635
205	0x3d0ec386	0.034854434
206	0xbe56edd2	-0.20989159
207	0x3d3db6b1	0.046316806
208	0xbd273d0d	-0.040829707
209	0xbe0bd080	-0.13653755
210	0x3da2785a	0.079331115
211	0xbe0c938b	-0.13728158
212	0x3e02fa78	0.12790859
213	0xbe2e6ce2	-0.17033723
214	0xbe82eb1b	-0.25569996
215	0xbe700b84	-0.23441893
216	0x3e0e06b7	0.13869749
217	0x3e3d1bdf	0.18467663
218	0x3e1d1083	0.1533833
219	0xbd871b68	-0.06597024
220	0xbefc4be1	-0.4927664
221	0xbe2d8b86	-0.16947755
222	0xbca74611	-0.020419152
223	0x3d53cab1	0.051706973
224	0xbc110cea	-0.008853177
225	0xbe46d7db	-0.1941828
226	0x3e903e1e	0.28172392
227	0x3d65b08c	0.05607657
228	0xbd854592	-0.0650741
229	0xbec25874	-0.3795811
230	0x3db120f3	0.08648863
231	0x3d9fc067	0.0780037
232	0xbde762d1	-0.112981446
233	0xbcc7e845	-0.024402747
234	0xbb98cc16	-0.004663001
235	0x3d9ed056	0.07754581
236	0x3ee8f4e8	0.4549935
237	0x3daa0263	0.083012365
238	0x3ce3aa6c	0.027791224
239	0xbe34d3c3	-0.17658906
240	0xbe62f23e	-0.2216272
241	0x3d618e25	0.0550672
242	0xbd2715ef	-0.040792402
243	0xbe9766a2	-0.2957049
244	0xbea2369e	-0.31682295
245	0xbf1b4c19	-0.6066299
246	0x3e82b438	0.2552812
247	0xbd996d4b	-0.07491549
248	0xbba2e44a	-0.004971062
249	0x3e57c7c1	0.21072294
250	0xbeae4e68	-0.34044194
251	0xbdc2fb50	-0.0952059
252	0x3e89ce58	0.2691524
253	0x3c0f389f	0.008741527
254	0xbd233967	-0.039849665
255	0xbe571370	-0.21003509

actor.2.bias f4 [64]
0	0xbdac5488	-0.084145606
1	0x3bcabf28	0.0061873384
2	0xbcefe0c5	-0.029281983
3	0xbe34a5a1	-0.17641307
4	0xbc428a9e	-0.011873869
5	0x3e861113	0.26184902
6	0xbe2841e1	-0.16431381
7	0x3e1b331f	0.1515622
8	0xbdfae184	-0.12250045
9	0xbcaae1d7	-0.020859642
10	0x3d840fc6	0.06448321
11	0xbd4102f8	-0.04712197
12	0xbdff50fe	-0.1246662
13	0xbdc4fc20	-0.096184015
14	0x3d9b57ed	0.0758513
15	0x3e92c6e4	0.28667367
16	0xbdf988eb	-0.12184318
17	0x3e1001ca	0.14063182
18	0xbd8a0836	-0.06739847
19	0x3e24d682	0.16097453
20	0xbe04671a	-0.12929955
21	0xbd08f4c7	-0.033436563
22	0x3dc8caea	0.09804328
23	0xbc080012	-0.008300798
24	0x3da15c1a	0.07878895
25	0xbcfac36e	-0.030610766
26	0x3d26bcdc	0.040707454
27	0xbd23859e	-0.03992235
28	0xbe5d1867	-0.2159134
29	0xbcc76b25	-0.024343083
30	0xbe0bbe6b	-0.13646857
31	0x3e0fd196	0.14044794
32	0x3d6be2ac	0.057589218
33	0x3e324401	0.17408754
34	0x3e15e8c4	0.14639574
35	0xbd2ac271	-0.04168934
36	0x3decfbc7	0.1157146
37	0x3cd00301	0.025392057
38	0x3e198620	0.14992571
39	0xbc949ea8	-0.01814206
40	0xbe399c1e	-0.1812596
41	0x3d73be59	0.0595077
42	0x3dc37f46	0.0954576
43	0xbdc4fbc4	-0.09618333
44	0xbca831ed	-0.020531619
45	0xbdc5141e	-0.09622978
46	0xbe247081	-0.16058542
47	0xbcb01fd2	-0.021499548
48	0xbe0b1ff4	-0.13586408
49	0x3cc30732	0.023807142
50	0xbc51944a	-0.0127917025
51	0xbcae767d	-0.021296734
52	0xbd9877b7	-0.07444709
53	0xbdd308e7	-0.10304432
54	0xbda45b51	-0.0802523
55	0x3d69c9f3	0.05707736
56	0xbd3871a7	-0.045030262
57	0x3dfe907a	0.124299005
58	0x3da4a303	0.080389045
59	0x3c102cc6	0.008799737
60	0xbd51ad00	-0.051190376
61	0x3d5a807d	0.053345192
62	0xbc69e413	-0.014275569
63	0xbd16b915	-0.0367976

actor.4.weight f4 [36, 64]
0	0x3cbe59a5	0.023236105
1	0xbe85943e	-0.26089662
2	0x3f06f14b	0.52711934
3	0xbd2ebf51	-0.042662922
4	0x3e940365	0.2890884
5	0xbe863f43	-0.2622014
6	0x3db6cee7	0.08926182
7	0x3f5a1df4	0.85201955
8	0xbd45c9ee	-0.04828828
9	0xbe398e3c	-0.18120664
10	0xbe838198	-0.2568481
11	0xbe573ba1	-0.2101884
12	0xbd6a95c4	-0.057271734
13	0xbd54ff90	-0.052001536
14	0xbedcd237	-0.4312913
15	0xbf379342	-0.7170907
16	0x3d234970	0.039864957
17	0xbef6c497	-0.4819686
18	0x3d0af2b7	0.033922877
19	0x3f48fb38	0.7850833
20	0x3e83e56a	0.25760967
21	0xbeb88454	-0.36038458
22	0xbea531ce	-0.3226456
23	0xbd98982b	-0.07450899
24	0xbf502711	-0.8130961
25	0x3c815968	0.015789703
26	0x3d776a53	0.060404133
27	0x3f5249bc	0.8214376
28	0xbf2eaa2b	-0.68228406
29	0xbe7915a3	-0.2432466
30	0xbe5e21d3	-0.2169259
31	0x3f0039bb	0.5008809
32	0x3bb2814f	0.0054475437
33	0xbf0b9610	-0.5452585
34	0xbe1044ce	-0.14088747
35	0xbef8394d	-0.48481217
36	0xbe0357d3	-0.12826471
37	0x3e5f4a78	0.21805751
38	0xbf2ea1da	-0.68215716
39	0xbedfcc0c	-0.43710363
40	0xbee2e15f	-0.4431257
41	0xbe7d93aa	-0.2476336
42	0xbee56f50	-0.44811487
43	0xbdc36953	-0.095415734
44	0xbe52e4a7	-0.20595036
45	0x3e1a4669	0.15065922
46	0xbd7cf0a8	-0.061752945
47	0xbde7be24	-0.11315563
48	0xbe2ae332	-0.1668823
49	0x3eda416a	0.42628032
50	0xbd9ced21	-0.07662416
51	0xbf322141	-0.6958199
52	0x3e613f6f	0.21996854
53	0xbe0bb776	-0.13644204
54	0x3e0f10b5	0.13971217
55	0xbe5a9c8e	-0.21348783
56	0xbcc7f80d	-0.024410272
57	0xbf2125a4	-0.6294806
58	0xbf2970fe	-0.6618804
59	0xbde67174	-0.11252108
60	0x3f667152	0.90016663
61	0xbf3460b8	-0.7046008
62	0x3c4216a9	0.011846223
63	0xbd165552	-0.03670246
64	0xbdb3a638	-0.08771938
65	0xbf04449b	-0.51667184
66	0x3ecd3238	0.40077376
67	0x3eca995c	0.3957013
68	0xbe691a99	-0.22764052
69	0xbeb248ea	-0.34821254
70	0x3d218dba	0.0394418
71	0xbe8341ae	-0.25636047
72	0xbd06f802	-0.032951362
73	0xbd66dc1a	-0.05636225
74	0xbea885ae	-0.3291449
75	0x3d49829d	0.04919683
76	0x3e1e96f4	0.15487272
77	0xbdf3e324	-0.11908558
78	0x3f0c876c	0.5489414
79	0xbed0d8fb	-0.40790543
80	0xbdd721f4	-0.10504523
81	0xbcce94e7	-0.025217487
82	0xbef8bbad	-0.48580685
83	0xbec025ba	-0.37528783
84	0x3d6413f5	0.055683095
85	0x3f2c2605	0.67245513
86	0xbf09ae70	-0.53781796
87	0xbe323e26	-0.1740652
88	0xbf12d167	-0.5735077
89	0xbda875fd	-0.082256295
90	0xbbe6d0d7	-0.0070439386
91	0x3e12ac4d	0.1432354
92	0x3ed9aeba	0.42516118
93	0xbec7c2ca	-0.390158
94	0xbe4776fe	-0.19478986
95	0xbf4a0214	-0.7890942
96	0xbe3db3ef	-0.1852567
97	0xbf231631	-0.63705736
98	0x3eb31794	0.34978926
99	0xbe82d0e9	-0.2555001
100	0x3e5c55c2	0.21517089
101	0xbb238f0e	-0.0024957093
102	0x3e870937	0.26374218
103	0xbf2d1cc8	-0.6762204
104	0x3f1b8777	0.6075358
105	0xbdc8561f	-0.09782051
106	0xbe9f4c18	-0.31112742
107	0x3d0870b9	0.033310626
108	0x3d98b692	0.074566975
109	0x3e01f3e5	0.12690695
110	0xbd19b282	-0.037523754
111	0xbe132ab4	-0.14371759
112	0x3de93bb6	0.11388342
113	0x3e8c7cf5	0.27439085
114	0x3d26ceae	0.04072445
115	0xbee54ae2	-0.44783694
116	0x3eb44de9	0.3521569
117	0xbd69a5c7	-0.057042863
118	0x3f36bde2	0.7138349
119	0xbeca924f	-0.3956475
120	0x3cc9611c	0.024582438
121	0x3e89d543	0.26920518
122	0xbed95413	-0.42446956
123	0x3dd2bc0c	0.10289773
124	0xbe1a6c45	-0.15080364
125	0x3e857cbe	0.26071733
126	0x3e09bd17	0.13451038
127	0x3cd7c920	0.026341021
128	0x3dbe7997	0.09300535
129	0x3d98fca6	0.07470064
130	0x3f216938	0.63051176
131	0xbe167f83	-0.1469708
132	0xbc085a9c	-0.008322384
133	0x3ed2cd76	0.4117238
134	0x3dee8b64	0.116476804
135	0x3da53ed6	0.08068626
136	0x3d1cf105	0.03831579
137	0x3d836bf2	0.06417073
138	0x3ed47bd0	0.4150071
139	0x3ee85373	0.45376167
140	0x3e53d80d	0.20687886
141	0x3bf6e99b	0.007535172
142	0xbe8f199b	-0.27949223
143	0xbde74113	-0.11291709
144	0xbb946116	-0.004528175
145	0x3d5eb967	0.054376032
146	0x3ed1af31	0.40953973
147	0x3e8528fd	0.26007834
148	0x3f19368f	0.59848875
149	0xbe5a634f	-0.21326946
150	0x3e1d81ab	0.15381496
151	0xbd6ad22f	-0.057329353
152	0xbdae5f69	-0.08514292
153	0x3e89c120	0.26905155
154	0x3c2688ed	0.010164482
155	0x3ef77524	0.4833156
156	0x3e30b82a	0.17257753
157	0xbc95c827	-0.018283917
158	0x3e354ccb	0.17705075
159	0x3d39245e	0.045200698
160	0x3db5702c	0.08859286
161	0xbe870235	-0.2636887
162	0x3f03e55b	0.51521844
163	0x3e2db362	0.1696296
164	0x3f05c460	0.5225277
165	0x3d66d943	0.05635954
166	0x3de1bda8	0.11022502
167	0x3e84d479	0.25943354
168	0x3e914cec	0.28379
169	0xbea5c17a	-0.32374173
170	0xbccfd5d2	-0.025370512
171	0x3cf593a0	0.02997762
172	0xbe45d1d3	-0.19318323
173	0xbd01d4f1	-0.031697217
174	0x3e275ade	0.16343257
175	0x3e024293	0.12720709
176	0x3eb9ad2a	0.36264926
177	0x3ed4179b	0.4142426
178	0xbdb8c2df	-0.09021544
179	0x3e53735a	0.20649472
180	0x3edc888e	0.43072933
181	0xbd0b9b31	-0.03408355
182	0xbd239f56	-0.039946876
183	0x3ee8b375	0.45449415
184	0xbd57e402	-0.05270768
185	0xbea563a0	-0.3230257
186	0xbdc99c4c	-0.098442644
187	0xbce2b85f	-0.027675806
188	0xbd091ecd	-0.03347664
189	0x3e808d11	0.25107625
190	0x3c27d4ba	0.010243589
191	0xbd88fd70	-0.06688964
192	0x3ddd0a20	0.10792947
193	0xbe2b38a5	-0.16720827
194	0xbdf6cfa1	-0.12051321
195	0xbe7c71a4	-0.24652725
196	0x3d55c407	0.0521889
197	0xbed1285d	-0.40851107
198	0x3d71cde1	0.059034232
199	0x3d1eb459	0.03874621
200	0xbd2bf201	-0.04197884
201	0x3dcc3b26	0.09972219
202	0x3cacb21c	0.021081023
203	0x3e200ff0	0.1563108
204	0x3e1713e7	0.14753686
205	0xbd16d005	-0.036819477
206	0xbe54b0e3	-0.20770602
207	0xbea8bd85	-0.32957092
208	0xbd022104	-0.031769767
209	0xbe7f1793	-0.24911337
210	0xbe3c352e	-0.18379661
211	0xbe083d80	-0.1330471
212	0xbe8251dc	-0.2545308
213	0xbd4e90ab	-0.050430935
214	0xbe2ccb37	-0.16874395
215	0x3e938d32	0.2881866
216	0xbe0933f5	-0.13398726
217	0xbe63f22c	-0.2226035
218	0xbd4cf7fb	-0.05004118
219	0xbbcef314	-0.0063155983
220	0x3d9756a5	0.07389573
221	0x3dac70bd	0.084199406
222	0x3dee7aa0	0.116444826
223	0xbf28627d	-0.6577528
224	0x3dffc2f8	0.12488359
225	0xbe5475af	-0.20748018
226	0xbe0cc51a	-0.13747063
227	0xbd7fb7eb	-0.062431257
228	0xbe115c15	-0.14195283
229	0xbe9ac297	-0.30226585
230	0xbe8e0e37	-0.2774522
231	0xbecb6a00	-0.3972931
232	0xbc62152c	-0.013798993
233	0x3bf7d3a7	0.0075630727
234	0xbd91d8e7	-0.07121449
235	0xbd908947	-0.070574336
236	0xbdbd33f2	-0.092384234
237	0x3d88bcd9	0.06676645
238	0x3ddc0247	0.10742622
239	0xbe5d245c	-0.21595901
240	0xbbdb36b1	-0.0066898693
241	0x3dbe7216	0.09299104
242	0x3c6f39e9	0.014601209
243	0xbef3dd8e	-0.4762997
244	0x3de19002	0.110137954
245	0x3e554495	0.20826943
246	0xbd7f05a9	-0.062261257
247	0xbe927dc4	-0.28611577
248	0x3df9de3c	0.12200591
249	0xbef7716e	-0.48328727
250	0xbf16f7f9	-0.58972126
251	0x3d29860b	0.0413876
252	0xbedfbe7c	-0.43700016
253	0xbe25c95d	-0.16190095
254	0xbd4feb27	-0.050761368
255	0xbb204d74	-0.0024460228

actor.4.bias f4 [36]
0	0xbdec91c6	-0.115512416
1	0xbeb40287	-0.35158178
2	0x3c5ef7ec	0.013608914
3	0xbef65e3e	-0.48118776
4	0x3df77106	0.120821044
5	0x3e5249c1	0.20535947
6	0x3e38faa8	0.18064368
7	0x3e435f97	0.19079433
8	0xbdc36cf5	-0.09542266
9	0xbe498f72	-0.19683626
10	0x3cec3930	0.028835863
11	0x3e837ddc	0.2568196
12	0x3e99213f	0.29908177
13	0x3ed141a9	0.40870407
14	0x3dc50e8d	0.09621916
15	0x3def1286	0.11673455
16	0xbd8c2551	-0.06843055
17	0xbe04f032	-0.12982252
18	0xbea79312	-0.32729393
19	0xbe876fde	-0.26452535
20	0xbf028454	-0.50983167
21	0x3ddfa3dc	0.109199256
22	0xbe0b6f7c	-0.13616747
23	0xbcb1b2d2	-0.021691713
24	0x3ec61339	0.3868654
25	0x3e4de214	0.20105773
26	0x3eb36912	0.350411
27	0x3d8d2670	0.06892097
28	0x3df34389	0.11878116
29	0xbea49536	-0.3214509
30	0x3de0293c	0.10945365
31	0x3df7b6c7	0.12095409
32	0x3da3a22b	0.079899155
33	0x3e13c563	0.14430766
34	0x3d8cacf2	0.06868924
35	0x3ea2d2ea	0.3180154

critic.0.weight f4 [64, 62]
0	0x3d9c60c8	0.07635647
1	0x3dab196a	0.08354457
2	0xbdabd831	-0.083908446
3	0x3c1b5b6c	0.009482246
4	0xbd5ebb50	-0.054377854
5	0xbcd44058	-0.025909588
6	0xbb2b0778	-0.002609698
7	0x3ca20c99	0.019781398
8	0xbd99bf73	-0.07507219
9	0xbca91594	-0.020640172
10	0xbd702903	-0.05863286
11	0xbd0e39a9	-0.034722958
12	0xbd8052c5	-0.06265787
13	0xbd87de16	-0.066341564
14	0xbde57f33	-0.11205902
15	0xbdb8b7b4	-0.090194136
16	0xbc0910fe	-0.008365868
17	0xbddd20ab	-0.107972465
18	0xbdf7fe13	-0.12109008
19	0x3db676c8	0.089093745
20	0xbdbb4a0c	-0.09144983
21	0x3db6177c	0.08891198
22	0x3c1010d6	0.0087930765
23	0xbc983c3e	-0.018583413
24	0x3dc93eef	0.09826457
25	0xbdcb1727	-0.09916525
26	0x3d7934c0	0.060841322
27	0x3dad99b3	0.084765814
28	0x3dd67118	0.1047079
29	0xbe1a138f	-0.15046524
30	0x3c665e51	0.014060573
31	0xbcfd8f70	-0.030952185
32	0xbdc0fbf2	-0.09423055
33	0x3db1a39a	0.08673783
34	0xbcb73252	-0.022362862
35	0x3dafeb73	0.0858983
36	0xbd8c0d16	-0.068384334
37	0xbd66b474	-0.056324437
38	0x3d4395f1	0.047750417
39	0x3c84ef86	0.016227495
40	0x3d9510c4	0.072785884
41	0x3d5de969	0.054177675
42	0x3dc571e3	0.09640863
43	0xbdbfba3b	-0.093616925
44	0xbc04979e	-0.008092789
45	0x3d6bae49	0.05753926
46	0xbd3cd4d7	-0.046101417
47	0xbda4104d	-0.080109216
48	0x3dc61f7f	0.09673976
49	0xbe099f11	-0.13439585
50	0xbdd6d4c5	-0.10489801
51	0xbdea2c6d	-0.11434255
52	0x3d00b712	0.03142459
53	0x3b0a17b3	0.0021071255
54	0xbdef0cb6	-0.11672346
55	0x3d421a3b	0.047388297
56	0x3cc08781	0.023502113
57	0x3d30368a	0.043020763
58	0xbdfe98af	-0.12431466
59	0xbdf895be	-0.12137936
60	0xbe107d46	-0.14110288
61	0xbd822d0a	-0.06356247
62	0xbde719dd	-0.1128423
63	0x3d83bfcc	0.06433067
64	0xbc8d3928	-0.017239168
65	0xbd4d2513	-0.050084185
66	0x3e150b9b	0.14555208
67	0x3cc3df17	0.023910088
68	0x3ee3573e	0.44402498
69	0xbd2e05aa	-0.04248587
70	0x3c8e408d	0.017364765
71	0xbef2236f	-0.4729266
72	0xbe931c0b	-0.28732333
73	0xbef75a57	-0.4831111
74	0xbdc45cad	-0.09587989
75	0x3ca3e068	0.020004466
76	0xbd0b5b43	-0.03402258
77	0x3df059b2	0.11735858
78	0x3dd4f5a3	0.10398414
79	0x3ddf2efb	0.10897633
80	0x3d8b91bf	0.06814908
81	0xbbdf0445	-0.006805929
82	0xbd05605d	-0.032562602
83	0xbdf85976	-0.12126438
84	0x3d88dae2	0.066823736
85	0xbcebcd00	-0.028784275
86	0x3ca310a8	0.019905403
87	0xbceaf3ed	-0.028680766
88	0x3da7fc15	0.08202378
89	0x3b843abd	0.0040353225
90	0xbdd70d7b	-0.10500618
91	0x3f5b594e	0.85683143
92	0x3ed8ecb5	0.42368093
93	0x3f18a951	0.59633356
94	0x3d70dd73	0.05880494
95	0xbd99545f	-0.07486796
96	0x3db6e9b5	0.08931295
97	0x3dc97be7	0.098380856
98	0x3de48891	0.111588605
99	0xbd04ae27	-0.032392647
100	0x3e94d2ed	0.29067174
101	0x3f0d6fc3	0.5524866
102	0xbd66bcbf	-0.056332346
103	0xbe1c835e	-0.15284488
104	0x3e9b1c5c	0.30295074
105	0x3e1b11a7	0.15143453
106	0xbdd6dcad	-0.10491309
107	0xbe80d672	-0.2516361
108	0x3cf413ad	0.029794538
109	0xbe05559f	-0.13020943
110	0x3e3d04f9	0.18458928
111	0xbce81714	-0.028331317
112	0x3d6ad304	0.057330146
113	0x3cff1fc9	0.031143086
114	0xbd3f1bb0	-0.046657264
115	0xbc48ed69	-0.012263634
116	0x3c8f889f	0.0175212
117	0xbe2bd677	-0.1678103
118	0x3e033719	0.12813987
119	0x3d48468e	0.04889541
120	0x3e40ffae	0.18847534
121	0x3de9a5f8	0.11408609
122	0xbd509b8c	-0.05092959
123	0x3e2eb803	0.17062382
124	0xbdd74f1a	-0.10513134
125	0x3da32314	0.07965675
126	0x3dd7641f	0.105171435
127	0x3d472423	0.048618447
128	0x3cd4162d	0.02588948
129	0xbe0aa779	-0.13540448
130	0xbdbdabfe	-0.092613205
131	0xbd650bae	-0.05591934
132	0x3edc9d5c	0.43088806
133	0xbe5137ff	-0.20431517
134	0xbe459fd0	-0.19299245
135	0xbf06cfdf	-0.52660936
136	0xbe501070	-0.2031877
137	0xbe02d17e	-0.12775227
138	0x3d30eb1f	0.04319298
139	0xbec1dda1	-0.37864402
140	0xbca31f01	-0.019912245
141	0xbd99a10a	-0.07501419
142	0x3df274de	0.11838697
143	0xbdd3839b	-0.10327836
144	0x3df2c62b	0.11854204
145	0xbcafec77	-0.02147506
146	0x3cbc58ce	0.022991564
147	0x3de27c04	0.1105881
148	0xbd70b2c3	-0.05876423
149	0xbd40bdad	-0.04705589
150	0x3d5737c4	0.052543417
151	0xbd03cac2	-0.032175787
152	0xbd41ac2a	-0.04728333
153	0x3c035e4d	0.0080180885
154	0xbde64284	-0.112431556
155	0x3d4045a1	0.046941403
156	0xbd63e6a6	-0.055639885
157	0x3d537ec6	0.051634572
158	0x3c4969fd	0.012293336
159	0xbdc80e22	-0.097683206
160	0xbea1ea00	-0.3162384
161	0xbe81c6be	-0.2534694
162	0x3c116ea0	0.008876473
163	0x3e94e6aa	0.29082233
164	0xbe98f3a8	-0.29873395
165	0xbdc8f0ed	-0.09811578
166	0xbe8358f2	-0.25653797
167	0xbe8a91e4	-0.2706443
168	0x3da5d5d8	0.08097428
169	0xbdef7e3d	-0.11694
170	0x3de2d7e8	0.11076337
171	0xbe992d1a	-0.29917222
172	0xbe19a706	-0.1500512
173	0x3cc8df50	0.024520546
174	0xbd4f2b99	-0.050578687
175	0x3e5171f3	0.20453624
176	0x3d7767de	0.06040179
177	0x3e569d2b	0.20958392
178	0x3e44e0a1	0.19226314
179	0xbcb7fa60	-0.022458255
180	0xbe7debf8	-0.24797046
181	0xbbe9a2b5	-0.007129992
182	0x3e4a6df6	0.1976851
183	0xbd4f7fac	-0.050658867
184	0x3df4425c	0.119267195
185	0x3e406f35	0.18792422
186	0xbdeb8e5d	-0.11501763
187	0xbdef11c2	-0.11673309
188	0xbdd9ab8d	-0.10628424
189	0x3db5f55c	0.08884689
190	0xbe839ed6	-0.2570712
191	0xbebbe2d3	-0.3669649
192	0xbe2c1fe0	-0.16809034
193	0x3f04c676	0.5186533
194	0xbd10b132	-0.035325237
195	0xbe3f6863	-0.18692164
196	0xbc831017	-0.015998883
197	0x3d1560fc	0.036469445
198	0x3d2d7108	0.042344123
199	0xbddb92f9	-0.10721392
200	0xbe5012c4	-0.20319659
201	0xbe345132	-0.17609099
202	0xbd1b5f91	-0.037932936
203	0xbda16d4b	-0.07882174
204	0xbdabc982	-0.08388044
205	0x3db82345	0.08991102
206	0x3caca5da	0.021075178
207	0x3d2ab859	0.041679714
208	0xbdbd03d5	-0.092292465
209	0x3cc0e2b2	0.023545597
210	0x3de7b48d	0.11313734
211	0x3d8e754d	0.06955967
212	0xbbb6094c	-0.0055553075
213	0xbd6f7937	-0.05846521
214	0x3ea749c5	0.3267347
215	0x3f1c5d16	0.6107954
216	0x3df32fe9	0.118743725
217	0x3ed10eda	0.40831643
218	0xbd13870b	-0.03601746
219	0xbba404a7	-0.0050054374
220	0xbcf4dd5b	-0.029890707
221	0xbd9a498e	-0.07533561
222	0xbdb551d7	-0.088535
223	0xbdcb83fa	-0.09937282
224	0xbdd1cf13	-0.102445744
225	0xba77b1bb	-0.0009448786
226	0xbe0d511a	-0.13800469
227	0xbe355a46	-0.17710218
228	0x3d64c397	0.05585059
229	0xbd10acc2	-0.035321005
230	0x3dbaf521	0.09128786
231	0x3dd2f3ff	0.10300445
232	0xbd0366c4	-0.032080427
233	0x3d740702	0.059576996
234	0x3d02ab49	0.03190163
235	0x3e0a6e74	0.13518697
236	0xbd63f923	-0.055657517
237	0x3d2a2b09	0.041544948
238	0x3db715bd	0.08939693
239	0xbd30a078	-0.043121785
240	0xbdd47b89	-0.10375125
241	0xbd62834e	-0.055301003
242	0x3e03ed47	0.12883483
243	0xbca04713	-0.01956514
244	0x3bed44a0	0.0072408468
245	0xbbbe646e	-0.005810312
246	0x3cf78775	0.030215958
247	0xbccde42a	-0.025133211
248	0x3d8bf83e	0.06834458
249	0x3db87901	0.09007455
250	0xbdea2ed0	-0.1143471
251	0xbda831c8	-0.0821262
252	0xbe709b39	-0.23496713
253	0x3d9ac746	0.0755754
254	0x3f17798d	0.59169847
255	0x3ee9fbeb	0.4570001

critic.0.bias f4 [64]
0	0xbe18cdf5	-0.14922316
1	0x3e026b2c	0.12736195
2	0xbd333d4b	-0.043759625
3	0xbe3569fb	-0.1771621
4	0x3d09228d	0.033480216
5	0xbd24452e	-0.040105037
6	0xbe088c12	-0.13334683
7	0xbe1f3977	-0.15549265
8	0xbe38d6df	-0.18050717
9	0x3d8a89f9	0.067645974
10	0xbdf0efac	-0.11764464
11	0xbe26a818	-0.1627506
12	0xbe5cb4d0	-0.2155335
13	0xbde6ee45	-0.11275915
14	0xbe55268f	-0.2081549
15	0x3d1ab639	0.037771437
16	0xbe1fddae	-0.15611908
17	0xbd8a84dd	-0.06763623
18	0xbdcece49	-0.100979395
19	0x3dd076b4	0.10178891
20	0xbe4dcee2	-0.20098451
21	0xbcdd5acc	-0.027020834
22	0xbd9e5e86	-0.07732873
23	0xbe1959db	-0.14975683
24	0x3dfdb202	0.12387468
25	0xbdab50cd	-0.08365021
26	0xbe237aa8	-0.15964758
27	0xbd9f4808	-0.07777411
28	0xbdd3951a	-0.10331173
29	0xbdcb227a	-0.09918685
30	0xbd8a8a43	-0.067646526
31	0x3d0d00d9	0.034424637
32	0xbde450a8	-0.111481965
33	0xbdd30fd5	-0.10305754
34	0xbd792fde	-0.060836665
35	0x3d76d4dd	0.060261596
36	0xbe374598	-0.17897642
37	0x391c9b1c	0.00014935102
38	0xbe08bcf3	-0.13353328
39	0x3d0b3cfb	0.033993702
40	0xbe22a27e	-0.15882298
41	0xbe0e89c2	-0.13919738
42	0xbe5634e6	-0.20918617
43	0x3dc7b699	0.097516246
44	0x3cda3842	0.026638154
45	0xbe201b78	-0.15635478
46	0x3e063254	0.13105136
47	0x3cc16cc4	0.023611434
48	0x3e68a7d1	0.22720267
49	0xbe834627	-0.2563946
50	0x3ca95749	0.020671504
51	0xbcd25702	-0.025676254
52	0x3e1087f0	0.14114356
53	0xbd6c23a3	-0.057651173
54	0xbe1ddc35	-0.15416034
55	0xbdf3f86c	-0.11912617
56	0x3daab4b3	0.08335247
57	0xbd0f3c54	-0.034969643
58	0xbe845667	-0.2584717
59	0x3cb14b8e	0.021642473
60	0x3e4b0fb2	0.19830206
61	0xbd053f45	-0.03253104
62	0xbe25db23	-0.16196875
63	0xbe4b4c0e	-0.19853231

critic.2.weight f4 [64, 64]
0	0xbc9d486f	-0.019199578
1	0x3e172f87	0.14764224
2	0x3d7e4c20	0.062084317
3	0x3dfdbdf9	0.1238975
4	0x3b2fe31c	0.0026838249
5	0xbc6885a9	-0.014192023
6	0xbd550406	-0.05200579
7	0x3e706cbd	0.2347898
8	0x3dd9679c	0.10615465
9	0xbea09a95	-0.31367937
10	0xbc899841	-0.016796233
11	0x3e814e91	0.25255254
12	0x3d23f75f	0.040030833
13	0x3e5d5c61	0.21617271
14	0x3e4f3b87	0.20237552
15	0x3e60f72f	0.21969293
16	0x3d1cc707	0.038275745
17	0x3de5c04c	0.11218318
18	0xbe3dd274	-0.18537313
19	0x3da50592	0.08057703
20	0xbe1c5bba	-0.15269366
21	0x3e633b97	0.221907
22	0x3e84adcb	0.25913844
23	0xbad5201b	-0.0016260179
24	0xbd6b487e	-0.05744218
25	0xbdc38642	-0.09547092
26	0xbdc88652	-0.097912446
27	0x3e1c2978	0.15250194
28	0x3b15ea4a	0.0022875243
29	0x3db93902	0.090440765
30	0xbc95efde	-0.018302854
31	0x3e380025	0.17968805
32	0x3e537528	0.2065016
33	0xbd951831	-0.07280005
34	0xbd1b1dce	-0.03787022
35	0x3e1d7108	0.15375149
36	0xbe15dbe3	-0.14634661
37	0x3e7481ac	0.23877591
38	0xbe00feb7	-0.12597166
39	0xbeca5afe	-0.39522547
40	0xbc4022e0	-0.011727065
41	0x3e30cf91	0.1726668
42	0x3e25606c	0.16150063
43	0xbf00bcee	-0.50288284
44	0xbebd9160	-0.37024975
45	0x3d802d43	0.06258633
46	0x3e81cd7f	0.25352094
47	0xbeb91578	-0.36149192
48	0x3ee282c1	0.44240382
49	0xba7629e5	-0.0009390398
50	0x3d8d3d2c	0.06896433
51	0x3e7ceebb	0.24700443
52	0x3e438a30	0.19095683
53	0x3d25e456	0.04050096
54	0xbd8283f3	-0.063728236
55	0x3e1cf30e	0.15327093
56	0x3dab2823	0.08357265
57	0x3d82d563	0.063883565
58	0x3de84417	0.11341112
59	0xbf1b195d	-0.60585576
60	0x3ea8489a	0.3286789
61	0xbd0dab60	-0.034587264
62	0x3dc1b1c9	0.09457738
63	0x3da89409	0.082313605
64	0xbc6d49e0	-0.014482945
65	0xbb001e87	-0.0019549446
66	0xbc920095	-0.017822543
67	0xbcb6b3f1	-0.0223026
68	0xbdca9b3d	-0.098928906
69	0xbd8ef184	-0.06979659
70	0xbdce5db9	-0.1007647
71	0x3dd063b0	0.10175264
72	0xbd5d7583	-0.054067146
73	0xbdf951c2	-0.12173797
74	0xbdd4ec9d	-0.10396693
75	0xbdd40e87	-0.10354333
76	0xbd23a620	-0.03995335
77	0xbdab9e08	-0.083797514
78	0xbdd7b4b9	-0.10532517
79	0xbd642901	-0.055703167
80	0x3da8ea41	0.082478054
81	0xbde39b3c	-0.11113593
82	0xbcf47319	-0.02984004
83	0x3dc8b036	0.097992346
84	0x3d8446e0	0.06458831
85	0x3c621ec4	0.01380128
86	0x3d0d50e5	0.034500975
87	0xbd6d43a6	-0.057925843
88	0xbde81d0d	-0.11333666
89	0xbddd4025	-0.1080325
90	0xbdb6d3d1	-0.089271195
91	0x3d9c13d4	0.076209694
92	0xbc59aac7	-0.013285345
93	0xbdebc98b	-0.11513051
94	0xbde3def4	-0.11126509
95	0xbd3e1aa6	-0.046412133
96	0x3d903432	0.070412055
97	0xbaba9f57	-0.0014238161
98	0x3bf011d2	0.007326343
99	0xbd26b347	-0.040698316
100	0xbcac1251	-0.021004828
101	0x3d5d7c80	0.05407381
102	0x3cd18239	0.02557479
103	0xbcfa637e	-0.03056502
104	0x3dffcf50	0.124907136
105	0x3d966474	0.07343379
106	0x3cf32029	0.029678421
107	0x3cfb0697	0.03064279
108	0x3d77ab01	0.060465816
109	0xbd01850d	-0.031621028
110	0x3c0db077	0.0086480295
111	0xbd8ba131	-0.06817854
112	0xbd669194	-0.056291178
113	0xbca7c79f	-0.020480929
114	0xbdc89836	-0.09794657
115	0x3d916bd1	0.071006425
116	0xbdcf0774	-0.101088434
117	0xbdc0c5f9	-0.0941276
118	0xbcfbaf62	-0.030723277
119	0x3d881bfa	0.06645961
120	0xbd9b634f	-0.07587301
121	0xbd024b22	-0.031809933
122	0x3d658a26	0.05603995
123	0xbdd7e1cb	-0.105411135
124	0x3dac8527	0.08423834
125	0x3d1dc14a	0.038514413
126	0x3ba39f62	0.004993365
127	0xbc45e634	-0.0120788105
128	0x3da79a91	0.08183778
129	0xbe31ade9	-0.17351498
130	0xbe5ea8d8	-0.21744096
131	0x3db6a40c	0.08918008
132	0xbea24533	-0.3169342
133	0x3dc808b2	0.097672835
134	0xbe28c4bf	-0.16481303
135	0x3d1032f0	0.035204828
136	0xbe833365	-0.25625148
137	0x3cd4fd4e	0.025999691
138	0xbb14f142	-0.0022726809
139	0x3e1ee6c8	0.15517724
140	0xbe16fd78	-0.14745128
141	0xbead906e	-0.33899254
142	0xbcc97547	-0.024592055
143	0x3e44bc8d	0.19212551
144	0xbd188905	-0.037240047
145	0x3ce51680	0.02796483
146	0xbda0c5b8	-0.07850212
147	0xbdcb4aa9	-0.0992635
148	0x3dee686d	0.116410114
149	0xbc36a6df	-0.011148184
150	0x3d99ebe5	0.075156964
151	0x3e1ab6a4	0.15108734
152	0xbece1190	-0.40247774
153	0xbda8a3eb	-0.0823439
154	0x3d8e9992	0.06962885
155	0x3e2eebdf	0.17082165
156	0x3d967370	0.07346237
157	0xbe1811e4	-0.14850575
158	0x3c8e5ee6	0.017379235
159	0xbebd9ad3	-0.37032184
160	0xbe188f79	-0.1489848
161	0xbc213284	-0.009838704
162	0x3b9ce477	0.0047879773
163	0xbe50f733	-0.20406799
164	0x3dd6c4a4	0.10486725
165	0xbd7fd689	-0.062460456
166	0xbd09e693	-0.03366716
167	0xbe6c1797	-0.23055874
168	0x3e47f744	0.19527918
169	0xbe54d2d6	-0.20783553
170	0x3dbb5c07	0.09148412
171	0xbd364b01	-0.044505123
172	0xbc29f792	-0.010373967
173	0xbe215c8d	-0.15757962
174	0x3db30991	0.08742059
175	0x3dbf011d	0.09326384
176	0x3e485be5	0.19566305
177	0xbe2ce940	-0.16885853
178	0xbe2645f2	-0.1623762
179	0xbe7491c0	-0.23883724
180	0x3e0f6c90	0.14006257
181	0xbe715119	-0.23566093
182	0xbb84e5cf	-0.0040557156
183	0x3e1af722	0.15133336
184	0xbea12e80	-0.3148079
185	0x3da2bff5	0.07946769
186	0xbd93b3b6	-0.072120115
187	0x3c5cecfd	0.013484237
188	0xbecf30ad	-0.40466824
189	0x3dd68305	0.10474209
190	0xbe1992c2	-0.1499739
191	0xbe3ed057	-0.18634163
192	0xb9bb6232	-0.0003574058
193	0x3cd7768a	0.026301641
194	0xbdf60fb8	-0.12014717
195	0xbcb506f8	-0.02209805
196	0x3c1410df	0.0090372255
197	0xbdb9a3e4	-0.09064463
198	0x3ccfc786	0.025363695
199	0xbcd34842	-0.025791291
200	0xbd6be937	-0.057595458
201	0xbd54019b	-0.051759344
202	0x3c8de89e	0.017322835
203	0xbdd73241	-0.10507632
204	0xbc5012b6	-0.012699774
205	0xbe15bbf8	-0.14622486
206	0x3e175a68	0.14780581
207	0x3dc874ed	0.09787927
208	0xbb6344fa	-0.0034678564
209	0xbd9da5fb	-0.07697674
210	0xbddde8ac	-0.10835394
211	0x3d10e3a2	0.035373338
212	0x3d177b4c	0.03698282
213	0x3e100d70	0.14067626
214	0xbdbf3b43	-0.09337475
215	0x3cd698f4	0.02619598
216	0xbd1909a1	-0.0373627
217	0xbdb257b0	-0.08708131
218	0x3bcbdd0b	0.0062214187
219	0xbd0aa241	-0.033846144
220	0x3cf7f5fe	0.030268665
221	0xbdf6dd7c	-0.120539635
222	0x3d28f1f0	0.041246355
223	0xbd59d0ba	-0.053177573
224	0xbd3ba8d8	-0.04581532
225	0x3d716bcc	0.058940694
226	0xbc4aa6e8	-0.012368895
227	0xbe362b64	-0.1778999
228	0x3c950430	0.018190473
229	0xbe0a65ab	-0.13515346
230	0xbd5b468b	-0.053534072
231	0xbdf1735f	-0.117895834
232	0xbd43391f	-0.047661897
233	0x3da9dbbf	0.08293866
234	0xbdcf1362	-0.10111119
235	0x3d6a197f	0.05715322
236	0xbd933833	-0.071884535
237	0x3d99b9f5	0.075061716
238	0xbcd187af	-0.025577394
239	0xbda15ff5	-0.078796305
240	0xbe143a53	-0.14475374
241	0x3cae0863	0.021244233
242	0xbd809d67	-0.06280022
243	0xbdf597d3	-0.11991849
244	0x3ad5fc83	0.0016325865
245	0xbcd2f9ea	-0.025753934
246	0xbd457fa2	-0.048217423
247	0x3e0306ca	0.12795559
248	0xbd84b99f	-0.06480717
249	0x3c95504a	0.018226761
250	0xbdd65fbd	-0.104674794
251	0xbe4e2d90	-0.20134568
252	0xbd901663	-0.0703552
253	0xbe2f9c32	-0.17149428
254	0x3de83929	0.113390274
255	0x3d6b9910	0.05751902

critic.2.bias f4 [64]
0	0x3e52dcda	0.2059206
1	0xbd9a5858	-0.075363815
2	0xbca6648c	-0.020311616
3	0xbd8bc8ea	-0.06825431
4	0xbdbb8f5c	-0.09158203
5	0xbd892aa4	-0.06697586
6	0xbe3f2d50	-0.18669629
7	0xbe228115	-0.15869553
8	0xbe016574	-0.12636358
9	0xbdea4af5	-0.11440078
10	0xbd5471d2	-0.05186636
11	0x3d15ca9a	0.03657017
12	0xbd7eac6b	-0.06217615
13	0xbd5b04e9	-0.05347148
14	0xbdcd4009	-0.10021979
15	0x3e2fa817	0.17153965
16	0xbe2ac23a	-0.16675654
17	0xbe3ba5b5	-0.18324931
18	0xbbe86c98	-0.0070930235
19	0xbd8b364e	-0.06797467
20	0x3b19b0ed	0.0023451403
21	0xbd6a00b6	-0.057129584
22	0xbe738be9	-0.2378384
23	0xbe368ebe	-0.1782789
24	0x3c4b76cb	0.012418459
25	0xbe2d47bf	-0.169219
26	0xbdd44b70	-0.10365951
27	0xbdf0eede	-0.1176431
28	0xbd581b5a	-0.05276046
29	0xbcd9e9a1	-0.02660066
30	0xbdfa7b18	-0.122305095
31	0xbd8cc586	-0.06873612
32	0xbe054cd1	-0.13017584
33	0xbdd6398c	-0.10460195
34	0x3d7ea151	0.062165562
35	0x3e2a4744	0.16628748
36	0xbe191d36	-0.1495255
37	0xbdfa49cb	-0.12221106
38	0xbd2be002	-0.041961677
39	0xbd962f61	-0.073332556
40	0xbd59afc0	-0.053146124
41	0xbdd645fa	-0.10462566
42	0x3def9fe4	0.117004186
43	0xbd185d16	-0.03719815
44	0xbc90e031	-0.017685028
45	0xbc100468	-0.008790113
46	0xbdaa3193	-0.08310237
47	0xbdb9da23	-0.090748094
48	0xbe35aee3	-0.17742495
49	0xbd7e2b6b	-0.062053125
50	0xbc7e3eda	-0.015517915
51	0xbd9f7719	-0.07786388
52	0xbde83fc7	-0.113402896
53	0xbe0cd4d4	-0.13753062
54	0xbdb9ae18	-0.09066409
55	0x3c3c0dfb	0.011477943
56	0xbd1f17fa	-0.038841225
57	0xbd922042	-0.07135059
58	0xbe424c4d	-0.18974419
59	0xbd9bca51	-0.07606948
60	0xbe04b8d7	-0.12961136
61	0xbd88bfdf	-0.066772215
62	0xbde84d09	-0.11342818
63	0xbddbc1ca	-0.10730322

critic.4.weight f4 [1, 64]
0	0xbdb3f954	-0.0878779
1	0x3cfa90d7	0.030586643
2	0xbb4345bf	-0.002979621
3	0x3cb35796	0.02189235
4	0x3b875425	0.004129904
5	0xbe3fb102	-0.18719867
6	0xbcc74e27	-0.024329258
7	0x3da558d4	0.08073583
8	0xbbd1ac4f	-0.0063987146
9	0xbc22b019	-0.00992968
10	0x3bdeb342	0.0067962715
11	0x3cd94321	0.026521267
12	0x3bd23812	0.0064153755
13	0x3d247399	0.040149305
14	0xbc1a7536	-0.009427359
15	0xbdebec84	-0.11519721
16	0xbce56d1a	-0.028006125
17	0x3c810193	0.015747821
18	0x3baef8b9	0.0053397086
19	0x3cea714c	0.028618477
20	0xbbc48690	-0.0059974864
21	0xbb3c3168	-0.0028715972
22	0x3c7280bb	0.0148012
23	0x3da31522	0.07963015
24	0xbce75c3a	-0.02824222
25	0xbbf02e94	-0.0073297713
26	0xba86748e	-0.0010258125
27	0x3b875486	0.004129949
28	0xbc22994f	-0.009924247
29	0x3b8567cd	0.004071212
30	0x3d7ce1a3	0.06173862
31	0x3c98a969	0.018635469
32	0xbc9c2e6c	-0.019065104
33	0x3d90c214	0.070682675
34	0xbc8d781c	-0.017269187
35	0x3e67edda	0.22649327
36	0x3aab0471	0.0013047588
37	0xbcc25575	-0.02372239
38	0xbdadd516	-0.084879085
39	0x3d7ae8ed	0.06125729
40	0xbca3d8ec	-0.020000897
41	0xbcca0fcb	-0.024665734
42	0x3dfd07e7	0.12355023
43	0x3c88513d	0.0166403
44	0xbd30efa8	-0.043197304
45	0x3cf84a60	0.030308902
46	0x3d11c470	0.035587728
47	0xbcda38c7	-0.026638402
48	0xbc02240c	-0.007943165
49	0xbb0544fe	-0.0020335312
50	0xbc7c7800	-0.01540947
51	0xbc7d63ac	-0.015465658
52	0x3d735d18	0.059414953
53	0x3b3c629c	0.00287453
54	0x393989a3	0.00017694249
55	0x3a847de0	0.0010108314
56	0x3ca836bc	0.020533912
57	0xbccd752a	-0.025080282
58	0xbcbb3ec2	-0.022857074
59	0xbdc1136b	-0.09427532
60	0xbcd7cc3b	-0.026342502
61	0x3cb44508	0.022005573
62	0xbccc5833	-0.0249444
63	0xbd113a03	-0.035455715
