RL/CC2-Cardiff-implementation/GT-Cardiff-CC2/Models/PPOxCCE-C4/1000.pth (torch, 78850 bytes, 11 tensors)

actor.0.weight f4 [64, 62]
-0.0009508271 0.0681284 -0.10452683 -0.093464345 0.15542428 0.11049736 -0.108586706 0.0952991
0.07649497 0.016181596 0.011531494 0.011128914 -0.19169866 -0.15300672 -0.072708234 -0.06958459
0.05020762 0.076202966 -0.086098604 -0.055303834 0.04612862 0.10545937 -0.026136648 0.09503569
-0.020470306 0.013438404 0.11499559 -0.11781425 -0.18102445 -0.164292 -0.084328264 0.094912834
-0.082318895 -0.058462333 -0.08872742 -0.11894336 -0.12855282 0.054751344 0.080721974 0.1340703
0.077691235 -0.13874683 0.094994135 -0.12032279 -0.09265471 -0.08475 0.18062456 0.18959479
-0.048565313 -0.05563922 0.11225836 0.23552428 0.050404087 0.07210675 0.19606908 -0.13401042
0.012995999 -0.09846389 -0.005582663 0.05862192 0.04335291 0.113560684 -0.07522884 0.03836764
0.069719516 -0.01602962 0.092390165 -0.008390436 0.023794748 0.086182244 -0.05189384 -0.005031703
0.14660466 0.3230826 0.069374695 0.017197086 -0.012788938 -0.09351663 0.011683059 -0.079451956
-0.11835829 0.112838656 0.09656578 -0.12668617 0.023770874 -0.021394443 -0.020899286 -0.058135178
0.048838682 -0.07522262 0.04398167 -0.0025101497 -0.0534807 0.032542773 -0.1256965 -0.08238459
0.06341307 0.026581297 -0.23658392 -0.1397122 0.09198769 0.13283676 -0.06518263 -0.12556675
-0.08205044 0.06759892 -0.10563257 -0.1282472 -0.030683093 -0.038340896 -0.06281313 -0.0060129296
-0.17393105 0.107707076 0.08703317 -0.14795858 0.050115034 -0.06114152 -0.040521495 0.030121163
0.07384204 0.029400991 -0.15430802 0.07939908 -0.12182473 -0.07527382 -0.03179192 -0.061863456
-0.15674272 -0.09754349 -0.085451104 -0.087795 -0.14880772 -0.018469807 0.07483478 0.09005123
-0.07331437 -0.039488804 0.13765876 0.18272562 0.12030038 0.08065218 0.12057564 -0.009184859
-0.11408694 -0.060207866 0.086475044 -0.000823276 -0.06312495 -0.09732169 -0.11885332 -0.10718915
0.019223588 0.14565665 0.0229921 -0.12855102 0.0792204 -0.099378794 -0.026849132 -0.051495075
-0.034380525 -0.01911308 -0.14448877 -0.029320154 -0.018196737 -0.04601922 -0.055151977 0.16580455
-0.09535603 0.098907486 0.063561834 -0.035140846 0.23867835 0.11759575 -0.15005566 0.026133362
-0.014655112 -0.21278341 0.15717085 -0.119759105 0.003661624 -0.026589852 0.16676465 0.010549437
0.0011789042 -0.037267108 -0.030540317 -0.026708819 -0.10465844 0.06881427 0.12946397 0.0025830655
-0.06587615 -0.0113094915 -0.024266236 0.0803511 -0.16430973 -0.08700022 -0.17241667 -0.10351092
0.057291232 0.10703721 -0.09600194 -0.08718714 -0.07374409 0.08889163 -0.0456521 0.10712317
0.045924205 0.01608152 -0.00094539195 -0.02510558 0.015934242 -0.028999802 0.0023850729 -0.0565732
-0.061714638 -0.068627976 0.10255168 -0.10306653 -0.009119395 0.12563345 0.0016836514 -0.0066151232
-0.0333793 0.029803317 -0.12614243 -0.07173348 -0.036278326 -0.012714959 0.19479243 0.36245206
0.08416831 0.29194644 0.03458904 -0.13025314 -0.058557365 -0.10593156 -0.053825844 0.1255461
-0.011048112 0.074625164 -0.0138047915 0.00020330961 -0.032885816 -0.11306682 0.296907 -0.22007577
0.0017503793 -0.02159215 -0.06688753 0.016785737 0.24428408 -0.022505492 0.011836665 0.014654601
00000000: ed40 79ba e786 8b3d 2a12 d6bd 3c6a bfbd
00000010: 8b27 1f3e 714c e23d b562 debd 2d2c c33d
00000020: 65a9 9c3d 448f 843c 97ee 3c3c 0c56 363c
00000030: a74c 44be cbad 1cbe 0ee8 94bd 5e82 8ebd
00000040: 81a6 4d3d 4d10 9c3d 7754 b0bd 4686 62bd
00000050: 5df1 3c3d 15fb d73d 861c d6bc 12a2 c23d
00000060: 58b1 a7bc c02c 5c3c cf82 eb3d 9948 f1bd
00000070: 795e 39be 293c 28be 4cb4 acbd a961 c23d
00000080: cf96 a8bd 3376 6fbd b9b6 b5bd 9498 f3bd
00000090: 5aa3 03be f242 603d 9051 a53d ba49 093e
000000a0: 951c 9f3d a613 0ebe 498c c23d cc6b f6bd
000000b0: c1c1 bdbd 6891 adbd a5f5 383e 2325 423e
000000c0: 6cec 46bd f3e5 63bd b6e7 e53d 472d 713e
000000d0: 8474 4e3d b4ac 933d 55c6 483e 073a 09be
000000e0: 2ced 543c 70a7 c9bd c6ee b6bb 8a1d 703d
000000f0: d292 313d 8192 e83d 9411 9abd 6327 1d3d
00000100: 1bc9 8e3d 8d50 83bc 0e37 bd3d 0a78 09bc
00000110: 34ed c23c 5180 b03d a38e 54bd fce0 a4bb
00000120: 881f 163e 156b a53e 5214 8e3d e7e0 8c3c
00000130: b288 51bc a685 bfbd 4d6a 3f3c b5b7 a2bd
00000140: d565 f2bd f417 e73d 48c4 c53d 05ba 01be
00000150: 23bb c23c 6643 afbc fb34 abbc 271f 6ebd
00000160: 120b 483d 510e 9abd 2026 343d 5381 24bb
00000170: 940e 5bbd 924b 053d 95b6 00be 40b9 a8bd
00000180: b6de 813d 05c1 d93c 0e43 72be b710 0fbe
00000190: 0b64 bc3d 5c06 083e 797e 85bd 9294 00be
000001a0: 100a a8bd 4d71 8a3d e455 d8bd 3c53 03be
000001b0: 1c5b fbbc 580b 1dbd 2ca4 80bd 1c08 c5bb
000001c0: fb1a 32be 8795 dc3d 723e b23d 7482 17be
000001d0: 6c45 4d3d 886f 7abd def9 25bd a8c0 f63c
000001e0: 7f3a 973d 59da f03c ec02 1ebe fc9b a23d
000001f0: 3e7f f9bd 2929 9abd 3f38 02bd 8964 7dbd
00000200: 2a81 20be e2c4 c7bd fd00 afbd ddcd b3bd
00000210: 0d61 18be fe4d 97bc fa42 993d c76c b83d
00000220: d825 96bd 03bf 21bd 6bf6 0c3e 6d1c 3b3e
00000230: 0c60 f63d f82c a53d 5cf0 f63d 177c 16bc
00000240: 6aa6 e9bd 869c 76bd d419 b13d 1ed1 57ba
00000250: a747 81bd 9850 c7bd 5f69 f3bd fc85 dbbd
00000260: c97a 9d3c 0427 153e ee59 bc3c e1a2 03be
00000270: 4e3e a23d 1c87 cbbd b6f2 dbbc 80ec 52bd
00000280: 98d2 0cbd 0993 9cbc ddf4 13be d230 f0bc
00000290: 5311 95bc a67e 3cbd 0ae7 61bd abc8 293e
000002a0: 064a c3bd 0290 ca3d b52c 823d d9ef 0fbd
000002b0: 1968 743e 0ad6 f03d 31a8 19be a215 d63c
000002c0: ff1b 70bc e5e3 59be 65f1 203e 4344 f5bd
000002d0: dbf7 6f3b f6d2 d9bc 5ac4 2a3e 8cd7 2c3c
000002e0: 7685 9a3a 65a5 18bd b02f fabc 74cc dabc
000002f0: 2a57 d6bd 7fee 8c3d 3492 043e a648 293b
00000300: 13ea 86bd 724b 39bc fcc9 c6bc 1e8f a43d
00000310: cf40 28be 2c2d b2bd ff8d 30be 89fd d3bd
00000320: 36aa 6a3d 5336 db3d aa9c c4bd 2c8f b2bd
00000330: 2407 97bd d10c b63d b2fd 3abd 6463 db3d
00000340: 051b 3c3d 64bd 833c 2ed4 77ba 38aa cdbc
00000350: 8788 823c fe90 edbc e24e 1c3b 4db9 67bd
00000360: 7dc8 7cbd d38c 8cbd 9d06 d23d 8b14 d3bd
00000370: 8469 15bc 0ea6 003e f7ad dc3a adc3 d8bb
00000380: bcb8 08bd 1626 f43c 7b2b 01be 01e9 92bd
00000390: 9598 14bd 6752 50bc ab77 473e 5193 b93e
000003a0: 6f60 ac3d 017a 953e 3dad 0d3d 1461 05be
000003b0: d9d9 6fbd a5f2 d8bd 7d78 5cbd 288f 003e
000003c0: 2403 35bc 14d5 983d 7e2d 62bc 822f 5539
000003d0: 47b3 06bd 948f e7bd 3204 983e 8b5b 61be
000003e0: fc6c e53a 05e2 b0bc 54fc 88bd 3e82 893c
000003f0: 9b25 7a3e 705d b8bc 92ee 413c da19 703c

actor.0.bias f4 [64]
0.021724712 0.05082786 -0.016923212 0.020873258 -0.057411343 -0.0684407 0.18502371 -0.030178227
0.06132501 -0.0891022 -0.054816965 -0.10234638 -0.053483143 0.07869831 0.022382032 0.19885732
-0.16256206 0.078081556 -0.13678227 -0.012091699 -0.0832979 -0.046900727 0.028411744 -0.14902516
0.037761547 0.039149012 0.094000466 0.050517455 0.06647747 -0.05405275 -0.0057151066 0.095393464
0.055040654 -0.004206758 0.12414374 -0.11705247 0.16261734 0.08787347 -0.01583332 -0.07979631
0.24853757 0.11425541 0.019322237 0.06248352 0.090940766 0.08856724 -0.015301102 0.055462606
0.10133559 0.08022133 0.03983132 -0.14389086 0.010174919 0.08310528 0.13453352 -0.0074503645
0.09190898 -0.03828666 -0.10651213 0.12435746 0.0007308525 -0.15023145 0.0069715087 0.016523851
00000000: 06f8 b13c e030 503d 8ca2 8abc 65fe aa3c
00000010: 2828 6bbd a32a 8cbd db76 3d3e 5438 f7bc
00000020: ef2f 7b3d 377b b6bd c187 60bd fb9a d1bd
00000030: 2411 5bbd 942c a13d 865a b73c 41a1 4b3e
00000040: ab76 26be 39e9 9f3d a710 0cbe 431c 46bc
00000050: 1798 aabd fa1a 40bd bfbf e83c 0d9a 18be
00000060: daab 1a3d b75a 203d 5183 c03d 64eb 4e3d
00000070: 5725 883d 6b66 5dbd ca45 bbbb a65d c33d
00000080: 4f72 613d d8d8 89bb 133f fe3d 35b9 efbd
00000090: 2985 263e 01f7 b33d e1b4 81bc 3f6c a3bd
000000a0: a280 7e3e befe e93d ab49 9e3c b8ee 7f3d
000000b0: 273f ba3d be62 b53d 79b1 7abc c22c 633d
000000c0: 0989 cf3d 154b a43d 2b26 233d 2058 13be
000000d0: b4b4 263c 1a33 aa3d 28c3 093e 3022 f4bb
000000e0: c63a bc3d 79d2 1cbd 0823 dabd 20af fe3d
000000f0: ae96 3f3a 46d6 19be 4171 e43b 075d 873c

actor.2.weight f4 [64, 64]
-0.066379994 -0.13130736 0.08838457 -0.07591206 -0.002469424 0.08797691 -0.032911487 -0.08192675
-0.13803577 0.0043923724 -0.06272027 0.009115741 0.039927647 -0.051783383 0.08475609 -0.03333491
-0.04988587 -0.09973132 0.037925214 -0.07728188 0.026276067 -0.033283327 0.08590688 -0.07798684
-0.061577782 -0.03315367 -0.09360987 0.030462306 -0.05981414 0.034512363 0.05533239 0.06084955
-0.040068503 0.050448265 -0.084352955 -0.12454367 -0.029566446 -0.10283735 -0.09684101 0.03177452
0.094641455 -0.06286695 -0.023903798 -0.10982184 0.004565764 0.016873904 -0.031291008 0.07828065
-0.11751625 -0.03368113 -0.081482604 0.09370406 0.08840026 0.10688453 0.09760245 0.04950708
-0.095714316 -0.084789485 0.029965416 -0.12859665 0.06695112 0.054342836 0.012388808 -0.12606667
0.2422229 -0.053413175 -0.10918424 0.0915489 -0.001292558 -0.0710325 0.05262406 0.0980589
0.19612335 0.061610214 0.03885562 0.22158526 -0.09358115 -0.1474143 -0.1367632 -0.04408472
-0.07724695 0.1831405 0.032946553 0.09704838 -0.15174957 0.21006404 -0.09586787 0.06545308
0.02947509 -0.039114457 -0.12832098 0.1584858 -0.01837978 -0.03760022 -0.15658128 -0.050545108
-0.05042331 -0.05857032 0.023470446 -0.0015045321 0.020615324 -0.1332199 0.09326433 0.09243017
-0.055499986 -0.019773541 -0.000857566 -0.06687734 0.12165511 -0.07170129 0.10556168 -0.095991716
-0.02862324 0.20485534 -0.19237278 0.08509833 0.12246726 -0.0037249895 -0.03882286 0.12194967
0.10666273 0.06417101 0.07405397 0.19969496 0.02033251 -0.046529576 0.075332664 0.026205134
-0.28083754 0.06785804 0.00086393475 -0.022037549 0.09708968 0.06098816 -0.06707457 -0.34889153
-0.03004183 -0.06874209 -0.00028203015 -0.11736729 -0.010521529 0.1232325 0.018164346 -0.110009246
0.035233594 -0.009188991 0.12295495 0.021772204 0.037667826 -0.050758522 -0.18812884 -0.00072523544
-0.22726855 0.018068908 0.12180479 -0.057108216 0.15198645 -0.02584656 0.15646726 0.07898516
-0.053018276 0.056099582 -0.1812827 -0.12988071 -0.16167359 0.07482002 -0.09829601 -0.18574388
0.009361822 0.016956218 -0.044438258 0.030091668 -0.07529133 0.09507811 -0.024069853 0.028943975
0.007405872 -0.005292913 0.03344776 -0.0155877415 -0.13768382 -0.23722893 -0.15907556 -0.0075029656
-0.12771925 0.11806388 0.10748431 -0.089300066 -0.023852374 0.047913328 -0.064354695 -0.13358486
0.04718689 0.099854 0.1271258 0.025428183 -0.12108761 0.005450143 -0.12309085 0.017806152
0.10567202 0.106593974 -0.14996251 -0.049128097 -0.04784295 0.04190971 0.029832957 -0.053937346
-0.040829707 -0.0011160466 -0.03358402 0.06310568 -0.013935854 0.022821877 -0.0507757 0.007431352
0.01545337 0.08030194 0.018008698 -0.057306953 -0.10108324 -0.1399333 -0.049049057 -0.022726366
0.11031722 -0.06854703 0.07019397 0.08258475 -0.10539626 -0.18553202 -0.019112343 0.09232714
-0.04659121 0.017442431 -0.14135674 -0.024424704 0.027304452 -0.054780893 -0.03729071 0.014909735
-0.020209737 0.070182666 -0.15715492 -0.06838714 -0.15075329 -0.1351111 0.07480828 -0.07491549
-0.10062973 0.06378419 -0.11473706 0.01822016 0.08622382 0.008741527 0.05302321 0.017529197
00000000: 3cf2 87bd 7075 06be f802 b53d c877 9bbd
00000010: 0fd6 21bb 3d2d b43d 32ce 06bd 36c9 a7bd
00000020: 4059 0dbe e4ed 8f3b 7c73 80bd 305a 153c
00000030: 2c8b 233d d01a 54bd 9a94 ad3d 308a 08bd
00000040: 2055 4cbd ef3f ccbd 7857 1b3d f645 9ebd
00000050: e840 d73c 1954 08bd f2ef af3d 90b7 9fbd
00000060: fc38 7cbd 25cc 07bd 88b6 bfbd 168c f93c
00000070: acff 74bd d65c 0d3d 37a4 623d 613d 793d
00000080: df1e 24bd d7a2 4e3d 3ec1 acbd c010 ffbd
00000090: 5535 f2bc 639c d2bd 9454 c6bd 0026 023d
000000a0: 61d3 c13d 63c0 80bd e6d1 c3bc 46ea e0bd
000000b0: 689c 953b 243b 8a3c 002b 00bd 9b51 a03d
000000c0: 5cac f0bd 39f5 09bd 5ae0 a6bd eae7 bf3d
000000d0: 320b b53d 47e6 da3d cbe3 c73d f0c7 4a3d
000000e0: de05 c4bd 1ca6 adbd 087a f53c d7ae 03be
000000f0: ab1d 893d 9896 5e3d 6dfa 4a3c 9f17 01be
00000100: 4809 783e c6c7 5abd fd9b dfbd fd7d bb3d
00000110: 0d6b a9ba 7d79 91bd 548c 573d 1bd3 c83d
00000120: 8fd4 483e fe5a 7c3d 1227 1f3d 3fe7 623e
00000130: 79a7 bfbd c6f3 16be a70b 0cbe 2e92 34bd
00000140: a633 9ebd 2f89 3b3e f7f2 063d 4dc1 c63d
00000150: 3d64 1bbe 071b 573e 6056 c4bd 440c 863d
00000160: be75 f13c 7b36 20bd 9366 03be 1a4a 223e
00000170: 3191 96bc b002 1abd d856 20be 6308 4fbd
00000180: ac88 4ebd 6fe7 6fbd 1845 c03c b833 c5ba
00000190: 78e1 a83c cc6a 08be 5e01 bf3d 074c bd3d
000001a0: f453 63bd 1ffc a1bc 48ce 60ba fdf6 88bd
000001b0: 5026 f93d 20d8 92bd b930 d83d 4e97 c4bd
000001c0: 497b eabc 99c5 513e 5ffd 44be 0948 ae3d
000001d0: 1dd0 fa3d f41e 74bb b804 1fbd c0c0 f93d
000001e0: fd71 da3d 176c 833d 9ca9 973d d67c 4c3e
000001f0: 5d90 a63c cc95 3ebd 0348 9a3d 26ac d63c
00000200: f0c9 8fbe 28f9 8a3d ae79 623a 1788 b4bc
00000210: f4d6 c63d b9ce 793d 645e 89bd e9a1 b2be
00000220: 491a f6bc a7c8 8cbd 72dd 93b9 435e f0bd
00000230: 7e62 2cbc 5261 fc3d 65cd 943c 874c e1bd
00000240: 1a51 103d 6c8d 16bc cecf fb3d 9f5b b23c
00000250: 9449 1a3d 2be8 4fbd d9a4 40be ba1d 3eba
00000260: 16b9 68be 3f05 943c ca74 f93d 4eea 69bd
00000270: 56a2 1b3e 2abc d3bc f438 203e f9c2 a13d
00000280: b129 59bd adc8 653d 2ca2 39be 73ff 04be
00000290: c38d 25be 3d3b 993d 6b4f c9bd a533 3ebe
000002a0: 5462 193c c4e7 8a3c e404 36bd cd82 f63c
000002b0: 5732 9abd 50b8 c23d 242e c5bc ea1b ed3c
000002c0: f5ac f23b 2c70 adbb 8500 093d ba63 7fbc
000002d0: fdfc 0cbe 24ec 72be b4e4 22be 70db f5bb
000002e0: d6c8 02be 7acb f13d bc20 dc3d f4e2 b6bd
000002f0: 0e66 c3bc c440 443d 65cc 83bd 78ca 08be
00000300: 0a47 413d 4180 cc3d 442d 023e c44e d03c
00000310: c8fc f7bd 1d97 b23b 0e17 fcbd 35de 913c
00000320: 926a d83d f14d da3d c68f 19be 8b3a 49bd
00000330: f8f6 43bd 84a9 2b3d 3f64 f43c 68ed 5cbd
00000340: 0d3d 27bd 4f48 92ba 668f 09bd 8d3d 813d
00000350: 3553 64bc f2f4 ba3c 2efa 4fbd b382 f33b
00000360: 2230 7d3c 5875 a43d fa86 933c b2ba 6abd
00000370: bb04 cfbd ad4a 0fbe aae7 48bd a52c babc
00000380: ffed e13d 6362 8cbd dbc1 8f3d 3222 a93d
00000390: ffd9 d7bd 1bfc 3dbe 7d91 9cbc 0316 bd3d
000003a0: 6dd6 3ebd 6ee3 8e3c d2bf 10be 5116 c8bc
000003b0: 96ad df3c ee61 60bd 25be 18bd f647 743c
000003c0: e48e a5bc eebb 8f3d 38ed 20be 8f0e 8cbd
000003d0: 125f 1abe 905a 0abe 1535 993d 4b6d 99bd
000003e0: f616 cebd 49a1 823d 44fb eabd 7242 953c
000003f0: 1d96 b03d 9f38 0f3c de2e 593d 6499 8f3c

actor.2.bias f4 [64]
-0.063779205 0.05145827 0.0029753656 -0.1443463 0.091929704 0.13428727 -0.12600406 0.10370445
-0.07996292 0.100392744 0.011981104 0.09450197 -0.05279764 -0.08314807 0.063828595 0.05608069
-0.09334199 0.13979426 0.054978035 0.07595379 -0.066477835 0.010327033 0.048388373 0.11056884
0.14567114 0.046421297 0.08066722 -0.030860845 -0.08460955 0.049632754 0.037787195 0.06420252
-0.038752876 0.08609319 0.01841281 0.11824638 0.027983287 0.07097619 0.092726 0.0056220274
0.14089921 -0.13601844 0.017445639 -0.080236934 0.036409784 -0.04915515 -0.123952255 -0.04159294
-0.02925307 0.1566704 0.020555362 -0.06005508 -0.054770336 0.041878875 -0.040457133 0.05115142
-0.045030262 0.11841636 -0.016088217 0.018808374 -0.0780154 0.0713421 0.0076827197 -0.019148657
00000000: ac9e 82bd e8c5 523d 5afe 423b 84cf 13be
00000010: a445 bc3d 9a82 093e 3507 01be 0063 d43d
00000020: 99c3 a3bd b69a cd3d 644c 443c 408a c13d
00000030: 5742 58bd 8949 aabd 91b8 823d deb4 653d
00000040: 162a bfbd 3a26 0f3e a630 613d a98d 9b3d
00000050: 8825 88bd b732 293c e332 463d ea71 e23d
00000060: d12a 153e 4224 3e3d db34 a53d e2cf fcbc
00000070: c647 adbd b74b 4b3d bfc6 1a3d 9c7c 833d
00000080: 56bb 1ebd a051 b03d 76d6 963c 282b f23d
00000090: 353d e53c f75b 913d 21e7 bd3d fc38 b83b
000000a0: e247 103e 6b48 0bbe 28ea 8e3c 4353 a4bd
000000b0: 6d22 153d e956 49bd aeda fdbd 5c5d 2abd
000000c0: 22a4 efbc 356e 203e b863 a83c 51fc 75bd
000000d0: dc56 60bd 2f89 2b3d 61b6 25bd 2784 513d
000000e0: a771 38bd 4784 f23d 70cb 83bc 0514 9a3c
000000f0: 8ac6 9fbd cf1b 923d 53bf fb3b a5dd 9cbc

actor.4.weight f4 [36, 64]
0.012275128 -0.015636286 -0.017817428 -0.07088204 -0.0065595107 -0.16226444 0.07220419 0.22298272
-0.051289123 0.006939697 -0.1648996 0.01143143 -0.06606825 -0.052189156 -0.07522392 -0.15695159
0.032791596 -0.09837492 0.055509925 0.1889209 -0.008783389 -0.11554928 -0.12246497 -0.04280147
-0.13709764 -0.005672909 0.059012562 0.11667574 -0.15511134 -0.123735525 0.0764359 0.08539259
-0.044389594 -0.18038584 -0.07232292 -0.18640682 -0.019265892 -0.018183168 -0.02444022 0.027552964
-0.14537095 0.020822965 -0.13726047 -0.10376457 -0.11615405 0.0701046 -0.05944867 0.031172626
0.04373644 0.051027697 -0.082569264 -0.1676161 -0.03418188 -0.15285185 0.040417556 0.03132336
-0.024410272 -0.14415799 -0.13520503 -0.11153064 0.0926855 -0.0687345 0.010376814 -0.041130733
-0.08694354 0.04669421 0.20942636 -0.037426624 -0.023865275 0.05096826 0.04548572 -0.03610089
-0.036456026 0.09581593 0.07511862 0.12822887 0.13255294 -0.1192237 0.15141556 0.045535874
-0.09953251 0.14478378 -0.12058485 -0.034960434 0.12558842 0.065264806 0.03267843 -0.22405604
-0.121958844 0.06528146 -0.014054885 0.093492575 0.17597981 -0.048731588 -0.07570747 -0.038609304
-0.09175403 -0.16221598 0.2461002 -0.14517382 0.184184 0.07691175 0.20271577 -0.096107006
0.1336705 -0.025952304 -0.071442574 0.03235008 0.08896958 0.12614532 -0.024119359 0.044695903
0.019507298 0.11477966 0.008008354 -0.061762832 0.14092343 0.003333931 0.18107952 0.015505961
0.024582438 0.08878635 -0.04397109 0.10853163 0.008763757 0.10826111 0.13426776 0.028940754
0.10969667 0.04032875 0.26489583 -0.062500075 -0.05834588 0.22783768 0.092692144 -0.08673758
0.04013993 0.012217647 0.15355362 0.18240109 0.20225161 0.008063804 0.022355232 -0.003563214
-0.014119386 0.06863322 0.20075391 0.07944383 0.2329683 0.025686864 0.027311081 -0.10048533
-0.016912444 0.11189339 0.0018244466 0.14955701 0.13936059 -0.0050847237 0.1696394 -0.05292666
0.038390044 -0.06381576 0.22677329 0.07559414 0.21202189 0.038225867 0.14724907 0.1631386
0.19445577 -0.012329166 -0.07177785 0.024818541 -0.094976254 0.027766008 0.16273808 0.06372455
0.14846171 0.2290628 -0.108826675 0.11251254 0.1608094 -0.08195971 -0.032683346 0.24106055
-0.05270768 -0.100722715 -0.10254468 -0.0042292895 -0.06393759 0.17179027 0.010905623 -0.094675355
0.10809169 0.08990952 -0.007745202 0.06520121 0.14338653 0.03532276 0.11176641 0.15714073
-0.061633356 0.21502621 0.13466467 0.085271694 0.15200156 -0.036754854 0.15444736 0.13622253
-0.04301306 0.052296866 -0.012262511 0.073756844 -0.03962646 0.13904563 0.008246868 0.27207294
0.05658356 -0.054556675 -0.052858267 0.05554211 0.1307181 0.16915146 0.21488537 -0.054786522
0.27430272 0.17551252 -0.012786549 -0.027479257 -0.035645228 0.091933176 0.09279272 -0.057597347
0.07512996 0.10219611 0.1043625 -0.07157732 -0.04312138 0.060370132 0.107661285 -0.050584584
-0.07630093 0.14571719 0.0016885372 -0.07905568 0.1986367 0.2015573 0.11592105 0.07203349
0.12200591 0.09398083 -0.0116697885 0.03758074 -0.09127849 0.18570183 -0.050857827 0.0003091275
00000000: 9e1d 493c ab17 80bc dbf5 91bc 9a2a 91bd
00000010: 2af1 d6bb a628 26be cadf 933d 9555 643e
00000020: 8b14 52bd 6666 e33b 71db 28be e44a 3b3c
00000030: ca4e 87bd 4cc4 55bd 000f 9abd ebb7 20be
00000040: 7b50 063d ca78 c9bd 605e 633d 7b74 413e
00000050: 34e8 0fbc 1aa5 ecbd eace fabd 9850 2fbd
00000060: 5363 0cbe cfe3 b9bb 28b7 713d b1f3 ee3d
00000070: 82d5 1ebe 0d69 fdbd 6d8a 9c3d 4fe2 ae3d
00000080: ddd1 35bd 11b7 38be 0a1e 94bd 6ee1 3ebe
00000090: 81d3 9dbc def4 94bc db36 c8bc c1b6 e13c
000000a0: 1fdc 14be ec94 aa3c 028e 0cbe 8582 d4bd
000000b0: 2de2 edbd 0093 8f3d 7380 73bd bc5d ff3c
000000c0: fb24 333d 6b02 513d 131a a9bd 8ea3 2bbe
000000d0: 4d02 0cbd 3285 1cbe e18c 253d ec4c 003d
000000e0: 0df8 c7bc 279e 13be 3073 0abe 2d6a e4bd
000000f0: e5d1 bd3d acc4 8cbd 8303 2a3c b378 28bd
00000100: 740f b2bd 6e42 3f3d dd73 563e a94c 19bd
00000110: 1c81 c3bc 18c4 503d 3c4f 3a3d 87de 13bd
00000120: ea52 15bd 243b c43d cbd7 993d 6e4e 033e
00000130: f5bb 073e 8e2b f4bd ae0c 1b3e d383 3a3d
00000140: b3d7 cbbd 3342 143e 31f5 f6bd ac32 0fbd
00000150: 409a 003e 8ea9 853d d1d9 053d f26e 65be
00000160: 8fc5 f9bd 49b2 853d 7646 66bc 0979 bf3d
00000170: 0d34 343e c69a 47bd 850c 9bbd ca24 1ebd
00000180: 89e9 bbbd f21b 26be b101 7c3e 72a8 14be
00000190: bb9a 3c3e e883 9d3d b994 4f3e c0d3 c4bd
000001a0: ebe0 083e ed99 d4bc 7c50 92bd 8481 043d
000001b0: af35 b63d 3d2c 013e f695 c5bc 0d13 373d
000001c0: c5cd 9f3c 9911 eb3d 7935 033c 06fb 7cbd
000001d0: 3b4e 103e 157e 5a3b e96c 393e b70c 7e3c
000001e0: 1c61 c93c 9ed5 b53d 081b 34bd d545 de3d
000001f0: dc95 0f3c 00b8 dd3d 7d7d 093e 2915 ed3c
00000200: a6a8 e03d c22f 253d 6da0 873e 0a00 80bd
00000210: 17fc 6ebd 484e 693e 61d5 bd3d 79a3 b1bd
00000220: c469 243d 872c 483c 293d 1d3e 5ac7 3a3e
00000230: 0c1b 4f3e 0c1e 043c 5222 b73c d084 69bb
00000240: ff54 67bc 938f 8c3d 6f92 4d3e 72b3 a23d
00000250: 3e8f 6e3e 426d d23c 7dbb df3c 41cb cdbd
00000260: f78b 8abc 5d28 e53d 4522 ef3a 7925 193e
00000270: 8bb4 0e3e c19d a6bb f3b5 2d3e a0c9 58bd
00000280: e13e 1d3d d6b1 82bd 4237 683e 1ad1 9a3d
00000290: 441c 593e ba92 1c3d 76c8 163e ce0d 273e
000002a0: 6a1f 473e 4500 4abc 4400 93bd 4150 cb3c
000002b0: e982 c2bd 8a75 e33c d0a4 263e 0482 823d
000002c0: 5906 183e 708f 6a3e 85e0 debd f96c e63d
000002d0: 38ab 243e 7eda a7bd f9de 05bd 94d8 763e
000002e0: 02e4 57bd b647 cebd f202 d2bd da95 8abb
000002f0: b6f1 82bd cae9 2f3e 80ad 323c 27e5 c1bd
00000300: 2d5f dd3d 7b22 b83d 77cb fdbb 3688 853d
00000310: ebd3 123e 99ae 103d cae5 e43d 80e9 203e
00000320: 4273 7cbd d52f 5c3e 89e5 093e eda2 ae3d
00000330: 4ca6 1b3e 428c 16bd 7327 1e3e eb7d 0b3e
00000340: 762e 30bd 3d35 563d b3e8 48bc d40d 973d
00000350: 5b4f 22bd fa61 0e3e df1d 073c 254d 8b3e
00000360: 2ac4 673d d276 5fbd e981 58bd 2080 633d
00000370: f7da 053e 0a36 2d3e e90a 5c3e d567 60bd
00000380: 6871 8c3e 8eb9 333e ac7e 51bc 2e1c e1bc
00000390: bb00 12bd 7647 bc3d 1c0a be3d 32eb 6bbd
000003a0: bddd 993d 324c d13d 02bc d53d 2197 92bd
000003b0: 0ba0 30bd ac46 773d 857d dc3d c831 4fbd
000003c0: a943 9cbd e336 153e e851 dd3a f2e7 a1bd
000003d0: 6b67 4b3e 0965 4e3e 0468 ed3d 4b86 933d
000003e0: 3cde f93d 0579 c03d a432 3fbc 43ee 193d
000003f0: 38f0 babd 9f28 3e3e 4c50 50bd 6412 a239

actor.4.bias f4 [36]
-0.11748195 0.09160834 -0.0057520773 0.01691208 0.0770347 -0.16403067 0.050495077 0.036211215
-0.0005992674 -0.054802723 0.021257319 -0.057852957 -0.03317393 0.14725658 0.07502974 0.05465265
-0.11410831 -0.14261647 -0.037856616 0.043459777 -0.14573786 -0.02395024 -0.06179718 -0.07577197
0.15080273 -0.0434608 0.16227083 -0.020010566 -0.098026484 -0.00027605848 -0.03652142 -0.041949064
-0.02925379 0.107963525 0.12410028 0.20922019
00000000: 609a f0bd 279d bb3d ec7b bcbb 348b 8a3c
00000010: 5ec4 9d3d a8f7 27be edd3 4e3d 3652 143d
00000020: 2818 1dba d278 60bd d423 ae3c 39f7 6cbd
00000030: 63e1 07bd 6eca 163e 31a9 993d 75db 5f3d
00000040: 9eb1 e9bd 0d0a 12be 8a0f 1bbd e102 323d
00000050: 4e3c 15be 4b33 c4bc 0a1f 7dbd 562e 9bbd
00000060: 086c 1a3e f403 32bd 532a 263e 33ed a3bc
00000070: 1cc2 c8bd f1bb 90b9 7c97 15bd c8d2 2bbd
00000080: a5a5 efbc fb1b dd3d 4a28 fe3d d13d 563e

critic.0.weight f4 [64, 62]
0.07635647 0.08354457 -0.083908446 0.009482246 -0.054377854 -0.025909588 -0.0020394973 0.021263644
-0.07507219 -0.020640172 -0.05863286 -0.034722958 -0.06265787 -0.066341564 -0.11205902 -0.06412924
-0.008365868 -0.107972465 -0.12109008 0.089093745 -0.09144983 0.08891198 0.0087930765 -0.018583413
0.09826457 -0.09916525 0.060841322 0.084765814 0.118244305 -0.15046524 0.014060573 -0.030952185
-0.09423055 0.08673783 -0.022362862 0.0858983 -0.068384334 -0.056324437 0.047750417 0.016227495
0.072785884 0.054177675 0.09640863 -0.093616925 -0.008092789 0.05753926 -0.046101417 -0.080109216
0.09673976 -0.13439585 -0.105300464 -0.11434255 0.03142459 0.0058353916 -0.11672346 0.05116326
0.027243013 0.043020763 -0.12431466 -0.12137936 -0.14110288 -0.059645575 -0.1128423 0.06433067
-0.017239168 -0.050084185 0.08036051 0.19753078 0.023596324 0.019723533 -0.016392251 -0.13978904
-0.0077985325 0.24650031 -0.16550338 -0.0017064399 0.045793794 0.040922787 0.10398414 0.10897633
0.06814908 -0.006805929 -0.032562602 -0.12126438 0.066823736 -0.028784275 0.019905403 -0.028680766
0.08202378 0.0040353225 0.07004328 0.055748064 0.04324873 -0.08295976 0.05880494 -0.07486796
0.08931295 0.098380856 0.03772574 -0.03720681 0.011388993 0.14324194 -0.007475262 -0.056744304
-0.010054355 -0.09026168 -0.04515199 -0.115785785 0.0036941844 -0.027018653 0.13602434 -0.025774881
-0.02363273 -0.0038845658 -0.046657264 -0.091650724 -0.06364064 -0.15494719 -0.051084045 0.04889541
0.035513457 0.07277964 -0.0324996 0.033450115 -0.10513134 0.07965675 0.105171435 0.048618447
-0.091828704 -0.08762188 -0.15716425 -0.10362393 0.15668282 0.09873653 0.09396599 0.10392392
-0.07887598 0.023879332 -0.025960945 -0.13688111 -0.019912245 -0.07501419 0.11838697 -0.10327836
0.11854204 -0.02147506 0.022991564 0.1105881 -0.05876423 -0.04705589 0.052543417 -0.032175787
-0.034295343 0.030796457 -0.012886523 0.06722932 -0.055639885 0.051634572 0.012293336 -0.097683206
-0.05228758 0.010454001 -0.070801824 0.15402652 -0.13150956 0.024430983 -0.06270073 -0.08867484
0.09187305 -0.061737206 -0.03107527 -0.090365514 -0.11453736 0.086666405 -0.103791066 0.068865895
0.06040179 0.044977963 0.07792309 -0.04989245 -0.12730485 -0.007129992 -0.016810765 0.06566942
0.03563154 -0.0078173475 -0.11501763 -0.11673309 -0.10628424 0.08884689 -0.0428756 -0.010251826
-0.068966135 0.27191547 -0.037230685 -0.17528015 0.015024341 0.083093435 0.048299253 0.023550835
-0.046761114 0.027245486 -0.037932936 -0.07882174 -0.08388044 0.08991102 0.021075178 0.041679714
-0.092292465 0.023545597 0.11313734 0.06955967 -0.0055553075 -0.05846521 0.21075086 0.034128252
0.03239884 0.016228512 -0.03601746 -0.0050054374 -0.029890707 -0.07533561 -0.0011227456 0.011061505
-0.12878086 0.07770555 -0.035403244 -0.11209465 0.016196199 0.004689464 -0.048672657 -0.1430164
0.081692435 0.08305563 -0.13473248 -0.16089414 0.056053247 -0.027910605 0.08939693 -0.030728826
-0.13979365 0.003212508 -0.06160235 -0.01956514 -0.024383212 -0.045758713 0.099423006 -0.012820558
0.06834458 0.09007455 -0.1143471 -0.0821262 -0.095176294 0.08777681 0.16486084 0.21948054
00000000: c860 9c3d 6a19 ab3d 31d8 abbd 6c5b 1b3c
00000010: 50bb 5ebd 5840 d4bc 16a9 05bb 1831 ae3c
00000020: 73bf 99bd 9415 a9bc 0329 70bd a939 0ebd
00000030: c552 80bd 16de 87bd 337f e5bd 3156 83bd
00000040: fe10 09bc ab20 ddbd 13fe f7bd c876 b63d
00000050: 0c4a bbbd 7c17 b63d d610 103c 3e3c 98bc
00000060: ef3e c93d 2717 cbbd c034 793d b399 ad3d
00000070: 122a f23d 8f13 1abe 515e 663c 708f fdbc
00000080: f2fb c0bd 9aa3 b13d 5232 b7bc 73eb af3d
00000090: 160d 8cbd 74b4 66bd f195 433d 86ef 843c
000000a0: c410 953d 69e9 5d3d e371 c53d 3bba bfbd
000000b0: 9e97 04bc 49ae 6b3d d7d4 3cbd 4d10 a4bd
000000c0: 7f1f c63d 119f 09be c5a7 d7bd 6d2c eabd
000000d0: 12b7 003d d036 bf3b b60c efbd 9190 513d
000000e0: bd2c df3c 8a36 303d af98 febd be95 f8bd
000000f0: 467d 10be eb4e 74bd dd19 e7bd ccbf 833d
00000100: 2839 8dbc 1325 4dbd 0d94 a43d 8245 4a3e
00000110: 144d c13c 3f93 a13c 0b49 86bc dc24 0fbe
00000120: d58a ffbb 946a 7c3e b879 29be 9faa dfba
00000130: 4692 3b3d a79e 273d a3f5 d43d fb2e df3d
00000140: bf91 8b3d 4504 dfbb 5d60 05bd 7659 f8bd
00000150: e2da 883d 00cd ebbc a810 a33c edf3 eabc
00000160: 15fc a73d bd3a 843b da72 8f3d 1558 643d
00000170: 9525 313d cfe6 a9bd 73dd 703d 5f54 99bd
00000180: b5e9 b63d e77b c93d 4e86 1a3d 2b66 18bd
00000190: e698 3a3c 04ae 123e 0bf3 f4bb b76c 68bd
000001a0: 05bb 24bc 1edb b8bd 4bf1 38bd 1921 edbd
000001b0: 211a 723b 3956 ddbc f749 0b3e d825 d3bc
000001c0: 6d99 c1bc 3394 7ebb b01b 3fbd 60b3 bbbd
000001d0: 0656 82bd 7aaa 1ebe 813d 51bd 8e46 483d
000001e0: 8f76 113d 7e0d 953d 4d1e 05bd fd02 093d
000001f0: 1a4f d7bd 1423 a33d 1f64 d73d 2324 473d
00000200: b010 bcbd 1a73 b3bd aaef 20be c838 d4bd
00000210: 7671 203e 6136 ca3d 3e71 c03d 10d6 d43d
00000220: bb89 a1bd 979e c33c 0cac d4bc 902a 0cbe
00000230: 011f a3bc 0aa1 99bd de74 f23d 9b83 d3bd
00000240: 2bc6 f23d 77ec afbc ce58 bc3c 047c e23d
00000250: c3b2 70bd adbd 40bd c437 573d c2ca 03bd
00000260: 4679 0cbd da48 fc3c ff21 53bc 87af 893d
00000270: a6e6 63bd c67e 533d fd69 493c 220e c8bd
00000280: 802b 56bd 4247 2b3c 8c00 91bd 21b9 1d3e
00000290: 71aa 06be 7c23 c83c 3e69 80bd 289b b5bd
000002a0: f027 bc3d 27e0 7cbd 9191 febc 8e11 b9bd
000002b0: 9092 eabd 287e b13d 6990 d4bd 9009 8d3d
000002c0: de67 773d d03a 383d 2496 9f3d 075c 4cbd
000002d0: 345c 02be b5a2 e9bb bbb6 89bc b07d 863d
000002e0: 61f2 113d 5514 00bc 5d8e ebbd c211 efbd
000002f0: 8dab d9bd 5cf5 b53d 539e 2fbd 46f7 27bc
00000300: 1e3e 8dbd 8138 8b3e 347f 18bd a47c 33be
00000310: a728 763c e42c aa3d 70d5 453d aeed c03c
00000320: 9588 3fbd ed31 df3c 915f 1bbd 4b6d a1bd
00000330: 82c9 abbd 4523 b83d daa5 ac3c 59b8 2a3d
00000340: d503 bdbd b2e2 c03c 8db4 e73d 4d75 8e3d
00000350: 4c09 b6bb 3779 6fbd 13cf 573e 11ca 0b3d
00000360: a5b4 043d a8f1 843c 0b87 13bd a704 a4bb
00000370: 5bdd f4bc 8e49 9abd 1729 93ba 513b 353c
00000380: 21df 03be 1624 9f3d fe02 11bd e191 e5bd
00000390: e4ad 843c 13aa 993b fb5c 47bd e472 12be
000003a0: 5d4e a73d 1219 aa3d 50f7 09be 6fc1 24be
000003b0: 1798 653d c8a4 e4bc bd15 b73d 05bb fbbc
000003c0: 1126 0fbe f188 523b bf52 7cbd 1347 a0bc
000003d0: 4dbf c7bc 7d6d 3bbd 4a9e cb3d 510d 52bc
000003e0: 3ef8 8b3d 0179 b83d d02e eabd c831 a8bd
000003f0: caeb c2bd 54c4 b33d 48d1 283e 82bf 603e

critic.0.bias f4 [64]
-0.14547032 -0.0074823704 -0.07448685 -0.044366106 -0.031387657 -0.017095184 -0.050367035 -0.123323806
-0.13334474 -0.03268196 -0.09019287 -0.010790011 -0.032272257 -0.11466865 -0.067080125 0.023207163
-0.122215465 -0.061545618 0.026965164 0.0620183 -0.054691486 -0.109330736 0.07657032 -0.032363784
0.05703726 -0.027175697 -0.07183171 0.012069701 0.07056253 -0.00990527 0.05259434 -0.08334792
-0.080505 -0.09939253 -0.014072999 0.076256424 -0.033365887 0.06816566 -0.007389081 0.032065034
-0.12801073 -0.06826974 -0.10820308 0.059464447 -0.14951217 -0.099285565 0.046887424 0.060509454
0.08360851 -0.023275448 0.014598196 0.00086365966 -0.028914867 -0.08731459 -0.14870134 -0.20985483
0.10926865 0.013937494 -0.15243664 -0.016330967 0.051067624 -0.13924296 -0.093487084 -0.13775346
00000000: 2cf6 14be ac2e f5bb 908c 98bd 3cb9 35bd
00000010: 5890 00bd 330b 8cbc aa4d 4ebd 3191 fcbd
00000020: 868b 08be 85dd 05bd 0ab7 b8bd 96c8 30bc
00000030: ea2f 04bd 66d7 eabd 4e61 89bd f31c be3c
00000040: 1a4c fabd 4217 7cbd 0ce6 dc3c e706 7e3d
00000050: 2e04 60bd cbe8 dfbd e6d0 9c3d e38f 04bd
00000060: e79f 693d 919f debc 811c 93bd ffbf 453c
00000070: 1683 903d b749 22bc 2a6d 573d 50b2 aabd
00000080: cedf a4bd 508e cbbd 7092 66bc 542c 9c3d
00000090: abaa 08bd 709a 8b3d 1b20 f2bb a056 033d
000000a0: 3f15 03be 01d1 8bbd 9499 ddbd fe90 733d
000000b0: b819 19be 3b56 cbbd 070d 403d c3d8 773d
000000c0: f03a ab3d 27ac bebc 462d 6f3c 3867 623a
000000d0: dfde ecbc fed1 b2bd 2a45 18be 2fe4 56be
000000e0: 3ec8 df3d 165a 643c 5a18 1cbe 85c8 85bc
000000f0: 492c 513d b595 0ebe 2876 bfbd 3e0f 0dbe

critic.2.weight f4 [64, 64]
-0.02012015 0.1362346 0.045483228 0.018108968 0.035232686 -0.018787378 -0.027725087 0.09520039
-0.01647161 -0.08489955 -0.025181128 0.21490748 -0.021329632 0.1784949 0.029267352 0.04114954
0.05453798 0.13295196 -0.09274916 0.066777796 -0.13513315 -0.036786426 0.083488904 0.12008085
-0.09561273 -0.12468393 -0.108911164 0.01726487 -0.078659974 0.13564616 -0.024082597 -0.09000543
0.06491594 -0.07009538 0.031225273 0.026151374 -0.15016598 0.053348914 -0.033188336 -0.09152572
-0.00038139234 0.16353591 0.068241574 -0.26678786 -0.01869267 -0.14439063 0.028560888 -0.12836328
0.046286985 0.043965563 -0.040781483 0.26108143 -0.024595642 0.0073773954 -0.09956821 -0.023629185
0.14149323 -0.032575585 -0.0017551038 -0.100277275 -0.044522528 -0.06344603 0.09770676 -0.12633722
-0.014482945 0.0042526764 -0.017822543 -0.0223026 -0.08776271 -0.06979659 -0.08203114 0.10175264
-0.054067146 -0.104605 -0.10396693 -0.10354333 -0.03995335 -0.06746871 -0.10532517 -0.055703167
0.082478054 -0.11113593 -0.02984004 0.0980024 0.06458831 0.01380128 0.034500975 -0.057925843
-0.11333666 -0.089456104 -0.089271195 0.076219596 -0.013285345 -0.11513956 -0.11126509 -0.026285198
0.070362955 -0.0014238161 0.007326343 -0.040698316 -0.021004828 0.05520912 0.02557479 -0.03056502
0.124907136 0.073479444 0.029678421 0.043543246 0.06644708 -0.031621028 0.0086480295 -0.0514548
-0.056291178 -0.012525474 -0.09794657 0.09142273 -0.101088434 -0.094133355 -0.030723277 0.06645961
-0.07590943 -0.026498714 0.05604676 -0.105411135 0.103537925 0.055138983 0.02415926 -0.0120788105
0.078958444 -0.050494995 -0.04308727 0.06603181 -0.101787105 0.027375445 0.04764548 0.011145086
-0.083719626 0.003915155 -0.00080876565 -0.14580719 -0.04134692 -0.032112453 0.055589475 0.11159959
-0.06778308 0.027984677 0.018590301 -0.055589225 0.08805646 0.06322136 0.12015407 0.079312466
-0.07422645 0.12905218 0.07489938 -0.07976311 0.12316855 -0.06636349 0.08460683 -0.0726701
-0.015199096 -0.009624167 0.02642116 -0.055720408 0.09518905 0.03055432 0.095265694 -0.059093896
0.061559383 0.015522789 -0.00080740213 0.0354534 -0.024327202 -0.0861105 0.0040293434 0.14607489
0.09797913 -0.022942713 -0.06434527 -0.1477282 0.09953033 0.0134391915 -0.016876124 0.035365798
-0.081531525 0.008908454 -0.07328742 -0.053793922 -0.053480323 -0.07586683 0.042174116 -0.062723234
-0.0003574058 0.028461332 -0.11930365 -0.02230925 0.01708985 -0.09064463 0.045620903 -0.015889436
-0.057635188 -0.0200079 0.017403036 -0.064877726 0.028564705 -0.11695911 0.17839693 0.12229239
0.0014354355 -0.077021144 -0.113669164 0.03798482 0.036529824 0.14067626 -0.10126384 0.03852761
-0.037366148 -0.07118156 0.015388912 -0.026967965 0.03716934 -0.06985388 0.053041924 -0.053204015
0.037482314 0.058941625 -0.012369395 -0.15045364 0.03261095 -0.09745043 -0.04671163 -0.09501336
-0.047661897 0.113351986 -0.10064408 0.07614228 -0.03619773 0.08809616 -0.02555653 -0.008710882
-0.10919263 0.030185122 -0.045672055 -0.06389893 0.044865258 0.01940259 -0.048217423 0.12795559
0.00012910216 0.049794894 -0.0797561 -0.14948815 -0.07305273 -0.17059551 0.16378412 0.1264185
00000000: 03d3 a4bc 1581 0b3e 9f4c 3a3d 4259 943c
00000010: 2650 103d fde7 99bc b91f e3bc 6cf8 c23d
00000020: 78ef 86bc d1df adbd a748 cebc b510 5c3e
00000030: 7bbb aebc 5ec7 363e 16c2 ef3c 6c8c 283d
00000040: 3863 5f3d 8f24 083e 46f3 bdbd ccc2 883d
00000050: 5860 0abe 5dad 16bd 3bfc aa3d f3ec f53d
00000060: 9bd0 c3bd 4a5a ffbd d10c dfbd 0f6f 8d3c
00000070: 7b18 a1bd d4e6 0a3e de48 c5bc c454 b8bd
00000080: a6f2 843d 2b8e 8fbd 25cc ff3c 683b d63c
00000090: 1cc5 19be 6484 5a3d 7ef0 07bd d671 bbbd
000000a0: 9df5 c7b9 f575 273e 3dc2 8b3d 6b98 88be
000000b0: 5f21 99bc 23db 13be 86f8 e93c aa71 03be
000000c0: 6c97 3d3d 3c15 343d 7c0a 27bd 77ac 853e
000000d0: cd7c c9bc 14be f13b 6bea cbbd fe91 c1bc
000000e0: 9ae3 103e fa6d 05bd 830b e6ba 2c5e cdbd
000000f0: 415d 36bd feef 81bd 7b1a c83d 8b5e 01be
00000100: e049 6dbc 095a 8b3b 9500 92bc f1b3 b6bc
00000110: f0bc b3bd 84f1 8ebd f1ff a7bd b063 d03d
00000120: 8375 5dbd 253b d6bd 9dec d4bd 870e d4bd
00000130: 20a6 23bd 092d 8abd b9b4 d7bd 0129 64bd
00000140: 41ea a83d 3c9b e3bd 1973 f4bc 7bb5 c83d
00000150: e046 843d c41e 623c e550 0d3d a643 6dbd
00000160: 0d1d e8bd c334 b7bd d1d3 b6bd 0519 9c3d
00000170: c7aa 59bc 4ace ebbd f4de e3bd 0e54 d7bc
00000180: 741a 903d 579f baba d211 f03b 47b3 26bd
00000190: 5112 acbc f522 623d 3982 d13c 7e63 fabc
000001a0: 50cf ff3d 647c 963d 2920 f33c 675a 323d
000001b0: 6815 883d 0d85 01bd 77b0 0d3c 45c2 52bd
000001c0: 9491 66bd a537 4dbc 3698 c8bd d73b bb3d
000001d0: 7407 cfbd fdc8 c0bd 62af fbbc fa1b 883d
000001e0: 6776 9bbd d513 d9bc 4a91 653d cbe1 d7bd
000001f0: b10b d43d 6ad9 613d a4e9 c53c 34e6 45bc
00000200: f7b4 a13d d7d3 4ebd 477c 30bd b03b 873d
00000210: c275 d0bd 7842 e03c e827 433d e199 363c
00000220: 3275 abbd b34a 803b 5803 54ba 7b4e 15be
00000230: 635b 29bd 5988 03bd cab1 633d 538e e43d
00000240: dbd1 8abd 1f40 e53c b04a 983c 87b1 63bd
00000250: f256 b43d 337a 813d 5613 f63d 936e a23d
00000260: 0904 98bd 4126 043e d964 993d d75a a3bd
00000270: cb3f fc3d 95e9 87bd 5846 ad3d 10d4 94bd
00000280: a105 79bc afae 1dbc 3071 d83c 153b 64bd
00000290: 7af2 c23d 0e4d fa3c a91a c33d 710c 72bd
000002a0: b125 7c3d 4c53 7e3c d7a7 53ba 9637 113d
000002b0: d749 c7bc b45a b0bd 9508 843b a894 153e
000002c0: 48a9 c83d 5bf2 bbbc 74c7 83bd 1046 17be
000002d0: 8fd6 cb3d 0e30 5c3c cc3f 8abc badb 103d
000002e0: 00fa a6bd c4f4 113c b717 96bd 0457 5cbd
000002f0: 2f0e 5bbd 1260 9bbd c4be 2c3d 0a75 80bd
00000300: 3262 bbb9 bd27 e93c 7955 f4bd e3c1 b6bc
00000310: 0300 8c3c e4a3 b9bd fcdc 3a3d 902a 82bc
00000320: e012 6cbd 9ce7 a3bc d090 8e3c 9dde 84bd
00000330: 8700 ea3c 4288 efbd afad 363e 6f74 fa3d
00000340: 3925 bc3a 43bd 9dbd 61cb e8bd f895 1b3d
00000350: 4ca0 153d 700d 103e 6b63 cfbd 21cf 1d3d
00000360: 3f0d 19bd a3c7 91bd c621 7c3c eceb dcbc
00000370: e13e 183d 8d0f 8fbd 7d42 593d 74ec 59bd
00000380: 0e87 193d c66c 713d 01a9 4abc 8510 1abe
00000390: 0f93 053d 1794 c7bd b254 3fbd 5d96 c2bd
000003a0: 1f39 43bd 1625 e83d 7c1e cebd 7cf0 9b3d
000003b0: 1244 14bd c26b b43d ee5b d1bc 16b8 0ebc
000003c0: 63a0 dfbd ca46 f73c 9f12 3bbd 71dd 82bd
000003d0: a2c4 373d 2ef2 9e3c a27f 45bd ca06 033e
000003e0: 995f 0739 bbf5 4b3d 2b57 a3bd 6c13 19be
000003f0: ab9c 95bd 97b0 2ebe 06b7 273e da73 013e

critic.2.bias f4 [64]
0.02621837 -0.06616784 0.057788942 -0.038730882 -0.09210296 -0.10800274 -0.05240368 -0.15494424
-0.08994883 -0.0548772 0.00045519584 0.074463695 -0.053814538 0.03148436 -0.04108045 0.0048923506
-0.05743253 -0.113576055 0.022706306 -0.020902265 0.028519362 0.0037595194 -0.12279054 -0.14299983
0.054660697 -0.084378295 -0.06691431 -0.10264403 0.008172544 -0.0012889927 -0.05312081 -0.03127325
-0.07774697 -0.10450848 0.11185565 0.038127784 -0.05769432 -0.12685668 -0.07933836 -0.045886397
0.050590586 -0.016153568 0.13095601 0.016368713 -0.020204423 0.1001642 -0.08028453 -0.020823058
-0.03516187 -0.014300895 0.039884906 -0.072219685 -0.044641964 -0.099269815 -0.03459456 0.049049664
0.015531672 0.027421761 -0.07648767 -0.020696836 -0.102570474 -0.01804208 -0.09889439 -0.0782767
00000000: e8c7 d63c 0183 87bd 19b4 6c3d 46a4 1ebd
00000010: 7aa0 bcbd 8a30 ddbd 3ea5 56bd b4a9 1ebe
00000020: 1837 b8bd eac6 60bd 5aa7 ee39 6c80 983d
00000030: a26c 5cbd bff5 003d f943 28bd 0350 a03b
00000040: 5f3e 6bbd 909a e8bd 9302 ba3c 3a3b abbc
00000050: 70a1 e93c 4562 763b 9b79 fbbd 8c6e 12be
00000060: e5e3 5f3d 87ce acbd 5f0a 89bd 0837 d2bd
00000070: 22e6 053c 6bf3 a8ba 3595 59bd 6118 00bd
00000080: ce39 9fbd 8b08 d6bd 9314 e53d e12b 1c3d
00000090: e150 6cbd b8e6 01be 267c a2bd 60f3 3bbd
000000a0: 1338 4f3d 7d54 84bc 5519 063e ae17 863c
000000b0: bf83 a5bc e322 cd3d 376c a4bd 1e95 aabc
000000c0: e505 10bd 4d4e 6abc 5b5e 233d eae7 93bd
000000d0: 7eda 36bd f94d cbbd 06b3 0dbd 4de8 483d
000000e0: 8e78 7e3c 9aa3 e03c 91a5 9cbd 698c a9bc
000000f0: 7810 d2bd fccc 93bc 2489 cabd 894f a0bd

critic.4.weight f4 [1, 64]
-0.12901668 0.033020977 0.05828201 0.0031698332 -0.09857908 -0.06651732 0.047356468 0.08086078
0.018811407 -0.0483693 0.038784336 0.03680242 0.0066663227 0.037660442 -0.048450574 0.00060410664
-0.011259261 0.025704373 0.043377794 0.043189358 -0.00058785616 0.0052949856 -0.0087481495 0.039869633
0.0077193477 -0.073415376 0.003363268 -0.022261772 -0.0082322415 -0.0031023214 0.0071170107 0.04645161
-0.0076660616 0.07071052 -0.12455263 0.0014123928 -0.010159406 -0.09533524 -0.1491415 0.062030487
0.0008694388 0.07079137 0.10677611 -0.021448145 -0.09336539 0.06403651 0.036533564 0.014308882
-0.016756816 0.012741022 -0.05613401 0.04353068 0.093983054 0.0006551926 0.0051771654 -0.011066931
0.009089253 -0.03174831 -0.041459206 -0.01667491 -0.04453832 0.06996678 -0.11429503 -0.13371767
00000000: f31c 04be 0141 073d 1eb9 6e3d fabc 4f3b
00000010: d4e3 c9bd 3c3a 88bd dbf8 413d 569a a53d
00000020: 611a 9a3c e31e 46bd 53dc 1e3d 22be 163d
00000030: 2b71 da3b d641 1a3d 1c74 46bd e95c 1e3a
00000040: c378 38bc fa91 d23c eaac 313d 53e7 303d
00000050: 5c1a 1aba 8f81 ad3b 6654 0fbc 574e 233d
00000060: 95f2 fc3b cd5a 96bd 466a 5c3b 525e b6bc
00000070: 86e0 06bc 5150 4bbb d035 e93b 0b44 3e3d
00000080: 9633 fbbb add0 903d 7315 ffbd 0a20 b93a
00000090: a373 26bc 1f3f c3bd 8db8 18be ae13 7e3d
000000a0: 0deb 633a 11fb 903d 6fad da3d 05b4 afbc
000000b0: 5b36 bfbd 9325 833d 38a4 153d cd6f 6a3c
000000c0: 9745 89bc b8bf 503c c7ec 65bd 3a4d 323d
000000d0: 307a c03d 3bc1 2b3a 36a5 a93b 1352 35bc
000000e0: 17eb 143c 840a 02bd 21d1 29bd d299 88bc
000000f0: d06d 36bd be4a 8f3d 8313 eabd 49ed 08be
