RL/CC2-Cardiff-implementation/GT-Cardiff-CC2/Models/PPOxCCE-C4/2000.pth (torch, 78850 bytes, 11 tensors)

actor.0.weight f4 [64, 62]
0	0xba7940ed	-0.0009508271
1	0x3d8b86e7	0.0681284
2	0xbdd6122a	-0.10452683
3	0xbdbf6a3c	-0.093464345
4	0x3e352192	0.17688587
5	0x3e3ea1d9	0.18616427
6	0xbe03bf9d	-0.12866063
7	0x3cb8dbcd	0.022565747
8	0x3df68f5f	0.120390646
9	0xbc43c417	-0.011948607
10	0xbdf9364d	-0.1216856
11	0xbdc6e856	-0.09712283
12	0xbeb2d719	-0.3492973
13	0xbe56e300	-0.20985031
14	0xbd1edcbb	-0.038784724
15	0xbe119b9c	-0.14219517
16	0x3d4da681	0.05020762
17	0x3d9c104d	0.076202966
18	0xbdb05477	-0.086098604
19	0xbd628646	-0.055303834
20	0x3d3cf15d	0.04612862
21	0x3dd7fb15	0.10545937
22	0xbcd61c86	-0.026136648
23	0x3dc2a212	0.09503569
24	0xbca7b158	-0.020470306
25	0x3c5c2cc0	0.013438404
26	0x3deb82cf	0.11499559
27	0xbdf14899	-0.11781425
28	0xbebf6d2e	-0.37387985
29	0xbe925ccd	-0.28586426
30	0x3da458e0	0.08024764
31	0x3e9622b7	0.2932336
32	0xbda896cf	-0.082318895
33	0xbd6f7633	-0.058462333
34	0xbdb5b6b9	-0.08872742
35	0xbdf39894	-0.11894336
36	0xbe918237	-0.2841966
37	0xbd54f48c	-0.05199103
38	0x3e11efab	0.14251582
39	0x3de1e717	0.11030405
40	0x3d22844a	0.039676942
41	0xbe51f51a	-0.20503655
42	0x3e0e789f	0.13913201
43	0xbdc53db0	-0.096309066
44	0xbcd59a14	-0.026074447
45	0xbd7ff9d9	-0.062494133
46	0x3e232fb4	0.15936166
47	0x3e41cc18	0.18925512
48	0x3c87c9f6	0.016575795
49	0xbd03fc25	-0.032222886
50	0x3e30a90d	0.17251988
51	0x3e5353fc	0.20637506
52	0x3d4e7484	0.050404087
53	0x3cfb533a	0.030679334
54	0x3e51bb41	0.20481588
55	0xbe0f5f8a	-0.14001289
56	0x3e0dce7b	0.13848297
57	0xbdc9a770	-0.09846389
58	0xbbb65bda	-0.005565149
59	0x3de5ebee	0.11226641
60	0x3de057f6	0.10954277
61	0x3e220c92	0.15825108
62	0xbd9a1194	-0.07522884
63	0x3d1d2763	0.03836764
64	0x3d8ec91b	0.069719516
65	0xbc83508d	-0.01602962
66	0x3d9c4f1e	0.07632278
67	0xbc87fbee	-0.016599622
68	0xb9a8830b	-0.00032141092
69	0xbd550799	-0.0520092
70	0xbe08d293	-0.13361578
71	0xbde6e01d	-0.11273215
72	0x3ebf2dd3	0.3733965
73	0x3f13ec94	0.57782865
74	0x3e06e71a	0.13174096
75	0x3d611241	0.05494905
76	0xbd176a54	-0.036966637
77	0xbde120b8	-0.10992569
78	0x3c3f6a4d	0.011683059
79	0xbda2b7b5	-0.079451956
80	0xbdf265d5	-0.11835829
81	0x3de717f4	0.112838656
82	0x3dc5c448	0.09656578
83	0xbe01ba05	-0.12668617
84	0x3cc2bb23	0.023770874
85	0xbcaf4366	-0.021394443
86	0xbcab34fb	-0.020899286
87	0xbd6e1f27	-0.058135178
88	0x3d480b12	0.048838682
89	0xbd9a0e51	-0.07522262
90	0xbc44c71a	-0.01201036
91	0xbd8da1d6	-0.069156334
92	0x3ce046b3	0.027377462
93	0x3db9e59e	0.09076999
94	0xbe00b695	-0.1256965
95	0xbda8b940	-0.08238459
96	0x3d81deb6	0.06341307
97	0x3cd9c105	0.026581297
98	0xbe8f3928	-0.27973294
99	0xbe248fca	-0.16070476
100	0x3d139720	0.036032796
101	0x3e46b116	0.1940349
102	0xbe2370b7	-0.15960966
103	0xbd9f4ab0	-0.077779174
104	0xbdc097fb	-0.09403988
105	0x3db32f9c	0.08749315
106	0xbdd855e4	-0.10563257
107	0xbe03533c	-0.1282472
108	0xbcfaff81	-0.030639412
109	0xbd1caa75	-0.038248498
110	0xbda32ee7	-0.0796793
111	0x3d82d7c8	0.06388813
112	0xbe21fe03	-0.15819554
113	0x3e0e20cc	0.13879699
114	0x3db23e72	0.08703317
115	0xbe3b299f	-0.18277596
116	0x3d7f6d91	0.06236035
117	0xbdaabe45	-0.08337072
118	0xbd85a7a2	-0.06526114
119	0x3cf6c0a8	0.030121163
120	0x3c768209	0.015045651
121	0x3d327e7e	0.043577664
122	0xbe1dffe1	-0.15429641
123	0x3dd32871	0.10310448
124	0xbdf97f3e	-0.12182473
125	0xbd9a2929	-0.07527382
126	0xbd02383f	-0.03179192
127	0xbd7d6489	-0.061863456
128	0xbe20812a	-0.15674272
129	0xbdc7c4e2	-0.09754349
130	0xbe094865	-0.13406523
131	0xbea3cab0	-0.31990576
132	0xbe9d3595	-0.30704942
133	0xbdc73f94	-0.097289234
134	0x3e8eb58c	0.27872884
135	0x3e08a007	0.13342296
136	0x3d8c4781	0.06849576
137	0x3de1d010	0.11026013
138	0x3e283548	0.16426575
139	0x3eabb05c	0.3353299
140	0x3df6600c	0.12030038
141	0x3da52cf8	0.08065218
142	0x3df6f05c	0.12057564
143	0xbc167c17	-0.009184859
144	0xbde9a66a	-0.11408694
145	0xbd769c86	-0.060207866
146	0x3db119d4	0.086475044
147	0xba57d11e	-0.000823276
148	0xbd8147a7	-0.06312495
149	0xbdc75098	-0.09732169
150	0xbdf3695f	-0.11885332
151	0xbddb85fc	-0.10718915
152	0x3dc60c60	0.09670329
153	0x3e815b55	0.25264993
154	0x3dd10ce3	0.10207536
155	0xbda0972e	-0.07841335
156	0x3da23e4e	0.0792204
157	0xbdcb871c	-0.099378794
158	0xbcdbf2b6	-0.026849132
159	0xbd52ec80	-0.051495075
160	0xbe1eb5fc	-0.15499109
161	0xbe718508	-0.23585904
162	0xbe122793	-0.14272909
163	0xbcac6b43	-0.02104724
164	0xbdd5a7f0	-0.10432422
165	0xbe02059d	-0.12697454
166	0xbd9235b1	-0.07139147
167	0x3e2c1351	0.16804244
168	0xbe21ee40	-0.15813541
169	0x3cdf0ea0	0.027228653
170	0x3d22bac4	0.039728895
171	0x3bbfd3ae	0.0058540916
172	0x3e1fab05	0.15592583
173	0x3e4cc8c7	0.19998465
174	0xbdd1991f	-0.10234284
175	0x3ddd6d57	0.108118705
176	0xbc701bff	-0.014655112
177	0xbdfbcb85	-0.12294678
178	0x3e37c67c	0.1794681
179	0xbd1d8196	-0.03845366
180	0x3d5b44c6	0.053532384
181	0xbcd9d2f6	-0.026589852
182	0x3e354912	0.17703655
183	0xbcda6265	-0.026658246
184	0x3cf113f7	0.029428465
185	0xbd3957cb	-0.04524974
186	0xbcfa2fb0	-0.030540317
187	0xbcdacc74	-0.026708819
188	0xbdd6572a	-0.10465844
189	0x3d8cee7f	0.06881427
190	0x3e5a3d15	0.21312363
191	0x3dde7192	0.108615056
192	0xbdae3863	-0.08506849
193	0xbd99c5bd	-0.07508419
194	0x3d216802	0.03940583
195	0x3e2532b8	0.16132629
196	0xbe71831a	-0.23585168
197	0xbe8f082f	-0.2793593
198	0xbda9d9b0	-0.08293474
199	0xbd25b4a5	-0.04045548
200	0x3dddeffe	0.108367905
201	0x3ea87374	0.32900584
202	0xbdc49caa	-0.09600194
203	0xbdb28f2c	-0.08718714
204	0xbd970724	-0.07374409
205	0x3db60cd1	0.08889163
206	0xbd3afdb2	-0.0456521
207	0x3ddb6364	0.10712317
208	0x3d3c1b05	0.045924205
209	0x3c83bd64	0.01608152
210	0xba77d42e	-0.00094539195
211	0xbccdaa38	-0.02510558
212	0x3c828887	0.015934242
213	0xbced90fe	-0.028999802
214	0x3e50d974	0.20395452
215	0xbc15b155	-0.0091365175
216	0xbe165458	-0.14680612
217	0xbe3519ae	-0.17685577
218	0x3dd2069d	0.10255168
219	0xbdd3148b	-0.10306653
220	0xbc156984	-0.009119395
221	0x3e00a60e	0.12563345
222	0xbdc86607	-0.09785085
223	0xbe0896a7	-0.1333872
224	0xbd453e7b	-0.04815529
225	0xbc46ff3f	-0.012145816
226	0xbdeb9875	-0.11503688
227	0xbdf3c106	-0.11902051
228	0x3d0dec9c	0.034649476
229	0x3d905b1a	0.07048626
230	0x3e6e224e	0.23255274
231	0x3ec15c7f	0.3776588
232	0x3d78ab0e	0.060710005
233	0x3e9c6cc6	0.30551738
234	0xbd343652	-0.043997116
235	0xbe5460c9	-0.20740046
236	0x3ce806ab	0.028323492
237	0xbca865a2	-0.020556275
238	0xbd5c787d	-0.053825844
239	0x3e41d672	0.1892946
240	0x3bd1d05b	0.0064030117
241	0x3e0dbdb0	0.13841891
242	0x3d33fdc2	0.043943174
243	0x39552f82	0.00020330961
244	0x3a68e3d2	0.00088840455
245	0xbd3810da	-0.044937946
246	0x3ea5aece	0.32359928
247	0xbdedae24	-0.1160548
248	0x3ae56cfc	0.0017503793
249	0xbcb0e205	-0.02159215
250	0xbd88fc54	-0.06688753
251	0x3c89823e	0.016785737
252	0x3eb93387	0.36172125
253	0x3d8a3c28	0.06749755
254	0xba9858dd	-0.0011623163
255	0xbb7bf0c9	-0.003844308

actor.0.bias f4 [64]
0	0x3d770111	0.06030375
1	0x3ca127e4	0.019672342
2	0x3c69509a	0.014240408
3	0x3dd84ee2	0.10561921
4	0xbcbabca5	-0.02279503
5	0xbd35be04	-0.044370666
6	0x3e215993	0.15756826
7	0x3cc476f1	0.023982497
8	0x3da0ef04	0.078580886
9	0xbd8cc351	-0.06873191
10	0x3d88bfde	0.06677221
11	0xbd82058a	-0.06348713
12	0xbcd7eabd	-0.02635705
13	0x3dd522a2	0.10406996
14	0x3d4605d4	0.048345402
15	0x3dce3177	0.100680284
16	0xbe32c1ed	-0.1745679
17	0x3c4b01f6	0.012390604
18	0xbdb354d6	-0.087564155
19	0x3d82af08	0.06381041
20	0xbd0e07e1	-0.034675483
21	0xbd85156a	-0.06498225
22	0xbc20809b	-0.009796287
23	0xbd7539ff	-0.059869763
24	0x3d9f72cd	0.077855684
25	0x3c9ce9ff	0.019154547
26	0x3df08fba	0.11746164
27	0xbca80002	-0.020507816
28	0x3d7f7b3e	0.062373392
29	0xbd0f044e	-0.034916215
30	0x3c45e7ad	0.012079162
31	0x3df477c8	0.11936909
32	0xbcc26638	-0.023730382
33	0xbc5edf34	-0.01360302
34	0x3e057058	0.13031137
35	0xbe2968d3	-0.16543894
36	0x3e3b67da	0.18301335
37	0x3e1c5634	0.15267259
38	0x3cedbeab	0.029021582
39	0xbe18cb46	-0.14921293
40	0x3e58bde8	0.21166193
41	0x3deb5a8c	0.1149188
42	0x3bdb8ab5	0.006699885
43	0x3d5e00e4	0.054200068
44	0x3d84bec8	0.06481701
45	0x3ddcd4cb	0.107827745
46	0xbda0fb09	-0.07860381
47	0x3da89269	0.082310505
48	0x3ddfa992	0.10921015
49	0x3c811243	0.015755778
50	0x3d48a80e	0.048988394
51	0xbe20477c	-0.15652269
52	0xbd6c9f37	-0.057769027
53	0x3d3b37ca	0.0457075
54	0x3e25974f	0.16171001
55	0xbdca2291	-0.09869874
56	0x3db9d7bc	0.09074351
57	0xbd409eae	-0.04702633
58	0xbded4a13	-0.11586394
59	0x3ddd8e5f	0.10818171
60	0x3d309288	0.043108493
61	0xbe29c777	-0.16579996
62	0xbb822b0e	-0.0039724177
63	0x3d0c56c9	0.034262452

actor.2.weight f4 [64, 64]
0	0xbd87f23c	-0.066379994
1	0xbe067570	-0.13130736
2	0x3db502f8	0.08838457
3	0xbd9b77c8	-0.07591206
4	0xbb21d60f	-0.002469424
5	0x3db42d3d	0.08797691
6	0xbd06ce32	-0.032911487
7	0xbda7c936	-0.08192675
8	0xbe0d5940	-0.13803577
9	0x3b8fede4	0.0043923724
10	0xbd80737c	-0.06272027
11	0x3c155a30	0.009115741
12	0x3d238b2c	0.039927647
13	0xbd541ad0	-0.051783383
14	0x3dad949a	0.08475609
15	0xbd088a30	-0.03333491
16	0xbd4c5520	-0.04988587
17	0xbdcc3fef	-0.09973132
18	0x3d1b5778	0.037925214
19	0xbd9e45f6	-0.07728188
20	0x3cd740e8	0.026276067
21	0xbd085419	-0.033283327
22	0x3dafeff2	0.08590688
23	0xbd9fb790	-0.07798684
24	0xbd7c38fc	-0.061577782
25	0xbd07cc25	-0.03315367
26	0xbdbfb688	-0.09360987
27	0x3cf98c16	0.030462306
28	0xbd74ffac	-0.05981414
29	0x3d0d5cd6	0.034512363
30	0x3d62a437	0.05533239
31	0x3d793d61	0.06084955
32	0xbd241edf	-0.040068503
33	0x3d4ea2d7	0.050448265
34	0xbdacc13e	-0.084352955
35	0xbdff10c0	-0.12454367
36	0xbcf23555	-0.029566446
37	0xbdd29c63	-0.10283735
38	0xbdc65494	-0.09684101
39	0x3d022600	0.03177452
40	0x3dc1d361	0.094641455
41	0xbd80c063	-0.06286695
42	0xbcc3d1e6	-0.023903798
43	0xbde0ea46	-0.10982184
44	0x3b959c68	0.004565764
45	0x3c8a3b24	0.016873904
46	0xbd002b00	-0.031291008
47	0x3da0519b	0.07828065
48	0xbdf0ac5c	-0.11751625
49	0xbd09f539	-0.03368113
50	0xbda6e05a	-0.081482604
51	0x3dbfe7ea	0.09370406
52	0x3db50b32	0.08840026
53	0x3ddae647	0.10688453
54	0x3dc7e3cb	0.09760245
55	0x3d4ac7f0	0.04950708
56	0xbdc405de	-0.095714316
57	0xbdada61c	-0.084789485
58	0x3cf57a08	0.029965416
59	0xbe03aed7	-0.12859665
60	0x3d891dab	0.06695112
61	0x3d5e9698	0.054342836
62	0x3c4afa6d	0.012388808
63	0xbe01179f	-0.12606667
64	0x3e6478d3	0.22311716
65	0xbd8b0100	-0.067873
66	0xbe2372e7	-0.159618
67	0x3e2257d6	0.15853819
68	0x3c84e566	0.016222667
69	0xbd82e54f	-0.063913934
70	0x3bc94b20	0.006142989
71	0x3dc3712b	0.095430695
72	0x3e46fd89	0.19432653
73	0xbdb17332	-0.0866455
74	0x3db29f46	0.08721785
75	0x3e91b1c0	0.28455925
76	0xbd8e53ce	-0.06949578
77	0xbe8b0695	-0.2715346
78	0x3d517965	0.05114116
79	0xbca1f98e	-0.019772317
80	0xbd9e33a6	-0.07724695
81	0x3e504576	0.20338997
82	0x3d6169bf	0.055032488
83	0x3e3045cd	0.17214127
84	0xbe20adf3	-0.15691356
85	0x3e32646d	0.17421122
86	0xbc53a9cf	-0.0129189035
87	0xbd3c6a28	-0.045999676
88	0x3d03514e	0.03205996
89	0xbdbb9212	-0.0915872
90	0xbe2a9d51	-0.16661574
91	0x3e0c710e	0.13715002
92	0x3d397559	0.045277927
93	0x3caacb75	0.020848969
94	0xbe485621	-0.19564106
95	0xbd3bbbdf	-0.045833465
96	0xbd3fa56c	-0.046788618
97	0xbdb56768	-0.08857614
98	0x3c8f82c0	0.017518401
99	0xbbc09dda	-0.0058781924
100	0xbcae6065	-0.021286199
101	0xbd80bd38	-0.062860906
102	0x3dd4b2be	0.10385655
103	0xbc8f9213	-0.017525708
104	0xbd672c37	-0.05643865
105	0xbc70afff	-0.014690398
106	0x3cc2a885	0.023761997
107	0xbe0c4485	-0.13698013
108	0x3d510c98	0.0510374
109	0xbda3cff4	-0.07998648
110	0x3dff637b	0.12470146
111	0xbde0223d	-0.109440304
112	0xbdb65c51	-0.08904327
113	0x3e65ebd8	0.22453249
114	0xbe2a8c2a	-0.16655031
115	0x3dcb76ce	0.099347696
116	0xbc4ad7ac	-0.012380522
117	0x3d570836	0.052498065
118	0x3d027bda	0.031856395
119	0x3ddba2fb	0.107244454
120	0x3e1244fb	0.14284126
121	0xbdb8fa61	-0.09032131
122	0x3dfdae32	0.12386741
123	0x3e3ad688	0.182459
124	0x3d093e3a	0.03350661
125	0xbd51abf6	-0.051189385
126	0x3db26c3a	0.08712049
127	0x3df5a1b6	0.119937345
128	0xbed8e394	-0.42361128
129	0x3e42ad1e	0.19011351
130	0x3dd11b09	0.10210235
131	0x3c6bb8f1	0.014387355
132	0x3e24108c	0.16021937
133	0x3dfcc3ff	0.12342071
134	0x3dd92a5e	0.10603784
135	0xbefdd124	-0.49573624
136	0xbdadddb5	-0.08489553
137	0x3c77567c	0.015096303
138	0xbda52116	-0.08062951
139	0xbe61b3d6	-0.22041258
140	0xbc9c1f47	-0.019057883
141	0x3e46e71a	0.19424096
142	0xbc201c2d	-0.009772343
143	0x3d8d04ac	0.06885657
144	0x3d081db5	0.033231456
145	0x3cfd378c	0.030910276
146	0x3e67266a	0.22573248
147	0x3dc33223	0.09531047
148	0x3e2a52e1	0.16633178
149	0xbe0c0057	-0.13672005
150	0xbe3ac37d	-0.18238635
151	0xbdfff4bd	-0.12497852
152	0xbe67980a	-0.22616592
153	0x3d60b9db	0.054864746
154	0x3e54716c	0.20746392
155	0xbc15101c	-0.009098079
156	0x3e5ffe7f	0.21874426
157	0xbc8c3129	-0.017113285
158	0x3e481f11	0.19543101
159	0x3e19246e	0.14955303
160	0xbd4c41eb	-0.04986755
161	0x3e10a3b5	0.1412495
162	0xbd848dc0	-0.06472349
163	0xbdeff693	-0.11716952
164	0xbd728e6a	-0.059217848
165	0x3e1ad23c	0.1511926
166	0xbdc84089	-0.09777934
167	0xbe553369	-0.20820393
168	0x3dbb87fb	0.091567956
169	0x3d931465	0.07181624
170	0xbc9d1988	-0.019177213
171	0x3da4ba25	0.08043317
172	0x3daa3f94	0.08312908
173	0x3e2fb947	0.17160521
174	0xbbcfb12f	-0.0063382606
175	0x3ddcfdb7	0.1079058
176	0xbd07b4b8	-0.03313133
177	0xbd846137	-0.06463855
178	0x3ddf0ece	0.10891496
179	0x3cbd817f	0.023133038
180	0xbde1d178	-0.11026281
181	0xbe546b70	-0.20744109
182	0xbdd9f3e9	-0.10642225
183	0xbc54e8e0	-0.012994975
184	0xbe20a4da	-0.15687886
185	0x3e8cd639	0.2750719
186	0x3dcf7e1b	0.101314746
187	0xbc5238ce	-0.012830926
188	0x3dd163fd	0.102241494
189	0x3d627708	0.0552893
190	0xbd879c61	-0.06621624
191	0xbe32711a	-0.17425957
192	0x3db89c42	0.09014179
193	0x3dc81e64	0.097714216
194	0x3e10c803	0.14138798
195	0x3cf08467	0.02936001
196	0xbdd9b824	-0.10630825
197	0xbbfcc815	-0.0077142813
198	0xbe07bb8a	-0.13255134
199	0x3d92c47f	0.07166385
200	0x3e65023c	0.22364134
201	0x3d905ef9	0.070493646
202	0xbe4fa1c2	-0.2027655
203	0x3cd6eaf1	0.026235076
204	0xbd46389a	-0.048393823
205	0x3cb87310	0.022515804
206	0x3cb1cd94	0.021704473
207	0xbce907a5	-0.028446028
208	0xbd273d0d	-0.040829707
209	0x3dec35b0	0.115336776
210	0xbdcfe3b4	-0.10150853
211	0x3cffeed9	0.031241821
212	0xbd44ed3a	-0.0480778
213	0x3e12e2f1	0.14344384
214	0x3c94de71	0.018172475
215	0xbd3dd29f	-0.046343442
216	0x3dbb9267	0.091587834
217	0x3d8ef3d0	0.06980097
218	0x3cd83a32	0.026394937
219	0xbd1d4425	-0.038395066
220	0xbe1aa68e	-0.15102598
221	0xbd95e817	-0.07319658
222	0xbda4cb67	-0.080466084
223	0x3d8302cb	0.06397017
224	0x3e34516f	0.1760919
225	0x3d7eef27	0.062239792
226	0x3e043805	0.12911995
227	0x3da7bc58	0.081902206
228	0xbddc83e3	-0.10767343
229	0xbdc4c305	-0.096075095
230	0x3d12f584	0.035878673
231	0x3da06c9a	0.07833214
232	0x3d1f9734	0.038962558
233	0x3c808046	0.015686166
234	0xbd91edcf	-0.071254365
235	0xbcf6c3e6	-0.030122709
236	0x3de47e5e	0.11156915
237	0xbd29c024	-0.041443005
238	0x3d360848	0.04444149
239	0x3c313a41	0.0108171115
240	0xbd845187	-0.064608626
241	0x3e47c42a	0.19508424
242	0xbe38cb90	-0.18046403
243	0xbde339f7	-0.1109504
244	0xbd6a43d1	-0.05719358
245	0xbdd49359	-0.10379667
246	0x3e35702a	0.17718568
247	0xbd996d4b	-0.07491549
248	0xbb0b815c	-0.002128682
249	0x3d57f22f	0.0527212
250	0xbe033073	-0.1281145
251	0x3e2993cd	0.16560288
252	0x3dd4abaf	0.103843085
253	0x3c0f389f	0.008741527
254	0x3d5a69a9	0.05332342
255	0xbc9fe8d6	-0.019520205

actor.2.bias f4 [64]
0	0xbd829eac	-0.063779205
1	0x3d44e854	0.048073128
2	0x3d09a37e	0.033603184
3	0xbde11f9c	-0.10992357
4	0x3d260d3a	0.040539958
5	0x3e4a3cfc	0.19749826
6	0xbe25adb3	-0.16179542
7	0x3e2b2cea	0.16716352
8	0xbdf950fd	-0.121736504
9	0x3dde073b	0.10841223
10	0xbc76972f	-0.015050693
11	0x3da95289	0.082676955
12	0xbdc5bb42	-0.09654857
13	0xbdabbf61	-0.08386112
14	0x3dc85ebc	0.09783694
15	0x3dfb41f6	0.122684404
16	0xbdcc9edf	-0.0999124
17	0x3d8c5861	0.068527944
18	0x3dc509b0	0.09620988
19	0x3deee41e	0.11664604
20	0xbca68071	-0.020324918
21	0xbbc4fda8	-0.0060116835
22	0x3dd5c6f1	0.10438336
23	0x3e163578	0.14668834
24	0x3e23d354	0.15998584
25	0x3d836a93	0.06416812
26	0x3da2d646	0.07951026
27	0x3c17d874	0.009267915
28	0xbd03840b	-0.032108348
29	0x3d4086d5	0.047003586
30	0x3daa5c52	0.0831839
31	0x3de24410	0.11048138
32	0xbcac87a0	-0.021060765
33	0x3d430159	0.047608707
34	0x3cc0d2e7	0.023538066
35	0x3d947071	0.07248009
36	0x3d0ba4b4	0.03409262
37	0x3da15a88	0.078785956
38	0x3daf2b04	0.085531265
39	0x3d947285	0.07248405
40	0x3dd602b0	0.10449731
41	0xbcdd3335	-0.027001956
42	0xbcd26a0d	-0.025685335
43	0xbda80783	-0.08204558
44	0x3d148d55	0.036267597
45	0xbd703bd2	-0.0586508
46	0xbe0cbc5b	-0.13743727
47	0xbd62a866	-0.05533638
48	0xbcefa422	-0.02925307
49	0x3e25e4fa	0.16200629
50	0x3c055fe0	0.008140534
51	0xbc45dc9c	-0.012076523
52	0xbc4afe4b	-0.01238973
53	0x3ccf56b7	0.025309904
54	0xbd214003	-0.039367687
55	0x3d8baef0	0.06820476
56	0xbd3871a7	-0.045030262
57	0x3e100b54	0.14066821
58	0xbcc0f1cd	-0.0235528
59	0x3c102cc6	0.008799737
60	0xbd249bac	-0.040187523
61	0x3dbfdd2e	0.093683586
62	0x3bd3cd5e	0.0064636907
63	0xbd16b915	-0.0367976

actor.4.weight f4 [36, 64]
0	0x3c491d9e	0.012275128
1	0xbca83d8a	-0.020537157
2	0x3e353989	0.17697729
3	0xbe3e3bec	-0.18577546
4	0x3dce2a3a	0.10066648
5	0xbe16ff61	-0.14745857
6	0x3db6cee7	0.08926182
7	0x3ef05582	0.46940237
8	0xbd47f002	-0.048812874
9	0xbb8a8591	-0.004227348
10	0xbe1c3aa8	-0.1525675
11	0xbc1979b9	-0.0093674
12	0xbd6b0e9a	-0.057386972
13	0xbd5523c0	-0.052036047
14	0xbe3bd7ab	-0.1834399
15	0xbe922909	-0.28546932
16	0x3d1d0b58	0.038340896
17	0xbdcf4f79	-0.1012258
18	0x3e0eb2ff	0.13935469
19	0x3ef01ba8	0.468961
20	0x3dd97d39	0.106195875
21	0xbe06000d	-0.13085957
22	0xbd5205cb	-0.051275056
23	0xbd8b901d	-0.06814597
24	0xbea73dbe	-0.32664293
25	0x3bfae36e	0.0076565063
26	0x3d71bd8c	0.059018657
27	0x3eb45215	0.35218874
28	0xbe981e1d	-0.29710475
29	0xbdbde984	-0.09273055
30	0xbda8255e	-0.08210252
31	0x3ece33cf	0.40273902
32	0xbdb75de9	-0.08953459
33	0xbe84842c	-0.2588209
34	0xbe0f81e3	-0.14014392
35	0xbe8efdfd	-0.27928153
36	0xbd828941	-0.06373835
37	0x3de5f10a	0.11227615
38	0xbe102c0d	-0.14079304
39	0xbd8ce264	-0.06879118
40	0xbe45c25c	-0.19312423
41	0xbda16bfe	-0.07881926
42	0xbe60639f	-0.21913002
43	0xbdc44825	-0.09584073
44	0xbdedc7b3	-0.11610355
45	0x3d236339	0.039889548
46	0xbd7cc3f5	-0.061710317
47	0x3cff4ed1	0.031165512
48	0x3d3324fb	0.04373644
49	0x3e3ed5a0	0.18636179
50	0xbd9e74ff	-0.07737159
51	0xbe42a5db	-0.19008581
52	0x3db0a345	0.08624891
53	0xbdc26016	-0.09490983
54	0x3e306a63	0.17228083
55	0xbbcb74b8	-0.0062089823
56	0xbcc7f80d	-0.024410272
57	0xbe49e26f	-0.19715284
58	0xbe0a4be3	-0.13505511
59	0xbde67174	-0.11252108
60	0x3eef0ec7	0.46690962
61	0xbe13a097	-0.14416729
62	0x3c2fec0b	0.010737429
63	0xbd165552	-0.03670246
64	0xbdb20f74	-0.08694354
65	0x3b217543	0.0024636544
66	0x3e9a0be1	0.30087188
67	0x3d652db2	0.05595178
68	0xbd6d2af2	-0.057902284
69	0xbd83f887	-0.06443887
70	0x3d1fcbe1	0.039012793
71	0xbcfcdf0e	-0.03086808
72	0xbd097fdc	-0.0335692
73	0x3d3d07ed	0.046150137
74	0x3d75c71b	0.060004335
75	0x3deb9301	0.11502648
76	0x3e091451	0.13386656
77	0xbdf40b29	-0.11916191
78	0x3eb70ac0	0.3575039
79	0x3b6913a8	0.0035564695
80	0xbdd739dc	-0.10509083
81	0x3dc38bbc	0.095481366
82	0xbe4af112	-0.19818524
83	0xbd31662f	-0.04331034
84	0x3e1a834c	0.15089148
85	0x3eb8a6d5	0.36064783
86	0xbd78de62	-0.060758956
87	0xbe32fb6e	-0.17478725
88	0xbe4582e6	-0.19288215
89	0x3e05c617	0.13063847
90	0xbc66334e	-0.014050318
91	0x3e1f24cd	0.15541382
92	0x3e7f4188	0.24927342
93	0xbd5663e6	-0.052341364
94	0xbdf1d05e	-0.11807321
95	0xbe622378	-0.22083843
96	0xbc733f20	-0.014846593
97	0xbe1800fe	-0.14844128
98	0x3eaa4812	0.3325811
99	0xbe6c3935	-0.23068698
100	0x3e859f94	0.2609831
101	0x3deb3f5b	0.114866935
102	0x3e90fc28	0.2831738
103	0xbe6d9f68	-0.2320534
104	0x3e318654	0.17336398
105	0x3cf74547	0.030184401
106	0xbddc75ed	-0.1076468
107	0x3d03eb49	0.032206807
108	0x3db64546	0.088999316
109	0x3e2845d0	0.16432881
110	0xbd043349	-0.03227547
111	0x3d3676af	0.04454678
112	0x3c9fcdc5	0.019507298
113	0x3e1ce8e2	0.15323213
114	0x3cb8a32e	0.022538748
115	0xbe19d537	-0.15022741
116	0x3e7cfadb	0.24705069
117	0xbd16d2b6	-0.036822043
118	0x3ec23343	0.37929735
119	0xbd58cd34	-0.052930072
120	0x3cc9611c	0.024582438
121	0x3e7e911e	0.24860045
122	0xbd2e1926	-0.042504452
123	0x3dd2bc0c	0.10289773
124	0xbdc2b522	-0.095072046
125	0x3e232e03	0.15935521
126	0x3e09bcf1	0.13450982
127	0x3cd7c920	0.026341021
128	0x3de0a8a6	0.10969667
129	0x3d48bef5	0.049010236
130	0x3eb4ddd0	0.3532548
131	0xbda23c70	-0.07921684
132	0xbd017172	-0.03160233
133	0x3eb099c4	0.34492314
134	0x3dee76fc	0.11643788
135	0xbcee910b	-0.029121896
136	0x3d1b87c0	0.03797126
137	0x3d24263c	0.040075526
138	0x3e5227b0	0.20522952
139	0x3e69570d	0.22787113
140	0x3e5432a6	0.20722446
141	0x3bf2b5f8	0.0074069463
142	0xbc284f5e	-0.010272829
143	0xbcc59ec4	-0.024123557
144	0xbc4bf54a	-0.012448618
145	0x3d9f67fd	0.07783506
146	0x3ea85505	0.32877365
147	0x3e0a6302	0.13514331
148	0x3e9f9123	0.31165418
149	0x3d0e5da8	0.034757286
150	0x3d64006b	0.05566446
151	0xbdb8242b	-0.089912735
152	0xbb556568	-0.0032561664
153	0x3e0e104f	0.13873409
154	0x3af078cf	0.0018346551
155	0x3e65d193	0.22443227
156	0x3e3dc81d	0.18533368
157	0xbacac45f	-0.00154699
158	0x3e6b58a0	0.22983027
159	0x3bc56495	0.006023953
160	0x3da97c61	0.082756765
161	0xbe0f7113	-0.14007978
162	0x3e998a88	0.29988503
163	0x3d9235e6	0.071391866
164	0x3e983d61	0.29734328
165	0x3d7ea315	0.062167246
166	0x3e120d0b	0.14262788
167	0x3e657255	0.22406895
168	0x3e65f12b	0.2245528
169	0xbe4ddafd	-0.20103069
170	0xbd713962	-0.058892615
171	0x3cc9201a	0.02455144
172	0xbdc259ee	-0.09489809
173	0x3d064f15	0.032790262
174	0x3e26bd99	0.16283263
175	0x3d81ded7	0.063413315
176	0x3e180659	0.14846171
177	0x3e95c913	0.2925497
178	0xbdd3d22e	-0.10342823
179	0x3e4b9697	0.19881664
180	0x3e6dec0f	0.2323458
181	0xbd8c4880	-0.06849766
182	0x3c4591ef	0.012058719
183	0x3ead6c49	0.33871678
184	0xbd57e402	-0.05270768
185	0xbe08f72c	-0.13375539
186	0xbdd11382	-0.10208799
187	0xbce2b85f	-0.027675806
188	0xbd97204a	-0.073792055
189	0x3e6b1825	0.22958429
190	0x3c26d29e	0.010182051
191	0xbd88fd70	-0.06688964
192	0x3ddd5f2d	0.10809169
193	0x3e03ab2b	0.12858264
194	0xbdc6dbba	-0.09709878
195	0x3bf14de2	0.0073640207
196	0x3de4d651	0.1117369
197	0xbaa73df4	-0.0012759552
198	0x3d71cde1	0.059034232
199	0x3db2cb62	0.087301984
200	0xbd2cf8aa	-0.042229332
201	0x3e5e728c	0.21723384
202	0x3dfeece9	0.12447531
203	0x3d947a75	0.07249919
204	0x3e173343	0.14765649
205	0xbd1709f9	-0.036874745
206	0x3df394e2	0.118936315
207	0x3dfbb793	0.122908734
208	0xbd024694	-0.03180559
209	0x3d9383bd	0.072028615
210	0x3ce41184	0.027840383
211	0x3cbf9f06	0.023391258
212	0xbd8a82b1	-0.06763209
213	0x3e0340d5	0.128177
214	0x3d0fed24	0.035138264
215	0x3e9998e8	0.2999947
216	0x3e0529b4	0.1300419
217	0xbd55d257	-0.05220255
218	0xbd588387	-0.05285981
219	0x3c7859db	0.015158142
220	0x3e0a2ef6	0.13494477
221	0x3e3c4507	0.18385707
222	0x3e6ec79c	0.23318332
223	0xbe36a3dc	-0.17835945
224	0x3e7c4216	0.24634585
225	0x3e29fa4c	0.16599387
226	0xbc37eba1	-0.011225612
227	0x3cb8edc3	0.022574311
228	0xbd39ca5d	-0.045359004
229	0x3da21c94	0.07915607
230	0x3db97f01	0.09057427
231	0x3c93274f	0.01796308
232	0x3d8edd97	0.06975859
233	0x3e95048a	0.29105026
234	0x3e0395fe	0.12850186
235	0xbd92f93b	-0.07176443
236	0xbd308456	-0.043094955
237	0x3d6c50b7	0.057694163
238	0x3dde89f5	0.10866157
239	0xbd5719f5	-0.05251499
240	0xbd9c43a9	-0.07630093
241	0x3e0817c7	0.1329032
242	0xbaad267e	-0.0013210324
243	0xbdb626e2	-0.08894135
244	0x3e1f3822	0.15548757
245	0x3e568be9	0.20951809
246	0x3d8ccb5d	0.06874726
247	0x3dbe7aa5	0.09300736
248	0x3df9de3c	0.12200591
249	0x3d4a8202	0.04944039
250	0xbc39520a	-0.011311064
251	0x3d29860b	0.0413876
252	0xbe83b087	-0.25720617
253	0x3e24b114	0.16083175
254	0xbd4feb34	-0.050761417
255	0xbb204d74	-0.0024460228

actor.4.bias f4 [36]
0	0xbd040973	-0.032235574
1	0x3d8626b6	0.06550352
2	0x3d20aacc	0.039225385
3	0x3d26f1dc	0.040758
4	0x3d98a238	0.07452816
5	0xbcd81a47	-0.026379718
6	0x3e097129	0.13422073
7	0x3d53ee7c	0.05174111
8	0xbd8762d6	-0.06610648
9	0xbdc27a0d	-0.094959356
10	0xbd0141a9	-0.03155676
11	0xbde9dc74	-0.11419001
12	0xbc955973	-0.01823113
13	0x3e69d851	0.22836424
14	0x3d02d452	0.031940766
15	0xbbaa52a8	-0.0051978417
16	0xbd8097a1	-0.06278921
17	0xbe194b09	-0.1497003
18	0xbd7dfad3	-0.062006783
19	0x3cb687a7	0.022281481
20	0xbdbb4429	-0.0914386
21	0xbd608694	-0.054815844
22	0xbe242e36	-0.16033253
23	0xbe3f5aa8	-0.18686926
24	0x3e0e8d01	0.13920976
25	0xbe22d217	-0.15900455
26	0x3e50314c	0.20331305
27	0x3cce6ff7	0.025199873
28	0xbde79e20	-0.11309457
29	0x3d505744	0.050864473
30	0x3d83a865	0.06428603
31	0xbcc84259	-0.0244457
32	0xbda20902	-0.07911874
33	0x3db2fe65	0.08739928
34	0x3e513ca9	0.20433296
35	0x3e65bfb9	0.22436418

critic.0.weight f4 [64, 62]
0	0x3d9c60c8	0.07635647
1	0x3dab196a	0.08354457
2	0xbdabd831	-0.083908446
3	0x3c1b5b6c	0.009482246
4	0xbd5ebb50	-0.054377854
5	0xbcd44058	-0.025909588
6	0xbb2b0778	-0.002609698
7	0x3ca20431	0.01977739
8	0xbd99bf73	-0.07507219
9	0xbca91594	-0.020640172
10	0xbd702903	-0.05863286
11	0xbd0e39a9	-0.034722958
12	0xbd8052c5	-0.06265787
13	0xbd87de16	-0.066341564
14	0xbde57f33	-0.11205902
15	0xbdb4383a	-0.08799787
16	0xbc0910fe	-0.008365868
17	0xbddd20ab	-0.107972465
18	0xbdf7fe13	-0.12109008
19	0x3db676c8	0.089093745
20	0xbdbb4a0c	-0.09144983
21	0x3db6177c	0.08891198
22	0x3c1010d6	0.0087930765
23	0xbc983c3e	-0.018583413
24	0x3dc93eef	0.09826457
25	0xbdcb1727	-0.09916525
26	0x3d7934c0	0.060841322
27	0x3dad99b3	0.084765814
28	0x3de9e7c5	0.1142116
29	0xbe1a138f	-0.15046524
30	0x3c665e51	0.014060573
31	0xbcfd8f70	-0.030952185
32	0xbdc0fbf2	-0.09423055
33	0x3db1a39a	0.08673783
34	0xbcb73252	-0.022362862
35	0x3dafeb73	0.0858983
36	0xbd8c0d16	-0.068384334
37	0xbd66b474	-0.056324437
38	0x3d4395f1	0.047750417
39	0x3c84ef86	0.016227495
40	0x3d9510c4	0.072785884
41	0x3d5de969	0.054177675
42	0x3dc571e3	0.09640863
43	0xbdbfba3b	-0.093616925
44	0xbc04979e	-0.008092789
45	0x3d6bae49	0.05753926
46	0xbd3cd4d7	-0.046101417
47	0xbda4104d	-0.080109216
48	0x3dc61f7f	0.09673976
49	0xbe099f11	-0.13439585
50	0xbdd6de2a	-0.10491593
51	0xbdea2c6d	-0.11434255
52	0x3d00b712	0.03142459
53	0x3b824d60	0.003976509
54	0xbdef0cb6	-0.11672346
55	0x3d49db5e	0.04928147
56	0x3ccfe55a	0.025377918
57	0x3d30368a	0.043020763
58	0xbdfe98af	-0.12431466
59	0xbdf895be	-0.12137936
60	0xbe107d46	-0.14110288
61	0xbd7c4d0f	-0.061596926
62	0xbde719dd	-0.1128423
63	0x3d83bfcc	0.06433067
64	0xbc8d3928	-0.017239168
65	0xbd4d2513	-0.050084185
66	0x3db856ba	0.09000917
67	0x3e467830	0.19381785
68	0x3e0261ad	0.12732573
69	0x3d4de7d7	0.050269928
70	0xbd83f2ad	-0.06442771
71	0xbe7b03e5	-0.24513204
72	0xbe3447c9	-0.17605509
73	0x3e954b39	0.29158953
74	0xbe42a640	-0.19008732
75	0xbd6423ae	-0.05569809
76	0x3d030045	0.03198268
77	0x3d8ca835	0.068680204
78	0x3dd4f5a3	0.10398414
79	0x3ddf2efb	0.10897633
80	0x3d8b91bf	0.06814908
81	0xbbdf0445	-0.006805929
82	0xbd05605d	-0.032562602
83	0xbdf85976	-0.12126438
84	0x3d88dae2	0.066823736
85	0xbcebcd00	-0.028784275
86	0x3ca310a8	0.019905403
87	0xbceaf3ed	-0.028680766
88	0x3da7fc15	0.08202378
89	0x3b843abd	0.0040353225
90	0x3e58b84e	0.21164057
91	0x3e6f0c81	0.23344614
92	0x3d292ff0	0.041305482
93	0x3aaabbec	0.0013025976
94	0x3d70dd73	0.05880494
95	0xbd99545f	-0.07486796
96	0x3db6e9b5	0.08931295
97	0x3dc97be7	0.098380856
98	0x3d6e2d88	0.05814889
99	0x3b869500	0.0041071177
100	0x3beb21d9	0.007175666
101	0x3de3215b	0.110903464
102	0x3ddd04ec	0.107919544
103	0xbc94156a	-0.018076617
104	0x3d529e86	0.05142071
105	0x3a7c4460	0.0009623226
106	0xbd38f14b	-0.04515199
107	0xbded2119	-0.115785785
108	0x3bd1408d	0.006385869
109	0xbda49256	-0.08035724
110	0x3e92a8ae	0.28644317
111	0x3da7de4a	0.08196695
112	0x3c7ce11c	0.01543453
113	0x3db10089	0.0864268
114	0xbd3f1bb0	-0.046657264
115	0xbd19814b	-0.03747682
116	0xbd7c646f	-0.06161922
117	0xbe623974	-0.22092229
118	0xbd3927fc	-0.045204148
119	0x3d48468e	0.04889541
120	0x3c9e5cca	0.019331355
121	0x3e3d018e	0.18457624
122	0xbda1916a	-0.07889064
123	0x3e0f2033	0.13977127
124	0xbdd74f1a	-0.10513134
125	0x3da32314	0.07965675
126	0x3dd7641f	0.105171435
127	0x3d472423	0.048618447
128	0xbdc7585f	-0.09733652
129	0xbdcdc9b1	-0.10048235
130	0xbdcef30b	-0.101049505
131	0xbdaf09d5	-0.08546797
132	0x3e2019b0	0.15634799
133	0x3dc9ff28	0.0986312
134	0x3e2311e7	0.15924798
135	0x3e0f06d8	0.13967454
136	0xbd132894	-0.03592737
137	0x3dbf2c69	0.093346424
138	0xbbbfbfc7	-0.005851719
139	0xbdebb11a	-0.11508389
140	0xbca31f01	-0.019912245
141	0xbd99a10a	-0.07501419
142	0x3df274de	0.11838697
143	0xbdd3839b	-0.10327836
144	0x3df2c62b	0.11854204
145	0xbcafec77	-0.02147506
146	0x3cbc58ce	0.022991564
147	0x3de27c04	0.1105881
148	0xbd70b2c3	-0.05876423
149	0xbd40bdad	-0.04705589
150	0x3d5737c4	0.052543417
151	0xbd03cac2	-0.032175787
152	0xba96a017	-0.0011491802
153	0x3d6ace08	0.057325393
154	0xbd7811da	-0.0605639
155	0x3c225914	0.009908933
156	0xbd63e6a6	-0.055639885
157	0x3d537ec6	0.051634572
158	0x3c4969fd	0.012293336
159	0xbdc80e22	-0.097683206
160	0xbd31390a	-0.043267287
161	0x3c991fd4	0.018691935
162	0x3cf00679	0.029299961
163	0x3e473c96	0.19456705
164	0xbe206786	-0.15664491
165	0xbc83643f	-0.016039012
166	0xbcae5c29	-0.02128418
167	0xbdcb6f9d	-0.09933398
168	0x3d099e42	0.033598192
169	0xbddc8eb2	-0.107694045
170	0x3b5211b5	0.0032054011
171	0xbe22f9f3	-0.1591566
172	0xbdc61710	-0.096723676
173	0x3dc50cdc	0.09621593
174	0xbddb1a72	-0.106984034
175	0x3d9e1baf	0.07720124
176	0x3d7767de	0.06040179
177	0x3d1c06c5	0.038092393
178	0x3d4f5651	0.050619427
179	0xbdd7ffa7	-0.10546809
180	0xbe2b16c9	-0.1670791
181	0xbbe9a2b5	-0.007129992
182	0xbc04d314	-0.008106966
183	0x3db4e35c	0.08832428
184	0xbd165a0a	-0.03670696
185	0x3c8248e4	0.015903898
186	0xbdeb8e5d	-0.11501763
187	0xbdef11c2	-0.11673309
188	0xbdd9ab8d	-0.10628424
189	0x3db5f55c	0.08884689
190	0xbd9621f5	-0.073306955
191	0xbd365800	-0.044517517
192	0xbdbef743	-0.09324505
193	0x3e890417	0.26760933
194	0xbd1884ef	-0.03723615
195	0xbe337dd7	-0.17528473
196	0xbcca1f59	-0.02467315
197	0x3dac402a	0.08410676
198	0x3d13258c	0.03592448
199	0x3b9cc591	0.004784294
200	0xbd9a9a89	-0.075490065
201	0xbba74b30	-0.0051053986
202	0xbd1b5f91	-0.037932936
203	0xbda16d4b	-0.07882174
204	0xbdabc982	-0.08388044
205	0x3db82345	0.08991102
206	0x3caca5da	0.021075178
207	0x3d2ab859	0.041679714
208	0xbdbd03d5	-0.092292465
209	0x3cc0e2b2	0.023545597
210	0x3de7b48d	0.11313734
211	0x3d8e754d	0.06955967
212	0xbbb6094c	-0.0055553075
213	0xbd6f7937	-0.05846521
214	0x3e43556c	0.19075555
215	0x3de92e88	0.11385828
216	0x3c59c543	0.01329166
217	0x3cba4685	0.022738704
218	0xbd13870b	-0.03601746
219	0xbba404a7	-0.0050054374
220	0xbcf4dd5b	-0.029890707
221	0xbd9a498e	-0.07533561
222	0xba161bbc	-0.00057261786
223	0x3c420d2a	0.011843959
224	0xbe107ca0	-0.1411004
225	0x3d6060a6	0.05477967
226	0xbd1102fe	-0.035403244
227	0xbde591e1	-0.11209465
228	0x3d05e04c	0.03268461
229	0xbb7e9183	-0.0038844056
230	0xbe05db6c	-0.13071984
231	0xbe59d09b	-0.21270983
232	0x3da3c05b	0.07995673
233	0x3d458a92	0.048227854
234	0xbe19ac8b	-0.15007226
235	0xbe2a64a3	-0.16639952
236	0x3de6bb60	0.11266208
237	0x3bd3bfb3	0.0064620613
238	0x3db715bd	0.08939693
239	0xbd29c376	-0.04144617
240	0xbe13b08c	-0.14422816
241	0xbb7f58c2	-0.0038962816
242	0xbdee1f29	-0.11627037
243	0xbca04713	-0.01956514
244	0xbd1a44ad	-0.03766315
245	0xbd05c1d0	-0.032655537
246	0x3d5b7e49	0.05358723
247	0x3c7d7776	0.015470376
248	0x3d8bf83e	0.06834458
249	0x3db87901	0.09007455
250	0xbdea2ed0	-0.1143471
251	0xbda831c8	-0.0821262
252	0xbdf8252e	-0.121164665
253	0x3ce5076e	0.027957644
254	0x3e3420cf	0.1759064
255	0x3e5ea9b9	0.21744432

critic.0.bias f4 [64]
0	0xbe16e0a1	-0.14734127
1	0x3d76e25b	0.060274463
2	0xbe3141e1	-0.17310287
3	0xbd7ab777	-0.061210122
4	0xbd291b59	-0.041285846
5	0xbccc0f81	-0.024909737
6	0xbbe0c2ed	-0.0068591745
7	0xbd4e23ca	-0.0503271
8	0xbdfc02e5	-0.123052396
9	0xbd75d768	-0.06001988
10	0xbddf62f7	-0.10907548
11	0xbc78f2ec	-0.015194636
12	0xbc49da16	-0.012320062
13	0xbd93a594	-0.07209316
14	0xbd82d0eb	-0.06387504
15	0x3d6f9a75	0.05849691
16	0xbe107a9f	-0.14109276
17	0xbd8a84dd	-0.06763623
18	0xbc579fac	-0.013160627
19	0x3df6653f	0.1203103
20	0xbdd98848	-0.10621697
21	0xbde05b6d	-0.10954938
22	0x3d80478c	0.062636465
23	0xbba38a3d	-0.0049908445
24	0x3d4c47d9	0.049873207
25	0xbd58028a	-0.052736796
26	0xbc7a8552	-0.015290575
27	0x3c91490c	0.017735027
28	0x3d45b0d2	0.048264332
29	0x3bbf0d8d	0.005830473
30	0x3c3b86df	0.01144573
31	0xbdfeaec2	-0.12435676
32	0xbd535f48	-0.05160454
33	0xbdd218d3	-0.10258641
34	0x3d299b65	0.04140796
35	0x3d572410	0.052524626
36	0xbd80256b	-0.06257137
37	0x3e3a5dae	0.18199798
38	0xbd1d864a	-0.038458146
39	0x3dffb53f	0.12485742
40	0xbdd9dc81	-0.10637761
41	0xbdbe5365	-0.0929325
42	0xbdfebc0d	-0.124382116
43	0xbbaf1308	-0.005342845
44	0xbd8a28d7	-0.06746071
45	0xbda7c2aa	-0.08191426
46	0x3d4dd4be	0.050251715
47	0x3ce28f00	0.027656078
48	0x3deda41a	0.116035655
49	0xbd8a3941	-0.067492016
50	0x3db4c366	0.08826332
51	0x3d5f24b1	0.05447835
52	0x39564a96	0.00020436416
53	0xbda533f9	-0.080665536
54	0xbe175774	-0.14779454
55	0xbe545966	-0.20737228
56	0x3e17fa41	0.14841558
57	0x3dd865ee	0.105663165
58	0xbdb82351	-0.08991111
59	0xbc45b43b	-0.012066896
60	0x3c01a0fd	0.007911918
61	0xbe0f549c	-0.1399712
62	0xbda8e50e	-0.08246814
63	0xbe29d77e	-0.1658611

critic.2.weight f4 [64, 64]
0	0xbca6491f	-0.020298539
1	0x3e4abde3	0.19798999
2	0xbb1c016d	-0.002380456
3	0x3b95c384	0.0045704264
4	0x3d3b2bd7	0.045696106
5	0xbca5870e	-0.020206
6	0x3bc3df03	0.005977513
7	0x3d068a37	0.032846656
8	0x3d3f2756	0.046668373
9	0xbdaf0c8d	-0.08547316
10	0xbc87839f	-0.016542254
11	0x3e3d68b5	0.18496974
12	0xbcdb2783	-0.02675224
13	0x3e483c5b	0.19554274
14	0x3dbf8b37	0.09352725
15	0x3dbc697b	0.09199806
16	0x3d1f5491	0.03889901
17	0x3de5c04c	0.11218318
18	0xbde0ea5f	-0.10982203
19	0x3e00279e	0.12515113
20	0xbe093089	-0.13397421
21	0xbd14a426	-0.036289357
22	0x3da9f327	0.08298331
23	0x3d23805d	0.03991734
24	0xbd48c7bf	-0.049018618
25	0xbd118aeb	-0.035532873
26	0xbde7973b	-0.11308142
27	0x3c53fc33	0.012938547
28	0xbe0b6036	-0.1361092
29	0x3e1aac17	0.1510471
30	0x3c38d1b0	0.011280462
31	0xbdac41cc	-0.08410987
32	0x3dc8aebb	0.09798952
33	0xbd9518bf	-0.072801106
34	0x3dee0810	0.116226315
35	0x3cc09ab5	0.02351127
36	0xbe3e5471	-0.185869
37	0x3e2f1d0a	0.17100921
38	0xbd3ceb84	-0.046123043
39	0xbe670db5	-0.22563823
40	0x3ceff3f8	0.029291138
41	0x3dea2e14	0.1143457
42	0x3d9d53d6	0.07682006
43	0xbe9f5e0b	-0.31126437
44	0xbdc7e000	-0.097595215
45	0xbc5a3751	-0.0133188525
46	0x3db8c09e	0.09021114
47	0xbde93d7f	-0.113886826
48	0x3dd0e9ab	0.10200819
49	0x3d4224cb	0.04739837
50	0xbc9de1d1	-0.019272717
51	0x3e8cd87d	0.27508917
52	0xbda10b6d	-0.078635074
53	0x3c55439f	0.01301661
54	0xbdcc3b5a	-0.09972258
55	0xbcc5db83	-0.024152523
56	0x3e128bde	0.14311168
57	0x3db39326	0.08768301
58	0x3d48dad7	0.049036827
59	0xbe0d3ef0	-0.1379354
60	0xbcc2778a	-0.023738641
61	0xbd3637f1	-0.044486944
62	0x3e007931	0.12546231
63	0xbdd32fae	-0.103118286
64	0xbc6d49e0	-0.014482945
65	0x3b8b5a09	0.0042526764
66	0xbc920095	-0.017822543
67	0xbcb6b3f1	-0.0223026
68	0xbdb3bcf0	-0.08776271
69	0xbd8ef184	-0.06979659
70	0xbda7fff1	-0.08203114
71	0x3dd063b0	0.10175264
72	0xbd5d7583	-0.054067146
73	0xbdd63b25	-0.104605
74	0xbdd4ec9d	-0.10396693
75	0xbdd40e87	-0.10354333
76	0xbd23a620	-0.03995335
77	0xbd8a2d09	-0.06746871
78	0xbdd7b4b9	-0.10532517
79	0xbd642901	-0.055703167
80	0x3da8ea41	0.082478054
81	0xbde39b3c	-0.11113593
82	0xbcf47319	-0.02984004
83	0x3dc8b57b	0.0980024
84	0x3d8446e0	0.06458831
85	0x3c621ec4	0.01380128
86	0x3d0d50e5	0.034500975
87	0xbd6d43a6	-0.057925843
88	0xbde81d0d	-0.11333666
89	0xbdb734c3	-0.089456104
90	0xbdb6d3d1	-0.089271195
91	0x3d9c1905	0.076219596
92	0xbc59aac7	-0.013285345
93	0xbdebce4a	-0.11513956
94	0xbde3def4	-0.11126509
95	0xbcd7540e	-0.026285198
96	0x3d901a74	0.070362955
97	0xbaba9f57	-0.0014238161
98	0x3bf011d2	0.007326343
99	0xbd26b347	-0.040698316
100	0xbcac1251	-0.021004828
101	0x3d6222f5	0.05520912
102	0x3cd18239	0.02557479
103	0xbcfa637e	-0.03056502
104	0x3dffcf50	0.124907136
105	0x3d967c64	0.073479444
106	0x3cf32029	0.029678421
107	0x3d325a67	0.043543246
108	0x3d881568	0.06644708
109	0xbd01850d	-0.031621028
110	0x3c0db077	0.0086480295
111	0xbd52c245	-0.0514548
112	0xbd669194	-0.056291178
113	0xbc4d37a5	-0.012525474
114	0xbdc89836	-0.09794657
115	0x3dbb3bd7	0.09142273
116	0xbdcf0774	-0.101088434
117	0xbdc0c8fd	-0.094133355
118	0xbcfbaf62	-0.030723277
119	0x3d881bfa	0.06645961
120	0xbd9b7667	-0.07590943
121	0xbcd913d5	-0.026498714
122	0x3d65914a	0.05604676
123	0xbdd7e1cb	-0.105411135
124	0x3dd40bb1	0.103537925
125	0x3d61d96a	0.055138983
126	0x3cc5e9a4	0.02415926
127	0xbc45e634	-0.0120788105
128	0x3da7e74b	0.081984125
129	0xbdcf7751	-0.1013018
130	0xbdb6765d	-0.08909295
131	0x3e1a1092	0.15045384
132	0xbe284f84	-0.16436583
133	0x3cd3e102	0.025864128
134	0xbd644707	-0.0557318
135	0x3e298406	0.16554269
136	0xbdebe7bb	-0.115188085
137	0x3cfb3637	0.0306655
138	0xbb1548fa	-0.0022779093
139	0xbd32ff97	-0.04370078
140	0xbceb177a	-0.028697718
141	0xbd7e6cd8	-0.06211552
142	0x3e1087bc	0.14114279
143	0xbd586fba	-0.052840926
144	0xbd6cefd6	-0.057845913
145	0x3ce51680	0.02796483
146	0x3d635086	0.055496715
147	0xbe033f1f	-0.12817048
148	0x3db6adf7	0.089199
149	0x3d80c31f	0.062872164
150	0x3e1b4cf7	0.15166079
151	0x3e524b05	0.2053643
152	0xbe02f2f8	-0.12787998
153	0x3df06685	0.11738304
154	0x3df68ab1	0.12038172
155	0xbcc5c212	-0.024140391
156	0x3e6e7b07	0.23289119
157	0xbd323146	-0.043504022
158	0x3d433637	0.047659125
159	0xbdcd23a9	-0.10016567
160	0xbe274b28	-0.16337264
161	0xbc213eec	-0.009841662
162	0xbd23b969	-0.039971743
163	0xbdcbaeba	-0.09945436
164	0x3e2c7e02	0.16844943
165	0xbc2a6068	-0.010398962
166	0x3dbc1023	0.09182765
167	0x3d6ec8e9	0.05829707
168	0x3d512ea2	0.051069863
169	0x3debedaf	0.11519944
170	0xbd276c54	-0.040874794
171	0x3dc91c23	0.0981982
172	0x3cf64fea	0.030067403
173	0xbe0456d1	-0.12923743
174	0xbca86b84	-0.02055908
175	0x3e326835	0.17422564
176	0x3da1724a	0.07883127
177	0xbd98f23a	-0.07468076
178	0xbdfec125	-0.12439183
179	0xbe43219e	-0.19055793
180	0x3e597968	0.21237719
181	0x3d8018f8	0.062547624
182	0xbc8a3fcc	-0.016876124
183	0x3d089fe0	0.033355594
184	0xbd616222	-0.055025227
185	0xbe0f9667	-0.14022218
186	0xbe41573e	-0.18880937
187	0x392e8338	0.00016642816
188	0xbd4eb2eb	-0.0504636
189	0xbda21caa	-0.079156235
190	0xbccc1109	-0.024910467
191	0xbd92786c	-0.07151875
192	0xb9bb6232	-0.0003574058
193	0x3ce34164	0.027741142
194	0xbdf60fb8	-0.12014717
195	0xbcb40731	-0.021976085
196	0x3c745bad	0.014914435
197	0xbdb9a3e4	-0.09064463
198	0x3d378086	0.044800304
199	0xbc9f7255	-0.019463697
200	0xbd6be937	-0.057595458
201	0xbcb17d0f	-0.021666078
202	0x3c8de89e	0.017322835
203	0xbd7ad837	-0.061241355
204	0x3c941fd8	0.01808159
205	0xbdfa11fe	-0.12210463
206	0x3e2e90c8	0.17047417
207	0x3e045bcf	0.12925647
208	0xbb6344e7	-0.003467852
209	0xbd9da5fb	-0.07697674
210	0xbdf13d5a	-0.1177928
211	0x3d10e3a2	0.035373338
212	0x3d177b4c	0.03698282
213	0x3e100d70	0.14067626
214	0xbdd10137	-0.1020531
215	0x3d28ee3b	0.04124282
216	0xbd1909a1	-0.0373627
217	0xbd9412d3	-0.07230153
218	0x3c3eb67e	0.011640189
219	0xbcf8147e	-0.030283209
220	0x3d2992e4	0.04139985
221	0xbd95a273	-0.07306375
222	0x3d4ccaf3	0.049998235
223	0xbd59d0ba	-0.053177573
224	0xbcd4f2e0	-0.025994718
225	0x3d716bcc	0.058940694
226	0xbc4aa6e8	-0.012368895
227	0xbe1cd09d	-0.15313955
228	0x3d13cb69	0.03608266
229	0xbdd39195	-0.10330502
230	0xbd49e5a0	-0.049291253
231	0xbdb215f1	-0.08695591
232	0xbd43391f	-0.047661897
233	0x3de36213	0.111026905
234	0xbdcbee82	-0.09957601
235	0x3d983a74	0.07433024
236	0xbd12c453	-0.03583176
237	0x3db15916	0.0865957
238	0xbcd187af	-0.025577394
239	0xbc13da90	-0.009024277
240	0xbde83849	-0.113388605
241	0x3d00e7ff	0.03147125
242	0xbd3b12a2	-0.045672067
243	0xbd965b65	-0.07341651
244	0x3d3c0d15	0.045910913
245	0x3ba6fd6f	0.0050961296
246	0xbd457fa2	-0.048217423
247	0x3e0306ca	0.12795559
248	0xbbbd9233	-0.0057852506
249	0x3d33c520	0.043889165
250	0xbda4f2da	-0.08054133
251	0xbe19034b	-0.14942662
252	0xbd8e11ca	-0.06936987
253	0xbe2e8b85	-0.1704541
254	0x3e18bd0d	0.14915867
255	0x3e008db2	0.12554052

critic.2.bias f4 [64]
0	0x3dc8dea2	0.09808089
1	0xbd878301	-0.06616784
2	0x3dc31856	0.09526126
3	0xbd279a8e	-0.04091888
4	0xbd06bb8a	-0.032893695
5	0xbddaaf9b	-0.10678025
6	0xbcd0355d	-0.02541607
7	0xbe1f2fad	-0.1554553
8	0xbdc2f743	-0.09519818
9	0xbd881eec	-0.06646523
10	0x3ca5fbd6	0.020261686
11	0x3d66896d	0.056283403
12	0xbd5c6ed5	-0.053816635
13	0x3c895da9	0.016768293
14	0xbd2cf996	-0.04223021
15	0xbbbd4ce2	-0.0057769874
16	0x3c561a38	0.0130677745
17	0xbe175b24	-0.14780861
18	0xbbe86670	-0.0070922896
19	0x3d18ae3f	0.03727555
20	0x3cd6acba	0.02620541
21	0xbac40cdc	-0.0014957446
22	0xbe51c98a	-0.20487037
23	0xbe128648	-0.14309037
24	0x3d23139e	0.03981363
25	0xbd21c998	-0.039498895
26	0xbdbf54d7	-0.09342354
27	0xbdd8455a	-0.10560103
28	0xbc39da5a	-0.011343563
29	0xbbb6e959	-0.0055820164
30	0xbd74d88f	-0.05977684
31	0xbd010359	-0.031497333
32	0xbdc59a59	-0.0964858
33	0xbdd6398c	-0.10460195
34	0x3e0ef68c	0.13961238
35	0xbbaa97a7	-0.0052060666
36	0xbdb8e3fd	-0.0902786
37	0xbda518cf	-0.080613725
38	0xbc590f26	-0.013248241
39	0xbd6f6916	-0.058449827
40	0x3cb9db72	0.022687647
41	0xbcb52d0f	-0.022116212
42	0x3dc14902	0.09437753
43	0xbaffa285	-0.0019503391
44	0x3d8699f5	0.06572334
45	0x3d8f6fad	0.07003722
46	0xbda9ff66	-0.083006665
47	0xbd02758c	-0.031850383
48	0xbd97ccb5	-0.07412092
49	0xbc942c01	-0.018087389
50	0x3dc3b4a3	0.09555938
51	0xba16a736	-0.0005746962
52	0xbd36da7e	-0.044641964
53	0xbdcb4e1f	-0.0992701
54	0xbd67bade	-0.056574695
55	0x3d0bffe4	0.034179583
56	0x3d4def64	0.05027713
57	0x3ba819d7	0.0051300335
58	0xbdbe303d	-0.092865445
59	0xbd3bd6e9	-0.04585925
60	0xbe04b8d7	-0.12961136
61	0xbc947342	-0.018121365
62	0xbd2994c7	-0.04140165
63	0xbdded6e6	-0.108808324

critic.4.weight f4 [1, 64]
0	0xbe06214a	-0.13098636
1	0x3d074101	0.033020977
2	0x3e0302bb	0.1279401
3	0xbb2b828a	-0.0026170337
4	0xbe51d39c	-0.20490879
5	0xbcc6ed08	-0.024282947
6	0x3d6a8408	0.05725482
7	0x3da5592d	0.080736496
8	0x3c906125	0.017624447
9	0x3ad03e18	0.0015887646
10	0x3d9cd39f	0.07657551
11	0x3ce63d3d	0.028105373
12	0x3bda6cd8	0.006665807
13	0x3d1ec145	0.038758535
14	0xbd4618e7	-0.048363592
15	0xbce897b7	-0.028392656
16	0xbd50dcb3	-0.050991725
17	0xbc28bd03	-0.01029897
18	0x3baf0094	0.005340645
19	0x3dd5e6b6	0.10444395
20	0x3af32af6	0.0018552232
21	0x3b8745eb	0.004128208
22	0x3c1c2cea	0.009532193
23	0x3d2343c1	0.039859537
24	0x3bccf164	0.006254362
25	0xbd3df9bb	-0.04638074
26	0x3c340dbc	0.010989603
27	0x3b46a5df	0.003031127
28	0x3b25d6e9	0.0025305098
29	0x3bb0835e	0.005386754
30	0xbb86c8cf	-0.0041132937
31	0x3d3e10b2	0.04640264
32	0x3bdf96a5	0.006823378
33	0x3d90c214	0.070682675
34	0xbe0309a5	-0.12796648
35	0x3c53f13a	0.012935931
36	0x3c0b3185	0.008495693
37	0xbd73f7c9	-0.05956248
38	0xbde7647f	-0.11298465
39	0x3d730967	0.05933514
40	0xbd22fc26	-0.03979125
41	0x3d3d3d48	0.04620102
42	0x3df5a9b6	0.119952604
43	0xbb176255	-0.0023099382
44	0xbdb5fb65	-0.0888584
45	0x3d15f913	0.03661449
46	0x3d11f485	0.035633583
47	0x3b67f2c0	0.0035392493
48	0x3c7a6c31	0.015284584
49	0x3c574bf7	0.01314067
50	0xbd8c1f96	-0.06841962
51	0x3e2625c9	0.16225351
52	0x3dc07a30	0.093983054
53	0x3a2bdf1e	0.00065563794
54	0x3ba7de57	0.0051229405
55	0x3c2733bc	0.0102052055
56	0x3da199b7	0.07890647
57	0xbc0436e2	-0.008069726
58	0xbba0748d	-0.0048967064
59	0x3c1f6e1e	0.009730844
60	0xbcd7cc3b	-0.026342502
61	0x3d8f4cbb	0.06997057
62	0xbddbb38a	-0.10727604
63	0xbdbc0982	-0.09181501
