RL/CC2-Cardiff-implementation/GT-Cardiff-CC2/Models/PPOxCCE-C4/3000.pth (torch, 78850 bytes, 11 tensors)

actor.0.weight f4 [64, 62]
000000 ed 40 79 ba e7 86 8b 3d 2a 12 d6 bd 3c 6a bf bd
       -0.0009508271 0.0681284 -0.10452683 -0.093464345
000010 59 d2 2f 3e d7 81 8b 3e bf fe 1e be 52 ae 36 bd
       0.17170085 0.27247497 -0.15526865 -0.04459984
000020 67 e5 9f 3d 11 e1 de bd 0e 01 45 be b7 f4 47 be
       0.07807427 -0.10882772 -0.19238684 -0.19526945
000030 e1 3a ce be b2 72 54 be 10 63 89 bd a2 3b 38 be
       -0.40279296 -0.20746878 -0.06708348 -0.17991498
000040 81 a6 4d 3d 4d 10 9c 3d 77 54 b0 bd 46 86 62 bd
       0.05020762 0.076202966 -0.086098604 -0.055303834
000050 5d f1 3c 3d 15 fb d7 3d 86 1c d6 bc 12 a2 c2 3d
       0.04612862 0.10545937 -0.026136648 0.09503569
000060 58 b1 a7 bc c0 2c 5c 3c cf 82 eb 3d 99 48 f1 bd
       -0.020470306 0.013438404 0.11499559 -0.11781425
000070 11 b9 15 bf 50 86 b0 be ac 4f be 3d f6 87 c6 3e
       -0.58485514 -0.34477472 0.0929254 0.38775605
000080 cf 96 a8 bd 33 76 6f bd b9 b6 b5 bd 94 98 f3 bd
       -0.082318895 -0.058462333 -0.08872742 -0.11894336
000090 a9 54 9f be ff f7 1f bd 20 f0 fd 3d a6 da f3 3d
       -0.31119278 -0.039054867 0.12399316 0.11906938
0000a0 f9 82 be 3d ed c8 67 be f6 29 25 3e df d7 df bd
       0.09302325 -0.22635241 0.16129288 -0.10929846
0000b0 c2 b6 f6 bc b6 21 ed bd b4 d2 43 3e f0 e4 1a 3e
       -0.030116443 -0.115786955 0.19123346 0.15126395
0000c0 48 5e 1f 3d a1 ec 35 3c c0 f2 3f 3e 8c c3 4f 3e
       0.038908273 0.01110378 0.18744946 0.20289439
0000d0 84 74 4e 3d 7b fa 91 3d c4 ab 7c 3e 46 ce 0e bd
       0.050404087 0.071278535 0.24674898 -0.034864686
0000e0 77 4f d3 3d 70 a7 c9 bd 22 f1 62 3d 18 db f9 3d
       0.10317891 -0.09846389 0.055405743 0.12199992
0000f0 59 c3 eb 3d 6b e2 50 3e 94 11 9a bd 63 27 1d 3d
       0.11511869 0.20398872 -0.07522884 0.03836764
000100 1b c9 8e 3d 8d 50 83 bc 35 02 ad 3d 97 1f e6 bd
       0.069719516 -0.01602962 0.084476866 -0.11236494
000110 f4 7f df 3d fb b7 11 be 36 78 98 be d9 8c 6b be
       0.10913077 -0.14230339 -0.29779214 -0.23002948
000120 4c 52 cc 3e 7a 0d 38 3f ea 04 0e 3e 2c 0d 89 3d
       0.39906538 0.71895564 0.13869062 0.066919655
000130 ac 36 15 bd 17 1e cf bd 4d 6a 3f 3c b5 b7 a2 bd
       -0.036429092 -0.10113161 0.011683059 -0.079451956
000140 d5 65 f2 bd f4 17 e7 3d 48 c4 c5 3d 05 ba 01 be
       -0.11835829 0.112838656 0.09656578 -0.12668617
000150 23 bb c2 3c 66 43 af bc fb 34 ab bc 27 1f 6e bd
       0.023770874 -0.021394443 -0.020899286 -0.058135178
000160 12 0b 48 3d 51 0e 9a bd c6 21 1a bc ab 0c 78 bd
       0.048838682 -0.07522262 -0.009407466 -0.060558956
000170 de e0 57 3d 9e 32 19 3e 95 b6 00 be 40 b9 a8 bd
       0.052704684 0.14960715 -0.1256965 -0.08238459
000180 b6 de 81 3d 05 c1 d9 3c 3d c8 96 be 79 a3 46 be
       0.06341307 0.026581297 -0.29449645 -0.19398297
000190 81 87 a6 3d 1b 96 f2 3d 30 70 2c be fa 22 ec bd
       0.08131314 0.118450366 -0.16839671 -0.11530109
0001a0 30 60 a0 bd ed 48 1b 3d e4 55 d8 bd 3c 53 03 be
       -0.07830846 0.037911344 -0.10563257 -0.1282472
0001b0 81 ff fa bc 75 aa 1c bd 6a 02 67 bd fb bf 06 3e
       -0.030639412 -0.038248498 -0.056398787 0.13159172
0001c0 28 e8 33 be 35 30 43 3e 72 3e b2 3d f9 e5 0c be
       -0.1756903 0.19061358 0.08703317 -0.13759603
0001d0 27 4a 25 3d c8 6a be bd be 61 b7 bc a8 c0 f6 3c
       0.04035392 -0.09297711 -0.022385474 0.030121163
0001e0 24 ab 10 bd 2d e1 87 3d e1 ff 1d be fc 38 de 3d
       -0.035319462 0.06634746 -0.15429641 0.10850713
0001f0 3e 7f f9 bd 29 29 9a bd 3f 38 02 bd 89 64 7d bd
       -0.12182473 -0.07527382 -0.03179192 -0.061863456
000200 2a 81 20 be e2 c4 c7 bd 16 dd 82 be e3 69 d8 be
       -0.15674272 -0.09754349 -0.255593 -0.42268285
000210 0a 35 c9 be c7 05 19 be dc 83 9c 3e cf 19 47 3e
       -0.39298278 -0.1494361 0.3056935 0.19443439
000220 5f 09 2d 3e 48 6d 46 3e f7 bc 34 3e b8 de c9 3e
       0.16898106 0.19377625 0.1765021 0.39427733
000230 0c 60 f6 3d f8 2c a5 3d 5c f0 f6 3d 17 7c 16 bc
       0.12030038 0.08065218 0.12057564 -0.009184859
000240 6a a6 e9 bd 86 9c 76 bd d4 19 b1 3d 1e d1 57 ba
       -0.11408694 -0.060207866 0.086475044 -0.000823276
000250 a7 47 81 bd 98 50 c7 bd 5f 69 f3 bd fc 85 db bd
       -0.06312495 -0.09732169 -0.11885332 -0.10718915
000260 d4 16 74 3e 5c e3 8d 3e 84 1a 2d 3e 3e 10 05 be
       0.23836833 0.27712524 0.16904646 -0.12994477
000270 4e 3e a2 3d 1c 87 cb bd b6 f2 db bc 80 ec 52 bd
       0.0792204 -0.099378794 -0.026849132 -0.051495075
000280 4a 26 87 bd d9 eb 6a be 46 32 ed bd 69 7f cf bd
       -0.065991 -0.22941531 -0.115818545 -0.101317234
000290 7f 37 85 bd d9 21 4c be 88 1f 5c bc 34 62 53 3e
       -0.06504726 -0.19934787 -0.013435252 0.2064293
0002a0 1c 47 24 be be 42 ca 3c dd 49 2d 3d d1 bb db bc
       -0.16042751 0.024690028 0.04230677 -0.026822956
0002b0 b8 b1 98 3d b1 0d 0b 3e d4 e0 05 bd d7 4c c8 3d
       0.07455772 0.13579442 -0.032685116 0.09780281
0002c0 ff 1b 70 bc 50 d8 1b be 3a b7 48 3e 73 ca 6c 3c
       -0.014655112 -0.15219235 0.19601145 0.0144525645
0002d0 9f ad ac 3d f6 d2 d9 bc 9c 3c 36 3e 0e 2f f3 3b
       0.08431553 -0.026589852 0.17796558 0.007421381
0002e0 15 21 89 bc 51 8f 46 bd b0 2f fa bc 74 cc da bc
       -0.016739408 -0.04847652 -0.030540317 -0.026708819
0002f0 2a 57 d6 bd 7f ee 8c 3d 8a 9c 9a 3e 62 11 0f 3e
       -0.10465844 0.06881427 0.30197555 0.13971475
000300 bc b0 1d be 1c c7 88 bd ca 0a 94 3e 84 a6 b3 3e
       -0.1539945 -0.06678602 0.2891448 0.3508798
000310 7d 1d 92 be 81 ac bb be 65 c6 26 bd 81 b6 d0 3c
       -0.28538123 -0.36655048 -0.040716548 0.02547765
000320 c3 53 b9 3d f6 5c b1 3e aa 9c c4 bd 2c 8f b2 bd
       0.090491794 0.34641236 -0.09600194 -0.08718714
000330 24 07 97 bd d1 0c b6 3d b2 fd 3a bd 64 63 db 3d
       -0.07374409 0.08889163 -0.0456521 0.10712317
000340 05 1b 3c 3d 64 bd 83 3c 2e d4 77 ba 38 aa cd bc
       0.045924205 0.01608152 -0.00094539195 -0.02510558
000350 87 88 82 3c fe 90 ed bc e2 6d af 3e d9 c5 6b 3c
       0.015934242 -0.028999802 0.3426352 0.014390432
000360 67 4e 74 be 85 99 82 be 9d 06 d2 3d 8b 14 d3 bd
       -0.23858033 -0.2550775 0.10255168 -0.10306653
000370 84 69 15 bc 0e a6 00 3e d5 f1 94 bd 84 87 7b bd
       -0.009119395 0.12563345 -0.07272688 -0.061408535
000380 d2 d0 8b bd 89 c0 47 bd c8 45 37 be eb 70 9d bd
       -0.06826939 -0.0487676 -0.17897713 -0.07687553
000390 db 1b e8 3c 1c 83 28 3e f6 9f e1 3d 94 74 4b 3e
       0.028333595 0.16456264 0.11016838 0.1986869
0003a0 a1 68 ef 3c d3 9c 7a 3e 24 d4 81 bd 62 8c 54 be
       0.029224696 0.24473886 -0.06339291 -0.20756677
0003b0 05 06 cd 3d 3a 1a 10 3d 7d 78 5c bd b5 f5 50 3e
       0.10010914 0.03518126 -0.053825844 0.2040623
0003c0 c9 fb a1 3c 24 43 de 3d 85 a0 61 3b 82 2f 55 39
       0.01977338 0.1085265 0.0034427952 0.00020330961
0003d0 7d 3f 67 bd f7 0b 29 bd 86 ae 9a 3e 3a ea 8f bd
       -0.05645703 -0.041271176 0.30211276 -0.07027097
0003e0 fc 6c e5 3a 05 e2 b0 bc 54 fc 88 bd 3e 82 89 3c
       0.0017503793 -0.02159215 -0.06688753 0.016785737
0003f0 90 1a e5 3e 80 71 06 3e 0e af 90 bd 6e c0 5b 3d
       0.44746828 0.13129234 -0.07064639 0.053650312

actor.0.bias f4 [64]
000000 ff 56 fe 3d 2d d5 b7 3c 84 59 da 3c a5 9d 61 3d
       0.12418937 0.022440517 0.026654013 0.055081982
000010 15 3f 61 bd 7f b9 d8 bd 5e 24 03 3e dd cb 99 3d
       -0.0549918 -0.105822556 0.12806842 0.07509587
000020 af 77 2a 3e b4 d4 47 bd d5 b3 b3 3d 7a bd 0e bc
       0.16647218 -0.048786834 0.087745346 -0.008712167
000030 09 7a 67 bd ce ba b4 3d 20 ab bf 3d 1a ed 1d 3c
       -0.056512866 0.08824693 0.093588114 0.009639049
000040 ed c1 32 be 54 ee cf 3d 18 97 d6 bd 4a 0a 23 3d
       -0.1745679 0.10152879 -0.104780376 0.039804734
000050 e8 4e 06 bd 5a 70 a4 bc 3f 98 66 3d c4 8b d4 bc
       -0.032790095 -0.020073105 0.056297537 -0.025945552
000060 47 40 85 3d 4c 48 53 3d 82 08 b4 3d 19 55 9a bd
       0.065064006 0.05158262 0.08790685 -0.07535762
000070 a1 7c 10 3d d8 f8 39 bd b7 b2 bf bc 62 d3 b2 3d
       0.035275105 -0.04540333 -0.023400648 0.08731724
000080 c1 26 96 3c c3 b4 3a bc 14 6c 2d 3e 68 f4 3a be
       0.018329026 -0.011395636 0.1693576 -0.18257296
000090 0a 13 78 3e 1e c2 27 3e 51 48 1b bd b0 02 69 be
       0.24226013 0.16382644 -0.037910763 -0.22754931
0000a0 56 c0 1e 3e 2b 10 0d 3e a3 e9 a8 bc 06 ca 1b 3d
       0.15503058 0.13775699 -0.02061922 0.03803446
0000b0 70 39 99 3d a3 b6 80 3d e1 06 04 be 74 11 4d 3d
       0.074816585 0.06284835 -0.12893249 0.050065473
0000c0 ba 01 16 3e 76 a9 11 bd c7 a2 25 3d 9c 17 ef bd
       0.14649096 -0.035562 0.04043844 -0.11674425
0000d0 b8 60 62 bd 25 d8 2d 3d 33 b7 44 3e 91 22 ca bd
       -0.05526802 0.04244246 0.1921051 -0.09869874
0000e0 46 73 a5 3d a4 c4 60 bd ec dc 19 be 86 76 0b 3e
       0.08078627 -0.05487503 -0.15025681 0.13619432
0000f0 c7 91 8a 3c 77 c7 29 be b4 b0 da bc 25 33 8c bd
       0.016915215 -0.16579996 -0.026695587 -0.068456925

actor.2.weight f4 [64, 64]
000000 3c f2 87 bd 70 75 06 be f8 02 b5 3d c8 77 9b bd
       -0.066379994 -0.13130736 0.08838457 -0.07591206
000010 0f d6 21 bb 3d 2d b4 3d 32 ce 06 bd 36 c9 a7 bd
       -0.002469424 0.08797691 -0.032911487 -0.08192675
000020 40 59 0d be e4 ed 8f 3b 7c 73 80 bd 30 5a 15 3c
       -0.13803577 0.0043923724 -0.06272027 0.009115741
000030 2c 8b 23 3d d0 1a 54 bd 9a 94 ad 3d 30 8a 08 bd
       0.039927647 -0.051783383 0.08475609 -0.03333491
000040 20 55 4c bd ef 3f cc bd 78 57 1b 3d f6 45 9e bd
       -0.04988587 -0.09973132 0.037925214 -0.07728188
000050 e8 40 d7 3c 19 54 08 bd f2 ef af 3d 90 b7 9f bd
       0.026276067 -0.033283327 0.08590688 -0.07798684
000060 fc 38 7c bd 25 cc 07 bd 88 b6 bf bd 16 8c f9 3c
       -0.061577782 -0.03315367 -0.09360987 0.030462306
000070 ac ff 74 bd d6 5c 0d 3d 37 a4 62 3d 61 3d 79 3d
       -0.05981414 0.034512363 0.05533239 0.06084955
000080 df 1e 24 bd d7 a2 4e 3d 3e c1 ac bd c0 10 ff bd
       -0.040068503 0.050448265 -0.084352955 -0.12454367
000090 55 35 f2 bc 63 9c d2 bd 94 54 c6 bd 00 26 02 3d
       -0.029566446 -0.10283735 -0.09684101 0.03177452
0000a0 61 d3 c1 3d 63 c0 80 bd e6 d1 c3 bc 46 ea e0 bd
       0.094641455 -0.06286695 -0.023903798 -0.10982184
0000b0 68 9c 95 3b 24 3b 8a 3c 00 2b 00 bd 9b 51 a0 3d
       0.004565764 0.016873904 -0.031291008 0.07828065
0000c0 5c ac f0 bd 39 f5 09 bd 5a e0 a6 bd ea e7 bf 3d
       -0.11751625 -0.03368113 -0.081482604 0.09370406
0000d0 32 0b b5 3d 47 e6 da 3d cb e3 c7 3d f0 c7 4a 3d
       0.08840026 0.10688453 0.09760245 0.04950708
0000e0 de 05 c4 bd 1c a6 ad bd 08 7a f5 3c d7 ae 03 be
       -0.095714316 -0.084789485 0.029965416 -0.12859665
0000f0 ab 1d 89 3d 98 96 5e 3d 6d fa 4a 3c 9f 17 01 be
       0.06695112 0.054342836 0.012388808 -0.12606667
000100 71 1b 9c 3e ff 2f bf bd cc 80 ee bd a9 96 24 3e
       0.30489686 -0.093353264 -0.1164566 0.16073097
000110 5f 16 14 3d 94 34 37 bd c2 2a 0c ba ca d6 2d 3e
       0.036154147 -0.044727877 -0.00053469476 0.16976467
000120 72 2d 63 3e 9f 83 cc bc 9d 1a a3 3d 66 1f 92 3e
       0.22185305 -0.024965106 0.079640605 0.2853958
000130 27 6b c6 bd 90 0d 7e be 40 1d 1a 3d ff 88 f8 bd
       -0.096884064 -0.24809861 0.03762555 -0.12135505
000140 a6 33 9e bd 26 71 6e 3e 3c 2f 49 3d 57 04 49 3e
       -0.07724695 0.2328535 0.04911731 0.19630562
000150 93 c2 91 bd 58 38 4d 3e ec 0a 6b bd 5d 26 e7 bc
       -0.0711719 0.20041025 -0.057383463 -0.028216535
000160 d1 5a e1 3d 70 ee 89 bd dc d1 fc bd 17 a8 da 3d
       0.1100365 -0.067349315 -0.12344715 0.10676592
000170 69 19 45 3c 7d 0b 12 3e 19 f0 e7 bd d5 d3 d8 3b
       0.012029984 0.14262195 -0.11325092 0.006617049
000180 a6 ce 6c bd 66 1a 73 bc cb da e9 3d 79 21 c0 3a
       -0.057814263 -0.014837837 0.114186846 0.0014658413
000190 ee bb 24 3b 80 10 7e bc 0f 79 1a 3e 1d d0 1a bd
       0.002513643 -0.015506864 0.15085243 -0.03779613
0001a0 d1 f9 9d bd 05 e2 18 3d 96 6b 7b 3d 9f 13 c5 bd
       -0.07713664 0.037324924 0.0613819 -0.09622883
0001b0 a8 35 31 3e 4e 28 62 bc 9e 27 16 3e e6 6b 8c bd
       0.17305624 -0.013803555 0.1466355 -0.068565175
0001c0 51 b6 ca 3b a5 c3 3a 3e 82 a2 b9 bd f2 af 22 3d
       0.0061862846 0.18238695 -0.09064199 0.039718576
0001d0 49 7e 9a bc cc 27 37 3d f7 16 84 3d fb a2 db 3d
       -0.018859046 0.044715688 0.06449693 0.107244454
0001e0 09 c2 28 3e ec b9 0b be 08 b1 d0 3d 51 21 38 3e
       0.16480269 -0.13645142 0.10190016 0.17981459
0001f0 5c 7e 03 3e f3 ab 51 bd d8 93 86 3d 2d 8c d9 3d
       0.12841171 -0.051189374 0.06571168 0.106224395
000200 ea 34 02 bf d1 d8 66 3e 07 d7 2a 3e 35 61 c9 3c
       -0.5086199 0.22543646 0.16683589 0.024582485
000210 05 53 72 3e 87 f7 26 3e 1b 31 06 3e 79 e3 18 bf
       0.23664482 0.16305362 0.1310467 -0.59722096
000220 34 d5 ef bc 23 1c 4c 3c 7c 73 1a be 4d d3 43 be
       -0.029276468 0.01245788 -0.15083116 -0.19123574
000230 be 59 2c bd 79 fb 6a 3e 8f 8d 5f bd cf 49 95 3d
       -0.042077772 0.22947492 -0.05457836 0.072894685
000240 b5 1d 08 3d ff 0f fe bd 5f ef 9a 3e 53 5a 09 3e
       0.033231456 -0.12405395 0.3026075 0.13413362
000250 ee b9 7b 3e 9c 23 1d be 25 31 83 be 67 40 35 be
       0.24582645 -0.15345615 -0.25623432 -0.17700349
000260 c7 a9 76 be 89 7b 0b 3e 47 e8 90 3e b2 08 22 bd
       -0.24088202 0.13621344 0.28302214 -0.039559074
000270 43 42 9a 3e 45 67 b7 3c 08 c2 62 3e 28 7b 85 3e
       0.3012868 0.02238811 0.2214433 0.26070523
000280 42 8a ce bc a7 f6 47 3e a9 09 06 be 51 05 f5 bd
       -0.02521241 0.19527684 -0.13089623 -0.11963905
000290 a0 ab fb bd c8 5d 56 3e 64 29 90 bd 26 5a 4e be
       -0.12288594 0.20934212 -0.07039145 -0.20151576
0002a0 6a b1 0d 3d ff 19 bc 3d 3c ff ed bc b1 32 69 3d
       0.034593023 0.09184646 -0.02905237 0.05693311
0002b0 99 ee dc 3d a8 ce 6d 3e 09 79 d6 bb a2 32 40 3e
       0.107876964 0.23223364 -0.0065451902 0.18769315
0002c0 0a 0d 3d bd 2b 4c cb bd 36 f3 2e 3e c4 0d 05 3e
       -0.046155013 -0.09926637 0.17084965 0.12993532
0002d0 3f e7 e5 bd 4a 86 92 be 53 f5 04 be e0 e8 54 bc
       -0.11225747 -0.2861808 -0.12984209 -0.012994975
0002e0 41 0f 20 be be 81 b2 3e 7f 85 0e 3e 6f 53 b8 bd
       -0.15630819 0.3486461 0.13918112 -0.09000289
0002f0 6e 53 b8 3d 09 77 62 3d f0 a2 be bd 96 76 1c be
       0.09000288 0.055289302 -0.093084216 -0.15279612
000300 ea c4 b0 bc e2 71 f6 3d f5 7e 30 3e 11 9b 9d bc
       -0.021578271 0.1203344 0.1723593 -0.01923898
000310 7e 4e 1f be 11 11 43 bd c6 e9 0e be 25 04 1a bc
       -0.15557286 -0.047623698 -0.13956365 -0.009400402
000320 16 0e e3 3d bd e4 15 3d cd 7d 6d be f0 f7 00 bd
       0.11086671 0.036595095 -0.2319252 -0.03148645
000330 4f a6 a6 bd ee 18 71 3d bd 66 93 bc ef 48 2d bd
       -0.081371896 0.058861665 -0.017993325 -0.042305883
000340 0d 3d 27 bd b6 f6 4a bc 90 a8 cb bd 2c d6 ce bc
       -0.040829707 -0.012387922 -0.0994426 -0.02524861
000350 26 4c fe bc 03 63 49 3d 4d 49 41 bd 09 54 b2 bd
       -0.03104217 0.04916669 -0.047189046 -0.08707435
000360 f2 c6 24 3d 41 e3 db 3d 69 c2 78 bc c9 be 70 bd
       0.04022879 0.107367046 -0.01518307 -0.058775697
000370 c1 c1 38 be d1 9a 06 be 7e 33 99 bd 55 1f 4c 3c
       -0.18042661 -0.13144995 -0.074805245 0.012458642
000380 dc a0 ef 3d e0 77 d6 3b 70 f8 c0 3d 03 b5 a7 3d
       0.11700603 0.006545052 0.09422386 0.08188822
000390 28 0f d6 bd ce 77 4c be dc ea 64 3a 67 c0 9f 3d
       -0.104521096 -0.19967577 0.00087325065 0.0780037
0003a0 06 3b 44 bd f0 9f d4 3b 3e 61 d6 bd a7 46 31 bc
       -0.04790785 0.0064887926 -0.10467766 -0.0108200675
0003b0 c6 b5 06 3e 53 56 bc bd 6c aa e3 3c e5 a1 1e bd
       0.13155279 -0.091961525 0.027791224 -0.038728613
0003c0 09 05 d5 bd e6 6d bb 3d 78 d9 2a be c0 93 13 be
       -0.10401351 0.09151821 -0.1668452 -0.14411831
0003d0 52 c0 9e bd c3 0b 20 be 26 2d 80 3d 4b 6d 99 bd
       -0.07751526 -0.15629487 0.062586114 -0.07491549
0003e0 24 d2 6f bd f0 16 b9 3d 79 1a 2f be 1d 49 12 3d
       -0.058550015 0.09037578 -0.17099942 0.035714258
0003f0 58 0d d2 3d 9f 38 0f 3c 7b 81 49 bc d9 62 85 bd
       0.10256451 0.008741527 -0.012298937 -0.06512994

actor.2.bias f4 [64]
000000 ac 9e 82 bd 15 c7 c0 3d 68 c3 f1 3b da f8 3a be
       -0.063779205 0.09412972 0.0073780306 -0.18258992
000010 98 7a fb 3d 16 17 45 3e b3 ad 25 be 08 93 d2 3d
       0.12279242 0.19247088 -0.16179542 0.1028195
000020 84 e1 fa bd 6e 3c 10 3e da 97 21 bd 34 9a 91 3d
       -0.12250045 0.14085552 -0.039451458 0.0710949
000030 e4 51 d2 bd 4d ef c4 bd ff 78 18 3e 8a 32 6c 3e
       -0.10269526 -0.096159555 0.14889906 0.23066154
000040 d4 02 cf bd fe 3a f7 3d 7f e0 b2 3d 44 56 06 3e
       -0.10107961 0.12071799 0.087342255 0.13118845
000050 62 1a 72 bd 34 88 c1 bc bd 06 ee 3d ef 24 e2 3d
       -0.05910719 -0.023624517 0.11622379 0.11042201
000060 9e f2 3e 3e 94 c7 1e 3e 46 d6 a2 3d 93 a2 ee bc
       0.18647239 0.1550582 0.07951026 -0.029130256
000070 0d 9a 15 bd c4 72 85 3d d3 3e b0 3d 8d aa 1c 3e
       -0.036523867 0.065160304 0.08605733 0.15299435
000080 4b 89 10 bd 44 5e fc 3d 8c e2 e9 3c c1 d6 a5 3d
       -0.035287183 0.12322667 0.028550409 0.08097602
000090 f3 dd d9 3c bc 63 85 3c e1 07 d1 3d fa 14 61 3d
       0.026595091 0.016282909 0.10206581 0.054951645
0000a0 f4 78 5c 3d 51 84 2e bc ae c5 f9 bc 12 75 ad bd
       0.053826287 -0.010651664 -0.030489769 -0.08469595
0000b0 55 8d 14 3d d2 3b 70 bd d9 76 1d be 9f bf 99 bd
       0.036267597 -0.0586508 -0.15377368 -0.07507252
0000c0 22 a4 ef bc 38 df a4 3d 2c 5e 05 3c be 24 e4 3b
       -0.02925307 0.08050388 0.008140128 0.006962388
0000d0 60 90 0f bd f4 d9 53 bd b0 ce 58 bd 22 2b 1a 3d
       -0.035049796 -0.05172153 -0.052931488 0.03763879
0000e0 a7 71 38 bd 8b e9 7c 3e 3c 5a b1 3d c6 2c 10 3c
       -0.045030262 0.24698465 0.08659789 0.008799737
0000f0 49 74 18 bd 6d 40 d0 3d 5e cd d3 3b 15 b9 16 bd
       -0.037220273 0.10168538 0.0064636907 -0.0367976

actor.4.weight f4 [36, 64]
000000 9e 1d 49 3c 2f 2c b0 bc a8 62 76 3e b2 e9 48 be
       0.012275128 -0.021505443 0.24061072 -0.19620398
000010 21 52 40 3e 60 58 2a be e7 ce b6 3d 80 9a 0f 3f
       0.1878133 -0.16635275 0.08926182 0.56095123
000020 ee c9 45 bd 19 29 b5 bd 12 fb 27 be 3c 6a bf ba
       -0.04828828 -0.088457294 -0.1640437 -0.0014603804
000030 ce 00 6c bd 9f ff 54 bd 4d 46 84 be dc bb ae be
       -0.057617955 -0.05200159 -0.25834885 -0.341277
000040 23 1c 1e 3d 65 53 48 be 0e b2 1c 3e bc 22 15 3f
       0.038601052 -0.19563062 0.15302297 0.58256125
000050 6a 38 1d 3e 79 7e 8d be 8b e1 f8 bd 8b 86 75 bd
       0.15353552 -0.27635553 -0.12152394 -0.059942763
000060 4f 4b ca be 0d 09 e3 3a 8c bd 71 3d 48 21 e1 3e
       -0.3951058 0.0017321423 0.059018657 0.43970704
000070 51 df d0 be 7f d5 8a bd 0f 7e 07 be 83 d0 e2 3e
       -0.40795377 -0.067790024 -0.13231681 0.44299707
000080 dd 2f 7e bd e0 9f 93 be 43 db 70 be 5a 70 bc be
       -0.062057365 -0.28832912 -0.23521142 -0.36804467
000090 b9 15 26 be b8 d6 22 3e 9a f3 90 be 09 e4 04 be
       -0.16219224 0.15902221 -0.28310853 -0.12977614
0000a0 20 dc 65 be c4 28 eb bd e0 09 9c be a5 69 c4 bd
       -0.22447252 -0.11482385 -0.30476284 -0.095904626
0000b0 b3 c7 ed bd 39 63 23 3d a8 f0 7c bd b8 9d ff 3c
       -0.11610355 0.039889548 -0.061752945 0.031203136
0000c0 fb 24 33 3d 17 8f 6e 3e ff 74 9e bd 15 f5 7f be
       0.04373644 0.23296772 -0.07737159 -0.24995835
0000d0 52 62 a9 3d 19 21 0c be 37 91 3d 3e f0 5f d3 bc
       0.08270706 -0.13684501 0.18512426 -0.025802583
0000e0 0d f8 c7 bc dd c1 ad be a3 81 a3 be 74 71 e6 bd
       -0.024410272 -0.33936968 -0.31934842 -0.11252108
0000f0 bb 12 14 3f ff dc 77 be 0b ec 2f 3c 52 55 16 bd
       0.5784108 -0.24205397 0.010737429 -0.03670246
000100 74 0f b2 bd 3b f0 8a bd f7 13 9e 3e 16 1c c9 3d
       -0.08694354 -0.067841016 0.30874607 0.0981981
000110 53 0c 43 bd 4a aa 19 be e1 cb 1f 3d 78 c8 b6 bd
       -0.047619175 -0.15006366 0.039012793 -0.08924955
000120 02 f8 06 bd 2e ca b6 3c 0b 7a 4f 3d 40 5b eb 3d
       -0.032951362 0.022313204 0.0506535 0.11492014
000130 c0 12 09 3e 35 e3 f3 bd 06 bf d8 3e a1 ef 13 bd
       0.13386059 -0.11908571 0.4233324 -0.0361172
000140 c1 32 d7 bd 9c 51 d3 3c 9d ad 8b be 4c 15 d6 bd
       -0.105077274 0.02579575 -0.27280894 -0.10453281
000150 c6 ad 1c 3e 6e 96 ec 3e 30 dd 02 be ad c7 3f be
       0.15300664 0.4620852 -0.12779689 -0.18728514
000160 ad 6a 6b be 4c 67 05 3e 4e 33 66 bc c8 e3 23 3e
       -0.22989912 0.13027686 -0.014050318 0.1600486
000170 cf 20 90 3e 92 3e b0 bd 3f 1e 3e be 6a 91 c3 be
       0.2815003 -0.08605684 -0.18566225 -0.3819688
000180 c2 60 fa bc d2 7a 7c be e9 7e bf 3e 83 5b 52 be
       -0.030563716 -0.24656227 0.37401512 -0.20542721
000190 5c 05 8e 3e f2 1c c2 3d ef 60 aa 3e 43 a5 a9 be
       0.27738464 0.09478177 0.3327708 -0.33133897
0001a0 ab 49 80 3e a5 03 10 3d 73 05 aa bd 22 da 03 3d
       0.25056204 0.035159726 -0.083018206 0.03219045
0001b0 46 45 b6 3d d0 45 28 3e 17 8b 04 bd ec 3a 37 3d
       0.088999316 0.16432881 -0.03235921 0.044733927
0001c0 c5 cd 9f 3c 49 41 33 3e 10 a4 b8 3c c3 cc 83 be
       0.019507298 0.17505373 0.022539169 -0.25742158
0001d0 86 d9 96 3e 83 79 34 bd c0 4f ea 3e 41 0c c5 bd
       0.29462832 -0.044061195 0.4576397 -0.09621478
0001e0 1c 61 c9 3c 07 36 97 3e 43 7e bb bd 0c bc d2 3d
       0.024582438 0.29533407 -0.09154942 0.10289773
0001f0 f8 05 42 be 78 0b 22 3e f1 bc 09 3e 20 c9 d7 3c
       -0.1894759 0.15824687 0.13450982 0.026341021
000200 a6 a8 e0 3d 5e 85 38 3d 8d 2a e7 3e 30 6f 97 bd
       0.10969667 0.045049064 0.4514965 -0.07394254
000210 dd 9b d7 bc 10 0f c9 3e fc 76 ee 3d d0 f6 bc bc
       -0.026319439 0.39269304 0.11643788 -0.023066908
000220 05 f1 1c 3d 30 72 3e bc 55 af 7f 3e ff 06 73 3e
       0.03831579 -0.011623904 0.24969228 0.23733138
000230 fa ea 53 3e 83 e7 f6 3b a6 0f 56 bd 04 2b ca bd
       0.20695105 0.0075349226 -0.052261017 -0.09871486
000240 6b 94 4b bc e6 9a a3 3d 88 bc be 3e 1d 24 1a 3e
       -0.012425522 0.07988529 0.37253213 0.15052839
000250 56 ef c6 3e 35 1e dc bc 1a a5 77 3c 6b 9a b7 bd
       0.38854474 -0.026869873 0.015115047 -0.08965
000260 c6 5a 2f bc 76 f0 42 3e cf 78 f0 3a f1 86 8b 3e
       -0.010702794 0.19037041 0.0018346551 0.2725139
000270 ca 2a 46 3e 52 a2 bd ba d6 27 7f 3e 7d 48 fa 3c
       0.1935226 -0.0014467931 0.2491754 0.030552143
000280 af 8f ac 3d ce 3d 3f be 1c 5d c1 3e 5e 8c c3 3d
       0.08425843 -0.1867592 0.3776635 0.09548257
000290 b7 30 c1 3e ad d7 19 3d ef eb f8 3d 5e 5f 75 3e
       0.3773248 0.0375592 0.12154376 0.23962161
0002a0 23 5b 69 3e 46 da 86 be ef 45 7a bc d3 dc c8 3c
       0.22788672 -0.26338404 -0.0152754625 0.02451936
0002b0 ee 59 c2 bd 15 4f 06 3d bb 5c 27 3e 19 2e 84 3d
       -0.09489809 0.032790262 0.16343968 0.06454105
0002c0 59 06 18 3e a1 6c ab 3e ef d1 d3 bd 8b 75 54 3e
       0.14846171 0.33481315 -0.10342776 0.20747964
0002d0 5d 34 9d 3e ec 88 50 bd a5 49 09 3d 70 c1 d3 3e
       0.30704013 -0.05091183 0.0335175 0.4135852
0002e0 02 e4 57 bd f9 d5 3e be c5 f8 be bd 5f b8 e2 bc
       -0.05270768 -0.18636312 -0.09324793 -0.027675806
0002f0 b1 c6 a0 bd de b0 78 3e 9e d2 26 3c 70 fd 88 bd
       -0.078503974 0.2428622 0.010182051 -0.06688964
000300 2d 5f dd 3d fa 54 fb 3d fc ad 36 be 91 03 35 bd
       0.10809169 0.12272067 -0.17839807 -0.044192854
000310 17 1d dc 3d fe d0 83 bd e1 cd 71 3d 46 1d 75 3d
       0.10747736 -0.064363465 0.059034232 0.05984237
000320 01 f2 2b bd 44 de 40 3e 0c d8 da 3d 69 2d 29 3d
       -0.04197884 0.18834788 0.10685739 0.041303072
000330 fb fa 16 3e 20 d0 16 bd 7d dc 79 3d c5 39 a6 3d
       0.14744179 -0.036819577 0.06100129 0.081164874
000340 a5 36 02 bd f9 0d 8b 3d cd 43 65 bc 80 d0 aa bb
       -0.031790394 0.067897744 -0.013993216 -0.0052128434
000350 58 51 15 be 78 f5 36 3d 43 8c d0 3c a4 a7 94 3e
       -0.14581811 0.04466769 0.025457507 0.2903415
000360 dc da f9 3d d1 22 14 be 87 83 58 bd df aa c4 bc
       0.12199947 -0.14466406 -0.05285981 -0.024007259
000370 02 ad af 3d 29 88 42 3e c0 d3 44 3e e9 b0 8b be
       0.085779205 0.18997253 0.19221401 -0.2728341
000380 0d ed 6c 3e 3f 3b 07 3e 4d dc ba bd ea ee 04 3d
       0.23137303 0.13206194 -0.0912405 0.03245441
000390 00 26 e1 bd 88 1e 6c 3d 13 73 3f 3d 08 48 e2 bc
       -0.10993576 0.057646304 0.046740603 -0.027622238
0003a0 f9 1b 4e 3d a1 87 8d 3e f6 94 1d 3e 75 fe 92 bd
       0.050319646 0.2764254 0.15388855 -0.0717744
0003b0 56 84 30 bd b7 50 6c 3d c1 02 dc 3d e2 fb 4c bd
       -0.043094955 0.057694163 0.10742713 -0.0500449
0003c0 a9 43 9c bd a4 6f c0 3d f6 29 ad ba ff f3 0a be
       -0.07630093 0.09396294 -0.0013211358 -0.1356964
0003d0 78 6f 01 3e 9b 37 5c 3e dc 6c 04 3d c1 2c 48 3d
       0.12640178 0.21505587 0.03233038 0.048870806
0003e0 3c de f9 3d 64 73 30 bd d8 27 ca bd 0b 86 29 3d
       0.12200591 -0.043078795 -0.09870881 0.0413876
0003f0 86 ad 8c be ce dc c0 3d 34 eb 4f bd 74 4d 20 bb
       -0.27476138 0.09417115 -0.050761417 -0.0024460228

actor.4.bias f4 [36]
000000 45 a1 44 bd cc 5e 13 3c 73 ee 98 3c db a9 a0 bc
       -0.04800536 0.008994769 0.018668389 -0.019612243
000010 83 dd 03 3e 4b 87 a3 3c 3b 36 bc 3d 42 1f 68 3d
       0.12877469 0.019961974 0.09190031 0.056670435
000020 94 8c 8e bd cf bc b3 bd 8f d3 51 bd e5 5d a5 3d
       -0.06960407 -0.08776247 -0.05122715 0.080745496
000030 90 9a bc 3d a9 6d 98 3e 59 ab 96 3c dd 7b 1d 3e
       0.09209168 0.29771164 0.018392252 0.15379281
000040 c6 9e b6 bd aa c9 06 be d7 25 06 be 4d 5a 73 bd
       -0.089170024 -0.13162866 -0.13100372 -0.05941229
000050 61 30 5c be a7 17 77 bd ad 77 36 be b4 00 13 be
       -0.2150283 -0.06032529 -0.1781909 -0.14355737
000060 36 9a cb 3d 99 29 ff bd 04 97 a6 3e c7 a1 8d bc
       0.09941523 -0.12459106 0.3253709 -0.017289056
000070 3d 5a 2c bd 9f 95 24 bc 18 8f 10 3d 65 f1 cb 3d
       -0.042078245 -0.010045438 0.035292715 0.09958152
000080 f3 b0 b9 bd 84 e6 ed 3d 35 67 a3 3d 62 31 73 3e
       -0.090669535 0.11616233 0.079786696 0.23749307

critic.0.weight f4 [64, 62]
000000 c8 60 9c 3d 6a 19 ab 3d 31 d8 ab bd 6c 5b 1b 3c
       0.07635647 0.08354457 -0.083908446 0.009482246
000010 50 bb 5e bd 58 40 d4 bc 78 07 2b bb 99 0c a2 3c
       -0.054377854 -0.025909588 -0.002609698 0.019781398
000020 73 bf 99 bd 94 15 a9 bc 03 29 70 bd a9 39 0e bd
       -0.07507219 -0.020640172 -0.05863286 -0.034722958
000030 c5 52 80 bd 16 de 87 bd 33 7f e5 bd b4 b7 b8 bd
       -0.06265787 -0.066341564 -0.11205902 -0.090194136
000040 fe 10 09 bc ab 20 dd bd 13 fe f7 bd c8 76 b6 3d
       -0.008365868 -0.107972465 -0.12109008 0.089093745
000050 0c 4a bb bd 7c 17 b6 3d d6 10 10 3c 3e 3c 98 bc
       -0.09144983 0.08891198 0.0087930765 -0.018583413
000060 ef 3e c9 3d 27 17 cb bd c0 34 79 3d b3 99 ad 3d
       0.09826457 -0.09916525 0.060841322 0.084765814
000070 18 71 d6 3d 8f 13 1a be 51 5e 66 3c 70 8f fd bc
       0.1047079 -0.15046524 0.014060573 -0.030952185
000080 f2 fb c0 bd 9a a3 b1 3d 52 32 b7 bc 73 eb af 3d
       -0.09423055 0.08673783 -0.022362862 0.0858983
000090 16 0d 8c bd 74 b4 66 bd f1 95 43 3d 86 ef 84 3c
       -0.068384334 -0.056324437 0.047750417 0.016227495
0000a0 c4 10 95 3d 69 e9 5d 3d e3 71 c5 3d 3b ba bf bd
       0.072785884 0.054177675 0.09640863 -0.093616925
0000b0 9e 97 04 bc 49 ae 6b 3d d7 d4 3c bd 4d 10 a4 bd
       -0.008092789 0.05753926 -0.046101417 -0.080109216
0000c0 7f 1f c6 3d 11 9f 09 be c5 d4 d6 bd 6d 2c ea bd
       0.09673976 -0.13439585 -0.10489801 -0.11434255
0000d0 12 b7 00 3d b3 17 0a 3b b6 0c ef bd 3b 1a 42 3d
       0.03142459 0.0021071255 -0.11672346 0.047388297
0000e0 81 87 c0 3c 8a 36 30 3d af 98 fe bd be 95 f8 bd
       0.023502113 0.043020763 -0.12431466 -0.12137936
0000f0 46 7d 10 be 0a 2d 82 bd dd 19 e7 bd cc bf 83 3d
       -0.14110288 -0.06356247 -0.1128423 0.06433067
000100 28 39 8d bc 13 25 4d bd a4 50 26 3d 63 d2 42 3e
       -0.017239168 -0.050084185 0.04060425 0.19025569
000110 fc 19 23 3e 77 7c f2 bc af c2 18 be 60 a0 9c be
       0.15927881 -0.029600365 -0.14918016 -0.30591106
000120 ca 9b 81 be bf 33 90 3e c3 6b 1e be 4f 4f 12 bd
       -0.2531417 0.2816448 -0.15470795 -0.035720166
000130 07 f6 fa 3c 6c 2a 87 3d a3 f5 d4 3d fb 2e df 3d
       0.030634893 0.06599888 0.10398414 0.10897633
000140 bf 91 8b 3d 45 04 df bb 5d 60 05 bd 76 59 f8 bd
       0.06814908 -0.006805929 -0.032562602 -0.12126438
000150 e2 da 88 3d 00 cd eb bc a8 10 a3 3c ed f3 ea bc
       0.066823736 -0.028784275 0.019905403 -0.028680766
000160 15 fc a7 3d bd 3a 84 3b 0d 97 6d 3e 92 ac de 3e
       0.08202378 0.0040353225 0.23202153 0.43491036
000170 49 c4 2a 3e 3a 10 42 3e 73 dd 70 3d 5f 54 99 bd
       0.1667644 0.18951502 0.05880494 -0.07486796
000180 b5 e9 b6 3d e7 7b c9 3d 76 3c 1d 3e 4f df 94 3d
       0.08931295 0.098380856 0.15355095 0.07269155
000190 ed 54 df 3d 0a 3f a2 3e 5a 78 4b 3c 44 fb c2 bd
       0.1090487 0.3168872 0.012418831 -0.09520581
0001a0 5a b8 54 3c 35 ae a4 bd 4b f1 38 bd 19 21 ed bd
       0.012983406 -0.0804104 -0.04515199 -0.115785785
0001b0 6f 8a d3 3b 02 c2 af bd 95 e8 32 3e d8 46 00 bd
       0.0064557116 -0.08581926 0.17471536 -0.031317562
0001c0 b2 30 1c bc e4 b2 e7 3a b0 1b 3f bd 64 3c df bd
       -0.009533094 0.0017677215 -0.046657264 -0.109001905
0001d0 de 9b a0 3c 97 b5 30 be b5 e4 0f 3d 8e 46 48 3d
       0.019605573 -0.17256771 0.03513022 0.04889541
0001e0 6f 12 6e 3e dd c1 c3 3d 3d 7b ac bd 2f 72 75 3d
       0.2324922 0.09558461 -0.08421943 0.059923347
0001f0 1a 4f d7 bd 14 23 a3 3d 1f 64 d7 3d 23 24 47 3d
       -0.10513134 0.07965675 0.105171435 0.048618447
000200 97 58 c7 bd b1 c9 cd bd 07 f3 ce bd ce 09 af bd
       -0.09733694 -0.10048235 -0.101049475 -0.08546792
000210 51 18 47 3e c5 4a 9a 3d 39 5a 21 3e 37 3f f3 3d
       0.1944287 0.075337924 0.15757073 0.11877292
000220 81 59 88 bd 04 37 86 3d 5e ab c0 bb 8a 23 ff bd
       -0.066576965 0.06553462 -0.0058798036 -0.124579504
000230 01 1f a3 bc 0a a1 99 bd de 74 f2 3d 9b 83 d3 bd
       -0.019912245 -0.07501419 0.11838697 -0.10327836
000240 2b c6 f2 3d 77 ec af bc ce 58 bc 3c 04 7c e2 3d
       0.11854204 -0.02147506 0.022991564 0.1105881
000250 c3 b2 70 bd ad bd 40 bd c4 37 57 3d c2 ca 03 bd
       -0.05876423 -0.04705589 0.052543417 -0.032175787
000260 02 a0 96 ba 08 ce 6a 3d da 11 78 bd e7 d4 14 3c
       -0.0011491778 0.057325393 -0.0605639 0.009083963
000270 a6 e6 63 bd c6 7e 53 3d fd 69 49 3c 22 0e c8 bd
       -0.055639885 0.051634572 0.012293336 -0.097683206
000280 de 78 63 bd 19 c1 0b 3d fa 27 3a bb 86 6f 76 3e
       -0.05553519 0.0341197 -0.0028405176 0.2406598
000290 86 67 20 be 31 64 83 bc bc 73 35 3b 17 d7 24 be
       -0.15664491 -0.016038986 0.0027687391 -0.16097675
0002a0 42 9e 09 3d b2 8e dc bd b5 11 52 3b f3 f9 22 be
       0.033598192 -0.107694045 0.0032054011 -0.1591566
0002b0 7b e9 cb bd dc 00 bf 3d 7b 1a db bd a0 9d 94 3d
       -0.09956642 0.09326336 -0.1069841 0.07256627
0002c0 de 67 77 3d 40 d6 06 3d 4c ef dd 3d 72 5a 09 be
       0.06040179 0.03291917 0.10836658 -0.13413408
0002d0 42 a1 35 be b5 a2 e9 bb e2 37 40 3d de d5 32 3d
       -0.17737296 -0.007129992 0.046928294 0.04366099
0002e0 0a 5a 16 bd 49 af 3c 3c 5d 8e eb bd c2 11 ef bd
       -0.03670696 0.011516401 -0.11501763 -0.11673309
0002f0 8d ab d9 bd 5c f5 b5 3d d1 23 01 be 99 bc a2 bd
       -0.10628424 0.08884689 -0.12611319 -0.079461284
000300 1e d8 b9 bd c8 35 5f 3e ef 84 18 bd d7 7d 33 be
       -0.09074424 0.2179786 -0.03723615 -0.17528473
000310 f6 30 ca bc 8f 37 ac 3d 10 8e 86 3c fb e8 49 bc
       -0.02468155 0.084090345 0.016425163 -0.012323613
000320 68 68 99 bd 61 f2 07 bc 91 5f 1b bd 4b 6d a1 bd
       -0.07490617 -0.008297534 -0.037932936 -0.07882174
000330 82 c9 ab bd 45 23 b8 3d da a5 ac 3c 59 b8 2a 3d
       -0.08388044 0.08991102 0.021075178 0.041679714
000340 d5 03 bd bd b2 e2 c0 3c 8d b4 e7 3d 4d 75 8e 3d
       -0.092292465 0.023545597 0.11313734 0.06955967
000350 4c 09 b6 bb 37 79 6f bd fd 88 6c 3e c3 09 3a 3e
       -0.0055553075 -0.05846521 0.23099132 0.18167786
000360 a4 e7 59 3c 65 8e 10 3d 0b 87 13 bd a7 04 a4 bb
       0.013299856 0.035292048 -0.03601746 -0.0050054374
000370 5b dd f4 bc 8e 49 9a bd 9f 1f 16 ba d4 0c 42 3c
       -0.029890707 -0.07533561 -0.0005726758 0.011843879
000380 a2 7c 10 be 6f 58 60 3d fe 02 11 bd e1 91 e5 bd
       -0.14110044 0.054771837 -0.035403244 -0.11209465
000390 ac d0 05 3d df 78 7f bb 07 99 12 be ff 62 5a be
       0.032669708 -0.0038981957 -0.14316188 -0.21326827
0003a0 de 39 7d 3d bf 29 25 3c 84 6b 31 be de ff 2a be
       0.061822765 0.010080754 -0.1732617 -0.16699168
0003b0 7a 4f 98 3d a8 c8 15 bc bd 15 b7 3d cf 2f c0 bd
       0.07437034 -0.009142078 0.08939693 -0.09384119
0003c0 6c b3 13 be 53 18 9e bc 7a ed e8 bd 13 47 a0 bc
       -0.14423913 -0.019298708 -0.1137342 -0.01956514
0003d0 99 4b 1a bd ee c9 05 bd 10 fd 88 3c 46 b3 0b bc
       -0.03766975 -0.03266328 0.016722232 -0.008526629
0003e0 3e f8 8b 3d 01 79 b8 3d d0 2e ea bd c8 31 a8 bd
       0.06834458 0.09007455 -0.1143471 -0.0821262
0003f0 ff 74 38 be dc e6 c5 3a 0a d1 5e 3e 61 ff 4c 3e
       -0.1801338 0.0015098709 0.2175943 0.20019294

critic.0.bias f4 [64]
000000 f5 cd 18 be 34 29 8b 3d 70 cc 21 be 8c 7b d4 bd
       -0.14922316 0.06794968 -0.15800643 -0.10375127
000010 6d 96 bc bd d1 33 06 bc 2f 74 9f 3c a9 f9 aa bd
       -0.09208379 -0.008191065 0.01946458 -0.083484
000020 5b 7b ed bd bb b6 ab 3d 9b 0d e6 bd 6d e6 7d bd
       -0.11595794 0.083844624 -0.11233064 -0.06198733
000030 21 99 b6 bd 04 b0 f4 bd 49 31 12 be e9 f3 26 3a
       -0.08915926 -0.11947635 -0.14276613 0.0006368743
000040 1a 6a 1e be dd 84 8a bd 20 99 95 bd 85 e8 01 3e
       -0.15470162 -0.06763623 -0.07304597 0.12686355
000050 7a 51 25 bd 6d 5b e0 bd 88 0d d3 3a c0 0c 35 3a
       -0.040360905 -0.10954938 0.0016102055 0.0006906502
000060 51 85 0b 3e ab 75 ac bd 27 be dc bd 80 81 00 bd
       0.13625075 -0.08420881 -0.10778456 -0.0313735
000070 92 b5 da 3d a8 3c 44 bd a8 dc 77 bb 8a 7c c2 bd
       0.10679163 -0.04790941 -0.003782073 -0.0949641
000080 3f 42 e0 bd 89 1d d2 bd cf 78 eb 3c b8 a6 8f 3d
       -0.109501354 -0.1025954 0.02874413 0.07014221
000090 ab 33 c5 bd ac d4 c4 3d 98 dd 7f bd c3 4a 80 3d
       -0.096289955 0.096108764 -0.062467188 0.0626426
0000a0 0f 7c f2 bd 42 ae f9 bd e1 24 0e be 96 e5 e4 3b
       -0.118400685 -0.1219144 -0.13881256 0.0069853766
0000b0 2d 01 d3 bc 33 7f fe bd 74 da 92 3c 73 d1 e5 3c
       -0.025757397 -0.12426605 0.017926432 0.028053975
0000c0 33 54 17 3d 81 4b 03 be df 53 13 3e ba 5e 69 3a
       0.036945533 -0.12821771 0.14387463 0.000890236
0000d0 37 d9 b5 bc 7e 17 11 be 8f 38 17 be 30 2c c2 bd
       -0.022198303 -0.14169118 -0.14767669 -0.09481084
0000e0 8b 9f 9d 3d 5a 4b 32 bc a7 bd 32 be a1 a6 b0 3c
       0.07696446 -0.010882223 -0.17455159 0.02156383
0000f0 ec 1b 1d 3c 30 84 04 be 3f c6 af bd 58 f9 26 be
       0.009589177 -0.1294105 -0.08582734 -0.16306055

critic.2.weight f4 [64, 64]
000000 6f 48 9d bc 29 1c 35 3e 4a 1e c4 bb 75 62 de 3b
       -0.019199578 0.17686523 -0.005985056 0.0067866393
000010 24 67 36 3b 77 e7 1a bd 12 55 9d bd b9 da 42 3d
       0.0027832473 -0.0378184 -0.076822415 0.04757187
000020 1a 13 5d 3d 84 68 74 be 63 8b 8a bc e0 e8 63 3e
       0.053973295 -0.23867995 -0.016912168 0.22256804
000030 ce a5 58 bd 0f f8 0d 3e 67 ac a2 3d 36 01 da 3d
       -0.0528925 0.13864158 0.079430394 0.10644762
000040 c8 d4 fe 3c 4c c0 e5 3d f1 64 22 be 75 2a b2 3d
       0.031107321 0.11218318 -0.15858819 0.08699504
000050 47 3a da bd 26 a4 14 bd bb 73 0f 3d 1f 2b 26 3b
       -0.10655647 -0.036289357 0.03502248 0.0025355292
000060 04 1c 8e bd ae 1a a5 bd 3f 95 e6 bd 5e 9f 30 3d
       -0.06938937 -0.08061729 -0.11258935 0.043120734
000070 34 81 63 be 02 93 01 3e 39 b7 84 3b 8e 7e e9 bd
       -0.22217256 0.12653735 0.004050162 -0.114010915
000080 13 24 58 3d 31 18 95 bd d1 39 8d 3d e4 21 d4 3c
       0.052768778 -0.07280005 0.06895793 0.025895067
000090 db 38 59 be 61 db 8f 3d c3 a5 ad bd 05 5b 3f be
       -0.21213095 0.07024265 -0.08478882 -0.18687065
0000a0 63 9f 24 3c 93 c7 09 3e 3d 9f 29 3e 72 be bd be
       0.010047766 0.13455038 0.16564651 -0.3705936
0000b0 ef 29 6c be 9b 01 ae bd c7 2c 76 3d c1 ff 2d be
       -0.23062871 -0.084964 0.060101297 -0.16992094
0000c0 1d 88 9a 3d ea 68 39 bc df 64 8f 3d 63 05 5a 3e
       0.07545493 -0.011316517 0.070016615 0.21291117
0000d0 e4 7f 86 bd b0 0e ac bc 5a 3b cc bd 3c 5a ba 3c
       -0.06567362 -0.021003097 -0.09972258 0.022748105
0000e0 83 ca 60 3d 42 6c 8a bb 12 3f 63 3d 29 c8 56 be
       0.05488063 -0.004224331 0.05548007 -0.20974793
0000f0 9c 89 c9 bc ea a6 f6 bc e3 96 38 3d c1 39 2a bd
       -0.02460175 -0.030108888 0.04506577 -0.041558985
000100 e0 49 6d bc 09 5a 8b 3b 95 00 92 bc f1 b3 b6 bc
       -0.014482945 0.0042526764 -0.017822543 -0.0223026
000110 f0 bc b3 bd 84 f1 8e bd f1 ff a7 bd b0 63 d0 3d
       -0.08776271 -0.06979659 -0.08203114 0.10175264
000120 83 75 5d bd 25 3b d6 bd 9d ec d4 bd 87 0e d4 bd
       -0.054067146 -0.104605 -0.10396693 -0.10354333
000130 20 a6 23 bd 09 2d 8a bd b9 b4 d7 bd 01 29 64 bd
       -0.03995335 -0.06746871 -0.10532517 -0.055703167
000140 41 ea a8 3d 3c 9b e3 bd 19 73 f4 bc 7b b5 c8 3d
       0.082478054 -0.11113593 -0.02984004 0.0980024
000150 e0 46 84 3d c4 1e 62 3c e5 50 0d 3d a6 43 6d bd
       0.06458831 0.01380128 0.034500975 -0.057925843
000160 0d 1d e8 bd c3 34 b7 bd d1 d3 b6 bd 05 19 9c 3d
       -0.11333666 -0.089456104 -0.089271195 0.076219596
000170 c7 aa 59 bc 4a ce eb bd f4 de e3 bd 0e 54 d7 bc
       -0.013285345 -0.11513956 -0.11126509 -0.026285198
000180 74 1a 90 3d 57 9f ba ba d2 11 f0 3b 47 b3 26 bd
       0.070362955 -0.0014238161 0.007326343 -0.040698316
000190 51 12 ac bc f5 22 62 3d 39 82 d1 3c 7e 63 fa bc
       -0.021004828 0.05520912 0.02557479 -0.03056502
0001a0 50 cf ff 3d 64 7c 96 3d 29 20 f3 3c 67 5a 32 3d
       0.124907136 0.073479444 0.029678421 0.043543246
0001b0 68 15 88 3d 0d 85 01 bd 77 b0 0d 3c 45 c2 52 bd
       0.06644708 -0.031621028 0.0086480295 -0.0514548
0001c0 94 91 66 bd a5 37 4d bc 36 98 c8 bd d7 3b bb 3d
       -0.056291178 -0.012525474 -0.09794657 0.09142273
0001d0 74 07 cf bd fd c8 c0 bd 62 af fb bc fa 1b 88 3d
       -0.101088434 -0.094133355 -0.030723277 0.06645961
0001e0 67 76 9b bd d5 13 d9 bc 4a 91 65 3d cb e1 d7 bd
       -0.07590943 -0.026498714 0.05604676 -0.105411135
0001f0 b1 0b d4 3d 6a d9 61 3d a4 e9 c5 3c 34 e6 45 bc
       0.103537925 0.055138983 0.02415926 -0.0120788105
000200 91 9a a7 3d 81 eb ba bd 3d 58 ec bd 9a 80 fc 3d
       0.08183778 -0.0912695 -0.115402676 0.12329216
000210 6f 0d 30 be 7f 64 43 3d 4e 7b bd bd ba f7 07 3e
       -0.17192625 0.047703262 -0.09252034 0.13278094
000220 2f e0 ee bd 30 fd ee bc 42 f1 14 bb 0e 7a 74 bd
       -0.116638534 -0.029173464 -0.0022726809 -0.059686713
000230 e8 9d 35 bd eb 2d b6 bd e3 f2 d0 3d 2e 00 1f bd
       -0.044340044 -0.08895477 0.10202577 -0.03881853
000240 05 89 18 bd 80 16 e5 3c 8c 54 0f 3c e1 99 39 be
       -0.037240047 0.02796483 0.008748185 -0.18125106
000250 ae d5 81 3d 1f c3 80 3d 75 7e c2 3d f4 24 2f 3e
       0.06339584 0.062872164 0.09496776 0.1710394
000260 d2 42 8b be 61 c5 97 3d a2 05 96 3d be ac 53 bd
       -0.27199417 0.07410694 0.07325293 -0.05167841
000270 da a1 58 3e f4 99 94 bd 12 2a 5b 3d 70 10 ff bd
       0.21155491 -0.07255927 0.05350692 -0.12454307
000280 74 32 3e be f7 3f 21 bc 48 d7 45 bd 04 27 23 be
       -0.18573934 -0.009841911 -0.04830101 -0.15932852
000290 56 f5 f0 3d 7a 2e 43 bd bb ec ad 3d 30 73 01 bd
       0.11765544 -0.047651745 0.084924184 -0.031603992
0002a0 71 23 51 3d f7 b6 79 3d 43 4e 66 bc a7 8a 42 3d
       0.05105919 0.060965504 -0.014056745 0.04749551
0002b0 01 aa 35 bd 98 1b e7 bd 26 f4 bd bc 68 a2 10 3e
       -0.04435158 -0.1128456 -0.023187708 0.14124453
0002c0 49 79 9b 3d 88 4d b0 bd 4d bd 5d be a3 7b 7c be
       0.07591493 -0.08608538 -0.21654244 -0.24656539
0002d0 c8 1b 25 3e 95 d3 9c 3c cc 3f 8a bc cf 00 10 3d
       0.16123879 0.019143859 -0.016876124 0.03515702
0002e0 47 ce cc bd 71 11 fe bd b7 3c 49 be 6c b7 27 bd
       -0.10000282 -0.124056704 -0.19652067 -0.04094641
0002f0 ba ff 88 bd ac 97 d7 bd ed a2 8c bd cf b1 c0 bd
       -0.06689401 -0.10526976 -0.06867013 -0.09408914
000300 32 62 bb b9 8a 76 d7 3c b8 0f f6 bd f8 06 b5 bc
       -0.0003574058 0.026301641 -0.12014717 -0.02209805
000310 df 10 14 3c e4 a3 b9 bd 86 c7 cf 3c 42 48 d3 bc
       0.0090372255 -0.09064463 0.025363695 -0.025791291
000320 37 e9 6b bd 9b 01 54 bd 9e e8 8d 3c 41 32 d7 bd
       -0.057595458 -0.051759344 0.017322835 -0.10507632
000330 b6 12 50 bc f8 bb 15 be 68 5a 17 3e ed 74 c8 3d
       -0.012699774 -0.14622486 0.14780581 0.09787927
000340 fa 44 63 bb fb a5 9d bd ac e8 dd bd a2 e3 10 3d
       -0.0034678564 -0.07697674 -0.10835394 0.035373338
000350 4c 7b 17 3d 70 0d 10 3e 43 3b bf bd f4 98 d6 3c
       0.03698282 0.14067626 -0.09337475 0.02619598
000360 a1 09 19 bd b0 57 b2 bd 0b dd cb 3b 41 a2 0a bd
       -0.0373627 -0.08708131 0.0062214187 -0.033846144
000370 fe f5 f7 3c 7c dd f6 bd f0 f1 28 3d ba d0 59 bd
       0.030268665 -0.120539635 0.041246355 -0.053177573
000380 d8 a8 3b bd cc 6b 71 3d e8 a6 4a bc 64 2b 36 be
       -0.04581532 0.058940694 -0.012368895 -0.1778999
000390 30 04 95 3c ab 65 0a be 8b 46 5b bd 5f 73 f1 bd
       0.018190473 -0.13515346 -0.053534072 -0.117895834
0003a0 1f 39 43 bd bf db a9 3d 62 13 cf bd 7f 19 6a 3d
       -0.047661897 0.08293866 -0.10111119 0.05715322
0003b0 33 38 93 bd f5 b9 99 3d af 87 d1 bc f5 5f a1 bd
       -0.071884535 0.075061716 -0.025577394 -0.078796305
0003c0 53 3a 14 be 63 08 ae 3c 67 9d 80 bd d3 97 f5 bd
       -0.14475374 0.021244233 -0.06280022 -0.11991849
0003d0 8a fc d5 3a ea f9 d2 bc a2 7f 45 bd ca 06 03 3e
       0.0016325873 -0.025753934 -0.048217423 0.12795559
0003e0 9f b9 84 bd 4a 50 95 3c bd 5f d6 bd 90 2d 4e be
       -0.06480717 0.018226761 -0.104674794 -0.20134568
0003f0 63 16 90 bd 32 9c 2f be 29 39 e8 3d 10 99 6b 3d
       -0.0703552 -0.17149428 0.113390274 0.05751902

critic.2.bias f4 [64]
000000 77 c3 f9 3c 01 83 87 bd d3 6a 2b 3d ea c8 8b bd
       0.030488713 -0.06616784 0.041849922 -0.06825431
000010 83 4d e5 bc ce 08 16 be 63 2d 8d bd ad 2f 1f be
       -0.027991062 -0.14651796 -0.068934225 -0.1554553
000020 54 f7 c2 bd 1c cc b3 bd ba 84 41 bd 6d 89 66 3d
       -0.0951983 -0.08779165 -0.04724572 0.056283403
000030 6d 06 64 bd 26 cf 1a bc 5e af 88 bd 9e eb b7 bc
       -0.05567019 -0.009448802 -0.06674074 -0.022451218
000040 f2 fe 9a bd 5f a1 33 be 98 6c e8 bb 09 2e 31 bd
       -0.07568158 -0.17542027 -0.0070930235 -0.043256793
000050 ba ac d6 3c 31 07 9d bc 02 98 57 be 48 86 12 be
       0.02620541 -0.019168468 -0.2105408 -0.14309037
000060 f4 15 b9 3c 41 1a ee bd 70 4b d4 bd 29 9b c6 bd
       0.022593476 -0.11626101 -0.10365951 -0.09697563
000070 fb fe b3 bc 70 e6 d9 bc 34 ba 8e bd cb 8e 72 bd
       -0.02197217 -0.026599139 -0.06969109 -0.05921821
000080 12 4f c8 bd 8c 39 d6 bd 03 29 dc 3d 0e 62 bf bc
       -0.097807065 -0.10460195 0.1075001 -0.023362186
000090 6a 47 d0 bd 0d b7 f6 bd 85 d4 c8 bd 6a 9a 6f bd
       -0.10169871 -0.12046633 -0.0980616 -0.05849687
0000a0 b0 bb a7 3c 5e 96 26 bd 00 1e b3 3d a7 ce a4 3c
       0.020475239 -0.040670745 0.087459564 0.02011807
0000b0 04 88 43 3d 95 bd 4f 3d 93 31 aa bd 2c fd 4b bd
       0.047737136 0.05071791 -0.08310237 -0.04980199
0000c0 80 61 d5 bd a4 7b 1b bd f6 e8 8e 3d 51 d0 2c bd
       -0.10418987 -0.03795971 0.069780275 -0.042190854
0000d0 17 29 b4 bd 6f d9 ee bd da d5 8e bd 6e 35 44 3c
       -0.087969 -0.11662566 -0.06974383 0.011975629
0000e0 fc e7 f5 bc 96 da a4 bc a3 5b d4 bd d4 2a aa bd
       -0.030017845 -0.020123761 -0.10369041 -0.0830895
0000f0 d7 b8 04 be 40 d6 6b bd e2 97 f1 bd 43 96 df bd
       -0.12961136 -0.05757737 -0.117965475 -0.10917332

critic.4.weight f4 [1, 64]
000000 44 a2 97 bd 01 41 07 3d fa 22 92 3d 96 57 b3 3c
       -0.074039966 0.033020977 0.071355775 0.02189235
000010 4b 5d 2f be 77 28 f7 bd 5f f6 31 3c 2d 59 a5 3d
       -0.17125432 -0.12068265 0.010861962 0.080736496
000020 1b 61 90 3c a0 d7 e0 bc d8 b8 14 3c 3d 3d e6 3c
       0.017624428 -0.027446568 0.009077273 0.028105373
000030 2a b5 d8 3b 19 56 dc 3b 0b 04 36 bd 1e 83 c8 bc
       0.0066133933 0.006724131 -0.04443745 -0.024476584
000040 d4 84 5e bc 97 65 8a 3c b9 f8 ae 3b 0d 3e bc 3c
       -0.013581473 0.016894145 0.0053397086 0.022978807
000050 f6 2a f3 3a e1 68 db 3b 94 2f 99 3b c1 43 23 3d
       0.0018552232 0.006695852 0.004674861 0.039859537
000060 78 50 85 bc c0 46 34 bd 8e 74 86 ba 08 ca f4 3c
       -0.016273722 -0.044012785 -0.0010258125 0.029881492
000070 18 df 2d 3b 58 69 85 3b 7c 09 a9 39 75 a4 9f 3c
       0.002653068 0.004071396 0.00032241258 0.019487599
000080 56 77 d2 3b 14 c2 90 3d ec c2 b6 bd 91 ae ab 3b
       0.0064229174 0.070682675 -0.08923897 0.005239316
000090 55 60 07 bb 7b 0e 2c bd 6a 71 e0 bd c4 fe 72 3d
       -0.0020656784 -0.042005997 -0.10959132 0.059324995
0000a0 18 2f 22 bd f4 02 fe 3c 81 50 9e 3d c9 e9 02 bd
       -0.039595693 0.031007268 0.07730199 -0.031961236
0000b0 90 96 8c bd bb 7c a0 3b 70 c4 11 3d a2 9e 88 3b
       -0.06864655 0.0048976815 0.035587728 0.004169301
0000c0 bb 7d 49 bb 40 db 26 3c 3f 67 48 bd 34 80 e0 3d
       -0.0030745107 0.010184109 -0.04892659 0.10961953
0000d0 98 7d ac 3d 43 b7 70 bc 14 0b 8f 3a 76 76 81 3a
       0.084223926 -0.0146921305 0.0010913336 0.0009877223
0000e0 c8 08 f1 3b 6c 96 b9 ba d4 a3 04 bb 8d 24 37 bc
       0.007355783 -0.0014159209 -0.002023925 -0.011178148
0000f0 3b cc d7 bc 8e 41 f3 3c de ec 84 bd 37 ef bb bd
       -0.026342502 0.029694345 -0.06490491 -0.09176486
