RL/CC2-Cardiff-implementation/GT-Cardiff-CC2/Models/PPOxCCE-C4/4000.pth (torch, 78850 bytes, 11 tensors)

actor.0.weight f4 [64, 62]
-0.0009508271 0.0681284 -0.10452683 -0.093464345 0.20190643 0.3140368 -0.14548138 -0.090807304
0.08869529 -0.09898008 -0.2494332 -0.22415078 -0.5866472 -0.21525636 -0.05987034 -0.14664969
0.05020762 0.076202966 -0.086098604 -0.055303834 0.04612862 0.10545937 -0.026136648 0.09503569
-0.020470306 0.013438404 0.11499559 -0.11781425 -0.61141056 -0.34056592 0.10281674 0.33510667
-0.082318895 -0.058462333 -0.08872742 -0.11894336 -0.29143927 -0.023627978 0.133881 0.120533384
0.080739096 -0.3504387 0.14906086 -0.15797135 0.03307862 -0.058304273 0.16201192 0.19959709
0.15380786 0.09491213 0.0687605 0.31267527 0.050404087 0.07975795 0.25559348 -0.037119955
0.14571105 -0.09846389 0.03771833 0.15323023 0.18078652 0.20369208 -0.07522884 0.03836764
0.069719516 -0.01602962 0.073049225 -0.11236501 0.09906318 -0.10530305 -0.32025605 -0.26421937
0.43880326 0.8127492 0.030552544 0.017203484 -0.036429092 -0.14947963 0.011683059 -0.079451956
-0.11835829 0.112838656 0.09656578 -0.12668617 0.023770874 -0.021394443 -0.020899286 -0.058135178
0.048838682 -0.07522262 0.007972522 -0.06032715 0.047324453 0.19397956 -0.1256965 -0.08238459
0.06341307 0.026581297 -0.29449645 -0.19398297 0.08803589 0.083927765 -0.15652908 -0.13212465
-0.06857211 -0.0085014915 -0.10563257 -0.1282472 -0.030639412 -0.038248498 -0.121898085 0.009942815
-0.19562802 0.10187408 0.08703317 -0.20482008 0.00031087402 -0.11953705 0.043567013 0.030121163
-0.04405484 0.05149382 -0.15429641 0.03737667 -0.12182473 -0.07527382 -0.03179192 -0.061863456
-0.15674272 -0.09754349 -0.26829 -0.52688545 -0.36472148 -0.08441461 0.28004044 0.30281478
0.28535536 0.18113403 0.16731212 0.36486053 0.12030038 0.08065218 0.12057564 -0.009184859
-0.11408694 -0.060207866 0.086475044 -0.000823276 -0.06312495 -0.09732169 -0.11885332 -0.10718915
0.27077982 0.27104747 0.124133416 -0.166087 0.0792204 -0.099378794 -0.026849132 -0.051495075
-0.18661554 -0.3599696 -0.11252176 -0.10357817 0.009321517 -0.1180983 -0.034101088 0.1929705
-0.2550403 -0.05171142 0.10008698 0.05546924 0.02880555 0.09910433 0.03643189 0.088201426
-0.014655112 -0.07663833 0.16607875 0.049260527 0.020816907 -0.026589852 0.14881119 -0.02820056
0.040658575 -0.038179703 -0.030540317 -0.026708819 -0.10465844 0.06881427 0.1745521 0.046782028
-0.20541267 -0.09492448 0.35707664 0.33765927 -0.3326575 -0.39008063 0.059281845 0.055107594
0.08786419 0.36257002 -0.09600194 -0.08718714 -0.07374409 0.08889163 -0.0456521 0.10712317
0.045924205 0.01608152 -0.00094539195 -0.02510558 0.015934242 -0.028999802 0.38241136 0.011283088
-0.2288407 -0.2717763 0.10255168 -0.10306653 -0.009119395 0.12563345 -0.020400366 -0.0039011668
-0.13109559 -0.06292058 -0.14761257 -0.08499953 0.08201986 0.21144825 0.0731029 0.17166276
0.03944115 0.22684236 -0.06742081 -0.22180247 0.106307104 0.013979592 -0.053825844 0.15094332
0.07417455 0.11060837 0.040959787 0.00020330961 -0.07952162 0.021591248 0.30979633 -0.0807525
0.0017503793 -0.02159215 -0.06688753 0.016785737 0.3201254 0.022142505 -0.093140915 0.03777165
00000000: ed40 79ba e786 8b3d 2a12 d6bd 3c6a bfbd
00000010: 8fc0 4e3e 6ec9 a03e 12f9 14be 2ef9 b9bd
00000020: e0a5 b53d 11b6 cabd 6b6b 7fbe c887 65be
00000030: 832e 16bf 2a6c 5cbe 9a3a 75bd 562b 16be
00000040: 81a6 4d3d 4d10 9c3d 7754 b0bd 4686 62bd
00000050: 5df1 3c3d 15fb d73d 861c d6bc 12a2 c23d
00000060: 58b1 a7bc c02c 5c3c cf82 eb3d 9948 f1bd
00000070: 6785 1cbf a85e aebe 9591 d23d 1a93 ab3e
00000080: cf96 a8bd 3376 6fbd b9b6 b5bd 9498 f3bd
00000090: 8737 95be 768f c1bc 1a18 093e 35da f63d
000000a0: 8a5a a53d b46c b3be 69a3 183e 3ec3 21be
000000b0: 727d 073d 76d0 6ebd 74e6 253e 2e63 4c3e
000000c0: cf7f 1d3e 4a61 c23d 4ed2 8c3d f916 a03e
000000d0: 8474 4e3d 2358 a33d 26dd 823e 180b 18bd
000000e0: 4735 153e 70a7 c9bd 897e 1a3d 63e8 1c3e
000000f0: 1a20 393e a894 503e 9411 9abd 6327 1d3d
00000100: 1bc9 8e3d 8d50 83bc d59a 953d a01f e6bd
00000110: a3e1 ca3d 20a9 d7bd 9af8 a3be c347 87be
00000120: d2aa e03e 5510 503f 5449 fa3c 52ee 8c3c
00000130: ac36 15bd 3011 19be 4d6a 3f3c b5b7 a2bd
00000140: d565 f2bd f417 e73d 48c4 c53d 05ba 01be
00000150: 23bb c23c 6643 afbc fb34 abbc 271f 6ebd
00000160: 120b 483d 510e 9abd 2e9f 023c 9a19 77bd
00000170: 49d7 413d 94a2 463e 95b6 00be 40b9 a8bd
00000180: b6de 813d 05c1 d93c 3dc8 96be 79a3 46be
00000190: 294c b43d 52e2 ab3d 2949 20be af4b 07be
000001a0: 896f 8cbd d749 0bbc e455 d8bd 3c53 03be
000001b0: 81ff fabc 75aa 1cbd b4a5 f9bd 30e7 223c
000001c0: b652 48be 5ca3 d03d 723e b23d 5bbc 51be
000001d0: cefc a239 d7cf f4bd 5373 323d a8c0 f63c
000001e0: d972 34bd 2feb 523d e1ff 1dbe 4718 193d
000001f0: 3e7f f9bd 2929 9abd 3f38 02bd 8964 7dbd
00000200: 2a81 20be e2c4 c7bd 4f5d 89be f7e1 06bf
00000210: c6bc babe 91e1 acbd 7661 8f3e 8a0a 9b3e
00000220: 191a 923e 337b 393e de53 2b3e 00cf ba3e
00000230: 0c60 f63d f82c a53d 5cf0 f63d 177c 16bc
00000240: 6aa6 e9bd 869c 76bd d419 b13d 1ed1 57ba
00000250: a747 81bd 9850 c7bd 5f69 f3bd fc85 dbbd
00000260: a7a3 8a3e bcc6 8a3e a939 fe3d b612 2abe
00000270: 4e3e a23d 1c87 cbbd b6f2 dbbc 80ec 52bd
00000280: 2518 3fbe ef4d b8be cf71 e6bd cb20 d4bd
00000290: 47b9 183c 86dd f1bd 95ad 0bbd 0f9a 453e
000002a0: a494 82be 5bcf 53bd 67fa cc3d b733 633d
000002b0: 9ef9 eb3c 36f7 ca3d 9b39 153d f3a2 b43d
000002c0: ff1b 70bc 8ff4 9cbd 8c10 2a3e 68c5 493d
000002d0: 3888 aa3c f6d2 d9bc f661 183e dc04 e7bc
000002e0: 9b89 263d 5262 1cbd b02f fabc 74cc dabc
000002f0: 2a57 d6bd 7fee 8c3d c9bd 323e 839e 3f3d
00000300: b357 52be c467 c2bd c0d2 b63e ade1 ac3e
00000310: 1552 aabe a6b8 c7be 85d1 723d 80b8 613d
00000320: 24f2 b33d c7a2 b93e aa9c c4bd 2c8f b2bd
00000330: 2407 97bd d10c b63d b2fd 3abd 6463 db3d
00000340: 051b 3c3d 64bd 833c 2ed4 77ba 38aa cdbc
00000350: 8788 823c fe90 edbc 6ccb c33e b3dc 383c
00000360: 3755 6abe 4326 8bbe 9d06 d23d 8b14 d3bd
00000370: 8469 15bc 0ea6 003e ab1e a7bc b8aa 7fbb
00000380: ec3d 06be 81dc 80bd c027 17be 3c14 aebd
00000390: 07fa a73d e485 583e f9b6 953d 5dc8 2f3e
000003a0: 0b8d 213d 5d49 683e ec13 8abd 3020 63be
000003b0: 8ab7 d93d a90a 653c 7d78 5cbd e390 1a3e
000003c0: d4e8 973d a486 e23d 73c5 273d 822f 5539
000003d0: 3bdc a2bd 21e0 b03c a09d 9e3e 9161 a5bd
000003e0: fc6c e53a 05e2 b0bc 54fc 88bd 3e82 893c
000003f0: 7ae7 a33e 3364 b53c aac0 bebd 72b6 1a3d

actor.0.bias f4 [64]
0.12864254 -0.0116649885 0.013039947 0.062204406 -0.06984878 -0.13159731 0.02835859 0.07522495
0.16028208 -0.114986666 0.10634383 -0.0140367495 -0.015044523 0.075751305 0.11403087 -0.0139744785
-0.1745679 0.04849377 -0.11081985 0.022484256 -0.041783597 -0.014428909 0.07611387 0.010107442
0.04643788 0.051390853 0.073595144 -0.10480143 0.042119853 -0.13036056 -0.04483742 0.08585104
0.0078324 -0.012113452 0.149921 -0.18440735 0.22687145 0.16509064 -0.08242005 -0.22754967
0.1277158 0.10917693 -0.04216587 0.014336862 0.059622746 0.056765415 -0.12902993 0.04553636
0.13567278 0.001816894 0.078581005 -0.1530136 -0.046785418 -0.004126384 0.1995647 -0.09869874
0.063896574 -0.053677376 -0.14678356 0.10765831 -0.08029146 -0.16579996 -0.059546653 -0.09529558
00000000: dfba 033e 821e 3fbc 80a5 553c 0cca 7e3d
00000010: e10c 8fbd 72c1 06be 4650 e83c 8a0f 9a3d
00000020: fc20 243e 217e ebbd cbca d93d 65fa 65bc
00000030: 4e7d 76bc 8023 9b3d 0489 e93d 36f5 64bc
00000040: edc1 32be 67a1 463d 84f5 e2bd e730 b83c
00000050: 4725 2bbd 3b67 6cbc 97e1 9b3d af99 253c
00000060: a535 3e3d 377f 523d 0db9 963d 22a2 d6bd
00000070: de85 2c3d 3d7d 05be 71a7 37bd acd2 af3d
00000080: 7753 003c 8077 46bc e484 193e 48d5 3cbe
00000090: fd50 683e 850d 293e d8cb a8bd c802 69be
000000a0: eec7 023e 2798 df3d 1fb6 2cbd 28e5 6a3c
000000b0: fb36 743d da82 683d 6c20 04be 5684 3a3d
000000c0: ceed 0a3e d924 ee3a 14ef a03d 99af 1cbe
000000d0: 11a2 3fbd 9e36 87bb b05a 4c3e 9122 cabd
000000e0: 35dc 823d cfdc 5bbd 6e4e 16be f67b dc3d
000000f0: d96f a4bd 77c7 29be 31e7 73bd 542a c3bd

actor.2.weight f4 [64, 64]
-0.066379994 -0.13130736 0.08838457 -0.07591206 -0.002469424 0.08797691 -0.032911487 -0.08192675
-0.13803577 0.0043923724 -0.06272027 0.009115741 0.039927647 -0.051783383 0.08475609 -0.03333491
-0.04988587 -0.09973132 0.037925214 -0.07728188 0.026276067 -0.033283327 0.08590688 -0.07798684
-0.061577782 -0.03315367 -0.09360987 0.030462306 -0.05981414 0.034512363 0.05533239 0.06084955
-0.040068503 0.050448265 -0.084352955 -0.12454367 -0.029566446 -0.10283735 -0.09684101 0.03177452
0.094641455 -0.06286695 -0.023903798 -0.10982184 0.004565764 0.016873904 -0.031291008 0.07828065
-0.11751625 -0.03368113 -0.081482604 0.09370406 0.08840026 0.10688453 0.09760245 0.04950708
-0.095714316 -0.084789485 0.029965416 -0.12859665 0.06695112 0.054342836 0.012388808 -0.12606667
0.34132308 -0.07410661 -0.11076387 0.15274109 0.025015298 -0.051918954 -0.028193846 0.19772387
0.2505807 -0.070842214 0.08529698 0.29592404 -0.15411636 -0.29535723 0.01773066 -0.03689803
-0.07724695 0.24539463 0.05187675 0.20176168 -0.04947736 0.20142502 0.08681478 -0.057889793
0.084567495 -0.07974115 -0.13224876 0.09694158 0.0554272 0.16104592 -0.16296051 -0.00962698
-0.08172842 -0.0072916136 0.12593067 0.0015531504 -0.018060036 0.019243129 0.13441226 -0.03779613
-0.110045135 -0.009190371 0.008847936 -0.17463177 0.18550625 -0.081443906 0.14665732 -0.07688463
-9.6918026e-05 0.21285273 -0.11009241 0.059510443 -0.041349083 -0.0018678579 0.10120282 0.107244454
0.18639216 -0.19108085 0.18338138 0.18871474 0.06520362 -0.051189374 -0.012666986 0.13578305
-0.5289087 0.2744611 0.1984271 0.04060162 0.26782647 0.16770445 0.16386965 -0.59400624
-0.03680421 0.021383235 -0.15317534 -0.19615383 -0.069853716 0.26271406 -0.036887225 0.08056262
0.033231456 -0.08224374 0.34741893 0.15030445 0.3008552 -0.14805925 -0.1616894 -0.19244632
-0.1392213 0.1559172 0.332659 -0.039550703 0.29483828 0.026262531 0.24772352 0.35190344
-0.01612841 0.20739296 -0.07202318 -0.11964315 -0.10863204 0.2690916 -0.013054865 -0.20151576
0.06952414 0.118084945 -0.0041816738 0.09038275 0.14580306 0.32443944 -0.0065451902 0.22949648
-0.025821812 -0.093186736 0.20891297 0.12773256 -0.20718291 -0.2813248 -0.0746076 -0.012994975
-0.09756034 0.38495108 0.13746639 -0.095399514 0.12385024 0.055289302 -0.07091243 -0.10656538
-0.09329596 0.28214815 0.2596225 -0.043461002 -0.23235248 -0.07155139 -0.006188371 -0.063282534
0.067898 0.17185515 -0.2671555 -0.03296169 -0.1910255 0.13315172 -0.06837056 -0.031133717
-0.040829707 -0.038782217 -0.051893983 -0.11831276 0.024746208 0.014461467 -0.11410896 -0.123543866
0.0037477338 0.13167313 -0.005724356 -0.06597024 -0.27774948 -0.10143551 -0.0034543765 -0.09223965
0.17088218 0.09655549 0.18996115 0.08188822 -0.050015204 -0.29939446 0.0055932608 0.0780037
-0.02434419 0.04440878 -0.19610095 0.046355363 0.24785487 -0.07300402 0.027791224 -0.07097174
-0.20025045 0.061567117 -0.11820634 -0.23643221 -0.097293496 -0.21205321 0.02117265 -0.07491549
-0.07923714 0.2314932 -0.1633723 0.00938178 0.26892975 0.008741527 -0.003705864 -0.06512994
00000000: 3cf2 87bd 7075 06be f802 b53d c877 9bbd
00000010: 0fd6 21bb 3d2d b43d 32ce 06bd 36c9 a7bd
00000020: 4059 0dbe e4ed 8f3b 7c73 80bd 305a 153c
00000030: 2c8b 233d d01a 54bd 9a94 ad3d 308a 08bd
00000040: 2055 4cbd ef3f ccbd 7857 1b3d f645 9ebd
00000050: e840 d73c 1954 08bd f2ef af3d 90b7 9fbd
00000060: fc38 7cbd 25cc 07bd 88b6 bfbd 168c f93c
00000070: acff 74bd d65c 0d3d 37a4 623d 613d 793d
00000080: df1e 24bd d7a2 4e3d 3ec1 acbd c010 ffbd
00000090: 5535 f2bc 639c d2bd 9454 c6bd 0026 023d
000000a0: 61d3 c13d 63c0 80bd e6d1 c3bc 46ea e0bd
000000b0: 689c 953b 243b 8a3c 002b 00bd 9b51 a03d
000000c0: 5cac f0bd 39f5 09bd 5ae0 a6bd eae7 bf3d
000000d0: 320b b53d 47e6 da3d cbe3 c73d f0c7 4a3d
000000e0: de05 c4bd 1ca6 adbd 087a f53c d7ae 03be
000000f0: ab1d 893d 9896 5e3d 6dfa 4a3c 9f17 01be
00000100: e6c1 ae3e 35c5 97bd 2bd8 e2bd 2968 1c3e
00000110: e2ec cc3c f8a8 54bd c8f6 e6bc 2078 4a3e
00000120: 1d4c 803e b915 91bd 2fb0 ae3d 5b83 973e
00000130: aed0 1dbe 1039 97be e43f 913c 6422 17bd
00000140: a633 9ebd bb48 7b3e b77c 543d 9d9a 4e3e
00000150: c6a8 4abd 5c42 4e3e f3cb b13d d91d 6dbd
00000160: b931 ad3d 544f a3bd 386c 07be 4f89 c63d
00000170: a207 633d 39e9 243e 1fdf 26be 7bba 1dbc
00000180: 3b61 a7bd 7dee eebb f8f3 003e 1493 cb3a
00000190: a4f2 93bc c4a3 9d3c 5ea3 093e 1dd0 1abd
000001a0: 585f e1bd 3693 16bc eff6 103c acd2 32be
000001b0: 5af5 3d3e 10cc a6bd 562d 163e b075 9dbd
000001c0: 7840 cbb8 11f6 593e 2178 e1bd 39c1 733d
000001d0: a85d 29bd e9d2 f4ba 6d43 cf3d fba2 db3d
000001e0: 96dd 3e3e b3aa 43be 54c8 3b3e 703e 413e
000001f0: 7a89 853d f3ab 51bd 3189 4fbc b60a 0b3e
00000200: 9066 07bf 2a86 8c3e 7930 4b3e e24d 263d
00000210: 8d20 893e b7ba 2b3e 72cd 273e cb10 18bf
00000220: 03c0 16bd e52b af3c ffd9 1cbe 8ddc 48be
00000230: 770f 8fbd 7582 863e 0f17 17bd 04fe a43d
00000240: b51d 083d 686f a8bd e5e0 b13e 69e9 193e
00000250: b109 9a3e d89c 17be e891 25be a610 45be
00000260: 0790 0ebe c2a8 1f3e 4852 aa3e ebff 21bd
00000270: 0bf5 963e 8524 d73c 3cab 7d3e b02c b43e
00000280: ba1f 84bc d25e 543e e480 93bd 7807 f5bd
00000290: 7a7a debd 60c6 893e 13e4 55bc 265a 4ebe
000002a0: ac62 8e3d 85d6 f13d 6c06 89bb 971a b93d
000002b0: 664d 153e ed1c a63e 0979 d6bb 2001 6b3e
000002c0: 4488 d3bc b0d8 bebd 48ed 553e 53cc 023e
000002d0: c227 54be ce09 90be dfcb 98bd e0e8 54bc
000002e0: b7cd c7bd 4f18 c53e fdc3 0c3e d260 c3bd
000002f0: 32a5 fd3d 0977 623d 893a 91bd f33e dabd
00000300: f411 bfbd b975 903e 3eed 843e 2a04 32bd
00000310: cfed 6dbe 8989 92bd d2c7 cabb 469a 81bd
00000320: 1b0e 8b3d ccfa 2f3e 9bc8 88be d602 07bd
00000330: 309c 43be ed58 083e dd05 8cbd 230c ffbc
00000340: 0d3d 27bd 1ada 1ebd c98e 54bd f64d f2bd
00000350: 8fb8 ca3c caef 6c3c f5b1 e9bd 9104 fdbd
00000360: 8a9c 753b 52d5 063e 6193 bbbb 681b 87bd
00000370: 2e35 8ebe 6cbd cfbd d262 62bb 24e8 bcbd
00000380: bdfb 2e3e e2be c53d 2d85 423e 03b5 a73d
00000390: bedc 4cbd 3b4a 99be ac47 b73b 67c0 9f3d
000003a0: 776d c7bc fbe5 353d b0ce 48be 1fdf 3d3d
000003b0: abcd 7d3e 2283 95bd 6caa e33c a259 91bd
000003c0: 740e 4dbe cd2d 7c3d 2a16 f2bd 491b 72be
000003d0: d041 c7bd 7a24 59be 4472 ad3c 4b6d 99bd
000003e0: 1547 a2bd 8e0c 6d3e 114b 27be 0ab6 193c
000003f0: 29b1 893e 9f38 0f3c 15de 72bb d962 85bd

actor.2.bias f4 [64]
-0.063779205 0.09399379 0.03507184 -0.19721894 0.13644004 0.15005015 -0.16179542 0.057636037
-0.12250045 0.116153724 -0.056051586 0.06103043 -0.1105733 -0.096184015 0.106249556 0.28150928
-0.10107961 0.16248694 0.08840222 0.1447181 -0.06906767 -0.06338149 0.12541145 0.045028977
0.21972792 0.14300595 0.07951026 -0.028145395 -0.09251977 0.057783555 0.018414397 0.15735096
-0.07464748 0.19518138 0.0074800826 0.0975166 0.045402534 0.032590173 0.113664605 0.059087962
0.0355795 -0.0038568866 0.01456735 -0.09618262 0.04651351 -0.0586508 -0.15377368 -0.07507252
-0.049494736 0.08470837 0.008140128 -0.029361617 -0.03956574 -0.08961076 -0.09899515 0.035010412
-0.045030262 0.21506122 0.12794402 0.008799737 -0.07245537 0.04914727 0.0064636907 -0.0367976
00000000: ac9e 82bd d17f c03d 7da7 0f3d c3f3 49be
00000010: f0b6 0b3e bfa6 193e b3ad 25be c413 6c3d
00000020: 84e1 fabd 01e2 ed3d 5996 65bd 0bfb 793d
00000030: 4174 e2bd 20fc c4bd 5e99 d93d fc21 903e
00000040: d402 cfbd fa62 263e 390c b53d fb30 143e
00000050: 5a73 8dbd 28ce 81bd dc6b 003e 4e70 383d
00000060: 5b00 613e 2770 123e 46d6 a23d 2c91 e6bc
00000070: 017b bdbd 73ae 6c3d cad9 963c 9c20 213e
00000080: c7e0 98bd a1dd 473e 7b1b f53b c8b6 c73d
00000090: 02f8 393d 467d 053d fdc8 e83d 3806 723d
000000a0: cfbb 113d d2c3 7cbb e5ab 6e3c 65fb c4bd
000000b0: f384 3e3d d23b 70bd d976 1dbe 9fbf 99bd
000000c0: feba 4abd 957b ad3d 2c5e 053c c687 f0bc
000000d0: af0f 22bd d985 b7bd f8bd cabd 1467 0f3d
000000e0: a771 38bd 0239 5c3e c203 033e c62c 103c
000000f0: 7b63 94bd a64e 493d 5ecd d33b 15b9 16bd

actor.4.weight f4 [36, 64]
0.012275128 -0.08623253 0.301077 -0.23233637 0.21011639 -0.22312365 0.08926182 0.64433354
-0.04828828 -0.1825817 -0.17942955 -0.06332689 -0.05710367 -0.052001536 -0.28401497 -0.46098834
0.038601052 -0.30238166 0.123054616 0.64300036 0.18693888 -0.287303 -0.22750942 -0.07453218
-0.54132617 0.004942086 0.059018657 0.5110761 -0.4887316 -0.17354965 -0.18893111 0.4640515
-0.06931007 -0.40809986 -0.24198171 -0.4768135 -0.16274297 0.18986501 -0.3442851 -0.22448981
-0.2657988 -0.20135021 -0.35894006 -0.095415734 -0.20518374 0.039889548 -0.061752945 0.031203136
-0.16656883 0.2753017 -0.07737159 -0.36126795 0.10483272 -0.13644204 0.17211413 -0.07961563
-0.024410272 -0.42184684 -0.4034261 -0.11252108 0.6723724 -0.33945033 0.010737429 -0.03670246
-0.08694354 -0.067483425 0.29078382 0.32690045 -0.014707481 -0.268156 0.039012793 -0.094354495
-0.032951362 -0.033692524 -0.0673165 0.05783779 0.13387704 -0.11908558 0.49216878 -0.09371035
-0.105077274 -0.036467493 -0.31492612 -0.13439909 0.113705084 0.5742369 -0.24254954 -0.18218775
-0.22514723 0.059715863 -0.014050318 0.13485183 0.29475152 -0.05876712 -0.2117193 -0.49632674
-0.040786993 -0.27584997 0.3806467 -0.25893116 0.25667155 0.14535472 0.35043752 -0.3669351
0.31609786 -0.023842473 -0.16707751 0.033310603 0.07299554 0.16432881 -0.03235921 0.044733927
0.111133106 0.1783523 0.022539169 -0.28846592 0.3261729 -0.05704447 0.57366925 -0.15677223
0.024582438 0.29188737 -0.17226988 0.10289773 -0.19767807 0.14501424 0.13450982 0.026341021
0.10969667 0.02648844 0.5139691 -0.106920764 -0.0071196766 0.3968796 0.11643788 0.012601233
0.03831579 -0.026195029 0.31641778 0.28525555 0.20701769 0.007535172 -0.07790093 -0.11826371
-0.012425522 0.07522226 0.3672699 0.1851661 0.45004404 -0.059361618 0.024811072 -0.057759997
-0.036678854 0.2345654 0.0018346551 0.3278394 0.18633732 -0.012891797 0.22978428 0.048980307
0.086292736 -0.2616147 0.4200138 0.091284126 0.42205134 0.030286297 0.11654071 0.22454742
0.23412678 -0.30140126 -0.021921864 0.029977454 -0.16821896 0.032790262 0.16343968 0.06454105
0.36941764 0.35943994 -0.10342776 0.19855048 0.3598555 -0.034223624 0.044804193 0.406869
-0.05270768 -0.18514751 -0.08849184 -0.027675806 -0.024145195 0.23669443 0.010182051 -0.06688964
0.10809169 -0.03965536 -0.23056999 -0.039380625 -0.021461055 -0.14934349 0.059034232 0.010272165
-0.04197884 0.15409756 0.09843995 0.013940706 0.14753857 -0.036819477 0.024846002 -0.0626885
-0.031790394 -0.013728677 -0.13751914 -0.123266466 -0.15691118 0.028335158 -0.039812423 0.2869854
-0.008323754 -0.17549877 -0.05285981 -0.08174649 0.022698458 0.1152808 0.14420094 -0.38761172
0.22941284 0.02923408 -0.11675968 -0.050560847 -0.12592071 -0.04067639 -0.053523574 -0.15467839
0.009104187 0.28380206 0.08072833 -0.07057434 -0.09214959 0.057694163 0.10742713 -0.0500449
-0.012960439 0.054871157 -0.0013211358 -0.23946452 0.102033295 0.20828943 0.009009515 -0.005380488
0.12200591 -0.11907723 -0.20050736 0.0413876 -0.3884398 0.014391144 -0.050761417 -0.0024460228
00000000: 9e1d 493c ae9a b0bd c426 9a3e 96e9 6dbe
00000010: c028 573e 877a 64be e7ce b63d 0bf3 243f
00000020: eec9 45bd b2f6 3abe 61bc 37be 87b1 81bd
00000030: 8ae5 69bd 90ff 54bd 696a 91be aa06 ecbe
00000040: 231c 1e3d c5d1 9abe 0f04 fc3d ac9b 243f
00000050: e86c 3f3e 6119 93be 3bf8 68be 54a4 98bd
00000060: 5a94 0abf 39f1 a13b 8cbd 713d e2d5 023f
00000070: 073b fabe 00b7 31be 2877 41be 2998 ed3e
00000080: 70f2 8dbd 77f2 d0be 0eca 77be e620 f4be
00000090: 18a6 26be f96b 423e 2346 b0be a8e0 65be
000000a0: c816 88be c02e 4ebe fec6 b7be 5369 c3bd
000000b0: b01b 52be 3963 233d a8f0 7cbd b89d ff3c
000000c0: 0591 2abe 58f4 8c3e ff74 9ebd 1df8 b8be
000000d0: 89b2 d63d 76b7 0bbe b03e 303e 850d a3bd
000000e0: 0df8 c7bc 4ffc d7be de8d cebe 7471 e6bd
000000f0: 9920 2c3f 6fcc adbe 0bec 2f3c 5255 16bd
00000100: 740f b2bd c034 8abd 9ee1 943e 7f5f a73e
00000110: a5f7 70bc be4b 89be e1cb 1f3d ee3c c1bd
00000120: 02f8 06bd 2c01 0abd 3cdd 89bd 52e7 6c3d
00000130: 1017 093e 24e3 f3bd 8cfd fb3e 36eb bfbd
00000140: c132 d7bd f05e 15bd ff3d a1be ea9f 09be
00000150: 36de e83d 3101 133f e85e 78be 6d8f 3abe
00000160: ff8c 66be 9f98 743d 4e33 66bc 9916 0a3e
00000170: ace9 963e cbb5 70bd f2cc 58be 8a1e febe
00000180: 4310 27bd 353c 8dbe 20e4 c23e a092 84be
00000190: 746a 833e ded7 143e 8c6c b33e ebde bbbe
000001a0: 94d7 a13e 4a51 c3bc 5e16 2bbe b370 083d
000001b0: b07e 953d d045 283e 178b 04bd ec3a 373d
000001c0: c199 e33d fca1 363e 10a4 b83c ceb1 93be
000001d0: 2200 a73e 76a7 69bd fddb 123f e688 20be
000001e0: 1c61 c93c 4372 953e 8467 30be 0cbc d23d
000001f0: 1f6c 4abe 9d7e 143e f1bc 093e 20c9 d73c
00000200: a6a8 e03d 49fe d83c 7b93 033f 46f9 dabd
00000210: 2d4c e9bb ce33 cb3e fc76 ee3d 6775 4e3c
00000220: 05f1 1c3d f596 d6bc 8301 a23e 040d 923e
00000230: 72fc 533e 9be9 f63b 868a 9fbd 3e34 f2bd
00000240: 6b94 4bbc 210e 9a3d cd0a bc3e 2f9c 3d3e
00000250: 2c6c e63e 2b25 73bd 9740 cb3c bf95 6cbd
00000260: 913c 16bd ea31 703e cf78 f03a 91da a73e
00000270: 36cf 3e3e 1e38 53bc 924c 6b3e 939f 483d
00000280: 3fba b03d 5df2 85be 0c0c d73e 2cf3 ba3d
00000290: 1d17 d83e f81a f83c e5ac ee3d c2ef 653e
000002a0: eebe 6f3e 4451 9abe 7b95 b3bc 4793 f53c
000002b0: 9741 2cbe 154f 063d bb5c 273e 192e 843d
000002c0: 4f24 bd3e 8308 b83e efd1 d3bd d150 4b3e
000002d0: fb3e b83e 122e 0cbd 9a84 373d 2251 d03e
000002e0: 02e4 57bd 4f97 3dbe 363b b5bd 5fb8 e2bc
000002f0: 25cc c5bc 0660 723e 9ed2 263c 70fd 88bd
00000300: 2d5f dd3d a96d 22bd 8a1a 6cbe 944d 21bd
00000310: 18cf afbc 80ed 18be e1cd 713d 954c 283c
00000320: 01f2 2bbd c0cb 1d3e e29a c93d 8f67 643c
00000330: 5a14 173e 05d0 16bd d889 cb3c d462 80bd
00000340: a536 02bd 3fee 60bc d1d1 0cbe 2173 fcbd
00000350: 53ad 20be 221f e83c 5a12 23bd c0ef 923e
00000360: 5b60 08bc f3b5 33be 8783 58bd b46a a7bd
00000370: 1ef2 b93c 5718 ec3d 69a9 133e 0b75 c6be
00000380: 33eb 6a3e 4f7c ef3c b31f efbd e418 4fbd
00000390: 5cf1 00be 499c 26bd 893b 5bbd 0364 1ebe
000003a0: ba29 153c 814e 913e e554 a53d 4889 90bd
000003b0: edb8 bcbd b750 6c3d c102 dc3d e2fb 4cbd
000003c0: 0558 54bc 94c0 603d f629 adba 3036 75be
000003d0: d5f6 d03d d349 553e a59c 133c ce4e b0bb
000003e0: 3cde f93d c3de f3bd cd51 4dbe 0b86 293d
000003f0: 95e1 c6be d5c8 6b3c 34eb 4fbd 744d 20bb

actor.4.bias f4 [36]
-0.06943229 -0.062302902 0.010000271 -0.113003395 0.12035603 0.08412351 0.084903315 0.06051737
-0.103614524 -0.026372697 0.042918887 0.058162812 0.1494305 0.22398883 0.085325085 0.11429286
-0.05117057 -0.12866606 -0.23337898 -0.11049016 -0.36046973 0.07068564 -0.19121127 -0.09638891
0.0854124 -0.017030347 0.3051114 0.014185665 0.061872788 -0.16221799 0.087063156 0.10698607
-0.07142595 0.15421346 0.092092626 0.30375192
00000000: 8432 8ebd 5431 7fbd 2dd8 233c 536e e7bd
00000010: 397d f63d f248 ac3d cae1 ad3d 10e1 773d
00000020: da33 d4bd 8e0b d8bc b7cb 2f3d 213c 6e3d
00000030: 4f04 193e 545d 653e ebbe ae3d 6012 ea3d
00000040: 3b98 51bd 09c1 03be e6fa 6ebe aa48 e2bd
00000050: 7d8f b8be a2c3 903d e3cc 43be 8d67 c5bd
00000060: b2ec ae3d 3a83 8bbc 9037 9c3e fe6a 683c
00000070: 526e 7d3d 791c 26be 2b4e b23d 831b db3d
00000080: c547 92bd 22ea 1d3e 0f9b bc3d 5f85 9b3e

critic.0.weight f4 [64, 62]
0.07635647 0.08354457 -0.083908446 0.009482246 -0.054377854 -0.025909588 -0.002609698 0.019781398
-0.07507219 -0.020640172 -0.05863286 -0.034722958 -0.06265787 -0.066341564 -0.11205902 -0.090194136
-0.008365868 -0.107972465 -0.12109008 0.089093745 -0.09144983 0.08891198 0.0087930765 -0.018583413
0.09826457 -0.09916525 0.060841322 0.084765814 0.1047079 -0.15046524 0.014060573 -0.030952185
-0.09423055 0.08673783 -0.022362862 0.0858983 -0.068384334 -0.056324437 0.047750417 0.016227495
0.072785884 0.054177675 0.09640863 -0.093616925 -0.008092789 0.05753926 -0.046101417 -0.080109216
0.09673976 -0.13439585 -0.10489801 -0.11434255 0.03142459 0.0021071255 -0.11672346 0.047388297
0.023502113 0.043020763 -0.12431466 -0.12137936 -0.14110288 -0.06356247 -0.1128423 0.06433067
-0.017239168 -0.050084185 0.25746486 0.11592456 0.16264035 -0.09991559 -0.13027467 -0.28215104
-0.3313127 0.19356456 -0.059118025 0.06667118 0.010590905 0.16608867 0.10398414 0.10897633
0.06814908 -0.006805929 -0.032562602 -0.12126438 0.066823736 -0.028784275 0.019905403 -0.028680766
0.08202378 0.0040353225 0.16299234 0.49466342 0.22592388 0.2402183 0.05880494 -0.07486796
0.08931295 0.098380856 0.08748429 -0.0048070606 0.15328062 0.36732945 -0.052252326 -0.15311322
0.037522677 -0.06382927 0.01881111 -0.11842251 0.0038004199 -0.004657 0.31273258 0.09481086
0.1463041 0.18076962 -0.046657264 0.119926676 -0.03777527 -0.14838076 0.12539272 0.04889541
0.18367477 0.041142467 0.009858829 0.2598078 -0.10513134 0.07965675 0.105171435 0.048618447
-0.09733694 -0.10048235 -0.101049475 -0.08546792 0.14904028 0.11501077 0.075058445 0.12513408
-0.091924064 0.037329197 -0.0058798036 -0.13603571 -0.019912245 -0.07501419 0.11838697 -0.10327836
0.11854204 -0.02147506 0.022991564 0.1105881 -0.05876423 -0.04705589 0.052543417 -0.032175787
-0.0011491778 0.057325393 -0.0605639 0.008912045 -0.055639885 0.051634572 0.012293336 -0.097683206
-0.1427251 -0.054241624 0.025135174 0.22541188 -0.2035213 -0.016038986 -0.012304274 -0.19109088
0.033598192 -0.107694045 0.0032054011 -0.1591566 -0.09956642 0.09326336 -0.1069841 0.077529095
0.06040179 0.03845159 0.05048395 -0.13141964 -0.18903786 -0.007129992 0.024276465 -0.0025801302
-0.03670696 0.016216714 -0.11501763 -0.11673309 -0.10628424 0.08884689 -0.22622325 -0.15742694
-0.104830384 0.23613553 -0.03723615 -0.17528473 -0.02468155 0.084090345 -0.0015678243 -0.031847175
-0.07548525 -0.025218967 -0.037932936 -0.07882174 -0.08388044 0.08991102 0.021075178 0.041679714
-0.092292465 0.023545597 0.11313734 0.06955967 -0.0055553075 -0.05846521 0.27229524 0.255615
0.013299856 0.069116786 -0.03601746 -0.0050054374 -0.029890707 -0.07533561 -0.0005726758 0.011843879
-0.14110044 0.054771837 -0.035403244 -0.11209465 0.06750214 -0.012974769 -0.13875882 -0.21326827
0.062936634 -0.007651632 -0.19422059 -0.16699168 0.08541173 -0.01313208 0.08939693 -0.086159214
-0.11643301 -0.027734729 -0.08785234 -0.01956514 -0.0049805655 -0.025939127 0.0031748672 0.01701032
0.06834458 0.09007455 -0.1143471 -0.0821262 -0.1485915 0.10629119 0.26288366 0.322856
00000000: c860 9c3d 6a19 ab3d 31d8 abbd 6c5b 1b3c
00000010: 50bb 5ebd 5840 d4bc 7807 2bbb 990c a23c
00000020: 73bf 99bd 9415 a9bc 0329 70bd a939 0ebd
00000030: c552 80bd 16de 87bd 337f e5bd b4b7 b8bd
00000040: fe10 09bc ab20 ddbd 13fe f7bd c876 b63d
00000050: 0c4a bbbd 7c17 b63d d610 103c 3e3c 98bc
00000060: ef3e c93d 2717 cbbd c034 793d b399 ad3d
00000070: 1871 d63d 8f13 1abe 515e 663c 708f fdbc
00000080: f2fb c0bd 9aa3 b13d 5232 b7bc 73eb af3d
00000090: 160d 8cbd 74b4 66bd f195 433d 86ef 843c
000000a0: c410 953d 69e9 5d3d e371 c53d 3bba bfbd
000000b0: 9e97 04bc 49ae 6b3d d7d4 3cbd 4d10 a4bd
000000c0: 7f1f c63d 119f 09be c5d4 d6bd 6d2c eabd
000000d0: 12b7 003d b317 0a3b b60c efbd 3b1a 423d
000000e0: 8187 c03c 8a36 303d af98 febd be95 f8bd
000000f0: 467d 10be 0a2d 82bd dd19 e7bd ccbf 833d
00000100: 2839 8dbc 1325 4dbd 6fd2 833e db69 ed3d
00000110: 318b 263e 8ba0 ccbd b966 05be 1a76 90be
00000120: d1a1 a9be ca35 463e be25 72bd e68a 883d
00000130: 7a85 2d3c 2613 2a3e a3f5 d43d fb2e df3d
00000140: bf91 8b3d 4504 dfbb 5d60 05bd 7659 f8bd
00000150: e2da 883d 00cd ebbc a810 a33c edf3 eabc
00000160: 15fc a73d bd3a 843b 77e7 263e 8644 fd3e
00000170: 9758 673e c9fb 753e 73dd 703d 5f54 99bd
00000180: b5e9 b63d e77b c93d f72a b33d 8c84 9dbb
00000190: 98f5 1c3e 9b12 bc3e 8906 56bd b6c9 1cbe
000001a0: 61b1 193d ecb8 82bd c219 9a3c 8087 f2bd
000001b0: 7710 793b bf99 98bb 7c1e a03e 322c c23d
000001c0: bed0 153e ac1b 393e b01b 3fbd 1e9c f53d
000001d0: 3eba 1abd 20f1 17be f366 003e 8e46 483d
000001e0: 3d15 3c3e 0185 283d ed86 213c 8705 853e
000001f0: 1a4f d7bd 1423 a33d 1f64 d73d 2324 473d
00000200: 9758 c7bd b1c9 cdbd 07f3 cebd ce09 afbd
00000210: 049e 183e c48a eb3d 3eb8 993d 2623 003e
00000220: af42 bcbd 80e6 183d 5eab c0bb f24c 0bbe
00000230: 011f a3bc 0aa1 99bd de74 f23d 9b83 d3bd
00000240: 2bc6 f23d 77ec afbc ce58 bc3c 047c e23d
00000250: c3b2 70bd adbd 40bd c437 573d c2ca 03bd
00000260: 02a0 96ba 08ce 6a3d da11 78bd d303 123c
00000270: a6e6 63bd c67e 533d fd69 493c 220e c8bd
00000280: 8726 12be 772c 5ebd 48e8 cd3c 5fd2 663e
00000290: e367 50be 3164 83bc de97 49bc 54ad 43be
000002a0: 429e 093d b28e dcbd b511 523b f3f9 22be
000002b0: 7be9 cbbd dc00 bf3d 7b1a dbbd 93c7 9e3d
000002c0: de67 773d 6a7f 1d3d 42c8 4e3d df92 06be
000002d0: 2493 41be b5a2 e9bb 70df c63c 6717 29bb
000002e0: 0a5a 16bd ead8 843c 5d8e ebbd c211 efbd
000002f0: 8dab d9bd 5cf5 b53d 11a7 67be 8734 21be
00000300: 50b1 d6bd 83cd 713e ef84 18bd d77d 33be
00000310: f630 cabc 8f37 ac3d 747f cdba 2f72 02bd
00000320: 0398 9abd 0298 cebc 915f 1bbd 4b6d a1bd
00000330: 82c9 abbd 4523 b83d daa5 ac3c 59b8 2a3d
00000340: d503 bdbd b2e2 c03c 8db4 e73d 4d75 8e3d
00000350: 4c09 b6bb 3779 6fbd 486a 8b3e f8df 823e
00000360: a4e7 593c 1a8d 8d3d 0b87 13bd a704 a4bb
00000370: 5bdd f4bc 8e49 9abd 9f1f 16ba d40c 423c
00000380: a27c 10be 6f58 603d fe02 11bd e191 e5bd
00000390: 903e 8a3d 2094 54bc cb16 0ebe ff62 5abe
000003a0: ece4 803d 8bba fabb c3e1 46be deff 2abe
000003b0: 58ec ae3d f027 57bc bd15 b73d 3e74 b0bd
000003c0: 6e74 eebd f133 e3bc edeb b3bd 1347 a0bc
000003d0: 0334 a3bb 4b7e d4bc 6f11 503b 3a59 8b3c
000003e0: 3ef8 8b3d 0179 b83d d02e eabd c831 a8bd
000003f0: 5f28 18be 32af d93d b098 863e 624d a53e

critic.0.bias f4 [64]
-0.14922316 0.16150449 -0.21701069 -0.10036356 -0.028859127 -0.047462583 0.015540416 -0.122227445
-0.13789107 0.13339907 -0.11233064 -0.12689556 -0.15824421 -0.034756415 -0.099221 -0.039356966
-0.15047419 -0.06763623 -0.051367536 0.13682747 -0.07971272 -0.10666988 0.016932096 -0.067031175
0.07431908 -0.062242966 -0.15573886 -0.07304365 0.08253366 -0.12019637 -0.050822023 0.08024767
-0.056597568 -0.10305754 -0.014865599 0.03781069 -0.16305538 0.044732925 -0.024956034 0.11133576
-0.12585081 -0.040783323 -0.13177443 -0.07337362 -0.041636117 -0.09444973 0.0278634 0.08214261
0.009875653 -0.14160521 0.06256947 0.08102076 -0.06878571 -0.06959638 -0.14767669 -0.16219106
0.11361497 -0.026911318 -0.20380239 0.06678623 0.09546288 -0.048893802 -0.042506155 -0.14080131
00000000: f5cd 18be 6f61 253e 0d38 5ebe 698b cdbd
00000010: fa69 ecbc 2068 42bd 3b9d 7e3c 6252 fabd
00000020: 5133 0dbe c499 083e 9b0d e6bd e9f0 01be
00000030: c50a 22be be5c 0ebd 6134 cbbd c534 21bd
00000040: e815 1abe dd84 8abd c466 52bd 801c 0c3e
00000050: 6c40 a3bd bd75 dabd 2eb5 8a3c a447 89bd
00000060: 9a34 983d 7bf2 7ebd 027a 1fbe e997 95bd
00000070: 6807 a93d 8429 f6bd c12a 50bd e458 a43d
00000080: dad2 67bd d50f d3bd d78e 73bc 62df 1a3d
00000090: fdf7 26be df39 373d 9970 ccbc 0104 e43d
000000a0: 09df 00be 6a0c 27bd e0ef 06be e944 96bd
000000b0: a28a 2abd dc6e c1bd c941 e43c 623a a83d
000000c0: 7ecd 213c f500 11be 6c24 803d 36ee a53d
000000d0: 86df 8cbd 8c88 8ebd 8f38 17be 6a15 26be
000000e0: f7ae e83d 2075 dcbc 93b1 50be 38c7 883d
000000f0: 0b82 c33d de44 48bd ef1a 2ebd 382e 10be

critic.2.weight f4 [64, 64]
-0.019199578 0.17831042 -0.0042255423 -0.0071464474 0.041369814 0.032330714 -0.061053418 0.12013952
0.04248474 -0.17227083 -0.016911965 0.22171873 -0.03972897 0.20774198 0.116346784 0.120903775
0.032156985 0.11218318 -0.14801294 0.12275543 -0.15829743 -0.04381732 -0.04502995 0.13851276
-0.07501696 -0.061594766 -0.09875652 0.06856927 -0.119931005 0.17831212 -0.025413234 0.030363625
0.14302818 -0.07280005 0.033580597 0.030471396 -0.15028441 0.10706585 -0.12708075 -0.093611374
-0.0075283097 0.19310172 0.15089196 -0.29793346 -0.14863618 -0.12718405 0.05478789 -0.107866876
0.079337746 0.013703225 0.045120127 0.30195892 0.03421566 0.043638065 -0.09972258 -0.012229173
0.07721243 -0.03283898 0.10019977 -0.12687147 0.17775883 0.050059404 0.124074906 0.08775774
-0.014482945 -0.0019549446 -0.017822543 -0.0223026 -0.098928906 -0.06979659 -0.1007647 0.10175264
-0.054067146 -0.12173797 -0.10396693 -0.10354333 -0.03995335 -0.083797514 -0.10532517 -0.055703167
0.082478054 -0.11113593 -0.02984004 0.097992346 0.06458831 0.01380128 0.034500975 -0.057925843
-0.11333666 -0.1080325 -0.089271195 0.076209694 -0.013285345 -0.11513051 -0.11126509 -0.046412133
0.070412055 -0.0014238161 0.007326343 -0.040698316 -0.021004828 0.05407381 0.02557479 -0.03056502
0.124907136 0.07343379 0.029678421 0.03064279 0.060465816 -0.031621028 0.0086480295 -0.06817854
-0.056291178 -0.020480929 -0.09794657 0.071006425 -0.101088434 -0.0941276 -0.030723277 0.06645961
-0.07587301 -0.031809933 0.05603995 -0.105411135 0.08423834 0.038514413 0.004993365 -0.0120788105
0.08183778 -0.17058669 -0.10090099 0.11321169 -0.2806814 0.05441112 -0.056514114 0.106987774
-0.15741894 0.1339938 -0.0022726809 0.015367171 -0.05356509 -0.15174133 0.059437577 0.0016760253
-0.037240047 0.02796483 -0.011680165 -0.13789581 0.13504957 0.059906486 0.12440402 0.12192007
-0.26583713 0.016887091 0.06971403 -0.0018822955 0.17514606 -0.03499315 0.023376541 -0.32483158
-0.2265056 -0.009838704 0.028731102 -0.055804998 0.10774002 0.0013667003 0.1072995 -0.09051582
0.049744595 0.022512322 -0.052551918 0.035756826 0.06773419 -0.11270764 -0.015202214 0.2154043
0.09636804 -0.117223285 -0.13710847 -0.2218957 0.14568044 -0.017086778 -0.016876124 0.09803307
-0.10590852 -0.015030634 -0.21304253 0.077387065 -0.23661678 0.0037063113 -0.061547454 -0.18450966
-0.0003574058 0.026301641 -0.12014717 -0.02209805 0.0090372255 -0.09064463 0.025363695 -0.025791291
-0.057595458 -0.051759344 0.017322835 -0.10507632 -0.012699774 -0.14622486 0.14780581 0.09787927
-0.0034678564 -0.07697674 -0.10835394 0.035373338 0.03698282 0.14067626 -0.09337475 0.02619598
-0.0373627 -0.08708131 0.0062214187 -0.033846144 0.030268665 -0.120539635 0.041246355 -0.053177573
-0.04581532 0.058940694 -0.012368895 -0.1778999 0.018190473 -0.13515346 -0.053534072 -0.117895834
-0.047661897 0.08293866 -0.10111119 0.05715322 -0.071884535 0.075061716 -0.025577394 -0.078796305
-0.14475374 0.021244233 -0.06280022 -0.11991849 0.0016325865 -0.025753934 -0.048217423 0.12795559
-0.06480717 0.018226761 -0.104674794 -0.20134568 -0.0703552 -0.17149428 0.113390274 0.05751902
00000000: 6f48 9dbc 0297 363e 6b76 8abb bf2c eabb
00000010: 6573 293d 366d 043d 2613 7abd b50b f63d
00000020: 7b04 2e3d c467 30be f68a 8abc 3c0a 633e
00000030: d8ba 22bd 50ba 543e 3947 ee3d 669c f73d
00000040: 0bb7 033d 4cc0 e53d b490 17be 3367 fb3d
00000050: b918 22be ca79 33bd 5371 38bd 4ad6 0d3e
00000060: 7ea2 99bd cb4a 7cbd dc40 cabd 0c6e 8c3d
00000070: 639e f5bd 7497 363e 6a2f d0bc 23bd f83c
00000080: fb75 123e 3118 95bd cf8b 093d 269f f93c
00000090: 28e4 19be 5745 db3d 7521 02be 52b7 bfbd
000000a0: 0ab0 f6bb 75bc 453e 6c83 1a3e bc8a 98be
000000b0: 1534 18be 893c 02be 4469 603d 4fe9 dcbd
000000c0: d47b a23d 7e83 603c e2cf 383d 5c9a 9a3e
000000d0: b825 0c3d d4bd 323d 5a3b ccbd df5c 48bc
000000e0: 8d21 9e3d 2b82 06bd 8935 cd3d 98ea 01be
000000f0: 6906 363e 170b 4d3d fc1a fe3d 54ba b33d
00000100: e049 6dbc 871e 00bb 9500 92bc f1b3 b6bc
00000110: 3d9b cabd 84f1 8ebd b95d cebd b063 d03d
00000120: 8375 5dbd c251 f9bd 9dec d4bd 870e d4bd
00000130: 20a6 23bd 089e abbd b9b4 d7bd 0129 64bd
00000140: 41ea a83d 3c9b e3bd 1973 f4bc 36b0 c83d
00000150: e046 843d c41e 623c e550 0d3d a643 6dbd
00000160: 0d1d e8bd 2540 ddbd d1d3 b6bd d413 9c3d
00000170: c7aa 59bc 8bc9 ebbd f4de e3bd a61a 3ebd
00000180: 3234 903d 579f baba d211 f03b 47b3 26bd
00000190: 5112 acbc 807c 5d3d 3982 d13c 7e63 fabc
000001a0: 50cf ff3d 7464 963d 2920 f33c 9706 fb3c
000001b0: 01ab 773d 0d85 01bd 77b0 0d3c 31a1 8bbd
000001c0: 9491 66bd 9fc7 a7bc 3698 c8bd d16b 913d
000001d0: 7407 cfbd f9c5 c0bd 62af fbbc fa1b 883d
000001e0: 4f63 9bbd 224b 02bd 268a 653d cbe1 d7bd
000001f0: 2785 ac3d 4ac1 1d3d 629f a33b 34e6 45bc
00000200: 919a a73d 47ae 2ebe 2ea5 cebd 88db e73d
00000210: 79b5 8fbe 32de 5e3d 587b 67bd 681c db3d
00000220: 6e32 21be ac35 093e 42f1 14bb 96c6 7b3c
00000230: 1167 5bbd 1462 1bbe d174 733d 14ae db3a
00000240: 0589 18bd 8016 e53c 2a5e 3fbc 8f34 0dbe
00000250: 6f4a 0a3e 8160 753d 89c7 fe3d 3bb1 f93d
00000260: ce1b 88be cc56 8a3c 3bc6 8e3d 5bb7 f6ba
00000270: 7d59 333e fa54 0fbd 2980 bf3c 5350 a6be
00000280: 16f1 67be 8432 21bc 7d5d eb3c c893 64bd
00000290: cda6 dc3d da22 b33a d7bf db3d 5c60 b9bd
000002a0: fdc0 4b3d c36b b83c ae40 57bd c075 123d
000002b0: 39b8 8a3d 43d3 e6bd b512 79bc f292 5c3e
000002c0: 9b5c c53d c312 f0bd 2a66 0cbe a038 63be
000002d0: 412d 153e 92f9 8bbc cc3f 8abc 90c5 c83d
000002e0: 91e6 d8bd 0c43 76bc d227 5abe 1c7d 9e3d
000002f0: ab4b 72be 96e5 723b 2f19 7cbd 1af0 3cbe
00000300: 3262 bbb9 8a76 d73c b80f f6bd f806 b5bc
00000310: df10 143c e4a3 b9bd 86c7 cf3c 4248 d3bc
00000320: 37e9 6bbd 9b01 54bd 9ee8 8d3c 4132 d7bd
00000330: b612 50bc f8bb 15be 685a 173e ed74 c83d
00000340: fa44 63bb fba5 9dbd ace8 ddbd a2e3 103d
00000350: 4c7b 173d 700d 103e 433b bfbd f498 d63c
00000360: a109 19bd b057 b2bd 0bdd cb3b 41a2 0abd
00000370: fef5 f73c 7cdd f6bd f0f1 283d bad0 59bd
00000380: d8a8 3bbd cc6b 713d e8a6 4abc 642b 36be
00000390: 3004 953c ab65 0abe 8b46 5bbd 5f73 f1bd
000003a0: 1f39 43bd bfdb a93d 6213 cfbd 7f19 6a3d
000003b0: 3338 93bd f5b9 993d af87 d1bc f55f a1bd
000003c0: 533a 14be 6308 ae3c 679d 80bd d397 f5bd
000003d0: 83fc d53a eaf9 d2bc a27f 45bd ca06 033e
000003e0: 9fb9 84bd 4a50 953c bd5f d6bd 902d 4ebe
000003f0: 6316 90bd 329c 2fbe 2939 e83d 1099 6b3d

critic.2.bias f4 [64]
0.12638792 -0.075363815 0.09293333 -0.06825431 -0.08522528 -0.19297002 -0.07183877 -0.1554553
-0.08532454 -0.12175152 -0.05186636 0.056283403 -0.05627706 -0.022441054 -0.06674074 0.10335495
-0.08646398 -0.1787602 -0.0070930235 -0.06797467 0.02620541 -0.019591399 -0.21704957 -0.16286205
0.012418459 -0.14825381 -0.10365951 -0.098084606 -0.02197217 -0.02660066 -0.05780159 -0.05921821
-0.13014294 -0.10460195 0.17397067 0.09349583 -0.14878304 -0.08709755 -0.11556723 -0.05849687
-0.0022152131 -0.046345916 0.04323277 -0.011257503 0.088865235 0.018321553 -0.08310237 -0.06332089
-0.11266554 -0.03795971 0.0956328 -0.066906996 -0.08802132 -0.13753062 -0.06974386 0.012149593
-0.038841225 -0.03660554 -0.12661849 -0.09660401 -0.12961136 -0.066772215 -0.15104237 -0.10917332
00000000: d66b 013e 5858 9abd d453 be3d eac8 8bbd
00000010: 978a aebd ef99 45be 3420 93bd ad2f 1fbe
00000020: a2be aebd dc58 f9bd d271 54bd 6d89 663d
00000030: c682 66bd 4dd6 b7bc 5eaf 88bd c3ab d33d
00000040: 0714 b1bd ea0c 37be 986c e8bb 4e36 8bbd
00000050: baac d63c 247e a0bc 3e42 5ebe 4fc5 26be
00000060: cb76 4b3c d9cf 17be 704b d4bd 95e0 c8bd
00000070: fbfe b3bc a1e9 d9bc 5cc1 6cbd cb8e 72bd
00000080: 3144 05be 8c39 d6bd 5e25 323e be7a bf3d
00000090: 955a 18be 3360 b2bd 83ae ecbd 6a9a 6fbd
000000a0: 1c2d 11bb 37d5 3dbd d814 313d 6471 38bc
000000b0: fafe b53d 1517 963c 9331 aabd 62ae 81bd
000000c0: 31bd e6bd a47b 1bbd 21db c33d 8906 89bd
000000d0: 8644 b4bd d4d4 0cbe ded5 8ebd 160f 473c
000000e0: fa17 1fbd b1ef 15bd 47a8 01be 53d8 c5bd
000000f0: d7b8 04be dfbf 88bd daaa 1abe 4396 dfbd

critic.4.weight f4 [1, 64]
-0.064132094 0.030586643 0.07397155 0.02189235 -0.10068557 -0.08586239 -0.015649883 0.080736496
0.021813277 0.011561542 0.0067962715 0.028105373 0.00642 0.026147563 -0.04443745 -0.1257597
-0.0040790043 0.016848607 0.0053397086 0.028618477 0.0018552232 0.007084795 -0.00030765083 0.047457773
-0.02824222 -0.0020720474 -0.0010258125 0.00086746394 0.002653068 0.004071212 0.0758544 0.019487599
-0.019033732 0.070682675 -0.06629863 0.14241022 0.0018311465 -0.04039856 -0.101939864 0.059324995
-0.036501765 0.028386742 0.03955081 0.006614761 -0.06773477 0.018938418 0.035587728 -0.0016969142
0.005651866 0.010184109 -0.018624472 0.09556094 0.08411399 0.00287453 0.0010913195 0.0010028678
0.020533912 -0.04211679 0.00089564413 -0.0022868414 -0.026342502 0.022005573 -0.025780428 -0.09176486
00000000: b057 83bd d790 fa3c 657e 973d 9657 b33c
00000010: 3c34 cebd 9fd8 afbd 2f34 80bc 2d59 a53d
00000020: c2b1 b23c 9f6c 3d3c 42b3 de3b 3d3d e63c
00000030: dd5e d23b 6a33 d63c 0b04 36bd 27c7 00be
00000040: 2ba9 85bb 1706 8a3c b9f8 ae3b 4c71 ea3c
00000050: f62a f33a 9127 e83b 324c a1b9 1563 423d
00000060: 3a5c e7bc 30cb 07bb 8e74 86ba 8566 633a
00000070: 18df 2d3b cd67 853b 8d59 9b3d 75a4 9f3c
00000080: a1ec 9bbc 14c2 903d 93c7 87bd fcd3 113e
00000090: 1503 f03a f678 25bd d9c5 d0bd c4fe 723d
000000a0: e082 15bd 508b e83c 0800 223d a3c0 d83b
000000b0: 87b8 8abd be24 9b3c 70c4 113d fe6a deba
000000c0: 4a33 b93b 40db 263c 5992 98bc 74b5 c33d
000000d0: f543 ac3d 9c62 3c3b 9b0a 8f3a a972 833a
000000e0: bc36 a83c a882 2cbd a9c9 6a3a d5de 15bb
000000f0: 3bcc d7bc 0845 b43c 7a31 d3bc 37ef bbbd
