RL/CC2-Cardiff-implementation/GT-Cardiff-CC2/Models/PPOxCCE-C4/5000.pth (torch, 78850 bytes, 11 tensors)

actor.0.weight f4 [64, 62]
00000000: ed40 79ba e786 8b3d 2a12 d6bd 3c6a bfbd
00000010: 09e6 273e 5ef7 823e bb5f 39be 14e6 1bbe
00000020: 6fc6 b93d 5fb7 8fbd 60e9 2cbe 0812 6cbe
00000030: 793d 1abf 8b89 5cbe d21c 79bd 1bb7 f0bd
00000040: 81a6 4d3d 4d10 9c3d 7754 b0bd 4686 62bd
00000050: 5df1 3c3d 15fb d73d 861c d6bc 12a2 c23d
00000060: 58b1 a7bc c02c 5c3c cf82 eb3d 9948 f1bd
00000070: 4717 1cbf bde8 abbe 8af6 b33d c0dc 9e3e
00000080: cf96 a8bd 3376 6fbd b9b6 b5bd 9498 f3bd
00000090: 08ee 93be 1ab2 59bc f4ee 163e cb62 823d
000000a0: fc2c 473d 8f68 c2be 2bcf 083e 7dc8 14be
000000b0: ae1b 033d 3036 66bd 3271 0d3e c6b4 303e
000000c0: 1391 213e 0850 d43d 47bd 083d bc17 913e
000000d0: 8474 4e3d d031 4f3d 2aaf 903e dab1 833b
000000e0: b2da fb3d 70a7 c9bd 1a58 1e3c c877 313e
000000f0: 164a 173e 331b 2a3e 9411 9abd 6327 1d3d
00000100: 1bc9 8e3d 8d50 83bc 4f96 953d a01f e6bd
00000110: 97d7 ca3d daa8 d7bd 4d25 c0be 511d 9dbe
00000120: 9cf4 be3e 85c0 603f ebd2 82ba 1b16 413d
00000130: ac36 15bd 3d2d f6bd 4d6a 3f3c b5b7 a2bd
00000140: d565 f2bd f417 e73d 48c4 c53d 05ba 01be
00000150: 23bb c23c 6643 afbc fb34 abbc 271f 6ebd
00000160: 120b 483d 510e 9abd 62df c7b9 f4ce 61bd
00000170: c436 153d c122 433e 95b6 00be 40b9 a8bd
00000180: b6de 813d 05c1 d93c b7da 7abe 6f57 08be
00000190: 54c9 0d3e dd37 223e f6bc 4bbe cbb2 13be
000001a0: 1acb 7dbd 91e5 a1bd e455 d8bd 3c53 03be
000001b0: 81ff fabc 75aa 1cbd 1754 0dbe 9eca dfbb
000001c0: ba52 48be 3da8 883c 723e b23d 64c4 51be
000001d0: 8a69 133d 71d9 b1bc 944a 93bc a8c0 f63c
000001e0: d3fb 403d fdcc a53c e1ff 1dbe 8dfc 88bd
000001f0: 3e7f f9bd 2929 9abd 3f38 02bd 8964 7dbd
00000200: 527f 31be e2c4 c7bd cf4e babe 4774 0fbf
00000210: 6666 f0be 92ac ddbd 7e26 b83e 98ae aa3e
00000220: f9ee a43e 16c2 373e db35 2c3e b1f3 b73e
00000230: 0c60 f63d f82c a53d 5cf0 f63d 177c 16bc
00000240: 6aa6 e9bd 869c 76bd d419 b13d 1ed1 57ba
00000250: a747 81bd 9850 c7bd 5f69 f3bd fc85 dbbd
00000260: ebaf 893e 60b4 873e 4cdf 2c3e 67fe 45be
00000270: 4e3e a23d 1c87 cbbd b6f2 dbbc 80ec 52bd
00000280: 2b31 7cbe d666 ddbe 243d 0dbe 9f94 05be
00000290: 03e3 703d c1c1 d03c fcd0 85bb 21e5 423e
000002a0: 8eb0 58be 8241 b03b 548a b73d 5bc0 083e
000002b0: 678e fbbb 4fe0 4e3d 716b 923d e900 5f3d
000002c0: ff1b 70bc 2dc3 c2bc cb06 1b3e 3b89 b93d
000002d0: a20e e93c f6d2 d9bc 2261 213e 24db bb3b
000002e0: 5e01 a83d 1e9d 71bd b02f fabc 74cc dabc
000002f0: 2a57 d6bd 7fee 8c3d bc44 973d 3f67 eb3b
00000300: db74 f5bd cf68 3dbe ab7f b33e e593 9a3e
00000310: 7c59 73be a4d5 e8be bedf dc3d 16f9 503d
00000320: 00b2 b43d a8ec b43e aa9c c4bd 2c8f b2bd
00000330: 2407 97bd d10c b63d b2fd 3abd 6463 db3d
00000340: 051b 3c3d 64bd 833c 2ed4 77ba 38aa cdbc
00000350: 8788 823c fe90 edbc 81e4 c43e fbbb 0d3c
00000360: 6952 81be 5523 6cbe 9d06 d23d 8b14 d3bd
00000370: 8469 15bc 0ea6 003e 07b6 373c 1fb6 bb3c
00000380: c207 52be 62b0 2bbe 8c26 1dbe dc7a 78be
00000390: 65ec d73d a23b 673e 4655 f63d 2d04 7b3e
000003a0: bd9c df3d eb62 813e d7e5 e2bc 9747 28be
000003b0: b5e2 a13d d793 c6bd 7d78 5cbd ec53 043e
000003c0: 0938 dd3d 90da 1b3e c992 643d 822f 5539
000003d0: 9fe4 1abe 53ed e93c eebf b03e 7107 2fbe
000003e0: fc6c e53a 05e2 b0bc 54fc 88bd 3e82 893c
000003f0: 50fe 863e 600e a23d 8bd8 4ebd 80be 7d3c
-0.0009508271 0.0681284 -0.10452683 -0.093464345 0.16396345 0.2557935 -0.18102925 -0.15224487
0.09071051 -0.07017397 -0.168859 -0.23053753 -0.6025005 -0.21536843 -0.0608185 -0.117536746
0.05020762 0.076202966 -0.086098604 -0.055303834 0.04612862 0.10545937 -0.026136648 0.09503569
-0.020470306 0.013438404 0.11499559 -0.11781425 -0.6097302 -0.33576003 0.08787258 0.31027794
-0.082318895 -0.058462333 -0.08872742 -0.11894336 -0.2889254 -0.013287092 0.14739591 0.063664995
0.048626885 -0.37970397 0.13360278 -0.14529605 0.03200882 -0.05620402 0.13812712 0.1725646
0.15777998 0.10366827 0.033383634 0.2833842 0.050404087 0.050584614 0.2825864 0.0040190043
0.12297572 -0.09846389 0.00966456 0.17330849 0.14774355 0.16611938 -0.07522884 0.03836764
0.069719516 -0.01602962 0.0730406 -0.11236501 0.09904402 -0.10530253 -0.37528458 -0.3068643
0.37295997 0.8779376 -0.0009981071 0.047140222 -0.036429092 -0.12020347 0.011683059 -0.079451956
-0.11835829 0.112838656 0.09656578 -0.12668617 0.023770874 -0.021394443 -0.020899286 -0.058135178
0.048838682 -0.07522262 -0.0003812267 -0.055129007 0.03642918 0.19056226 -0.1256965 -0.08238459
0.06341307 0.026581297 -0.24497496 -0.13314603 0.13846332 0.15841623 -0.19896302 -0.14423673
-0.06196127 -0.079051144 -0.10563257 -0.1282472 -0.030639412 -0.038248498 -0.13801609 -0.006829574
-0.19562808 0.016681785 0.08703317 -0.20485073 0.03598932 -0.02171013 -0.017979898 0.030121163
0.04711516 0.020239348 -0.15429641 -0.06688795 -0.12182473 -0.07527382 -0.03179192 -0.061863456
-0.17333725 -0.09754349 -0.3638825 -0.560368 -0.46953124 -0.10823931 0.35966867 0.3333633
0.32213572 0.17945132 0.16817419 0.3592811 0.12030038 0.08065218 0.12057564 -0.009184859
-0.11408694 -0.060207866 0.086475044 -0.000823276 -0.06312495 -0.09732169 -0.11885332 -0.10718915
0.26892027 0.26504803 0.16882056 -0.19335328 0.0792204 -0.099378794 -0.026849132 -0.051495075
-0.24628131 -0.4324252 -0.13792855 -0.13044976 0.058810245 0.025483014 -0.004083751 0.19032718
-0.211611 0.005378903 0.08961931 0.13354628 -0.007676888 0.050506886 0.07149399 0.054444227
-0.014655112 -0.023774708 0.1513931 0.09059378 0.02844936 -0.026589852 0.1575971 0.0057329107
0.08203386 -0.05898773 -0.030540317 -0.026708819 -0.10465844 0.06881427 0.07386157 0.0071839388
-0.11985179 -0.18497013 0.3505834 0.3019096 -0.23764604 -0.45475495 0.10784863 0.051018797
0.08823013 0.35336804 -0.09600194 -0.08718714 -0.07374409 0.08889163 -0.0456521 0.10712317
0.045924205 0.01608152 -0.00094539195 -0.02510558 0.015934242 -0.028999802 0.38455585 0.008650775
-0.25258186 -0.23060353 0.10255168 -0.10306653 -0.009119395 0.12563345 0.011212832 0.02291399
-0.20510772 -0.16766503 -0.15346736 -0.24265617 0.105431356 0.22581342 0.12027983 0.24513312
0.10918567 0.2527078 -0.027697487 -0.1643356 0.07904569 -0.09696167 -0.053825844 0.12922639
0.108017035 0.15220094 0.055804048 0.00020330961 -0.15126275 0.028555548 0.3452143 -0.17092682
0.0017503793 -0.02159215 -0.06688753 0.016785737 0.263659 0.07912898 -0.05049948 0.015487313

actor.0.bias f4 [64]
00000000: 39d9 f53d 5fad 253d f4ff 293d b87c aa3c
00000010: 7ee9 8cbd 075b 1dbe 55f5 273d 8694 283d
00000020: 2d8e f33d 0096 cbbd 6fc8 e13d 3594 6ebd
00000030: b8c4 92bb a03b a53d 4a95 f63d 8c42 cdbd
00000040: edc1 32be a4bc 7d3d 6735 3cbd f21a 33ba
00000050: 3ffa 4cbd fe7e b6bd 1fea ea3d 6df7 853d
00000060: dbbc 953d c509 313d 8373 693d 22a2 d6bd
00000070: a803 1b3d edfe c5bd 1aa2 cebc 4789 c03d
00000080: d3eb 9d3d 6141 d0bd f65b fe3d 48d5 3cbe
00000090: cde8 6b3e 1a16 f83d 12f3 6abd c802 69be
000000a0: 9786 a13c 9599 c03d ff51 62bc ec4d 8a3d
000000b0: c68a a23d 03f3 c73d 6c20 04be 531e 2d3d
000000c0: d9d0 343e 76d9 46bd 3299 af3d af53 f5bd
000000d0: ba0a 893d 4a6a 7ebd 032e 563e 9122 cabd
000000e0: 84a2 8f3d 1cca 55bd 34fd a6bd d53d 0ebc
000000f0: e03b 2ebd 77c7 29be 6f68 e9bd abda 03be
0.120043226 0.040448543 0.04150386 0.020811424 -0.068804726 -0.15366755 0.04100545 0.041157268
0.11892352 -0.099407196 0.11024558 -0.05824681 -0.004479017 0.08068013 0.120401934 -0.100224584
-0.1745679 0.06194748 -0.045949366 -0.0006832323 -0.05004334 -0.089109406 0.11470436 0.06541333
0.07311412 0.043222208 0.056994926 -0.10480143 0.037845284 -0.09667764 -0.02522378 0.094011836
0.077109955 -0.1016872 0.12419884 -0.18440735 0.23038025 0.121135905 -0.057360716 -0.22754967
0.019717498 0.094042934 -0.013813495 0.06753144 0.07936625 0.09763148 -0.12902993 0.042265248
0.17657794 -0.04854723 0.085741416 -0.11978852 0.06691499 -0.062113084 0.2091599 -0.09869874
0.07013419 -0.0521947 -0.081537634 -0.008681734 -0.04253757 -0.16579996 -0.11396872 -0.12876384

actor.2.weight f4 [64, 64]
00000000: 3cf2 87bd 7075 06be f802 b53d c877 9bbd
00000010: 0fd6 21bb 3d2d b43d 32ce 06bd 36c9 a7bd
00000020: 4059 0dbe e4ed 8f3b 7c73 80bd 305a 153c
00000030: 2c8b 233d d01a 54bd 9a94 ad3d 308a 08bd
00000040: 2055 4cbd ef3f ccbd 7857 1b3d f645 9ebd
00000050: e840 d73c 1954 08bd f2ef af3d 90b7 9fbd
00000060: fc38 7cbd 25cc 07bd 88b6 bfbd 168c f93c
00000070: acff 74bd d65c 0d3d 37a4 623d 613d 793d
00000080: df1e 24bd d7a2 4e3d 3ec1 acbd c010 ffbd
00000090: 5535 f2bc 639c d2bd 9454 c6bd 0026 023d
000000a0: 61d3 c13d 63c0 80bd e6d1 c3bc 46ea e0bd
000000b0: 689c 953b 243b 8a3c 002b 00bd 9b51 a03d
000000c0: 5cac f0bd 39f5 09bd 5ae0 a6bd eae7 bf3d
000000d0: 320b b53d 47e6 da3d cbe3 c73d f0c7 4a3d
000000e0: de05 c4bd 1ca6 adbd 087a f53c d7ae 03be
000000f0: ab1d 893d 9896 5e3d 6dfa 4a3c 9f17 01be
00000100: c096 b53e e8a7 0ebe 9e87 f6bd e1d4 4f3e
00000110: 0d8c 0b3d 3abc 103b cec6 c4bd 0cc9 5d3e
00000120: cb89 973e cd67 23be 4aef aa3d 5694 aa3e
00000130: 0786 3abe f9a8 8fbe ec69 453c 5d89 88bd
00000140: a633 9ebd 73be 833e 168d 6b3d 2694 653e
00000150: 5191 42bd 3ecd 3e3e 99d0 273d 79f7 c0bd
00000160: 34b2 bb3d e2c9 7bbd d453 f7bd 4f89 c63d
00000170: 3645 ca3d 2bdd eb3d 666c 15be c0f1 27bd
00000180: b99a e7bd c506 6abd e13e 193e 1493 cb3a
00000190: dc5d 3bbd 5c0a 0a3d a4df 073e 1dd0 1abd
000001a0: c77e adbc 84ba bfba a9c6 5e3c e510 3cbe
000001b0: 5eba 4c3e 78e0 83bd 562d 163e 4c4e 36bc
000001c0: cbef 853b 7b78 823e 132b f2bd e3c8 3a3d
000001d0: a42c 32be 4720 67bc a155 863d fba2 db3d
000001e0: 894b 4d3e b028 3ebe f3d6 153e 5d86 713e
000001f0: b724 803d f3ab 51bd aae9 163d bfa0 5d3e
00000200: 8ad5 07bf fb64 8c3e d631 463e 127f b63d
00000210: 9dc5 a53e d565 443e 148f 353e 67a6 15bf
00000220: dbae 14bc cecd 3a3d 1d8f 1fbe 1eed 21be
00000230: c3e2 f2bd 8009 603e 11b9 18bd 5b77 413e
00000240: b51d 083d 17a3 92bd d5f9 cd3e cc3f 363e
00000250: cfd3 a33e 9ad3 3ebd 8625 0fbe 20c6 67be
00000260: b4bc 01be a916 1a3e 9528 ad3e ebff 21bd
00000270: 438c b73e cea2 903d 7e21 6c3e 7673 bf3e
00000280: 00d6 4c3d 2437 8b3e f9ee e9bd 7807 f5bd
00000290: e5cb 1fbe c2bd 833e dc39 863d 265a 4ebe
000002a0: 6209 a5bb de5d b23d 8e34 18bd deed 833d
000002b0: d3e1 f73d 8f4f b23e 0979 d6bb 0800 4a3e
000002c0: 6fb9 26bd ca98 92bd d44d 2d3e 9d32 383e
000002d0: e1e1 44be 8156 68be 1400 52bd e0e8 54bc
000002e0: 8e03 04bd 57a3 c33e 2371 0b3e 2c68 c2bd
000002f0: fd7d fe3d 0977 623d 5534 8bbd c9df fcbd
00000300: a558 993c ef5b a63e 2d53 963e 6bca 0abd
00000310: f7a6 0cbe 5052 66bd 66b2 63bd 7940 1c3d
00000320: 3673 1d3e eba1 3f3e 23c1 35be e25b 25bd
00000330: cd62 24be 5b42 813e c5f1 d1bc ab7f 80bc
00000340: 0d3d 27bd 0ea0 dd3c 9ce9 c33d a8a6 d5bd
00000350: 574f 973d 08ee a6bc 14ce 81bd 8ec2 08bd
00000360: d88e 923d 2ef5 8c3e 3d6c 193e 681b 87bd
00000370: 9629 aebe 2d5b 30be cc97 243e d6d8 7dbc
00000380: c0c1 1e3e 24c3 313d 7e91 a83e 03b5 a73d
00000390: 2252 073d ade5 95be 708f 8d3b 67c0 9f3d
000003a0: 3ea3 93bd 173d a23d 761c fabd f9f0 363e
000003b0: 068b dc3e 0046 4d3c 6caa e33c 8988 a8bb
000003c0: 5906 ecbd db54 423d 063a 1b3c 34d0 9fbe
000003d0: aef7 09be 09bc bcbe 266b b53d 4b6d 99bd
000003e0: 2c4c 41bd 27be bf3e 6b54 8cbe 779e 713d
000003f0: fcf4 9c3e 9f38 0f3c eaf8 d8bb cddc 02be
-0.066379994 -0.13130736 0.08838457 -0.07591206 -0.002469424 0.08797691 -0.032911487 -0.08192675
-0.13803577 0.0043923724 -0.06272027 0.009115741 0.039927647 -0.051783383 0.08475609 -0.03333491
-0.04988587 -0.09973132 0.037925214 -0.07728188 0.026276067 -0.033283327 0.08590688 -0.07798684
-0.061577782 -0.03315367 -0.09360987 0.030462306 -0.05981414 0.034512363 0.05533239 0.06084955
-0.040068503 0.050448265 -0.084352955 -0.12454367 -0.029566446 -0.10283735 -0.09684101 0.03177452
0.094641455 -0.06286695 -0.023903798 -0.10982184 0.004565764 0.016873904 -0.031291008 0.07828065
-0.11751625 -0.03368113 -0.081482604 0.09370406 0.08840026 0.10688453 0.09760245 0.04950708
-0.095714316 -0.084789485 0.029965416 -0.12859665 0.06695112 0.054342836 0.012388808 -0.12606667
0.35466576 -0.13931239 -0.12037586 0.2029605 0.03406911 0.0022084848 -0.096082315 0.21658725
0.29597315 -0.15957566 0.08346422 0.33316296 -0.1821519 -0.28058603 0.0120491795 -0.06666825
-0.07724695 0.2573124 0.057507597 0.22419795 -0.047501866 0.18632981 0.04097042 -0.09422202
0.09164849 -0.061471827 -0.12076536 0.09694158 0.09876482 0.11516794 -0.14592132 -0.041002035
-0.11308808 -0.057135362 0.14965393 0.0015531504 -0.04574381 0.033701286 0.13268906 -0.03779613
-0.021178616 -0.001462773 0.013597169 -0.1836582 0.19992968 -0.064392984 0.14665732 -0.011127066
0.0040874234 0.25482544 -0.11824622 0.045601737 -0.17399842 -0.014106817 0.06559301 0.107244454
0.20048346 -0.18570209 0.14632778 0.23586412 0.06257003 -0.051189374 0.036843933 0.21643351
-0.5306021 0.27420792 0.19354948 0.089109555 0.3237733 0.19179471 0.17730361 -0.58457035
-0.009074892 0.045606427 -0.15581937 -0.1581311 -0.118596576 0.21878624 -0.037285868 0.18893187
0.033231456 -0.07160013 0.4022967 0.17797774 0.31997535 -0.046588518 -0.13979158 -0.22634172
-0.12669641 0.15047707 0.33820024 -0.039550703 0.358492 0.070623025 0.23059651 0.37392777
0.050008774 0.27190506 -0.114225335 -0.11964315 -0.15605123 0.2573071 0.065540045 -0.20151576
-0.005036519 0.0870931 -0.037159495 0.06441854 0.121036194 0.34826323 -0.0065451902 0.19726574
-0.040704187 -0.071580485 0.1692422 0.17988057 -0.19226791 -0.22689249 -0.051269606 -0.012994975
-0.032229953 0.38210556 0.13617377 -0.094925255 0.12426374 0.055289302 -0.06797091 -0.12347371
0.018719027 0.32492015 0.29360333 -0.033884447 -0.13735567 -0.056230843 -0.055590056 0.038147423
0.1537598 0.1871411 -0.17749457 -0.04037083 -0.16053315 0.25245938 -0.02562798 -0.015685877
-0.040829707 0.02705386 0.09566042 -0.10432178 0.0738818 -0.020377174 -0.063381344 -0.033388667
0.071561515 0.27530807 0.14982696 -0.06597024 -0.34016103 -0.17222281 0.16073531 -0.015493592
0.15503597 0.04339899 0.32923502 0.08188822 0.033037312 -0.2927679 0.0043200776 0.0780037
-0.0720887 0.07921808 -0.1221246 0.17865361 0.43074816 0.012528896 0.027791224 -0.0051432294
-0.11524648 0.047444206 0.009474283 -0.31213534 -0.13473389 -0.3686221 0.088583276 -0.07491549
-0.047191784 0.37449762 -0.27408156 0.058989014 0.30655658 0.008741527 -0.0066214697 -0.12779541

actor.2.bias f4 [64]
00000000: ac9e 82bd 232d a73d 408d 4b3c 9151 9cbd
00000010: 9946 a53d 7d7d 083e 9d32 28be 6a24 923d
00000020: 84e1 fabd 58a7 c53d 4546 4ebd 5d88 22bd
00000030: 675c e2bd 20fc c4bd 89f0 db3d 1152 913e
00000040: d402 cfbd 976b d83d 52fd b83d 754b 463e
00000050: b5bb 1dbd e0d7 133d a1e6 243e a8ac 473c
00000060: 4340 113e 7b91 ff3d 933b 7c3d 8dde 94bd
00000070: d4aa abbd 142a 103c 9f2a 24bd a37d 823e
00000080: f6ee a4bd 70a9 553e 42cd af3c a5b4 e03c
00000090: d7f0 073d 40cd f13a f607 403d 0345 ac3d
000000a0: 8351 0ebd d4b4 643d ceb2 e83c c4fb c4bd
000000b0: e243 0ebb d23b 70bd d976 1dbe 9fbf 99bd
000000c0: 5aa7 cbbd 3119 b03d 4a94 51bc f00e ebbd
000000d0: def5 cebc e708 d3bd e5fe a33b e3d1 d23d
000000e0: a771 38bd 16d0 393e b5b6 1e3e c62c 103c
000000f0: d4f0 333a 65a3 243d f725 59bc 15b9 16bd
-0.063779205 0.08162906 0.012423813 -0.07632745 0.08070106 0.1332912 -0.16425557 0.07135852
-0.12250045 0.09651059 -0.050359983 -0.039680827 -0.110527806 -0.096184015 0.10739238 0.28382924
-0.10107961 0.10567396 0.09032692 0.19364722 -0.03850909 0.036094546 0.16103603 0.012187161
0.1418467 0.1247892 0.061580252 -0.07269011 -0.08382192 0.008799095 -0.04007971 0.25486478
-0.08053391 0.20865417 0.02146018 0.027429888 0.033188667 0.001844801 0.046882592 0.084116004
-0.034745704 0.055836514 0.028405573 -0.09618333 -0.0021707942 -0.0586508 -0.15377368 -0.07507252
-0.09944029 0.08598555 -0.0127917025 -0.114774585 -0.025263723 -0.10304432 0.005004751 0.10293939
-0.045030262 0.18145785 0.15499385 0.008799737 0.00068641943 0.040194888 -0.01325368 -0.0367976

actor.4.weight f4 [36, 64]
00000000: 9e1d 493c 2a05 02be 85bd a03e aacd 70be
00000010: eeaa 493e afba 7dbe e7ce b63d 758a 2c3f
00000020: eec9 45bd fd69 51be 78c8 24be 83a2 6abd
00000030: 8ae5 69bd 90ff 54bd d3fb 68be 6d7b fbbe
00000040: 231c 1e3d cb36 96be 9d85 d13d 2d9f 293f
00000050: 9559 4f3e 9172 25be c160 83be 5ba0 98bd
00000060: 3544 13bf 22bc 623c 77bd 713d 6496 073f
00000070: 93d4 01bf 50ef 83be 70cb 3cbe 0e26 f53e
00000080: 3660 7cbd 3a61 e3be cd53 75be 622e f8be
00000090: 4712 0bbe 03e9 343e 2450 adbe b4cc 96be
000000a0: 1bd1 82be b8e4 23be 92b2 b4be 5369 c3bd
000000b0: a5e4 52be 3963 233d a8f0 7cbd b89d ff3c
000000c0: 8362 2abe 346e 903e 21ed 9cbd 1e5a c2be
000000d0: 620d eb3d 76b7 0bbe 9527 853e 5c4d c4bd
000000e0: 0df8 c7bc 2eac e1be 2425 d7be 7471 e6bd
000000f0: 75f6 333f 52e5 c0be 8337 413c 5255 16bd
00000100: 740f b2bd 0eca 13be 7a0a a03e a856 ba3e
00000110: 51ef 59bd 011f 88be 1c82 213d d9fa 0ebe
00000120: 02f8 06bd 3d9d 74bd 67b2 93bd 808b 913d
00000130: 500a 093e 24e3 f3bd e503 083f 2e94 20be
00000140: c132 d7bd f3eb 5abd fe28 c9be faca 33be
00000150: bf95 c13d 4dbc 1c3f 3965 9cbe dcf7 38be
00000160: c988 8fbe ecf6 353d 5934 66bc 6a9b 013e
00000170: 6fad a63e b5ab f2bd 92b6 4cbe e61f 14bf
00000180: e353 1bbd b8f6 b1be 2b80 da3e 37c8 82be
00000190: 68cd 8f3e c0d3 d73d 749b ba3e 63e7 f1be
000001a0: 1dc4 cc3e 6985 34bd f115 29be b970 083d
000001b0: 92b6 983d d045 283e 178b 04bd ec3a 373d
000001c0: bc42 e93d 7e4c 563e aece 263d b1f0 a7be
000001d0: 9dd4 b33e c7a5 69bd 0f99 203f 203c 4ebe
000001e0: 1c61 c93c 4ef7 933e bd18 71be 0cbc d23d
000001f0: db43 86be f6e6 ed3d 17bd 093e 20c9 d73c
00000200: a6a8 e03d 11bc 493d bf2a 033f 64ca 56be
00000210: cde0 5f3d 63fe c03e 6b8b ee3d f321 9dbb
00000220: 05f1 1c3d d64e 91bc a36c b23e 8699 983e
00000230: b503 543e 9be9 f63b 9ca8 2ebd f82c ddbd
00000240: 6b94 4bbc a996 6b3d ea70 b73e 18b1 5d3e
00000250: 630b ea3e 0018 b7bd 69f9 ca3c 45eb 6abd
00000260: 2753 bdbc 2cde 5c3e bb15 ef3a 4e2b ad3e
00000270: 6eaf 2a3e f30e 3c3d b804 5c3e 1b5f 133d
00000280: 7b35 8f3d ee2e 77be 2616 d63e 07a7 d33d
00000290: 8bbd d43e 4d27 923d ec31 c83d 9657 613e
000002a0: 4dbe 543e b9d1 bebe 6b6b 59bc a093 f53c
000002b0: cfd1 45be 154f 063d bb5c 273e 192e 843d
000002c0: dd93 b93e 0966 bd3e dfc2 b8bd a4f6 233e
000002d0: 2240 ad3e 319b 0bbd 1d5d 41bd 5fa4 c63e
000002e0: 02e4 57bd d396 50be fc5b 02be 5fb8 e2bc
000002f0: 45b4 3bbd 19ad 543e 5bc8 273c 70fd 88bd
00000300: 2d5f dd3d 79cf 7ebd 3089 8dbe 0dae c3bd
00000310: 0fd3 5abd 0461 0fbe e1cd 713d 7def 67bd
00000320: 01f2 2bbd 51ab e63d 9aac 8d3d 9ea6 173d
00000330: 5a14 173e 05d0 16bd fe2b 063d 770b 01be
00000340: a536 02bd 6a4b 14bd 35ef 0dbe 048b 1abe
00000350: cfb6 4dbe aec1 d23b 81a4 f7bd 3c8a 933e
00000360: e852 9dbc fc52 84be ff85 58bd 8c98 dfbd
00000370: ce13 263d 680a a33d 0296 2a3e 7a63 e7be
00000380: 0271 773e b38d 04bd 7043 0abe e621 7fbd
00000390: bce2 07be bdb5 a5bd 0b33 60bd 39ae 3ebe
000003a0: 02cf af3c e60a 543e a8b9 4a3d 4789 90bd
000003b0: ef33 bdbd b750 6c3d c102 dc3d e2fb 4cbd
000003c0: 72e6 d8bb 2964 053d e939 6f3c 058c 5cbe
000003d0: 629a 893d 9544 553e 278b 92bc 09aa 00bd
000003e0: 3cde f93d 8983 42be 00f9 92be 0b86 293d
000003f0: a7a6 e8be 4699 763c 27eb 4fbd 744d 20bb
0.012275128 -0.12697282 0.31394592 -0.23515955 0.19694111 -0.24778245 0.08926182 0.6739877
-0.04828828 -0.20450588 -0.16092098 -0.05728389 -0.05710367 -0.052001536 -0.22752313 -0.49117604
0.038601052 -0.2933868 0.10230563 0.6625851 0.20249017 -0.16156985 -0.25659755 -0.074524604
-0.5752595 0.0138388 0.05901858 0.5296385 -0.5071499 -0.25768518 -0.1843698 0.47880596
-0.06161519 -0.44410115 -0.23957749 -0.48472887 -0.13581191 0.17667012 -0.33850205 -0.2945305
-0.2555016 -0.16005218 -0.35292488 -0.095415734 -0.20595033 0.039889548 -0.061752945 0.031203136
-0.16639142 0.28209078 -0.07662416 -0.3795938 0.11477162 -0.13644204 0.2600676 -0.09585068
-0.024410272 -0.44076675 -0.42020524 -0.11252108 0.7029794 -0.37674958 0.01179302 -0.03670246
-0.08694354 -0.14432546 0.31257993 0.36394238 -0.053206746 -0.26586154 0.039430723 -0.13962878
-0.032951362 -0.059720267 -0.07211762 0.07106686 0.1338284 -0.11908558 0.5313094 -0.15681526
-0.105077274 -0.053447675 -0.39289087 -0.17557898 0.0945239 0.61224824 -0.30545977 -0.18063301
-0.28034046 0.044424936 -0.014050567 0.12656942 0.32554194 -0.11849157 -0.1999152 -0.57861173
-0.037921797 -0.34758544 0.4267591 -0.25543377 0.280864 0.10538435 0.36446726 -0.47246847
0.39993373 -0.044072542 -0.16512276 0.033310626 0.074566975 0.16432881 -0.03235921 0.044733927
0.11389682 0.20927617 0.04072445 -0.3280082 0.3512315 -0.057042863 0.6273355 -0.20140123
0.024582438 0.28899616 -0.23544593 0.10289773 -0.26223645 0.11616318 0.13451038 0.026341021
0.10969667 0.04925162 0.512371 -0.20975643 0.054657746 0.37694082 0.116476856 -0.004795307
0.03831579 -0.017737787 0.34848508 0.2980463 0.20704539 0.007535172 -0.042641267 -0.10799593
-0.012425522 0.057516728 0.35828334 0.21649587 0.45711812 -0.089401245 0.024777131 -0.057353277
-0.02311094 0.21569127 0.0018240729 0.338221 0.16668484 0.045912694 0.21486175 0.03597937
0.069926225 -0.24138996 0.41813773 0.10334592 0.4155086 0.07136402 0.09775147 0.22006068
0.20775719 -0.3726938 -0.013270239 0.02997762 -0.19318317 0.032790262 0.16343968 0.06454105
0.36245623 0.3699191 -0.09021544 0.16012055 0.33837992 -0.03408355 -0.04720794 0.3879728
-0.05270768 -0.20370035 -0.12730402 -0.027675806 -0.045826215 0.20769157 0.01024064 -0.06688964
0.10809169 -0.06220958 -0.27643728 -0.09554682 -0.053423937 -0.14001852 0.059034232 -0.05662488
-0.04197884 0.11263145 0.06917687 0.037024133 0.14753857 -0.036819477 0.032756798 -0.1260203
-0.031790394 -0.036204733 -0.13860781 -0.15092093 -0.20089267 0.00643178 -0.120919235 0.28816402
-0.019204572 -0.25844562 -0.052862164 -0.10917768 0.04054623 0.07960969 0.16658786 -0.45193082
0.24164203 -0.032361697 -0.13502288 -0.062288187 -0.13270086 -0.080913045 -0.05473618 -0.18621148
0.021461014 0.20707282 0.04949346 -0.070574336 -0.09238421 0.057694163 0.10742713 -0.0500449
-0.006619268 0.032566223 0.014601209 -0.21537788 0.06718899 0.20826943 -0.017888619 -0.03141216
0.12200591 -0.18995489 -0.28705597 0.0413876 -0.45439646 0.015051192 -0.050761368 -0.0024460228

actor.4.bias f4 [36]
00000000: ab6d 98bd 0538 e0bd 6a26 0bbb d07d 40be
00000010: ff26 223e 4273 853d 2828 de3d 960d d43c
00000020: 62e0 26be 0470 f9bd 918b 8eba e78a 343e
00000030: 7983 fe3d 0da0 ad3e 0790 433e f091 123e
00000040: 8e39 273c 5042 1bbe 012a 46be fd4a 46be
00000050: b45c babe f67d 453d e27e cabd 1b9d cfbd
00000060: f39f cfbb e8cf c03d cf4d 923e 596a b13d
00000070: 9e0d d83d a8eb 04be 14c5 fd3d 1766 0a3e
00000080: 8552 adbd 9cb4 f73d c952 9cbb 59db 5d3e
-0.074427925 -0.10948185 -0.0021232613 -0.18797994 0.15835188 0.06516124 0.10847503 0.025885385
-0.16296533 -0.121795684 -0.0010875334 0.17631112 0.1242742 0.33911172 0.19097911 0.14313483
0.010206593 -0.15162015 -0.1935196 -0.19364543 -0.36398852 0.04821583 -0.09887482 -0.10137387
-0.006336206 0.09414655 0.28574988 0.08662862 0.10549472 -0.1298052 0.12391105 0.13515507
-0.08463005 0.120949954 -0.004770611 0.21665706

critic.0.weight f4 [64, 62]
00000000: c860 9c3d 6a19 ab3d 31d8 abbd 6c5b 1b3c
00000010: 50bb 5ebd 5840 d4bc 7807 2bbb 990c a23c
00000020: 73bf 99bd 9415 a9bc 0329 70bd a939 0ebd
00000030: c552 80bd 16de 87bd 337f e5bd b4b7 b8bd
00000040: fe10 09bc ab20 ddbd 13fe f7bd c876 b63d
00000050: 0c4a bbbd 7c17 b63d d610 103c 3e3c 98bc
00000060: ef3e c93d 2717 cbbd c034 793d b399 ad3d
00000070: 1871 d63d 8f13 1abe 515e 663c 708f fdbc
00000080: f2fb c0bd 9aa3 b13d 5232 b7bc 73eb af3d
00000090: 160d 8cbd 74b4 66bd f195 433d 86ef 843c
000000a0: c410 953d 69e9 5d3d e371 c53d 3bba bfbd
000000b0: 9e97 04bc 49ae 6b3d d7d4 3cbd 4d10 a4bd
000000c0: 7f1f c63d 119f 09be c5d4 d6bd 6d2c eabd
000000d0: 12b7 003d b317 0a3b b60c efbd 3b1a 423d
000000e0: 8187 c03c 8a36 303d af98 febd be95 f8bd
000000f0: 467d 10be 0a2d 82bd dd19 e7bd ccbf 833d
00000100: 2839 8dbc 1325 4dbd 7472 453e f5ac 17bc
00000110: 7f43 033e 7c0a 56be baa6 57be 1511 c7be
00000120: 90d5 9cbe 6b1b 2a3e b17b cebd 75b5 b33c
00000130: 70d5 4f39 0da9 f73d a3f5 d43d fb2e df3d
00000140: bf91 8b3d 4504 dfbb 5d60 05bd 7659 f8bd
00000150: e2da 883d 00cd ebbc a810 a33c edf3 eabc
00000160: 15fc a73d bd3a 843b fbda 053e 3d64 103f
00000170: 9258 813e 27cb a83e 73dd 703d 5f54 99bd
00000180: b5e9 b63d e77b c93d c7d4 b43d e2bb 8abc
00000190: 12dd 1e3e 6fdd c33e 2902 bcbd 3948 02be
000001a0: 66c8 aa3d a93b dfbc 4987 403d 2da8 ecbd
000001b0: 46f7 533d 404f d3bc e746 773e 72e7 773c
000001c0: fcc4 253e 848e 023e b01b 3fbd 3ea7 833d
000001d0: 9913 4abd c8e5 4cbe 39df a83d 8e46 483d
000001e0: 649c 1a3e 0739 e33c bfe5 8f3c 7514 663e
000001f0: 1a4f d7bd 1423 a33d 1f64 d73d 2324 473d
00000200: 7379 53bd af3e e3bc 0bcf 21be 014f 48bc
00000210: d5bb 243e bf3a f93d ed29 1b3d a457 c83d
00000220: 7b1a 5fbd 4293 4c3b 5eab c0bb 329a 27be
00000230: 011f a3bc 0aa1 99bd de74 f23d 9b83 d3bd
00000240: 2bc6 f23d 77ec afbc ce58 bc3c 047c e23d
00000250: c3b2 70bd adbd 40bd c437 573d c2ca 03bd
00000260: b54d d9bc 08ce 6a3d da11 78bd 300c 733d
00000270: a6e6 63bd c67e 533d fd69 493c 220e c8bd
00000280: 96b0 67be 53aa fdbd 2c0f ac3d fa10 a23e
00000290: e367 50be 3164 83bc 9711 01be 56ef 8bbe
000002a0: 0ae3 8d3b b28e dcbd a6bc ef3d ffff 92be
000002b0: 730d a4bd 7794 f83d f0bd 21be 6b24 193e
000002c0: de67 773d 1baf de3d f24f d53d 5606 eebd
000002d0: 96ec 5fbe b5a2 e9bb 6db6 f93d d156 babd
000002e0: c389 f43c 8585 9b3d 5d8e ebbd c211 efbd
000002f0: 8dab d9bd 5cf5 b53d 470d 7cbe 022b 6bbe
00000300: 331f 2cbe 9682 9b3e bc20 73bd dfd1 59be
00000310: 424a e1bd 93c9 b03d be69 10bc ecf0 a2bd
00000320: ce99 9abd a982 91bd 915f 1bbd 4b6d a1bd
00000330: 82c9 abbd 4523 b83d daa5 ac3c 59b8 2a3d
00000340: d503 bdbd b2e2 c03c 8db4 e73d 4d75 8e3d
00000350: 4c09 b6bb 3779 6fbd faa4 9a3e 1141 9e3e
00000360: a4e7 593c 16d8 dd3d 0b87 13bd a704 a4bb
00000370: 5bdd f4bc 8e49 9abd ad77 c5bc 5b6b 2abc
00000380: 2a05 29be e05b 8e3c dea5 34be c022 fdbd
00000390: ad85 c23d 47a5 b63c 802a abbd 3e7d 46be
000003a0: 9f07 b33d 6a21 593d 9fa2 69be deff 2abe
000003b0: 2065 8a3d aa2e 28bd bd15 b73d edae 17bd
000003c0: 062e cabd d7d1 4dbd a443 a4bd 1347 a0bc
000003d0: 82ce 11bd 8dcd d4bc 5349 873d f79a 873a
000003e0: 3ef8 8b3d 0179 b83d d02e eabd c831 a8bd
000003f0: 9c70 26be f284 483e b515 823e 1e4f bf3e
0.07635647 0.08354457 -0.083908446 0.009482246 -0.054377854 -0.025909588 -0.002609698 0.019781398
-0.07507219 -0.020640172 -0.05863286 -0.034722958 -0.06265787 -0.066341564 -0.11205902 -0.090194136
-0.008365868 -0.107972465 -0.12109008 0.089093745 -0.09144983 0.08891198 0.0087930765 -0.018583413
0.09826457 -0.09916525 0.060841322 0.084765814 0.1047079 -0.15046524 0.014060573 -0.030952185
-0.09423055 0.08673783 -0.022362862 0.0858983 -0.068384334 -0.056324437 0.047750417 0.016227495
0.072785884 0.054177675 0.09640863 -0.093616925 -0.008092789 0.05753926 -0.046101417 -0.080109216
0.09673976 -0.13439585 -0.10489801 -0.11434255 0.03142459 0.0021071255 -0.11672346 0.047388297
0.023502113 0.043020763 -0.12431466 -0.12137936 -0.14110288 -0.06356247 -0.1128423 0.06433067
-0.017239168 -0.050084185 0.19281942 -0.009257545 0.12818716 -0.20902437 -0.21059695 -0.3888022
-0.30631685 0.16612022 -0.10082186 0.021937111 0.0001982057 0.12092791 0.10398414 0.10897633
0.06814908 -0.006805929 -0.032562602 -0.12126438 0.066823736 -0.028784275 0.019905403 -0.028680766
0.08202378 0.0040353225 0.13071816 0.5640295 0.25262886 0.32967493 0.05880494 -0.07486796
0.08931295 0.098380856 0.088296466 -0.016935293 0.15514019 0.38254878 -0.091800995 -0.12722863
0.08339004 -0.027250128 0.047004018 -0.115555145 0.05174949 -0.025794625 0.24148141 0.015130864
0.16188425 0.12749678 -0.046657264 0.06428383 -0.049335096 -0.2000953 0.08245701 0.04889541
0.15098721 0.027737154 0.017565606 0.22468741 -0.10513134 0.07965675 0.105171435 0.048618447
-0.051629495 -0.02773985 -0.15801637 -0.012225867 0.16087277 0.12169408 0.03788178 0.09782341
-0.054468613 0.0031215702 -0.0058798036 -0.16367415 -0.019912245 -0.07501419 0.11838697 -0.10327836
0.11854204 -0.02147506 0.022991564 0.1105881 -0.05876423 -0.04705589 0.052543417 -0.032175787
-0.026526311 0.057325393 -0.0605639 0.059337795 -0.055639885 0.051634572 0.012293336 -0.097683206
-0.22625956 -0.123860024 0.08401331 0.31653577 -0.2035213 -0.016038986 -0.12604366 -0.27331036
0.0043300437 -0.107694045 0.11705904 -0.28710935 -0.08010378 0.121376924 -0.15795112 0.14955299
0.06040179 0.108732425 0.10415639 -0.11622302 -0.21867594 -0.007129992 0.12192998 -0.0909859
0.029850846 0.07593826 -0.11501763 -0.11673309 -0.10628424 0.08884689 -0.2461444 -0.22965625
-0.16808777 0.30373067 -0.05935739 -0.21271466 -0.11000492 0.08632197 -0.008814273 -0.079561085
-0.07548867 -0.071049996 -0.037932936 -0.07882174 -0.08388044 0.08991102 0.021075178 0.041679714
-0.092292465 0.023545597 0.11313734 0.06955967 -0.0055553075 -0.05846521 0.30203992 0.30909017
0.013299856 0.10832231 -0.03601746 -0.0050054374 -0.029890707 -0.07533561 -0.024104917 -0.010401572
-0.16505876 0.017377794 -0.17641398 -0.12360144 0.09498153 0.022295607 -0.083577156 -0.19383714
0.08741688 0.05301038 -0.22815941 -0.16699168 0.06757569 -0.041060127 0.08939693 -0.037032057
-0.098720595 -0.050248947 -0.08020714 -0.01956514 -0.03559733 -0.02597692 0.06605782 0.0010345866
0.06834458 0.09007455 -0.1143471 -0.0821262 -0.16253895 0.19581965 0.25407186 0.3736505

critic.0.bias f4 [64]
00000000: f5cd 18be f34a ca3d 9e37 f5bd 7c85 e3bd
00000010: 2c4c 4abc cb0b 57bd 056e 093c d385 f3bd
00000020: 4146 56be f26f 0d3e acef f0bd 22e3 0dbe
00000030: fd75 29be 7d9f 8cbd 9bf9 e3bd 8f78 8fbc
00000040: aedd 1fbe dd84 8abd c718 5fbd 393e c13d
00000050: 9502 a6bd 246b e7bb c531 83bd ec65 a4bd
00000060: db03 e43d 7be9 00be a87a 23be ff0f cbbd
00000070: 47c8 28bb 5b51 9cbd fc89 8abd 7481 4a3d
00000080: c297 cbbd d50f d3bd 47f3 45bd 45f6 573d
00000090: 65a4 2fbe 32b7 4d3c 9293 74bd 5fa1 d53d
000000a0: 650e 02be ec2a e2bc fb12 10be 2c41 c4bc
000000b0: 4c21 d4bc 3297 f6bd bb11 903d fc81 4a3d
000000c0: b129 a13d 624b 6dbe 43c8 af3d 4d08 8d3d
000000d0: bed8 9bbd 75df 8fbd 8f38 17be e982 45be
000000e0: 4dca 9a3d 35fc cbbd a72a 5bbe 5923 cfbb
000000f0: 8668 803d 4c17 8ebd a857 c1bd 611b 09be
-0.14922316 0.09877577 -0.11973499 -0.111094445 -0.012347262 -0.05250148 0.008388047 -0.11890759
-0.20925237 0.13812235 -0.11764464 -0.13856176 -0.16548915 -0.068663575 -0.11131593 -0.017513542
-0.15611908 -0.06763623 -0.05446699 0.09435696 -0.08105961 -0.0070623327 -0.06405977 -0.080272526
0.11133548 -0.12589066 -0.15964758 -0.099151604 -0.002575414 -0.07632705 -0.067646 0.049439862
-0.09941055 -0.10305754 -0.04832771 0.052725095 -0.17152555 0.012555884 -0.059711047 0.1043117
-0.12700804 -0.027608357 -0.1406974 -0.023956858 -0.025894783 -0.12040557 0.07034632 0.04944037
0.0786928 -0.23173288 0.08583119 0.06886349 -0.076097 -0.07025043 -0.14767669 -0.1928822
0.07558117 -0.09960214 -0.2140299 -0.0063213524 0.06269936 -0.06938037 -0.09440547 -0.1338935

critic.2.weight f4 [64, 64]
00000000: 6f48 9dbc a848 083e 5b84 afbc 0389 10bd
00000010: 9332 f33b 9d3b 8fbc 352f b4bd 69bb b03d
00000020: 5858 a53c b7e2 3cbe 4198 89bc e065 803e
00000030: d3b4 78bc 0c0b 2f3e e87b c53d 2741 153e
00000040: 07c7 1c3d 4cc0 e53d 3db4 5abe 5256 953d
00000050: 5e02 26be 6309 443d 9386 89bb 6acf d53d
00000060: ade6 73bd 0df3 b2bd 5286 c8bd 6bd0 803d
00000070: 37e3 31be c109 573e deef 95bc 4c5a 97bc
00000080: db5b b33d 3118 95bd a251 173d 58a4 4e3d
00000090: 5c8d 0ebe f267 bc3d eac5 3bbe e4f0 04be
000000a0: c473 92bc e58b 373e c7ec 2a3e 4bab b3be
000000b0: 3c47 1fbe 9775 04be f9e7 363d cabd 08be
000000c0: 5dc5 973d e2ad 20bc d846 5c3d 6be8 8d3e
000000d0: b1bd 343d aa36 ed3b 5a3b ccbd 585b 75bc
000000e0: 14ee 753d 1460 dcbc bc89 013e e7e6 29be
000000f0: 89f5 f03d 8cc9 133d 89f2 9c3d e7c2 903d
00000100: e049 6dbc 871e 00bb 9500 92bc f1b3 b6bc
00000110: 3d9b cabd 84f1 8ebd b95d cebd b063 d03d
00000120: 8375 5dbd c251 f9bd 9dec d4bd 870e d4bd
00000130: 20a6 23bd 089e abbd b9b4 d7bd 0129 64bd
00000140: 41ea a83d 3c9b e3bd 1973 f4bc 36b0 c83d
00000150: e046 843d c41e 623c e550 0d3d a643 6dbd
00000160: 0d1d e8bd 2540 ddbd d1d3 b6bd d413 9c3d
00000170: c7aa 59bc 8bc9 ebbd f4de e3bd a61a 3ebd
00000180: 3234 903d 579f baba d211 f03b 47b3 26bd
00000190: 5112 acbc 807c 5d3d 3982 d13c 7e63 fabc
000001a0: 50cf ff3d 7464 963d 2920 f33c 9706 fb3c
000001b0: 01ab 773d 0d85 01bd 77b0 0d3c 31a1 8bbd
000001c0: 9491 66bd 9fc7 a7bc 3698 c8bd d16b 913d
000001d0: 7407 cfbd f9c5 c0bd 62af fbbc fa1b 883d
000001e0: 4f63 9bbd 224b 02bd 268a 653d cbe1 d7bd
000001f0: 2785 ac3d 4ac1 1d3d 629f a33b 34e6 45bc
00000200: 919a a73d 97b7 b6bd 8a2f eebd 08ae 143e
00000210: 132a adbe 5160 463d 29d4 81bd 957c 8b3d
00000220: 3d12 28be 7d50 123e 42f1 14bb 2237 593d
00000230: 1629 8abd 351b 4ebe f464 09bd bde1 6e3d
00000240: 0589 18bd 8016 e53c 01d5 cdbd 6908 01bd
00000250: 68fc 2e3e 44bf 9bbc cc88 9d3d c41a d63d
00000260: f01b 94be e27c 203d 9299 8e3d 5b33 693d
00000270: 9c5b 0d3e 0648 febd 675f 8e3c 76e6 b8be
00000280: 3aac 27be 8432 21bc e8cb 873c 903d dbbd
00000290: a4c4 d63d c6fc 23bd f177 f43d 7d38 ebbd
000002a0: 0309 123e bf6e 54bd 60e7 933d e25d 49bc
000002b0: 5b71 813d 9b80 f0bd 65fa 843c 1b2d 703e
000002c0: 9c83 6b3e 2026 00be 38d6 e7bd 394c 8cbe
000002d0: 7719 123e 2793 bbbc cc3f 8abc b1c6 d33d
000002e0: 6991 e3bd 812a b3bc d223 0bbe d258 d03d
000002f0: 0798 90be ce99 ef3c 08f8 d2bd ea64 40be
00000300: 3262 bbb9 8a76 d73c b80f f6bd f806 b5bc
00000310: df10 143c e4a3 b9bd 86c7 cf3c 4248 d3bc
00000320: 37e9 6bbd 9b01 54bd 9ee8 8d3c 4132 d7bd
00000330: b612 50bc f8bb 15be 685a 173e ed74 c83d
00000340: fa44 63bb fba5 9dbd ace8 ddbd a2e3 103d
00000350: 4c7b 173d 700d 103e 433b bfbd f498 d63c
00000360: a109 19bd b057 b2bd 0bdd cb3b 41a2 0abd
00000370: fef5 f73c 7cdd f6bd f0f1 283d bad0 59bd
00000380: d8a8 3bbd cc6b 713d e8a6 4abc 642b 36be
00000390: 3004 953c ab65 0abe 8b46 5bbd 5f73 f1bd
000003a0: 1f39 43bd bfdb a93d 6213 cfbd 7f19 6a3d
000003b0: 3338 93bd f5b9 993d af87 d1bc f55f a1bd
000003c0: 533a 14be 6308 ae3c 679d 80bd d397 f5bd
000003d0: 83fc d53a eaf9 d2bc a27f 45bd ca06 033e
000003e0: 9fb9 84bd 4a50 953c bd5f d6bd 902d 4ebe
000003f0: 6316 90bd 329c 2fbe 2939 e83d 1099 6b3d
-0.019199578 0.13308966 -0.021425417 -0.035286915 0.0074218004 -0.01748448 -0.087980665 0.08629496
0.020183727 -0.1844586 -0.016796233 0.25077724 -0.015179831 0.17094058 0.09642774 0.14575635
0.038275745 0.11218318 -0.21357818 0.07291855 -0.1621184 0.047860514 -0.0041969507 0.10439952
-0.05954616 -0.087377645 -0.097912446 0.062897526 -0.17371832 0.20999815 -0.018302854 -0.018475674
0.087577544 -0.07280005 0.036943085 0.0504497 -0.13921112 0.091995135 -0.18337217 -0.12982517
-0.017877467 0.1792446 0.16691886 -0.35091624 -0.15554518 -0.12935482 0.04465482 -0.13353649
0.07410691 -0.009807082 0.0537785 0.27716383 0.044126216 0.0072391825 -0.09972258 -0.014975391
0.060041502 -0.026901282 0.12650198 -0.16591989 0.11765582 0.036080882 0.076634474 0.07068425
-0.014482945 -0.0019549446 -0.017822543 -0.0223026 -0.098928906 -0.06979659 -0.1007647 0.10175264
-0.054067146 -0.12173797 -0.10396693 -0.10354333 -0.03995335 -0.083797514 -0.10532517 -0.055703167
0.082478054 -0.11113593 -0.02984004 0.097992346 0.06458831 0.01380128 0.034500975 -0.057925843
-0.11333666 -0.1080325 -0.089271195 0.076209694 -0.013285345 -0.11513051 -0.11126509 -0.046412133
0.070412055 -0.0014238161 0.007326343 -0.040698316 -0.021004828 0.05407381 0.02557479 -0.03056502
0.124907136 0.07343379 0.029678421 0.03064279 0.060465816 -0.031621028 0.0086480295 -0.06817854
-0.056291178 -0.020480929 -0.09794657 0.071006425 -0.101088434 -0.0941276 -0.030723277 0.06645961
-0.07587301 -0.031809933 0.05603995 -0.105411135 0.08423834 0.038514413 0.004993365 -0.0120788105
0.08183778 -0.08921736 -0.11630161 0.14519513 -0.33821163 0.0484317 -0.063392945 0.068108715
-0.16413207 0.14288516 -0.0022726809 0.053031094 -0.06746118 -0.20127566 -0.033543542 0.05832075
-0.037240047 0.02796483 -0.10050393 -0.03150216 0.17088473 -0.019012101 0.076921076 0.10454324
-0.28927565 0.039181598 0.06962885 0.056933742 0.13804477 -0.12416081 0.017379476 -0.36113328
-0.16374293 -0.009838704 0.016576722 -0.107051015 0.10486725 -0.040035985 0.119369395 -0.11485384
0.1426125 -0.05186343 0.07221866 -0.01229045 0.06320449 -0.117432795 0.016232679 0.23454706
0.22999424 -0.12514544 -0.11320156 -0.27401903 0.14267527 -0.022897316 -0.016876124 0.10340632
-0.11111719 -0.021870853 -0.13587883 0.10173191 -0.28240988 0.029248144 -0.103012145 -0.18788496
-0.0003574058 0.026301641 -0.12014717 -0.02209805 0.0090372255 -0.09064463 0.025363695 -0.025791291
-0.057595458 -0.051759344 0.017322835 -0.10507632 -0.012699774 -0.14622486 0.14780581 0.09787927
-0.0034678564 -0.07697674 -0.10835394 0.035373338 0.03698282 0.14067626 -0.09337475 0.02619598
-0.0373627 -0.08708131 0.0062214187 -0.033846144 0.030268665 -0.120539635 0.041246355 -0.053177573
-0.04581532 0.058940694 -0.012368895 -0.1778999 0.018190473 -0.13515346 -0.053534072 -0.117895834
-0.047661897 0.08293866 -0.10111119 0.05715322 -0.071884535 0.075061716 -0.025577394 -0.078796305
-0.14475374 0.021244233 -0.06280022 -0.11991849 0.0016325865 -0.025753934 -0.048217423 0.12795559
-0.06480717 0.018226761 -0.104674794 -0.20134568 -0.0703552 -0.17149428 0.113390274 0.05751902

critic.2.bias f4 [64]
00000000: 4b89 d63d 5858 9abd 4df7 aa3d eac8 8bbd
00000010: 4803 08bd 5d81 2abe 06a4 6dbd 1581 22be
00000020: 3403 b4bd c81e fbbd d271 54bd e5b3 163d
00000030: 6bac 7ebd 56b8 c7bc 5eaf 88bd 120f a23d
00000040: 5499 b5bd aba5 3bbe 986c e8bb 4e36 8bbd
00000050: baac d63c 247e a0bc 8442 5ebe 4fc5 26be
00000060: cb76 4b3c f242 e8bd 704b d4bd 506a ddbd
00000070: fb2b 52bd a1e9 d9bc 37fb c7bd bac4 8cbd
00000080: d14c 05be 8c39 d6bd 2486 123e 7720 d63d
00000090: 361d 19be 5738 a6bd 4e03 b1bd e679 87bd
000000a0: 30b2 88bc 3362 91bd 68f6 943b 1718 cf3a
000000b0: 7b59 893d 944e 763c 9331 aabd a53f 85bd
000000c0: 02b1 e7bd a47b 1bbd 0df3 903d fd5e 9fbd
000000d0: af22 e8bd d4d4 0cbe ded5 8ebd fb0d 3c3c
000000e0: fa17 1fbd a54f 71bd 7eb4 40be b7ca e6bd
000000f0: d7b8 04be dfbf 88bd 64fa 07be 59a6 b9bd
0.10475405 -0.075363815 0.0834795 -0.06825431 -0.033206254 -0.1665091 -0.058017753 -0.15869553
-0.087896734 -0.122617304 -0.05186636 0.036792655 -0.06217615 -0.02437989 -0.06674074 0.07913031
-0.08867136 -0.18324916 -0.0070930235 -0.06797467 0.02620541 -0.019591399 -0.21705061 -0.16286205
0.012418459 -0.11340894 -0.10365951 -0.10811293 -0.051311474 -0.02660066 -0.09764712 -0.0687346
-0.13017584 -0.10460195 0.14308983 0.10455411 -0.1495255 -0.08116215 -0.086432084 -0.06615047
-0.016686529 -0.07098808 0.0045459755 0.0015800026 0.0670652 0.015033383 -0.08310237 -0.0650628
-0.113130584 -0.03795971 0.07077608 -0.077817895 -0.1133474 -0.13753062 -0.06974386 0.011477943
-0.038841225 -0.058913846 -0.18818852 -0.112691335 -0.12961136 -0.066772215 -0.1327911 -0.090649314

critic.4.weight f4 [1, 64]
00000000: 1209 1dbd d790 fa3c bf81 a13d 9657 b33c
00000010: e59d 05be a93d 10be 8e80 feba d458 a53d
00000020: 8f25 c83c 9e2b 27bb 42b3 de3b 2a78 d93c
00000030: 1238 d23b 5afc cf3c 0b04 36bd 347f c6bd
00000040: 17d2 9dbc a701 813c b9f8 ae3b 4c71 ea3c
00000050: f62a f33a 9127 e83b 1441 a0b9 1563 423d
00000060: 3a5c e7bc 310e d4bb 8e74 86ba 3d33 e93b
00000070: 9c21 1cbc cd67 853b d561 843d afa9 983c
00000080: 6c2e 9cbc 14c2 903d 888b 1d3b c60c 043e
00000090: 7104 ab3a b796 64bd d316 f3bd 89a1 7b3d
000000a0: 3fd7 13bd d77f 503b f426 373d e666 0c3d
000000b0: 7905 2abd 1d79 103d 70c4 113d b5dd c3bb
000000c0: 2939 d03b 40db 263c bdd6 293c 8c41 953d
000000d0: 7c93 733d 9c62 3c3b 9b0a 8f3a e07d 843a
000000e0: bc36 a83c cfbf aebc 714c bbbc 4c33 0bbc
000000f0: 3bcc d7bc 0845 b43c d742 88bd 0a23 47bd
-0.03833873 0.030586643 0.07886075 0.02189235 -0.13048513 -0.14086021 -0.0019416974 0.08073583
0.024431972 -0.0025508176 0.0067962715 0.026546557 0.0064153755 0.025388885 -0.04443745 -0.09692231
-0.019265218 0.015747858 0.0053397086 0.028618477 0.0018552232 0.007084795 -0.00030566065 0.047457773
-0.02824222 -0.0064714183 -0.0010258125 0.007116704 -0.0095294975 0.004071212 0.064639725 0.018635599
-0.019065104 0.070682675 0.0024039466 0.12895498 0.0013047588 -0.055807795 -0.11869588 0.06143335
-0.036093947 0.003181448 0.044714883 0.03427782 -0.041509125 0.035271753 0.035587728 -0.0059773573
0.0063544703 0.010184109 0.010366139 0.07287893 0.059466824 0.00287453 0.0010913195 0.0010108314
0.020533912 -0.021331696 -0.022863599 -0.008496117 -0.026342502 0.022005573 -0.06653374 -0.0486174
