RL/CC2-Cardiff-implementation/GT-Cardiff-CC2/Models/PPOxCCE-C4/6000.pth (torch, 78850 bytes, 11 tensors)

actor.0.weight f4 [64, 62]
000000 ed 40 79 ba e7 86 8b 3d 2a 12 d6 bd 3c 6a bf bd
       -0.0009508271 0.0681284 -0.10452683 -0.093464345
000010 fd 96 4d 3e ad da b1 3e e4 bd 8b be d5 8d 2c be
       0.20077129 0.3473715 -0.27293313 -0.1685098
000020 96 06 a9 3d 3e 18 a3 bd c8 84 f3 bd 60 64 86 be
       0.08253209 -0.07963608 -0.118905604 -0.26248455
000030 17 1e 30 bf 49 68 5c be d2 1c 79 bd 4a 8c ad bd
       -0.68795913 -0.21524157 -0.0608185 -0.08474024
000040 81 a6 4d 3d 4d 10 9c 3d 77 54 b0 bd 46 86 62 bd
       0.05020762 0.076202966 -0.086098604 -0.055303834
000050 5d f1 3c 3d 15 fb d7 3d 86 1c d6 bc 12 a2 c2 3d
       0.04612862 0.10545937 -0.026136648 0.09503569
000060 58 b1 a7 bc c0 2c 5c 3c cf 82 eb 3d 99 48 f1 bd
       -0.020470306 0.013438404 0.11499559 -0.11781425
000070 13 5b 25 bf aa f1 a2 be 45 1c 11 3d ae e4 8a 3e
       -0.64592093 -0.31825 0.03542735 0.27127594
000080 cf 96 a8 bd 33 76 6f bd b9 b6 b5 bd 94 98 f3 bd
       -0.082318895 -0.058462333 -0.08872742 -0.11894336
000090 95 76 40 be 38 0c ae 3d 64 02 43 3e b8 d1 b6 3d
       -0.18795235 0.08498424 0.1904388 0.089267194
0000a0 89 9b 16 bd a4 1a f8 be 2c d7 f3 3d 30 46 4d be
       -0.036769424 -0.48457825 0.11906275 -0.20046306
0000b0 c8 c2 ea 3d 02 2e 1c 3d d3 ef 1b 3e b9 ec 20 3e
       0.11462933 0.038129814 0.15228204 0.15715303
0000c0 0d bc e9 3d a7 55 9f 3c bb 71 81 3d b0 33 5c 3e
       0.11412821 0.019450022 0.063205205 0.21504092
0000d0 84 74 4e 3d 99 4b 4a 3c 24 1b 9b 3e 24 fd ac 3c
       0.050404087 0.012347125 0.30294144 0.0211168
0000e0 d4 61 19 3e 70 a7 c9 bd 5d fe 81 3d 72 50 be 3d
       0.14978725 -0.09846389 0.06347344 0.092926875
0000f0 06 58 18 3e b8 2e 2b 3e 94 11 9a bd 63 27 1d 3d
       0.14877328 0.1671704 -0.07522884 0.03836764
000100 1b c9 8e 3d 8d 50 83 bc 4f 96 95 3d a0 1f e6 bd
       0.069719516 -0.01602962 0.0730406 -0.11236501
000110 97 d7 ca 3d da a8 d7 bd f1 1a fa be 82 86 be be
       0.09904402 -0.10530253 -0.4884868 -0.37211996
000120 3e 45 e8 3e 3d 93 5d 3f 14 c1 20 bd c5 21 ef 3c
       0.45365328 0.8655279 -0.039246634 0.029190907
000130 ac 36 15 bd 90 9f 17 be 4d 6a 3f 3c b5 b7 a2 bd
       -0.036429092 -0.14806962 0.011683059 -0.079451956
000140 d5 65 f2 bd f4 17 e7 3d 48 c4 c5 3d 05 ba 01 be
       -0.11835829 0.112838656 0.09656578 -0.12668617
000150 23 bb c2 3c 66 43 af bc fb 34 ab bc 27 1f 6e bd
       0.023770874 -0.021394443 -0.020899286 -0.058135178
000160 12 0b 48 3d 51 0e 9a bd e6 fe ec 3c 83 dd 91 bd
       0.048838682 -0.07522262 0.028930139 -0.07122328
000170 4c 7d a9 3d 15 51 76 3e 95 b6 00 be 40 b9 a8 bd
       0.082758516 0.24054368 -0.1256965 -0.08238459
000180 b6 de 81 3d 05 c1 d9 3c 5f 4b 11 be 34 47 f4 bc
       0.06341307 0.026581297 -0.14188908 -0.029819109
000190 33 7f 38 3e 98 8a 55 3e da 4b 40 be ae 20 bf bd
       0.18017273 0.2085365 -0.18778935 -0.09332405
0001a0 cc c0 d6 bd d8 8a e8 bd e4 55 d8 bd 3c 53 03 be
       -0.10485992 -0.11354607 -0.10563257 -0.1282472
0001b0 81 ff fa bc 75 aa 1c bd 17 54 0d be c3 ca df bb
       -0.030639412 -0.038248498 -0.13801609 -0.006829591
0001c0 ba 52 48 be 72 ae 54 3c 72 3e b2 3d 64 c4 51 be
       -0.19562808 0.012981044 0.08703317 -0.20485073
0001d0 b0 94 14 3c a1 73 18 3d 60 45 fa bc a8 c0 f6 3c
       0.009068653 0.037219647 -0.030550659 0.030121163
0001e0 89 bf e1 3d 67 2e 2b bc e1 ff 1d be f8 22 91 bd
       0.110228606 -0.010448075 -0.15429641 -0.07086748
0001f0 3e 7f f9 bd 29 29 9a bd 3f 38 02 bd 89 64 7d bd
       -0.12182473 -0.07527382 -0.03179192 -0.061863456
000200 4d eb 83 be e2 c4 c7 bd 4d bf d5 be 7a 0d 0b bf
       -0.25765458 -0.09754349 -0.41747513 -0.5431744
000210 f1 71 df be 25 e1 cd bd 97 05 b8 3e 01 7c bb 3e
       -0.43641618 -0.100527085 0.35941765 0.36618045
000220 f1 da c2 3e 49 e3 1a 3e 7e 34 2c 3e 4c b3 ba 3e
       0.38057664 0.15125765 0.16816899 0.36464918
000230 0c 60 f6 3d f8 2c a5 3d 5c f0 f6 3d 17 7c 16 bc
       0.12030038 0.08065218 0.12057564 -0.009184859
000240 6a a6 e9 bd 86 9c 76 bd d4 19 b1 3d 1e d1 57 ba
       -0.11408694 -0.060207866 0.086475044 -0.000823276
000250 a7 47 81 bd 98 50 c7 bd 5f 69 f3 bd fc 85 db bd
       -0.06312495 -0.09732169 -0.11885332 -0.10718915
000260 61 a3 94 3e a5 4e 7d 3e d3 56 f1 3d 2f f0 7d be
       0.29030898 0.24737032 0.117841385 -0.24798654
000270 4e 3e a2 3d 1c 87 cb bd b6 f2 db bc 80 ec 52 bd
       0.0792204 -0.099378794 -0.026849132 -0.051495075
000280 91 e0 78 be 6f 27 d4 be 7e 62 88 be 62 6c 74 be
       -0.24304415 -0.41436335 -0.26637644 -0.2386947
000290 c8 ab a7 3b 74 d8 2e bb 79 b6 a4 3d f5 e3 4c 3e
       0.0051169135 -0.002667931 0.080426164 0.20008834
0002a0 3e 58 75 be fa 34 14 bd 3a b9 11 3e 9e 9c 16 3e
       -0.23959443 -0.036183335 0.14230815 0.14708182
0002b0 0d 21 ed bc 17 a4 e2 3c e8 7e 47 3d 5b 07 85 bd
       -0.028946424 0.027666135 0.04870501 -0.064955436
0002c0 ff 1b 70 bc 85 9d b5 bc 06 fa 0c 3e 48 94 8b 3d
       -0.014655112 -0.022169838 0.13767251 0.06815392
0002d0 7a 25 7a bd f6 d2 d9 bc 61 c7 a3 3d 1a d1 7a 3c
       -0.061070897 -0.026589852 0.07997013 0.015308643
0002e0 e1 36 cd 3d b1 2e fa bd b0 2f fa bc 74 cc da bc
       0.10020233 -0.12215937 -0.030540317 -0.026708819
0002f0 2a 57 d6 bd 7f ee 8c 3d 6e 7e bd bd 47 3f 32 bd
       -0.10465844 0.06881427 -0.0925263 -0.043517377
000300 45 15 57 be 1d b9 8d be 3a 78 df 3e c4 20 ce 3e
       -0.21004207 -0.27680293 0.43646413 0.40259373
000310 cd 3a a2 be 0c ae c3 be 94 44 e1 3d f5 45 60 3d
       -0.31685486 -0.38218725 0.10999408 0.054754216
000320 d7 b1 b4 3d 46 8a b1 3e aa 9c c4 bd 2c 8f b2 bd
       0.08822983 0.34675807 -0.09600194 -0.08718714
000330 24 07 97 bd d1 0c b6 3d b2 fd 3a bd 64 63 db 3d
       -0.07374409 0.08889163 -0.0456521 0.10712317
000340 05 1b 3c 3d 64 bd 83 3c 2e d4 77 ba 38 aa cd bc
       0.045924205 0.01608152 -0.00094539195 -0.02510558
000350 87 88 82 3c fe 90 ed bc 21 49 cf 3e 10 af c5 3b
       0.015934242 -0.028999802 0.4048548 0.006032832
000360 f6 b4 8a be b7 66 8e be 9d 06 d2 3d 8b 14 d3 bd
       -0.27091187 -0.2781274 0.10255168 -0.10306653
000370 84 69 15 bc 0e a6 00 3e 4d 8e 14 3d 84 83 47 3d
       -0.009119395 0.12563345 0.03626852 0.048709407
000380 78 e8 4c be f6 8b 45 be fc da 25 be 07 76 4a be
       -0.20010555 -0.19291672 -0.16196817 -0.19771586
000390 0e 30 7f 3d ac cf 6a 3e e8 ca 43 3e c6 53 a2 3e
       0.062301688 0.22930783 0.19120371 0.3170454
0003a0 af 57 93 3d 5f 7b 11 3e ad a8 b9 bd 35 a4 71 be
       0.07194459 0.14207219 -0.090653755 -0.23597796
0003b0 e5 92 38 3e 5f 13 6c 3b 7d 78 5c bd df 7e 87 3d
       0.18024786 0.0036022288 -0.053825844 0.066159956
0003c0 c3 af 1b 3e ee de 4e 3e cf cc 1a 3e 82 2f 55 39
       0.15203767 0.20202228 0.15117191 0.00020330961
0003d0 19 55 1c be 2c 9e a5 3c 9b 99 88 3e 08 b6 b0 bd
       -0.15266837 0.020217024 0.26679692 -0.0862847
0003e0 fc 6c e5 3a 05 e2 b0 bc 54 fc 88 bd 3e 82 89 3c
       0.0017503793 -0.02159215 -0.06688753 0.016785737
0003f0 26 1d 23 3e 73 d5 82 3c 13 ef d9 bc b6 43 0a 3c
       0.15929088 0.015970921 -0.026603257 0.008438995

actor.0.bias f4 [64]
000000 a0 89 c3 3d 74 d6 ce 3d b7 07 a6 bb 5b 4e 55 3c
       0.09547734 0.100994974 -0.0050668376 0.01301917
000010 e6 a7 8e bd e0 c8 1b be 0b 3b c0 bb d8 8c d9 3c
       -0.06965618 -0.15213346 -0.0058664135 0.026556417
000020 13 c4 15 3e 2f 0e c4 bd 78 22 0f 3d aa fb 1f be
       0.14625578 -0.09573018 0.03494498 -0.15623346
000030 cf f2 22 bc 7a 20 1a 3c c1 84 5a 3d 0f 9b 18 3c
       -0.009945585 0.009407157 0.05334926 0.009314313
000040 ed c1 32 be 29 4d e0 3d 5c e3 91 bd 2f 0f 00 bd
       -0.1745679 0.10952217 -0.071234435 -0.03126448
000050 58 97 4a bd c3 82 eb bd fc 67 83 3d d3 df ae 3c
       -0.04946074 -0.1149955 0.06416318 0.021346962
000060 ce 40 5e 3d eb 5e e0 3c da a6 5d 3b 22 a2 d6 bd
       0.05426102 0.02738901 0.0033821375 -0.10480143
000070 0c c2 5f bc a6 bc 13 be ec 5d 9f bc 28 d3 b5 3d
       -0.013657104 -0.14427432 -0.019453965 0.088781655
000080 37 0a a7 3d f0 ef 01 be 25 8d 2c 3e 18 9c 31 be
       0.08156245 -0.12689185 0.16850717 -0.17344701
000090 33 68 25 3e 17 60 f5 3d 75 6b 44 bd c8 02 69 be
       0.1615303 0.11981218 -0.04795404 -0.22754967
0000a0 a5 85 15 3e c2 e0 36 3d a9 d6 37 bd 8b 9f 05 3d
       0.14601763 0.04464794 -0.04488245 0.032622855
0000b0 8a f0 a6 3d e3 43 f1 3d 6c 20 04 be ce de 06 3d
       0.08151348 0.117805265 -0.12902993 0.032927327
0000c0 33 9b 16 3e c5 3e 9f bd 0c da 21 3d e5 ad 34 be
       0.14707641 -0.07775644 0.039514586 -0.1764446
0000d0 d2 4d 9e 3d f3 86 79 bd c7 97 2a 3e 91 22 ca bd
       0.07729687 -0.060919713 0.16659461 -0.09869874
0000e0 7a 16 27 3d ba 8c b0 bd 33 81 f9 bd f6 57 5b bd
       0.04079292 -0.086205915 -0.12182846 -0.053550683
0000f0 17 31 73 bc 77 c7 29 be 67 67 f9 bd 75 94 5d bd
       -0.014843247 -0.16579996 -0.121779256 -0.054096658

actor.2.weight f4 [64, 64]
000000 3c f2 87 bd 70 75 06 be f8 02 b5 3d c8 77 9b bd
       -0.066379994 -0.13130736 0.08838457 -0.07591206
000010 0f d6 21 bb 3d 2d b4 3d 32 ce 06 bd 36 c9 a7 bd
       -0.002469424 0.08797691 -0.032911487 -0.08192675
000020 40 59 0d be e4 ed 8f 3b 7c 73 80 bd 30 5a 15 3c
       -0.13803577 0.0043923724 -0.06272027 0.009115741
000030 2c 8b 23 3d d0 1a 54 bd 9a 94 ad 3d 30 8a 08 bd
       0.039927647 -0.051783383 0.08475609 -0.03333491
000040 20 55 4c bd ef 3f cc bd 78 57 1b 3d f6 45 9e bd
       -0.04988587 -0.09973132 0.037925214 -0.07728188
000050 e8 40 d7 3c 19 54 08 bd f2 ef af 3d 90 b7 9f bd
       0.026276067 -0.033283327 0.08590688 -0.07798684
000060 fc 38 7c bd 25 cc 07 bd 88 b6 bf bd 16 8c f9 3c
       -0.061577782 -0.03315367 -0.09360987 0.030462306
000070 ac ff 74 bd d6 5c 0d 3d 37 a4 62 3d 61 3d 79 3d
       -0.05981414 0.034512363 0.05533239 0.06084955
000080 df 1e 24 bd d7 a2 4e 3d 3e c1 ac bd c0 10 ff bd
       -0.040068503 0.050448265 -0.084352955 -0.12454367
000090 55 35 f2 bc 63 9c d2 bd 94 54 c6 bd 00 26 02 3d
       -0.029566446 -0.10283735 -0.09684101 0.03177452
0000a0 61 d3 c1 3d 63 c0 80 bd e6 d1 c3 bc 46 ea e0 bd
       0.094641455 -0.06286695 -0.023903798 -0.10982184
0000b0 68 9c 95 3b 24 3b 8a 3c 00 2b 00 bd 9b 51 a0 3d
       0.004565764 0.016873904 -0.031291008 0.07828065
0000c0 5c ac f0 bd 39 f5 09 bd 5a e0 a6 bd ea e7 bf 3d
       -0.11751625 -0.03368113 -0.081482604 0.09370406
0000d0 32 0b b5 3d 47 e6 da 3d cb e3 c7 3d f0 c7 4a 3d
       0.08840026 0.10688453 0.09760245 0.04950708
0000e0 de 05 c4 bd 1c a6 ad bd 08 7a f5 3c d7 ae 03 be
       -0.095714316 -0.084789485 0.029965416 -0.12859665
0000f0 ab 1d 89 3d 98 96 5e 3d 6d fa 4a 3c 9f 17 01 be
       0.06695112 0.054342836 0.012388808 -0.12606667
000100 ba 41 b1 3e 98 95 4b bd d1 22 2f be e7 cb 32 3e
       0.34620458 -0.04970321 -0.17103125 0.17460595
000110 b8 eb c8 3c df 47 7e bc 5d c0 ac 3b 59 2a 41 3e
       0.024526462 -0.015520065 0.005271955 0.1886381
000120 c5 f9 67 3e 10 54 41 be 31 a2 32 3d 29 55 98 3e
       0.22653873 -0.18879724 0.04361171 0.29752472
000130 5e 0e f1 bd 44 29 99 be 48 6b 88 3d 32 82 af bd
       -0.117703184 -0.29914296 0.06661087 -0.08569755
000140 a6 33 9e bd 8e 8f 6f 3e f0 19 99 3d 2c f3 2b 3e
       -0.07724695 0.23394606 0.0747565 0.16791981
000150 dd 16 b7 bd e7 6b 2b 3e f7 de aa 3c 85 97 f0 bd
       -0.08939908 0.1674038 0.020858271 -0.1174765
000160 8c cf 52 3e ab 2e e2 bd 13 49 00 be 4f 89 c6 3d
       0.20586985 -0.110440575 -0.12527876 0.09694158
000170 45 b1 a2 3d e8 77 55 3e 07 a4 c6 bd d0 54 3e 3d
       0.07943968 0.20846522 -0.096992545 0.046467602
000180 3b 26 3a be 2c 80 6e bd 12 58 67 3e 86 79 52 bd
       -0.18178646 -0.058227703 0.2259219 -0.051385425
000190 a4 7e 92 bc 90 72 db bc 4b e6 59 3e 1d d0 1a bd
       -0.017882653 -0.026788026 0.21279256 -0.03779613
0001a0 80 df 87 3c ab 76 a3 3d 01 2b 0e 3d eb 28 2a be
       0.016586065 0.079816185 0.03470898 -0.16617171
0001b0 71 df 58 3e 79 f2 1e 3c 56 2d 16 3e fe 7c 99 bc
       0.21178986 0.009701365 0.14665732 -0.018736359
0001c0 d7 eb d3 bc 72 97 70 3e e8 0c ed bd 26 c7 4d bc
       -0.025869293 0.23495272 -0.11574727 -0.012559688
0001d0 85 dd 5f be 10 5b 59 bb 99 09 91 3d fb a2 db 3d
       -0.21861847 -0.003316585 0.07081909 0.107244454
0001e0 c9 f8 4c 3e 32 5c 6c be 53 b3 29 3e ef f4 15 3e
       0.20016779 -0.23082045 0.16572313 0.14644216
0001f0 db 1a 4d 3d f3 ab 51 bd a5 a2 e8 3d fc 12 b7 3e
       0.05007444 -0.051189374 0.11359147 0.3575667
000200 a8 2f 19 bf f9 fe 5e 3e 25 c8 62 3e 95 0c ab 3d
       -0.5983834 0.21776952 0.22146662 0.08352009
000210 c6 71 95 3e 31 92 22 3e be 10 27 3e 0d 2a 24 bf
       0.29188365 0.1587608 0.1631498 -0.64126664
000220 be fa 51 bd 0b 1f 99 3c 33 66 36 be 02 5b 42 be
       -0.051264517 0.01869156 -0.17812423 -0.18980029
000230 a3 b9 21 be 6e a4 6d 3e e7 25 8f bd 38 3f 31 3e
       -0.15793471 0.23207256 -0.06989651 0.17309272
000240 b5 1d 08 3d 8b 5e 02 be b6 6d d1 3e 7b de 2a 3e
       0.033231456 -0.12731378 0.40904015 0.16686432
000250 5b 93 b4 3e e9 77 a9 bd 38 7f 31 be 13 d0 73 be
       0.35268673 -0.08274824 -0.17333686 -0.23809843
000260 56 c3 1b be 57 70 21 3e e1 83 b7 3e eb ff 21 bd
       -0.15211233 0.1576551 0.35842803 -0.039550703
000270 45 0c b2 3e 90 c4 3d 3c 74 f6 5b 3e d9 26 c1 3e
       0.34774986 0.011582509 0.21480733 0.3772495
000280 bf 65 52 3d f1 4b 89 3e 12 a3 2b be 78 07 f5 bd
       0.051366564 0.2681575 -0.16761425 -0.11964315
000290 d2 8e 4c be 38 5c 75 3e 96 cf 9c 3d 26 5a 4e be
       -0.19976357 0.2396096 0.076567814 -0.20151576
0002a0 ae 59 fd 3c 73 1f 8c 3d 4f be 06 bd 67 96 84 3d
       0.030926552 0.06841936 -0.032896336 0.064739995
0002b0 d7 ad b9 3d 09 70 b6 3e 09 79 d6 bb db 87 47 3e
       0.090663604 0.3563235 -0.0065451902 0.19485418
0002c0 d8 22 3e bd 5e 6f 9d bd 51 02 21 3e 17 33 16 3e
       -0.04641995 -0.07687257 0.1572354 0.14667927
0002d0 8f 0f 85 be 43 fb 77 be 06 d6 97 bd e0 e8 54 bc
       -0.25988433 -0.24216942 -0.074138686 -0.012994975
0002e0 6d 6c a8 bc 41 bc c8 3e 8d f7 a0 3d a4 d5 de bd
       -0.020559514 0.39206126 0.078597166 -0.108805925
0002f0 a1 a8 2d 3e 09 77 62 3d d7 88 6f bd 88 c3 1a be
       0.16958858 0.055289302 -0.05848011 -0.15113652
000300 da 8a e3 bc 52 b7 9d 3e 14 62 6d 3e c7 04 f0 bd
       -0.02777617 0.30803925 0.23181945 -0.11719661
000310 28 d3 fd bd 0c 59 ce bd e4 91 f6 bd 62 33 0e bd
       -0.123937905 -0.10075578 -0.12039545 -0.03471697
000320 b3 bd bc 3d 4b 3c 48 3e ff 6e 82 be 49 eb b4 bd
       0.0921587 0.1955425 -0.25475308 -0.088339396
000330 59 9f 42 be d2 24 53 3e 72 9f b0 bd b7 e5 43 3d
       -0.19006099 0.20619515 -0.08624162 0.047826495
000340 0d 3d 27 bd 0a a5 15 bd 71 43 12 3d e2 4c 1e be
       -0.040829707 -0.036534347 0.03570885 -0.15459016
000350 b4 f9 49 3d 57 3f 6c bc 51 d6 fb bd 76 6f 8e bd
       0.0493104 -0.014419398 -0.12296737 -0.06954853
000360 79 98 47 3d cc 8f 81 3e dd 33 a7 3d 68 1b 87 bd
       0.048729394 0.2530502 0.08164189 -0.06597024
000370 45 ee cb be 02 4e d0 bd b9 91 01 3e 44 71 c1 bc
       -0.39830223 -0.10171129 0.12653245 -0.02361358
000380 07 7c eb 3d 2e a5 91 3c f8 60 9b 3e 03 b5 a7 3d
       0.11498266 0.01777896 0.3034742 0.08188822
000390 ba 4d 3f 3c f0 fa c3 be 9e a2 d5 bc 67 c0 9f 3d
       0.011676246 -0.38277388 -0.026078518 0.0780037
0003a0 50 83 d3 bc 38 0d 52 3d 08 79 03 be ef b7 05 3e
       -0.02581945 0.051282138 -0.12839139 0.13058446
0003b0 10 61 c4 3e 9d 3a ba bb 6c aa e3 3c 2e d1 62 bd
       0.38355303 -0.005683257 0.027791224 -0.05537527
0003c0 73 27 20 be a9 48 36 bc bb d4 1f bd 6e c6 a5 be
       -0.15640049 -0.011125722 -0.039021235 -0.32377952
0003d0 d2 07 15 be 87 6e c6 be ef 68 a2 3d 4b 6d 99 bd
       -0.14553764 -0.387562 0.07930171 -0.07491549
0003e0 a3 cc f4 bd 19 46 a6 3e 13 5b 8e be ff 7e ab bb
       -0.11953094 0.32475355 -0.2780386 -0.005233645
0003f0 50 b6 60 3e 9f 38 0f 3c ef 6a 70 bc a3 dd 02 be
       0.21944547 0.008741527 -0.014673932 -0.1277986

actor.2.bias f4 [64]
000000 ac 9e 82 bd bc 71 99 3d 7b 71 45 bc 73 fa fd bd
       -0.063779205 0.07492396 -0.012050982 -0.12401285
000010 b4 8f 1e 3d b5 ee 14 3e e1 41 28 be 20 31 43 3d
       0.038711265 0.14544185 -0.16431381 0.04765427
000020 84 e1 fa bd 37 f2 1b 3c 5a 1f e6 3b d4 34 52 bc
       -0.12250045 0.009518198 0.0070227804 -0.012829978
000030 fe 50 ff bd 20 fc c4 bd 2c 0a b3 3d 84 3a 80 3e
       -0.1246662 -0.096184015 0.087421745 0.25044644
000040 7f 88 f9 bd f1 4f dc 3d 98 62 4b 3d e8 60 30 3e
       -0.12184238 0.10757435 0.049654573 0.17224467
000050 c9 d7 d8 bd 22 5c 9b bd cb d5 23 3c a8 ac 47 3c
       -0.10588033 -0.07585932 0.009999703 0.012187161
000060 f1 fd 44 3e 01 a6 48 3d 93 3b 7c 3d dd 67 aa bd
       0.19237496 0.04898644 0.061580252 -0.083205916
000070 3c 12 88 bd 97 c3 e6 bc 97 64 9c bd b5 b6 62 3e
       -0.06644103 -0.028169436 -0.076363735 0.2214001
000080 c3 89 cc 3c 17 a1 3c 3e 46 7f bf 3d 69 be 87 bc
       0.024968034 0.18420826 0.09350447 -0.016570287
000090 b6 b0 83 3d 10 82 5d 3c 04 f0 c4 3d 05 fd 4d 3d
       0.06430189 0.013519779 0.09616092 0.050290126
0000a0 d6 6c 71 bd c6 12 77 3d 46 8d 48 3d c4 fb c4 bd
       -0.058941685 0.060320638 0.048962854 -0.09618333
0000b0 2a 46 0e bb d2 3b 70 bd d9 76 1d be 9f bf 99 bd
       -0.0021709302 -0.0586508 -0.15377368 -0.07507252
0000c0 4c 35 f3 bd 87 41 92 3d 4a 94 51 bc 81 72 ea bd
       -0.118754 0.071414046 -0.0127917025 -0.11447621
0000d0 a9 6b fe bc e7 08 d3 bd e7 94 00 bd 10 61 ae 3d
       -0.031057196 -0.10304432 -0.031392004 0.08514607
0000e0 a7 71 38 bd 2f c0 18 3e 19 9f 02 3e c6 2c 10 3c
       -0.045030262 0.14917062 0.12756003 0.008799737
0000f0 3a 43 9e bb be f8 ad 3c 13 e4 69 bc 15 b9 16 bd
       -0.0048297914 0.021236774 -0.014275569 -0.0367976

actor.4.weight f4 [36, 64]
000000 9e 1d 49 3c ba 5b 3f be e8 77 a9 3e a8 87 84 be
       0.012275128 -0.18687335 0.33099294 -0.25884748
000010 cf 40 6c 3e fa fc 82 be e7 ce b6 3d eb fc 2c 3f
       0.23071598 -0.2558363 0.08926182 0.6757342
000020 ee c9 45 bd d1 f7 53 be 85 a0 67 be cf cf 8b bd
       -0.04828828 -0.20700003 -0.22619827 -0.06826746
000030 c4 95 6a bd 90 ff 54 bd 2c 90 ac be 1d aa 15 bf
       -0.057271734 -0.052001536 -0.33703744 -0.584627
000040 6b 49 23 3d 8c 6a d6 be 78 be 91 3d 55 27 2a 3f
       0.03986494 -0.41878164 0.07116407 0.66466266
000050 b0 d6 5e 3e 4a 79 48 be 04 11 a3 be 5b a0 98 bd
       0.21761584 -0.19577518 -0.3184892 -0.074524604
000060 e0 0e 27 bf f1 d5 28 bd 77 bd 71 3d 66 13 13 3f
       -0.6525707 -0.041219655 0.05901858 0.57451475
000070 36 08 0f bf 45 ec 86 be 1f 1b 5e be 1c ac df 3e
       -0.55871904 -0.26352134 -0.21690033 0.43685997
000080 57 db 1b be 5d 12 07 bf 5e 7a 80 be 95 63 f8 be
       -0.1522039 -0.52762395 -0.2509336 -0.48513475
000090 89 3b 4f be 5c 31 29 3e 30 88 e9 be 6a 30 a6 be
       -0.20237555 0.16522735 -0.45611715 -0.32458812
0000a0 de 3e 82 be e9 dd 81 be 16 12 aa be 53 69 c3 bd
       -0.2543859 -0.25364617 -0.33216923 -0.095415734
0000b0 a5 e4 52 be 39 63 23 3d a8 f0 7c bd b8 9d ff 3c
       -0.20595033 0.039889548 -0.061752945 0.031203136
0000c0 6f ea 2a be e9 6c 97 3e 21 ed 9c bd e5 de 01 bf
       -0.16690992 0.2957528 -0.07662416 -0.50730735
0000d0 e3 1d a5 3d 76 b7 0b be f9 60 3a 3e 9d be f1 bd
       0.08062341 -0.13644204 0.18201055 -0.11803935
0000e0 0d f8 c7 bc 4b 7f 08 bf 63 db 04 bf 74 71 e6 bd
       -0.024410272 -0.53319234 -0.5189726 -0.11252108
0000f0 fa 30 2f 3f bc 7e 00 bf a9 16 42 3c 52 55 16 bd
       0.6843411 -0.5019338 0.011846223 -0.03670246
000100 74 0f b2 bd bc 09 fe bd 95 d2 b7 3e c8 c2 c0 3e
       -0.08694354 -0.124042004 0.3590285 0.37648606
000110 74 9c 7e bd 50 99 77 be ba 8d 21 3d 4d 25 fc bd
       -0.062160924 -0.24179578 0.0394418 -0.12311802
000120 02 f8 06 bd cc 92 6d bd 0d 00 b7 bd 3d 20 c0 3d
       -0.032951362 -0.058001325 -0.089355566 0.09381149
000130 f4 96 1e 3e 24 e3 f3 bd 20 c5 05 3f 3c b2 4c be
       0.15487272 -0.11908558 0.52253914 -0.19989866
000140 f4 21 d7 bd de e5 97 bd 6a aa cc be 9d 07 32 be
       -0.10504523 -0.074168906 -0.39973766 -0.17385717
000150 c7 23 ff 3d e2 5f 21 3f 36 e1 ad be dc f7 38 be
       0.12457996 0.6303693 -0.33960885 -0.18063301
000160 86 d7 9c be e5 9e 61 3d 59 34 66 bc 42 f9 07 3e
       -0.3063318 0.055083174 -0.014050567 0.13278678
000170 85 7e b0 3e fc 7a e9 bd 47 35 48 be fa 1c 15 bf
       0.34471527 -0.114004105 -0.19551574 -0.5824734
000180 77 90 c1 bd b6 b0 b6 be d8 ef e3 3e 94 db 82 be
       -0.094513826 -0.35681695 0.44518924 -0.2555815
000190 d9 01 9f 3e f1 46 01 3e ec 58 ba 3e e8 03 f8 be
       0.31056097 0.12624718 0.36395967 -0.4844048
0001a0 ef 5f e7 3e 83 23 65 bd 75 0d 35 be b9 70 08 3d
       0.4519038 -0.05594207 -0.17680915 0.033310626
0001b0 92 b6 98 3d d0 45 28 3e 17 8b 04 bd ec 3a 37 3d
       0.074566975 0.16432881 -0.03235921 0.044733927
0001c0 cf 39 e9 3d a9 90 82 3e ae ce 26 3d 13 ae c0 be
       0.11387979 0.25500992 0.04072445 -0.37632808
0001d0 df 41 c2 3e c7 a5 69 bd 5c d8 24 3f 68 8e 4f be
       0.3794088 -0.057042863 0.6439264 -0.20269167
0001e0 1c 61 c9 3c b5 93 94 3e bc 6d 84 be 0c bc d2 3d
       0.024582438 0.29018942 -0.2586497 0.10289773
0001f0 34 26 64 be 71 46 2c 3e 17 bd 09 3e 20 c9 d7 3c
       -0.22280198 0.16823746 0.13451038 0.026341021
000200 a6 a8 e0 3d e9 5f 60 3c c3 6c 07 3f d1 12 75 be
       0.10969667 0.013694742 0.5290033 -0.23932959
000210 8b 58 f9 3c 63 23 c8 3e 64 8b ee 3d 97 1b b1 bc
       0.030437728 0.39089498 0.116476804 -0.021619601
000220 05 f1 1c 3d 1d bd 07 bc e9 1a bf 3e f7 ca cc 3e
       0.03831579 -0.008284834 0.37325218 0.399986
000230 0d d8 53 3e 9b e9 f6 3b 1e 78 b5 3b 0f 23 db bd
       0.20687886 0.007535172 0.0055380007 -0.10700046
000240 04 63 94 bb 8c 30 8f 3d e7 13 be 3e 6f ec 57 3e
       -0.004528405 0.069916815 0.3712456 0.21086286
000250 a9 ec f3 3e 7b 37 db bd 28 23 5e 3d 45 eb 6a bd
       0.47641495 -0.107039414 0.054232746 -0.057353277
000260 07 e9 19 bd 6a dd 7a 3e bb 15 ef 3a 97 1f c2 3e
       -0.037575748 0.24498525 0.0018240729 0.37914726
000270 6c 31 2a 3e a7 e0 57 3d 2d f2 32 3e 83 c5 1a 3d
       0.16620415 0.05270448 0.17475195 0.037786018
000280 d2 1d 56 bd 82 2b 8b be f2 bd d3 3e 4e ae be 3d
       -0.052274533 -0.2718163 0.41355854 0.0931059
000290 9e af d4 3e 91 5a 33 3d a4 da bf 3d 38 ea 65 3e
       0.41540235 0.043787543 0.09367874 0.22452629
0002a0 5d fb 1d 3e fb db 98 be 18 1c 7f 3d a0 93 f5 3c
       0.15427919 -0.29855332 0.06228265 0.02997762
0002b0 cf d1 45 be 15 4f 06 3d bb 5c 27 3e 19 2e 84 3d
       -0.19318317 0.032790262 0.16343968 0.06454105
0002c0 da a9 b9 3e 37 20 c1 3e df c2 b8 bd fb 80 31 3e
       0.362624 0.3771989 -0.09021544 0.17334358
0002d0 3b 23 a5 3e 31 9b 0b bd 26 7d 0f be c3 47 d0 3e
       0.3225344 -0.03408355 -0.14012584 0.4067975
0002e0 02 e4 57 bd 54 e5 24 be bf c6 fd bd 5f b8 e2 bc
       -0.05270768 -0.16103107 -0.123914234 -0.027675806
0002f0 22 bf 83 bd f7 68 56 3e ba d4 27 3c 70 fd 88 bd
       -0.0643294 0.20938478 0.010243589 -0.06688964
000300 2d 5f dd 3d 87 b2 56 bd a1 1f 94 be 4e 50 09 be
       0.10809169 -0.05241635 -0.2893038 -0.1340954
000310 9a f8 25 bd 09 c5 56 be e1 cd 71 3d b8 c1 b7 bc
       -0.040520288 -0.209736 0.059034232 -0.02243124
000320 01 f2 2b bd ef 84 bc 3d 90 4d ef 3c d9 b1 05 3d
       -0.04197884 0.092050426 0.02921179 0.032640312
000330 e7 13 17 3e 05 d0 16 bd ea 69 8c bd 41 6d 29 be
       0.14753686 -0.036819477 -0.06856139 -0.16545583
000340 04 21 02 bd 35 59 d2 bd fa 91 1e be 0b ef d5 bd
       -0.031769767 -0.10270921 -0.15485373 -0.104459845
000350 b4 f8 65 be 0a df 62 bc ab 2f 32 be 3c 8a 93 3e
       -0.22458154 -0.013847122 -0.17400996 0.28816402
000360 81 8d 0b bc d3 df af be ff 85 58 bd 08 e9 fe bd
       -0.008517624 -0.34350452 -0.052862164 -0.12446791
000370 1b e4 8c 3c c2 2a 73 3d 14 6d ed 3d f9 0c 09 bf
       0.017198613 0.05936695 0.115930706 -0.5353542
000380 d9 7b 98 3e ad 61 ab bd 13 c6 e7 bd 68 07 80 bd
       0.29781988 -0.083682396 -0.113170765 -0.06251413
000390 d8 6f 22 be f0 0c 7a bd 49 16 e3 bd 1f ff 5c be
       -0.15862978 -0.061047494 -0.11088235 -0.21581696
0003a0 f8 42 b4 3c 9f 86 c6 3d e4 8f 19 3d 47 89 90 bd
       0.02200459 0.09693646 0.03749074 -0.070574336
0003b0 f1 33 bd bd b7 50 6c 3d c1 02 dc 3d e2 fb 4c bd
       -0.09238423 0.057694163 0.10742713 -0.0500449
0003c0 4b 5c db bb 5f c8 8e 3c e9 39 6f 3c e2 c7 6f be
       -0.006694352 0.017429529 0.014601209 -0.23416093
0003d0 be 02 95 3d 95 44 55 3e 1f 42 d7 bb b0 66 04 be
       0.07275914 0.20826943 -0.0065691615 -0.12929797
0003e0 3c de f9 3d c5 88 81 be 97 19 b9 be 0b 86 29 3d
       0.12200591 -0.2529966 -0.36152336 0.0413876
0003f0 a9 f8 e8 be 6a cc 0e 3d 27 eb 4f bd 74 4d 20 bb
       -0.45502213 0.034862913 -0.050761368 -0.0024460228

actor.4.bias f4 [36]
000000 17 d7 07 be 98 7f 02 be 24 0e 5f 3c f0 db 85 be
       -0.13265644 -0.12743986 0.013614211 -0.26144361
000010 d4 45 f6 3d 49 7d 22 3d c4 50 fb 3d 03 b9 ea 3d
       0.120250374 0.039670262 0.12271264 0.114610694
000020 1d 64 8e bc 6d 82 01 be 6a 05 c2 3c 18 37 35 3e
       -0.017381722 -0.1264741 0.023684222 0.17696798
000030 49 b0 04 3e 50 64 a7 3e 66 76 9f 3e fa 34 1c 3e
       0.12957872 0.3269372 0.31145018 0.15254584
000040 da c3 7d 3d 0b 55 4e be 40 93 86 be 2f 90 23 be
       0.061954357 -0.20149629 -0.26284218 -0.1597297
000050 d7 71 b9 be af 29 aa bc e6 cc c5 bd 8b 80 ed bd
       -0.36219665 -0.02077183 -0.09658222 -0.11596783
000060 42 e7 af 3d 94 2c 7b 3d e1 f1 b8 3e 23 db 0c 3d
       0.08589031 0.06132181 0.3612204 0.034388673
000070 cd c9 2e 3e ee f5 70 be 2b 7e 0f 3e 23 99 17 3e
       0.17069168 -0.23531315 0.14012973 0.14804511
000080 6e a4 bf bd ac e5 02 3e e8 16 77 bc ac eb 52 3e
       -0.09357534 0.12782925 -0.015081145 0.20597714

critic.0.weight f4 [64, 62]
000000 c8 60 9c 3d 6a 19 ab 3d 31 d8 ab bd 6c 5b 1b 3c
       0.07635647 0.08354457 -0.083908446 0.009482246
000010 50 bb 5e bd 58 40 d4 bc 78 07 2b bb 99 0c a2 3c
       -0.054377854 -0.025909588 -0.002609698 0.019781398
000020 73 bf 99 bd 94 15 a9 bc 03 29 70 bd a9 39 0e bd
       -0.07507219 -0.020640172 -0.05863286 -0.034722958
000030 c5 52 80 bd 16 de 87 bd 33 7f e5 bd b4 b7 b8 bd
       -0.06265787 -0.066341564 -0.11205902 -0.090194136
000040 fe 10 09 bc ab 20 dd bd 13 fe f7 bd c8 76 b6 3d
       -0.008365868 -0.107972465 -0.12109008 0.089093745
000050 0c 4a bb bd 7c 17 b6 3d d6 10 10 3c 3e 3c 98 bc
       -0.09144983 0.08891198 0.0087930765 -0.018583413
000060 ef 3e c9 3d 27 17 cb bd c0 34 79 3d b3 99 ad 3d
       0.09826457 -0.09916525 0.060841322 0.084765814
000070 18 71 d6 3d 8f 13 1a be 51 5e 66 3c 70 8f fd bc
       0.1047079 -0.15046524 0.014060573 -0.030952185
000080 f2 fb c0 bd 9a a3 b1 3d 52 32 b7 bc 73 eb af 3d
       -0.09423055 0.08673783 -0.022362862 0.0858983
000090 16 0d 8c bd 74 b4 66 bd f1 95 43 3d 86 ef 84 3c
       -0.068384334 -0.056324437 0.047750417 0.016227495
0000a0 c4 10 95 3d 69 e9 5d 3d e3 71 c5 3d 3b ba bf bd
       0.072785884 0.054177675 0.09640863 -0.093616925
0000b0 9e 97 04 bc 49 ae 6b 3d d7 d4 3c bd 4d 10 a4 bd
       -0.008092789 0.05753926 -0.046101417 -0.080109216
0000c0 7f 1f c6 3d 11 9f 09 be c5 d4 d6 bd 6d 2c ea bd
       0.09673976 -0.13439585 -0.10489801 -0.11434255
0000d0 12 b7 00 3d b3 17 0a 3b b6 0c ef bd 3b 1a 42 3d
       0.03142459 0.0021071255 -0.11672346 0.047388297
0000e0 81 87 c0 3c 8a 36 30 3d af 98 fe bd be 95 f8 bd
       0.023502113 0.043020763 -0.12431466 -0.12137936
0000f0 46 7d 10 be 0a 2d 82 bd dd 19 e7 bd cc bf 83 3d
       -0.14110288 -0.06356247 -0.1128423 0.06433067
000100 28 39 8d bc 13 25 4d bd dc 04 39 3e 29 6c 85 bb
       -0.017239168 -0.050084185 0.1806826 -0.0040717316
000110 d9 4c 1f 3e d1 e5 5d be 1f 8b 11 be fc cc d0 be
       0.15556659 -0.21669699 -0.14213227 -0.4078139
000120 d7 0f 9d be 5d ae a4 3d af 81 f0 bd d6 36 11 3c
       -0.30676147 0.0804107 -0.11743485 0.008863172
000130 87 1a 29 3d 05 e9 d9 3d a3 f5 d4 3d fb 2e df 3d
       0.041285064 0.10640148 0.10398414 0.10897633
000140 bf 91 8b 3d 45 04 df bb 5d 60 05 bd 76 59 f8 bd
       0.06814908 -0.006805929 -0.032562602 -0.12126438
000150 e2 da 88 3d 00 cd eb bc a8 10 a3 3c ed f3 ea bc
       0.066823736 -0.028784275 0.019905403 -0.028680766
000160 15 fc a7 3d bd 3a 84 3b 1e 17 42 3d 1c 38 1d 3f
       0.08202378 0.0040353225 0.047385328 0.6141374
000170 1d fb 9c 3e 7c 74 c1 3e 73 dd 70 3d 5f 54 99 bd
       0.30660334 0.37784183 0.05880494 -0.07486796
000180 b5 e9 b6 3d e7 7b c9 3d 99 08 ca 3d 5f fd 7f bc
       0.08931295 0.098380856 0.09864921 -0.015624373
000190 3f 73 35 3e 90 8a e8 3e b6 2c f2 bd 7a 8e 2a be
       0.17719744 0.45418215 -0.11824934 -0.16655913
0001a0 83 27 08 3e bf 97 12 bd 42 90 a3 bb dc e3 33 be
       0.13296323 -0.035789248 -0.004991562 -0.1756739
0001b0 b0 d5 81 3b 7a 1d 8a bd 9e 60 89 3e bc 8e 0b 3d
       0.003962241 -0.067439035 0.26831526 0.03407167
0001c0 ed 6b de 3d 21 e3 99 3d b0 1b 3f bd 99 84 40 3d
       0.10860429 0.075140245 -0.046657264 0.047001455
0001d0 06 f1 1e bd 56 bc 6a be 68 95 da 3d 8e 46 48 3d
       -0.038804077 -0.22923407 0.10673028 0.04889541
0001e0 2f 4a 27 3e 14 d5 d0 3b 96 df 91 bc b9 1c 60 3e
       0.16336893 0.006373057 -0.01780681 0.21885957
0001f0 1a 4f d7 bd 14 23 a3 3d 1f 64 d7 3d 23 24 47 3d
       -0.10513134 0.07965675 0.105171435 0.048618447
000200 84 a0 e9 3b d6 ce 01 bd 4f e9 02 be 5f 92 5d 3d
       0.0071297307 -0.031691395 -0.12784313 0.05409467
000210 e1 88 5c 3e d5 77 0a 3e fe 8d 8d b9 85 d4 2c 3d
       0.2153659 0.13522275 -0.00026999408 0.042194862
000220 cf 99 a3 bd ed 3f 6a bc 5e ab c0 bb 43 6c 3b be
       -0.07988321 -0.014297468 -0.0058798036 -0.18303017
000230 01 1f a3 bc 0a a1 99 bd de 74 f2 3d 9b 83 d3 bd
       -0.019912245 -0.07501419 0.11838697 -0.10327836
000240 2b c6 f2 3d 77 ec af bc ce 58 bc 3c 04 7c e2 3d
       0.11854204 -0.02147506 0.022991564 0.1105881
000250 c3 b2 70 bd ad bd 40 bd c4 37 57 3d c2 ca 03 bd
       -0.05876423 -0.04705589 0.052543417 -0.032175787
000260 89 b5 1c 3d 4d 5e 03 3c 84 42 e6 bd a1 45 40 3d
       0.038259063 0.0080180885 -0.112431556 0.046941403
000270 a6 e6 63 bd c6 7e 53 3d fd 69 49 3c 22 0e c8 bd
       -0.055639885 0.051634572 0.012293336 -0.097683206
000280 b0 f4 6e be 54 2d 09 be b0 6c 1f 3d f2 82 98 3e
       -0.23335528 -0.13396198 0.03892201 0.29787403
000290 e3 67 50 be 31 64 83 bc eb f4 f8 bd 25 9a 89 be
       -0.2035213 -0.016038986 -0.121560894 -0.26875415
0002a0 fc 9c 57 3d 61 9b cc bd 15 f4 9e 3d bb 08 85 be
       0.052639946 -0.09990574 0.07761399 -0.25983223
0002b0 3c 94 a4 bc d6 c3 31 3e af 2e 18 be d7 9d 6c 3e
       -0.020090215 0.17359862 -0.14861558 0.23107086
0002c0 de 67 77 3d df e4 31 3e ba 80 cc 3d 5e a8 0c be
       0.06040179 0.17372464 0.0998549 -0.13736102
0002d0 76 99 36 be b5 a2 e9 bb 02 58 cd 3d fa 75 98 bd
       -0.17831978 -0.007129992 0.10026552 -0.07444377
0002e0 2f 8f 2d 3c 1e a5 23 3e 5d 8e eb bd c2 11 ef bd
       0.01059322 0.15980956 -0.11501763 -0.11673309
0002f0 8d ab d9 bd 5c f5 b5 3d 8a 45 83 be 1c 2c 6b be
       -0.10628424 0.08884689 -0.25638992 -0.22966045
000300 e0 1f 2c be 90 6b a3 3e 1e 21 73 bd f4 d1 59 be
       -0.16809034 0.31918 -0.059357755 -0.21271497
000310 c9 4a e1 bd f5 c8 b0 3d 2f 4a d8 bc cb f0 a2 bd
       -0.11000592 0.086320795 -0.026402561 -0.07956084
000320 ce 99 9a bd 84 ce 93 bd 91 5f 1b bd 4b 6d a1 bd
       -0.07548867 -0.07217124 -0.037932936 -0.07882174
000330 82 c9 ab bd 45 23 b8 3d da a5 ac 3c 59 b8 2a 3d
       -0.08388044 0.08991102 0.021075178 0.041679714
000340 d5 03 bd bd b2 e2 c0 3c 8d b4 e7 3d 4d 75 8e 3d
       -0.092292465 0.023545597 0.11313734 0.06955967
000350 4c 09 b6 bb 37 79 6f bd 2a 62 d0 3e 0b 91 b9 3e
       -0.0055553075 -0.05846521 0.40699893 0.36243472
000360 a4 e7 59 3c e2 ac 24 3e 0b 87 13 bd a7 04 a4 bb
       0.013299856 0.16081575 -0.03601746 -0.0050054374
000370 5b dd f4 bc 8e 49 9a bd b8 77 c5 bc 76 6b 2a bc
       -0.029890707 -0.07533561 -0.024104938 -0.010401597
000380 2f 05 29 be f6 7c 2a 3d fc a5 34 be be 22 fd bd
       -0.16505884 0.04162308 -0.17641443 -0.12360142
000390 5d 23 d9 3d 30 79 b5 3c b9 0a b0 bd 38 3e 58 be
       0.10602448 0.022152513 -0.08595795 -0.21117485
0003a0 23 0b 90 3d 74 05 43 3d 0a 99 5e be de ff 2a be
       0.07033374 0.047612622 -0.21738067 -0.16699168
0003b0 02 cf 36 3d b7 01 8c bc bd 15 b7 3d a0 08 77 bc
       0.04463101 -0.017090661 0.08939693 -0.01507774
0003c0 22 1a af bd f1 2e 97 bd ef d2 8d bc 13 47 a0 bc
       -0.08549906 -0.07382 -0.017312495 -0.01956514
0003d0 9e f6 5d 3c 52 00 92 bc a8 99 5d 3d c1 76 1e 3d
       0.013547568 -0.017822418 0.054101616 0.03868747
0003e0 3e f8 8b 3d 01 79 b8 3d d0 2e ea bd c8 31 a8 bd
       0.06834458 0.09007455 -0.1143471 -0.0821262
0003f0 f5 c7 f1 bd 4c d4 39 3e 73 e0 ab 3e bf df d3 3e
       -0.11805717 0.18147391 0.3356968 0.41381642

critic.0.bias f4 [64]
000000 f5 cd 18 be 10 67 f7 3d f5 27 93 bd 10 06 c2 bd
       -0.14922316 0.120802045 -0.071853556 -0.094738126
000010 47 85 d4 3c 36 8a 36 bd 2a d1 1a 3d fc 95 fb bd
       0.025942458 -0.044565402 0.03779713 -0.122844666
000020 38 41 8b be 4f 93 3b 3d ac ef f0 bd ea e5 f8 bd
       -0.27198195 0.04579478 -0.11764464 -0.121532276
000030 e5 84 11 be c8 79 a5 bd 3c 5d e6 bd 5e d3 e8 3c
       -0.14210851 -0.080798686 -0.11248252 0.0284211
000040 ae dd 1f be dd 84 8a bd 8d 8c a5 bd 15 6b 2c 3e
       -0.15611908 -0.06763623 -0.080834486 0.16837724
000050 f8 1f 9b bd 81 ed 8a bc ba 93 e5 bd b8 02 00 be
       -0.07574457 -0.016958954 -0.11209817 -0.12501037
000060 c0 ef 0a 3e 7f ef 88 bd a8 7a 23 be 4a 2e ea bd
       0.1356802 -0.06686305 -0.15964758 -0.1143461
000070 ec d4 09 3b ed 7a 8c bd 43 8a 8a bd a1 aa fb 3d
       0.0021031452 -0.06859384 -0.067646526 0.12288404
000080 66 07 0d be d5 0f d3 bd 56 f0 77 bd 0e b2 e3 3d
       -0.13772354 -0.10305754 -0.060531937 0.111179456
000090 98 45 37 be 30 b1 4c 3d 62 6d 75 bc 94 aa 24 3d
       -0.17897642 0.049973667 -0.014979692 0.04020174
0000a0 d4 ed 01 be ac e8 ee bc 36 53 bd bd aa 85 2c ba
       -0.1268838 -0.029163681 -0.09244387 -0.0006581197
0000b0 07 0e ff bc 62 94 0a be c2 ae bb 3d 26 c6 53 bc
       -0.031134618 -0.13533166 0.09164192 -0.01292566
0000c0 b2 e7 86 3d bd ac 87 be 1f e3 cd 3d 9c 71 83 3d
       0.06587161 -0.26498976 0.100530855 0.06418154
0000d0 32 e7 9b bd 1b 3d 6d bd 8f 38 17 be d5 82 1d be
       -0.076124564 -0.057919603 -0.14767669 -0.1538194
0000e0 83 d9 07 3e 16 eb 0d bd 39 21 2c be 6c 1a 8e bd
       0.13266568 -0.034648024 -0.16809548 -0.06938633
0000f0 de 5a 08 3e e0 11 36 bd ae 75 bf bd 08 bb e3 bd
       0.13315913 -0.04445064 -0.093486175 -0.11119658

critic.2.weight f4 [64, 64]
000000 6f 48 9d bc 9a 19 13 3e d3 65 05 bd 42 d2 a2 bb
       -0.019199578 0.14365235 -0.03256781 -0.0049689123
000010 95 ad 22 bd b1 97 ac bc 0c 2b 01 be 45 82 b7 3d
       -0.039716322 -0.021068426 -0.12614077 0.08960394
000020 aa 25 87 3d 84 c4 93 be 41 98 89 bc 88 85 85 3e
       0.06598981 -0.28860867 -0.016796233 0.2607844
000030 c4 3a 44 bc 87 9f e8 3d 22 e5 a3 3d 79 38 3e 3e
       -0.011976901 0.113585524 0.08002688 0.1857623
000040 07 c7 1c 3d 4c c0 e5 3d df 6e 9b be 23 d2 f5 3d
       0.038275745 0.11218318 -0.30358025 0.12002971
000050 ce 48 38 be e0 ab 64 3d b4 2d 35 3d 8b a6 f2 3d
       -0.17996523 0.055827975 0.04423304 0.11848172
000060 d2 98 82 bc 28 b0 af bd 52 86 c8 bd 91 47 86 3d
       -0.015942011 -0.08578521 -0.097912446 0.06556619
000070 51 30 61 be c9 b2 9e 3d de ef 95 bc 1f a8 15 3c
       -0.21991087 0.07748944 -0.018302854 0.0091343215
000080 c9 6d 4d 3d 31 18 95 bd e0 b7 9d 3d fc 39 e7 3d
       0.050153527 -0.07280005 0.07701087 0.112903565
000090 e3 db 15 be 79 fb af 3d 62 59 85 be 0f cc c6 bd
       -0.14634661 0.085928865 -0.26044756 -0.0970689
0000a0 b5 b1 f1 3a 1e 66 d6 3d a0 21 34 3e 5b 0a f8 be
       0.0018439802 0.10468696 0.17590952 -0.484454
0000b0 48 84 8f be 78 90 e6 bd e5 0f 0f 3e 51 e9 ee bd
       -0.2803061 -0.11258024 0.13970907 -0.11665595
0000c0 10 5e 02 3e 57 16 88 3d b9 18 8d 3d 85 99 53 3e
       0.12731194 0.06644886 0.06889481 0.20664032
0000d0 48 2f 09 3d 0e 35 3c bd 5a 3b cc bd c1 7d 17 3d
       0.033492357 -0.045949034 -0.09972258 0.036985163
0000e0 7d 6c 50 bc 37 80 14 3d 1c ab 1b 3e d1 a5 24 be
       -0.012721178 0.036255088 0.15201992 -0.16078879
0000f0 7b 50 30 3e 95 94 32 3d a1 2b 63 3c 9f 92 e3 3d
       0.17218201 0.04359873 0.013865382 0.1111195
000100 e0 49 6d bc 87 1e 00 bb 95 00 92 bc f1 b3 b6 bc
       -0.014482945 -0.0019549446 -0.017822543 -0.0223026
000110 3d 9b ca bd 84 f1 8e bd b9 5d ce bd b0 63 d0 3d
       -0.098928906 -0.06979659 -0.1007647 0.10175264
000120 83 75 5d bd c2 51 f9 bd 9d ec d4 bd 87 0e d4 bd
       -0.054067146 -0.12173797 -0.10396693 -0.10354333
000130 20 a6 23 bd 08 9e ab bd b9 b4 d7 bd 01 29 64 bd
       -0.03995335 -0.083797514 -0.10532517 -0.055703167
000140 41 ea a8 3d 3c 9b e3 bd 19 73 f4 bc 36 b0 c8 3d
       0.082478054 -0.11113593 -0.02984004 0.097992346
000150 e0 46 84 3d c4 1e 62 3c e5 50 0d 3d a6 43 6d bd
       0.06458831 0.01380128 0.034500975 -0.057925843
000160 0d 1d e8 bd 25 40 dd bd d1 d3 b6 bd d4 13 9c 3d
       -0.11333666 -0.1080325 -0.089271195 0.076209694
000170 c7 aa 59 bc 8b c9 eb bd f4 de e3 bd a6 1a 3e bd
       -0.013285345 -0.11513051 -0.11126509 -0.046412133
000180 32 34 90 3d 57 9f ba ba d2 11 f0 3b 47 b3 26 bd
       0.070412055 -0.0014238161 0.007326343 -0.040698316
000190 51 12 ac bc 80 7c 5d 3d 39 82 d1 3c 7e 63 fa bc
       -0.021004828 0.05407381 0.02557479 -0.03056502
0001a0 50 cf ff 3d 74 64 96 3d 29 20 f3 3c 97 06 fb 3c
       0.124907136 0.07343379 0.029678421 0.03064279
0001b0 01 ab 77 3d 0d 85 01 bd 77 b0 0d 3c 31 a1 8b bd
       0.060465816 -0.031621028 0.0086480295 -0.06817854
0001c0 94 91 66 bd 9f c7 a7 bc 36 98 c8 bd d1 6b 91 3d
       -0.056291178 -0.020480929 -0.09794657 0.071006425
0001d0 74 07 cf bd f9 c5 c0 bd 62 af fb bc fa 1b 88 3d
       -0.101088434 -0.0941276 -0.030723277 0.06645961
0001e0 4f 63 9b bd 22 4b 02 bd 26 8a 65 3d cb e1 d7 bd
       -0.07587301 -0.031809933 0.05603995 -0.105411135
0001f0 27 85 ac 3d 4a c1 1d 3d 62 9f a3 3b 34 e6 45 bc
       0.08423834 0.038514413 0.004993365 -0.0120788105
000200 91 9a a7 3d 4d 48 0c be 1d 96 15 be b2 61 11 3e
       0.08183778 -0.13699456 -0.14608045 0.14197424
000210 77 86 78 be e2 1d a9 3d c6 12 14 be 88 fb a0 3d
       -0.24270044 0.08257653 -0.14460286 0.07860476
000220 2e dd 2a be 94 98 02 3e 42 f1 14 bb 20 39 0a 3e
       -0.16685936 0.12753516 -0.0022726809 0.13498354
000230 7f 1b 39 be 2e 89 5c be 43 ab 6c 3b 85 43 e5 3d
       -0.18076895 -0.21536705 0.0036112822 0.11194519
000240 05 89 18 bd 80 16 e5 3c 71 10 a5 bc 2e 05 0d bd
       -0.037240047 0.02796483 -0.020149441 -0.034428768
000250 d0 33 26 3e 35 91 67 3c c1 d2 83 3d 44 fd 40 3e
       0.16230702 0.014133741 0.064366825 0.18846613
000260 a5 7f 98 be 0d c7 8c bb 92 99 8e 3d 12 17 4a 3d
       -0.29784885 -0.0042961896 0.06962885 0.049338408
000270 18 88 14 3e b7 a0 32 be e6 5e 8e 3c 24 77 ba be
       0.1450504 -0.1744412 0.017379235 -0.36419022
000280 03 5f 20 be 84 32 21 bc 81 39 6d 3c 32 41 17 be
       -0.15661244 -0.009838704 0.014479042 -0.14770964
000290 a4 c4 d6 3d a6 40 ed bc b4 eb 2e 3d 46 3b 0a be
       0.10486725 -0.02896149 0.042705253 -0.13499174
0002a0 f0 97 0f 3e 74 ac 19 be 10 d5 73 3d 98 01 57 3d
       0.14022803 -0.15007192 0.059529364 0.052491754
0002b0 7d 7e 94 3d 47 0d 11 be 9f 0d 8d 3c 8a 06 5a 3e
       0.07250688 -0.14165221 0.01721841 0.21291557
0002c0 8f 3c 66 3e f5 69 01 be f9 93 01 be 98 1a 8f be
       0.22484039 -0.12638076 -0.12654103 -0.27949977
0002d0 bc c7 12 3e 3b f3 30 be cc 3f 8a bc f0 42 d9 3d
       0.14334005 -0.17280285 -0.016876124 0.106084704
0002e0 f8 ef 58 be de 2f b4 bc 4c 42 16 be 5b 55 b5 3d
       -0.21185291 -0.021995481 -0.14673728 0.08854171
0002f0 f3 0e 90 be 21 ec 9f 3d fd 86 28 be ea 64 40 be
       -0.28136405 0.0780871 -0.16457744 -0.18788496
000300 32 62 bb b9 8a 76 d7 3c b8 0f f6 bd f8 06 b5 bc
       -0.0003574058 0.026301641 -0.12014717 -0.02209805
000310 df 10 14 3c e4 a3 b9 bd 86 c7 cf 3c 42 48 d3 bc
       0.0090372255 -0.09064463 0.025363695 -0.025791291
000320 37 e9 6b bd 9b 01 54 bd 9e e8 8d 3c 41 32 d7 bd
       -0.057595458 -0.051759344 0.017322835 -0.10507632
000330 b6 12 50 bc f8 bb 15 be 68 5a 17 3e ed 74 c8 3d
       -0.012699774 -0.14622486 0.14780581 0.09787927
000340 fa 44 63 bb fb a5 9d bd ac e8 dd bd a2 e3 10 3d
       -0.0034678564 -0.07697674 -0.10835394 0.035373338
000350 4c 7b 17 3d 70 0d 10 3e 43 3b bf bd f4 98 d6 3c
       0.03698282 0.14067626 -0.09337475 0.02619598
000360 a1 09 19 bd b0 57 b2 bd 0b dd cb 3b 41 a2 0a bd
       -0.0373627 -0.08708131 0.0062214187 -0.033846144
000370 fe f5 f7 3c 7c dd f6 bd f0 f1 28 3d ba d0 59 bd
       0.030268665 -0.120539635 0.041246355 -0.053177573
000380 d8 a8 3b bd cc 6b 71 3d e8 a6 4a bc 64 2b 36 be
       -0.04581532 0.058940694 -0.012368895 -0.1778999
000390 30 04 95 3c ab 65 0a be 8b 46 5b bd 5f 73 f1 bd
       0.018190473 -0.13515346 -0.053534072 -0.117895834
0003a0 1f 39 43 bd bf db a9 3d 62 13 cf bd 7f 19 6a 3d
       -0.047661897 0.08293866 -0.10111119 0.05715322
0003b0 33 38 93 bd f5 b9 99 3d af 87 d1 bc f5 5f a1 bd
       -0.071884535 0.075061716 -0.025577394 -0.078796305
0003c0 53 3a 14 be 63 08 ae 3c 67 9d 80 bd d3 97 f5 bd
       -0.14475374 0.021244233 -0.06280022 -0.11991849
0003d0 83 fc d5 3a ea f9 d2 bc a2 7f 45 bd ca 06 03 3e
       0.0016325865 -0.025753934 -0.048217423 0.12795559
0003e0 9f b9 84 bd 4a 50 95 3c bd 5f d6 bd 90 2d 4e be
       -0.06480717 0.018226761 -0.104674794 -0.20134568
0003f0 63 16 90 bd 32 9c 2f be 29 39 e8 3d 10 99 6b 3d
       -0.0703552 -0.17149428 0.113390274 0.05751902

critic.2.bias f4 [64]
000000 c1 e4 90 3d 58 58 9a bd a0 08 93 3d ea c8 8b bd
       0.07074881 -0.075363815 0.071793795 -0.06825431
000010 ce f7 73 3c 6e c0 25 be 53 e0 8f bd 15 81 22 be
       0.014890624 -0.16186687 -0.07025208 -0.15869553
000020 f3 04 b4 bd 0c aa 05 be d2 71 54 bd 9a ca 15 3d
       -0.087900065 -0.13053149 -0.05186636 0.03657017
000030 6b ac 7e bd 56 b8 c7 bc dc 77 a2 bd 56 9f 14 3e
       -0.06217615 -0.02437989 -0.079330176 0.14513907
000040 49 f0 7d bd b5 a5 3b be 98 6c e8 bb 4e 36 8b bd
       -0.061996732 -0.18324931 -0.0070930235 -0.06797467
000050 ba ac d6 3c fa 01 17 bd d8 8b 73 be 4f c5 26 be
       0.02620541 -0.03686712 -0.23783815 -0.16286205
000060 cb 76 4b 3c 3a 02 01 be 70 4b d4 bd 4d f4 e4 bd
       0.012418459 -0.12598506 -0.10365951 -0.11179409
000070 5a 1b 58 bd a1 e9 d9 bc 63 77 c1 bd 86 c5 8c bd
       -0.05276046 -0.02660066 -0.09446599 -0.06873612
000080 d1 4c 05 be 8c 39 d6 bd 54 02 38 3e 7c a5 ed 3d
       -0.13017584 -0.10460195 0.17969638 0.11603829
000090 36 1d 19 be fc 6e 16 bd f3 15 01 bd 75 16 96 bd
       -0.1495255 -0.036726937 -0.031515073 -0.07328502
0000a0 30 b2 88 bc 5c 47 93 bd e6 30 a4 3c 56 62 1a bd
       -0.016686529 -0.07191345 0.020042848 -0.037691437
0000b0 d3 8e 1f 3d b4 b5 44 3c 93 31 aa bd a5 3f 85 bd
       0.038954567 0.012006212 -0.08310237 -0.0650628
0000c0 b9 06 26 be 34 a3 42 ba 35 86 65 3d 4e 64 94 bd
       -0.16213502 -0.0007424832 0.056036193 -0.07245694
0000d0 c7 3f e8 bd d4 d4 0c be 18 ae b9 bd fb 0d 3c 3c
       -0.113402896 -0.13753062 -0.09066409 0.011477943
0000e0 fa 17 1f bd d4 32 58 bd 9c b9 40 be 5c 01 dc bd
       -0.038841225 -0.05278285 -0.18820804 -0.10742447
0000f0 d7 b8 04 be df bf 88 bd 7c c3 20 bc ca c1 db bd
       -0.12961136 -0.066772215 -0.009812232 -0.10730322

critic.4.weight f4 [1, 64]
000000 2a 88 4e bd d7 90 fa 3c 15 b0 85 3d 96 57 b3 3c
       -0.050422825 0.030586643 0.065277256 0.02189235
000010 a2 1e bd bd be a5 16 be 97 4a d5 bc d4 58 a5 3d
       -0.09234358 -0.14711663 -0.026036544 0.08073583
000020 de 23 c8 3c 42 23 80 3b 42 b3 de 3b 21 43 d9 3c
       0.024431165 0.003910453 0.0067962715 0.026521267
000030 12 38 d2 3b 5a fc cf 3c 22 fb 2c bd d4 30 26 be
       0.0064153755 0.025388885 -0.042231686 -0.16229564
000040 45 2f 3c bd 93 01 81 3c b9 f8 ae 3b 4c 71 ea 3c
       -0.045943517 0.015747821 0.0053397086 0.028618477
000050 f6 2a f3 3a d6 a2 1c 3c ac 80 72 3c 15 63 42 3d
       0.0018552232 0.0095603075 0.014801186 0.047457773
000060 3a 5c e7 bc f3 6c a0 bc 8e 74 86 ba 5a 5e ca 3b
       -0.02824222 -0.019583201 -0.0010258125 0.0061757984
000070 4f 99 22 bc cd 67 85 3b 35 13 84 3d 69 a9 98 3c
       -0.009924247 0.004071212 0.06448976 0.018635469
000080 6c 2e 9c bc 14 c2 90 3d c1 de 3f bd c2 b1 39 3e
       -0.019065104 0.070682675 -0.046843294 0.18134215
000090 71 04 ab 3a 79 53 09 bd 62 ef d4 bd 20 ea 7a 3d
       0.0013047588 -0.03352687 -0.10397221 0.061258435
0000a0 3f d7 13 bd 4e 88 17 3b 0c bc a6 3d fb 04 88 3c
       -0.036093947 0.0023122015 0.08141336 0.016603937
0000b0 67 09 a7 bc 60 c4 09 3d 70 c4 11 3d b5 dd c3 bb
       -0.020390226 0.033634543 0.035587728 -0.0059773573
0000c0 e9 21 a7 3c 10 d4 4d 3c fe 91 e7 39 97 64 ab 3d
       0.020401912 0.012562767 0.00044168526 0.08368795
0000d0 18 5d 73 3d 9c 62 3c 3b 5e 92 39 39 e0 7d 84 3a
       0.059414953 0.00287453 0.00017697501 0.0010108314
0000e0 bc 36 a8 3c ae f6 59 bd f2 71 bb bc dc 76 89 bd
       0.020533912 -0.053213768 -0.022881482 -0.06712124
0000f0 3b cc d7 bc 08 45 b4 3c f8 ad 8b bd 03 3a 11 bd
       -0.026342502 0.022005573 -0.06820291 -0.035455715
