RL/CC2-Cardiff-implementation/GT-Cardiff-CC2/Models/PPOxCCE-C4/8000.pth (torch, 78850 bytes, 11 tensors)

actor.0.weight f4 [64, 62]
0	0xba7940ed	-0.0009508271
1	0x3d8b86e7	0.0681284
2	0xbdd6122a	-0.10452683
3	0xbdbf6a3c	-0.093464345
4	0x3e18b784	0.14913756
5	0x3ea5dd7e	0.32395548
6	0xbe9cf03e	-0.3065204
7	0xbe9e9992	-0.3097654
8	0xbcb946c0	-0.022616744
9	0xbd8627e2	-0.06550576
10	0xbe0e5362	-0.13898996
11	0xbe95ebef	-0.29281566
12	0xbf369024	-0.7131369
13	0xbe63f60c	-0.22261828
14	0xbd1144ee	-0.035466127
15	0x3d81fa7f	0.063466065
16	0x3d4da681	0.05020762
17	0x3d9c104d	0.076202966
18	0xbdb05477	-0.086098604
19	0xbd628646	-0.055303834
20	0x3d3cf15d	0.04612862
21	0x3dd7fb15	0.10545937
22	0xbcd61c86	-0.026136648
23	0x3dc2a212	0.09503569
24	0xbca7b158	-0.020470306
25	0x3c5c2cc0	0.013438404
26	0x3deb82cf	0.11499559
27	0xbdf14899	-0.11781425
28	0xbf363baf	-0.7118482
29	0xbe41b864	-0.18917996
30	0x3b7aa717	0.0038246566
31	0x3e5bd1cd	0.21466751
32	0xbda896cf	-0.082318895
33	0xbd6f7633	-0.058462333
34	0xbdb5b6b9	-0.08872742
35	0xbdf39894	-0.11894336
36	0x3d7ab3ad	0.06120651
37	0x3ed29f6c	0.41137254
38	0x3e37126c	0.17878121
39	0x3e090737	0.13381658
40	0xbd9c962e	-0.07645832
41	0xbed7d1b4	-0.42152178
42	0x3d4fd245	0.050737638
43	0xbe306285	-0.17225082
44	0x3dd638de	0.10460065
45	0x3df4628b	0.11932858
46	0x3e131d64	0.1436668
47	0x3ddd749f	0.10813259
48	0x3deeddc8	0.11663395
49	0xbd0ec2af	-0.034853633
50	0x3d46c14d	0.04852419
51	0x3e610ce0	0.21977568
52	0x3d4e7484	0.050404087
53	0xbc9ac28f	-0.0188916
54	0x3e7d84de	0.24757716
55	0x3cddf8e3	0.027096217
56	0x3e04a791	0.12954547
57	0xbdc9a770	-0.09846389
58	0x3d6f5940	0.058434725
59	0x3de3f8bc	0.11131427
60	0x3ded370e	0.115827665
61	0x3e325c73	0.17418079
62	0xbd9a1194	-0.07522884
63	0x3d1d2763	0.03836764
64	0x3d8ec91b	0.069719516
65	0xbc83508d	-0.01602962
66	0x3d95964f	0.0730406
67	0xbde61fa0	-0.11236501
68	0x3dcad797	0.09904402
69	0xbdd7a8da	-0.10530253
70	0xbf21a113	-0.63136405
71	0xbf03c011	-0.51464945
72	0x3ef5ec58	0.48031878
73	0x3f5ee9c6	0.8707546
74	0x3c9cabee	0.019124951
75	0x3d864fb5	0.06558172
76	0xbd1536ac	-0.036429092
77	0xbe1ec6ef	-0.15505575
78	0x3c3f6a4d	0.011683059
79	0xbda2b7b5	-0.079451956
80	0xbdf265d5	-0.11835829
81	0x3de717f4	0.112838656
82	0x3dc5c448	0.09656578
83	0xbe01ba05	-0.12668617
84	0x3cc2bb23	0.023770874
85	0xbcaf4366	-0.021394443
86	0xbcab34fb	-0.020899286
87	0xbd6e1f27	-0.058135178
88	0x3d480b12	0.048838682
89	0xbd9a0e51	-0.07522262
90	0x3d80fffb	0.062988244
91	0xbdd245f8	-0.10267252
92	0x3dfc37cd	0.12315331
93	0x3eab6416	0.33474797
94	0xbe00b695	-0.1256965
95	0xbda8b940	-0.08238459
96	0x3d81deb6	0.06341307
97	0x3cd9c105	0.026581297
98	0xbdfa4328	-0.1221984
99	0x3bd7796d	0.0065757544
100	0x3e1fd779	0.1560954
101	0x3e9fb567	0.31193087
102	0xbe643f40	-0.22289753
103	0xbdbf20ae	-0.09332405
104	0xbd11c1ee	-0.035585336
105	0xbdd905b3	-0.1059679
106	0xbdd855e4	-0.10563257
107	0xbe03533c	-0.1282472
108	0xbcfaff81	-0.030639412
109	0xbd1caa75	-0.038248498
110	0xbe0d5417	-0.13801609
111	0xbbdfcac3	-0.006829591
112	0xbe4852ba	-0.19562808
113	0x3c54ae72	0.012981044
114	0x3db23e72	0.08703317
115	0xbe51c464	-0.20485073
116	0xbc219f09	-0.009864577
117	0xbd6f0794	-0.058356836
118	0xbdf046da	-0.11732264
119	0x3cf6c0a8	0.030121163
120	0x3e1a533d	0.15070815
121	0x3ba3638f	0.0049862335
122	0xbe1dffe1	-0.15429641
123	0xbd9122f8	-0.07086748
124	0xbdf97f3e	-0.12182473
125	0xbd9a2929	-0.07527382
126	0xbd02383f	-0.03179192
127	0xbd7d6489	-0.061863456
128	0xbd553517	-0.052052584
129	0x3d5a1817	0.05324563
130	0xbec9dbf9	-0.39425638
131	0xbf23dd78	-0.6400981
132	0xbf109572	-0.56478035
133	0xbe472b6d	-0.1945016
134	0x3ea95506	0.3307268
135	0x3eb36e72	0.350452
136	0x3ee9cbc9	0.45663288
137	0x3e286920	0.16446352
138	0x3d06f6e3	0.032950293
139	0x3e7271b1	0.23676182
140	0x3df6600c	0.12030038
141	0x3da52cf8	0.08065218
142	0x3df6f05c	0.12057564
143	0xbc167c17	-0.009184859
144	0xbde9a66a	-0.11408694
145	0xbd769c86	-0.060207866
146	0x3db119d4	0.086475044
147	0xba57d11e	-0.000823276
148	0xbd8147a7	-0.06312495
149	0xbdc75098	-0.09732169
150	0xbdf3695f	-0.11885332
151	0xbddb85fc	-0.10718915
152	0x3eb2462c	0.34819162
153	0x3dec9012	0.11550917
154	0x3e1e4399	0.15455474
155	0xbe84b495	-0.25919023
156	0x3da23e4e	0.0792204
157	0xbdcb871c	-0.099378794
158	0xbcdbf2b6	-0.026849132
159	0xbd52ec80	-0.051495075
160	0xbe810c03	-0.25204477
161	0xbedabefc	-0.42723835
162	0xbeaa057c	-0.3320731
163	0xbec0ab47	-0.37630674
164	0x3d8edac7	0.06975322
165	0xbcd6aee1	-0.026206436
166	0x3d9959ec	0.07487854
167	0x3def07fd	0.116714455
168	0xbeab35ff	-0.33439633
169	0xbe421d5c	-0.18956512
170	0x3e4852da	0.19562855
171	0x3e774429	0.24147095
172	0xbd1b9581	-0.037984375
173	0x3c98b5a3	0.018641299
174	0x3d595e57	0.053068485
175	0xbc6285da	-0.013825858
176	0xbc701bff	-0.014655112
177	0x3dfe4d8f	0.12417137
178	0x3c85a964	0.016316123
179	0x3d56ed06	0.052472137
180	0xbce98954	-0.028507866
181	0xbcd9d2f6	-0.026589852
182	0x3d60dc28	0.054897457
183	0xbce4b67c	-0.027919047
184	0x3e234141	0.15942861
185	0xbde8754b	-0.11350497
186	0xbcfa2fb0	-0.030540317
187	0xbcdacc74	-0.026708819
188	0xbdd6572a	-0.10465844
189	0x3d8cee7f	0.06881427
190	0xbd57d002	-0.052688606
191	0x3cf98739	0.030459987
192	0xbe2527e7	-0.16128503
193	0xbeb254c5	-0.348303
194	0x3e8a7a97	0.27046654
195	0x3ec87a28	0.39155698
196	0xbeb6d897	-0.3571212
197	0xbee18597	-0.44047233
198	0x3d7d7b16	0.061884962
199	0x3d040b62	0.032237418
200	0xbcc8936c	-0.024484359
201	0x3ea928c5	0.33038917
202	0xbdc49caa	-0.09600194
203	0xbdb28f2c	-0.08718714
204	0xbd970724	-0.07374409
205	0x3db60cd1	0.08889163
206	0xbd3afdb2	-0.0456521
207	0x3ddb6364	0.10712317
208	0x3d3c1b05	0.045924205
209	0x3c83bd64	0.01608152
210	0xba77d42e	-0.00094539195
211	0xbccdaa38	-0.02510558
212	0x3c828887	0.015934242
213	0xbced90fe	-0.028999802
214	0x3ebaa035	0.36450353
215	0xbd16abd2	-0.036784954
216	0xbea5c31a	-0.32375413
217	0xbe67f1e4	-0.22650868
218	0x3dd2069d	0.10255168
219	0xbdd3148b	-0.10306653
220	0xbc156984	-0.009119395
221	0x3e00a60e	0.12563345
222	0x3e20e2b1	0.15711476
223	0x3d3d249d	0.046177495
224	0xbe521aa5	-0.20517977
225	0xbe9fe055	-0.3122584
226	0xbd4d4fa7	-0.05012479
227	0xbe847175	-0.2586781
228	0x3d227b8e	0.039668612
229	0x3d8b527a	0.068028405
230	0x3e08f7eb	0.13375823
231	0x3e94517a	0.28968412
232	0x3e045a31	0.1292503
233	0x3e6aa813	0.22915678
234	0xbaa0ae6a	-0.0012259011
235	0xbdf66d98	-0.12032622
236	0x3e21710f	0.15765785
237	0xbd57f060	-0.052719474
238	0xbd5c787d	-0.053825844
239	0x3e1596dc	0.1460833
240	0x3d3d17fd	0.046165455
241	0x3e87a8a4	0.2649585
242	0x3e690ba4	0.22758347
243	0x39552f82	0.00020330961
244	0xbd006bd6	-0.03135284
245	0xbd0dea87	-0.03464749
246	0x3eb93fe3	0.36181554
247	0xbe28b06a	-0.16473547
248	0x3ae56cfc	0.0017503793
249	0xbcb0e205	-0.02159215
250	0xbd88fc54	-0.06688753
251	0x3c89823e	0.016785737
252	0x3e52787e	0.20553777
253	0x3da52111	0.080629475
254	0xbd9407fd	-0.07228086
255	0x3d95c936	0.073137686

actor.0.bias f4 [64]
0	0x3dbb9af3	0.091604136
1	0xbc11efe4	-0.008907292
2	0x3c5f12c3	0.013615313
3	0x3d66966f	0.05629581
4	0xbd901db8	-0.070369184
5	0xbe0c8988	-0.13724339
6	0x3cba072f	0.022708504
7	0x3d857338	0.06516117
8	0x3e3f4db7	0.1868199
9	0x3bf7dd00	0.007564187
10	0x3d0cd696	0.034384333
11	0xbd85d0ba	-0.06533952
12	0xbd8f79a9	-0.07005627
13	0xbc4b784d	-0.012418819
14	0x3c8f29f4	0.01747606
15	0xbc3091fb	-0.010776992
16	0xbe32c1ed	-0.1745679
17	0x3de17943	0.11009457
18	0xbd760e9b	-0.060072523
19	0xbd5000d6	-0.050782047
20	0xbdbcedac	-0.0922502
21	0xbe173ac8	-0.14768517
22	0x3d3f79e8	0.04674712
23	0xbd005f4e	-0.03134089
24	0x3cb5398f	0.022122173
25	0x3db762d5	0.089543976
26	0x3d120e6f	0.035658296
27	0xbdd6a222	-0.10480143
28	0x3cb71156	0.022347134
29	0xbe1f4e10	-0.15557122
30	0xbd2f29a6	-0.04276433
31	0x3dfe41cb	0.12414893
32	0x3d857670	0.06516731
33	0xbdaf9fa3	-0.0857537
34	0x3e0d4651	0.13796355
35	0xbe638956	-0.22220358
36	0x3e35a826	0.17739925
37	0x3e209d47	0.15684997
38	0xbd9e75f9	-0.07737345
39	0xbe6902c8	-0.22754967
40	0x3e13da9b	0.1443886
41	0xbcb62bce	-0.022237685
42	0xbdaee4f6	-0.085397646
43	0x3c343442	0.010998787
44	0x3e02894d	0.12747689
45	0x3de1d7e2	0.110275045
46	0xbe04206c	-0.12902993
47	0x3d00173c	0.031272158
48	0x3e67a937	0.22623144
49	0x3d2cee9e	0.04221975
50	0x3dab1b8f	0.08354866
51	0xbe8362f3	-0.2566143
52	0x3e0e3830	0.13888621
53	0x3d77d81d	0.060508836
54	0x3e38835a	0.18018857
55	0xbdca2291	-0.09869874
56	0x3de42742	0.111403
57	0xbc9e1eb0	-0.019301742
58	0xbe1f5243	-0.15558724
59	0xbdec7e66	-0.11547546
60	0xbd184e7b	-0.03718422
61	0xbe29c777	-0.16579996
62	0xbe258bc3	-0.16166596
63	0xba88a734	-0.0010425807

actor.2.weight f4 [64, 64]
0	0xbd87f23c	-0.066379994
1	0xbe067570	-0.13130736
2	0x3db502f8	0.08838457
3	0xbd9b77c8	-0.07591206
4	0xbb21d60f	-0.002469424
5	0x3db42d3d	0.08797691
6	0xbd06ce32	-0.032911487
7	0xbda7c936	-0.08192675
8	0xbe0d5940	-0.13803577
9	0x3b8fede4	0.0043923724
10	0xbd80737c	-0.06272027
11	0x3c155a30	0.009115741
12	0x3d238b2c	0.039927647
13	0xbd541ad0	-0.051783383
14	0x3dad949a	0.08475609
15	0xbd088a30	-0.03333491
16	0xbd4c5520	-0.04988587
17	0xbdcc3fef	-0.09973132
18	0x3d1b5778	0.037925214
19	0xbd9e45f6	-0.07728188
20	0x3cd740e8	0.026276067
21	0xbd085419	-0.033283327
22	0x3dafeff2	0.08590688
23	0xbd9fb790	-0.07798684
24	0xbd7c38fc	-0.061577782
25	0xbd07cc25	-0.03315367
26	0xbdbfb688	-0.09360987
27	0x3cf98c16	0.030462306
28	0xbd74ffac	-0.05981414
29	0x3d0d5cd6	0.034512363
30	0x3d62a437	0.05533239
31	0x3d793d61	0.06084955
32	0xbd241edf	-0.040068503
33	0x3d4ea2d7	0.050448265
34	0xbdacc13e	-0.084352955
35	0xbdff10c0	-0.12454367
36	0xbcf23555	-0.029566446
37	0xbdd29c63	-0.10283735
38	0xbdc65494	-0.09684101
39	0x3d022600	0.03177452
40	0x3dc1d361	0.094641455
41	0xbd80c063	-0.06286695
42	0xbcc3d1e6	-0.023903798
43	0xbde0ea46	-0.10982184
44	0x3b959c68	0.004565764
45	0x3c8a3b24	0.016873904
46	0xbd002b00	-0.031291008
47	0x3da0519b	0.07828065
48	0xbdf0ac5c	-0.11751625
49	0xbd09f539	-0.03368113
50	0xbda6e05a	-0.081482604
51	0x3dbfe7ea	0.09370406
52	0x3db50b32	0.08840026
53	0x3ddae647	0.10688453
54	0x3dc7e3cb	0.09760245
55	0x3d4ac7f0	0.04950708
56	0xbdc405de	-0.095714316
57	0xbdada61c	-0.084789485
58	0x3cf57a08	0.029965416
59	0xbe03aed7	-0.12859665
60	0x3d891dab	0.06695112
61	0x3d5e9698	0.054342836
62	0x3c4afa6d	0.012388808
63	0xbe01179f	-0.12606667
64	0x3e972a79	0.29524592
65	0xbcd3729d	-0.025811488
66	0xbe2087c1	-0.15676786
67	0x3e06b525	0.13155039
68	0xbd0b845d	-0.03406178
69	0xbd4b3476	-0.049610578
70	0x3de1db79	0.11028189
71	0x3e4aa0cf	0.19787906
72	0x3e39e669	0.18154301
73	0xbe324671	-0.17409684
74	0x3e11a2d0	0.14222264
75	0x3e805b0e	0.2506947
76	0xbdd8aa08	-0.10579306
77	0xbe8b8478	-0.27249503
78	0x3e0bea33	0.13663559
79	0x3d86824a	0.065678194
80	0xbd9e33a6	-0.07724695
81	0x3e338963	0.17532878
82	0x3d65b081	0.05607653
83	0x3ddd8e3f	0.10818147
84	0xbd7fff3f	-0.06249928
85	0x3e49ee17	0.1971973
86	0xbcbedf92	-0.023299966
87	0xbe247409	-0.16059889
88	0x3e7a7055	0.24456914
89	0xbdef8fb2	-0.116973296
90	0xbe431c28	-0.1905371
91	0x3dc6894f	0.09694158
92	0x3d805943	0.06267025
93	0x3e578b30	0.2104919
94	0xbe53311e	-0.20624205
95	0x3cecd30a	0.028909225
96	0xbe6999cf	-0.2281258
97	0x3c83e5ad	0.016100729
98	0x3e753abb	0.23948185
99	0xbd0b67dc	-0.034034595
100	0xbc1260a8	-0.008934177
101	0xbd2f7621	-0.042837266
102	0x3e3fdecb	0.18737333
103	0xbd1ad01d	-0.03779613
104	0xbd2a1dd2	-0.041532345
105	0x3da949c3	0.08266022
106	0x3e3731e6	0.17890128
107	0xbd93d6d1	-0.07218707
108	0x3e761566	0.240316
109	0x3d18bbb8	0.037288398
110	0x3e162d56	0.14665732
111	0xbd8b0579	-0.06788153
112	0x3bee1848	0.007266078
113	0x3ee0a787	0.43877813
114	0xbdc46566	-0.09589653
115	0xbda2ef2f	-0.07955777
116	0xbe838eb6	-0.25694817
117	0x3e012463	0.12611537
118	0x3deb549f	0.114907496
119	0x3ddba2fb	0.107244454
120	0x3e46385f	0.19357441
121	0xbe838b33	-0.25692138
122	0x3e46d743	0.19418053
123	0x3e2b0838	0.16702354
124	0x3ddc1d94	0.10747829
125	0xbd51abf3	-0.051189374
126	0x3d823cb2	0.06359233
127	0x3eccd7e7	0.4000847
128	0xbf1522a4	-0.5825598
129	0x3e7eb940	0.24875355
130	0x3e635bbd	0.22202964
131	0x3d9a5fa3	0.075377725
132	0x3e981f63	0.29711446
133	0x3e5120ad	0.20422621
134	0x3e307e64	0.17235714
135	0xbf29cfbf	-0.6633262
136	0xbd741658	-0.05959162
137	0x3d09edc5	0.03367402
138	0xbe5a8e58	-0.21343362
139	0xbe7814fe	-0.24226758
140	0xbe284890	-0.1643393
141	0x3e933df9	0.2875822
142	0xbd713421	-0.058887605
143	0xbb914728	-0.0044335313
144	0x3d081db5	0.033231456
145	0xbddf48cd	-0.109025575
146	0x3ed824ab	0.42215475
147	0x3e2dedd8	0.16985261
148	0x3eaca634	0.33720553
149	0xbe169684	-0.14705855
150	0xbe0b5d71	-0.13609864
151	0xbe74a8fa	-0.23892584
152	0xbe0dcc86	-0.13847551
153	0x3e0dc17e	0.13843343
154	0x3eb30d7e	0.3497123
155	0xbd21ffeb	-0.039550703
156	0x3e91c4ea	0.28470546
157	0x3dcf210a	0.101137236
158	0x3e87cd2c	0.2652372
159	0x3ecaab61	0.39583877
160	0x3d87ca74	0.06630412
161	0x3e9bb720	0.3041315
162	0xbe028e65	-0.12749632
163	0xbe149298	-0.14509046
164	0xbe3b4203	-0.182869
165	0x3e596c3e	0.21232697
166	0x3dc88859	0.09791631
167	0xbe4e5a26	-0.20151576
168	0x3d8e97cc	0.06962547
169	0x3db07b02	0.08617212
170	0xbcf51198	-0.029915616
171	0x3d9bd4e7	0.07608967
172	0x3d8506d6	0.064954445
173	0x3ec65bff	0.38742062
174	0xbbd67909	-0.0065451902
175	0x3e825166	0.25452727
176	0xbd47954a	-0.048726358
177	0xbdae70a3	-0.085175775
178	0x3e28ddd2	0.16490868
179	0x3e3ef3ff	0.18647765
180	0xbe7166f6	-0.23574433
181	0xbe8fa872	-0.280582
182	0xbe258655	-0.16164525
183	0xbc54e8e0	-0.012994975
184	0xbd11a94e	-0.035561852
185	0x3ed6b07e	0.41931528
186	0x3e00ad91	0.1256621
187	0xbd69bbb0	-0.05706376
188	0x3e3e4496	0.18580851
189	0x3d627709	0.055289302
190	0xbdd6a5a2	-0.10480811
191	0xbe4321c0	-0.19055843
192	0x3d1806d7	0.037115898
193	0x3eb556bc	0.35417736
194	0x3ea4fa7b	0.3222235
195	0xbbe1d3ec	-0.006891718
196	0x3c1c1fff	0.009529113
197	0xbcfd3e99	-0.030913638
198	0xbe18aeae	-0.14910385
199	0x3d266d76	0.040631734
200	0x3dc8750b	0.09787949
201	0x3e7d773c	0.24752516
202	0xbe5f8de5	-0.21831472
203	0xbdc83e8d	-0.097775556
204	0xbe4c2f50	-0.19939923
205	0x3e4532b1	0.19257618
206	0xbe113c6a	-0.14183202
207	0x3d6dbda3	0.05804218
208	0xbd273d0d	-0.040829707
209	0x3c963348	0.018335
210	0x3db3e5a7	0.08784037
211	0xbdc4aef9	-0.09603686
212	0x3e250b4a	0.16117588
213	0xbe05a7b3	-0.13052253
214	0xbe1e38ee	-0.15451404
215	0xbd3b8b2d	-0.045787025
216	0x3da24cbb	0.079247914
217	0x3e9acd6c	0.3023485
218	0x3e2b38ae	0.1672084
219	0xbd871b68	-0.06597024
220	0xbec4b415	-0.38418642
221	0xbdd3e46b	-0.10346302
222	0x3debe13f	0.11517572
223	0x3c275110	0.010212198
224	0x3e48c080	0.19604683
225	0x3b28f660	0.0025781617
226	0x3eb67036	0.35632485
227	0x3d65b08c	0.05607657
228	0x3d48b8ee	0.049004488
229	0xbea593c0	-0.32339287
230	0x3d21c1f0	0.039491594
231	0x3d9fc067	0.0780037
232	0xbe093084	-0.13397413
233	0x3d8a0e21	0.06740976
234	0xbdc895a5	-0.097941674
235	0x3dd6cedf	0.10488676
236	0x3ed9bef0	0.42528486
237	0x3c2f9b17	0.010718129
238	0x3ce3aa6c	0.027791224
239	0xbd75a3d4	-0.05997069
240	0xbd9f3fa3	-0.077758096
241	0xbdd936ee	-0.1060618
242	0x3cad75aa	0.02117427
243	0xbeac58ed	-0.33661595
244	0xbde80a17	-0.113300495
245	0xbf089801	-0.5335694
246	0x3e1642a0	0.14673853
247	0xbd996d4b	-0.07491549
248	0xbd840bb8	-0.06447548
249	0x3ec89fb9	0.3918436
250	0xbe60d825	-0.21957453
251	0xbd3ca42d	-0.046055008
252	0x3eaba759	0.33526114
253	0x3c0f389f	0.008741527
254	0xbd1ab4bd	-0.03777002
255	0xbe01909e	-0.12652823

actor.2.bias f4 [64]
0	0xbd829eac	-0.063779205
1	0x3d93b02f	0.07211339
2	0xbc205d90	-0.009787932
3	0xbd9cd648	-0.076580584
4	0xbc98490a	-0.018589515
5	0x3e7b1c33	0.24522476
6	0xbe2841e1	-0.16431381
7	0x3ca982c5	0.020692239
8	0xbdfae184	-0.12250045
9	0xbb91686f	-0.0044374983
10	0x3c783a81	0.015150667
11	0x3da741cb	0.08166846
12	0xbdff50fe	-0.1246662
13	0xbdc4fc20	-0.096184015
14	0x3d281af2	0.041041322
15	0x3e9f78e2	0.31146914
16	0xbdf988eb	-0.12184318
17	0x3e13a821	0.14419605
18	0x3d81a69b	0.063306056
19	0x3e6e1f0a	0.23254028
20	0xbdf6345a	-0.12021704
21	0x3b060e0e	0.0020455155
22	0x3dba9b93	0.09111705
23	0x3c47aca8	0.012187161
24	0x3e22d734	0.15902406
25	0x3b5951e1	0.0033160376
26	0x3d7c3b93	0.061580252
27	0xbd9aac9e	-0.07552455
28	0xbe0f9765	-0.14022596
29	0x3d42bfe3	0.04754628
30	0xbdc35a7c	-0.09538743
31	0x3e3e9286	0.18610582
32	0x3cd826d0	0.026385695
33	0x3e4fcf84	0.20294005
34	0x3d867946	0.065661
35	0xbd29e5bb	-0.041478854
36	0x3d66e7e9	0.05637351
37	0x3d92f620	0.07175851
38	0x3e6a3ab9	0.22873963
39	0x3d790328	0.060794026
40	0xbcaf6e17	-0.0214148
41	0x3c2d1e87	0.01056636
42	0x3c6db0a6	0.014507448
43	0xbdc4fbc4	-0.09618333
44	0xbca831ed	-0.020531619
45	0xbdb5a9df	-0.08870291
46	0xbe247081	-0.16058542
47	0x3cebff0c	0.02880814
48	0xbe0b1f07	-0.13586055
49	0x3da6747c	0.081276864
50	0xbc51944a	-0.0127917025
51	0xbd39f971	-0.0454039
52	0xbc8b852e	-0.017031278
53	0xbdd308e7	-0.10304432
54	0xbdae2103	-0.0850239
55	0x3d849703	0.06474116
56	0xbd3871a7	-0.045030262
57	0x3e333bfa	0.17503348
58	0x3e18c1ad	0.14917631
59	0x3c102cc6	0.008799737
60	0xbdea8f36	-0.114530966
61	0x3d6e5265	0.058184046
62	0xbc69e413	-0.014275569
63	0xbd16b915	-0.0367976

actor.4.weight f4 [36, 64]
0	0x3c491d9e	0.012275128
1	0xbe45bec0	-0.19311047
2	0x3eddcc62	0.43319994
3	0xbd97a0f1	-0.07403744
4	0x3e8e15d2	0.27751023
5	0xbe4dc2ad	-0.20093794
6	0x3db6cee7	0.08926182
7	0x3f39df94	0.7260678
8	0xbd45c9ee	-0.04828828
9	0xbe522f7b	-0.20525925
10	0xbe4e8b08	-0.20170224
11	0xbda9ee7e	-0.08297442
12	0xbd6a95c4	-0.057271734
13	0xbd54ff90	-0.052001536
14	0xbeab6ff5	-0.33483854
15	0xbf20bfdc	-0.62792754
16	0x3d234970	0.039864957
17	0xbecb3c53	-0.3969446
18	0x3e0d59f0	0.1380384
19	0x3f3c2158	0.7348838
20	0x3e98b4dd	0.29825488
21	0xbe7e6e22	-0.248467
22	0xbeac662f	-0.3367171
23	0xbd98a05b	-0.074524604
24	0xbf323a63	-0.6962034
25	0xbd02d971	-0.03194565
26	0x3d71bd77	0.05901858
27	0x3f304366	0.6885284
28	0xbf12fce0	-0.57417107
29	0xbeb7445b	-0.3579434
30	0xbe5e41c8	-0.21704781
31	0x3ef3bc1f	0.47604463
32	0xbe0b2ef9	-0.13592137
33	0xbf0dc283	-0.55374926
34	0xbe5ef76e	-0.21774074
35	0xbef83942	-0.48481184
36	0xbe0422fd	-0.12903972
37	0x3e657ed1	0.22411658
38	0xbef3dc07	-0.47628805
39	0xbe8a3cc3	-0.26999483
40	0xbebbfa13	-0.3671423
41	0xbeab4423	-0.33450422
42	0xbebc8ce8	-0.36826253
43	0xbdc36953	-0.095415734
44	0xbe52e4a7	-0.20595036
45	0x3d129490	0.03578621
46	0xbd7cf0a8	-0.061752945
47	0xbe161888	-0.14657795
48	0xbe2ae332	-0.1668823
49	0x3ebece39	0.3726671
50	0xbd9ced21	-0.07662416
51	0xbf0aa45f	-0.5415706
52	0x3e26f7c0	0.16305447
53	0xbe0bb776	-0.13644204
54	0x3e146003	0.1448975
55	0xbdd499c4	-0.10380891
56	0xbcc7f80d	-0.024410272
57	0xbf04b468	-0.5183778
58	0xbf05af1a	-0.5222031
59	0xbde67174	-0.11252108
60	0x3f3e222c	0.7427089
61	0xbf1afbb3	-0.6054031
62	0x3c4216a9	0.011846223
63	0xbd165552	-0.03670246
64	0xbdb20f74	-0.08694354
65	0xbea0365b	-0.3129147
66	0x3ed6f95e	0.41987127
67	0x3ecc6e79	0.39928034
68	0xbdd3b49f	-0.10337185
69	0xbea05406	-0.31314105
70	0x3d218dba	0.0394418
71	0xbd764ae5	-0.06013002
72	0xbd06f802	-0.032951362
73	0xbd6a3407	-0.057178523
74	0xbe303370	-0.17207122
75	0x3d4673d3	0.048450302
76	0x3e1e96f4	0.15487272
77	0xbdf3e324	-0.11908558
78	0x3f09fc1a	0.539003
79	0xbeb9612b	-0.36206946
80	0xbdd721f4	-0.10504523
81	0xba55dede	-0.0008158515
82	0xbefd6e90	-0.49498415
83	0xbe71683f	-0.23574923
84	0x3e171e6b	0.14757697
85	0x3f32547a	0.6966015
86	0xbeb013d2	-0.34390122
87	0xbe38f7dc	-0.18063301
88	0xbf077c31	-0.52923876
89	0x3d4b3645	0.049612302
90	0xbc663459	-0.014050567
91	0x3e05e8ae	0.13077042
92	0x3edf3cfd	0.43601218
93	0xbe8d83ea	-0.27639705
94	0xbe483d0c	-0.19554538
95	0xbf2a9bdb	-0.66644067
96	0xbdf057cb	-0.11735495
97	0xbf0ae645	-0.54257613
98	0x3ee3c6d1	0.44487622
99	0xbe82d0e9	-0.2555001
100	0x3ead1ba2	0.33810145
101	0x3dd855ef	0.105632655
102	0x3e9c1688	0.3048594
103	0xbf1b41f6	-0.60647523
104	0x3f1da0b6	0.6157335
105	0xbd3db8c1	-0.046318773
106	0xbe8b00b4	-0.27148974
107	0x3d0870b9	0.033310626
108	0x3d98b692	0.074566975
109	0x3e2500bf	0.16113566
110	0xbd19b282	-0.037523754
111	0xbd1e93d3	-0.038715195
112	0x3de93bb6	0.11388342
113	0x3ea6c8d4	0.32575095
114	0x3d26ceae	0.04072445
115	0xbed59d9f	-0.41721818
116	0x3ecf8d59	0.40537527
117	0xbd69a5c7	-0.057042863
118	0x3f39570e	0.7239846
119	0xbe9cfff7	-0.30664036
120	0x3cc9611c	0.024582438
121	0x3e8e7aac	0.27827966
122	0xbecb9c27	-0.39767572
123	0x3dd2bc0c	0.10289773
124	0xbe2e4073	-0.17016773
125	0x3e9822d0	0.2971406
126	0x3e09bd17	0.13451038
127	0x3cd7c920	0.026341021
128	0x3de0a8a6	0.10969667
129	0x3d8c1479	0.06839842
130	0x3f097b25	0.5370353
131	0xbe48069d	-0.19533773
132	0x3d5c41d9	0.053773735
133	0x3ec607c4	0.386778
134	0x3dee8b64	0.116476804
135	0x3cce7af1	0.025205107
136	0x3d1cf105	0.03831579
137	0x3d683f98	0.056701273
138	0x3ed357f7	0.4127805
139	0x3edb19aa	0.42793018
140	0x3e53d80d	0.20687886
141	0x3bf6e99b	0.007535172
142	0xbe1364f1	-0.14393975
143	0xbdd9deb5	-0.10638181
144	0xbb946116	-0.004528175
145	0x3d85521d	0.065098025
146	0x3ebf9d95	0.37424913
147	0x3e8a0f08	0.26964593
148	0x3f0a088c	0.5391929
149	0xbe7d414e	-0.24731943
150	0x3cc9b6bb	0.024623265
151	0xbd6aeb45	-0.057353277
152	0xbd02e7a9	-0.03195921
153	0x3e87ee4e	0.26549
154	0x3aef15bb	0.0018240729
155	0x3ed77ca0	0.4208727
156	0x3e1826f2	0.14858606
157	0x3c82d8d0	0.015972525
158	0x3e215318	0.15754354
159	0x3da64feb	0.08120712
160	0x3d744025	0.059631485
161	0xbe636258	-0.22205484
162	0x3ecde8b3	0.40216598
163	0x3e2db3ba	0.16963091
164	0x3ed212eb	0.41030058
165	0x3dc86a19	0.097858615
166	0x3dd3e7ec	0.1034697
167	0x3e6fbc71	0.23411728
168	0x3e3c41b9	0.18384446
169	0xbe984fe6	-0.29748458
170	0x3cc948f5	0.024570921
171	0x3cf593a0	0.02997762
172	0xbe45d1d3	-0.19318323
173	0x3cbe6155	0.02323977
174	0x3e275ade	0.16343257
175	0x3e184a07	0.14871989
176	0x3eb9ad2a	0.36264926
177	0x3ed4924b	0.41517863
178	0xbdb8c2df	-0.09021544
179	0x3e315a42	0.17319587
180	0x3eb10571	0.34574464
181	0xbd0b9b31	-0.03408355
182	0xbd477e47	-0.04870441
183	0x3ecc1f66	0.39867705
184	0xbd57e402	-0.05270768
185	0xbe880f86	-0.26574343
186	0xbdc88d3f	-0.097925656
187	0xbce2b85f	-0.027675806
188	0xbc8543e8	-0.016267732
189	0x3e4585f1	0.19289376
190	0x3c27d4ba	0.010243589
191	0xbd88fd70	-0.06688964
192	0x3ddd5f2d	0.10809169
193	0xbdb4f1c9	-0.08835179
194	0xbe81c3b9	-0.25344637
195	0xbe866cbe	-0.2625484
196	0xbd06f734	-0.032950595
197	0xbe5eebc4	-0.21769625
198	0x3d71cde1	0.059034232
199	0xbd764dc2	-0.06013275
200	0xbd2bf201	-0.04197884
201	0x3dc7747e	0.09739016
202	0x3cc0b574	0.023524024
203	0x3dcb0118	0.09912318
204	0x3e1713e7	0.14753686
205	0xbd16d005	-0.036819477
206	0xbdc12e36	-0.09432642
207	0xbe7684b9	-0.24074067
208	0xbd022104	-0.031769767
209	0xbe0b97fe	-0.13632199
210	0xbe2bdf71	-0.16784455
211	0xbc437f14	-0.011932153
212	0xbe5715b8	-0.21004379
213	0xbd50b92c	-0.050957844
214	0xbe3b6645	-0.18300731
215	0x3e938a3c	0.28816402
216	0xbd185294	-0.037188128
217	0xbebc2bff	-0.36752316
218	0xbd5885ff	-0.052862164
219	0xbdc163ce	-0.09442864
220	0x3aa6bccf	0.0012721064
221	0x3de5b4dd	0.112161376
222	0x3decf757	0.11570614
223	0xbf184c68	-0.59491587
224	0x3e3f52b6	0.18683895
225	0xbe255e7a	-0.16149321
226	0xbd98cb1b	-0.07460614
227	0xbd7fb7eb	-0.062431257
228	0xbe12eba2	-0.143477
229	0xbdd66965	-0.10469321
230	0xbe2be4cf	-0.16786502
231	0xbe62c461	-0.22145225
232	0xbbe1959e	-0.006884291
233	0x3d0c8630	0.03430766
234	0x3c0f183f	0.008733808
235	0xbd908947	-0.070574336
236	0xbdbd33f2	-0.092384234
237	0x3d5b13be	0.053485624
238	0x3ddc0247	0.10742622
239	0xbdb12e82	-0.08651449
240	0xbbdb36b1	-0.0066898693
241	0x3d9eae8b	0.07748135
242	0x3c6f39e9	0.014601209
243	0xbe8cd898	-0.27508998
244	0x3d29e686	0.04147961
245	0x3e554495	0.20826943
246	0xbda7a62c	-0.08185992
247	0xbe1fc626	-0.15602931
248	0x3df9de3c	0.12200591
249	0xbe9c9dc7	-0.30589125
250	0xbefb653e	-0.4910068
251	0x3d29860b	0.0413876
252	0xbefde59a	-0.49589235
253	0xbd0a4578	-0.033757657
254	0xbd4feb27	-0.050761368
255	0xbb204d74	-0.0024460228

actor.4.bias f4 [36]
0	0xbdf59d46	-0.11992888
1	0xbe87a18c	-0.26490438
2	0x3cd8488e	0.026401784
3	0xbea748c1	-0.32672694
4	0xbb2c0fe1	-0.0026254582
5	0x3e174969	0.14774098
6	0x3df12e9b	0.117764674
7	0x3e74f2a0	0.23920679
8	0xbdc5067e	-0.09620379
9	0xbe29bea2	-0.16576627
10	0xbc397fe3	-0.0113219945
11	0x3e4e9a39	0.20176019
12	0x3e368dc5	0.17827518
13	0x3ed575a7	0.41691324
14	0x3e777d21	0.24168827
15	0x3d908fe9	0.07058699
16	0x3d9adf03	0.07562067
17	0xbe7eb764	-0.24874645
18	0xbeb34d7d	-0.35020056
19	0xbeaeacb5	-0.3411614
20	0xbee96a7e	-0.4558906
21	0xbd3caf3d	-0.046065558
22	0xbb70394e	-0.003665525
23	0xbd23a084	-0.039948
24	0x3e0a416e	0.13501522
25	0x3e034b7d	0.12821765
26	0x3ed5c446	0.41751307
27	0x3d8b32d3	0.06796803
28	0x3e000429	0.12501587
29	0xbe956aac	-0.29182947
30	0x3d51b041	0.05119348
31	0x3e25bb9d	0.1618485
32	0xbdefb9c5	-0.117053546
33	0x3e308177	0.17236887
34	0xbba3254b	-0.004978811
35	0x3eae22b4	0.3401085

critic.0.weight f4 [64, 62]
0	0x3d9c60c8	0.07635647
1	0x3dab196a	0.08354457
2	0xbdabd831	-0.083908446
3	0x3c1b5b6c	0.009482246
4	0xbd5ebb50	-0.054377854
5	0xbcd44058	-0.025909588
6	0xbb2b0778	-0.002609698
7	0x3ca20c99	0.019781398
8	0xbd99bf73	-0.07507219
9	0xbca91594	-0.020640172
10	0xbd702903	-0.05863286
11	0xbd0e39a9	-0.034722958
12	0xbd8052c5	-0.06265787
13	0xbd87de16	-0.066341564
14	0xbde57f33	-0.11205902
15	0xbdb8b7b4	-0.090194136
16	0xbc0910fe	-0.008365868
17	0xbddd20ab	-0.107972465
18	0xbdf7fe13	-0.12109008
19	0x3db676c8	0.089093745
20	0xbdbb4a0c	-0.09144983
21	0x3db6177c	0.08891198
22	0x3c1010d6	0.0087930765
23	0xbc983c3e	-0.018583413
24	0x3dc93eef	0.09826457
25	0xbdcb1727	-0.09916525
26	0x3d7934c0	0.060841322
27	0x3dad99b3	0.084765814
28	0x3dd67118	0.1047079
29	0xbe1a138f	-0.15046524
30	0x3c665e51	0.014060573
31	0xbcfd8f70	-0.030952185
32	0xbdc0fbf2	-0.09423055
33	0x3db1a39a	0.08673783
34	0xbcb73252	-0.022362862
35	0x3dafeb73	0.0858983
36	0xbd8c0d16	-0.068384334
37	0xbd66b474	-0.056324437
38	0x3d4395f1	0.047750417
39	0x3c84ef86	0.016227495
40	0x3d9510c4	0.072785884
41	0x3d5de969	0.054177675
42	0x3dc571e3	0.09640863
43	0xbdbfba3b	-0.093616925
44	0xbc04979e	-0.008092789
45	0x3d6bae49	0.05753926
46	0xbd3cd4d7	-0.046101417
47	0xbda4104d	-0.080109216
48	0x3dc61f7f	0.09673976
49	0xbe099f11	-0.13439585
50	0xbdd6d4c5	-0.10489801
51	0xbdea2c6d	-0.11434255
52	0x3d00b712	0.03142459
53	0x3b0a17b3	0.0021071255
54	0xbdef0cb6	-0.11672346
55	0x3d421a3b	0.047388297
56	0x3cc08781	0.023502113
57	0x3d30368a	0.043020763
58	0xbdfe98af	-0.12431466
59	0xbdf895be	-0.12137936
60	0xbe107d46	-0.14110288
61	0xbd822d0a	-0.06356247
62	0xbde719dd	-0.1128423
63	0x3d83bfcc	0.06433067
64	0xbc8d3928	-0.017239168
65	0xbd4d2513	-0.050084185
66	0x3e4ac3b9	0.19801225
67	0x3cfa41cd	0.030548954
68	0x3e97d846	0.2965719
69	0xbd4b9e10	-0.049711287
70	0xbda33949	-0.07969911
71	0xbef727ce	-0.48272556
72	0xbec2c6b3	-0.3804222
73	0xbe9ee448	-0.3103354
74	0xbdd67e2a	-0.10473283
75	0x3c6ef967	0.014585829
76	0xbd8612f0	-0.06546581
77	0x3de2d8c4	0.11076501
78	0x3dd4f5a3	0.10398414
79	0x3ddf2efb	0.10897633
80	0x3d8b91bf	0.06814908
81	0xbbdf0445	-0.006805929
82	0xbd05605d	-0.032562602
83	0xbdf85976	-0.12126438
84	0x3d88dae2	0.066823736
85	0xbcebcd00	-0.028784275
86	0x3ca310a8	0.019905403
87	0xbceaf3ed	-0.028680766
88	0x3da7fc15	0.08202378
89	0x3b843abd	0.0040353225
90	0x3c09b0f2	0.008404003
91	0x3f40ad67	0.7526459
92	0x3eb9595f	0.36200997
93	0x3ef9c92f	0.48786303
94	0x3d70dd73	0.05880494
95	0xbd99545f	-0.07486796
96	0x3db6e9b5	0.08931295
97	0x3dc97be7	0.098380856
98	0x3d9a274a	0.07527025
99	0xbdb5f00b	-0.08883675
100	0x3ea6db9e	0.3258943
101	0x3ef0aaee	0.4700541
102	0xbe142b14	-0.14469558
103	0xbe53a8d3	-0.2066987
104	0x3e31f808	0.17379773
105	0x3ce82236	0.028336626
106	0xbda17ec8	-0.0788551
107	0xbe80d672	-0.2516361
108	0x3a8a1107	0.0010533639
109	0xbd916bcf	-0.07100641
110	0x3e8782b4	0.26466906
111	0x3d18f3e4	0.037341967
112	0x3d384324	0.044985905
113	0x3d9e13cd	0.077186204
114	0xbd3f1bb0	-0.046657264
115	0x3cc6b171	0.024254533
116	0xbcdad91b	-0.026714852
117	0xbe3884da	-0.18019429
118	0x3e28d280	0.1648655
119	0x3d48468e	0.04889541
120	0x3e3ffcdd	0.18748803
121	0x3d2fa3e0	0.042880893
122	0xbc85f2f1	-0.016351195
123	0x3e5d4a59	0.21610393
124	0xbdd74f1a	-0.10513134
125	0x3da32314	0.07965675
126	0x3dd7641f	0.105171435
127	0x3d472423	0.048618447
128	0x3d353fe7	0.044250395
129	0xbdee4b79	-0.11635489
130	0x3c6d16e7	0.014470792
131	0x3d372770	0.044715345
132	0x3ead3564	0.33829796
133	0xbd813bd2	-0.06310238
134	0xbdabf37f	-0.083960526
135	0xbeb17883	-0.34662256
136	0xbe1c6714	-0.15273696
137	0xbdf44aa3	-0.11928298
138	0x3d2d5cac	0.042324707
139	0xbe9092b0	-0.28236914
140	0xbca31f01	-0.019912245
141	0xbd99a10a	-0.07501419
142	0x3df274de	0.11838697
143	0xbdd3839b	-0.10327836
144	0x3df2c62b	0.11854204
145	0xbcafec77	-0.02147506
146	0x3cbc58ce	0.022991564
147	0x3de27c04	0.1105881
148	0xbd70b2c3	-0.05876423
149	0xbd40bdad	-0.04705589
150	0x3d5737c4	0.052543417
151	0xbd03cac2	-0.032175787
152	0xbc44998b	-0.011999498
153	0x3c035e4d	0.0080180885
154	0xbde64284	-0.112431556
155	0x3d4045a1	0.046941403
156	0xbd63e6a6	-0.055639885
157	0x3d537ec6	0.051634572
158	0x3c4969fd	0.012293336
159	0xbdc80e22	-0.097683206
160	0xbea06718	-0.31328654
161	0xbe5315fb	-0.20613854
162	0x3dbc75d1	0.09202159
163	0x3e9664db	0.29373822
164	0xbe5067e3	-0.2035213
165	0xbc836431	-0.016038986
166	0xbdddcbf2	-0.10829915
167	0xbe219264	-0.157785
168	0x3d77bba8	0.060481697
169	0xbdbdf0cd	-0.09274445
170	0x3d0c056e	0.034184866
171	0xbe8b964f	-0.27263114
172	0xbd520018	-0.05126962
173	0x3e12420d	0.14283009
174	0xbe2cd441	-0.16877843
175	0x3e6221f9	0.22083272
176	0x3d7767de	0.06040179
177	0x3e3b2ac1	0.18278028
178	0x3df850b9	0.121247716
179	0xbe02825b	-0.12745039
180	0xbe63a384	-0.22230345
181	0xbbe9a2b5	-0.007129992
182	0x3df2ff12	0.11865057
183	0x3cbd603f	0.023117183
184	0xbba508f1	-0.0050364663
185	0x3e20f829	0.15719666
186	0xbdeb8e5d	-0.11501763
187	0xbdef11c2	-0.11673309
188	0xbdd9ab8d	-0.10628424
189	0x3db5f55c	0.08884689
190	0xbe56748f	-0.20942901
191	0xbe9b94bd	-0.30386916
192	0xbe2c1fe0	-0.16809034
193	0x3efacf6d	0.48986378
194	0xbce0ee4b	-0.027457377
195	0xbe42916d	-0.19000788
196	0xbc825806	-0.015911113
197	0x3d20667a	0.03916023
198	0x3bb2d4f8	0.0054575168
199	0xbdad8599	-0.08472747
200	0xbe3bfc1a	-0.18357888
201	0xbd98911d	-0.07449553
202	0xbd1b5f91	-0.037932936
203	0xbda16d4b	-0.07882174
204	0xbdabc982	-0.08388044
205	0x3db82345	0.08991102
206	0x3caca5da	0.021075178
207	0x3d2ab859	0.041679714
208	0xbdbd03d5	-0.092292465
209	0x3cc0e2b2	0.023545597
210	0x3de7b48d	0.11313734
211	0x3d8e754d	0.06955967
212	0xbbb6094c	-0.0055553075
213	0xbd6f7937	-0.05846521
214	0x3ec729ec	0.3889917
215	0x3f0155b4	0.505214
216	0x3c59e7a4	0.013299856
217	0x3e993c50	0.29928827
218	0xbd13870b	-0.03601746
219	0xbba404a7	-0.0050054374
220	0xbcf4dd5b	-0.029890707
221	0xbd9a498e	-0.07533561
222	0xbdb21488	-0.08695322
223	0xbdcb83fa	-0.09937282
224	0xbdbd4f69	-0.09243662
225	0x3cffdf53	0.031234419
226	0xbe0d4db4	-0.13799173
227	0xbe354413	-0.1770175
228	0x3d3aa388	0.04556611
229	0x3c377480	0.011197209
230	0xbbcd6758	-0.006268423
231	0x3b03cf71	0.0020112658
232	0x3c8d8e26	0.017279696
233	0x3d20f1ac	0.039292976
234	0x3d99aeb4	0.07504025
235	0x3e261c40	0.16221714
236	0x3d17222d	0.036897827
237	0x3df8fef8	0.121580064
238	0x3db715bd	0.08939693
239	0x3cc6ea29	0.024281578
240	0xbd398c69	-0.04529992
241	0xbd22788f	-0.039665755
242	0x3e4dfebc	0.20116705
243	0xbca04713	-0.01956514
244	0x3dabf1cd	0.08395729
245	0x3c048451	0.008088187
246	0x3c3966c4	0.011316005
247	0x3da25cbd	0.07927845
248	0x3d8bf83e	0.06834458
249	0x3db87901	0.09007455
250	0xbdea2ed0	-0.1143471
251	0xbda831c8	-0.0821262
252	0xbe30948a	-0.17244163
253	0x3e2a8c90	0.16655183
254	0x3ee2e2e1	0.4431372
255	0x3f01118b	0.50417393

critic.0.bias f4 [64]
0	0xbe18cdf5	-0.14922316
1	0x3e041f51	0.12902571
2	0xbdd01cf7	-0.101617746
3	0xbddc7b3a	-0.10765691
4	0x3da26b9b	0.0793068
5	0xbc95c26e	-0.018281188
6	0xbbede5b0	-0.007260047
7	0xbe5abca7	-0.21361028
8	0xbe3a755c	-0.18208832
9	0x3dbf6136	0.093447134
10	0xbdf0efac	-0.11764464
11	0xbde0c0f6	-0.109743044
12	0xbe3743c9	-0.17896952
13	0xbd974b10	-0.07387364
14	0xbe3061b0	-0.17224765
15	0x3d968e60	0.073513746
16	0xbe1fddae	-0.15611908
17	0xbd8a84dd	-0.06763623
18	0xbddb890d	-0.107195
19	0x3e1f69fe	0.15567777
20	0xbdcfd041	-0.10147143
21	0xbd0e9e63	-0.034819018
22	0xbdf2b5ec	-0.11851105
23	0xbe494678	-0.19655788
24	0x3e3c1e13	0.18370847
25	0xbd8645ab	-0.06556257
26	0xbe237aa8	-0.15964758
27	0xbde31778	-0.11088461
28	0xbdb4c944	-0.08827451
29	0xbdc55b88	-0.09636599
30	0xbd8a8a43	-0.067646526
31	0x3d93b24f	0.07211744
32	0xbdf6c590	-0.12049401
33	0xbdd30fd5	-0.10305754
34	0xbd976569	-0.07392389
35	0x3df875cf	0.12131845
36	0xbe374598	-0.17897642
37	0x3d2fcdf4	0.04292102
38	0xbd5b1adc	-0.053492412
39	0x3d294f4e	0.041335396
40	0xbe22a27e	-0.15882298
41	0xbd9c0d29	-0.076196976
42	0xbe0684d0	-0.13136601
43	0x3d0695cd	0.032857705
44	0x3ceb3d54	0.028715767
45	0xbda7b47e	-0.08188723
46	0x3e2faadf	0.17155026
47	0x3cce5d59	0.025190996
48	0x3e2b4e6c	0.16729134
49	0xbe7467c2	-0.23867705
50	0x3dcf6fc0	0.101287365
51	0x3b9b3b13	0.004737267
52	0xbda3af22	-0.07992388
53	0x3b72d15b	0.0037051055
54	0xbe1ddc35	-0.15416034
55	0xbe8482d8	-0.25881076
56	0x3e3a2fd9	0.18182315
57	0xbd427381	-0.047473434
58	0xbe67d59e	-0.22640082
59	0xbca3e0ae	-0.020004597
60	0x3e5b2633	0.2140129
61	0xbce86fd5	-0.028373638
62	0xbde18626	-0.11011915
63	0xbdca6bd3	-0.09883847

critic.2.weight f4 [64, 64]
0	0xbc9d486f	-0.019199578
1	0x3e27cb0f	0.16386054
2	0x3d33c93d	0.043893088
3	0x3e039b8d	0.12852307
4	0xbccc639c	-0.024949841
5	0xbc25fda1	-0.010131271
6	0xbd8621fe	-0.06549452
7	0x3e09344a	0.13398853
8	0x3ddaa73d	0.106764294
9	0xbebff252	-0.37489563
10	0xbc899841	-0.016796233
11	0x3e8cfe2d	0.2753767
12	0xbd93787e	-0.072007164
13	0x3e4dc464	0.20094448
14	0x3d8011ac	0.06253371
15	0x3e80492f	0.25055835
16	0x3d1cc707	0.038275745
17	0x3de5c04c	0.11218318
18	0xbe92aa14	-0.28645384
19	0x3dfb91d8	0.12283677
20	0xbda92800	-0.082595825
21	0x3e20341b	0.15644877
22	0x3dc949c6	0.09828524
23	0x3d99063f	0.074718945
24	0xbd085c8a	-0.033291377
25	0xbdb0762e	-0.08616291
26	0xbdc88652	-0.097912446
27	0x3e0c5f37	0.13708197
28	0xbdec460a	-0.115367964
29	0x3cee0a4f	0.02905765
30	0xbc95efde	-0.018302854
31	0x3e2618c8	0.16220391
32	0x3e0f70e1	0.14007904
33	0xbd951831	-0.07280005
34	0x3be5a2f5	0.0070079514
35	0x3e2eeab0	0.17081714
36	0xbe15dbe3	-0.14634661
37	0x3de96a43	0.11397221
38	0xbe590746	-0.21194181
39	0xbe9a016e	-0.30079216
40	0xbc4022e0	-0.011727065
41	0x3e17a383	0.14808469
42	0x3e473701	0.19454576
43	0xbf0b4068	-0.5439515
44	0xbe9cc1ce	-0.3061661
45	0x3d1551e1	0.03645504
46	0x3e6d2159	0.23157252
47	0xbe8dc88a	-0.27692062
48	0x3e9b25df	0.3030233
49	0xbca4d517	-0.02012114
50	0x3dff5e3f	0.12469148
51	0x3e4e9ab3	0.201762
52	0x3d0616b9	0.032736514
53	0xbc9b4360	-0.018953025
54	0xbd8283f3	-0.063728236
55	0xbd0fd386	-0.035113834
56	0x3d07811f	0.033082124
57	0x3d8fcb53	0.07021203
58	0x3e154766	0.14578018
59	0xbe6db4e3	-0.23213534
60	0x3e9d807e	0.30762094
61	0xbbbe4f02	-0.0058077583
62	0x3d65c93d	0.05610012
63	0x3e053626	0.13008937
64	0xbc6d49e0	-0.014482945
65	0xbb001e87	-0.0019549446
66	0xbc920095	-0.017822543
67	0xbcb6b3f1	-0.0223026
68	0xbdca9b3d	-0.098928906
69	0xbd8ef184	-0.06979659
70	0xbdce5db9	-0.1007647
71	0x3dd063b0	0.10175264
72	0xbd5d7583	-0.054067146
73	0xbdf951c2	-0.12173797
74	0xbdd4ec9d	-0.10396693
75	0xbdd40e87	-0.10354333
76	0xbd23a620	-0.03995335
77	0xbdab9e08	-0.083797514
78	0xbdd7b4b9	-0.10532517
79	0xbd642901	-0.055703167
80	0x3da8ea41	0.082478054
81	0xbde39b3c	-0.11113593
82	0xbcf47319	-0.02984004
83	0x3dc8b036	0.097992346
84	0x3d8446e0	0.06458831
85	0x3c621ec4	0.01380128
86	0x3d0d50e5	0.034500975
87	0xbd6d43a6	-0.057925843
88	0xbde81d0d	-0.11333666
89	0xbddd4025	-0.1080325
90	0xbdb6d3d1	-0.089271195
91	0x3d9c13d4	0.076209694
92	0xbc59aac7	-0.013285345
93	0xbdebc98b	-0.11513051
94	0xbde3def4	-0.11126509
95	0xbd3e1aa6	-0.046412133
96	0x3d903432	0.070412055
97	0xbaba9f57	-0.0014238161
98	0x3bf011d2	0.007326343
99	0xbd26b347	-0.040698316
100	0xbcac1251	-0.021004828
101	0x3d5d7c80	0.05407381
102	0x3cd18239	0.02557479
103	0xbcfa637e	-0.03056502
104	0x3dffcf50	0.124907136
105	0x3d966474	0.07343379
106	0x3cf32029	0.029678421
107	0x3cfb0697	0.03064279
108	0x3d77ab01	0.060465816
109	0xbd01850d	-0.031621028
110	0x3c0db077	0.0086480295
111	0xbd8ba131	-0.06817854
112	0xbd669194	-0.056291178
113	0xbca7c79f	-0.020480929
114	0xbdc89836	-0.09794657
115	0x3d916bd1	0.071006425
116	0xbdcf0774	-0.101088434
117	0xbdc0c5f9	-0.0941276
118	0xbcfbaf62	-0.030723277
119	0x3d881bfa	0.06645961
120	0xbd9b634f	-0.07587301
121	0xbd024b22	-0.031809933
122	0x3d658a26	0.05603995
123	0xbdd7e1cb	-0.105411135
124	0x3dac8527	0.08423834
125	0x3d1dc14a	0.038514413
126	0x3ba39f62	0.004993365
127	0xbc45e634	-0.0120788105
128	0x3da79a91	0.08183778
129	0xbe1aaa15	-0.15103944
130	0xbe8d531b	-0.27602467
131	0x3db89410	0.09012616
132	0xbe896e50	-0.26841974
133	0x3df02807	0.117263846
134	0xbe28c4ee	-0.16481373
135	0x3d085efe	0.033293717
136	0xbe8e3881	-0.27777484
137	0x3d8a7bc0	0.06761885
138	0xbb14f142	-0.0022726809
139	0x3e1d0e4d	0.15337487
140	0xbe3c245e	-0.18373248
141	0xbeaf9162	-0.34290606
142	0xbcc97547	-0.024592055
143	0x3e3bf198	0.1835388
144	0xbd188905	-0.037240047
145	0x3ce51680	0.02796483
146	0xbda0eeef	-0.07858073
147	0xbdcb4a26	-0.09926252
148	0x3dd8977f	0.105757706
149	0xbc36a6df	-0.011148184
150	0x3d83493f	0.06410455
151	0x3e1ab6a4	0.15108734
152	0xbec84498	-0.39114833
153	0xbd896137	-0.067079954
154	0x3d8e9992	0.06962885
155	0x3df249e8	0.11830503
156	0x3db76e97	0.0895664
157	0xbe317c6d	-0.17332621
158	0x3c8e5ee6	0.017379235
159	0xbebe9594	-0.37223494
160	0xbe213bf7	-0.15745531
161	0xbc213284	-0.009838704
162	0x3b9ce477	0.0047879773
163	0xbe563594	-0.20918876
164	0x3dd6c4a4	0.10486725
165	0xbd7fb360	-0.062426925
166	0xbca2d85e	-0.019878563
167	0xbe3d6b48	-0.18497956
168	0x3e47f744	0.19527918
169	0xbe54d43e	-0.20784089
170	0x3dcafdca	0.09911688
171	0x3c0ce7c6	0.008600181
172	0x3d0ae2d0	0.03390771
173	0xbe215c8d	-0.15757962
174	0x3db70149	0.08935792
175	0x3e16130a	0.146557
176	0x3e47b9e8	0.19504511
177	0xbe22c5e6	-0.15895805
178	0xbe268d9c	-0.16264957
179	0xbe899d49	-0.26877812
180	0x3e0f6c90	0.14006257
181	0xbe7fb469	-0.24971165
182	0xbb84e5cf	-0.0040557156
183	0x3e2926a7	0.16518651
184	0xbe9667e0	-0.29376125
185	0x3d122dee	0.035688333
186	0xbd949fa5	-0.07257012
187	0x3d7ffca5	0.0624968
188	0xbecf30ad	-0.40466824
189	0x3dc11fe3	0.0942991
190	0xbe180235	-0.14844592
191	0xbe3ed057	-0.18634163
192	0xb9bb6232	-0.0003574058
193	0x3cd7768a	0.026301641
194	0xbdf60fb8	-0.12014717
195	0xbcb506f8	-0.02209805
196	0x3c1410df	0.0090372255
197	0xbdb9a3e4	-0.09064463
198	0x3ccfc786	0.025363695
199	0xbcd34842	-0.025791291
200	0xbd6be937	-0.057595458
201	0xbd54019b	-0.051759344
202	0x3c8de89e	0.017322835
203	0xbdd73241	-0.10507632
204	0xbc5012b6	-0.012699774
205	0xbe15bbf8	-0.14622486
206	0x3e175a68	0.14780581
207	0x3dc874ed	0.09787927
208	0xbb6344fa	-0.0034678564
209	0xbd9da5fb	-0.07697674
210	0xbddde8ac	-0.10835394
211	0x3d10e3a2	0.035373338
212	0x3d177b4c	0.03698282
213	0x3e100d70	0.14067626
214	0xbdbf3b43	-0.09337475
215	0x3cd698f4	0.02619598
216	0xbd1909a1	-0.0373627
217	0xbdb257b0	-0.08708131
218	0x3bcbdd0b	0.0062214187
219	0xbd0aa241	-0.033846144
220	0x3cf7f5fe	0.030268665
221	0xbdf6dd7c	-0.120539635
222	0x3d28f1f0	0.041246355
223	0xbd59d0ba	-0.053177573
224	0xbd3ba8d8	-0.04581532
225	0x3d716bcc	0.058940694
226	0xbc4aa6e8	-0.012368895
227	0xbe362b64	-0.1778999
228	0x3c950430	0.018190473
229	0xbe0a65ab	-0.13515346
230	0xbd5b468b	-0.053534072
231	0xbdf1735f	-0.117895834
232	0xbd43391f	-0.047661897
233	0x3da9dbbf	0.08293866
234	0xbdcf1362	-0.10111119
235	0x3d6a197f	0.05715322
236	0xbd933833	-0.071884535
237	0x3d99b9f5	0.075061716
238	0xbcd187af	-0.025577394
239	0xbda15ff5	-0.078796305
240	0xbe143a53	-0.14475374
241	0x3cae0863	0.021244233
242	0xbd809d67	-0.06280022
243	0xbdf597d3	-0.11991849
244	0x3ad5fc83	0.0016325865
245	0xbcd2f9ea	-0.025753934
246	0xbd457fa2	-0.048217423
247	0x3e0306ca	0.12795559
248	0xbd84b99f	-0.06480717
249	0x3c95504a	0.018226761
250	0xbdd65fbd	-0.104674794
251	0xbe4e2d90	-0.20134568
252	0xbd901663	-0.0703552
253	0xbe2f9c32	-0.17149428
254	0x3de83929	0.113390274
255	0x3d6b9910	0.05751902

critic.2.bias f4 [64]
0	0x3df3d7db	0.119064055
1	0xbd9a5858	-0.075363815
2	0x3c6721d0	0.014107183
3	0xbd8bc8ea	-0.06825431
4	0xbceca979	-0.028889405
5	0xbe2c8eb2	-0.16851309
6	0xbded9ec5	-0.116025485
7	0xbe228115	-0.15869553
8	0xbe016574	-0.12636358
9	0xbe08cb4f	-0.13358806
10	0xbd5471d2	-0.05186636
11	0x3d15ca9a	0.03657017
12	0xbd7eac6b	-0.06217615
13	0xbcc7b856	-0.02437989
14	0xbdcd4009	-0.10021979
15	0x3df99362	0.12186314
16	0xbd2eb7c1	-0.04265571
17	0xbe3ba5b5	-0.18324931
18	0xbbe86c98	-0.0070930235
19	0xbd8b364e	-0.06797467
20	0x3b19b0ed	0.0023451403
21	0xbd6a00b6	-0.057129584
22	0xbe738be9	-0.2378384
23	0xbe26c54f	-0.16286205
24	0x3c4b76cb	0.012418459
25	0xbe20fd40	-0.15721607
26	0xbdd44b70	-0.10365951
27	0xbdf0eede	-0.1176431
28	0xbd581b5a	-0.05276046
29	0xbcd9e9a1	-0.02660066
30	0xbdfa7b18	-0.122305095
31	0xbd8cc586	-0.06873612
32	0xbe054cd1	-0.13017584
33	0xbdd6398c	-0.10460195
34	0x3df1825b	0.117924415
35	0x3e1a8d04	0.15092856
36	0xbe191d36	-0.1495255
37	0xbd8348a9	-0.06410343
38	0xbd4c0f4e	-0.049819283
39	0xbd962f61	-0.073332556
40	0xbd59afc0	-0.053146124
41	0xbdd645fa	-0.10462566
42	0x3dd51484	0.10404304
43	0xbd185d16	-0.03719815
44	0x3d2c7cb7	0.042111125
45	0x3c44b5b4	0.012006212
46	0xbdaa3193	-0.08310237
47	0xbd944321	-0.07239366
48	0xbe309fb1	-0.17248417
49	0xbd0bde2a	-0.03414742
50	0x3cc0e829	0.023548203
51	0xbd84ae18	-0.06478518
52	0xbde83fc7	-0.113402896
53	0xbe0cd4d4	-0.13753062
54	0xbdb9ae18	-0.09066409
55	0x3c3c0dfb	0.011477943
56	0xbd1f17fa	-0.038841225
57	0xbd8a0656	-0.0673949
58	0xbe424c4d	-0.18974419
59	0xbe0f40fd	-0.13989635
60	0xbe04b8d7	-0.12961136
61	0xbd88bfdf	-0.066772215
62	0x3a8df235	0.001082963
63	0xbddbc1ca	-0.10730322

critic.4.weight f4 [1, 64]
0	0xbda65ab2	-0.081227675
1	0x3cfa90d7	0.030586643
2	0xbb3ad208	-0.0028506536
3	0x3cb35796	0.02189235
4	0xbd18fc16	-0.037349783
5	0xbe3328d7	-0.17496048
6	0x3bbba91c	0.0057269465
7	0x3da558d4	0.08073583
8	0xbbd1ac4f	-0.0063987146
9	0xbb4f7745	-0.0031656784
10	0x3bdeb342	0.0067962715
11	0x3cd94321	0.026521267
12	0x3bd23812	0.0064153755
13	0x3ccffc5a	0.025388885
14	0xbc1a7536	-0.009427359
15	0xbd8dadd2	-0.06917919
16	0xbcab55d8	-0.020914957
17	0x3c810193	0.015747821
18	0x3baef8b9	0.0053397086
19	0x3cea714c	0.028618477
20	0xbbc48690	-0.0059974864
21	0xbb3c3168	-0.0028715972
22	0x3c7280bb	0.0148012
23	0x3d426315	0.047457773
24	0xbce75c3a	-0.02824222
25	0x3bafefd0	0.005369164
26	0xba86748e	-0.0010258125
27	0x3b875486	0.004129949
28	0xbc22994f	-0.009924247
29	0x3b8567cd	0.004071212
30	0x3d7ce1a3	0.06173862
31	0x3c98a969	0.018635469
32	0xbc9c2e6c	-0.019065104
33	0x3d90c214	0.070682675
34	0x39ff81de	0.0004873415
35	0x3e829412	0.25503594
36	0x3aab0471	0.0013047588
37	0xbc6e359f	-0.014539151
38	0xbdf76aa7	-0.12080889
39	0x3d7ae8ed	0.06125729
40	0xbca3d8ec	-0.020000897
41	0xbcca0fcb	-0.024665734
42	0x3e2da471	0.1695726
43	0x3c88513d	0.0166403
44	0x3d7cd638	0.061727732
45	0x3d09c460	0.033634543
46	0x3d11c470	0.035587728
47	0xbd034b60	-0.032054305
48	0xbc1f6b7c	-0.009730216
49	0xbaadbb3c	-0.0013254653
50	0x3ca9c52c	0.020723902
51	0x3b9bfd12	0.004760393
52	0x3d735d18	0.059414953
53	0x3b3c629c	0.00287453
54	0x393989a3	0.00017694249
55	0x3a847de0	0.0010108314
56	0x3ca836bc	0.020533912
57	0xbccdce40	-0.025122762
58	0xbcbb3ec2	-0.022857074
59	0xbde56907	-0.11201673
60	0xbcd7cc3b	-0.026342502
61	0x3cb44508	0.022005573
62	0xbd180427	-0.037113335
63	0xbd113a03	-0.035455715
