RL/CC2-Cardiff-implementation/GT-Cardiff-CC2/Models/PPOxCCE-C4/9000.pth (torch, 78850 bytes, 11 tensors)

actor.0.weight f4 [64, 62]
000000 ed 40 79 ba e7 86 8b 3d 2a 12 d6 bd 3c 6a bf bd
       -0.0009508271 0.0681284 -0.10452683 -0.093464345
000010 f7 a4 66 3e 4c 32 b6 3e 8c 64 93 be 03 9f a4 be
       0.22523867 0.35585248 -0.2878765 -0.32152566
000020 a5 08 55 3c e6 a7 de bd a5 eb ad bd 33 ca b2 be
       0.013002549 -0.10871868 -0.08492211 -0.3491989
000030 9e 12 2b bf e8 f5 7b be a9 47 15 bd 55 bd 56 3c
       -0.6682528 -0.24605525 -0.036445294 0.013106664
000040 81 a6 4d 3d 4d 10 9c 3d 77 54 b0 bd 46 86 62 bd
       0.05020762 0.076202966 -0.086098604 -0.055303834
000050 5d f1 3c 3d 15 fb d7 3d 86 1c d6 bc 12 a2 c2 3d
       0.04612862 0.10545937 -0.026136648 0.09503569
000060 58 b1 a7 bc c0 2c 5c 3c cf 82 eb 3d 99 48 f1 bd
       -0.020470306 0.013438404 0.11499559 -0.11781425
000070 42 87 37 bf 64 b8 41 be 17 a7 7a 3b cd d1 5b 3e
       -0.7169076 -0.18917996 0.0038246566 0.21466751
000080 cf 96 a8 bd 33 76 6f bd b9 b6 b5 bd 94 98 f3 bd
       -0.082318895 -0.058462333 -0.08872742 -0.11894336
000090 0f c2 c1 3d 1a 10 d7 3e e7 39 60 3e eb bb 17 3e
       0.09460842 0.42004472 0.21897088 0.14817779
0000a0 59 46 81 be 52 47 d9 be 2c 36 7e bc 23 3c 45 be
       -0.25248984 -0.42437226 -0.015515845 -0.19261222
0000b0 48 31 37 3e 1d 3c 35 3e 0d cf 25 3e 5a da ad 3d
       0.17889893 0.17698713 0.16192265 0.08488913
0000c0 d6 7e d9 3d 0b f0 85 bd 4f 3e 9e 3d 71 09 55 3e
       0.10619895 -0.06539925 0.07726728 0.20804383
0000d0 84 74 4e 3d 9e 57 69 bb 5b ef 70 3e 93 16 96 3d
       0.050404087 -0.0035605202 0.23528807 0.073285244
0000e0 67 b2 38 3e 70 a7 c9 bd 0f 05 f8 3d 34 d0 8c 3c
       0.18036805 -0.09846389 0.1211034 0.017189123
0000f0 8e 46 80 3d 94 02 55 3e 94 11 9a bd 63 27 1d 3d
       0.06263457 0.20801765 -0.07522884 0.03836764
000100 1b c9 8e 3d 8d 50 83 bc 4f 96 95 3d a0 1f e6 bd
       0.069719516 -0.01602962 0.0730406 -0.11236501
000110 97 d7 ca 3d da a8 d7 bd 64 5c 37 bf 00 23 0e bf
       0.09904402 -0.10530253 -0.7162535 -0.55522156
000120 27 94 f3 3e 3a d9 5c 3f d2 c5 5f 3d 2c fb 64 3d
       0.4757397 0.8626896 0.054632016 0.0559036
000130 ac 36 15 bd 92 91 27 be 4d 6a 3f 3c b5 b7 a2 bd
       -0.036429092 -0.16364124 0.011683059 -0.079451956
000140 d5 65 f2 bd f4 17 e7 3d 48 c4 c5 3d 05 ba 01 be
       -0.11835829 0.112838656 0.09656578 -0.12668617
000150 23 bb c2 3c 66 43 af bc fb 34 ab bc 27 1f 6e bd
       0.023770874 -0.021394443 -0.020899286 -0.058135178
000160 12 0b 48 3d 51 0e 9a bd 08 d8 97 3d f8 45 d2 bd
       0.048838682 -0.07522262 0.074142516 -0.10267252
000170 cd 37 fc 3d 16 64 ab 3e 95 b6 00 be 40 b9 a8 bd
       0.12315331 0.33474797 -0.1256965 -0.08238459
000180 b6 de 81 3d 05 c1 d9 3c 9a 65 86 bd 93 d6 63 3d
       0.06341307 0.026581297 -0.06562348 0.055624556
000190 2f 4d 82 3e 71 6d b7 3e 67 cf 96 be f9 22 17 be
       0.2544951 0.35825685 -0.2945511 -0.14759435
0001a0 74 ac 39 bd 30 10 94 bd e4 55 d8 bd 3c 53 03 be
       -0.04533048 -0.0722965 -0.10563257 -0.1282472
0001b0 81 ff fa bc 75 aa 1c bd 17 54 0d be c3 ca df bb
       -0.030639412 -0.038248498 -0.13801609 -0.006829591
0001c0 ba 52 48 be 72 ae 54 3c 72 3e b2 3d 64 c4 51 be
       -0.19562808 0.012981044 0.08703317 -0.20485073
0001d0 f9 3f 1b bd 90 3a 61 bd 79 11 06 be a8 c0 f6 3c
       -0.037902806 -0.05498749 -0.13092603 0.030121163
0001e0 1e 43 46 3e 97 3c de bc e1 ff 1d be f8 22 91 bd
       0.1936154 -0.0271285 -0.15429641 -0.07086748
0001f0 3e 7f f9 bd 29 29 9a bd 3f 38 02 bd 89 64 7d bd
       -0.12182473 -0.07527382 -0.03179192 -0.061863456
000200 09 f8 1d be d5 0b d3 3c db 72 ca be a8 ae 16 bf
       -0.15426649 0.025762478 -0.39540753 -0.58860254
000210 3c ff 10 bf 05 ed 48 be 72 94 bd 3e 3f 06 be 3e
       -0.56639457 -0.19621666 0.37027317 0.3711414
000220 44 ef 14 3f 1d aa 6e 3e 79 61 0a 3d 98 f6 bd 3e
       0.5817759 0.2330708 0.033784363 0.371022
000230 0c 60 f6 3d f8 2c a5 3d 5c f0 f6 3d 17 7c 16 bc
       0.12030038 0.08065218 0.12057564 -0.009184859
000240 6a a6 e9 bd 86 9c 76 bd d4 19 b1 3d 1e d1 57 ba
       -0.11408694 -0.060207866 0.086475044 -0.000823276
000250 a7 47 81 bd 98 50 c7 bd 5f 69 f3 bd fc 85 db bd
       -0.06312495 -0.09732169 -0.11885332 -0.10718915
000260 b1 64 b3 3e 12 90 ec 3d 99 43 1e 3e 95 b4 84 be
       0.3503776 0.11550917 0.15455474 -0.25919023
000270 4e 3e a2 3d 1c 87 cb bd b6 f2 db bc 80 ec 52 bd
       0.0792204 -0.099378794 -0.026849132 -0.051495075
000280 2e c9 3e be fc be da be c4 c0 b5 be 72 5e c7 be
       -0.18631431 -0.42723835 -0.3549863 -0.38939244
000290 6b 39 e7 bc 84 9d 75 bd 1c 4b 72 bc c7 08 05 3e
       -0.028225621 -0.05996467 -0.014788415 0.1299163
0002a0 13 9e a3 be 6a 21 59 be 51 be 2e 3e 13 61 37 3e
       -0.3195654 -0.21204153 0.17064787 0.17908125
0002b0 9d ae 49 bd 0d cc eb 3b c2 32 b3 3c 05 44 d5 bd
       -0.04923879 0.0071959556 0.02187479 -0.10413364
0002c0 ff 1b 70 bc e9 d1 67 3d c1 59 bb 3d 9b 1e 08 3d
       -0.014655112 0.05659667 0.091479786 0.033232313
0002d0 3f 2c 84 3c f6 d2 d9 bc e7 94 ed 3d 48 60 7c bd
       0.01613438 -0.026589852 0.116006665 -0.06161526
0002e0 cd 78 09 3e a9 12 16 be b0 2f fa bc 74 cc da bc
       0.13424988 -0.14655556 -0.030540317 -0.026708819
0002f0 2a 57 d6 bd 7f ee 8c 3d 64 93 61 bd 28 9c 56 bc
       -0.10465844 0.06881427 -0.055072203 -0.013098754
000300 d9 5e cc bd 9c 3a d4 be 70 77 3b 3e 04 da ad 3e
       -0.09979028 -0.41450965 0.1830728 0.33955395
000310 94 a9 ae be 04 2f fd be b6 50 11 3e 7c 5c 93 3d
       -0.34113753 -0.49449933 0.14190945 0.07195374
000320 84 df cd bc b7 dd 86 3e aa 9c c4 bd 2c 8f b2 bd
       -0.025130995 0.2634103 -0.09600194 -0.08718714
000330 24 07 97 bd d1 0c b6 3d b2 fd 3a bd 64 63 db 3d
       -0.07374409 0.08889163 -0.0456521 0.10712317
000340 05 1b 3c 3d 64 bd 83 3c 2e d4 77 ba 38 aa cd bc
       0.045924205 0.01608152 -0.00094539195 -0.02510558
000350 87 88 82 3c fe 90 ed bc 21 b1 ac 3e d2 ab 16 bd
       0.015934242 -0.028999802 0.3372889 -0.036784954
000360 1a c3 a5 be e4 f1 67 be 9d 06 d2 3d 8b 14 d3 bd
       -0.32375413 -0.22650868 0.10255168 -0.10306653
000370 84 69 15 bc 0e a6 00 3e 4a ae b5 3d 2f 6d 34 3d
       -0.009119395 0.12563345 0.088711336 0.044049438
000380 b5 c7 8b be cf ba aa be f6 49 02 be 77 22 be be
       -0.27300802 -0.3334565 -0.12723526 -0.3713567
000390 db 75 c7 bd 60 8c 94 bb e0 d0 60 3e ca 7c b4 3e
       -0.09739276 -0.0045333356 0.2195468 0.35251456
0003a0 af 5d 2b 3e 79 a1 13 3e 72 7c c5 3d 51 35 97 bb
       0.16734956 0.14417066 0.09642877 -0.00461451
0003b0 fc 33 55 3e e7 59 ce bd 7d 78 5c bd d5 f6 11 3e
       0.20820612 -0.10075741 -0.053825844 0.14254315
0003c0 5f bf 48 bd 4a 87 82 3e e5 6a 53 3e 82 2f 55 39
       -0.04901063 0.25493842 0.20646246 0.00020330961
0003d0 f7 3d e2 bc f0 2c e2 bd 29 7c 97 3e 6e 74 15 be
       -0.027617438 -0.110437274 0.29586914 -0.14595196
0003e0 fc 6c e5 3a 05 e2 b0 bc 54 fc 88 bd 3e 82 89 3c
       0.0017503793 -0.02159215 -0.06688753 0.016785737
0003f0 f0 8f 0a 3e f4 05 e5 b9 93 08 24 bc bc 65 c4 bc
       0.1353147 -0.0004368272 -0.01001181 -0.023974292

actor.0.bias f4 [64]
000000 b8 23 cb 3d 3f 1e c7 bc 70 2a a2 bb ba 00 fe 3b
       0.09918922 -0.024306415 -0.0049489066 0.0077515515
000010 7e 98 ac bd 83 12 02 be ca eb 1b bd 4e c6 8d 3d
       -0.08427523 -0.12702374 -0.038066663 0.06922589
000020 16 49 18 3e 84 c4 21 3d 09 f2 74 3d 44 79 2d be
       0.1487163 0.039494053 0.059801135 -0.1694079
000030 3c 30 ae bd 98 61 e5 3b d6 da af 3c 40 68 1c 38
       -0.08505294 0.0070001595 0.021466654 3.729039e-05
000040 ed c1 32 be 9a 04 e1 3d 2e b0 eb bd 5c 4b fc bd
       -0.1745679 0.10987206 -0.11508213 -0.12319061
000050 43 c0 96 bd af 45 2b be 02 9c 2c 3d 2f 8b b4 3c
       -0.0736089 -0.16725801 0.04214097 0.022039024
000060 21 fc 05 bb 24 b8 5c 3d 9e fc 21 bc 22 a2 d6 bd
       -0.002044447 0.053886548 -0.009886889 -0.10480143
000070 49 88 25 bd c6 9d 54 be 07 f2 50 bd 23 0e d8 3d
       -0.040413175 -0.20763311 -0.051012065 0.10549571
000080 55 cb 19 3e 93 9f cd bd 24 fd fb 3d 56 89 63 be
       0.15018971 -0.10040202 0.12304142 -0.22220358
000090 07 14 44 3e db 36 93 3d 1a f6 55 bd c8 02 69 be
       0.19148265 0.07188197 -0.052236654 -0.22754967
0000a0 1a 1d fb 3d 36 57 1f 3d c4 47 78 bd 01 d3 d8 3c
       0.1226141 0.03890153 -0.060615316 0.026467802
0000b0 88 2c 98 3d 01 eb ce 3d 6c 20 04 be 87 a6 57 bb
       0.07430369 0.10103417 -0.12902993 -0.0032905655
0000c0 24 68 72 3e e8 a3 22 3d 6a 45 e0 3c 7a 57 9e be
       0.23672539 0.039707094 0.02737685 -0.30926114
0000d0 b1 1b 54 3e 4c 63 d1 3d dd 5c 36 3e 91 22 ca bd
       0.20713688 0.102240175 0.17808862 -0.09869874
0000e0 d3 b5 d4 3d a4 85 c6 bc d4 ea 4c be 46 90 53 be
       0.10386243 -0.024233647 -0.20011455 -0.20660505
0000f0 df 4c 6e bd 77 c7 29 be 90 3e 53 be 8e 09 04 bd
       -0.05817878 -0.16579996 -0.20629334 -0.032235675

actor.2.weight f4 [64, 64]
000000 98 80 b2 bd 43 c4 f1 bd 48 1b 9c 3d 0a 79 d9 bd
       -0.087159336 -0.11805012 0.07622391 -0.106187895
000010 53 6f 6c bc 48 51 90 3d cf aa 37 bd f3 73 d2 bd
       -0.014430839 0.07046753 -0.04484063 -0.10276022
000020 79 c6 0d be 53 21 84 bc 04 dc c6 bd 30 5a 15 3c
       -0.13845243 -0.016129171 -0.097099334 0.009115741
000030 d7 ee a0 3c a3 4b 81 bd a7 d8 82 3d 30 8a 08 bd
       0.019645138 -0.06313255 0.063889794 -0.03333491
000040 20 55 4c bd 70 e1 e8 bd 93 db f7 3b eb e2 c0 bd
       -0.04988587 -0.11371124 0.007564017 -0.09418281
000050 25 88 52 3c 50 e6 7c bd d1 68 7b 3d 70 0a d4 bd
       0.012849842 -0.06174308 0.061379258 -0.10353553
000060 cc fb 93 bd 4c 74 50 bd 71 1a e1 bd 16 8c f9 3c
       -0.07225761 -0.05089216 -0.109913714 0.030462306
000070 28 c7 ad bd 62 17 27 3d 33 48 dc 3c 1d cd 30 3d
       -0.08485252 0.040793784 0.026889896 0.04316436
000080 4b 37 95 bd 98 b1 d5 3c cc 42 9d bd c0 10 ff bd
       -0.07285937 0.02608566 -0.07678756 -0.12454367
000090 55 35 f2 bc 18 5e 0a be 57 cf 0b be 00 26 02 3d
       -0.029566446 -0.13512456 -0.13653313 0.03177452
0000a0 e6 10 97 3d df b4 a8 bd a5 5a 7c bd 4f f5 04 be
       0.0737627 -0.082376234 -0.061609883 -0.12984203
0000b0 74 d4 14 bd 8e 65 c9 bb 00 2b 00 bd 72 e2 40 3d
       -0.036335424 -0.0061461395 -0.031291008 0.047090955
0000c0 d7 17 0b be 00 c8 87 bd d0 89 ce bd b3 15 8b 3d
       -0.13583313 -0.06629944 -0.100848794 0.06791248
0000d0 29 5c 9e 3d f1 6a c0 3d 67 3c 5d 3d f0 c7 4a 3d
       0.07732422 0.093953975 0.054012682 0.04950708
0000e0 26 97 fa bd 8b 88 c7 bd 95 b2 8c 3b d7 ae 03 be
       -0.122358605 -0.097428404 0.0042937496 -0.12859665
0000f0 b9 b7 9a 3d 98 96 5e 3d 6d fa 4a 3c 9f 17 01 be
       0.075545736 0.054342836 0.012388808 -0.12606667
000100 b3 05 95 3e bc d3 62 3c 7d fe fc bd 97 55 02 3e
       0.2910591 0.013844427 -0.12353227 0.12727962
000110 a2 e4 12 bd 71 96 69 bc 67 70 e5 3d 8f c6 59 3e
       -0.035862572 -0.014257059 0.1120308 0.2126715
000120 54 f9 3e 3e 28 d2 1b be c2 41 1c 3e a7 2b 86 3e
       0.18649799 -0.15216887 0.1525946 0.2620518
000130 f8 62 12 bd 5e 0f 7b be 54 27 38 3e a4 50 ce 3d
       -0.035738915 -0.24517581 0.17983752 0.10073975
000140 a6 33 9e bd 49 12 32 3e b9 4a ab 3b 53 7d 00 3e
       -0.07724695 0.17389788 0.0052274135 0.12547807
000150 4c a6 47 bc e8 4f 8d 3e c4 a4 00 bc 37 1b 42 be
       -0.012185644 0.27600026 -0.007851783 -0.18955694
000160 86 f1 51 3e de de 1a be 7d 1f 20 be 4f 89 c6 3d
       0.2050229 -0.1512408 -0.15637012 0.09694158
000170 02 fa c2 3d d2 82 08 3e 0c 24 3f be 05 31 b8 bc
       0.095203415 0.13331154 -0.18666095 -0.022484312
000180 c0 c3 7e be 93 70 87 3d a7 b1 69 3e dc 67 0b bd
       -0.2487936 0.06613269 0.22821675 -0.034034595
000190 c3 81 04 3d 81 b4 ae bc 17 98 22 3e 1d d0 1a bd
       0.032350313 -0.021326305 0.1587833 -0.03779613
0001a0 f3 a3 43 bd 64 0a 52 3e 55 53 6b 3e c2 d0 91 bd
       -0.047763776 0.20511776 0.22981007 -0.071198955
0001b0 5a f1 7f 3e ad 91 8b 3c 56 2d 16 3e 39 56 47 bd
       0.24994412 0.017037237 0.14665732 -0.048666213
0001c0 e0 00 c3 3b 43 07 f3 3e 75 0f 9f bd 1d ce 8b bd
       0.005951032 0.47466478 -0.0776662 -0.06826422
0001d0 c4 e9 84 be 10 9f f2 3d 5f e2 33 3d fb a2 db 3d
       -0.259596 0.11846745 0.043917056 0.107244454
0001e0 a4 32 42 3e b7 88 8d be e4 50 65 3e 6e 21 22 3e
       0.1896463 -0.27643368 0.22394139 0.15833065
0001f0 30 0b 5d bb f3 ab 51 bd 97 e1 77 bb 96 24 c5 3e
       -0.0033728592 -0.051189374 -0.003782367 0.38504475
000200 96 33 29 bf eb cf 66 3e a1 2c 4c 3e 38 34 57 3c
       -0.6609434 0.22540252 0.199389 0.0131350085
000210 dc 3c 83 3e 7b 64 14 3e 75 29 cf 3d 4f a0 41 bf
       0.2563237 0.14491455 0.10115329 -0.75635237
000220 10 76 d4 bd 5b 0a cc 3c 9e 99 92 be 6e a9 83 be
       -0.10374081 0.024907282 -0.28632826 -0.25715202
000230 d1 0e 5c be 23 d3 8a 3e 55 6d 07 be 0b db e1 3c
       -0.21490027 0.2711421 -0.132253 0.027570268
000240 b5 1d 08 3d 8e 05 3c be ef f1 c8 3e de 30 f8 3d
       0.033231456 -0.18361494 0.3924708 0.12118696
000250 d0 d2 9b 3e 05 69 fe bd b5 70 45 be ba 2a 8d be
       0.30434275 -0.12422375 -0.19281276 -0.2757166
000260 93 98 34 be 0d 08 d3 3d db 3d a5 3e eb ff 21 bd
       -0.17636327 0.1030427 0.32273754 -0.039550703
000270 af 4c 73 3e 9b fa ea 3d bb c7 74 3e 89 58 c7 3e
       0.23759721 0.114735804 0.23904316 0.38934734
000280 d3 a3 a4 3d 57 2b 5f 3e 73 27 13 be 98 92 14 be
       0.080390595 0.21793877 -0.14370517 -0.14509046
000290 86 5d 6e be 92 b9 39 3e 30 e0 ba 3d 26 5a 4e be
       -0.23277864 0.18137196 0.091247916 -0.20151576
0002a0 d4 ad 63 3c 90 50 43 3d 73 5d 39 bc a3 8b 90 bb
       0.013896424 0.047684252 -0.011313784 -0.0044111772
0002b0 60 98 cd 3c 88 70 b4 3e 09 79 d6 bb ce 3c 81 3e
       0.025097072 0.35242105 -0.0065451902 0.25241703
0002c0 0b 28 ca bd 04 28 c0 bd db fb de 3d c6 06 39 3e
       -0.09870919 -0.093826324 0.10887881 0.1806899
0002d0 ba 22 59 be 52 58 cc be 1c c4 28 be e0 e8 54 bc
       -0.21204653 -0.39911133 -0.1648106 -0.012994975
0002e0 1b af bb bd 2e 16 c5 3e 90 ed dc 3d 3b a0 68 bd
       -0.09164258 0.38493484 0.10787499 -0.056793433
0002f0 7f eb 6e 3e 09 77 62 3d 06 f5 d4 bd 3f c8 5a be
       0.23332022 0.055289302 -0.10398297 -0.2136545
000300 f9 f4 39 3d e2 df b8 3e d8 e9 78 3e 1f 86 e0 bc
       0.04539964 0.3610831 0.24307954 -0.027407704
000310 f1 30 75 bd 6e 35 da bd b5 15 54 be 1a 63 8e 3d
       -0.059861127 -0.10654722 -0.20711406 0.06952496
000320 c7 86 5d 3e 33 26 2f 3e 1c 5a 77 be 79 9e c9 bd
       0.21633445 0.17104416 -0.24155468 -0.098446794
000330 69 a2 5d be 56 2a d9 3d 70 97 28 be e2 b0 f0 3d
       -0.21643986 0.10603778 -0.16464019 0.11752488
000340 0d 3d 27 bd ab 61 96 bc 46 ff e1 3d 15 5e a0 bd
       -0.040829707 -0.018357119 0.11035018 -0.07830445
000350 63 af 73 3e 85 69 2d be 8d 70 59 be 88 0c 4e be
       0.23797373 -0.16934784 -0.21234341 -0.20121968
000360 68 53 21 3e ac 66 7a 3e 08 1e 61 3e 68 1b 87 bd
       0.15754473 0.24453229 0.21984112 -0.06597024
000370 d3 f8 cb be 50 6a 16 be f5 04 7b 3d 41 b7 b8 3d
       -0.39838275 -0.14688993 0.061284024 0.09019328
000380 3e 3d c9 3d 91 2b da bd 7f c6 bd 3e 8c b0 65 3d
       0.09826134 -0.10652841 0.37065503 0.05607657
000390 4a 34 c7 bb d1 ce 86 be 9d 94 cb 3d 67 c0 9f 3d
       -0.0060792314 -0.26329663 0.09940455 0.0780037
0003a0 8a 38 8e 3c 8c 2d d3 3c 25 64 96 3d e2 19 e6 3d
       0.017360944 0.025778554 0.0734332 0.112354055
0003b0 98 98 07 3f c5 a0 de 3d 6c aa e3 3c e6 62 e4 bd
       0.52967215 0.10870508 0.027791224 -0.11151676
0003c0 c6 85 fe bd b5 85 06 3e b1 71 a2 3c af 1c a8 be
       -0.12427859 0.13136943 0.019829603 -0.32834384
0003d0 3a 83 58 be 32 64 14 bf 43 7c 8a 3e 4b 6d 99 bd
       -0.21143809 -0.57965386 0.2704793 -0.07491549
0003e0 f6 7b 8e 3c 75 2f 95 3e 1f fe 88 be 05 41 c3 bd
       0.017393094 0.2913777 -0.2675638 -0.09533886
0003f0 c3 6c 9a 3e 9f 38 0f 3c 67 39 23 bd d3 d3 f1 bd
       0.30161104 0.008741527 -0.039849665 -0.118079804

actor.2.bias f4 [64]
000000 88 54 ac bd 06 ae 33 3d ff f8 8e bd 95 82 a1 bd
       -0.084145606 0.043867134 -0.06981086 -0.07886235
000010 da 7d 62 3d ec c4 97 3e e1 41 28 be 54 8a 00 3e
       0.055295803 0.29642427 -0.16431381 0.12552768
000020 84 e1 fa bd 70 30 d4 bb 3c b9 fd 3c 46 67 05 3c
       -0.12250045 -0.0064755008 0.030972116 0.008142298
000030 fe 50 ff bd 20 fc c4 bd bb 0f 6a 3d 86 56 82 3e
       -0.1246662 -0.096184015 0.057143908 0.25456637
000040 eb 88 f9 bd 11 aa 41 3e 33 33 83 bd 7b d9 3c 3e
       -0.12184318 0.18912531 -0.0640625 0.18442337
000050 e9 73 17 be 1b 49 6b bb 7f 60 34 3d a8 ac 47 3c
       -0.1479031 -0.0035901729 0.04403734 0.012187161
000060 57 2f cb 3d 02 31 aa 3d dc bc 26 3d 3e 0c af bd
       0.09921139 0.08310129 0.040707454 -0.08547257
000070 85 88 07 be 62 be 80 bc 7c 5a c3 bd 4b 67 30 3e
       -0.13235672 -0.015715782 -0.09538743 0.17226903
000080 41 62 f6 3b b6 1c 1d 3e c6 e8 31 3d 71 c2 2a bd
       0.007519037 0.15342984 0.04343488 -0.04168934
000090 07 b2 51 3b 97 10 1a 3d 99 6c 60 3e fa 0e a7 3c
       0.0031996982 0.037613478 0.21916427 0.020392884
0000a0 5e e6 82 bd 92 ba 4b 3c 1b ec af 3d c4 fb c4 bd
       -0.06391595 0.012434619 0.085899554 -0.09618333
0000b0 ed 31 a8 bc df a9 b5 bd 81 70 24 be 01 96 8c bc
       -0.020531619 -0.08870291 -0.16058542 -0.017161371
0000c0 f4 1f 0b be 2e 73 b9 3d 4a 94 51 bc f7 14 24 3c
       -0.13586408 0.09055172 -0.0127917025 0.010014764
0000d0 1a f7 50 bd e7 08 d3 bd 9b f5 c7 bd 0a d2 cb 3c
       -0.051016904 -0.10304432 -0.097636424 0.024880428
0000e0 a7 71 38 bd 50 56 38 3e ce b5 ba 3d c6 2c 10 3c
       -0.045030262 0.18001676 0.09116708 0.008799737
0000f0 2a 95 0c be 11 c5 34 3d 13 e4 69 bc 15 b9 16 bd
       -0.13728777 0.04413325 -0.014275569 -0.0367976

actor.4.weight f4 [36, 64]
000000 a5 59 be 3c 21 1d 8b be 57 57 e5 3e 96 86 de bc
       0.023236105 -0.2717066 0.44793198 -0.027163785
000010 38 0f 8e 3e 3a df 95 be e7 ce b6 3d 1d bf 45 3f
       0.27745986 -0.2927187 0.08926182 0.7724474
000020 ee c9 45 bd 73 ae 3a be 35 1d 81 be 11 87 33 be
       -0.04828828 -0.1823061 -0.25217596 -0.17531992
000030 c4 95 6a bd 90 ff 54 bd ca b0 d0 be 80 88 3b bf
       -0.057271734 -0.052001536 -0.4075988 -0.7325516
000040 70 49 23 3d f0 4f 02 bf 01 14 96 3d 5b 17 39 3f
       0.039864957 -0.50903225 0.07328034 0.7230126
000050 8e cc 88 3e 2e eb a0 be 32 cd a7 be 5b a0 98 bd
       0.26718563 -0.31429428 -0.3277374 -0.074524604
000060 80 f9 4e bf 48 1f fd 3c 53 6a 77 3d 6a 70 3e 3f
       -0.80849457 0.030898705 0.060404133 0.7439028
000070 4d 08 23 bf 28 4f 8f be c8 41 5e be b4 b4 e7 3e
       -0.6368454 -0.2799008 -0.21704781 0.45255053
000080 60 ca 19 bd 43 af 09 bf 21 7c 8c be 4d 39 f8 be
       -0.037546515 -0.53783053 -0.27438453 -0.48481217
000090 91 2d 4e be fa 5d 37 3e 32 96 1f bf fe 90 cb be
       -0.2013457 0.17906943 -0.62338555 -0.39759058
0000a0 98 f7 d9 be ab c5 8c be e9 20 e7 be 53 69 c3 bd
       -0.42571712 -0.2749456 -0.45142296 -0.095415734
0000b0 a7 e4 52 be 90 94 12 3d a8 f0 7c bd 4d 3a 32 be
       -0.20595036 0.03578621 -0.061752945 -0.17405052
0000c0 32 e3 2a be fa 83 bf 3e 21 ed 9c bd d8 13 2d bf
       -0.1668823 0.37405378 -0.07662416 -0.67608404
0000d0 dc b4 37 3e 76 b7 0b be 27 21 0b 3e 42 a6 6d be
       0.17940086 -0.13644204 0.13586865 -0.23207954
0000e0 0d f8 c7 bc 84 e7 20 bf 1b ee 22 bf 74 71 e6 bd
       -0.024410272 -0.62853265 -0.6364457 -0.11252108
0000f0 e2 f5 4f 3f 05 6c 34 bf a9 16 42 3c 52 55 16 bd
       0.8123456 -0.70477325 0.011846223 -0.03670246
000100 38 a6 b3 bd 5b f2 cf be f7 6c e9 3e 00 75 d4 3e
       -0.08771938 -0.4061459 0.45590946 0.41495514
000110 44 8b 4e be 6b 21 74 be ba 8d 21 3d 0e f6 35 be
       -0.20170313 -0.23840873 0.0394418 -0.17769644
000120 02 f8 06 bd 12 12 69 bd 54 1c 2c be 70 5c a5 3d
       -0.032951362 -0.056902 -0.16807681 0.08074272
000130 f4 96 1e 3e 24 e3 f3 bd 13 41 13 3f 8b d2 a2 be
       0.15487272 -0.11908558 0.5752117 -0.31801257
000140 f4 21 d7 bd 8b f6 5d 3d 37 4e f2 be df 0a 9d be
       -0.10504523 0.0541902 -0.47325298 -0.30672356
000150 45 ac 23 3e df fa 39 3f b9 d8 af be dc f7 38 be
       0.15983684 0.72648424 -0.34345034 -0.18063301
000160 18 de 03 bf c1 e0 dc 3b d7 d0 e6 bb 9b 77 2c 3e
       -0.51510763 0.00674066 -0.0070439386 0.16842501
000170 6f d4 ed 3e 09 06 9c be 0c 3d 48 be 93 02 2e bf
       0.46451136 -0.30473354 -0.19554538 -0.6797268
000180 c3 e9 e4 bd 79 32 0e bf 7a e0 e9 3e e9 d0 82 be
       -0.11177399 -0.55545765 0.45679075 -0.2555001
000190 b6 d9 ad 3e 61 9a b9 3d a3 d2 a6 3e 79 42 0c bf
       0.33955163 0.090626486 0.32582578 -0.5478893
0001a0 a4 dc 28 3f 36 66 e4 bc df 06 57 be b9 70 08 3d
       0.6596167 -0.02788077 -0.20998715 0.033310626
0001b0 92 b6 98 3d bf 00 25 3e 82 b2 19 bd 1b a6 93 bd
       0.074566975 0.16113566 -0.037523754 -0.072094165
0001c0 b6 3b e9 3d f3 e4 ae 3e ae ce 26 3d 93 15 b1 be
       0.11388342 0.3415905 0.04072445 -0.34586772
0001d0 0d fc d9 3e c7 a5 69 bd 5f 4c 40 3f 72 eb 93 be
       0.42575112 -0.057042863 0.75116533 -0.28890568
0001e0 1c 61 c9 3c 49 af 93 3e bb e6 bf be 0c bc d2 3d
       0.024582438 0.2884467 -0.3748072 0.10289773
0001f0 9d 43 25 be d8 56 b8 3e 17 bd 09 3e 20 c9 d7 3c
       -0.16139074 0.36003757 0.13451038 0.026341021
000200 97 79 be 3d 44 ab 2c 3d 05 cc 0e 3f b5 3f 34 be
       0.09300535 0.04215552 0.5578006 -0.17602427
000210 14 ba 6d 3d 63 7d bd 3e 64 8b ee 3d 5f 75 c6 3c
       0.058038786 0.37009725 0.116476804 0.024225889
000220 05 f1 1c 3d 93 f5 78 3d 78 cd cf 3e 11 ca e3 3e
       0.03831579 0.060781073 0.40586448 0.44490102
000230 0d d8 53 3e 9b e9 f6 3b 50 6d 8c be f4 f1 06 be
       0.20687886 0.007535172 -0.2742715 -0.13178235
000240 16 61 94 bb 5a 29 b8 bb 0e 58 c4 3e 85 42 7a 3e
       -0.004528175 -0.005620164 0.3834843 0.24439438
000250 1c f1 12 3f 5d 05 8d be 76 9f ed 3d 45 eb 6a bd
       0.57399154 -0.27543154 0.116026804 -0.057353277
000260 c2 6e d6 bc 87 15 ab 3e ed 88 26 3c 73 1d e3 3e
       -0.02617586 0.33414862 0.010164482 0.44358405
000270 41 8e 1e 3e 0f 39 f6 3d 18 53 21 3e 36 16 2a 3d
       0.15483953 0.12022602 0.15754354 0.04152509
000280 5e a9 db 3d f5 f6 61 be 1f 9d e4 3e 62 b3 2d 3e
       0.107256636 -0.22066863 0.44651124 0.1696296
000290 0b 0f e7 3e 24 cb 5c 3d a9 67 6f 3d 3f f1 54 3e
       0.45128664 0.053904667 0.058448467 0.20795153
0002a0 d3 1f 7e 3e 5c d9 a7 be 7d 9a 96 bd a0 93 f5 3c
       0.24816827 -0.3278302 -0.07353685 0.02997762
0002b0 d3 d1 45 be 55 61 be 3c de 5a 27 3e a6 a1 fb 3d
       -0.19318323 0.02323977 0.16343257 0.12286691
0002c0 2a ad b9 3e 52 60 cd 3e df c2 b8 bd f1 f2 19 3e
       0.36264926 0.4011255 -0.09021544 0.15034081
0002d0 0a f4 b6 3e 31 9b 0b bd ae 39 1b bd a7 d0 d5 3e
       0.35733062 -0.03408355 -0.037896805 0.41760752
0002e0 02 e4 57 bd 0c a7 ba be 36 2f ef bd 5f b8 e2 bc
       -0.05270768 -0.36455572 -0.11678927 -0.027675806
0002f0 42 45 02 bd 4a b4 3c 3e ba d4 27 3c 70 fd 88 bd
       -0.03180433 0.1842815 0.010243589 -0.06688964
000300 20 0a dd 3d a3 64 05 be 27 5f 80 be 96 60 91 be
       0.10792947 -0.13026671 -0.25072595 -0.28394002
000310 29 ed e6 bc a3 a9 ba be e1 cd 71 3d 87 a1 97 bd
       -0.028189259 -0.36457548 0.059034232 -0.07403856
000320 01 f2 2b bd 08 ba ca 3d 59 5f b5 3a 66 d4 05 3e
       -0.04197884 0.09898764 0.001383762 0.13069305
000330 e7 13 17 3e 05 d0 16 bd 96 12 34 be 4f 0a a1 be
       0.14753686 -0.036819477 -0.17585215 -0.31453177
000340 04 21 02 bd bb 49 5a be 6c d0 3e be bb 9a dd bd
       -0.031769767 -0.21317188 -0.18634194 -0.10820528
000350 aa 8b 85 be 8f c8 95 bd 8d 01 29 be 3c 8a 93 3e
       -0.26083118 -0.07313644 -0.16504498 0.28816402
000360 a3 17 ac bd 0f fc ab be fb f7 4c bd 62 50 d1 bd
       -0.08402946 -0.33590743 -0.05004118 -0.1022041
000370 15 44 ae 3b 03 d2 de 3d 57 f7 ec 3d 99 7b 32 bf
       0.0053181746 0.108799 0.11570614 -0.69719845
000380 46 6f f4 3d e9 fc 61 be 09 f6 92 bd eb b7 7f bd
       0.11935286 -0.22069134 -0.07175834 -0.062431257
000390 0e 63 0f be 01 a7 60 be f0 f6 88 be e9 0d 9e be
       -0.1400263 -0.21938707 -0.26750898 -0.30869988
0003a0 b0 6f b8 bc 8f a1 69 bc 7b cb bf 3a 47 89 90 bd
       -0.022514194 -0.01425971 0.0014632785 -0.070574336
0003b0 f2 33 bd bd be 13 5b 3d 47 02 dc 3d 6a cd 1a be
       -0.092384234 0.053485624 0.10742622 -0.15117422
0003c0 b1 36 db bb e9 8c 9d 3d e9 39 6f 3c be b4 c3 be
       -0.0066898693 0.07692892 0.014601209 -0.38223833
0003d0 81 58 15 3d 95 44 55 3e ba 35 fa bd 1a 67 46 be
       0.036461357 0.20826943 -0.12217279 -0.19375268
0003e0 3c de f9 3d 13 36 f1 be 60 4a 12 bf 0b 86 29 3d
       0.12200591 -0.47111568 -0.5714474 0.0413876
0003f0 7b 98 f8 be 95 c2 07 be 27 eb 4f bd 74 4d 20 bb
       -0.48553833 -0.13257821 -0.050761368 -0.0024460228

actor.4.bias f4 [36]
000000 c5 d9 2d be 84 71 73 be d4 18 98 bc 20 a2 f0 be
       -0.16977604 -0.23773772 -0.018566526 -0.46998692
000010 44 6c 18 bd ab 2e fd 3d 80 3b 73 3e c4 22 96 3e
       -0.037212625 0.12362417 0.23753166 0.293234
000020 46 ad 95 bd 21 98 89 be 71 9e db 3b ee 7d 5b 3e
       -0.0730844 -0.26873878 0.0067022373 0.21434757
000030 2a bf 78 3e df 5c b9 3e 44 78 39 3e 95 b9 2b 3e
       0.24291673 0.36203668 0.18112284 0.16770013
000040 12 f5 65 3c b2 16 52 be df 8c ba be 82 25 78 be
       0.01403548 -0.2051647 -0.364356 -0.24233058
000050 02 b6 04 bf 98 a4 80 3d 5e 49 ef bd 14 84 5e 3c
       -0.5184022 0.06281394 -0.116839156 0.013581295
000060 a6 c0 c0 3e d6 d8 09 3e b3 be 9f 3e c4 14 3f 3d
       0.3764698 0.13461623 0.3120018 0.046650663
000070 a1 4a 01 3e 10 c0 a2 be d5 8e 29 3d 3e 5c 5d 3e
       0.12626125 -0.31787157 0.04139598 0.21617219
000080 ac 24 a3 3d 2e b6 51 3e 00 cc 42 bd dd 57 ab 3e
       0.07965979 0.20479652 -0.04755783 0.33465472

critic.0.weight f4 [64, 62]
000000 c8 60 9c 3d 6a 19 ab 3d 31 d8 ab bd 6c 5b 1b 3c
       0.07635647 0.08354457 -0.083908446 0.009482246
000010 50 bb 5e bd 58 40 d4 bc 78 07 2b bb 99 0c a2 3c
       -0.054377854 -0.025909588 -0.002609698 0.019781398
000020 73 bf 99 bd 94 15 a9 bc 03 29 70 bd a9 39 0e bd
       -0.07507219 -0.020640172 -0.05863286 -0.034722958
000030 c5 52 80 bd 16 de 87 bd 33 7f e5 bd b4 b7 b8 bd
       -0.06265787 -0.066341564 -0.11205902 -0.090194136
000040 fe 10 09 bc ab 20 dd bd 13 fe f7 bd c8 76 b6 3d
       -0.008365868 -0.107972465 -0.12109008 0.089093745
000050 0c 4a bb bd 7c 17 b6 3d d6 10 10 3c 3e 3c 98 bc
       -0.09144983 0.08891198 0.0087930765 -0.018583413
000060 ef 3e c9 3d 27 17 cb bd c0 34 79 3d b3 99 ad 3d
       0.09826457 -0.09916525 0.060841322 0.084765814
000070 18 71 d6 3d 8f 13 1a be 51 5e 66 3c 70 8f fd bc
       0.1047079 -0.15046524 0.014060573 -0.030952185
000080 f2 fb c0 bd 9a a3 b1 3d 52 32 b7 bc 73 eb af 3d
       -0.09423055 0.08673783 -0.022362862 0.0858983
000090 16 0d 8c bd 74 b4 66 bd f1 95 43 3d 86 ef 84 3c
       -0.068384334 -0.056324437 0.047750417 0.016227495
0000a0 c4 10 95 3d 69 e9 5d 3d e3 71 c5 3d 3b ba bf bd
       0.072785884 0.054177675 0.09640863 -0.093616925
0000b0 9e 97 04 bc 49 ae 6b 3d d7 d4 3c bd 4d 10 a4 bd
       -0.008092789 0.05753926 -0.046101417 -0.080109216
0000c0 7f 1f c6 3d 11 9f 09 be c5 d4 d6 bd 6d 2c ea bd
       0.09673976 -0.13439585 -0.10489801 -0.11434255
0000d0 12 b7 00 3d b3 17 0a 3b b6 0c ef bd 3b 1a 42 3d
       0.03142459 0.0021071255 -0.11672346 0.047388297
0000e0 81 87 c0 3c 8a 36 30 3d af 98 fe bd be 95 f8 bd
       0.023502113 0.043020763 -0.12431466 -0.12137936
0000f0 46 7d 10 be 0a 2d 82 bd dd 19 e7 bd cc bf 83 3d
       -0.14110288 -0.06356247 -0.1128423 0.06433067
000100 28 39 8d bc 13 25 4d bd b5 ed 0a 3e f4 35 55 3d
       -0.017239168 -0.050084185 0.1356724 0.052053407
000110 19 a5 a1 3e 9d 3d 20 bc 6f 46 20 bc c7 8c f0 be
       0.31571272 -0.009780315 -0.009782418 -0.46982405
000120 1a 53 8c be 2a 74 bc be 4f 28 76 bd 0d ce 3c 3d
       -0.2740715 -0.36807376 -0.060097035 0.046094943
000130 0e c0 f7 bd 76 57 10 3e a3 f5 d4 3d fb 2e df 3d
       -0.120971784 0.14095864 0.10398414 0.10897633
000140 bf 91 8b 3d 45 04 df bb 5d 60 05 bd 76 59 f8 bd
       0.06814908 -0.006805929 -0.032562602 -0.12126438
000150 e2 da 88 3d 00 cd eb bc a8 10 a3 3c ed f3 ea bc
       0.066823736 -0.028784275 0.019905403 -0.028680766
000160 15 fc a7 3d bd 3a 84 3b 6c 52 d1 bd 67 ad 40 3f
       0.08202378 0.0040353225 -0.10220799 0.7526459
000170 5f 59 b9 3e 2f c9 f9 3e 73 dd 70 3d 5f 54 99 bd
       0.36200997 0.48786303 0.05880494 -0.07486796
000180 b5 e9 b6 3d e7 7b c9 3d 93 6a 49 3e 65 4a 2e 3d
       0.08931295 0.098380856 0.19669561 0.042551417
000190 50 d3 bc 3e 7d 3d 13 3f 07 62 d6 bd c0 69 e4 bd
       0.3687997 0.575157 -0.10467916 -0.11152983
0001a0 5e 67 4e 3e fc b6 d8 3d ad dc d6 bd 72 d6 80 be
       0.20156619 0.105817765 -0.10491309 -0.2516361
0001b0 66 f7 02 bd 21 e8 12 be f8 d3 30 3e 2d 95 2c bd
       -0.03197422 -0.14346363 0.1726836 -0.042134453
0001c0 e1 6a 27 3d d8 fb 4e 3c b0 1b 3f bd c0 7c 02 bd
       0.040873412 0.012633286 -0.046657264 -0.031857252
0001d0 68 53 78 3d 22 15 fc bd 52 a6 21 3e 8e 46 48 3d
       0.060626417 -0.12308718 0.15786102 0.04889541
0001e0 fa 4f 78 3e d3 2b b1 3d 41 11 9e bd 71 2b 21 3e
       0.24249259 0.08650937 -0.07718135 0.15739228
0001f0 1a 4f d7 bd 14 23 a3 3d 1f 64 d7 3d 23 24 47 3d
       -0.10513134 0.07965675 0.105171435 0.048618447
000200 9c df 55 bc 33 e8 2b be 43 f9 79 bc 38 b4 bb bd
       -0.013053801 -0.16787796 -0.0152571825 -0.091652334
000210 68 a6 ce 3e 0b f5 3a be 95 7b 45 be ea ed e9 be
       0.40361333 -0.18257539 -0.19285424 -0.45689327
000220 a3 c7 fc bd 1e 2e 28 be 1f eb 30 3d a3 37 bb be
       -0.12342765 -0.16423842 0.04319298 -0.36565885
000230 01 1f a3 bc 0a a1 99 bd de 74 f2 3d 9b 83 d3 bd
       -0.019912245 -0.07501419 0.11838697 -0.10327836
000240 2b c6 f2 3d 77 ec af bc ce 58 bc 3c 04 7c e2 3d
       0.11854204 -0.02147506 0.022991564 0.1105881
000250 c3 b2 70 bd ad bd 40 bd c4 37 57 3d c2 ca 03 bd
       -0.05876423 -0.04705589 0.052543417 -0.032175787
000260 f7 86 3d bd 4d 5e 03 3c 84 42 e6 bd a1 45 40 3d
       -0.04627129 0.0080180885 -0.112431556 0.046941403
000270 a6 e6 63 bd c6 7e 53 3d fd 69 49 3c 22 0e c8 bd
       -0.055639885 0.051634572 0.012293336 -0.097683206
000280 72 b9 42 be 5f 92 ec bd 3f f1 b7 3d c4 b7 ba 3e
       -0.19016054 -0.115513556 0.08981561 0.36468327
000290 38 8b 91 be b6 82 a0 bd ec 0f 3d be 94 71 42 be
       -0.28426528 -0.07837431 -0.18463105 -0.18988639
0002a0 81 f7 97 3d ef 4f a2 bd b8 51 d7 3c 88 cd 9a be
       0.074202545 -0.079254024 0.026284084 -0.30234933
0002b0 62 5c 14 be 29 f5 2b 3d 55 66 a1 bd 18 80 3e 3e
       -0.14488366 0.04198185 -0.078808464 0.18603551
0002c0 de 67 77 3d 29 31 09 3e af e4 84 3e 86 92 07 3d
       0.06040179 0.1339766 0.25955722 0.03309872
0002d0 7d 8b 84 be b5 a2 e9 bb f2 5c 84 3e da e8 cd 3c
       -0.2588767 -0.007129992 0.25852162 0.025135446
0002e0 c2 51 28 bc a6 5e 07 3e 5d 8e eb bd c2 11 ef bd
       -0.010273399 0.132197 -0.11501763 -0.11673309
0002f0 8d ab d9 bd 5c f5 b5 3d 55 09 83 be d3 e2 bb be
       -0.10628424 0.08884689 -0.25593057 -0.3669649
000300 e0 1f 2c be 07 ee 08 3f 32 b1 10 bd 63 68 3f be
       -0.16809034 0.534882 -0.035325237 -0.18692164
000310 17 10 83 bc d3 5d 0d 3d 81 10 9b ba f9 92 db bd
       -0.015998883 0.034513306 -0.001183048 -0.10721392
000320 78 cf 74 be 75 cc ff bd 91 5f 1b bd 4b 6d a1 bd
       -0.23907268 -0.12490169 -0.037932936 -0.07882174
000330 82 c9 ab bd 45 23 b8 3d da a5 ac 3c 59 b8 2a 3d
       -0.08388044 0.08991102 0.021075178 0.041679714
000340 d5 03 bd bd b2 e2 c0 3c 8d b4 e7 3d 4d 75 8e 3d
       -0.092292465 0.023545597 0.11313734 0.06955967
000350 4c 09 b6 bb 37 79 6f bd 5d 3a 98 3e b4 55 01 3f
       -0.0055553075 -0.05846521 0.29732028 0.505214
000360 a4 e7 59 3c 50 3c 99 3e 0b 87 13 bd a7 04 a4 bb
       0.013299856 0.29928827 -0.03601746 -0.0050054374
000370 5b dd f4 bc 8e 49 9a bd d7 51 b5 bd fa 83 cb bd
       -0.029890707 -0.07533561 -0.088535 -0.09937282
000380 0b 07 c3 bd 70 ae 77 ba 1a 51 0d be 46 5a 35 be
       -0.09522828 -0.00094482955 -0.13800469 -0.17710218
000390 67 f8 8a bb 76 d6 32 bd 0b e5 e9 bb 5f f7 b5 3b
       -0.0042410376 -0.043661557 -0.0071378998 0.0055531706
0003a0 da d1 a9 3b e1 31 d4 3c d8 44 f3 3c b8 9e f9 3d
       0.005182487 0.02590269 0.029695913 0.12188476
0003b0 3d 73 c2 3c af 07 b6 3d bd 15 b7 3d 1a e3 2a bb
       0.02373659 0.08888184 0.08939693 -0.0026075304
0003c0 7b 59 07 be 5f 73 a7 bd 47 ed cc 3d 13 47 a0 bc
       -0.13217728 -0.08176302 0.100061946 -0.01956514
0003d0 b8 5f 0a 3d 95 3a 64 bd 26 77 aa 3b 14 71 1b 3d
       0.03378269 -0.05571993 0.005202192 0.037949637
0003e0 3e f8 8b 3d 01 79 b8 3d d0 2e ea bd c8 31 a8 bd
       0.06834458 0.09007455 -0.1143471 -0.0821262
0003f0 f7 39 63 be e2 18 0a 3e 18 ee e5 3e 11 98 00 3f
       -0.2219008 0.13486055 0.44908214 0.50232035

critic.0.bias f4 [64]
000000 f5 cd 18 be fc 4f 31 3e 3b f9 f2 3b 1b 3e 1f be
       -0.14922316 0.17315668 0.0074149645 -0.15551035
000010 44 cf 78 3c 8f 54 2a bd 3b f3 7e bd 77 3f 80 be
       0.015186135 -0.041584548 -0.06224368 -0.2504842
000020 7c 06 19 be 46 16 46 3d ac ef f0 bd 76 b1 f7 bd
       -0.1494388 0.048361085 -0.11764464 -0.12094395
000030 33 fd 18 be 8b 4c d2 bd 8a 8b 18 be 83 28 00 3d
       -0.14940338 -0.10268506 -0.1489698 0.031288635
000040 ae dd 1f be dd 84 8a bd bd 8e 40 bd 7f 33 d6 3d
       -0.15611908 -0.06763623 -0.047011126 0.10459041
000050 05 1a 23 be 79 0c 97 bd 99 83 0e be 95 02 d2 bd
       -0.15927894 -0.07375426 -0.13917388 -0.10254399
000060 53 54 27 3e ff 37 b0 bc a8 7a 23 be 4b 21 88 bd
       0.16340761 -0.021511076 -0.15964758 -0.06646975
000070 48 c7 80 bd 22 3c 22 be 43 8a 8a bd df cf 62 3d
       -0.0628801 -0.15843251 -0.067646526 0.055374023
000080 d4 fe 27 be d5 0f d3 bd 0c 35 82 bd c9 51 fe 3d
       -0.16405803 -0.10305754 -0.06357774 0.12417943
000090 98 45 37 be 05 8b 53 3d d3 de 58 bd 1f 27 90 3b
       -0.17897642 0.05164625 -0.052946877 0.004399195
0000a0 7e a2 22 be 18 1f b6 bd ec 29 42 be 9f 3b 18 3d
       -0.15882298 -0.088926494 -0.18961304 0.037166234
0000b0 63 36 dc bc cb 8f 0d be 12 ea d1 3d cc c9 38 bd
       -0.026881402 -0.13824384 0.102497235 -0.045114323
0000c0 09 56 0d 3e 5f f8 ab be 31 05 3f 3d 7b 6d e6 bc
       0.13802351 -0.3358793 0.04663581 -0.028128376
0000d0 3b c0 cb 3c 77 b5 b5 bb 35 dc 1d be 56 d0 1e be
       0.024871936 -0.005545314 -0.15416034 -0.15509161
0000e0 1e 06 13 3e 45 b2 5a bd a8 76 83 be bc d0 54 bd
       0.14357802 -0.053392667 -0.25676465 -0.051956877
0000f0 8f ce 41 3e 59 41 a2 bd b5 2f da bd 5c e8 37 be
       0.18926452 -0.0792262 -0.10653631 -0.17959732

critic.2.weight f4 [64, 64]
000000 6f 48 9d bc 7a d7 d1 3d 0e 98 55 3c b4 dd d0 3d
       -0.019199578 0.10246177 0.013036741 0.101985365
000010 e9 7c 0c bc b0 41 39 3d 18 d8 86 bd 6c 3b 1f 3e
       -0.008574703 0.04522866 -0.06584185 0.15550011
000020 6d 7d f4 3d e6 44 c5 be 41 98 89 bc a4 af 6f 3e
       0.119379856 -0.38529128 -0.016796233 0.23406845
000030 19 14 07 bd f2 c2 36 3e 4a ab 07 3e ff b7 60 3e
       -0.03297815 0.17847803 0.13248935 0.21945189
000040 07 c7 1c 3d 4c c0 e5 3d 53 40 a9 be 71 03 1f 3e
       0.038275745 0.11218318 -0.33056888 0.15528657
000050 07 46 f6 bd de 39 18 3e aa 25 4d 3e 7a 0c d6 3d
       -0.120250754 0.14865825 0.20033899 0.104515985
000060 8e ba 98 bb 5c 34 0a be 52 86 c8 bd a7 54 c6 3d
       -0.004660911 -0.13496536 -0.097912446 0.09684115
000070 fc 75 f1 bd 67 d1 93 3c de ef 95 bc ef b9 df 3d
       -0.11790082 0.018044187 -0.018302854 0.10924136
000080 76 58 15 3e 31 18 95 bd 0d fa 3e 3d 3c 8f 1f 3e
       0.14584526 -0.07280005 0.046625186 0.15581983
000090 e3 db 15 be c2 a2 15 3e 22 87 41 be 3d e6 a2 be
       -0.14634661 0.14612868 -0.18899205 -0.31816283
0000a0 e0 22 40 bc 62 b1 23 3e 03 63 df 3d a2 d7 18 bf
       -0.011727065 0.15985635 0.10907557 -0.5970403
0000b0 a8 28 ac be 3a 62 49 3c 1e 82 30 3e e6 7a 80 be
       -0.33624768 0.012291485 0.17237136 -0.25093764
0000c0 51 33 94 3e 41 50 d4 3c 6f ae be 3d db 80 65 3e
       0.289454 0.025917174 0.09310614 0.22412436
0000d0 7e 28 ee 3d fe 54 a8 bc f3 83 82 bd b2 79 38 3d
       0.11628817 -0.02054834 -0.063728236 0.045037933
0000e0 7e 05 ac 3c e5 ef 64 3d 65 38 98 3d 9e 63 c9 be
       0.020998713 0.055892844 0.074326314 -0.39333814
0000f0 24 01 a8 3e b5 f8 a2 bd 49 e1 0f 3d 93 59 e6 3d
       0.3281337 -0.07957593 0.035126958 0.11247554
000100 e0 49 6d bc 87 1e 00 bb 95 00 92 bc f1 b3 b6 bc
       -0.014482945 -0.0019549446 -0.017822543 -0.0223026
000110 3d 9b ca bd 84 f1 8e bd b9 5d ce bd b0 63 d0 3d
       -0.098928906 -0.06979659 -0.1007647 0.10175264
000120 83 75 5d bd c2 51 f9 bd 9d ec d4 bd 87 0e d4 bd
       -0.054067146 -0.12173797 -0.10396693 -0.10354333
000130 20 a6 23 bd 08 9e ab bd b9 b4 d7 bd 01 29 64 bd
       -0.03995335 -0.083797514 -0.10532517 -0.055703167
000140 41 ea a8 3d 3c 9b e3 bd 19 73 f4 bc 36 b0 c8 3d
       0.082478054 -0.11113593 -0.02984004 0.097992346
000150 e0 46 84 3d c4 1e 62 3c e5 50 0d 3d a6 43 6d bd
       0.06458831 0.01380128 0.034500975 -0.057925843
000160 0d 1d e8 bd 25 40 dd bd d1 d3 b6 bd d4 13 9c 3d
       -0.11333666 -0.1080325 -0.089271195 0.076209694
000170 c7 aa 59 bc 8b c9 eb bd f4 de e3 bd a6 1a 3e bd
       -0.013285345 -0.11513051 -0.11126509 -0.046412133
000180 32 34 90 3d 57 9f ba ba d2 11 f0 3b 47 b3 26 bd
       0.070412055 -0.0014238161 0.007326343 -0.040698316
000190 51 12 ac bc 80 7c 5d 3d 39 82 d1 3c 7e 63 fa bc
       -0.021004828 0.05407381 0.02557479 -0.03056502
0001a0 50 cf ff 3d 74 64 96 3d 29 20 f3 3c 97 06 fb 3c
       0.124907136 0.07343379 0.029678421 0.03064279
0001b0 01 ab 77 3d 0d 85 01 bd 77 b0 0d 3c 31 a1 8b bd
       0.060465816 -0.031621028 0.0086480295 -0.06817854
0001c0 94 91 66 bd 9f c7 a7 bc 36 98 c8 bd d1 6b 91 3d
       -0.056291178 -0.020480929 -0.09794657 0.071006425
0001d0 74 07 cf bd f9 c5 c0 bd 62 af fb bc fa 1b 88 3d
       -0.101088434 -0.0941276 -0.030723277 0.06645961
0001e0 4f 63 9b bd 22 4b 02 bd 26 8a 65 3d cb e1 d7 bd
       -0.07587301 -0.031809933 0.05603995 -0.105411135
0001f0 27 85 ac 3d 4a c1 1d 3d 62 9f a3 3b 34 e6 45 bc
       0.08423834 0.038514413 0.004993365 -0.0120788105
000200 91 9a a7 3d 3c 55 26 be 1b 53 8d be be 06 b8 3d
       0.08183778 -0.16243452 -0.27602467 0.08985661
000210 4c 90 94 be 62 3e d0 3d bf c4 28 be c2 1a 08 3d
       -0.2901634 0.101681486 -0.16481303 0.033228643
000220 5d 39 8f be 6a 8d 3b 3d 42 f1 14 bb 66 78 1c 3e
       -0.27973452 0.04578916 -0.0022726809 0.15280303
000230 67 55 3c be 00 c5 af be 47 75 c9 bc 0d 9c 3b 3e
       -0.18391953 -0.34329987 -0.024592055 0.18321247
000240 05 89 18 bd 80 16 e5 3c 07 1d a1 bd a9 4a cb bd
       -0.037240047 0.02796483 -0.07866865 -0.0992635
000250 22 81 d8 3d df a6 36 bc 3f 49 83 3d a4 b6 1a 3e
       0.10571505 -0.011148184 0.06410455 0.15108734
000260 6c bf c8 be e5 1a b2 bd 92 99 8e 3d 28 96 e0 3d
       -0.39208543 -0.08696536 0.06962885 0.1096614
000270 68 1e b7 3d 95 6f 32 be e6 5e 8e 3c b2 94 be be
       0.089413464 -0.17425378 0.017379235 -0.3722282
000280 f7 3b 21 be 84 32 21 bc 77 e4 9c 3b d7 3b 56 be
       -0.15745531 -0.009838704 0.0047879773 -0.20921265
000290 a4 c4 d6 3d eb d6 7f bd 65 2b 0b bd 97 88 3d be
       0.10486725 -0.06246082 -0.03397693 -0.18509136
0002a0 44 f7 47 3e d6 d2 54 be 4d e5 c4 3d fb 95 66 bc
       0.19527918 -0.20783553 0.09614048 -0.014073844
0002b0 e8 32 5a 3c 8d 5c 21 be b7 01 b7 3d 61 33 ff 3d
       0.013317801 -0.15757962 0.08935874 0.124609716
0002c0 30 8b 47 3e 40 e9 2c be 42 b0 26 be 49 9d 89 be
       0.1948669 -0.16885853 -0.16278175 -0.26877812
0002d0 90 6c 0f 3e 6a ac 83 be cf e5 84 bb a7 26 29 3e
       0.14006257 -0.2571748 -0.0040557156 0.16518651
0002e0 7f ea a7 be a1 2c 12 3d c9 01 95 bd fe 6f 26 3d
       -0.32796094 0.035687093 -0.07275731 0.040634148
0002f0 ad 30 cf be 0b e1 8f 3d c1 01 18 be 57 d0 3e be
       -0.40466824 0.070253454 -0.14844419 -0.18634163
000300 32 62 bb b9 8a 76 d7 3c b8 0f f6 bd f8 06 b5 bc
       -0.0003574058 0.026301641 -0.12014717 -0.02209805
000310 df 10 14 3c e4 a3 b9 bd 86 c7 cf 3c 42 48 d3 bc
       0.0090372255 -0.09064463 0.025363695 -0.025791291
000320 37 e9 6b bd 9b 01 54 bd 9e e8 8d 3c 41 32 d7 bd
       -0.057595458 -0.051759344 0.017322835 -0.10507632
000330 b6 12 50 bc f8 bb 15 be 68 5a 17 3e ed 74 c8 3d
       -0.012699774 -0.14622486 0.14780581 0.09787927
000340 fa 44 63 bb fb a5 9d bd ac e8 dd bd a2 e3 10 3d
       -0.0034678564 -0.07697674 -0.10835394 0.035373338
000350 4c 7b 17 3d 70 0d 10 3e 43 3b bf bd f4 98 d6 3c
       0.03698282 0.14067626 -0.09337475 0.02619598
000360 a1 09 19 bd b0 57 b2 bd 0b dd cb 3b 41 a2 0a bd
       -0.0373627 -0.08708131 0.0062214187 -0.033846144
000370 fe f5 f7 3c 7c dd f6 bd f0 f1 28 3d ba d0 59 bd
       0.030268665 -0.120539635 0.041246355 -0.053177573
000380 d8 a8 3b bd cc 6b 71 3d e8 a6 4a bc 64 2b 36 be
       -0.04581532 0.058940694 -0.012368895 -0.1778999
000390 30 04 95 3c ab 65 0a be 8b 46 5b bd 5f 73 f1 bd
       0.018190473 -0.13515346 -0.053534072 -0.117895834
0003a0 1f 39 43 bd bf db a9 3d 62 13 cf bd 7f 19 6a 3d
       -0.047661897 0.08293866 -0.10111119 0.05715322
0003b0 33 38 93 bd f5 b9 99 3d af 87 d1 bc f5 5f a1 bd
       -0.071884535 0.075061716 -0.025577394 -0.078796305
0003c0 53 3a 14 be 63 08 ae 3c 67 9d 80 bd d3 97 f5 bd
       -0.14475374 0.021244233 -0.06280022 -0.11991849
0003d0 83 fc d5 3a ea f9 d2 bc a2 7f 45 bd ca 06 03 3e
       0.0016325865 -0.025753934 -0.048217423 0.12795559
0003e0 9f b9 84 bd 4a 50 95 3c bd 5f d6 bd 90 2d 4e be
       -0.06480717 0.018226761 -0.104674794 -0.20134568
0003f0 63 16 90 bd 32 9c 2f be 29 39 e8 3d 10 99 6b 3d
       -0.0703552 -0.17149428 0.113390274 0.05751902

critic.2.bias f4 [64]
000000 58 0f 06 3e 58 58 9a bd a4 c9 8c bb ea c8 8b bd
       0.1309179 -0.075363815 -0.0042964984 -0.06825431
000010 c9 8c 9f bd 5e 35 cb bd bf 9e 1e be 15 81 22 be
       -0.077905245 -0.09922288 -0.15490244 -0.15869553
000020 74 65 01 be 4f a7 cc bd d2 71 54 bd 9a ca 15 3d
       -0.12636358 -0.09992849 -0.05186636 0.03657017
000030 6b ac 7e bd 5d ae 5a bd 09 40 cd bd 88 2b 32 3e
       -0.06217615 -0.053388942 -0.10021979 0.17399418
000040 80 b7 d1 bd b5 a5 3b be 98 6c e8 bb 4e 36 8b bd
       -0.10240078 -0.18324931 -0.0070930235 -0.06797467
000050 ed b0 19 3b b6 00 6a bd e9 8b 73 be be 8e 36 be
       0.0023451403 -0.057129584 -0.2378384 -0.1782789
000060 cb 76 4b 3c 2f ff 19 be 70 4b d4 bd de ee f0 bd
       0.012418459 -0.15038751 -0.10365951 -0.1176431
000070 5a 1b 58 bd a1 e9 d9 bc 18 7b fa bd 86 c5 8c bd
       -0.05276046 -0.02660066 -0.122305095 -0.06873612
000080 d1 4c 05 be 8c 39 d6 bd 09 c7 cc 3d de d3 ca 3d
       -0.13017584 -0.10460195 0.099989004 0.09903692
000090 36 1d 19 be 7d ad ec bd 22 b3 b9 bd 61 2f 96 bd
       -0.1495255 -0.11556528 -0.0906737 -0.073332556
0000a0 c0 af 59 bd fa 45 d6 bd ab d3 73 3d 16 5d 18 bd
       -0.053146124 -0.10462566 0.059528034 -0.03719815
0000b0 5f ff 1d bd b4 b5 44 3c 93 31 aa bd 23 da b9 bd
       -0.03857362 0.012006212 -0.08310237 -0.090748094
0000c0 e3 ae 35 be 6a 94 f3 bc 2a 34 80 bc 3a 47 47 bd
       -0.17742495 -0.029733855 -0.015649874 -0.04865191
0000d0 c7 3f e8 bd d4 d4 0c be 18 ae b9 bd fb 0d 3c 3c
       -0.113402896 -0.13753062 -0.09066409 0.011477943
0000e0 fa 17 1f bd 42 20 92 bd 4d 4c 42 be 0f 86 7c bd
       -0.038841225 -0.07135059 -0.18974419 -0.061651286
0000f0 d7 b8 04 be df bf 88 bd dc 9b 5b bd ca c1 db bd
       -0.12961136 -0.066772215 -0.053615436 -0.10730322

critic.4.weight f4 [1, 64]
000000 c4 88 82 bd d7 90 fa 3c 3f 23 d6 3a 96 57 b3 3c
       -0.06373742 0.030586643 0.0016337408 0.02189235
000010 a3 1d 9a bc f7 97 0a be 6c 8f dc 3c d4 58 a5 3d
       -0.01881296 -0.13534532 0.026923858 0.08073583
000020 4f ac d1 bb 32 92 1e bd 42 b3 de 3b 21 43 d9 3c
       -0.0063987146 -0.03871364 0.0067962715 0.026521267
000030 12 38 d2 3b 51 b4 24 3d 36 75 1a bc 3f 67 13 be
       0.0064153755 0.040211026 -0.009427359 -0.14394854
000040 ca 3b e0 3c 93 01 81 3c b9 f8 ae 3b 4c 71 ea 3c
       0.02737226 0.015747821 0.0053397086 0.028618477
000050 90 86 c4 bb 68 31 3c bb bb 80 72 3c 22 15 a3 3d
       -0.0059974864 -0.0028715972 0.0148012 0.07963015
000060 3a 5c e7 bc 1e 58 45 bc 8e 74 86 ba 86 54 87 3b
       -0.02824222 -0.012044935 -0.0010258125 0.004129949
000070 4f 99 22 bc cd 67 85 3b a3 e1 7c 3d 69 a9 98 3c
       -0.009924247 0.004071212 0.06173862 0.018635469
000080 6c 2e 9c bc 14 c2 90 3d 7d 23 5c bd 01 df 54 3e
       -0.019065104 0.070682675 -0.05374478 0.20788194
000090 71 04 ab 3a 81 72 7c bb dd 4c 8d bd ed e8 7a 3d
       0.0013047588 -0.0038520398 -0.06899426 0.06125729
0000a0 ec d8 a3 bc cb 0f ca bc f5 0e eb 3d 3d 51 88 3c
       -0.020000897 -0.024665734 0.11477462 0.0166403
0000b0 d8 ea c5 bc 60 c4 09 3d 70 c4 11 3d c7 38 da bc
       -0.024159834 0.033634543 0.035587728 -0.026638402
0000c0 0c 24 02 bc c7 23 a0 bc 1c 04 8c 3b 55 80 8f bc
       -0.007943165 -0.01954831 0.004272951 -0.017517248
0000d0 18 5d 73 3d 9c 62 3c 3b a3 89 39 39 e0 7d 84 3a
       0.059414953 0.00287453 0.00017694249 0.0010108314
0000e0 bc 36 a8 3c 2a 75 cd bc c2 3e bb bc 6e 84 3a be
       0.020533912 -0.025080282 -0.022857074 -0.1821458
0000f0 3b cc d7 bc 08 45 b4 3c 1f fd 7e bb 03 3a 11 bd
       -0.026342502 0.022005573 -0.0038908196 -0.035455715
