RL/CC2-Cardiff-implementation/GT-Cardiff-CC2/Models/PPOxCCE-C3/1000.pth (torch, 78850 bytes, 11 tensors)

actor.0.weight f4 [64, 62]
0	0xba7940ed	-0.0009508271
1	0x3d8b86e7	0.0681284
2	0xbdd6122a	-0.10452683
3	0xbdbf6a3c	-0.093464345
4	0x3b93c18f	0.004509158
5	0x3dd53224	0.10409954
6	0x3aea788d	0.001788871
7	0x3d78eca4	0.060772553
8	0x3c8b3b92	0.016996179
9	0x3d5ff202	0.054674156
10	0xbd5c1004	-0.05372621
11	0xbd557ea4	-0.052122727
12	0xbdadda44	-0.084888965
13	0xbd9bc0d2	-0.07605137
14	0xbdea9895	-0.11454884
15	0xbd9b82b6	-0.075932905
16	0x3d4da681	0.05020762
17	0x3d9c104d	0.076202966
18	0xbdb05477	-0.086098604
19	0xbd628646	-0.055303834
20	0x3d3cf15d	0.04612862
21	0x3dd7fb15	0.10545937
22	0xbcd61c86	-0.026136648
23	0x3dc2a212	0.09503569
24	0xbca7b158	-0.020470306
25	0x3c5c2cc0	0.013438404
26	0x3deb82cf	0.11499559
27	0xbdf14899	-0.11781425
28	0xbe024681	-0.12722208
29	0xbd4a4ac7	-0.04938772
30	0xbd60d872	-0.05489392
31	0x3cd29e26	0.025710177
32	0xbda896cf	-0.082318895
33	0xbd6f7633	-0.058462333
34	0xbdb5b6b9	-0.08872742
35	0xbdf39894	-0.11894336
36	0xbdc71823	-0.097214006
37	0x3db0500b	0.08609017
38	0x3dcd4f9c	0.1002495
39	0x3d1ac0fc	0.0377817
40	0xbca0e12e	-0.019638624
41	0xbd8558d9	-0.06511087
42	0xbcfcba18	-0.030850455
43	0xbddf091b	-0.108904086
44	0xbd9bec01	-0.076133735
45	0xbd8ef101	-0.069795616
46	0x3d957400	0.07297516
47	0xbab26b0f	-0.0013612228
48	0xbddb6546	-0.10712676
49	0xbd7e5a13	-0.06209762
50	0x3d789047	0.06068447
51	0x3dab6562	0.083689466
52	0x3d4e7484	0.050404087
53	0xbd42a5fe	-0.047521584
54	0x3d93043c	0.07178542
55	0xbde952da	-0.11392756
56	0xbd6483d8	-0.0557898
57	0xbdc9a770	-0.09846389
58	0xbddcdc29	-0.1078418
59	0xbd6e2cf0	-0.058148324
60	0xbd153ea2	-0.036436684
61	0xbcd639e4	-0.026150651
62	0xbd9a1194	-0.07522884
63	0x3d1d2763	0.03836764
64	0x3d8ec91b	0.069719516
65	0xbc83508d	-0.01602962
66	0x3c656c96	0.01400294
67	0x3ca617a4	0.020274945
68	0x3cb512ec	0.02210375
69	0x3ddd1e9c	0.10796854
70	0xbd3908ab	-0.045174282
71	0xbc82aab4	-0.015950538
72	0x3e5968ff	0.21231459
73	0x3db418f8	0.08793825
74	0xbd05dc37	-0.032680716
75	0xbc21027b	-0.009827252
76	0x3dd27b5c	0.10277435
77	0x3bfdae09	0.007741694
78	0x3c3f6a4d	0.011683059
79	0xbda2b7b5	-0.079451956
80	0xbdf265d5	-0.11835829
81	0x3de717f4	0.112838656
82	0x3dc5c448	0.09656578
83	0xbe01ba05	-0.12668617
84	0x3cc2bb23	0.023770874
85	0xbcaf4366	-0.021394443
86	0xbcab34fb	-0.020899286
87	0xbd6e1f27	-0.058135178
88	0x3d480b12	0.048838682
89	0xbd9a0e51	-0.07522262
90	0x3e2dadf4	0.16960889
91	0x3e4d20d6	0.20032057
92	0x3df5c5a5	0.12000588
93	0x3db33c84	0.08751777
94	0xbe00b695	-0.1256965
95	0xbda8b940	-0.08238459
96	0x3d81deb6	0.06341307
97	0x3cd9c105	0.026581297
98	0xbdc8c392	-0.09802927
99	0xbdcd84cd	-0.10035095
100	0x3df7eb32	0.12105407
101	0x3e94e0a3	0.29077634
102	0xbd4aaf87	-0.049483802
103	0x3cdca362	0.026933376
104	0xbe03831b	-0.12842982
105	0xbd21c2e6	-0.03949251
106	0xbdc4aba8	-0.09603053
107	0xbdc96e02	-0.098354355
108	0xbd4569cb	-0.048196595
109	0xbdbacefa	-0.09121509
110	0xbdf9a707	-0.12190061
111	0xbcfb8bb2	-0.03070626
112	0xbe09da80	-0.13462257
113	0x3d19dfac	0.037566826
114	0x3db23e72	0.08703317
115	0xbe474870	-0.19461226
116	0x3dab2bb6	0.083579466
117	0x3c9dbed7	0.019256039
118	0x3d8a4d69	0.06753046
119	0x3cf6c0a8	0.030121163
120	0x3e2fbb11	0.17161204
121	0x3c983b91	0.018583091
122	0xbd9d2df5	-0.07674781
123	0xbbf269a0	-0.0073978454
124	0xbdf97f3e	-0.12182473
125	0xbd9a2929	-0.07527382
126	0xbd02383f	-0.03179192
127	0xbd7d6489	-0.061863456
128	0x3d1c8f54	0.038222626
129	0xbd8bb54e	-0.068216905
130	0xbe52e07d	-0.20593448
131	0xbd4d6be6	-0.050151728
132	0xbe318b65	-0.17338331
133	0xbdd1dfe9	-0.102477856
134	0x3cc1e612	0.023669276
135	0xbd3d7344	-0.046252504
136	0x3d11c581	0.035588745
137	0x3d2ba1fe	0.041902535
138	0x3d557d42	0.05212141
139	0x3e04ef6a	0.12981954
140	0x3df6600c	0.12030038
141	0x3da52cf8	0.08065218
142	0x3df6f05c	0.12057564
143	0xbc167c17	-0.009184859
144	0xbde9a66a	-0.11408694
145	0xbd769c86	-0.060207866
146	0x3db119d4	0.086475044
147	0xba57d11e	-0.000823276
148	0xbd8147a7	-0.06312495
149	0xbdc75098	-0.09732169
150	0xbdf3695f	-0.11885332
151	0xbddb85fc	-0.10718915
152	0x3c1b0aab	0.009462993
153	0x3de2f21b	0.11081334
154	0x3e0e38e1	0.13888885
155	0xbd7e148a	-0.062031306
156	0x3da23e4e	0.0792204
157	0xbdcb871c	-0.099378794
158	0xbcdbf2b6	-0.026849132
159	0xbd52ec80	-0.051495075
160	0xbce8a2c2	-0.028397921
161	0x3d91c4b5	0.07117597
162	0xbdd45ab2	-0.10368861
163	0xbdf54487	-0.11975961
164	0xbdffc759	-0.124891944
165	0x3d33338d	0.043750335
166	0xbb295937	-0.002584053
167	0x3c9a54eb	0.01883932
168	0xbe302e8e	-0.17205259
169	0xbd402017	-0.046905603
170	0x3e622ffc	0.22088617
171	0xbe43ad19	-0.19109
172	0xbd466743	-0.04843832
173	0xbdc15a8d	-0.09441099
174	0xbe17bbdd	-0.14817758
175	0xbde231ba	-0.11044641
176	0xbc701bff	-0.014655112
177	0xbd942355	-0.072333016
178	0x3e2a73a9	0.16645683
179	0xbc8d6715	-0.017261067
180	0x3e0627fd	0.13101192
181	0xbcd9d2f6	-0.026589852
182	0x3dfd93c9	0.123817034
183	0x3d9270ff	0.071504585
184	0x3d92a6cc	0.0716072
185	0xbd41b848	-0.047294885
186	0xbcfa2fb0	-0.030540317
187	0xbcdacc74	-0.026708819
188	0xbdd6572a	-0.10465844
189	0x3d8cee7f	0.06881427
190	0xbd7f0354	-0.062259033
191	0x3d9edc5d	0.07756875
192	0xbd89207e	-0.066956505
193	0x3c99970d	0.018748784
194	0xbd14102a	-0.036148228
195	0xbd2a2e35	-0.041547973
196	0xbe3289c2	-0.17435363
197	0xbd8dffb7	-0.06933539
198	0xbdc705b6	-0.09717886
199	0x3d4d9332	0.050189205
200	0xbb61da02	-0.0034462218
201	0x3de6f96b	0.112780415
202	0xbdc49caa	-0.09600194
203	0xbdb28f2c	-0.08718714
204	0xbd970724	-0.07374409
205	0x3db60cd1	0.08889163
206	0xbd3afdb2	-0.0456521
207	0x3ddb6364	0.10712317
208	0x3d3c1b05	0.045924205
209	0x3c83bd64	0.01608152
210	0xba77d42e	-0.00094539195
211	0xbccdaa38	-0.02510558
212	0x3c828887	0.015934242
213	0xbced90fe	-0.028999802
214	0x3d94a70d	0.07258425
215	0xbd3c40e5	-0.045960326
216	0xbd1781c4	-0.03698899
217	0xbd3eb8ab	-0.04656283
218	0x3dd2069d	0.10255168
219	0xbdd3148b	-0.10306653
220	0xbc156984	-0.009119395
221	0x3e00a60e	0.12563345
222	0x3d34842b	0.044071358
223	0x3c3b5e7e	0.011436103
224	0xbe353829	-0.17697205
225	0xbdbd62b3	-0.09247341
226	0xbc88abc1	-0.016683461
227	0x3d79c14e	0.060975365
228	0xbda64837	-0.08119243
229	0xbd3a768e	-0.04552322
230	0x3d900357	0.07031887
231	0x3e152d32	0.14568022
232	0xbdc1aaf9	-0.094564386
233	0xbda157bf	-0.07878064
234	0x3c48ffac	0.012267988
235	0xbe1742df	-0.14771603
236	0x3dc73186	0.09726243
237	0xbe47ec36	-0.19523701
238	0xbd5c787d	-0.053825844
239	0x3d8cac58	0.068688095
240	0xbd81c2fc	-0.063360184
241	0x3e01ecde	0.12688014
242	0x3bcd0d0e	0.0062576598
243	0x39552f82	0.00020330961
244	0xbd6f763e	-0.058462374
245	0xbe1cef91	-0.15325762
246	0x3dc7451d	0.09729979
247	0xbd92fbed	-0.07176957
248	0x3ae56cfc	0.0017503793
249	0xbcb0e205	-0.02159215
250	0xbd88fc54	-0.06688753
251	0x3c89823e	0.016785737
252	0x3dc5607f	0.09637546
253	0xba19654d	-0.0005851582
254	0xbcb5b51c	-0.022181086
255	0xbd4e5f68	-0.050383955

actor.0.bias f4 [64]
0	0xbdfb21a0	-0.12262273
1	0x3db0b321	0.08627916
2	0x3d5b29b5	0.05350657
3	0xbcdb5299	-0.026772784
4	0xbd85a001	-0.06524659
5	0xbd9fbede	-0.07800077
6	0x3dec3c32	0.11534919
7	0xbccbdd8c	-0.024885915
8	0x3e16d50a	0.14729705
9	0xbc017ae5	-0.0079028355
10	0xbd6f8c2f	-0.0584833
11	0xbe1f9a97	-0.15586315
12	0xbd8d544d	-0.06900845
13	0x3d746d63	0.05967463
14	0xbd5fd437	-0.054645743
15	0x3e4d938d	0.20075817
16	0x3d5aa610	0.053381026
17	0x3d04732a	0.03233639
18	0xbe203f09	-0.15649046
19	0xbd89eebc	-0.06734988
20	0xbdadc2ca	-0.08484419
21	0xbb862a1b	-0.004094375
22	0x3db8e84a	0.090286806
23	0xbe067f10	-0.13134408
24	0xbcda9afb	-0.026685229
25	0x3dbd6df2	0.09249486
26	0x3daa198c	0.08305654
27	0x3e2e5788	0.17025578
28	0x3da4b221	0.08041788
29	0xbc9e155b	-0.019297292
30	0xbbc6fcfd	-0.006072639
31	0x3e093f40	0.13403034
32	0x3d0f5f67	0.035003092
33	0xbd34f22b	-0.044176262
34	0x3e278d56	0.16362509
35	0xbdbbfb2c	-0.091787666
36	0x3da66617	0.08124941
37	0x3d98ee3d	0.07467315
38	0xbe04fb0f	-0.12986396
39	0xbbaa07a4	-0.005188899
40	0x3e4eaddc	0.2018351
41	0x3d780992	0.060556002
42	0x3cc8c5c2	0.02450836
43	0x3d76b3cf	0.060230073
44	0x3cbfeb10	0.023427516
45	0x3e592bb3	0.21208076
46	0x3c96b76a	0.018398006
47	0x3e032f4b	0.1281101
48	0x3d9a0781	0.075209625
49	0x3e2b6536	0.16737828
50	0x3dfd5bcd	0.12371025
51	0xbe063c64	-0.13108975
52	0x3ca92f24	0.020652361
53	0x3d85643d	0.065132596
54	0x3e4018d7	0.18759476
55	0xbd7119b7	-0.058862414
56	0x3d0f1860	0.034935355
57	0xbb402e90	-0.0029324628
58	0xbdc6b27c	-0.09702012
59	0xbd232ea8	-0.039839417
60	0x3e0cf44c	0.13765067
61	0x3cf7c61b	0.030245831
62	0x3ca02b13	0.01955179
63	0xbd05b153	-0.032639813

actor.2.weight f4 [64, 64]
0	0xbd87f23c	-0.066379994
1	0xbe1b5964	-0.15170819
2	0x3dacda50	0.08440077
3	0xbdd3a1f7	-0.10333627
4	0xbce356b1	-0.027751299
5	0x3d809d24	0.06279972
6	0xbd092c53	-0.033489536
7	0xbdc95811	-0.098312505
8	0xbe291170	-0.16510558
9	0x3b505e23	0.003179439
10	0xbd80737c	-0.06272027
11	0xbbd97f76	-0.006637509
12	0x3d238b2c	0.039927647
13	0xbd55a2c5	-0.052157182
14	0x3d989b74	0.07451525
15	0xbd092bf2	-0.033489175
16	0xbd4c5520	-0.04988587
17	0xbdcc477a	-0.099745706
18	0x3c887e9b	0.016661933
19	0xbd9e45f6	-0.07728188
20	0x3c05da68	0.008169748
21	0xbd41c0f4	-0.047303155
22	0x3d71b7fe	0.05901336
23	0xbda01cb8	-0.07817978
24	0xbd7c38fc	-0.061577782
25	0xbd35277b	-0.044227105
26	0xbdebac72	-0.11507501
27	0x3cf87009	0.03032686
28	0xbdb012e8	-0.08597356
29	0x3ca3a5cb	0.019976517
30	0x3d33bfb2	0.043883987
31	0x3d08cd3f	0.033398863
32	0xbd24fe5c	-0.04028164
33	0x3cec8b8b	0.028875133
34	0xbdcb6349	-0.099310465
35	0xbe12318f	-0.14276718
36	0xbcf2c905	-0.02963687
37	0xbdd29940	-0.10283136
38	0xbdeb756e	-0.11497007
39	0x3b762aa6	0.0037562042
40	0x3dc1d8e2	0.09465195
41	0xbd815743	-0.06315472
42	0xbd29d3e1	-0.04146183
43	0xbde1488f	-0.110001676
44	0x3b927b77	0.0044702846
45	0xbc393833	-0.011304903
46	0xbd49ee6f	-0.049299654
47	0x3d878ac3	0.066182636
48	0xbdf466ce	-0.11933671
49	0xbd5a88aa	-0.05335299
50	0xbddcdd66	-0.10784416
51	0x3d9e1682	0.07719137
52	0x3db4f29b	0.08835336
53	0x3dbec8d3	0.09315648
54	0x3db63a6f	0.08897864
55	0x3d4ac7f0	0.04950708
56	0xbde83392	-0.11337961
57	0xbdada61c	-0.084789485
58	0x3b4a59f4	0.003087637
59	0xbe03a610	-0.12856317
60	0x3d36228c	0.04446654
61	0x3cd5426e	0.026032653
62	0xbb46d457	-0.0030338967
63	0xbe011a41	-0.12607671
64	0x3d9302de	0.07178281
65	0xbcfbfbe1	-0.030759754
66	0xbcd376eb	-0.02581354
67	0x3dacc3db	0.08435794
68	0x3c33b698	0.010968827
69	0xbce73dc7	-0.0282277
70	0x3d87f279	0.06638045
71	0xbe005337	-0.12531744
72	0x3ddcc5b8	0.10779899
73	0x3d872b44	0.06600049
74	0x3d8e4b18	0.06947917
75	0x3d854b03	0.06508448
76	0xbe5ad2c1	-0.21369459
77	0xbc5f16ec	-0.013616305
78	0xbd951c06	-0.07280736
79	0xbd6f5c73	-0.058437776
80	0x3d98189d	0.074265696
81	0x3e2b4b83	0.16728024
82	0x3e005e74	0.12536031
83	0x3d430ad4	0.04761775
84	0xbe18d6a0	-0.14925623
85	0x3d80daa0	0.062916994
86	0xbd8b29a6	-0.06795053
87	0xbb416d39	-0.0029514565
88	0xbb60415a	-0.003421864
89	0x3d4e984f	0.05043822
90	0xbd904dfe	-0.07046126
91	0x3e44b8d0	0.19211125
92	0x3cd144b9	0.025545465
93	0x3d59f42e	0.053211384
94	0xbdd31086	-0.10305886
95	0x3c868bc3	0.016424065
96	0x3cbc069d	0.022952372
97	0xbdcde47a	-0.10053344
98	0xbcea5a1a	-0.028607417
99	0xbd3ec990	-0.046578944
100	0xbc972a9a	-0.018452931
101	0xbd246778	-0.040137738
102	0x3dc0502e	0.09390293
103	0xbbd9fc28	-0.006652374
104	0xbc9b2674	-0.018939234
105	0x3d85229f	0.06500744
106	0x3d8f18a2	0.0698712
107	0x3d074995	0.033029158
108	0xbbf08e8d	-0.007341212
109	0xbdb91f61	-0.09039188
110	0xbae74051	-0.0017643069
111	0xbd7604ec	-0.060063288
112	0x3cbbab6e	0.022908892
113	0x3dc70e97	0.0971958
114	0xbdff0698	-0.124524295
115	0x3da777a3	0.08177116
116	0x3e36f204	0.17865759
117	0xbd4dd570	-0.050252378
118	0xbda45ad6	-0.08025138
119	0x3dd78c48	0.105248034
120	0xbc9e2ee2	-0.019309465
121	0x3cef44d0	0.029207617
122	0xbd7b6cf0	-0.061383188
123	0x3df2f2b8	0.11862701
124	0xbcedcab9	-0.02902733
125	0xbd905ed9	-0.07049341
126	0x3dcc31ba	0.09970422
127	0x3d45e811	0.04831702
128	0xbd50ccfa	-0.05097673
129	0x3ad1827d	0.0015984323
130	0xbe138ee9	-0.14409985
131	0xbd68a135	-0.056794364
132	0x3d0e936b	0.034808557
133	0xbbf60ea1	-0.007509068
134	0xbda35faf	-0.079772346
135	0xbdea2ab1	-0.11433924
136	0xbd588d67	-0.052869227
137	0xbe20d112	-0.15704754
138	0xbc54c8af	-0.0129873
139	0xbda75fac	-0.08172545
140	0x3cd5972c	0.02607306
141	0x3d1f6e88	0.03892377
142	0xbbbca92d	-0.005757472
143	0xbc66f9e6	-0.014097666
144	0x393aaff0	0.00017803884
145	0x3d1cc760	0.038276076
146	0x3a9e7329	0.0012088764
147	0x3cebafa2	0.028770272
148	0xbdb73611	-0.08945859
149	0xbcea5bcb	-0.028608223
150	0xbe1c5e7c	-0.15270418
151	0x3d2820a7	0.041046765
152	0xbe103e07	-0.14086162
153	0xbd589569	-0.052876864
154	0x3d5f6b5a	0.054545738
155	0xbde3e205	-0.11127094
156	0x3d499e83	0.049223434
157	0xbdba7630	-0.09104574
158	0x3d6a330d	0.057177592
159	0x3be0b438	0.0068574212
160	0xbdd03c8c	-0.101677984
161	0x3ca9f3cf	0.02074614
162	0xbe2f478e	-0.1711714
163	0xbdd94470	-0.106087565
164	0xbe12239d	-0.14271398
165	0xbbbda8ca	-0.0057879435
166	0x3ca2c719	0.019870328
167	0xbe271f67	-0.16320573
168	0x3d8301af	0.063968055
169	0xbd4be63f	-0.049780127
170	0xbdd12206	-0.102115676
171	0xbd344308	-0.04400924
172	0xbda5e4c7	-0.081002764
173	0xbbd0e781	-0.0063752537
174	0x3c1d71ee	0.0096096825
175	0xbd13dac6	-0.03609731
176	0xbc483853	-0.01222046
177	0x3d6070c5	0.054795045
178	0xbdaf1fbf	-0.08550977
179	0xbd62ca9f	-0.055369016
180	0xbe0110cd	-0.12604065
181	0xbe10295e	-0.1407828
182	0xbd8e72ce	-0.06955491
183	0xbcce3126	-0.02516992
184	0xbe2eab50	-0.17057538
185	0x3c2cd3c4	0.010548536
186	0x3da055b8	0.078288496
187	0x3d48bf02	0.049010284
188	0xbe068e97	-0.13140331
189	0x3db03472	0.08603753
190	0xbdce0560	-0.10059619
191	0xbdb54648	-0.08851296
192	0x3ccef9b1	0.025265547
193	0x3dbedf1f	0.09319901
194	0x3dc0ec88	0.09420115
195	0x3d6557c8	0.055991918
196	0xbd9fdec3	-0.0780616
197	0x3ce1b46c	0.027551852
198	0xbe1096f2	-0.14120081
199	0xbd01a450	-0.03165084
200	0x3defbe0b	0.1170617
201	0x3d615778	0.055015057
202	0xbe31faaf	-0.17380784
203	0xbdc5ade2	-0.09652306
204	0xbd7836bd	-0.060599077
205	0x3c8ace42	0.016944055
206	0x3cb21d82	0.021742586
207	0xbdc14e95	-0.094388165
208	0x3c9802ad	0.018555963
209	0x3d27eeeb	0.040999334
210	0xba16c6a5	-0.0005751646
211	0x3d68d623	0.05684484
212	0xbc8f702c	-0.017509542
213	0x3ce3a149	0.027786868
214	0xbcc630f8	-0.024193272
215	0xbd8476c5	-0.06467966
216	0xbd422f19	-0.047408197
217	0x3dd41f35	0.10357515
218	0x3cd76230	0.026291937
219	0xbe02f924	-0.12790352
220	0xbdd8c7b4	-0.10584965
221	0xbe07595e	-0.13217685
222	0xbd6d27dd	-0.057899345
223	0x3c503414	0.012707729
224	0x3dc7e771	0.09760941
225	0xbc655a23	-0.013998541
226	0x3d261409	0.04054645
227	0x3d48ea7c	0.049051747
228	0xbe087eee	-0.1332967
229	0xbe17f5b4	-0.14839822
230	0xbb98a354	-0.004658142
231	0xbcc46e1e	-0.02397829
232	0xbdcf2a0e	-0.10115443
233	0xbbf6dc28	-0.007533569
234	0xbe11512d	-0.14191122
235	0xbd3f7659	-0.046743724
236	0xbcb9502b	-0.022621235
237	0xbd6f5b8f	-0.058436926
238	0xbc29e79f	-0.010370164
239	0x3d44b7e3	0.04802693
240	0xbd65b172	-0.05607743
241	0x3d77119d	0.06031953
242	0xbe0cdf5f	-0.13757084
243	0xbd490076	-0.049072705
244	0xbe18a5ef	-0.14907049
245	0xbe16e1fb	-0.14734642
246	0x3d9cf01e	0.07662986
247	0xbd537ae8	-0.051630884
248	0xbdc8e5c3	-0.098094486
249	0x3c5a3f84	0.013320807
250	0xbdb23a07	-0.08702474
251	0xbc6a3855	-0.014295657
252	0x3d396452	0.04526169
253	0xbd91c749	-0.07118089
254	0x3d648370	0.05578941
255	0xbc862cbc	-0.016378753

actor.2.bias f4 [64]
0	0xbd94fb2c	-0.0727447
1	0x3d900695	0.070325054
2	0xbd2e6a9e	-0.042582147
3	0xbe1a92d8	-0.15095079
4	0x3e3be7dc	0.18350166
5	0x3de293e1	0.11063362
6	0x3d314246	0.043276094
7	0x3df0deda	0.117612556
8	0xbd81b902	-0.063341156
9	0x3dfb9d84	0.12285903
10	0x3d41c256	0.047304474
11	0x3ce7b28b	0.028283378
12	0x3d5cc562	0.053899176
13	0xbdaaae22	-0.083339944
14	0x3e0a591a	0.13510552
15	0x3bcee24a	0.006313597
16	0xbdbf44fd	-0.0933933
17	0x3c8949e9	0.016758876
18	0x3cd1dd47	0.025618209
19	0x3d9fa39a	0.077948764
20	0xbd9948ce	-0.074845895
21	0x3d2006c0	0.039068937
22	0x3ba1dae4	0.004939424
23	0x3e064b70	0.13114715
24	0x3e01160b	0.12606065
25	0x3dd3f457	0.103493385
26	0x3d8b6cff	0.06807899
27	0xbd7ffb36	-0.062495433
28	0xbd92fd55	-0.071772255
29	0x3d1f2c57	0.038860645
30	0x3c8b770c	0.01702454
31	0xbd8299f3	-0.0637702
32	0xbda196d7	-0.078900985
33	0xbcd4899a	-0.02594452
34	0xbc49554f	-0.012288406
35	0x3d04d2eb	0.03242771
36	0x3c9c84d7	0.019106312
37	0x3dc5160b	0.09623345
38	0x3e1c3d51	0.15257765
39	0x3dbfeadf	0.0937097
40	0x3e3e04f0	0.18556571
41	0xbdafb0aa	-0.08578618
42	0xbc3438e0	-0.010999888
43	0xbdf06da1	-0.1173966
44	0x3d2db8fd	0.042412747
45	0x3dc6ef74	0.09713641
46	0x3b23097a	0.0024877475
47	0xbd29db82	-0.041469105
48	0xbc8b703c	-0.017021291
49	0x3e0c5dc6	0.13707647
50	0x3d4e3b7a	0.05034969
51	0xbdcda2e5	-0.10040835
52	0xbd8e2bee	-0.06941973
53	0xbd95b6b3	-0.07310238
54	0xbd4b35ff	-0.04961204
55	0x3d4e3dbd	0.050351847
56	0xbce20834	-0.027591802
57	0x3dd0197f	0.10161113
58	0x3d4aaa7a	0.049478985
59	0x3ce2509a	0.027626324
60	0xbd8de8d7	-0.06929176
61	0x3e26423d	0.16236205
62	0x3d7fc5b9	0.062444422
63	0x3d3597fd	0.0443344

actor.4.weight f4 [36, 64]
0	0x3d02356d	0.031789232
1	0x3de0ba0c	0.109729856
2	0x3d70cc2d	0.058788467
3	0xbce44f55	-0.02786986
4	0x3c2a6933	0.010401058
5	0xbd419f1a	-0.04727087
6	0x3df2986a	0.11845477
7	0x3e0daf9c	0.13836521
8	0xbd121701	-0.03566647
9	0x3d8fe388	0.0702582
10	0xbc25ab8d	-0.010111702
11	0x3e02d5c4	0.12776858
12	0x3d064e82	0.032789715
13	0xbdb60628	-0.08887893
14	0x3d37c431	0.044864837
15	0x3b4cfbce	0.0031278017
16	0x3df6dcc3	0.12053826
17	0xbd121906	-0.035668395
18	0x3df2845a	0.1184165
19	0x3e18b82b	0.14914005
20	0x3df2c7bf	0.11854505
21	0xbdd5893f	-0.10426568
22	0xbd6c7598	-0.057729334
23	0xbd82f71c	-0.063947886
24	0x3be994e3	0.0071283444
25	0x3d8c3330	0.06845701
26	0x3e292e8d	0.16521664
27	0x3dc6227b	0.096745454
28	0xbd40aad7	-0.047037926
29	0xbd781b34	-0.060572818
30	0x3e473591	0.19454028
31	0xbb709bc7	-0.0036713944
32	0xbd90570e	-0.07047854
33	0xbdfd4bfb	-0.12368008
34	0x3ccf56ca	0.025309939
35	0x3bd84815	0.0066003897
36	0x3db25984	0.0870848
37	0x3d1a7e73	0.037718248
38	0x3c904c20	0.017614424
39	0x3e33daf3	0.17563991
40	0xbc893787	-0.01675011
41	0xbb9de25e	-0.004818245
42	0xbd19d449	-0.037555967
43	0xbe18841f	-0.1489415
44	0xbdf4f576	-0.119608805
45	0x3de12b14	0.109945446
46	0x3d35b8bc	0.04436563
47	0x3cfec830	0.031101316
48	0x3d832fe4	0.06405619
49	0x3ddba9ab	0.10725721
50	0xbdca84d3	-0.098886155
51	0xbd09a890	-0.03360802
52	0x3d335cd7	0.04378971
53	0xbd4ebc7b	-0.050472718
54	0x3d78b650	0.06072074
55	0x3e1863b9	0.14881791
56	0xba6dde25	-0.00090739346
57	0xbd73f47b	-0.059559327
58	0xbddf6917	-0.10908716
59	0xbdb4949d	-0.08817408
60	0x3ce419aa	0.027844269
61	0x3c996750	0.018726021
62	0x3d620140	0.055176973
63	0x3cda4628	0.026644781
64	0xbdb01cb6	-0.08599226
65	0x3dcf46c0	0.10120916
66	0x3dd317cb	0.103072725
67	0xbcc9f2fc	-0.024651997
68	0xbdc8489b	-0.097794734
69	0xbd5346ef	-0.05158132
70	0xbd57f26c	-0.052721426
71	0xbd920f98	-0.071318805
72	0xbe08b3c7	-0.1334983
73	0x3d29f429	0.041492615
74	0xbe1e7234	-0.15473253
75	0x3c357f03	0.011077645
76	0x3d5d9ad5	0.054102737
77	0xbd9f8819	-0.077896304
78	0x3dd822db	0.10553523
79	0x3d571f40	0.052520037
80	0xbddc28ab	-0.10749944
81	0x3e186181	0.14880945
82	0xbe265a57	-0.162454
83	0xbe35880f	-0.17727683
84	0x3d23e2a0	0.04001105
85	0x3d1e06b5	0.038580615
86	0x3d36db7a	0.044642903
87	0x3da6f7f7	0.08152764
88	0xbdfa2add	-0.12215207
89	0x3e333079	0.1749896
90	0xbd9bfe92	-0.07616915
91	0xbd4bf578	-0.049794644
92	0x3e2c308b	0.16815393
93	0xbe1c3a3e	-0.15256593
94	0xbd8ca5e6	-0.0686758
95	0xbc6ab9b8	-0.014326505
96	0x3c69589d	0.014242318
97	0xbc81abe5	-0.015829036
98	0x3e737ca2	0.23778012
99	0xbe105cd4	-0.14097911
100	0x3d983e3f	0.074337475
101	0xbc2aca45	-0.010424201
102	0x3dc4f764	0.096174985
103	0xbe05d791	-0.13070513
104	0x3da8d1dc	0.082431525
105	0x3e53a02e	0.20666572
106	0xbcdd3c16	-0.02700619
107	0xbd2f5b4c	-0.042811677
108	0x3def15cb	0.116740786
109	0xbd178793	-0.036994528
110	0xbd9d9218	-0.07693881
111	0x3d36fd24	0.044675007
112	0x3e0414c5	0.12898548
113	0x3b78a190	0.0037938096
114	0x3e195102	0.14972308
115	0x3c9edf01	0.019393446
116	0x3cd5d528	0.026102617
117	0x3d9ba513	0.07599845
118	0x3dd9473d	0.10609291
119	0xbd37dccf	-0.044888314
120	0x3e0d2c87	0.13786517
121	0x3df30438	0.11866039
122	0xbdbaea02	-0.09126665
123	0x3dfeee17	0.12447756
124	0x3e159e8c	0.14611262
125	0xbba2ee49	-0.0049722535
126	0x3df5b417	0.1199724
127	0xbdfdc959	-0.1239192
128	0x3dcf582e	0.10124241
129	0x3df656ce	0.120282754
130	0x3e17cc91	0.1482413
131	0xbd992e5c	-0.074795455
132	0xbdc75e8e	-0.09734832
133	0x3e0cba3f	0.13742922
134	0x3ca30205	0.019898424
135	0xbde097c6	-0.109664485
136	0x3d5d05a3	0.053960454
137	0xbcaff679	-0.021479832
138	0x3dfb7cc6	0.12279658
139	0x3dd0d0bb	0.10196062
140	0x3e544502	0.2072945
141	0xbc5e1e17	-0.013556979
142	0x3e416695	0.18886788
143	0xbd4bf894	-0.04979761
144	0x3d9535ff	0.072856896
145	0x3d4f4408	0.05060199
146	0x3e4ae3e7	0.198135
147	0x3db39e70	0.08770454
148	0x3e4a1701	0.19735338
149	0xbcee7406	-0.029108059
150	0x3d906302	0.07050134
151	0xbd05810a	-0.032593764
152	0xbdc0af06	-0.09408383
153	0x3c03455f	0.008012145
154	0x3d9613ab	0.0732797
155	0x3d5b1a08	0.053491622
156	0x3e254ee6	0.16143379
157	0xbd2128d9	-0.039345596
158	0x3e17e6c0	0.14834118
159	0xbd949893	-0.07255664
160	0x3c88b626	0.016688418
161	0x3d1590ff	0.036515232
162	0x3e22a55b	0.1588339
163	0x3e1a8705	0.15090568
164	0x3db15ca0	0.08660245
165	0x3d3b41ca	0.04571704
166	0x3cad56ab	0.02115949
167	0x3e35dce3	0.17760043
168	0x3e49d382	0.1970959
169	0xbe41b6f9	-0.18917455
170	0xbd8c18f5	-0.06840698
171	0x3d008112	0.03137309
172	0xbd44954f	-0.047993954
173	0x3dc3b53c	0.09556052
174	0x3e32068b	0.17385308
175	0x3d7f774e	0.062369637
176	0x3e5dffc9	0.21679606
177	0x3e2542a0	0.16138697
178	0xbe73a261	-0.23792411
179	0x3db38bbb	0.08766886
180	0x3d85533a	0.06510015
181	0xbdbc1b39	-0.0918488
182	0x3a3e8b98	0.0007268726
183	0x3e608352	0.21925095
184	0xbd2ab4a0	-0.041676164
185	0xbe19b2bc	-0.15009588
186	0xbe4228f0	-0.18960929
187	0xbce433e7	-0.02785678
188	0x3c0548c3	0.0081350235
189	0x3e042dad	0.12908049
190	0x3d915208	0.07095724
191	0xbd6bd5b0	-0.057576835
192	0x3dda0d75	0.10647098
193	0x3d45ddf4	0.048307374
194	0x3c9a7644	0.018855222
195	0x3cf8b661	0.030360403
196	0x3e2083fd	0.1567535
197	0xbc78e4c1	-0.015191258
198	0x3e4cdb4a	0.20005527
199	0x3e1bd1c1	0.15216734
200	0xbcc9f7f1	-0.02465436
201	0x3e588d1b	0.21147577
202	0x3de0d6f7	0.10978501
203	0x3dc57eb2	0.09643306
204	0x3e01e09a	0.12683335
205	0xbd100b1f	-0.035166856
206	0x3d012ffb	0.0315399
207	0x3dc93f8d	0.098265745
208	0xbd9ca11c	-0.07647917
209	0xbc169692	-0.009191172
210	0xbd20e3cb	-0.03927974
211	0x3dc2c3ad	0.095099784
212	0xbd572bba	-0.052531935
213	0x3dd66512	0.104684964
214	0xbc11c972	-0.008898126
215	0x3e06e45f	0.13173054
216	0x3d9393b0	0.072059035
217	0xbd6ec2ba	-0.058291174
218	0x3badf5be	0.005308836
219	0x3d1d2907	0.038369205
220	0x3d461252	0.048357315
221	0x3e1b2689	0.15151419
222	0x3e2332df	0.15937375
223	0xbd47cf35	-0.048781592
224	0x3e50a77d	0.20376392
225	0x3df41c0c	0.11919412
226	0x3b9aa9ac	0.0047199335
227	0xbd16b35a	-0.036792137
228	0xbcc2765e	-0.023738082
229	0x3d89a0d7	0.06720131
230	0x3d8f8c7a	0.07009216
231	0xbd9c9477	-0.07645505
232	0x3d2f1303	0.04274274
233	0x3e8f47c0	0.27984428
234	0x3d8e2d32	0.06942214
235	0xbd0568ac	-0.032570526
236	0xbd71d06d	-0.05903666
237	0x3db3a654	0.08771959
238	0x3dc0a894	0.09407154
239	0xbd5cb3bb	-0.05388234
240	0xbdbf7a78	-0.09349531
241	0x3e075330	0.13215327
242	0x3d3f8720	0.046759725
243	0xbd241b94	-0.040065363
244	0x3e347289	0.17621817
245	0x3d21b94b	0.03948335
246	0x3cc354c0	0.023844123
247	0x3d7e2266	0.062044524
248	0x3e443ae5	0.19163091
249	0xbdc215e1	-0.09476829
250	0x3dbb78b1	0.091538794
251	0x3c968cf7	0.018377764
252	0xbcc54bad	-0.024083937
253	0x3e21aadf	0.15787838
254	0xbc356f36	-0.011073878
255	0x3d6c950c	0.05775933

actor.4.bias f4 [36]
0	0xbd5e0816	-0.05420693
1	0x3d8fe1f7	0.07025521
2	0x3c41778b	0.011808286
3	0x3bea63d8	0.0071530156
4	0x3dd262d7	0.102727585
5	0xbe17472e	-0.14773247
6	0x3cd7c0d8	0.026337072
7	0x3dccf500	0.100076675
8	0x3d38401e	0.044983022
9	0xbc0fce0c	-0.008777153
10	0xbe09e329	-0.13465561
11	0xbe032daf	-0.12810396
12	0xbd99a0de	-0.07501386
13	0x3d9455b6	0.072429106
14	0x3deafe2c	0.11474261
15	0xbd57e87b	-0.052711945
16	0xbd442dce	-0.047895245
17	0xbe90d28d	-0.28285637
18	0x3da12aae	0.07869469
19	0xbd1a7231	-0.037706558
20	0xbe36b729	-0.17843308
21	0x3c8828ce	0.01662102
22	0x3b840c5d	0.004029794
23	0xbe121966	-0.14267501
24	0x3e723a77	0.23655115
25	0xbc78c60e	-0.015183939
26	0x3d89cad7	0.06728142
27	0xbcfe32a3	-0.031030005
28	0xbda5310a	-0.08065994
29	0x3ddc4548	0.10755402
30	0x3cf2f03f	0.029655574
31	0xbd81bdb5	-0.06335012
32	0xbda12d57	-0.07869976
33	0x3e5aa58b	0.21352212
34	0x39c6e210	0.00037933933
35	0x3e4c6fe5	0.1996456

critic.0.weight f4 [64, 62]
0	0x3d9c60c8	0.07635647
1	0x3dab196a	0.08354457
2	0xbdabd831	-0.083908446
3	0x3c1b5b6c	0.009482246
4	0xbd773979	-0.060357545
5	0xba536a95	-0.0008064893
6	0x3d96254e	0.07331334
7	0x3d66b1ec	0.056322023
8	0xbdd131b5	-0.10214559
9	0xbd781086	-0.060562633
10	0x3d98b7e3	0.074569486
11	0xbd2d88aa	-0.04236666
12	0xbd8a0460	-0.06739116
13	0xbcd09de0	-0.025465906
14	0xbd1a2204	-0.037630096
15	0x3b9b4198	0.004738044
16	0xbc0910fe	-0.008365868
17	0xbddd20ab	-0.107972465
18	0xbdf7fe13	-0.12109008
19	0x3db676c8	0.089093745
20	0xbdbb4a0c	-0.09144983
21	0x3db6177c	0.08891198
22	0x3c1010d6	0.0087930765
23	0xbc983c3e	-0.018583413
24	0x3dc93eef	0.09826457
25	0xbdcb1727	-0.09916525
26	0x3d7934c0	0.060841322
27	0x3dad99b3	0.084765814
28	0x3e55778b	0.20846383
29	0xbd8c9dd1	-0.068660386
30	0xbd2f2d07	-0.04276755
31	0xbd73c60c	-0.059515044
32	0xbdc0fbf2	-0.09423055
33	0x3db1a39a	0.08673783
34	0xbcb73252	-0.022362862
35	0x3dafeb73	0.0858983
36	0xbdad3f48	-0.084593356
37	0xbd948c6c	-0.07253346
38	0x3e023980	0.12717247
39	0x3ddc2c71	0.10750664
40	0x3d08053b	0.033208113
41	0x3c6f345c	0.014599886
42	0x3d78cbe5	0.060741324
43	0xbe05ba70	-0.13059402
44	0xbd927cea	-0.07152732
45	0xbbc12d5e	-0.005895301
46	0xbe233a12	-0.15940121
47	0xbe7353d3	-0.23762445
48	0x3df74980	0.12074566
49	0xbdfaf141	-0.12253047
50	0xbdc08e1f	-0.094021074
51	0xbd841c0b	-0.06450661
52	0x3d00b712	0.03142459
53	0x3d4b51fa	0.049638726
54	0xbd8109d9	-0.063007064
55	0x3d209ad8	0.03921017
56	0x3d1a5e3f	0.037687536
57	0x3d30368a	0.043020763
58	0x3bc69a05	0.006060841
59	0xbe5c1808	-0.21493542
60	0xbdabd45e	-0.08390115
61	0xbd569336	-0.052386485
62	0xbde719dd	-0.1128423
63	0x3d83bfcc	0.06433067
64	0xbc8d3928	-0.017239168
65	0xbd4d2513	-0.050084185
66	0x3d6bbaa7	0.057551052
67	0x3d0d9396	0.034564577
68	0x3da77ca6	0.08178072
69	0x3c55ac54	0.0130415745
70	0xbc20a714	-0.0098054595
71	0xbdd21400	-0.10257721
72	0x3cbcbf77	0.023040516
73	0x3e658b77	0.22416483
74	0xbe2b1fc4	-0.16711336
75	0x3c004bb5	0.00783055
76	0x3e21a8df	0.15787075
77	0x3dd07e5e	0.10180353
78	0x3dd4f5a3	0.10398414
79	0x3ddf2efb	0.10897633
80	0x3d8b91bf	0.06814908
81	0xbbdf0445	-0.006805929
82	0xbd05605d	-0.032562602
83	0xbdf85976	-0.12126438
84	0x3d88dae2	0.066823736
85	0xbcebcd00	-0.028784275
86	0x3ca310a8	0.019905403
87	0xbceaf3ed	-0.028680766
88	0x3da7fc15	0.08202378
89	0x3b843abd	0.0040353225
90	0x3dd8b367	0.10581093
91	0x3e023533	0.12715606
92	0x3b89a393	0.004200408
93	0xbcde6880	-0.027149439
94	0x3d70dd73	0.05880494
95	0xbd99545f	-0.07486796
96	0x3db6e9b5	0.08931295
97	0x3dc97be7	0.098380856
98	0x3de0210a	0.10943802
99	0xbbbdad89	-0.0057885093
100	0x3d2dfbbd	0.042476404
101	0x3e7b042b	0.24513309
102	0xbd50ca77	-0.050974336
103	0xbd79d8fe	-0.060997956
104	0xbc1b03d3	-0.009461361
105	0xbdbd4c22	-0.09243037
106	0xbd096a56	-0.033548675
107	0xbded2119	-0.115785785
108	0x3dddc1c3	0.10827973
109	0x3dabea2f	0.08394276
110	0x3d80e4ee	0.06293665
111	0xbdce47d2	-0.100722924
112	0xb9c191e3	-0.00036920523
113	0xbd114175	-0.035462815
114	0xbd3f1bb0	-0.046657264
115	0xbdf67713	-0.1203443
116	0xbca834f6	-0.020533066
117	0xbde0dba6	-0.109793946
118	0xbd032d2c	-0.0320255
119	0x3d48468e	0.04889541
120	0x3dc9ed9e	0.09859775
121	0x3d35506d	0.044266153
122	0xbd3f47b0	-0.046699226
123	0x3be977c4	0.007124873
124	0xbdd74f1a	-0.10513134
125	0x3da32314	0.07965675
126	0x3dd7641f	0.105171435
127	0x3d472423	0.048618447
128	0xbdfd949e	-0.12381862
129	0x3c311051	0.010807113
130	0xbe04e300	-0.12977219
131	0xbd8f8b97	-0.070090465
132	0x3d975455	0.07389132
133	0x3d45fb41	0.048335318
134	0xbc008db3	-0.007846284
135	0x3d711865	0.058861155
136	0xbd73e74a	-0.059546746
137	0x3d3778e9	0.044793043
138	0xbe0172d0	-0.12641454
139	0xbe0375dd	-0.1283793
140	0xbca31f01	-0.019912245
141	0xbd99a10a	-0.07501419
142	0x3df274de	0.11838697
143	0xbdd3839b	-0.10327836
144	0x3df2c62b	0.11854204
145	0xbcafec77	-0.02147506
146	0x3cbc58ce	0.022991564
147	0x3de27c04	0.1105881
148	0xbd70b2c3	-0.05876423
149	0xbd40bdad	-0.04705589
150	0x3d5737c4	0.052543417
151	0xbd03cac2	-0.032175787
152	0xbc842c1d	-0.016134316
153	0x3d47cd3b	0.048779707
154	0xbd19a3ec	-0.037509844
155	0x3d4790dd	0.048722137
156	0xbd63e6a6	-0.055639885
157	0x3d537ec6	0.051634572
158	0x3c4969fd	0.012293336
159	0xbdc80e22	-0.097683206
160	0xbd079855	-0.03310426
161	0x3cfb784d	0.030697012
162	0xbdcc2979	-0.09968848
163	0x3e0018fe	0.12509534
164	0xbe05e375	-0.13075049
165	0x3cf74594	0.030184545
166	0xbcaa366b	-0.020777902
167	0xbdc7930d	-0.097448446
168	0x3d00a47a	0.031406857
169	0xbdd9b9e6	-0.106311604
170	0xbc931d7e	-0.017958399
171	0xbd59056e	-0.052983694
172	0xbe1480a7	-0.14502202
173	0x3d6a5b6c	0.057216093
174	0x3c9a01e9	0.018799739
175	0x3d214289	0.039370093
176	0x3d7767de	0.06040179
177	0x3d3f055a	0.046635963
178	0x3c8fcd0b	0.017553827
179	0xbc949d2e	-0.018141355
180	0xbe253482	-0.16133311
181	0xbbe9a2b5	-0.007129992
182	0xbcb00de5	-0.021491
183	0x3cf805eb	0.03027626
184	0x3d05fb15	0.032710154
185	0xbc61002c	-0.013732951
186	0xbdeb8e5d	-0.11501763
187	0xbdef11c2	-0.11673309
188	0xbdd9ab8d	-0.10628424
189	0x3db5f55c	0.08884689
190	0x3b43abd9	0.0029857068
191	0xbdcf59b5	-0.10124532
192	0xbd41059f	-0.0471245
193	0x3e53a4fe	0.20668408
194	0x3cf1ab75	0.029500702
195	0xbdd0b6f3	-0.10191145
196	0x3dffd2c4	0.12491372
197	0x3e3af3df	0.18257092
198	0x3d707cbe	0.058712713
199	0x3d01d3cd	0.03169613
200	0xbcc73f85	-0.02432228
201	0x3aa0861e	0.0012247001
202	0xbd1b5f91	-0.037932936
203	0xbda16d4b	-0.07882174
204	0xbdabc982	-0.08388044
205	0x3db82345	0.08991102
206	0x3caca5da	0.021075178
207	0x3d2ab859	0.041679714
208	0xbdbd03d5	-0.092292465
209	0x3cc0e2b2	0.023545597
210	0x3de7b48d	0.11313734
211	0x3d8e754d	0.06955967
212	0xbbb6094c	-0.0055553075
213	0xbd6f7937	-0.05846521
214	0x3df3a983	0.11897566
215	0xbd6adf75	-0.05734201
216	0xbb7ada34	-0.0038277032
217	0x3d599f04	0.053130165
218	0xbd13870b	-0.03601746
219	0xbba404a7	-0.0050054374
220	0xbcf4dd5b	-0.029890707
221	0xbd9a498e	-0.07533561
222	0x3dcd51bd	0.10025356
223	0x3da8d325	0.082433976
224	0xbe2bf39a	-0.16792145
225	0x3e9a81a9	0.30177048
226	0xbd9c0091	-0.076172955
227	0xbdb2ad00	-0.087244034
228	0x3d97862b	0.073986374
229	0x3d878f4b	0.06619128
230	0xbd98168e	-0.07426177
231	0xbe1c3804	-0.15255743
232	0x3e1937ed	0.1496274
233	0x3ddb0de6	0.1069601
234	0xbd91997e	-0.071093544
235	0xbdded831	-0.10881079
236	0x3d00fb37	0.031489577
237	0xbe0ae9f6	-0.13565812
238	0x3db715bd	0.08939693
239	0xba4bdde7	-0.00077769015
240	0xbad185d0	-0.0015985314
241	0x3ccdc7d5	0.025119701
242	0xbd896fca	-0.06710775
243	0xbca04713	-0.01956514
244	0x3e1d18dc	0.15341514
245	0xbd2568c9	-0.040383134
246	0x3d75fbfd	0.060054768
247	0xbd64ad7b	-0.055829506
248	0x3d8bf83e	0.06834458
249	0x3db87901	0.09007455
250	0xbdea2ed0	-0.1143471
251	0xbda831c8	-0.0821262
252	0x3cecb145	0.028893122
253	0xbd4ff769	-0.050773058
254	0x3db6ea0d	0.089313604
255	0x3de1979f	0.110152476

critic.0.bias f4 [64]
0	0xbe138a61	-0.14408256
1	0x3c9cb68d	0.019130016
2	0xbddd11d1	-0.10794414
3	0xb9626ef4	-0.00021594373
4	0xbca19874	-0.019726016
5	0xbc0d3611	-0.0086188475
6	0xbd04aa6a	-0.032389082
7	0xbe248be2	-0.16068986
8	0xbe328e18	-0.17437017
9	0x3d05b987	0.032647636
10	0xbdb7e961	-0.0898006
11	0xbc48ee67	-0.012263871
12	0xbd8e8baa	-0.069602326
13	0xbe0ce248	-0.13758194
14	0xbd9adea4	-0.075619966
15	0xbbc1f4bd	-0.0059190677
16	0xbdaed521	-0.08536745
17	0x3e0969b0	0.13419223
18	0x3d3a80e8	0.04553309
19	0x3d634980	0.055490017
20	0xbd48cf57	-0.04902586
21	0xbdd5d40b	-0.104408346
22	0x3d54f41b	0.05199061
23	0xbda32bd5	-0.07967345
24	0x3dda9ad7	0.106740646
25	0xbd68f538	-0.056874484
26	0xbd297b5f	-0.04137742
27	0x3a5bc640	0.00083837286
28	0x3bf7b86d	0.007559827
29	0xbd0c0127	-0.034180786
30	0xbc6484a7	-0.013947642
31	0xbd1f6578	-0.038915128
32	0xbd88f368	-0.06687051
33	0xbdb2e7e7	-0.08735638
34	0xbc9400b6	-0.018066745
35	0x3d794a98	0.060862154
36	0xbdab98a9	-0.08378727
37	0x3e2b848e	0.16749784
38	0xbc670379	-0.014099949
39	0x3da3ffd9	0.080077834
40	0xbe0427c7	-0.12905799
41	0xbd9a36d4	-0.07529989
42	0xbe2d6d34	-0.16936189
43	0xbddb17fb	-0.10697933
44	0xbe1f1ceb	-0.15538375
45	0xbdcdc5be	-0.10047482
46	0x3d998f81	0.07498074
47	0x3da7c29c	0.08191416
48	0x3d800aee	0.06252085
49	0x3b2c3f89	0.0026282987
50	0x3befad0e	0.007314331
51	0xbcab6324	-0.020921297
52	0xbc4a9214	-0.012363929
53	0xbe0acbde	-0.13554332
54	0xbdfe7242	-0.12424137
55	0xbe40d17e	-0.18829915
56	0x3d879102	0.06619455
57	0x3ca758a2	0.020428006
58	0xbe0cef92	-0.13763264
59	0x3c9b3108	0.018944278
60	0x3d5fbc13	0.05462272
61	0xbe1ddcdf	-0.15416287
62	0xbdfc8e87	-0.123318724
63	0xbddc2abb	-0.10750338

critic.2.weight f4 [64, 64]
0	0x3d6129bb	0.054971438
1	0x3e1248a9	0.1428553
2	0x3c5ebb9a	0.013594532
3	0x3d3f9b9f	0.04677927
4	0x3d231ef5	0.039824445
5	0xbdc4777f	-0.095931046
6	0xbca222f9	-0.019792067
7	0x3dbf7f3e	0.093504414
8	0xbc966766	-0.018359851
9	0xbe2a51da	-0.16632786
10	0xbd48ace1	-0.048992995
11	0x3e243d4c	0.16039008
12	0xbc4f7312	-0.012661712
13	0x3e0ee28c	0.13953608
14	0x3d332d54	0.0437444
15	0xbd2f2ea7	-0.0427691
16	0x3d86354b	0.065531336
17	0x3e918a23	0.28425702
18	0xbe432b12	-0.19059399
19	0x3c94ab62	0.018148128
20	0xbdb0e20b	-0.08636864
21	0xbcd8243d	-0.026384467
22	0x3d3269f6	0.043558083
23	0x3de3d98a	0.11125477
24	0xbdb74f6f	-0.08950698
25	0xbe37fe3d	-0.17968078
26	0xbdb84997	-0.08998411
27	0xbc249a71	-0.010046587
28	0xbce9d2f2	-0.02854297
29	0x3de8b098	0.113618076
30	0x3d05253b	0.03250621
31	0x3dacd65d	0.08439324
32	0x3e0737da	0.132049
33	0xbd57647d	-0.052586067
34	0x3cd9a81e	0.026569422
35	0x3bfa5ad5	0.0076402226
36	0xbdffe012	-0.1249391
37	0x3dddb998	0.10826415
38	0x3da85896	0.082200214
39	0xbbf6fec4	-0.0075376946
40	0xbdb772a9	-0.089574166
41	0x3dce80ec	0.10083184
42	0x3d6cfaac	0.057856247
43	0xbe096291	-0.13416506
44	0x3c650658	0.013978563
45	0xbdc38aed	-0.09547982
46	0x3d7f255b	0.062291484
47	0xbe33a01d	-0.17541547
48	0x3e30d3d5	0.17268308
49	0x3e0b0ce9	0.13579144
50	0xbd122fed	-0.035690237
51	0x3e747d9a	0.23876038
52	0xbd0e2f61	-0.034713153
53	0xbd75b351	-0.059985463
54	0xbdd2dd23	-0.10296085
55	0xbd1d399d	-0.038385022
56	0x3de090ef	0.10965144
57	0x3b14d662	0.002271079
58	0x3c20ae5a	0.009807194
59	0xbe481d66	-0.19542465
60	0x3c74b186	0.014934903
61	0xbcecede6	-0.028922033
62	0x3e43112a	0.19049516
63	0xbd5ffbd7	-0.054683533
64	0x3cca0b1f	0.024663506
65	0x3b7d9b44	0.0038697282
66	0xbd0b71a2	-0.034043916
67	0x3d055ad8	0.03255734
68	0xbd8e7a89	-0.069569655
69	0xbd8f34be	-0.06992482
70	0xbd90b999	-0.0706665
71	0x3def2ab4	0.11678067
72	0xbd0b5185	-0.03401329
73	0xbda1c7f0	-0.07899463
74	0xbdc171f8	-0.09445566
75	0xbd8e3244	-0.06943181
76	0xbd1c1295	-0.03810366
77	0xbd8292d5	-0.06375662
78	0xbddcc925	-0.10780553
79	0xbd016cfc	-0.031598076
80	0x3dba264f	0.09089338
81	0xbe02c192	-0.12769154
82	0x3c3afa1b	0.011412169
83	0x3e1a5fa4	0.15075547
84	0x3da8d70b	0.08244141
85	0x3c33a980	0.010965705
86	0x3da9843a	0.08277173
87	0xbd6464d8	-0.055760235
88	0xbdeb2595	-0.114817776
89	0xbd9606a8	-0.07325488
90	0xbdb1ecde	-0.08687757
91	0x3d83cc6c	0.06435475
92	0xbd07b1ab	-0.03312842
93	0xbdca528c	-0.09879026
94	0xbde195b8	-0.11014885
95	0x3c04817d	0.008087513
96	0x3dd870ac	0.105683655
97	0xbab85e75	-0.0014066236
98	0x3cc9ea9d	0.024648005
99	0xbd29a07c	-0.041412815
100	0xbcadba93	-0.02120713
101	0x3dc07809	0.09397895
102	0x3d65cd33	0.056103896
103	0x3c1a0177	0.009399763
104	0x3dffcf50	0.124907136
105	0x3d70e9e0	0.05881679
106	0x3cf8d12c	0.030373178
107	0x3d38cf6e	0.045119695
108	0x3d9f86ec	0.07789406
109	0xbcd377a9	-0.025813894
110	0x3ca5c11c	0.020233683
111	0xbd8d73db	-0.06906863
112	0xbcf60055	-0.030029455
113	0x3b265dc1	0.0025385472
114	0xbdc89669	-0.097943135
115	0x3e1392c6	0.14411458
116	0xbdbf2229	-0.093326874
117	0xbd716474	-0.05893369
118	0xbba6d4a9	-0.005091269
119	0x3d89fd3e	0.06737755
120	0xbd2c8a2e	-0.042123966
121	0xbb581250	-0.00329699
122	0x3d8de54c	0.069285005
123	0xbddd980f	-0.108200185
124	0x3dd3294a	0.1031061
125	0x3d61cf8c	0.055129573
126	0x3d8bd5bd	0.06827877
127	0xbc23a7c1	-0.009988726
128	0x3ce289da	0.027653623
129	0xbcb1db4d	-0.021711016
130	0x3cf9a4c9	0.030474083
131	0x3d6a1d7b	0.05715702
132	0xbde6dfc6	-0.1127315
133	0x3ce12efd	0.027488226
134	0x3da35b1e	0.079763636
135	0x3ce3b61c	0.027796797
136	0xbdcc78e4	-0.099839956
137	0xbc91407b	-0.017730942
138	0x3cbdfbe4	0.0231914
139	0xbdf62139	-0.120180555
140	0xbb809097	-0.0039234865
141	0xbcd5115f	-0.02600926
142	0x3d8e6eb6	0.0695471
143	0x3d6ae323	0.05734552
144	0xbda4b31b	-0.08041974
145	0x3c68bfe5	0.0142059075
146	0x3c6e8ac0	0.014559448
147	0xbd0f3840	-0.034965754
148	0x3c64334e	0.013928248
149	0x3d7db9ec	0.061944887
150	0x3e21bc1d	0.15794416
151	0x3d94b4a4	0.07261017
152	0xbdd2e3c1	-0.10297347
153	0x3db85f22	0.0900252
154	0x3d3f829d	0.046755422
155	0xbdd5dc11	-0.10442365
156	0x3d18f5ef	0.037343916
157	0xbdd2f05e	-0.10299753
158	0x3dca595a	0.09880324
159	0xbe2d5b34	-0.16929322
160	0xbc41ff62	-0.011840673
161	0xbc84e67d	-0.016223187
162	0x3d85333f	0.06503915
163	0x3cecec1f	0.028921185
164	0x3d2eb9b9	0.042657588
165	0x3cb57baa	0.022153694
166	0x3d247de0	0.040159106
167	0xbe2a42ad	-0.16626997
168	0x3de1b717	0.1102125
169	0x3d1da168	0.038484007
170	0xba0b944a	-0.0005324526
171	0xbc65080d	-0.01397897
172	0xbd09e4c5	-0.033665437
173	0xbde972ce	-0.113988504
174	0xbc4a9113	-0.01236369
175	0x3decbe8b	0.11559781
176	0x3da64ada	0.081197456
177	0xbccf21fc	-0.02528476
178	0xbc155cf5	-0.009116401
179	0xbd57f1d0	-0.052720845
180	0x3db9b428	0.09067565
181	0x3caa85c3	0.020815736
182	0xbcda7769	-0.026668267
183	0x3d5f0d8f	0.05445629
184	0xbdbbca33	-0.09169426
185	0x3da5742a	0.08078797
186	0xbd9f95de	-0.07792257
187	0xbd8f9439	-0.07010693
188	0xbd992400	-0.074775696
189	0xbd498e0d	-0.049207736
190	0x3d7a5ed3	0.061125588
191	0xbe19623d	-0.14978881
192	0xbc7b428a	-0.015335688
193	0x3bc8c32b	0.0061267815
194	0xbd7f22b4	-0.062288955
195	0x3c36b523	0.011151585
196	0x3d811d8c	0.06304464
197	0xbdabd6e3	-0.08390596
198	0x3c0ab1de	0.008465258
199	0x3c52335b	0.012829627
200	0xbda7a71a	-0.08186169
201	0xbe2242e0	-0.15845823
202	0xbbc447d9	-0.00599001
203	0xbd5d9121	-0.054093484
204	0x3cf30ee3	0.029670184
205	0xbdcc53b0	-0.099768996
206	0x3e25d527	0.16194592
207	0x3dfdd438	0.12393993
208	0x3c351acf	0.011053755
209	0xbdbbc73f	-0.091688626
210	0xbe0b6b62	-0.13615182
211	0x3d03d4be	0.03218531
212	0x3d2a83cc	0.041629598
213	0x3dc7f858	0.09764165
214	0xbd9df7ec	-0.07713303
215	0x3dbb6414	0.09149948
216	0xbdb641ad	-0.088992454
217	0xbdd81ce5	-0.10552386
218	0x3d3e6059	0.046478603
219	0xbd0eb8b6	-0.034844123
220	0x3d904ae0	0.07045531
221	0xbd617c44	-0.05505015
222	0x3d65d814	0.05611427
223	0xbd8a6341	-0.067572124
224	0x3d911cbb	0.07085558
225	0x3d9e147f	0.07718753
226	0xbd9d1c96	-0.07671468
227	0xbe1569a0	-0.14591074
228	0x3d98a647	0.0745359
229	0xbdf8b36c	-0.12143597
230	0xbda4bde9	-0.08044035
231	0xbd657a4d	-0.05602484
232	0xbde11891	-0.10991014
233	0x3e21b1a3	0.1579042
234	0xbd44bc73	-0.04803128
235	0x3dd03985	0.10167221
236	0xbde04241	-0.10950137
237	0x3dd58f0a	0.10427673
238	0xbd8f096b	-0.06984218
239	0xbd2b911c	-0.041886434
240	0xbda2d798	-0.079512775
241	0x3ce9b3d7	0.028528137
242	0xbd767676	-0.060171567
243	0xbd91c141	-0.071169384
244	0x3d69e7d7	0.057105865
245	0x3d9cc492	0.0765468
246	0xbdcae07c	-0.09906098
247	0x3e084347	0.13306914
248	0xbad30c47	-0.0016101681
249	0x3d8ee5ac	0.069774
250	0xbd107c58	-0.035274833
251	0xbe0f6a43	-0.1400538
252	0xbd162082	-0.036652096
253	0xbdd87e24	-0.105709344
254	0x3de3e8b5	0.1112837
255	0x3ddd0579	0.107920595

critic.2.bias f4 [64]
0	0x3dab4cbb	0.083642446
1	0xbd11de5e	-0.035612457
2	0xbd093236	-0.03349515
3	0xbd508769	-0.050910387
4	0xbda955e0	-0.082683325
5	0xbda2e6df	-0.079541914
6	0xbd5b6c56	-0.053570114
7	0xbdd63db2	-0.10460986
8	0xbd924689	-0.0714236
9	0xbd660076	-0.056152783
10	0x3bdf8a4b	0.0068219057
11	0x3d9378eb	0.07200798
12	0xbc0a7eea	-0.00845311
13	0x3b8085e2	0.00392221
14	0xbd239c1e	-0.039943807
15	0xbd24648a	-0.040134944
16	0xbd31e1ed	-0.04342835
17	0xbe0e63f7	-0.13905321
18	0x3d8d04d8	0.068856895
19	0x3d71fbab	0.0590779
20	0xbc47ae0f	-0.012187495
21	0x3cc52660	0.02406615
22	0xbdd72668	-0.10505372
23	0xbe114dba	-0.14189807
24	0x3d18bad1	0.037287537
25	0xbddc72ac	-0.107640594
26	0xbd911daa	-0.07085736
27	0xbde0add6	-0.109706566
28	0xbca6ddeb	-0.02036949
29	0x3bbef609	0.0058276695
30	0xbd4f1cef	-0.050564703
31	0xbd278694	-0.040899828
32	0xbcd7489a	-0.026279736
33	0xbdb69d97	-0.089167766
34	0x3e006635	0.12538989
35	0x3c7adf0c	0.015311968
36	0xbd8d6124	-0.06903294
37	0xbde9ed2b	-0.11422189
38	0xbdfa00da	-0.12207194
39	0xbc16852f	-0.009187027
40	0x3c87985b	0.016552141
41	0xbcf3cac0	-0.029759765
42	0x3c0f89ef	0.008760913
43	0xbc86cce1	-0.016455116
44	0xbd2afb1f	-0.041743394
45	0x3d5eed55	0.054425556
46	0xbd8d07e3	-0.0688627
47	0xbd0e8a5d	-0.034799922
48	0xbd23d598	-0.03999862
49	0x3bea7a86	0.007155719
50	0x3d98fef9	0.07470507
51	0xbddaf002	-0.10690309
52	0xbd36d925	-0.04464068
53	0xbdd4f4f4	-0.103982836
54	0x3d87c067	0.06628495
55	0x3d4d8b5b	0.050181728
56	0x3c993c7a	0.018705595
57	0x3cae433d	0.021272296
58	0xbd25372c	-0.04033582
59	0xbd3a795a	-0.045525886
60	0xbdd21078	-0.102570474
61	0xbca7224f	-0.020402102
62	0xbdbf03b4	-0.09326878
63	0xbdc6d4c6	-0.09708552

critic.4.weight f4 [1, 64]
0	0xbe137526	-0.14400157
1	0x3db2924c	0.0871931
2	0xbb2bd4aa	-0.0026219287
3	0xbcc7aa23	-0.02437312
4	0xbdda5bf0	-0.10662067
5	0xbcba14d9	-0.022715019
6	0x3cfc1da2	0.030775849
7	0x3dce38bc	0.10069415
8	0x3d8cfb60	0.068838835
9	0xbcc75b85	-0.024335632
10	0x3d849406	0.06473546
11	0xbbe3e57b	-0.0069548464
12	0x3ba5db5b	0.0050615496
13	0x3d2c50ea	0.042069353
14	0xbd5975cb	-0.05309085
15	0x3ca62e52	0.02028576
16	0xbc7afe84	-0.01531947
17	0xb91de8e8	-0.00015059451
18	0x3d8e07b2	0.069350615
19	0x3db1c9e6	0.08681087
20	0x3cc1af44	0.023643143
21	0x3b9a1271	0.0047019054
22	0xbd718466	-0.058964156
23	0x3e0c7337	0.13715826
24	0x3bcf0292	0.006317445
25	0xbd437449	-0.04771832
26	0xbc882c3c	-0.016622655
27	0xbca0b071	-0.019615384
28	0xbca3c037	-0.019989116
29	0x3ae2db28	0.0017307745
30	0xbbcf415e	-0.006324931
31	0x3cb95288	0.022622362
32	0xbc0c9a24	-0.008581672
33	0x3d98d055	0.07461611
34	0xbe0195d5	-0.12654813
35	0xbc2c0e90	-0.010501519
36	0xbc1dbf76	-0.009628167
37	0xbd3f7789	-0.046744857
38	0xbdca8f22	-0.09890582
39	0x3dd741d1	0.105106
40	0xbbe0cacb	-0.0068601123
41	0x3e198381	0.14991571
42	0x3e03965a	0.12850323
43	0xbcaf9683	-0.021434074
44	0x3afdad4a	0.0019354012
45	0x3cbddd32	0.023176763
46	0x3cd69852	0.026195679
47	0x3d31b145	0.043381948
48	0xbd045fee	-0.03231805
49	0xbc2ad102	-0.010425808
50	0xbd66a7e4	-0.056312457
51	0x3de4a2b4	0.11163846
52	0x3dbd58d6	0.0924546
53	0xbcb4421f	-0.022004185
54	0xbd0f18e4	-0.034935847
55	0xbc024ff8	-0.007953636
56	0xbc00b6b0	-0.007856056
57	0xbcc1379b	-0.023586085
58	0xbd85b424	-0.065285
59	0x3af279bc	0.0018499414
60	0xbd366dd0	-0.04453832
61	0x3dadf078	0.084931314
62	0xbd525579	-0.051351044
63	0xbdc7c664	-0.09754637
