RL/CC2-Cardiff-implementation/GT-Cardiff-CC2/Models/PPOxCCE-C3/10000.pth (torch, 78866 bytes, 11 tensors)

actor.0.weight f4 [64, 62]
000000 ed 40 79 ba e7 86 8b 3d 2a 12 d6 bd 3c 6a bf bd
       -0.0009508271 0.0681284 -0.10452683 -0.093464345
000010 a5 fa fa bb 5c 9b ae 3d 24 78 ea 3a b9 04 4c 3d
       -0.0076592737 0.08525726 0.0017888588 0.04980919
000020 ab 7f d8 bb 0d 68 1b 3d 04 10 5c bd f3 d6 80 bd
       -0.006607016 0.037941027 -0.05372621 -0.06290998
000030 44 da ad bd d2 c0 9b bd 95 98 ea bd b6 82 9b bd
       -0.084888965 -0.07605137 -0.11454884 -0.075932905
000040 81 a6 4d 3d 4d 10 9c 3d 77 54 b0 bd 46 86 62 bd
       0.05020762 0.076202966 -0.086098604 -0.055303834
000050 5d f1 3c 3d 15 fb d7 3d 86 1c d6 bc 12 a2 c2 3d
       0.04612862 0.10545937 -0.026136648 0.09503569
000060 58 b1 a7 bc c0 2c 5c 3c cf 82 eb 3d 99 48 f1 bd
       -0.020470306 0.013438404 0.11499559 -0.11781425
000070 81 46 02 be c7 4a 4a bd 72 d8 60 bd 26 9e d2 3c
       -0.12722208 -0.04938772 -0.05489392 0.025710177
000080 cf 96 a8 bd 33 76 6f bd b9 b6 b5 bd 94 98 f3 bd
       -0.082318895 -0.058462333 -0.08872742 -0.11894336
000090 23 18 c7 bd 0b 50 b0 3d 81 ba 91 3d 2f 51 13 3d
       -0.097214006 0.08609017 0.07115651 0.035966095
0000a0 2e e1 a0 bc d9 58 85 bd 18 ba fc bc 1b 09 df bd
       -0.019638624 -0.06511087 -0.030850455 -0.108904086
0000b0 01 ec 9b bd 01 f1 8e bd 8b 41 91 3d 30 f3 50 bb
       -0.076133735 -0.069795616 0.070925795 -0.0031883232
0000c0 46 65 db bd 13 5a 7e bd cb 33 68 3d 5d 56 9f 3d
       -0.10712676 -0.06209762 0.05669002 0.07780144
0000d0 84 74 4e 3d 3a f6 5f bd 2d 17 5f 3d a7 52 e9 bd
       0.050404087 -0.05467818 0.05446546 -0.11392718
0000e0 d8 83 64 bd 70 a7 c9 bd 87 f0 00 be f0 2c 6e bd
       -0.0557898 -0.09846389 -0.12591754 -0.058148324
0000f0 ec 2e 1b bd 12 eb fb bc 94 11 9a bd 63 27 1d 3d
       -0.037886545 -0.030751739 -0.07522884 0.03836764
000100 1b c9 8e 3d 8d 50 83 bc 02 cf 3e be 41 93 14 be
       0.069719516 -0.01602962 -0.18633655 -0.14509298
000110 c0 b6 1c be 0e c8 f2 bd 9b df 51 be f4 25 a8 be
       -0.15304089 -0.11854564 -0.20495455 -0.32841456
000120 f0 f9 a0 3e 61 69 a1 3e 72 5f 9a be 7f a0 63 be
       0.31440687 0.3152571 -0.30150944 -0.22229193
000130 e4 bc 62 bd 8b 40 67 bc 4d 6a 3f 3c b5 b7 a2 bd
       -0.05535592 -0.014114509 0.011683059 -0.079451956
000140 d5 65 f2 bd f4 17 e7 3d 48 c4 c5 3d 05 ba 01 be
       -0.11835829 0.112838656 0.09656578 -0.12668617
000150 23 bb c2 3c 66 43 af bc fb 34 ab bc 27 1f 6e bd
       0.023770874 -0.021394443 -0.020899286 -0.058135178
000160 12 0b 48 3d 51 0e 9a bd 5f 89 0f 3e 77 90 89 3e
       0.048838682 -0.07522262 0.14017247 0.2686803
000170 e1 54 d0 3e 02 21 fd 3e 95 b6 00 be 40 b9 a8 bd
       0.40689757 0.49439245 -0.1256965 -0.08238459
000180 b6 de 81 3d 05 c1 d9 3c a5 f7 60 3e 39 32 ad 3b
       0.06341307 0.026581297 0.21969469 0.005285528
000190 2b 41 bd 3d 01 71 bc 3e 44 23 a4 be 79 4c 90 3d
       0.092409454 0.36804965 -0.32058156 0.07045836
0001a0 8d 91 90 be 7a f5 62 3d 61 55 d8 bd e4 ca 0e be
       -0.28236046 0.055409886 -0.1056316 -0.13944584
0001b0 f7 b4 ec b9 2e 7d 6b be 98 b4 d1 3b 87 1b 31 3d
       -0.00045148257 -0.22996971 0.0063997023 0.043239143
0001c0 11 f0 36 be 01 7f 0d bd 72 3e b2 3d 37 9c 79 be
       -0.17865016 -0.03454495 0.08703317 -0.24375997
0001d0 1a 60 99 bd 8b f8 c9 3d 6c 63 97 3e a8 c0 f6 3c
       -0.07489033 0.09861859 0.2956804 0.030121163
0001e0 07 40 05 3e 14 c6 ec 3d 35 8c 04 be d4 2c fe bd
       0.13012706 0.11561218 -0.1294411 -0.12410894
0001f0 3e 7f f9 bd 29 29 9a bd 3f 38 02 bd 89 64 7d bd
       -0.12182473 -0.07527382 -0.03179192 -0.061863456
000200 91 99 1d 3d 1c 9d 6b be d5 4c 71 be 08 94 d9 be
       0.03847653 -0.23009151 -0.23564465 -0.4249575
000210 92 01 a7 bd f0 8a 50 be 7a ea 39 3e 4f 1d 8f 3e
       -0.081545964 -0.203655 0.18155852 0.27952048
000220 7a 66 03 bd d5 97 18 be 41 36 1e bc 91 93 99 3d
       -0.03208015 -0.1490167 -0.00965649 0.07498849
000230 0c 60 f6 3d f8 2c a5 3d 5c f0 f6 3d 17 7c 16 bc
       0.12030038 0.08065218 0.12057564 -0.009184859
000240 6a a6 e9 bd 86 9c 76 bd d4 19 b1 3d 1e d1 57 ba
       -0.11408694 -0.060207866 0.086475044 -0.000823276
000250 a7 47 81 bd 98 50 c7 bd 5f 69 f3 bd fc 85 db bd
       -0.06312495 -0.09732169 -0.11885332 -0.10718915
000260 ae cf 2d be 37 06 27 3c 84 f5 07 3e 02 17 cc be
       -0.16973755 0.010194353 0.1327725 -0.39861304
000270 4e 3e a2 3d 1c 87 cb bd b6 f2 db bc 80 ec 52 bd
       0.0792204 -0.099378794 -0.026849132 -0.051495075
000280 20 16 a4 3d 66 d8 6f bd 57 24 5c bd 8b 36 c4 bd
       0.080120325 -0.058555983 -0.053745594 -0.09580716
000290 75 9d ba be f6 d2 be 3d 0e a1 4f be 6a 56 3e 3d
       -0.36448255 0.09317581 -0.20276281 0.04646913
0002a0 de 4c 33 be d7 45 31 3d 61 e0 c2 3d f6 87 99 be
       -0.17509791 0.043279495 0.09515453 -0.29986542
0002b0 35 4a b1 bd 2d b4 07 be ad 4a 82 be 92 e5 71 be
       -0.08656732 -0.13252325 -0.25447598 -0.2362273
0002c0 ff 1b 70 bc fe ad 30 be d4 70 77 3e 5a e1 58 bd
       -0.014655112 -0.17253873 0.24164134 -0.052949287
0002d0 a5 b0 3d 3e f6 d2 d9 bc d4 91 f0 3d 50 0e a1 bd
       0.18524416 -0.026589852 0.117465645 -0.07864058
0002e0 00 00 88 bd 41 09 8b bd b0 2f fa bc 74 cc da bc
       -0.06640625 -0.067888744 -0.030540317 -0.026708819
0002f0 2a 57 d6 bd 7f ee 8c 3d aa d7 40 3e 23 54 e1 3e
       -0.10465844 0.06881427 0.1883227 0.44009504
000300 d0 db 5b 3e 93 43 fe 3e a0 30 15 3e 91 4f e9 3e
       0.2147057 0.4966093 0.1456933 0.45568517
000310 7f 06 e1 be b4 2f 13 be 84 76 53 be d7 a1 dc 3c
       -0.4395027 -0.14373666 -0.20650679 0.02693264
000320 68 01 12 3e 19 03 d4 3e aa 9c c4 bd 2c 8f b2 bd
       0.14258349 0.41408613 -0.09600194 -0.08718714
000330 24 07 97 bd d1 0c b6 3d b2 fd 3a bd 64 63 db 3d
       -0.07374409 0.08889163 -0.0456521 0.10712317
000340 05 1b 3c 3d 64 bd 83 3c 2e d4 77 ba 38 aa cd bc
       0.045924205 0.01608152 -0.00094539195 -0.02510558
000350 87 88 82 3c fe 90 ed bc b5 98 d6 3e c2 84 9b bd
       0.015934242 -0.028999802 0.4191338 -0.07593681
000360 a3 08 4a be 32 5c cc be 9d 06 d2 3d 8b 14 d3 bd
       -0.19729857 -0.3991409 0.10255168 -0.10306653
000370 84 69 15 bc 0e a6 00 3e 84 ae bd 3d d3 63 92 3e
       -0.009119395 0.12563345 0.09261802 0.28591785
000380 47 3e 65 be 13 9c 08 bd 2c e0 38 3e 1c ae 08 3e
       -0.22387038 -0.03335197 0.18054265 0.13347667
000390 a4 c3 d7 be 16 cc bd bd 91 3c c7 3c 69 fd 02 3d
       -0.4214145 -0.09267442 0.024320873 0.031979952
0003a0 50 e1 96 bc ec 44 d4 be 0f 63 97 bd f4 f8 4e be
       -0.018417984 -0.41458833 -0.07391941 -0.20212156
0003b0 ef 08 50 be c9 dc 94 bd 7d 78 5c bd 42 94 d3 3d
       -0.20315908 -0.07268674 -0.053825844 0.10331012
0003c0 d1 9c ed bd d1 04 4c 3e 43 a2 1d 3d 82 2f 55 39
       -0.11602176 0.19923712 0.038484823 0.00020330961
0003d0 5b ea f7 bc 03 ba 93 be 6c 03 3f 3e 35 85 83 bd
       -0.030263117 -0.28852853 0.18653649 -0.064218916
0003e0 fc 6c e5 3a 05 e2 b0 bc 54 fc 88 bd 3e 82 89 3c
       0.0017503793 -0.02159215 -0.06688753 0.016785737
0003f0 47 d1 b0 3e 51 3a d2 3e 08 fc 35 3e 15 e3 0f 3f
       0.34534666 0.41060117 0.17771924 0.56205875

actor.0.bias f4 [64]
000000 80 c1 07 be e1 fc 44 3e a8 87 bd ba b1 2e c6 bd
       -0.13257408 0.1923709 -0.0014459984 -0.096768744
000010 6b 66 49 be fd 1a 72 be b5 c9 1e 3e 30 3f 7b bd
       -0.19667976 -0.23643108 0.15506633 -0.061339557
000020 be df 38 3e 32 56 bc bd f4 5a 96 bd 4e 22 19 be
       0.18054101 -0.09196128 -0.07341567 -0.14954492
000030 99 bb 99 bd 2e f9 24 3d 0f ae 9e bd 3e 7f 28 3d
       -0.075064845 0.0402767 -0.07748043 0.041136973
000040 50 bd 69 bc e5 1a eb 3d 17 da 43 be 57 af c2 bd
       -0.014266327 0.11479739 -0.19126163 -0.095061
000050 6c 2c 14 be ff 19 9d bd 90 28 d6 3d a0 ec f3 bd
       -0.1447007 -0.07670974 0.104569554 -0.11910367
000060 f1 ab af 3d 58 ea 24 bc be c1 69 3c 5e f5 24 bd
       0.08577717 -0.0100656375 0.014267383 -0.040273063
000070 54 0f 25 bc 45 12 02 3e 2e 42 f3 bd e4 1a 3e bd
       -0.010074455 0.12702282 -0.11877857 -0.046412364
000080 64 88 06 be ac 9e 3b be 90 7c d3 3d 2c 74 2d be
       -0.13137966 -0.18322247 0.10326493 -0.16938847
000090 3b de 08 3e b3 ea 09 3d 55 79 cb bd 06 e6 12 be
       0.13366024 0.033671092 -0.099352516 -0.1434556
0000a0 6b d3 a9 bd 14 df b4 3d 49 bf d7 bd 97 22 f7 bd
       -0.08292278 0.08831611 -0.105345316 -0.12067144
0000b0 e4 de 39 be 9c 47 93 3d 47 5c ec bc 0d 07 96 bd
       -0.18151432 0.07191393 -0.028852595 -0.073255636
0000c0 14 ab 11 be b3 0f b4 3d 5c 36 f5 bd 8c f5 06 be
       -0.14225417 0.08792057 -0.11973259 -0.13179606
0000d0 ae b1 18 be 9f 87 18 bd 9a 97 23 3e b7 19 71 bd
       -0.1491153 -0.037238713 0.159758 -0.058862414
0000e0 9a b3 26 3e 3b 3f 91 3d cd 86 ba bd d1 18 09 be
       0.1627945 0.070921384 -0.091077425 -0.13388373
0000f0 59 e5 1c 3d 5c a1 a7 bc 47 c5 ac bc 61 05 35 be
       0.03830466 -0.020462684 -0.021090163 -0.17677833

actor.2.weight f4 [64, 64]
000000 3c f2 87 bd 7d 0b 0b be e5 e3 b8 3d 6c 84 e6 bd
       -0.066379994 -0.13578601 0.090278424 -0.11255726
000010 83 12 0d bd 58 e2 8e 3d b5 b7 8a bd 11 58 c9 bd
       -0.034441482 0.069767654 -0.067733206 -0.098312505
000020 05 55 32 be 23 5e 50 3b 7c 73 80 bd 76 7f d9 bb
       -0.17415245 0.003179439 -0.06272027 -0.006637509
000030 b6 64 40 bb c5 a2 55 bd 50 f4 83 3d 97 2c 75 bd
       -0.0029356903 -0.052157182 0.06443083 -0.059856977
000040 39 15 c2 bd 7a 47 cc bd 96 79 60 3c 36 d6 56 bd
       -0.09476704 -0.099745706 0.013700863 -0.05245038
000050 68 da 05 3c 3a 5c 5b bd ce ba f8 3c b8 1c a0 bd
       0.008169748 -0.05355475 0.030362513 -0.07817978
000060 08 53 a2 bd 1b 52 8b bd d9 0e fe bd 34 af 48 3b
       -0.07925993 -0.0680277 -0.12405176 0.0030622007
000070 a4 2f c2 bd f9 63 de 3c 9e 0d 23 3d ae 2d c6 3c
       -0.09481743 0.02714728 0.03980791 0.024191704
000080 70 4a 23 bd cc 44 ab 3c f9 d3 06 be 8f 31 12 be
       -0.03986591 0.020906828 -0.13166799 -0.14276718
000090 05 c9 f2 bc 40 99 d2 bd 6e 75 eb bd fb 1e 02 3c
       -0.02963687 -0.10283136 -0.11497007 0.007941957
0000a0 15 42 80 3d 43 57 81 bd 46 83 46 bd 8f 48 e1 bd
       0.06262604 -0.06315472 -0.048465036 -0.110001676
0000b0 03 69 33 3a 86 01 ad bc fd 51 cf bc 91 be 29 3d
       0.0006843956 -0.02111889 -0.02530765 0.041441504
0000c0 fe 71 04 be 83 ab b9 bd c6 41 ed bd 47 54 30 3d
       -0.1293411 -0.090659164 -0.11584811 0.043049123
0000d0 9b f2 b4 3d 53 4b 61 3d ca 5d 6e 3d f0 c7 4a 3d
       0.08835336 0.055003475 0.058194913 0.04950708
0000e0 92 33 e8 bd 1c a6 ad bd f0 e0 ae bb 10 a6 03 be
       -0.11337961 -0.084789485 -0.0053368732 -0.12856317
0000f0 2f de 0c 3d ad 8c d9 3c 59 d4 46 bb 61 5a ce bd
       0.03439158 0.026556337 -0.0030338971 -0.10075832
000100 8e 52 90 3d d1 af 1d bd 19 5c d8 3d 6c d1 35 3e
       0.07046996 -0.03849775 0.10564441 0.1775567
000110 af 15 00 be 1d af 89 3c ac a2 96 3e d6 94 fd be
       -0.12508272 0.016807133 0.29420984 -0.49527615
000120 e9 8d db 3d af f8 14 3e 68 60 9f 3e 1f 38 ec 3d
       0.107204266 0.1454799 0.3112824 0.11534142
000130 6d 46 98 be db 8e 1e be b8 c6 e3 bc f2 78 f0 bc
       -0.2974123 -0.15484183 -0.027804717 -0.029354546
000140 2e f6 c8 3e b3 4b 1c 3e a6 57 de 3d a4 07 e5 3a
       0.3925032 0.15263252 0.10856561 0.001747359
000150 c8 82 99 be fb 4e 38 be 32 55 46 be 94 89 88 3d
       -0.2998259 -0.17998879 -0.19368437 0.06666866
000160 2d be 8d bd ac 9d 63 be c5 5d ca bd ff e0 33 3e
       -0.06921039 -0.22228116 -0.09881166 0.17566298
000170 95 e8 a8 bd 04 8b c7 3d e0 a7 ee bd 36 47 6b 3d
       -0.082474865 0.09743312 -0.11653113 0.05744096
000180 8b 55 75 bd a6 e5 db bd ba 67 84 3e b9 21 f8 bd
       -0.059896033 -0.10737161 0.25860387 -0.12115807
000190 3f c4 85 be 13 93 67 3e 6f f2 80 3e c8 20 31 3c
       -0.26126286 0.22614698 0.25184962 0.010811038
0001a0 28 75 d6 3d 6d f0 8a 3e e0 75 a2 3d 0a 42 d0 3d
       0.104715645 0.27136555 0.07932639 0.10168846
0001b0 f8 fa 21 3d 19 9f 81 bd d6 e5 ca 3b 1a dd 3c be
       0.039545983 -0.063291736 0.0061919494 -0.18443719
0001c0 ff 0d f2 bd 16 d4 27 3d db 37 b8 be 27 ba 9f 3d
       -0.11819076 0.040973745 -0.35980114 0.077991776
0001d0 be 0b 4b 3e 28 49 76 3d 94 7e a2 be 48 8c d7 3d
       0.19828698 0.06012836 -0.31737196 0.105248034
0001e0 03 fe b9 bd 7a 1d d5 3d 16 b0 5c be 8d 32 8d bc
       -0.09081652 0.10406013 -0.21551546 -0.017236019
0001f0 39 df 80 3d ca 39 dd 3b 80 59 d1 bd 31 53 c4 3c
       0.06292576 0.0067512738 -0.10222149 0.02396545
000200 fa cc 50 bd 7e 15 c1 3a 1a 96 13 be 7c 2d 6b bd
       -0.05097673 0.0014731137 -0.14412728 -0.057416424
000210 17 52 0f 3d 17 82 ef bb 1b 60 a2 bd 92 3c eb bd
       0.034990396 -0.007309209 -0.07928487 -0.11486162
000220 a2 f2 96 bd a5 6f 21 be 0f ef 54 bc 20 00 a9 bd
       -0.07370497 -0.15765245 -0.012996449 -0.08251977
000230 e8 1a ad 3b 3c 64 1f 3d d6 b1 94 bb eb 31 0f bd
       0.0052827485 0.03891395 -0.0045378013 -0.034959715
000240 3a e3 98 bc 8e 25 28 3d ad 7c a0 bc bf 8e f4 3c
       -0.018663038 0.04105144 -0.0195907 0.029853223
000250 11 36 b7 bd ee 22 ec bc fb c7 30 be 36 8f a2 3c
       -0.08945859 -0.02882525 -0.17263786 0.019843679
000260 47 5b 25 be cc 07 59 bd 05 57 5f 3d 05 e2 e3 bd
       -0.16148101 -0.05298595 0.054526348 -0.11127094
000270 ab c5 e5 3c e0 8e ba bd e1 b1 69 3d 49 08 62 bc
       0.028048357 -0.091092825 0.057054404 -0.013795921
000280 a5 44 d0 bd 0c 88 a9 3c 31 50 2f be 57 53 d9 bd
       -0.10169343 0.020694755 -0.17120434 -0.10611599
000290 e4 18 12 be 6b 4e d2 bb 89 5e 87 ba 1a 45 27 be
       -0.14267308 -0.0064180396 -0.0010327856 -0.16334954
0002a0 48 30 30 3d 38 9e 4c bd ae e7 d0 bd ee 4c 36 bd
       0.043014795 -0.049955577 -0.102004394 -0.04450696
0002b0 5e f9 a5 bd 4e cb ce bb e3 f4 25 bc e2 28 6b bd
       -0.08104204 -0.006310857 -0.010129186 -0.057412036
0002c0 6c 6f 45 bc 07 be 0c 3d 62 fc ae bd d4 40 9c bd
       -0.012050491 0.03436091 -0.08544232 -0.076295525
0002d0 5d cf 00 be c1 d2 10 be ab 1f ba bd 26 31 ce bc
       -0.12579103 -0.14142896 -0.090880714 -0.02516992
0002e0 f5 7a 2e be 6d 7e 2d 3c 8f c8 9f 3d 02 bf 48 3d
       -0.17039092 0.010589224 0.078019254 0.049010284
0002f0 27 bf 1b be 32 22 b5 3d e9 f8 cd bd ce 45 b5 bd
       -0.15209638 0.08844413 -0.100572415 -0.08851205
000300 b1 f9 ce 3c 0e b4 ae 3d bc 5a a8 3d c8 57 65 3d
       0.025265547 0.085304365 0.08220431 0.055991918
000310 9f ce 9f bd 2f f7 db 3c 29 a4 11 be a8 c6 24 bd
       -0.07803082 0.026851265 -0.14222778 -0.040228516
000320 51 80 ec 3d 4c 62 46 3d 35 69 32 be ea ad c5 bd
       0.11547912 0.048433587 -0.17422946 -0.09652312
000330 24 57 8b bd ed cb 8a 3c a6 df 8d bc 2a e4 d6 bd
       -0.0680373 0.016942943 -0.017318558 -0.104927376
000340 4e d5 e4 ba 18 5f 14 3d 71 14 f6 ba 2a 9a 2b 3d
       -0.0017458589 0.0362235 -0.0018774403 0.04189507
000350 2a d0 e8 bc 35 b3 d5 3c cb c0 18 bd 29 98 86 bd
       -0.028419573 0.02608643 -0.037293237 -0.06571991
000360 2a 6b 4e bd a9 37 b4 3d 57 60 d7 3c 2f fe 02 be
       -0.05039517 0.08799679 0.026291056 -0.12792276
000370 84 71 da bd 57 47 08 be 84 1b 6e bd a6 36 4d 3c
       -0.10666183 -0.13308464 -0.05813171 0.012525236
000380 71 e7 c7 3d 0b 52 66 bc cf 7d 22 3d 52 8b 36 3d
       0.09760941 -0.0140576465 0.03967076 0.04456646
000390 ee 7e 08 be 4e 70 19 be 54 a3 98 bb c8 15 6a bd
       -0.1332967 -0.14984247 -0.004658142 -0.05714968
0003a0 0e 2a cf bd 28 dc f6 bb 32 51 11 be fa 13 44 bd
       -0.10115443 -0.007533569 -0.1419113 -0.047870614
0003b0 14 37 cb bc ff 08 88 bd 0b 94 2c bc ba 2e 39 3d
       -0.024806537 -0.06642341 -0.010533343 0.045210578
0003c0 50 d9 72 bd 71 79 58 3d 48 88 0d be a9 45 4b bd
       -0.059289277 0.05285019 -0.13821518 -0.04962698
0003d0 9f 87 33 be ee d8 18 be f8 10 57 3d e8 7a 53 bd
       -0.17532204 -0.14926502 0.052506417 -0.051630884
0003e0 48 dd d2 bd ae 81 e3 3b a9 60 b2 bd 55 38 6a bc
       -0.10296112 0.0069429493 -0.08709843 -0.014295657
0003f0 0b 27 16 3d 7a 07 bf bd d7 37 55 3d bc 2c 86 bc
       0.036658328 -0.09327598 0.052055206 -0.016378753

actor.2.bias f4 [64]
000000 60 3a d7 bd ee 55 09 3d 8d 0a 82 bd 8a 5e 1f be
       -0.10509181 0.033529215 -0.06349669 -0.15563408
000010 76 a9 94 bd 5e 6a b1 bd 98 1b d2 3d 2a 2e 0a 3e
       -0.072588846 -0.08662866 0.10259169 0.13494173
000020 ca 5b c0 bd e0 b7 ee 3d 0b 80 0c 3c a8 f2 5b 3b
       -0.093925074 0.11656165 0.00857545 0.0033561382
000030 55 0a fa bc 87 d1 0f be a3 8f f2 3d d3 ba 45 3e
       -0.030522505 -0.14044772 0.11843803 0.19309549
000040 20 60 5d be ee 69 88 3e 75 7f ed 3d f6 7d 0d 3e
       -0.216187 0.26643318 0.11596576 0.13817582
000050 2b 20 92 bd 5b 74 0c bd 0d f8 91 bd 37 af b9 3e
       -0.07135042 -0.034290653 -0.0712739 0.3626649
000060 23 b6 10 bc ac 49 af 3d 9e 87 40 3d 7d d6 a4 bd
       -0.008832487 0.08558974 0.047004335 -0.08048723
000070 12 ab 79 bd 52 29 62 bb db 53 9a bd 8b a9 b7 bd
       -0.06095416 -0.0034509492 -0.075355254 -0.08967885
000080 76 eb 48 be 7f 08 5b bd 8e f2 50 bd 75 af 3e 3d
       -0.19621071 -0.0534749 -0.05101257 0.046554048
000090 8f 15 4f bd 88 c6 6b be 1b b7 c5 3c 67 56 f2 3d
       -0.05055767 -0.23024952 0.024135163 0.11832886
0000a0 d2 e8 2b bd b4 d0 69 be b3 53 1c bd 6d 27 19 be
       -0.04197008 -0.2283352 -0.03816576 -0.14956446
0000b0 12 b3 81 3e 3f 05 53 3d 65 4d e1 bd f8 88 72 bd
       0.25331932 0.051518675 -0.1100109 -0.059212655
0000c0 53 2a 82 bd 59 78 ed 3c 5a 9f 16 3d 83 5e 25 be
       -0.06355729 0.02898805 0.036773063 -0.16149335
0000d0 2c f5 26 be 70 63 e8 bd cb 0f c3 bd fb 14 ca bc
       -0.16304463 -0.11347091 -0.09524497 -0.024668207
0000e0 c2 b2 55 3e 4c a9 66 3e 99 69 28 be 44 6f 4e 3e
       0.20868972 0.22525519 -0.16446532 0.20159632
0000f0 2a 93 e4 bd 08 07 b0 3c aa 6c 54 bc be c5 b6 3e
       -0.11160882 0.021487728 -0.012965361 0.3569774

actor.4.weight f4 [36, 64]
000000 f0 1a e5 3c ca 49 6a 3e 94 30 95 3d c4 cd e6 bc
       0.027966946 0.22879711 0.07284656 -0.028174289
000010 dd 2a 99 3e fc ca fd bd 90 8c b1 3e 3e f2 f4 3e
       0.29915515 -0.12392232 0.34677553 0.47841066
000020 a9 f7 11 3e 95 c0 b3 3e 99 52 9d 3c 73 98 05 3e
       0.14254631 0.35107866 0.019204425 0.13046436
000030 fb 31 c3 3d 64 df cf bd 22 c5 84 be ff f0 b8 be
       0.095310174 -0.1015003 -0.2593165 -0.36121365
000040 a6 91 cf 3e 0b af 2a 3e e8 d5 ef 3e 2b 5b 25 3f
       0.40540808 0.16668336 0.46842885 0.64592236
000050 b8 02 08 bd 76 4d 53 bd c5 61 08 be 1a 3e 18 3e
       -0.033205718 -0.051587544 -0.13318546 0.1486744
000060 91 a4 76 39 4d 9f 6f bd 91 15 2b 3e 95 d9 33 3f
       0.00023521694 -0.05850153 0.16707446 0.7025388
000070 60 ed c8 be 4c 0e 96 3e 3d bc 21 3f 6b 28 08 3f
       -0.39243603 0.29307783 0.63177854 0.5318667
000080 cd 4d 59 bd ef 10 a5 bd 01 cb ae be 0f 39 2a be
       -0.053052712 -0.080598705 -0.34139255 -0.16623329
000090 ea 42 c2 3d ca 16 c7 3d e5 8c 0b 3e b7 48 b6 3e
       0.09485419 0.097211435 0.13627966 0.35602352
0000a0 62 05 13 be e9 68 7d 3d cc 5a 37 be 04 e9 1a be
       -0.14357522 0.06186763 -0.1790573 -0.15127951
0000b0 0c f4 be be 88 10 b6 3e a6 8c 48 3d 28 b5 3b 3d
       -0.37295568 0.35559487 0.048962258 0.04582706
0000c0 e0 13 9a 3d 03 df c6 3d 6e bb 24 be cf fe 9b bb
       0.07523322 0.09710505 -0.16087124 -0.0047606
0000d0 d9 9f 98 3d 79 4f 25 3c 7a 5b 51 3d 67 2c 91 3e
       0.074523635 0.010089749 0.05111263 0.2835419
0000e0 6b 1b 5f be 94 64 af bd 4d 91 2e 3d 0a fa 71 3e
       -0.21787803 -0.08564106 0.04261904 0.23630539
0000f0 34 de 9e 3e cc 60 96 3d f8 f8 a2 3d c1 eb a6 3e
       0.31028903 0.07342681 0.07957643 0.3260174
000100 a0 46 12 be 96 9e 9a 3d 35 21 d3 3d 91 a2 cb bc
       -0.14284754 0.07549779 0.10309068 -0.024857791
000110 fe 97 25 bf 77 ba de bd 5e 05 72 bf 5b 58 21 bf
       -0.64685047 -0.10875409 -0.9453944 -0.63025445
000120 2c 05 ac be 6c 22 5a 3d 8e 51 44 bf 39 dd fe 3b
       -0.33597696 0.053255484 -0.7668694 0.0077778366
000130 60 25 b5 bd a6 2a f9 bd 4e 6e 49 3e fe 76 01 bf
       -0.08845019 -0.12166338 0.19670984 -0.5057219
000140 6b 19 b1 be f7 b8 2f 3f be 7f 0b bf 2d 08 1c be
       -0.34589705 0.6864161 -0.54491794 -0.15237494
000150 3c 42 04 3f 16 63 2d 3e 00 46 df 3d df e4 e8 bd
       0.51663566 0.1693233 0.10902023 -0.11371779
000160 1a 8b 92 be dc 36 47 3f 5b ed 97 bd a9 95 ff 3b
       -0.2862175 0.77818084 -0.07418319 0.0077998233
000170 c6 00 cb 3e 0b 75 29 bf 76 61 93 bd 31 f3 0a be
       0.39649028 -0.6619422 -0.071963236 -0.13569333
000180 3c 03 d8 3c 3c f3 81 3c f7 11 07 3f 07 ea 0c bf
       0.02636873 0.015863054 0.5276179 -0.550446
000190 bc d1 17 3e 85 07 e1 be ac f5 8e be 46 32 f9 be
       0.14826101 -0.4395105 -0.27921808 -0.48671168
0001a0 66 9d 6e 3e a4 15 9a 3d 08 30 99 be c0 73 30 bd
       0.2330223 0.07523659 -0.29919457 -0.043079138
0001b0 66 6e 56 3d cf 71 06 bf 44 15 31 bf a5 f8 1c 3d
       0.052351378 -0.5251741 -0.69173074 0.038323063
0001c0 8c de 48 3f f6 b5 06 bd 5e 15 40 3f 99 ac 18 3d
       0.7846458 -0.032888375 0.75032604 0.037273977
0001d0 85 d9 80 bd f7 42 3d 3e 5a b6 49 3e 66 8a 21 bc
       -0.062914886 0.18482576 0.19698468 -0.009859657
0001e0 ce 2e 37 3f 7a 6d 54 3f e9 86 cd be 3b a9 3d bf
       0.71555793 0.8297955 -0.4014199 -0.7408635
0001f0 a6 64 37 3e fa eb 0c bf 48 19 3e 3e c1 7d 4b bf
       0.17909488 -0.5504757 0.18564332 -0.7948876
000200 23 8b 12 3d fc 83 95 3e 68 92 18 3e 0f 93 99 bd
       0.035777222 0.2920226 0.148996 -0.07498752
000210 ce cb ad bc 9e 3f 55 3e 7d 5b bf 3d 36 71 d2 bd
       -0.021215346 0.2082505 0.09343622 -0.102754995
000220 8c a3 93 bb 13 1f df 3d a3 54 8b 3e 3c 58 d9 3d
       -0.0045055803 0.10894599 0.2721301 0.106125325
000230 ad 2b 19 3e 0b ae 1c be 2a e9 de 3e ea 4d 6b 3e
       0.14958067 -0.15300767 0.43537265 0.2297894
000240 93 e6 8f 3e ed be b3 3d b2 e7 ac 3e ef 92 51 3e
       0.28105602 0.087766506 0.3377052 0.20466207
000250 03 76 bf 3e ea 89 a5 bb 78 95 c3 3d 8a 27 84 be
       0.37394723 -0.005051841 0.09549993 -0.25811416
000260 0e 06 28 be 71 9c 53 3e 36 75 5c 3d 32 62 3c bc
       -0.1640856 0.20665146 0.05382272 -0.011498021
000270 bf 15 cc 3e 3f 2c 2b be 62 26 04 3f 21 36 6b bd
       0.3986034 -0.16716097 0.5162107 -0.05742467
000280 13 a5 6b 3d 8e c1 b1 3d 4d b5 00 3f f7 dd 90 3e
       0.057530474 0.08679496 0.50276643 0.28294346
000290 cb 0f 00 3e ba d4 2d 3e 1f 4b 3c 3e 73 1e c0 3e
       0.12506025 0.1697568 0.18388031 0.3752323
0002a0 cc 90 e7 3e 41 85 a3 be 79 b7 4e bd 08 2f 00 3d
       0.4522766 -0.31937602 -0.050467942 0.031294852
0002b0 3e 35 d5 3c 49 36 65 3e 94 c4 65 3e c2 15 37 3d
       0.026026364 0.2238399 0.2243827 0.044698484
0002c0 ea fc f5 3e 30 82 1c 3e 1d ea 34 be e4 30 fb 3d
       0.4804452 0.15284038 -0.17667432 0.122651845
0002d0 e8 50 f4 3e f0 cc 88 bd 62 11 b6 3d 40 68 c4 3e
       0.47717977 -0.06679714 0.08890034 0.38360786
0002e0 05 49 7b 3e db 90 d4 bd b2 05 81 bd 4d eb 7d be
       0.24539573 -0.103791915 -0.062999144 -0.24796791
0002f0 0f c2 d1 3e 6f 6c a5 3e 66 ee f1 3d a6 02 68 bc
       0.40968367 0.3230929 0.11813049 -0.014160788
000300 7f 44 cd 3d 64 0c ed be 8a 51 9b 3c 8e ba 07 3d
       0.1002283 -0.46298516 0.01895978 0.033136897
000310 fb 86 24 be a0 8a 59 bc 17 40 2e 3d e5 2b e8 be
       -0.16067116 -0.01327768 0.04254159 -0.4534599
000320 a7 f9 f9 3e 87 13 f5 bc da fb ef be 78 f4 bf 3d
       0.48823282 -0.029916538 -0.46871835 0.093728006
000330 51 91 1c 3f d7 46 a8 bd f0 be fa 3e 78 8c d2 3e
       0.61159235 -0.08216637 0.489738 0.41122794
000340 d6 76 55 be 25 75 15 3e 4f e6 9e bf 96 e8 d2 bd
       -0.20846114 0.14595468 -1.2414035 -0.102982685
000350 b6 96 5c bf 18 03 2b 3e 63 08 b2 3d 1a 21 11 3d
       -0.86167467 0.16700399 0.08693006 0.03543196
000360 7c b9 a0 3d f8 71 b7 bc 31 41 fb 3b 65 96 62 be
       0.07847878 -0.022393212 0.0076676835 -0.22127683
000370 25 fe 39 be a8 cd 12 bf e7 66 7b bd af 33 6b bf
       -0.18163355 -0.57345057 -0.061377432 -0.9187574
000380 1e 26 81 3e 49 a3 b4 3d 3d 92 0d be ad ad 5f bf
       0.25224394 0.08820207 -0.13825317 -0.87374383
000390 85 30 08 3e 73 59 12 be 52 69 87 be 28 58 82 bf
       0.13299759 -0.14291935 -0.2644754 -1.0183153
0003a0 74 cc 2d bd 1f 02 73 3e 26 fd 07 be 70 64 05 bd
       -0.04243131 0.23731278 -0.13280162 -0.032566488
0003b0 63 58 10 bf 88 dd 6a bf 8c 70 09 bf aa 8d 17 bd
       -0.5638487 -0.9174428 -0.5368736 -0.037000336
0003c0 24 ff 7c bd d8 c2 21 3e 43 23 7b be eb f7 c8 bd
       -0.06176676 0.15796983 -0.2452517 -0.098129116
0003d0 32 38 be bc b2 14 2d 3d 2d 1b 9f bd 2a 71 2e bd
       -0.023220155 0.042256065 -0.07768855 -0.04258839
0003e0 87 b4 25 3f b7 a5 4f be 33 51 04 ba fe 9a ec be
       0.6472859 -0.20278059 -0.00050475 -0.46212
0003f0 ac 02 0e bf ee 98 49 3e 79 05 b8 3c 52 f8 78 3e
       -0.55472827 0.19687244 0.022463547 0.24313477

actor.4.bias f4 [36]
000000 b7 5b 38 3d 17 6f 29 be a0 8b 36 b9 12 65 ad be
       0.04500934 -0.16546284 -0.00017408887 -0.33866173
000010 09 8f 42 3e 30 f5 88 ba 9a 9d 1d 3d 7c dc c2 3e
       0.18999876 -0.0010449048 0.03848038 0.3805884
000020 cb 23 e6 bc 4b b2 04 3e 87 73 ea bd 05 4e 10 3e
       -0.02809324 0.12958638 -0.11447816 0.14092262
000030 2d a1 16 3e ac 01 36 bd 4b b6 1b 3e 39 7f 61 be
       0.14709921 -0.04443519 0.15206258 -0.22021188
000040 bb 30 d4 3d c2 f4 12 bf 4c 73 83 3e 73 a7 f3 be
       0.10360857 -0.5740472 0.25673902 -0.4758869
000050 00 52 35 bf ac 69 df 3d 28 79 71 3e 74 68 c6 3d
       -0.7082825 0.10908827 0.23581374 0.096878916
000060 01 e4 e6 3d 80 21 f2 3d 9d c6 2a 3e 56 6e fc 3c
       0.11273957 0.11822796 0.16677327 0.030814331
000070 bb 4b 92 3e 99 99 a0 3d 66 a7 b0 3d b7 43 4a 3e
       0.28573403 0.078417964 0.08625679 0.19752394
000080 b8 6a e9 bd e2 03 b3 3d 14 1e 59 3d 29 03 98 3e
       -0.11397308 0.08740975 0.0530072 0.2968991

critic.0.weight f4 [64, 62]
000000 c8 60 9c 3d 6a 19 ab 3d 31 d8 ab bd 6c 5b 1b 3c
       0.07635647 0.08354457 -0.083908446 0.009482246
000010 8d 04 9c bd f5 18 9a bd c2 95 e4 3d 1a a0 c1 3d
       -0.076180555 -0.075242914 0.111613765 0.09454365
000020 b5 31 d1 bd 8e 10 78 bd de 96 22 3d 2a 81 54 bd
       -0.10214559 -0.060562663 0.03969466 -0.051880993
000030 0e 74 1b be 42 10 a7 bd 0c d2 a2 bd e6 51 b3 bd
       -0.1518099 -0.08157398 -0.079502195 -0.08755855
000040 fe 10 09 bc ab 20 dd bd 13 fe f7 bd c8 76 b6 3d
       -0.008365868 -0.107972465 -0.12109008 0.089093745
000050 0c 4a bb bd 7c 17 b6 3d d6 10 10 3c 3e 3c 98 bc
       -0.09144983 0.08891198 0.0087930765 -0.018583413
000060 ef 3e c9 3d 27 17 cb bd c0 34 79 3d b3 99 ad 3d
       0.09826457 -0.09916525 0.060841322 0.084765814
000070 a1 01 35 3e 1e 28 87 3d 44 ac 40 bd 91 43 73 bd
       0.17676403 0.065994486 -0.047039285 -0.05939061
000080 f2 fb c0 bd 9a a3 b1 3d 52 32 b7 bc 73 eb af 3d
       -0.09423055 0.08673783 -0.022362862 0.0858983
000090 77 3f ad bd 9b 8c 94 bd 11 3c 09 bc 8b f8 88 3d
       -0.084593706 -0.07253381 -0.008376137 0.06688031
0000a0 3b 05 08 3d 5c 34 6f 3c 17 f0 79 3d 70 ba 05 be
       0.033208113 0.014599886 0.061019983 -0.13059402
0000b0 ea 7c 92 bd 5e 2d c1 bb 76 47 51 be 8c e8 9a be
       -0.07152732 -0.005895301 -0.20437416 -0.30255544
0000c0 41 ce d4 3d 91 5e 1a be 52 f9 01 be ae 80 87 bd
       0.10390902 -0.15075137 -0.12692764 -0.066163406
0000d0 12 b7 00 3d 55 ed 08 3d 5d d4 c5 bd 5b c7 c9 bc
       0.03142459 0.033429462 -0.09659646 -0.024631193
0000e0 3b 4a 16 bc 8a 36 30 3d 50 c9 02 bd 8e dc 5b be
       -0.009172971 0.043020763 -0.031930268 -0.21470854
0000f0 25 3d ea bd 1a 1f 8a bc dd 19 e7 bd cc bf 83 3d
       -0.11437444 -0.016860534 -0.1128423 0.06433067
000100 28 39 8d bc 13 25 4d bd d8 13 84 bc 4b a0 df bd
       -0.017239168 -0.050084185 -0.016122743 -0.10919245
000110 52 dd 0d 3e 9a ac 69 3c 0b 9d 44 3d ba f6 d3 bd
       0.13853958 0.014262343 0.04800133 -0.10349794
000120 9e be 35 3c bf 45 04 3f 21 da 0f 3c ca 7b 66 3d
       0.01109281 0.51668924 0.008780033 0.0562704
000130 08 a9 ad 39 00 05 14 be a3 f5 d4 3d fb 2e df 3d
       0.0003312307 -0.14455032 0.10398414 0.10897633
000140 bf 91 8b 3d 45 04 df bb 5d 60 05 bd 76 59 f8 bd
       0.06814908 -0.006805929 -0.032562602 -0.12126438
000150 e2 da 88 3d 00 cd eb bc a8 10 a3 3c ed f3 ea bc
       0.066823736 -0.028784275 0.019905403 -0.028680766
000160 15 fc a7 3d bd 3a 84 3b 38 ee e4 3e b2 07 01 3f
       0.08202378 0.0040353225 0.44712996 0.5040237
000170 d9 e1 71 bd 87 0a 25 3f 73 dd 70 3d 5f 54 99 bd
       -0.059053276 0.6446919 0.05880494 -0.07486796
000180 b5 e9 b6 3d e7 7b c9 3d 88 d9 a6 bb 51 f4 3a be
       0.08931295 0.098380856 -0.0050918497 -0.18257262
000190 cb 37 6d 3e c3 16 2d 3e d5 83 01 bd 9a e8 0e 3e
       0.23165815 0.16903214 -0.031619865 0.13955918
0001a0 24 ab 7a 3d 70 44 9b 3d f8 cd 8a 3c fd 23 bf 3d
       0.06119837 0.07581413 0.016943917 0.09333036
0001b0 c0 ce 85 3e 36 a4 20 3d 76 ff 21 bd 55 8f 00 be
       0.261343 0.039219104 -0.039550267 -0.12554677
0001c0 3b 90 0e 3c 7c 5e bc bd b0 1b 3f bd ae e7 2c be
       0.008701379 -0.09197709 -0.046657264 -0.16885254
0001d0 f7 49 05 bd 04 c5 a7 be 46 58 6e bd 8e 46 48 3d
       -0.03254124 -0.32767498 -0.058189653 0.04889541
0001e0 de ac 35 bd b1 b4 33 3e e4 ef 10 be 9e d2 00 be
       -0.044354312 0.17549397 -0.14154011 -0.12580344
0001f0 1a 4f d7 bd 14 23 a3 3d 1f 64 d7 3d 23 24 47 3d
       -0.10513134 0.07965675 0.105171435 0.048618447
000200 8c c6 fd bd 1d 10 31 3c 56 24 42 be cd ae 31 be
       -0.123913854 0.010807064 -0.18959174 -0.17351837
000210 67 86 ad bd 6e 9b 8a 3d 45 d5 aa 3e 30 05 cd 3e
       -0.08472901 0.06767927 0.33365837 0.4004302
000220 4e 82 bc 3e 1d e7 36 3d a4 8c 0e 3b de c0 7f 3d
       0.36818165 0.044654 0.0021751309 0.06243979
000230 01 1f a3 bc 0a a1 99 bd de 74 f2 3d 9b 83 d3 bd
       -0.019912245 -0.07501419 0.11838697 -0.10327836
000240 2b c6 f2 3d 77 ec af bc ce 58 bc 3c 04 7c e2 3d
       0.11854204 -0.02147506 0.022991564 0.1105881
000250 c3 b2 70 bd ad bd 40 bd c4 37 57 3d c2 ca 03 bd
       -0.05876423 -0.04705589 0.052543417 -0.032175787
000260 95 c8 47 bd da 98 b0 3d ec 0e 98 bd ae 58 a2 bd
       -0.048775274 0.08622904 -0.07424721 -0.079270706
000270 a6 e6 63 bd c6 7e 53 3d fd 69 49 3c 22 0e c8 bd
       -0.055639885 0.051634572 0.012293336 -0.097683206
000280 bd 65 c2 be 64 99 6d be e1 cb b2 bc 54 42 8e 3c
       -0.37968245 -0.23203045 -0.021825733 0.017365612
000290 68 a0 ca be dd 6e 89 3d 76 21 5d 3e 3b 6b 5d bd
       -0.39575505 0.067105986 0.21594796 -0.05405734
0002a0 02 87 4b bd e6 b9 d9 bd 12 da 00 be da 37 2b be
       -0.0496893 -0.106311604 -0.12583187 -0.16720524
0002b0 95 71 40 be 32 5b 6a 3c ee 51 ea bd 97 56 2e be
       -0.18793328 0.014303969 -0.11441408 -0.17025219
0002c0 de 67 77 3d ef 70 b1 be 3b 4c 89 bd f5 be 71 3e
       0.06040179 -0.34656474 -0.06703993 0.23608
0002d0 d1 38 17 bf b5 a2 e9 bb 32 77 92 bd a8 ca 98 3c
       -0.5907107 -0.007129992 -0.07151641 0.018651322
0002e0 bd 2b 61 be 3c 9b 7b be 5d 8e eb bd c2 11 ef bd
       -0.21989341 -0.24570936 -0.11501763 -0.11673309
0002f0 8d ab d9 bd 5c f5 b5 3d 17 8b 31 bd ed be fd bd
       -0.10628424 0.08884689 -0.043345537 -0.12389932
000300 f7 59 07 be 1a 28 ab 3c a2 d0 6f bd f1 f8 2b 3e
       -0.13217913 0.020893145 -0.058548577 0.16794182
000310 14 8e a1 3e 54 0c 1a 3f 63 9c 8c 3e 99 b5 07 be
       0.3155371 0.6017506 0.27463064 -0.13252868
000320 26 e8 c3 bc b3 82 90 bd 91 5f 1b bd 4b 6d a1 bd
       -0.023914408 -0.07056179 -0.037932936 -0.07882174
000330 82 c9 ab bd 45 23 b8 3d da a5 ac 3c 59 b8 2a 3d
       -0.08388044 0.08991102 0.021075178 0.041679714
000340 d5 03 bd bd b2 e2 c0 3c 8d b4 e7 3d 4d 75 8e 3d
       -0.092292465 0.023545597 0.11313734 0.06955967
000350 4c 09 b6 bb 37 79 6f bd 3d 42 95 bd 0e 72 af bd
       -0.0055553075 -0.05846521 -0.072880246 -0.08566676
000360 70 72 98 3c 16 ec 67 3e 0b 87 13 bd a7 04 a4 bb
       0.018609256 0.22648653 -0.03601746 -0.0050054374
000370 5b dd f4 bc 8e 49 9a bd 41 6b 17 be 80 17 95 be
       -0.029890707 -0.07533561 -0.14787008 -0.29119492
000380 93 24 6b be 22 05 54 3e f2 e5 7c be 8a 78 ae be
       -0.2296317 0.20705083 -0.24697092 -0.3407634
000390 99 36 18 3d 40 b0 9a 3e 62 70 cb bd 94 91 36 be
       0.037161443 0.30212593 -0.09933545 -0.17828971
0003a0 0f 11 9f bd 77 63 b3 bd 26 c7 99 bd eb 08 e7 bd
       -0.077669255 -0.08759206 -0.07508688 -0.11280998
0003b0 27 67 10 be da 7a 0b be bd 15 b7 3d ee 56 b0 be
       -0.1410185 -0.13621083 0.08939693 -0.34441322
0003c0 57 49 a1 bd 2f 18 68 3e 10 41 93 be 13 47 a0 bc
       -0.078753166 0.22665475 -0.28760576 -0.01956514
0003d0 9f 54 00 3c c8 be f6 3d 5f 89 85 be c4 0c 4e be
       0.007832675 0.120481074 -0.26081368 -0.20122057
0003e0 3e f8 8b 3d 01 79 b8 3d d0 2e ea bd c8 31 a8 bd
       0.06834458 0.09007455 -0.1143471 -0.0821262
0003f0 86 34 52 3e db 5f 07 bd d9 33 ba 3d 64 aa 1a 3e
       0.20527849 -0.0330504 0.090919204 0.15104061

critic.0.bias f4 [64]
000000 31 31 4c be 8f b5 4d 3d 7a 2b 0f be dc 56 eb bd
       -0.1994064 0.050221976 -0.13981429 -0.114911765
000010 46 5f ee 3d 79 2a 6c bd 35 fe 63 bd f9 0d f8 bd
       0.11639266 -0.057657693 -0.055662353 -0.1211204
000020 28 c8 5f be 29 3e 25 bd 21 41 28 be 38 4b 63 3d
       -0.21853697 -0.040342484 -0.16431095 0.055491656
000030 bd 37 34 be cd da d5 bd c3 83 d6 bd 32 f9 d8 3c
       -0.17599387 -0.104421236 -0.1047435 0.026486013
000040 a1 4a 08 be 87 d7 60 3e 83 fa e6 bd 05 fc 31 3d
       -0.13309719 0.21957217 -0.1127825 0.043453235
000050 50 a7 ea bd 64 9f ab 3d 7a 16 f2 bd e4 f1 7f be
       -0.114576936 0.08380011 -0.11820693 -0.24994618
000060 53 cb 67 3c 21 d8 6c be 6f ec 28 be 7e bd 34 be
       0.014147597 -0.23129322 -0.16496442 -0.1765041
000070 e6 e9 88 3d 72 74 15 bd 5d 45 f2 bc 97 fe 08 be
       0.066852376 -0.036488004 -0.02957409 -0.13378368
000080 92 3a 74 bd ee e7 b2 bd 2f 74 a8 3d bc 9d 84 3d
       -0.05962617 -0.08735643 0.08225285 0.06475398
000090 b5 e8 03 3d 75 09 59 bd 07 a2 fa bd 5c 67 e3 3d
       0.03220435 -0.052987535 -0.122379355 0.111036986
0000a0 f5 9e 3d be b5 2a 55 be 38 68 48 be 52 ba 54 bd
       -0.18517669 -0.20817073 -0.19571006 -0.0519355
0000b0 15 b1 5d be 8c 98 8a be de ee a2 3d 51 1b 7b bc
       -0.21649583 -0.2706951 0.079557166 -0.015326337
0000c0 6b 95 aa 3d fa 33 a4 bd 96 c0 1f bc 38 29 3b bd
       0.083292805 -0.08017726 -0.009750506 -0.045693606
0000d0 aa c4 1d 3e ac f3 49 be 06 59 4b be 78 d6 89 be
       0.15407053 -0.1972186 -0.19858178 -0.2692144
0000e0 28 fa 84 bb 52 cb 1c be 76 9a af bd 5d e2 23 be
       -0.0040581413 -0.15311936 -0.08574383 -0.1600432
0000f0 af a3 ae bc 4e ca bd bd 3e e9 b3 bd 69 02 70 be
       -0.021318285 -0.09267102 -0.08784722 -0.2343842

critic.2.weight f4 [64, 64]
000000 01 ae 8d 3d 1d 5b 2f 3e 6d 68 42 3e 89 27 f1 3d
       0.06917954 0.171246 0.18985148 0.11775119
000010 a4 63 39 bd 93 22 82 bd de 5f 95 3e 87 43 be be
       -0.04526104 -0.06354251 0.29174703 -0.37160894
000020 da 17 35 3d 48 da ae be 2d eb 86 bd 46 66 d0 3e
       0.0442122 -0.3415091 -0.06587825 0.40703028
000030 7e f8 f2 bd 21 f3 dd 3e 47 ee fd 3c 22 7c 4f 3e
       -0.118638024 0.43349555 0.030997409 0.20262197
000040 fd 92 24 3d 64 b0 f1 3e e6 f4 d1 bd d8 18 e7 3e
       0.04017924 0.47204888 -0.10251789 0.45136142
000050 86 2a 8c 3e 29 76 06 3f 00 1d 3a 3d 43 9a fb 3d
       0.27376193 0.5252405 0.045437813 0.122852825
000060 0b de 03 be 03 37 cf bc e3 d0 8d 3b 6f af fe 3c
       -0.12877671 -0.025294786 0.0043278798 0.031089513
000070 39 d5 b1 be a4 3f e2 3e 54 e3 27 ba ea f4 58 3d
       -0.34732988 0.4418918 -0.0006404419 0.052967943
000080 83 dc 84 3e 7d 64 57 bd c9 3b 45 3e f4 63 a6 be
       0.25949487 -0.052586067 0.19261087 -0.32498133
000090 2f a2 e9 be f8 0d 0a 3e ec 89 a7 3d e7 9a 32 3e
       -0.4563155 0.13481891 0.081806034 0.17441903
0000a0 bf 0e a2 bd c0 43 d3 3d c4 54 83 3e 3b 6c b3 be
       -0.07912969 0.10315657 0.2565061 -0.3504351
0000b0 a0 4e 6d 3d a4 2a 9e bb d6 91 6e 3e 1e e2 04 be
       0.05793631 -0.0048268605 0.2329782 -0.12976882
0000c0 3f c4 bb 3e 0c 86 1f 3e a9 02 2e bd e5 7e c3 3e
       0.3667316 0.15578479 -0.042483006 0.3818275
0000d0 d7 1e a0 bd cc 11 fe 3d 25 36 84 bc 1b 17 20 3b
       -0.07818382 0.12405738 -0.0161391 0.0024427834
0000e0 58 a0 a3 3e e5 0a 88 bd 11 7a 88 3e 35 3e 20 be
       0.3195827 -0.06642703 0.2665563 -0.1564873
0000f0 4d 0b f4 be 7c 30 81 3e 7b 72 cc 3e db b0 e8 3c
       -0.47664872 0.25232303 0.39931092 0.028404644
000100 4c 7a 9b 3d ea 68 bf bc f4 f6 35 be 3d 65 0d bd
       0.07591686 -0.023365457 -0.17769986 -0.034520376
000110 77 7d c4 bd 17 bc 8c bd 3a 6e 92 bd 64 2b 28 3d
       -0.09594243 -0.06871813 -0.0714993 0.041057006
000120 98 53 c8 bd 11 d2 36 be 2e a7 44 be 88 f0 87 bd
       -0.09781569 -0.17853571 -0.19204399 -0.066376746
000130 c1 ea f9 bd 59 15 0e be c3 a1 02 be 4d 96 ac bc
       -0.12202979 -0.13875331 -0.1275702 -0.021067763
000140 9c 1c 23 bc 9a da 7a be c6 ae c3 bd a4 69 97 3d
       -0.0099555515 -0.24497452 -0.0955482 0.07393196
000150 a6 97 96 3d 04 62 a6 3c 18 f7 c7 3c a7 e8 fc bd
       0.073531434 0.02031041 0.024409816 -0.123490624
000160 4c 3b 1c be e3 fc 19 be e0 6e 2c be 2d d3 9a 3b
       -0.15256995 -0.15037875 -0.1683917 0.004724881
000170 bd 6d 8a bd ab c2 e7 bd 59 ca 64 be 6a 55 65 bd
       -0.06759212 -0.11316427 -0.22342815 -0.05598966
000180 a3 e4 b5 3d 75 5e b8 ba 3c b8 ae 3c b4 fb 1b be
       0.088814996 -0.0014066236 0.021328084 -0.15232736
000190 1d b2 5b 3c d8 e6 d1 bc 07 fb ec 3c 90 62 da ba
       0.013409165 -0.02562277 0.028928293 -0.0016661454
0001a0 13 54 4a 3e 89 78 b8 3c d9 cc 12 3d bd 15 04 bb
       0.19758634 0.022518413 0.03583989 -0.0020154559
0001b0 7f 7a 88 3d 31 3a 38 be 8f 09 33 3d c2 41 31 be
       0.06663989 -0.17990948 0.043710288 -0.17310241
0001c0 75 df 95 bd 3a e8 ba bd 65 4a c9 bd 72 5a a8 3d
       -0.07318012 -0.09126325 -0.09828643 0.08220376
0001d0 0e d9 42 be c4 f7 22 be 89 c7 03 bc 65 e6 34 3d
       -0.19028112 -0.15914828 -0.008043178 0.044165034
0001e0 a0 12 03 be c5 66 d4 bd 96 8f 1d bd e7 2b 47 be
       -0.12800074 -0.10371164 -0.038467012 -0.19450341
0001f0 42 ca b4 3c f9 7c da bc b5 5f 89 3d 1b 79 2e 3c
       0.0220691 -0.02667092 0.06707708 0.010648991
000200 dd 23 d6 3c 75 74 40 bd d6 4f af 39 e2 38 2f 3c
       0.026140148 -0.046986062 0.00033438083 0.010694714
000210 23 30 dc bd 0f 5d e1 3c 26 fb 92 3d 1a 14 91 3c
       -0.10751369 0.027510194 0.07176809 0.01770978
000220 fa ef e5 bd 39 09 f6 bc c2 2c bf 3c 5a ef 0b be
       -0.112274125 -0.030033695 0.023336772 -0.13665524
000230 ea 2b 19 bc 0e 91 c9 bd db f6 d4 3d 07 9a 77 3d
       -0.009348849 -0.0984212 0.103986464 0.060449626
000240 4d dc a6 bd 7a ae 82 3b 32 fe 4f bc 45 c5 70 bd
       -0.08147488 0.0039880844 -0.012694882 -0.05878188
000250 59 83 82 bd 7c 6a 4c 3d fb 4c 3c 3e 04 22 64 3d
       -0.06372709 0.04990624 0.1838874 0.055696502
000260 d8 a6 27 be 4c c4 27 3d a3 d4 63 3d e1 42 2e be
       -0.1637224 0.040958688 0.055622708 -0.170177
000270 2e 60 f2 3c d0 a1 d9 bd 88 32 8d 3d 66 dd 8f be
       0.029586878 -0.106265664 0.06894404 -0.280986
000280 85 51 5d bd 90 e6 84 bc 4f 21 6f 3d 67 1a 1d bc
       -0.05403282 -0.016223222 0.058381375 -0.009588814
000290 64 da 1e bc a2 56 3d bd 79 e1 85 bd d3 54 1c be
       -0.009695623 -0.046225198 -0.06537146 -0.15266733
0002a0 9a 16 f7 3d d9 0c 0d 3d 09 8a 01 ba 34 88 a5 3b
       0.12064858 0.03443608 -0.00049415283 0.005051637
0002b0 2e 58 09 bd da 2b ea bd f8 61 52 bc 02 88 53 3d
       -0.03353136 -0.11434145 -0.01284074 0.05164338
0002c0 56 2e 2c 3d cc 51 5b bd 7a c4 14 bc 13 95 0b be
       0.042036377 -0.053544804 -0.009080047 -0.13631086
0002d0 3b 86 7d 3d 22 4b 2e 3c e7 c6 da bc 2a 4f d6 3b
       0.06189559 0.01063803 -0.026706172 0.006540199
0002e0 d1 71 ce bd 09 8c 35 3d e3 c5 83 bd b5 9e 08 be
       -0.100803025 0.044323 -0.06434228 -0.13341792
0002f0 ba f8 c4 bd d9 6c a6 bd 36 06 80 bd 07 c1 1a be
       -0.09617753 -0.0812623 -0.06251185 -0.15112697
000300 8a 42 7b bc bf a1 85 bc b4 22 7f bd e8 c1 19 3c
       -0.015335688 -0.016312478 -0.062288955 0.00938461
000310 e0 ba ae 3b e3 d6 ab bd de b1 0a 3c 27 b0 9f bc
       0.005332336 -0.08390596 0.008465258 -0.019493176
000320 1a a7 a7 bd 8e 97 51 be d9 47 c4 bb a7 50 86 bd
       -0.08186169 -0.2046797 -0.00599001 -0.06558352
000330 f1 9c 2e 3d fd 74 ce bd 9c 52 11 3e d8 8b 2e 3d
       0.04263014 -0.100809075 0.14191669 0.042613834
000340 cf 1a 35 3c 3f c7 bb bd 62 6b 0b be 59 1d 07 3d
       0.011053755 -0.091688626 -0.13615182 0.032986972
000350 a5 0b 14 3d c0 1d c8 3d 17 36 a0 bd fd 90 b7 3d
       0.036143918 0.09771299 -0.07822817 0.08963201
000360 c5 df b8 bd 53 52 e5 bd 45 f3 36 3d 79 27 13 bd
       -0.09027056 -0.11197343 0.044665594 -0.035926316
000370 e4 19 8c 3d 8e 78 16 be 6d 7c 5c 3d 41 63 8a bd
       0.06840876 -0.14694425 0.0538296 -0.067572124
000380 b7 6a 22 bc 7f 14 9e 3d 96 1c 9d bd 74 57 22 be
       -0.009913138 0.07718753 -0.07671468 -0.15853673
000390 1c 4a b4 3c 92 ae 14 be 35 3a c3 bd 38 82 5e bd
       0.022007994 -0.14519718 -0.095325865 -0.054323405
0003a0 91 18 e1 bd 34 fe 1f 3e 5a 25 45 bd 08 7e 1e 3d
       -0.10991014 0.15624315 -0.048131324 0.03869441
0003b0 41 42 e0 bd 11 7d d7 3d 6b 09 8f bd 18 1b 38 bd
       -0.10950137 0.105219014 -0.06984218 -0.044947714
0003c0 b6 14 25 be d7 9e 23 3c 76 76 76 bd b2 08 38 be
       -0.16121182 0.009986601 -0.060171567 -0.17972067
0003d0 13 cb 57 3d ba ac 9c 3d 7c e0 ca bd d3 86 f9 3d
       0.0526839 0.076501325 -0.09906098 0.12183919
0003e0 51 f5 f8 ba 81 ca 5d 3d a9 59 b9 bd 05 da 0f be
       -0.0018994008 0.0541482 -0.090503044 -0.14048012
0003f0 b9 d1 2b bd a4 57 cd bd 00 b2 9e 3d 56 4e d1 3d
       -0.041948054 -0.10026482 0.077487946 0.102200195

critic.2.bias f4 [64]
000000 71 aa 34 3e 90 44 f8 bd c6 05 ca bd cb 3c ef bd
       0.17643143 -0.12122452 -0.098643824 -0.11681517
000010 d0 99 bc bd 79 f1 62 be 41 39 ac bd 80 b9 d4 bd
       -0.09209025 -0.22162427 -0.08409358 -0.10386944
000020 52 ee e0 bd 3b 9f 20 be 45 62 d4 bc 31 c8 97 3d
       -0.10982956 -0.15685742 -0.025925765 0.0741123
000030 db 9c 4f bd 08 f9 88 bd f5 28 81 bd b9 e2 30 bd
       -0.0506867 -0.06688124 -0.0630664 -0.04318497
000040 91 ff 3a be cf d3 d0 3c b2 99 4a 3e 8d 23 7b 3e
       -0.18261553 0.025491623 0.19785193 0.2452528
000050 83 b3 5c bc 20 0d be bd de ea 00 be 49 18 45 be
       -0.013470533 -0.09279847 -0.12589595 -0.19247545
000060 06 4c 3c bd 58 3c 21 be 90 7f 2f be 96 37 39 be
       -0.04597094 -0.15745676 -0.17138505 -0.1808761
000070 d3 89 95 3d 71 49 3d bd 09 a7 11 be 38 dc d7 bd
       0.073016785 -0.046212617 -0.14223875 -0.1054005
000080 88 b7 37 be cb 74 fa bd 0c ab 28 3e 6d f6 3c be
       -0.17941105 -0.12229308 0.16471499 -0.18453379
000090 f6 e3 1a be fa f8 37 be f4 a1 1e be 89 51 39 bd
       -0.15126023 -0.17966071 -0.15491468 -0.045243774
0000a0 95 52 bb 3d 7b 23 eb bd d0 10 3a 3e 66 39 e7 bd
       0.09146611 -0.11481377 0.18170476 -0.11290245
0000b0 ad b3 39 be 04 2b a2 bd 15 9c e9 bd ff 04 a5 bd
       -0.18134947 -0.07918361 -0.114067234 -0.080575936
0000c0 df ff fc bd 6f 6b 8a 3d c6 6c 21 be 55 4d 13 be
       -0.12353491 0.067587726 -0.1576415 -0.14384969
0000d0 57 ac c0 bd 0d 88 2b be 25 ed b5 bd 27 53 77 bd
       -0.09407871 -0.16751118 -0.08883122 -0.060382035
0000e0 c5 f9 83 bd 78 26 44 be 9b 30 17 be aa 44 fb bd
       -0.06444124 -0.191553 -0.14764635 -0.12268956
0000f0 b4 05 10 be 76 7c 98 bd f0 2d 43 be 9f 18 0d be
       -0.14064676 -0.07445614 -0.19060493 -0.13778923

critic.4.weight f4 [1, 64]
000000 43 4e 4c be b8 16 df bb 2e 2e fc bb b6 d9 d3 bb
       -0.1995173 -0.006808128 -0.0076959347 -0.006465162
000010 c6 1a 19 be 47 c8 c0 b8 c6 b5 27 3d e1 43 d2 bb
       -0.1495162 -9.192578e-05 0.040944837 -0.006416783
000020 8c 23 71 3d 10 75 31 bd 33 27 28 3b ee 80 2b be
       0.05887179 -0.04332453 0.002565813 -0.16748402
000030 39 1f 48 bb 80 f0 bc 3b 14 a5 86 bd 92 61 3a 3d
       -0.0030536188 0.0057659745 -0.06574455 0.045503207
000040 32 84 4f bc 5c 07 88 3d 00 2b 85 3d 20 60 0a 3e
       -0.012665795 0.06642029 0.06502342 0.13513231
000050 5b 83 ee 3d 4d e9 19 3c a9 09 1e bd 75 b8 e2 3d
       0.11646148 0.009394002 -0.03858343 0.11070339
000060 23 66 fa bb 34 04 2e 3c f0 15 95 3c 8a d5 2d 3b
       -0.00764157 0.010621119 0.018198937 0.0026524984
000070 7e 28 19 be 0a c4 cb bc f8 55 a1 bc c3 2c a0 bd
       -0.14956853 -0.024873752 -0.019694313 -0.078210376
000080 b8 68 c1 39 1b da 73 3d 33 41 0a be 50 ac d8 3c
       0.0003688985 0.059534173 -0.13501434 0.026449353
000090 a8 42 3d bc fe ce 9c 39 02 1e 45 bd d4 67 d7 3d
       -0.011551537 0.0002990886 -0.04812432 0.105178505
0000a0 e7 89 a7 bd eb 66 d7 3d ea 4c 4c 3e de 2c e9 bc
       -0.081806 0.10517677 0.19951215 -0.028463777
0000b0 c1 c4 8c bb 14 07 9a bd 78 8a 8b 3c c6 97 30 3d
       -0.004295916 -0.07520881 0.0170338 0.043113492
0000c0 5c 11 45 3c 12 d8 24 be 76 3c 92 bc f7 f8 c2 3d
       0.012028065 -0.1609805 -0.017851096 0.095201425
0000d0 bf 0b ea 3d 9f 79 79 3b 1f d9 02 3d 86 a2 54 3c
       0.11428022 0.0038066877 0.031945344 0.012978202
0000e0 11 a3 a4 3c 0b 09 bf 3b 76 ac d0 bb bd 26 e5 bc
       0.020097287 0.0058299354 -0.006368215 -0.027972573
0000f0 d4 e8 13 bd c4 84 8a 3d 8e 8f 97 bc 40 56 05 be
       -0.036110714 0.06763604 -0.01850107 -0.13021183
