RL/CC2-Cardiff-implementation/GT-Cardiff-CC2/Models/PPOxCCE-C3/2000.pth (torch, 78850 bytes, 11 tensors)

actor.0.weight f4 [64, 62]
00000000: ed40 79ba e786 8b3d 2a12 d6bd 3c6a bfbd
00000010: a5fa fabb 5c9b ae3d 2478 ea3a b904 4c3d
00000020: 207d 873c 8ee1 5f3d 0410 5cbd 1787 55bd
00000030: 44da adbd d2c0 9bbd 9598 eabd b682 9bbd
00000040: 81a6 4d3d 4d10 9c3d 7754 b0bd 4686 62bd
00000050: 5df1 3c3d 15fb d73d 861c d6bc 12a2 c23d
00000060: 58b1 a7bc c02c 5c3c cf82 eb3d 9948 f1bd
00000070: 8146 02be c74a 4abd 72d8 60bd 269e d23c
00000080: cf96 a8bd 3376 6fbd b9b6 b5bd 9498 f3bd
00000090: 2318 c7bd 0b50 b03d cd01 cc3d 7651 133d
000000a0: 2ee1 a0bc d958 85bd 18ba fcbc 1b09 dfbd
000000b0: 01ec 9bbd 01f1 8ebd 8b41 913d 30f3 50bb
000000c0: 4665 dbbd 135a 7ebd cb33 683d 5d56 9f3d
000000d0: 8474 4e3d 3af6 5fbd 0864 923d a752 e9bd
000000e0: d883 64bd 70a7 c9bd df84 ddbd f02c 6ebd
000000f0: ec2e 1bbd 12eb fbbc 9411 9abd 6327 1d3d
00000100: 1bc9 8e3d 8d50 83bc c0c0 a63d 6d76 df3c
00000110: 47ec adbd 4971 b23d b836 2e3c c0eb 5d3d
00000120: cb30 8a3e f5df bc3d 883e 85bc 0cc0 0a3d
00000130: 5fbf d43d 14da 2c3d 4d6a 3f3c b5b7 a2bd
00000140: d565 f2bd f417 e73d 48c4 c53d 05ba 01be
00000150: 23bb c23c 6643 afbc fb34 abbc 271f 6ebd
00000160: 120b 483d 510e 9abd 57d6 e73d 0503 7c3e
00000170: df79 e23d e1ed 223e 95b6 00be 40b9 a8bd
00000180: b6de 813d 05c1 d93c 4a71 dcbd 0db3 26be
00000190: f406 003e d02d 8d3e 03cf 14be bad6 893d
000001a0: 1fa8 53be 303a a4bc a8ab c4bd 026e c9bd
000001b0: f6ea a53b 3de0 8ebd a650 52be d713 e2bd
000001c0: b53f fdbc 5983 0d3d 723e b23d 773f 0ebe
000001d0: 90e4 893d efe6 e13c 6eed e23d a8c0 f63c
000001e0: dd63 553e a401 3dbd bbd5 89bd f170 ef3b
000001f0: 3e7f f9bd 2929 9abd 3f38 02bd 8964 7dbd
00000200: 7594 da3c 7d03 bfbd 2216 80be 1e9c 25be
00000210: 6af7 35be 386e 3bbd 8e70 2b3d 7727 18bd
00000220: b88c 97bc 4b28 043c 0ef7 c03d 1e88 523e
00000230: 0c60 f63d f82c a53d 5cf0 f63d 177c 16bc
00000240: 6aa6 e9bd 869c 76bd d419 b13d 1ed1 57ba
00000250: a747 81bd 9850 c7bd 5f69 f3bd fc85 dbbd
00000260: 5d94 e43c 1b1b 123e 88e1 673d 789d f6bd
00000270: 4e3e a23d 1c87 cbbd b6f2 dbbc 80ec 52bd
00000280: 57ec 46bd 8199 87bc c7b0 243d 1e7d 82bd
00000290: 34db 69be 9af1 ec3d 1533 c6bd 845a 5d3d
000002a0: 6072 1dbe ad1f 40bd 5cf7 403e 3f9c 54be
000002b0: 22e3 47bd 9def c1bd 3de0 16be 7527 f1bd
000002c0: ff1b 70bc b576 bfbd ddbf 173e 9371 5abc
000002d0: 93e1 f83d f6d2 d9bc 9356 1b3e 56d0 b8bc
000002e0: 53ab 143d 6e8f 2ebd b02f fabc 74cc dabc
000002f0: 2a57 d6bd 7fee 8c3d 5134 6bbd 504f 1a3d
00000300: b0fb ec3d 7ced 773d 39ac 72bd 85a4 15bd
00000310: d65f 8dbe 89d8 64bd a514 43be f43d a83d
00000320: 7602 123e ac5f a73e aa9c c4bd 2c8f b2bd
00000330: 2407 97bd d10c b63d b2fd 3abd 6463 db3d
00000340: 051b 3c3d 64bd 833c 2ed4 77ba 38aa cdbc
00000350: 8788 823c fe90 edbc 09c8 6a3e 0926 0b3d
00000360: 705c d7bd 966a 86bd 9d06 d23d 8b14 d3bd
00000370: 8469 15bc 0ea6 003e aae6 e93d 90fa b33d
00000380: 26b1 adbd d3aa 8b3c dd35 cf3d 5d11 123c
00000390: dc44 c4bb d729 cfbd 4a2f ae3d ea2e 3f3e
000003a0: 4968 703d 5f92 b13c 99e0 a0bd 31f0 7ebe
000003b0: 5d95 983d 8ff8 46be 7d78 5cbd 290c 143e
000003c0: 5db8 d7bc 1f22 7c3e 4fb4 073e 822f 5539
000003d0: 79a3 7c3c f1f3 1cbe b5a6 633e 9104 cabd
000003e0: fc6c e53a 05e2 b0bc 54fc 88bd 3e82 893c
000003f0: fd50 193e cb55 dd3d 1d72 9e3d b3ee bc3d
-0.0009508271 0.0681284 -0.10452683 -0.093464345 -0.0076592737 0.08525726 0.0017888588 0.04980919
0.016539156 0.054658465 -0.05372621 -0.052130785 -0.084888965 -0.07605137 -0.11454884 -0.075932905
0.05020762 0.076202966 -0.086098604 -0.055303834 0.04612862 0.10545937 -0.026136648 0.09503569
-0.020470306 0.013438404 0.11499559 -0.11781425 -0.12722208 -0.04938772 -0.05489392 0.025710177
-0.082318895 -0.058462333 -0.08872742 -0.11894336 -0.097214006 0.08609017 0.09961281 0.03596636
-0.019638624 -0.06511087 -0.030850455 -0.108904086 -0.076133735 -0.069795616 0.070925795 -0.0031883232
-0.10712676 -0.06209762 0.05669002 0.07780144 0.050404087 -0.05467818 0.07147986 -0.11392718
-0.0557898 -0.09846389 -0.10816359 -0.058148324 -0.037886545 -0.030751739 -0.07522884 0.03836764
0.069719516 -0.01602962 0.08142233 0.02727815 -0.08492332 0.08713014 0.010633163 0.054179907
0.2699035 0.09222404 -0.016265169 0.033874556 0.10388064 0.042200163 0.011683059 -0.079451956
-0.11835829 0.112838656 0.09656578 -0.12668617 0.023770874 -0.021394443 -0.020899286 -0.058135178
0.048838682 -0.07522262 0.11320179 0.24610527 0.11058401 0.15911056 -0.1256965 -0.08238459
0.06341307 0.026581297 -0.10763796 -0.1627924 0.12502652 0.27574015 -0.14532094 0.06730409
-0.20669602 -0.020047277 -0.09603053 -0.098354355 0.00506341 -0.06976364 -0.20538577 -0.110389404
-0.030914167 0.03454909 0.08703317 -0.13891397 0.06733048 0.027575938 0.11080442 0.030121163
0.20838876 -0.046144143 -0.06730219 0.007307165 -0.12182473 -0.07527382 -0.03179192 -0.061863456
0.026682118 -0.09326837 -0.25016886 -0.16172835 -0.17770162 -0.04575941 0.041855387 -0.03714701
-0.018499717 0.008066247 0.09422122 0.20559737 0.12030038 0.08065218 0.12057564 -0.009184859
-0.11408694 -0.060207866 0.086475044 -0.000823276 -0.06312495 -0.09732169 -0.11885332 -0.10718915
0.027902776 0.14268152 0.056611568 -0.120417535 0.0792204 -0.099378794 -0.026849132 -0.051495075
-0.048565235 -0.016552689 0.04020765 -0.063715205 -0.22837526 0.11569519 -0.09677712 0.0540414
-0.15375662 -0.04690521 0.1884436 -0.20762728 -0.048800595 -0.09469531 -0.14733978 -0.11775104
-0.014655112 -0.093488134 0.14819284 -0.013332742 0.121524 -0.026589852 0.15169744 -0.02256028
0.0362962 -0.042617254 -0.030540317 -0.026708819 -0.10465844 0.06881427 -0.05742294 0.037673295
0.11571443 0.060529217 -0.059246276 -0.03653385 -0.2761218 -0.055870567 -0.19050844 0.082149416
0.14258751 0.3269018 -0.09600194 -0.08718714 -0.07374409 0.08889163 -0.0456521 0.10712317
0.045924205 0.01608152 -0.00094539195 -0.02510558 0.015934242 -0.028999802 0.2292787 0.03397182
-0.10515678 -0.065632984 0.10255168 -0.10306653 -0.009119395 0.12563345 0.11420949 0.087880254
-0.08481054 0.017049229 0.101176955 0.008915273 -0.005989654 -0.10115402 0.085051134 0.1867024
0.058693204 0.02167624 -0.078553386 -0.24896313 0.07450364 -0.19430755 -0.053825844 0.14457764
-0.026333028 0.24622391 0.13252376 0.00020330961 0.015419834 -0.15327431 0.22231562 -0.09864152
0.0017503793 -0.02159215 -0.06688753 0.016785737 0.14972301 0.10807379 0.07736609 0.09225216

actor.0.bias f4 [64]
00000000: 75a0 02be 7c7d 933d b1c9 693b b83c 913d
00000010: d96f 87bd 69af 96bd 2bd8 243e c624 35bd
00000020: 7052 b33d 45d4 98bd dbe7 86bd 979d d5bd
00000030: dc61 2a3d cb55 3d3d 2226 eabd 6686 3a3e
00000040: f2c4 703d 76ac 26bd 1a2e b2bd 64ce 9ebd
00000050: ae55 e1bd 34c9 b2bd d28e 9c3d 4946 dfbd
00000060: 83ae 2f3e 46b0 9d3d deec 9f3d 697d a13d
00000070: b26f 7fbc 5203 47bd 1794 aebd e4a9 353e
00000080: 93cd 02bd b24f 55bd 0993 813e ffa9 0bbe
00000090: a5c3 e73d 5b29 993d 2f48 dabc 9069 91bd
000000a0: c48e 5d3e 9b61 d83d 6457 df3b 48b5 f03d
000000b0: ffd5 96bc 7636 1e3e cf36 1ebd ff20 b33d
000000c0: 8589 05bd 2a2c 233e 4439 4b3d 323e 01be
000000d0: a0be 51bd 91a9 593d 9007 2c3e b719 71bd
000000e0: e3b8 7e3d be40 cf3c e893 eebd 2af1 debd
000000f0: eb8b 293e f438 83ba 5bbd 35bd cc6e 99bd
-0.12756522 0.072016686 0.0035673196 0.07091659 -0.0661313 -0.073576756 0.16098087 -0.044224523
0.08755958 -0.07462362 -0.06587192 -0.104304485 0.041597232 0.046224397 -0.114330545 0.18215331
0.05878157 -0.040691815 -0.087001994 -0.0775421 -0.1100267 -0.08729783 0.07644428 -0.10902078
0.17156415 0.07699637 0.07808851 0.07885248 -0.015590595 -0.04858715 -0.0852434 0.1774059
-0.031934332 -0.052077956 0.2530749 -0.13639067 0.11316613 0.07478591 -0.026645748 -0.071002126
0.21636492 0.10565492 0.0068158377 0.11753327 -0.018412588 0.15450463 -0.03862649 0.08746528
-0.032601852 0.15934816 0.04961516 -0.12621382 -0.051207185 0.053140227 0.1679976 -0.058862414
0.06218804 0.025299426 -0.11649305 -0.10885842 0.1655728 -0.001001148 -0.044370037 -0.07491836

actor.2.weight f4 [64, 64]
00000000: 3cf2 87bd 7efd 0bbe 40f2 bb3d 6c84 e6bd
00000010: 8312 0dbd ca6b 8e3d f684 81bd 1158 c9bd
00000020: 0555 32be 235e 503b 7c73 80bd 767f d9bb
00000030: fbdc fb3a c5a2 55bd 50f4 833d 6d4b 62bd
00000040: 99fc b7bd 7a47 ccbd 9679 603c 168f 5abd
00000050: 68da 053c 3a5c 5bbd bf24 0e3d b81c a0bd
00000060: 52fd 9cbd bf62 82bd d90e febd 2858 fb3b
00000070: a42f c2bd d359 e53c 9e0d 233d ae2d c63c
00000080: b2f7 22bd cc44 ab3c aa0f 02be 8f31 12be
00000090: 05c9 f2bc 4099 d2bd 6e75 ebbd 3e9c fd3b
000000a0: 7dc7 893d 4357 81bd 4683 46bd 8f48 e1bd
000000b0: 2c80 a63a 8601 adbc 4ec9 d4bc b9f4 3a3d
000000c0: bb33 03be 26b5 b0bd c641 edbd 5e0d 443d
000000d0: 9bf2 b43d 8d1c 753d 2739 803d f0c7 4a3d
000000e0: 9233 e8bd 1ca6 adbd f0e0 aebb 10a6 03be
000000f0: 2fde 0c3d f564 d53c 59d4 46bb 3a25 d2bd
00000100: a0c2 913d b1d9 3ebd 4523 83bd f1ef 723e
00000110: 2b55 7c3d 933a 183d a2f4 423e 1fa7 d5bc
00000120: 3119 163e fe6f cf3d dc1a f73c 4f21 7a3e
00000130: d951 65be b76b 05bd e65a d83c 7ccc 07be
00000140: 47c7 033e 5938 f73d 97e6 6f3e e24b 293e
00000150: 5a67 41be 83c2 213d fef1 d3bd 1b9f 11bc
00000160: b336 06be 9565 e1bb b483 c9ba 50ea d93d
00000170: 1ede c23d f29c 3a3d e0bb eebd a557 fb3d
00000180: 8182 48bc f29d 153c 8470 82bc fb7b d1bd
00000190: e1ed e73b 7492 6d3d a69f 073e fa60 20bc
000001a0: 4df5 a1bd e064 273e 732e 1e3e d647 a43d
000001b0: 2741 c9bc ad9a 93bd 8da2 983d f8f9 0abd
000001c0: 4166 01bc 1e89 103e faa7 e1bd 8f2c 8b3d
000001d0: 08e5 243e 8004 e3bd 9ad8 55be 488c d73d
000001e0: 80af 77bd f8fe 6d3d 4436 6b3d b5e2 6bbc
000001f0: 53b6 19be 630a 503c baa7 ee3d 0701 d8bc
00000200: facc 50bd 7e15 c13a 1a96 13be 7c2d 6bbd
00000210: 1752 0f3d 1782 efbb 1b60 a2bd 923c ebbd
00000220: 89a5 58bd a56f 21be 0fef 54bc 2000 a9bd
00000230: 2c97 d53c 3c64 1f3d d6b1 94bb 6cff 66bc
00000240: 9cc7 17ba 8e25 283d f74e 633a bf8e f43c
00000250: 1136 b7bd ee22 ecbc ebdb 1cbe 53a0 263d
00000260: 023e 10be cc07 59bd 0557 5f3d 05e2 e3bd
00000270: 2671 483d e08e babd e1b1 693d 035b e43b
00000280: a544 d0bd 0c88 a93c 3150 2fbe 5753 d9bd
00000290: e418 12be 6b4e d2bb 05eb a23c 1a45 27be
000002a0: eae7 823d 389e 4cbd aee7 d0bd ee4c 36bd
000002b0: 5ef9 a5bd 4ecb cebb 177b 303c bc6d 16bd
000002c0: 6c6f 45bc 9104 623d 62fc aebd 5f32 63bd
000002d0: 5dcf 00be c1d2 10be 1a59 8fbd 2631 cebc
000002e0: f57a 2ebe 6d7e 2d3c 8fc8 9f3d 02bf 483d
000002f0: ad16 07be 3222 b53d e9f8 cdbd ce45 b5bd
00000300: b1f9 ce3c 0eb4 ae3d bc5a a83d c857 653d
00000310: 9fce 9fbd 2ff7 db3c 29a4 11be 38c5 24bd
00000320: 6c80 ec3d 4c62 463d 3569 32be eaad c5bd
00000330: 2457 8bbd edcb 8a3c a6df 8dbc 2ae4 d6bd
00000340: 1967 e4ba 185f 143d 7114 f6ba ec9a 2b3d
00000350: 2ad0 e8bc b6b3 d53c c0c0 18bd 2998 86bd
00000360: ac6a 4ebd e237 b43d 5760 d73c 2ffe 02be
00000370: 8471 dabd 5747 08be 841b 6ebd a636 4d3c
00000380: 71e7 c73d 0b52 66bc cf7d 223d 528b 363d
00000390: ee7e 08be 4e70 19be 54a3 98bb 9a15 6abd
000003a0: 0e2a cfbd 28dc f6bb 3251 11be fa13 44bd
000003b0: 5c36 cbbc df08 88bd 0b94 2cbc ba2e 393d
000003c0: 50d9 72bd 3d7a 583d 4888 0dbe a945 4bbd
000003d0: 9f87 33be ddd8 18be f213 573d e87a 53bd
000003e0: efdc d2bd ae81 e33b a960 b2bd 5538 6abc
000003f0: 6528 163d 7a07 bfbd ef37 553d bc2c 86bc
-0.066379994 -0.13670918 0.09177065 -0.11255726 -0.034441482 0.06954153 -0.063241884 -0.098312505
-0.17415245 0.003179439 -0.06272027 -0.006637509 0.0019215638 -0.052157182 0.06443083 -0.055247713
-0.08983726 -0.099745706 0.013700863 -0.053359114 0.008169748 -0.05355475 0.034703013 -0.07817978
-0.076655045 -0.063664906 -0.12405176 0.007670421 -0.09481743 0.027996933 0.03980791 0.024191704
-0.039787002 0.020906828 -0.12701288 -0.14276718 -0.02963687 -0.10283136 -0.11497007 0.007739573
0.067275025 -0.06315472 -0.048465036 -0.110001676 0.0012702993 -0.02111889 -0.025974896 0.045643542
-0.12812702 -0.08628301 -0.11584811 0.04786431 0.08835336 0.05984168 0.06260901 0.04950708
-0.11337961 -0.084789485 -0.0053368732 -0.12856317 0.03439158 0.026049117 -0.0030338971 -0.10261007
0.071172 -0.046594325 -0.064032115 0.23724343 0.06160466 0.037165236 0.19038633 -0.026080666
0.14658047 0.10128783 0.030164175 0.24426769 -0.22394504 -0.032573428 0.026410531 -0.13261598
0.12868987 0.12071294 0.23427807 0.16532853 -0.18887082 0.03949214 -0.10348891 -0.008888031
-0.13106804 -0.0068785646 -0.0015374334 0.10640395 0.09515022 0.04555983 -0.11656928 0.12272576
-0.012238146 0.009131895 -0.015922792 -0.102287255 0.007077918 0.058000997 0.13244495 -0.009788746
-0.079081155 0.16347075 0.15447406 0.08021514 -0.0245672 -0.072072364 0.07452879 -0.033929795
-0.007897914 0.14114806 -0.11018367 0.06795608 0.16102993 -0.11084843 -0.20883408 0.105248034
-0.060470104 0.058104485 0.0574248 -0.014397313 -0.15010957 0.012697789 0.11653085 -0.026367677
-0.05097673 0.0014731137 -0.14412728 -0.057416424 0.034990396 -0.007309209 -0.07928487 -0.11486162
-0.05289224 -0.15765245 -0.012996449 -0.08251977 0.02607306 0.03891395 -0.0045378013 -0.014098983
-0.0005789937 0.04105144 0.00086711295 0.029853223 -0.08945859 -0.02882525 -0.15318267 0.04068024
-0.14086154 -0.05298595 0.054526348 -0.11127094 0.04893603 -0.091092825 0.057054404 0.0069688573
-0.10169343 0.020694755 -0.17120434 -0.10611599 -0.14267308 -0.0064180396 0.019887457 -0.16334954
0.0639189 -0.049955577 -0.102004394 -0.04450696 -0.08104204 -0.006310857 0.010771534 -0.036725745
-0.012050491 0.055180136 -0.08544232 -0.05546796 -0.12579103 -0.14142896 -0.06999417 -0.02516992
-0.17039092 0.010589224 0.078019254 0.049010284 -0.13192244 0.08844413 -0.100572415 -0.08851205
0.025265547 0.085304365 0.08220431 0.055991918 -0.07803082 0.026851265 -0.14222778 -0.040227145
0.11547932 0.048433587 -0.17422946 -0.09652312 -0.0680373 0.016942943 -0.017318558 -0.104927376
-0.0017425745 0.0362235 -0.0018774403 0.041895792 -0.028419573 0.02608667 -0.037293196 -0.06571991
-0.0503947 0.08799721 0.026291056 -0.12792276 -0.10666183 -0.13308464 -0.05813171 0.012525236
0.09760941 -0.0140576465 0.03967076 0.04456646 -0.1332967 -0.14984247 -0.004658142 -0.057149507
-0.10115443 -0.007533569 -0.1419113 -0.047870614 -0.024806194 -0.06642317 -0.010533343 0.045210578
-0.059289277 0.05285095 -0.13821518 -0.04962698 -0.17532204 -0.14926477 0.052509256 -0.051630884
-0.10296046 0.0069429493 -0.08709843 -0.014295657 0.036659617 -0.09327598 0.052055296 -0.016378753

actor.2.bias f4 [64]
00000000: 70e3 cdbd cc58 b63d d572 2ebd 7d5e 1fbe
00000010: 478a 483e 4e9f 2c3c 7a9a 4b3a 203c 3b3e
00000020: 2e60 393c 5f24 663e 2e16 fcbb bc01 513c
00000030: 98d6 6ebd f806 c6bd 47bd ba3d f8af 623a
00000040: 42df 56bc 663f 5d3e b9b3 9f3d 1851 bf3d
00000050: bfdb a2bd efe4 efbc b487 33bd 31f5 173e
00000060: 8cea 3a3e 3a86 6b3e 3829 8b3d 7af9 94bd
00000070: fb3e c5bd 467d bd3d 5488 883b 06b4 ddbc
00000080: 54ab 26be 7f08 5bbd c425 473d b249 043d
00000090: df8c 773c 36ae a33d 53e5 823e f11c c43d
000000a0: 265b 3d3e 3ab8 9bbd bed1 76bd 85d0 f0bd
000000b0: fc20 193d f1bf cf3c 70bf 02bd 82db 29bd
000000c0: 1e86 d5bc a60f a53d d7e8 353c 6e5d 25be
000000d0: 2459 0fbc f781 6fbd 7d0f c3bd f763 473d
000000e0: 7da8 233d 691c 243e 0d42 be3d 4450 703c
000000f0: dbc5 3ebd 8147 0b3e 6db3 95ba b7ed 243d
-0.10053146 0.089036554 -0.04258998 -0.15563388 0.19583999 0.010536028 0.0007766854 0.18284655
0.011314435 0.22474812 -0.0076930737 0.012756761 -0.05831012 -0.09669298 0.09118133 0.0008647437
-0.013114752 0.21606216 0.07797951 0.09341639 -0.079520695 -0.029283969 -0.04383059 0.14839627
0.18253535 0.23000422 0.06794971 -0.072741464 -0.09631153 0.0925241 0.004166642 -0.02706338
-0.16276294 -0.0534749 0.04862 0.032296844 0.01510927 0.079922125 0.25565585 0.09575833
0.18491802 -0.07603498 -0.06025862 -0.11758522 0.037384972 0.02536008 -0.03192085 -0.041469105
-0.026064929 0.08059625 0.011102877 -0.16148922 -0.00874928 -0.058473554 -0.095244385 0.04867932
0.039955605 0.16026463 0.09289942 0.014667574 -0.04657541 0.13601495 -0.0011421271 0.040265765

actor.4.weight f4 [36, 64]
00000000: d436 f03c 3eda 493e c4ef 703d c4cd e6bc
00000010: d75d 913d cc8f b3bb f4a7 3d3e 4364 463e
00000020: 1f19 66bd 4ee6 813d 3d58 ae3c 059d 053e
00000030: 577c 8c3c 4606 b6bd a093 59bb 6da7 e43a
00000040: b314 3a3e 6df6 48bd a21b 433e cec7 863e
00000050: 50c3 213e 1e48 89bd 3803 9abd f6c9 8fbd
00000060: f935 43bd df0a 11bd 8d2e 293e b05a 4b3e
00000070: 4693 efbd 3aa7 4ebd 48a9 ae3e ab95 5f3e
00000080: cec5 4bbd ef10 a5bd d4ab 453c 172d 2abe
00000090: 8917 b13d 97e7 913d 0f8a debc c20e 853e
000000a0: 12b6 1abd e534 d93c 1366 21bd 449c 18be
000000b0: 42f4 f4bd 2f9d 2f3e a3d5 ac3d 30c8 fe3c
000000c0: 5617 893d e09e d83d 1eb9 0abe 7efc 9bbb
000000d0: e809 d13d e0cc 3c3c 5c5c 513d 503b 5e3e
000000e0: 3055 a0bb 6d29 1b3d 8fec 2fbe 85b6 b4bd
000000f0: ea96 493e 8726 953d 4437 a23d 9024 813d
00000100: 76a8 0bbe 1dbf a53d 121f d33d 91a2 cbbc
00000110: 91a3 0cbe 1142 e83b 4152 b1bd 37d5 06be
00000120: 689c 07be 5be9 683d ac4d 19be ee08 fe3b
00000130: 4ac5 863d af88 9fbd 38d7 263e 39e7 663d
00000140: 833c 9fbb 6cdc 813e 957d 17be a8cd 33be
00000150: 9515 f23d c3b9 333e 3007 883d dde4 733d
00000160: 0a1f 8cbe 92ff 793e 85fe 9bbd a70a 96bd
00000170: 240b 803e da18 4bbe 60cd ffbc f67c f5bd
00000180: 7b7e dd3c 3cf3 813c 65c4 763e a5bc 37be
00000190: 6fb8 953d 9680 c0bd 3c41 3a3d 91af 18be
000001a0: d9ef ee3d f82a 353e df14 e4bc b76e 30bd
000001b0: 490f ef3d 8a0c 86bd 797f 9fbd 24fd 363d
000001c0: 05fb 793e f2ca d6bc 22f5 6c3e b5ac 183d
000001d0: 683a 443c 9bf0 4c3e 83b6 493e 2fe4 c8bc
000001e0: a66f a53e a86e 353e b144 2fbe 5ef8 fe3d
000001f0: 9b1d f23d d849 10b9 4f49 3e3e c04a f1bd
00000200: 0e93 323d b13a 493e 08b4 173e 0f93 99bd
00000210: e0b2 803d c876 8b3e 2c2f 1c3e 194f 8c3c
00000220: de09 23bd d388 b23d e7e7 6a3e 2212 d53d
00000230: 3fb2 5a3e db39 5ebc 151a 5d3e 905f 57bd
00000240: fc5c 4a3e 5a6b 0a3e cd42 663e 8312 4b3e
00000250: 4984 753e c139 293d 410a 643d 1a18 993a
00000260: 1641 7ebd 6fce 0a3e 9a13 963d 388f 943d
00000270: c6c8 813e 2b6a 3fbd e1c4 8d3e fac2 773c
00000280: b72b a73c 8ec1 b13d bd38 883e c8d9 563e
00000290: ec81 bb3d 42e3 003e b504 013e 842f 873e
000002a0: 33a8 a33e 46d6 2dbe 6d73 8abd 1445 003d
000002b0: 7587 44bd 553d 5c3e 80c3 5e3e 4e77 7f3d
000002c0: bc6d 4c3e 749c 243e 61e8 01be f42f fb3d
000002d0: 51f0 5f3e 9e05 1dbd f510 b63d 0173 703e
000002e0: 9111 523d 1aff 77bd 8470 dfbd 7e4e e4bc
000002f0: 0d15 453e 1e1a 893e 944c f33d f7a4 1bbd
00000300: 56de d23d 78d2 49bb ba2a 9b3c 8eba 073d
00000310: c2ca f83d 01af b4bd 57d9 2b3e e89e e63d
00000320: 39e2 863d c745 533e 2234 c53d e010 c03d
00000330: 01c0 e73d 8910 10bd 987c 3a3d 8b94 cb3d
00000340: a4c0 8dbd 7632 153d 0fc1 b7bd ba78 123d
00000350: 3fd8 b6bd dd9a 243e db8f b13d 8958 033e
00000360: c086 013c 63af b9bc 4211 ae3b 1057 973a
00000370: 22d5 f43c 1110 c83d 2ee8 ee3d 8e00 09be
00000380: 55fe 803e 49a3 b43d 5ade 0e3d cb3a a9bd
00000390: 9ae6 c2bc 9c59 2e3d 9787 873d 1568 cdbd
000003a0: 49c5 e43c 345a a13e 6427 a63d e9a4 04bd
000003b0: 66d1 71bd ecbb 833d 9e69 963d bbb3 5cbd
000003c0: a6ad 6fbd acbc 223e 3cf9 d93d cdf7 c8bd
000003d0: e671 103e 9dc8 7e3d 1a1b 9fbd ce8d 533d
000003e0: fea9 ba3e c60c c5bd 2b99 bf3d 28eb 963c
000003f0: 574a c2bd 40df e43d ac20 bb3c 1344 8c3d
0.02932302 0.19712159 0.05882241 -0.028174289 0.07097977 -0.0054797884 0.185211 0.19374184
-0.0561763 0.06342755 0.02128231 0.1304818 0.017149134 -0.08887915 -0.0033199564 0.0017444916
0.18171959 -0.049063135 0.1905351 0.26324314 0.15797162 -0.067032084 -0.07520145 -0.07020943
-0.047658894 -0.035410758 0.16521664 0.19858813 -0.11698012 -0.05045245 0.34113526 0.21834438
-0.049749188 -0.080598705 0.012064893 -0.16618763 0.08647067 0.071242504 -0.02716544 0.25987822
-0.037771292 0.02651448 -0.039403986 -0.1490336 -0.11960651 0.17149805 0.084391855 0.031101316
0.06693904 0.10577178 -0.13547179 -0.004760324 0.102069676 0.011523455 0.05111347 0.21702313
-0.0048929676 0.037881304 -0.17180084 -0.08823875 0.19686475 0.07282739 0.07920697 0.06305802
-0.13638481 0.080930926 0.103086606 -0.024857791 -0.1373427 0.007087954 -0.08658267 -0.13167273
-0.13243258 0.05686317 -0.14971036 0.0077525293 0.06580599 -0.07789742 0.16293037 0.056372855
-0.0048595085 0.2536348 -0.14794 -0.1755892 0.11820523 0.17551331 0.06641996 0.059544433
-0.2736743 0.24413899 -0.07616905 -0.073262505 0.250085 -0.19833699 -0.03122586 -0.11986725
0.02703785 0.015863054 0.24098356 -0.17943056 0.073105685 -0.09399526 0.04547237 -0.14910723
0.11666841 0.17692173 -0.027841983 -0.043074336 0.11672837 -0.065453604 -0.07787985 0.044675007
0.24412163 -0.026219819 0.23140386 0.03727408 0.011976816 0.20013659 0.19698529 -0.024522869
0.32311743 0.17717993 -0.17116047 0.12449716 0.11822053 -0.00013760419 0.18582653 -0.117818356
0.043597274 0.19651295 0.1481477 -0.07498752 0.06284118 0.2723906 0.1525237 0.01712756
-0.039804332 0.087175034 0.22940026 0.10403849 0.21357058 -0.0135635985 0.21591981 -0.05258137
0.19762033 0.13517514 0.2248642 0.1983128 0.23976244 0.041314844 0.05567384 0.0011680156
-0.06207379 0.1355531 0.073279575 0.07253879 0.2534849 -0.04673211 0.2768927 0.01512217
0.020406587 0.08679496 0.26605788 0.20981514 0.0915564 0.12586692 0.12599452 0.2640344
0.31964263 -0.1697627 -0.06760297 0.031315878 -0.047980744 0.21507771 0.21754265 0.062369637
0.19963735 0.16075307 -0.12686302 0.12265006 0.21869017 -0.038335435 0.08889953 0.2348137
0.051286284 -0.06054602 -0.109101325 -0.02786946 0.19246311 0.26777738 0.118798405 -0.03799912
0.102963135 -0.0030795615 0.018941272 0.033136897 0.12148048 -0.08822442 0.16782127 0.11260778
0.06586117 0.20632087 0.09629084 0.09378219 0.11315919 -0.03517202 0.045528978 0.09940442
-0.06921509 0.036425076 -0.0897237 0.035759665 -0.089279644 0.160747 0.086700164 0.12826742
0.007905662 -0.022666639 0.005312116 0.0011546332 0.029886786 0.097686894 0.116653785 -0.13379118
0.2519404 0.08820207 0.03488002 -0.08263167 -0.0237916 0.042565927 0.066176586 -0.10029618
0.027926104 0.31514132 0.08112982 -0.032383833 -0.05903759 0.06432328 0.07344364 -0.05388234
-0.058515213 0.15892285 0.10643241 -0.09812889 0.14105949 0.06220304 -0.07768841 0.051648907
0.3645782 -0.09621577 0.09355386 0.018422678 -0.094868354 0.11175394 0.022842728 0.068489216

actor.4.bias f4 [36]
00000000: c094 62bd 92ae 9c3d d9f1 b63d 35f8 6fbb
00000010: 81c7 f93d 97ad 54bd 9837 7e3d 1dd1 433d
00000020: 8ced bcbc 9b87 24bc d5b9 1bbe 2ecb 313c
00000030: 8504 c9bd 2899 2e3d 2b7e 843d 6270 19bc
00000040: da67 3ebd 33c5 cebe 5ec4 483c 505a 36be
00000050: 5e4f 82be 8b9a 8c3d 1411 d8bb c02a 9dbd
00000060: 431d 1a3e b01d f7bc d038 e03d 5800 8a3d
00000070: 7b68 f4bd 80eb 013e 0d41 ab3d b5f4 ccbc
00000080: 522e c4bd 2f26 173e c5dc 3a3d 0ec4 a83e
-0.05531764 0.07650484 0.089328475 -0.0036616449 0.121962555 -0.05192336 0.062064737 0.047806848
-0.02306249 -0.0100420965 -0.15207608 0.0108516645 -0.09815315 0.04262653 0.06469377 -0.009365173
-0.04648576 -0.40384826 0.012253849 -0.17807889 -0.25451177 0.06865414 -0.0065938327 -0.076741695
0.15050225 -0.030165523 0.10948336 0.06738347 -0.119339906 0.12687492 0.08362017 -0.02501903
-0.095791474 0.1476066 0.0456207 0.32962078

critic.0.weight f4 [64, 62]
00000000: c860 9c3d 6a19 ab3d 31d8 abbd 6c5b 1b3c
00000010: 95cb 9bbd 1fac 99bd 635b e53d a6c2 d23d
00000020: b531 d1bd 8e10 78bd 0c22 703d f887 54bd
00000030: 3347 1bbe 14d8 a6bd 91b9 a2bd 16ab adbd
00000040: fe10 09bc ab20 ddbd 13fe f7bd c876 b63d
00000050: 0c4a bbbd 7c17 b63d d610 103c 3e3c 98bc
00000060: ef3e c93d 2717 cbbd c034 793d b399 ad3d
00000070: 391f 193e 1883 fd3c e595 40bd ef3f 8cbd
00000080: f2fb c0bd 9aa3 b13d 5232 b7bc 73eb af3d
00000090: 773f adbd 9b8c 94bd ab83 08bc 02aa b03d
000000a0: 3b05 083d 5c34 6f3c 17f0 793d 70ba 05be
000000b0: ea7c 92bd 5e2d c1bb 9b6e 51be f9e2 9abe
000000c0: a42f ee3d 8c45 1abe f660 01be 7b58 45bd
000000d0: 12b7 003d d9b4 313d a9f4 b2bd 5d2c 94bc
000000e0: 7d62 9cbc 8a36 303d e12b b1bc 8edc 5bbe
000000f0: 8333 e5bd f1c3 1fbc dd19 e7bd ccbf 833d
00000100: 2839 8dbc 1325 4dbd b407 2f3d 4ccf e13b
00000110: a40e cb3d de7b fcbc 321f 23bd ae0f 16be
00000120: f1bc 88bc b14b 853e dbb7 2bbe 4021 ef3d
00000130: 8f05 9e3d ab1f 093e a3f5 d43d fb2e df3d
00000140: bf91 8b3d 4504 dfbb 5d60 05bd 7659 f8bd
00000150: e2da 883d 00cd ebbc a810 a33c edf3 eabc
00000160: 15fc a73d bd3a 843b 3791 c23d 0b35 1e3e
00000170: a548 763c 998c 353c 73dd 703d 5f54 99bd
00000180: b5e9 b63d e77b c93d 6e40 c53d ba45 84bd
00000190: 0287 fd3b 314b 723e 09df 2d3d a25a c43c
000001a0: 9a54 62bd a653 1dbd 566a 09bd 1921 edbd
000001b0: 0173 2c3d 8d7b c6bc d5bc 3e3d fc98 fdbd
000001c0: b3e6 43bb b299 3fbd b01b 3fbd 2c1d 28be
000001d0: 6d64 d93b 6c15 f6bd 644d 3dbc 8e46 483d
000001e0: e945 113e cf97 ad3d cbc0 f6bd 160a 0fbc
000001f0: 1a4f d7bd 1423 a33d 1f64 d73d 2324 473d
00000200: 8cc6 fdbd 1d10 313c deb1 3fbe ff42 2ebe
00000210: 3010 fe3d d0ea 8d3d 81b8 4d3d 4f47 033e
00000220: d3e3 b63c 184c 8c3d 0541 a0bd fd13 debd
00000230: 011f a3bc 0aa1 99bd de74 f23d 9b83 d3bd
00000240: 2bc6 f23d 77ec afbc ce58 bc3c 047c e23d
00000250: c3b2 70bd adbd 40bd c437 573d c2ca 03bd
00000260: 7395 df3c 962e 913d d923 05bd 30cf a63c
00000270: a6e6 63bd c67e 533d fd69 493c 220e c8bd
00000280: 0d30 fdbd 4f8b 5bbd 7fb4 fcbd 10b6 403e
00000290: b62f 1fbe 5d32 76bc bbab 683c fb91 f5bc
000002a0: d845 bbbb e6b9 d9bd 2b4d 6dbd 658c fbbd
000002b0: 9571 40be 325b 6a3c b9e8 cbbc 0043 84bc
000002c0: de67 773d 4af6 4fbd 3d5c a03d 7cfc 963c
000002d0: 4c93 41be b5a2 e9bb b7a2 503d 7aa3 583d
000002e0: 9673 75bd d95e 96bd 5d8e ebbd c211 efbd
000002f0: 8dab d9bd 5cf5 b53d c24d 31bd 48b5 fdbd
00000300: 6276 7bbd 1e6d 093e e8be d63a 541c c0bd
00000310: 08d6 973d 502e 743e d7d4 783d a44b 543d
00000320: 72ba bfbd 1c37 223c 915f 1bbd 4b6d a1bd
00000330: 82c9 abbd 4523 b83d daa5 ac3c 59b8 2a3d
00000340: d503 bdbd b2e2 c03c 8db4 e73d 4d75 8e3d
00000350: 4c09 b6bb 3779 6fbd 3887 f03d 95c2 e4bd
00000360: e543 c33c af6b 043d 0b87 13bd a704 a4bb
00000370: 5bdd f4bc 8e49 9abd c7fd 9a3d 82d8 6b3c
00000380: 14d0 6ebe ec03 983e 5d71 d3bd 641d 00be
00000390: c1ae 7d3c b138 d63d 5f7f cbbd 9491 36be
000003a0: 23ec 733d 7162 0bbb 26c7 99bd eb08 e7bd
000003b0: d19b 0cbc a3c1 15be bd15 b73d c4c0 bcbd
000003c0: 982d 813c 6b10 8ebc 9fc5 dfbd 1347 a0bc
000003d0: 19b0 403e 44d1 e5bc 5ed2 17bd b48e adbd
000003e0: 3ef8 8b3d 0179 b83d d02e eabd c831 a8bd
000003f0: 97de bb3d 67ae 10be b390 943d b48e a13d
0.07635647 0.08354457 -0.083908446 0.009482246 -0.076071896 -0.075035326 0.11199071 0.102910325
-0.10214559 -0.060562663 0.05862622 -0.051887482 -0.15163879 -0.081466824 -0.0794555 -0.08479898
-0.008365868 -0.107972465 -0.12109008 0.089093745 -0.09144983 0.08891198 0.0087930765 -0.018583413
0.09826457 -0.09916525 0.060841322 0.084765814 0.14953317 0.0309463 -0.04701795 -0.06848132
-0.09423055 0.08673783 -0.022362862 0.0858983 -0.084593706 -0.07253381 -0.008332173 0.086261764
0.033208113 0.014599886 0.061019983 -0.13059402 -0.07152732 -0.005895301 -0.20452349 -0.3025129
0.116301805 -0.15065593 -0.12634644 -0.048180085 0.03142459 0.04338536 -0.087380715 -0.01808756
-0.019089932 0.043020763 -0.021627368 -0.21470854 -0.11191466 -0.009751306 -0.1128423 0.06433067
-0.017239168 -0.050084185 0.042731956 0.006891167 0.09914902 -0.030820783 -0.039824672 -0.14654419
-0.016691657 0.2603431 -0.16769354 0.11676264 0.07715904 0.13390987 0.10398414 0.10897633
0.06814908 -0.006805929 -0.032562602 -0.12126438 0.066823736 -0.028784275 0.019905403 -0.028680766
0.08202378 0.0040353225 0.09500354 0.15449922 0.015031968 0.011080884 0.05880494 -0.07486796
0.08931295 0.098380856 0.096314296 -0.06458612 0.0077370415 0.23661496 0.04244903 0.023968998
-0.055256464 -0.03840985 -0.033548675 -0.115785785 0.042101864 -0.024228835 0.046566803 -0.12382695
-0.0029892146 -0.046777435 -0.046657264 -0.16417378 0.006634286 -0.12015805 -0.011554096 0.04889541
0.14186825 0.08476221 -0.12048491 -0.008730432 -0.10513134 0.07965675 0.105171435 0.048618447
-0.123913854 0.010807064 -0.18720195 -0.17017744 0.12405431 0.069295526 0.050224785 0.12820171
0.022325432 0.06850451 -0.078249015 -0.10843656 -0.019912245 -0.07501419 0.11838697 -0.10327836
0.11854204 -0.02147506 0.022991564 0.1105881 -0.05876423 -0.04705589 0.052543417 -0.032175787
0.027292943 0.07088964 -0.03250489 0.020362467 -0.055639885 0.051634572 0.012293336 -0.097683206
-0.123626806 -0.053599652 -0.123391144 0.18819451 -0.15545544 -0.015026656 0.0142011 -0.029976835
-0.005715113 -0.106311604 -0.05793492 -0.122826375 -0.18793328 0.014303969 -0.024891244 -0.01614523
0.06040179 -0.05077199 0.07830093 0.01843094 -0.18903846 -0.007129992 0.050936427 0.05289028
-0.059924684 -0.073423095 -0.11501763 -0.11673309 -0.10628424 0.08884689 -0.043287046 -0.12388092
-0.061392196 0.13420531 0.0016383799 -0.09380403 0.0741387 0.23845792 0.060749855 0.05182995
-0.093617335 0.009900834 -0.037932936 -0.07882174 -0.08388044 0.08991102 0.021075178 0.041679714
-0.092292465 0.023545597 0.11313734 0.06955967 -0.0055553075 -0.05846521 0.11744541 -0.11169926
0.023836086 0.032329258 -0.03601746 -0.0050054374 -0.029890707 -0.07533561 0.075679354 0.014394881
-0.23321563 0.29690492 -0.10324357 -0.12511212 0.015483559 0.10460032 -0.099364035 -0.17828971
0.05955137 -0.0021268392 -0.07508688 -0.11280998 -0.008582071 -0.14624648 0.08939693 -0.092164546
0.015768811 -0.017341813 -0.10926365 -0.01956514 0.18817176 -0.028053887 -0.037065856 -0.08474484
0.06834458 0.09007455 -0.1143471 -0.0821262 0.09173315 -0.14129029 0.07254162 0.078885466

critic.0.bias f4 [64]
00000000: 10c6 42be 45f8 7b3d 9b7e 98bd 7a6f 01bd
00000010: bb90 c8bc 2470 8bbc 2e5e fabc 5340 2abe
00000020: afb7 2fbe 334a 263d e46c dcbd 8a48 80bd
00000030: f6fb d7bd 3f20 1abe caa6 babd cf5b f7bc
00000040: f45a c8bd d717 803e 97f1 163d d68d 8d3d
00000050: ffae 84bd b3c2 e23c c5ee 043c f830 b4bd
00000060: e343 743d 06da 19bd c707 a9bd 53f6 f43c
00000070: 68ac 66bc af78 2fbd 4950 d2bb e0b1 5739
00000080: f90e a9bd eee7 b2bd d175 3cbc 0735 ab3d
00000090: 9927 c7bd f113 f53d 7652 df3c cb80 7e3d
000000a0: 0a7e 08be df87 e5bd 8164 30be fdb2 ea3c
000000b0: b134 32be b578 1dbe 6f70 a13d 9ad4 8c3d
000000c0: 3595 e73d 5546 773d e5f5 133c fe3e 3d3b
000000d0: 9f2c 0cbd 73e7 1bbe c72a 0abe c192 0dbe
000000e0: 877a 733d 1b90 eebb ef63 d4bd a4ce 083b
000000f0: ca94 fe3c 44ec d8bd 574c f7bd 7888 1fbe
-0.19020867 0.061516065 -0.07446023 -0.031600453 -0.024483075 -0.017021246 -0.030562486 -0.166261
-0.17159913 0.040598106 -0.10762957 -0.06263836 -0.105461046 -0.15051363 -0.09113844 -0.030195145
-0.09782973 0.25018188 0.03685149 0.06911819 -0.0647869 0.02768073 0.008113568 -0.087984025
0.059635054 -0.03756144 -0.082534365 0.029902613 -0.014079191 -0.042839702 -0.006418262 0.00020570261
-0.08254809 -0.08735643 -0.011502699 0.083597235 -0.097243495 0.11966694 0.027261 0.062134545
-0.1332933 -0.11207556 -0.17225839 0.028649801 -0.17402913 -0.15378077 0.07882773 0.06876488
0.11307756 0.06036981 0.009030794 0.0028876658 -0.03422224 -0.1522501 -0.13492881 -0.13825513
0.059443023 -0.0072803623 -0.10370623 0.002087512 0.031076808 -0.10591939 -0.120751075 -0.15579402

critic.2.weight f4 [64, 64]
00000000: 994f 543d a60f 183e 3a05 5e3d dceb 0c3d
00000010: a643 523d b534 9dbd 9c9a 053d d0a2 a43d
00000020: 9261 583c 80af 02be 1d8b 11bd 602f f73d
00000030: 004d 4d3c 91dc 4c3e f04a bd3c fd7b 71bd
00000040: 9dab a53d 1e09 cd3e 7113 bfbd 996c 073e
00000050: 70bb 62bd 8400 273e 1f80 333d 2d1d 553e
00000060: 341d 5abd eed6 b3bd 9fda bbbb 1370 2f3d
00000070: 810c 3ebd 7025 df3d 9c85 313d d29e e53d
00000080: 3d44 ae3d 7d64 57bd c10f 6f3d 64cc 91bc
00000090: 70e1 e2bd 7901 233e 2ad8 cd3d 7b8f 6e3c
000000a0: 69fc cebd 79b7 e63d a197 5a3d 64ee 9cbe
000000b0: 0392 bc3c ac73 abbd 6f2f 783d 56dc 0dbe
000000c0: 0472 4d3e 2c9e 123e 0ae6 21bd b71c 913e
000000d0: be5d 91bc ef54 5fbb c8de 8bbd 621f e0bc
000000e0: 6389 1b3e a148 df3c c7ee 423d 0e86 5ebe
000000f0: 532d 6b3c 09d9 273d c345 4a3e c756 8bbd
00000100: 4c7a 9b3d 1316 2c3b ae5b 0cbe 03d4 093d
00000110: a272 99bd 17bc 8cbd 3a6e 92bd 8441 e63d
00000120: fbe3 97bd a52e 37be 3724 1ebe e551 b3bc
00000130: f8cf f6bd eb50 05be c3a1 02be dbcc 5abc
00000140: aa8b 843c cf6b 64be c6ae c3bd 6b4f 953d
00000150: c770 853d 0462 a63c 6e03 293d 7c95 a5bd
00000160: 4c3b 1cbe c6b1 12be 5ab6 2abe c2fc b33b
00000170: bd6d 8abd 782b c2bd be53 5fbe 7c56 24bc
00000180: b722 d83d 755e b8ba 3db8 ae3c b4fb 1bbe
00000190: 1db2 5b3c daa3 cc3c ee44 0f3d 13b9 de3c
000001a0: 1354 4a3e 8978 b83c d9cc 123d eac2 a33c
000001b0: 7f7a 883d 313a 38be 8f09 333d a4f5 f8bd
000001c0: 9c5e 9bbd 57ce 16bd 654a c9bd 8034 bd3d
000001d0: a1b1 1bbe 2c8f 4abe 89c7 03bc 58fa a53d
000001e0: d676 0dbe 68ed a9bd 7729 86bc 946e 27be
000001f0: 42ca b43c 730d 6fbc 2384 873d 1b79 2e3c
00000200: d589 e23c c89c c3bc afa6 8b3c fc17 413d
00000210: db27 eabd c259 e13c 9c2b a43d 8e5b e43c
00000220: 67f6 cfbd b07a 9bbc 032d bf3c 7a02 fdbd
00000230: 371a cebb 9059 e6bc 8f4a 8e3d 2092 6a3d
00000240: 4ddc a6bd 2441 543d cfdb 643c 3aa1 06bd
00000250: 7dc8 713c 5e89 b43d 15c2 1e3e 868c 973d
00000260: 990b d2bd 7caa b53d c034 3e3d 3b57 d8bd
00000270: f1a0 053d 6ab7 dabd 888a ca3d dcc8 2ebe
00000280: f186 88bc 90e6 84bc 7569 843d 108f eb3c
00000290: 9148 263d 99e5 ab3c 5c5a 173d 2c7c 2abe
000002a0: 9a16 f73d ec7f 1e3d 8fbf 0aba 5409 92bc
000002b0: 2e58 09bd 11a4 e3bd 7a95 48bc 6744 e93d
000002c0: 49a3 a13d d7c8 0bbd 1c5e 15bc 3dab 75bd
000002d0: add3 b93d 29d2 903c db4b d7bc 6e81 603d
000002e0: acb4 c3bd 169e a23d cdf4 c4bd 91ef 92bd
000002f0: b0de 98bd 451a 4cbd 0324 613d 4979 19be
00000300: 8a42 7bbc a562 b93b b422 7fbd e8c1 193c
00000310: 0361 813d e3d6 abbd deb1 0a3c 5b33 523c
00000320: 1aa7 a7bd 56cd 21be d947 c4bb a7db 6ebd
00000330: b8b6 eb3c 11d5 ccbd 27d5 253e acf6 fc3d
00000340: cf1a 353c 3fc7 bbbd 626b 0bbe 591d 073d
00000350: 53d0 2a3d c01d c83d 1736 a0bd fd90 b73d
00000360: da20 b7bd 821b d8bd 928e 3c3d b114 10bd
00000370: 9eda 903d aa7e 67bd 14d8 653d 4163 8abd
00000380: 4a56 8b3d 7f14 9e3d 961c 9dbd e903 15be
00000390: 47a6 983d 5d26 fabd 5ab4 a4bd 4d7a 65bd
000003a0: 9118 e1bd 34fe 1f3e 5a25 45bd 8539 d03d
000003b0: 4142 e0bd 117d d73d 6b09 8fbd af91 2bbd
000003c0: 98d7 a2bd d7b3 e93c 7676 76bd 72c7 97bd
000003d0: d7e7 693d baac 9c3d 7ce0 cabd 483a 083e
000003e0: 51f5 f8ba f567 8e3d 211b 12bd d697 0fbe
000003f0: ea18 16bd 247e d8bd 8112 e23d 564e d13d
0.051833723 0.1484972 0.054204203 0.03440462 0.051334046 -0.07676069 0.03261815 0.080388665
0.013206856 -0.1276226 -0.03553306 0.12069583 0.012530565 0.20006014 0.023107022 -0.058956135
0.08089373 0.40046018 -0.0932988 0.1322502 -0.055354536 0.1630879 0.043823358 0.20811911
-0.053250507 -0.08781229 -0.005732849 0.04283149 -0.046398643 0.108958125 0.04334031 0.11211933
0.08509109 -0.052586067 0.058364633 -0.017797656 -0.11078155 0.1591853 0.10050996 0.014560576
-0.10106737 0.112654634 0.05336726 -0.30650628 0.023018843 -0.08371672 0.06059211 -0.13853583
0.20063025 0.1431815 -0.039526023 0.2834222 -0.017744895 -0.0034077724 -0.068296015 -0.027358714
0.15189128 0.027256312 0.047590997 -0.21730825 0.014354068 0.040978465 0.19753174 -0.06803661
0.07591686 0.0026258274 -0.13706848 0.033649456 -0.074925676 -0.06871813 -0.0714993 0.11242965
-0.07416531 -0.17888887 -0.15443502 -0.021889636 -0.12051386 -0.13019149 -0.1275702 -0.013354505
0.016179878 -0.2230675 -0.0955482 0.072905384 0.06515651 0.02031041 0.041263036 -0.080851525
-0.15256995 -0.14325628 -0.16671124 0.0054927776 -0.06759212 -0.09480947 -0.21809289 -0.010030385
0.10553496 -0.0014066236 0.021328086 -0.15232736 0.013409165 0.024980474 0.034977846 0.02718786
0.19758634 0.022518413 0.03583989 0.019990403 0.06663989 -0.17990948 0.043710288 -0.12156227
-0.07586405 -0.036817875 -0.09828643 0.09238529 -0.15204479 -0.19781178 -0.008043178 0.0810439
-0.13814864 -0.08297235 -0.016377194 -0.16350776 0.0220691 -0.014590609 0.06617 0.010648991
0.027653614 -0.02387847 0.017047254 0.047142014 -0.11433383 0.02750862 0.0801613 0.027875688
-0.101544194 -0.0189794 0.023336893 -0.12353988 -0.006289746 -0.028118879 0.06947815 0.057268262
-0.08147488 0.051819935 0.013968422 -0.0328686 0.014757273 0.08815263 0.15503724 0.073998496
-0.10256118 0.08870408 0.046437025 -0.10563513 0.03262419 -0.10679515 0.09889704 -0.1706881
-0.016665908 -0.016223222 0.06465427 0.028754741 0.04059655 0.020983504 0.036951408 -0.1664893
0.12064858 0.038696215 -0.00052928267 -0.017826714 -0.03353136 -0.111152776 -0.012242669 0.1139
0.07892472 -0.034127083 -0.009116676 -0.05997776 0.09073577 0.017678337 -0.026281288 0.054810934
-0.09555945 0.07940309 -0.096170045 -0.071746 -0.07464349 -0.04982974 0.054965984 -0.14987673
-0.015335688 0.0056575113 -0.062288955 0.00938461 0.06317332 -0.08390596 0.008465258 0.012829627
-0.08186169 -0.15800986 -0.00599001 -0.058314946 0.02877365 -0.10001577 0.16194592 0.123517364
0.011053755 -0.091688626 -0.13615182 0.032986972 0.04170258 0.09771299 -0.07822817 0.08963201
-0.08941813 -0.10552122 0.046034403 -0.035175983 0.07072948 -0.05651728 0.05611427 -0.067572124
0.06803568 0.07718753 -0.07671468 -0.14552273 0.0745359 -0.122143485 -0.08042212 -0.05602484
-0.10991014 0.15624315 -0.048131324 0.10167221 -0.10950137 0.105219014 -0.06984218 -0.04188698
-0.079512775 0.028528137 -0.060171567 -0.07411088 0.057105865 0.076501325 -0.09906098 0.13303483
-0.0018994008 0.06953422 -0.035670403 -0.14022765 -0.036644854 -0.105709344 0.110386856 0.102200195

critic.2.bias f4 [64]
00000000: e39c 033e c8ed c2bd f265 0fbd d20a 53bd
00000010: b205 aabd 5555 7ebd c791 5bbd ecf5 a13c
00000020: a45b bbbd bf96 97bd f2bc a33d 9111 e73d
00000030: 2de9 95bc bbc1 f83b 159b 29bd 5acb 76bd
00000040: e1be 71bd f763 0ebe 035a 1b3e 8a05 153e
00000050: f9c4 50bc 6c95 ab3c 6826 d7bd 5cd5 17be
00000060: 53db 0c3d 6d64 b5bd d4f0 31bd 698b 0fbe
00000070: 472d 3f3d 312c ccbb baf0 a0bc bafc 8abd
00000080: 9dbc c0bd f14f cfbd 0c18 053e 3440 8fbc
00000090: a540 8fbd a161 1dbe f847 07be c25e 08bd
000000a0: e2a9 303b 08fc 3fbd 68bf 273d ed34 1fbd
000000b0: 6b00 b0bd ee66 e83d 9726 93bd 5d8a 0ebd
000000c0: 77b2 38bd a2cb 2d3d 8ab1 833d 047e 03be
000000d0: 25d9 36bd e1d3 fcbd 56a4 1c3d 3fa5 153d
000000e0: b865 ca3b 4570 133d c0a7 7dbc bf0f 99bd
000000f0: 9b1f fcbd 4901 cdbc e437 b1bd c6d4 c6bd
0.12852816 -0.095180094 -0.035009332 -0.05152399 -0.083018675 -0.062093098 -0.05360582 0.019770585
-0.091483384 -0.074017994 0.07995023 0.112826474 -0.018299663 0.007591454 -0.041407663 -0.060252525
-0.059019927 -0.13905321 0.15171055 0.14552894 -0.012742274 0.020945273 -0.10505372 -0.14827484
0.03438885 -0.08857045 -0.043442562 -0.14018025 0.04667404 -0.006230854 -0.019646037 -0.06786485
-0.09410975 -0.101226695 0.12997454 -0.01748667 -0.06994752 -0.15369274 -0.13211048 -0.033293493
0.0026956727 -0.046871215 0.040954024 -0.038868833 -0.0859383 0.11347757 -0.07185095 -0.034799922
-0.045092072 0.042430528 0.06430347 -0.1284104 -0.04464068 -0.123451 0.03824266 0.036534544
0.0061766766 0.03599574 -0.015481889 -0.074737065 -0.12310716 -0.025025027 -0.086532384 -0.09708552

critic.4.weight f4 [1, 64]
00000000: 25e0 18be 284c 373d 21dd 6bbb 7e59 bfbc
00000010: d144 1abe 253f d7bc a4eb fb3c 2046 323e
00000020: 5e06 783d 5c9e d539 b874 863d 71c5 75bd
00000030: 854c 2b3b ccff 263d 6066 89bd d144 823c
00000040: 5d30 e4bb e8e8 1db9 6a49 053e 60e0 133e
00000050: e7bf be3c b0eb 9c3b 6684 71bd cec0 0c3e
00000060: 084c 12bb 2084 eebb 7544 673c d6d1 94ba
00000070: 2f85 3fbd 84e4 4b3b c051 583d 423a d1bc
00000080: 4a87 b4bc 52c5 983d fba9 e6bd 9a80 073c
00000090: 5896 41bb 759f 203c a398 8cbd bf2b af3d
000000a0: 481a d73b 7c0a 153e fcdc 0f3e fd4f 80bb
000000b0: fe9e 1cbc 9a2e 5e3d 0e0c d23c 45b1 313d
000000c0: 3029 dbb9 1186 a4bd 6532 65bd 545d c53d
000000d0: d658 bd3d c10f 683c 2ddb c1bc 46db 6e3b
000000e0: 39a9 be3b 2498 81ba 1cb1 89bd 04c6 563b
000000f0: 97e2 00bd 158a ac3d d941 43bd 64c6 c7bd
-0.14929254 0.044750363 -0.0035989957 -0.023358103 -0.15065314 -0.026275227 0.03075201 0.17409563
0.060552947 0.00040744513 0.06565231 -0.060002748 0.0026138138 0.04077129 -0.067089796 0.015901955
-0.006963773 -0.00015059451 0.13016286 0.14441061 0.023284866 0.0047888383 -0.058964156 0.13745424
-0.002232315 -0.007278934 0.0141154425 -0.001135404 -0.046757873 0.0031111548 0.052812338 -0.025540475
-0.022037167 0.07459511 -0.1126289 0.008270407 -0.0029539075 0.0098036425 -0.06865051 0.08553266
0.0065644123 0.1455478 0.14049143 -0.0039157853 -0.009559391 0.05424366 0.025640514 0.043381948
-0.00041801622 -0.08033384 -0.055956263 0.096369416 0.0924546 0.014163912 -0.023664081 0.0036446615
0.0058185128 -0.000988726 -0.06723234 0.0032771835 -0.031466093 0.084247746 -0.04767022 -0.09754637
