RL/CC2-Cardiff-implementation/GT-Cardiff-CC2/Models/PPOxCCE-C3/4000.pth (torch, 78850 bytes, 11 tensors)

actor.0.weight f4 [64, 62]
00000000: ed40 79ba e786 8b3d 2a12 d6bd 3c6a bfbd
00000010: 2717 9ebd 1c42 003e 2b1c 1f3e f35a 6b3e
00000020: 1f4f a7be 6176 81bb d51f 65be 99e9 1abe
00000030: 2e66 50be fa80 67be 1774 de3d 7fbf 3ebe
00000040: 81a6 4d3d 4d10 9c3d 7754 b0bd 4686 62bd
00000050: 5df1 3c3d 15fb d73d 861c d6bc 12a2 c23d
00000060: 58b1 a7bc c02c 5c3c cf82 eb3d 9948 f1bd
00000070: 5be2 bfbe d658 00bc ee59 1abd 4815 c53e
00000080: cf96 a8bd 3376 6fbd b9b6 b5bd 9498 f3bd
00000090: 9d85 533d 53b8 9d3e f19d cf3c 6070 b0bd
000000a0: 673f e8bd 79f2 92be 16dc be3d 7690 9f3c
000000b0: cad3 ddbd c9cf a8bd 4509 73bb 9565 bebd
000000c0: c3e2 cbbe 4c3b a6be d000 c63e ccfa 063f
000000d0: 8474 4e3d 6f06 f83c 5445 323e 7574 673d
000000e0: 7466 d23d 70a7 c9bd 50a0 f23a 8148 d3bd
000000f0: 9337 18be fb80 853e 9411 9abd 6327 1d3d
00000100: 1bc9 8e3d 8d50 83bc fcd7 16be 5bcc febd
00000110: 026d 02bb 76cc 663d da96 1a3e 8383 c63c
00000120: 0408 f23d 55a6 ab3e 8a05 1e3e e2aa 92bc
00000130: d528 7c3d d664 55be 4d6a 3f3c b5b7 a2bd
00000140: d565 f2bd f417 e73d 48c4 c53d 05ba 01be
00000150: 23bb c23c 6643 afbc fb34 abbc 271f 6ebd
00000160: 120b 483d 510e 9abd 76c0 923d 9823 153d
00000170: 8fd6 6b3d c10e 25bc 95b6 00be 40b9 a8bd
00000180: b6de 813d 05c1 d93c 1e58 91be d699 51be
00000190: c870 f33d f858 743e 9a66 703e 0d12 29bd
000001a0: 61df 06be db98 3bbd bbfb e4bd 15be e9bd
000001b0: ab1e d2bd 8f42 7abd 3c54 f4bd 3518 943c
000001c0: ad1d b9bd bd12 013d 723e b23d c3d4 9dbe
000001d0: f69a 233d 24b6 c33d 45c4 953d a8c0 f63c
000001e0: 7c66 e13d 6887 b13d ef69 3dbe 4e9a b9bd
000001f0: 3e7f f9bd 2929 9abd 3f38 02bd 8964 7dbd
00000200: 5153 7fbe e60a 44be 5259 0fbe 7435 3fbe
00000210: 7423 0dbf 15ae fabd 94a7 de3c d916 30bb
00000220: d9f7 f23d 1684 063e e79b 003e 2c6e 133f
00000230: 0c60 f63d f82c a53d 5cf0 f63d 177c 16bc
00000240: 6aa6 e9bd 869c 76bd d419 b13d 1ed1 57ba
00000250: a747 81bd 9850 c7bd 5f69 f3bd fc85 dbbd
00000260: 1be2 a03e ad8b 953d e71a ee3d b51d 12be
00000270: 4e3e a23d 1c87 cbbd b6f2 dbbc 80ec 52bd
00000280: 4bf5 ffbc 0467 b93b e956 c2bc 9ebe 14bd
00000290: f28a 483e 4a9b d8bd 38b8 b83d 89dd d73d
000002a0: e32e 74bd 91b6 223e 6bb5 afbc f707 0abe
000002b0: f09b 28be 5e0a 09be 6433 50bb 41d8 453e
000002c0: ff1b 70bc 788d f5bb 0a86 083e ae9b 3f3d
000002d0: 948e e13d f6d2 d9bc 925b 113e 6d63 883d
000002e0: eba0 b23d 26bf b03d b02f fabc 74cc dabc
000002f0: 2a57 d6bd 7fee 8c3d ca04 803e 0377 8b3e
00000300: e5b2 fd3d dfe8 ad3e d1aa c9be b780 56be
00000310: 3cdb 34be bf60 f3bd 0ebd 2cbe 011c 333a
00000320: 1c12 153e 36c0 c83e aa9c c4bd 2c8f b2bd
00000330: 2407 97bd d10c b63d b2fd 3abd 6463 db3d
00000340: 051b 3c3d 64bd 833c 2ed4 77ba 38aa cdbc
00000350: 8788 823c fe90 edbc eaff 9d3e e5ce bc3d
00000360: 8621 b7bc e6cc 0b3e 9d06 d23d 8b14 d3bd
00000370: 8469 15bc 0ea6 003e 01ae 5b3d 60e6 d338
00000380: 1f38 933d 329c ea3d 7237 ccbc 8ae6 c6bd
00000390: b9f2 013e 2b72 8dbd 3142 04be 8ae1 323e
000003a0: 746f aebd a350 f2bd 7722 853d ab86 14be
000003b0: aaae 9d3d 656c 94bd 7d78 5cbd b24a 413b
000003c0: 073b 903d 3471 3c3e b1f6 b03d 822f 5539
000003d0: 4281 233e 9188 00be 0058 603d d354 52bd
000003e0: fc6c e53a 05e2 b0bc 54fc 88bd 3e82 893c
000003f0: 047e dc3d 6ff0 d63d 4383 2e3e b56e 5e3e
-0.0009508271 0.0681284 -0.10452683 -0.093464345 -0.0771926 0.12525219 0.15538089 0.22983913
-0.32677552 -0.0039508794 -0.22375424 -0.15128173 -0.20351478 -0.22607794 0.10861986 -0.18627737
0.05020762 0.076202966 -0.086098604 -0.055303834 0.04612862 0.10545937 -0.026136648 0.09503569
-0.020470306 0.013438404 0.11499559 -0.11781425 -0.37477383 -0.00783368 -0.03768342 0.384928
-0.082318895 -0.058462333 -0.08872742 -0.11894336 0.051641095 0.3080469 0.025343867 -0.08615184
-0.11340218 -0.28700617 0.09319322 0.019478064 -0.10831411 -0.08242757 -0.0037084382 -0.09296719
-0.39821443 -0.32467115 0.38672495 0.52726436 0.050404087 0.030276505 0.17409259 0.056507546
0.10273448 -0.09846389 0.0018510912 -0.103165634 -0.1486495 0.26074967 -0.07522884 0.03836764
0.069719516 -0.01602962 -0.14730829 -0.124413215 -0.00199014 0.056347333 0.15096608 0.024232632
0.11817935 0.3352534 0.154318 -0.017903749 0.061562378 -0.20839247 0.011683059 -0.079451956
-0.11835829 0.112838656 0.09656578 -0.12668617 0.023770874 -0.021394443 -0.020899286 -0.058135178
0.048838682 -0.07522262 0.07165615 0.036410898 0.057577666 -0.010074318 -0.1256965 -0.08238459
0.06341307 0.026581297 -0.2838754 -0.2046884 0.11886746 0.23862064 0.2347664 -0.04127698
-0.1317115 -0.04580007 -0.11180826 -0.114132084 -0.10259756 -0.06109863 -0.11930129 0.018077949
-0.09038863 0.03151201 0.08703317 -0.30826387 0.039942704 0.09556225 0.07312826 0.030121163
0.110058755 0.08668405 -0.18497442 -0.090626344 -0.12182473 -0.07527382 -0.03179192 -0.061863456
-0.24934126 -0.19144782 -0.13998917 -0.18672734 -0.5513222 -0.12240235 0.027179517 -0.0026869087
0.118636794 0.13136324 0.12559472 0.57589984 0.12030038 0.08065218 0.12057564 -0.009184859
-0.11408694 -0.060207866 0.086475044 -0.000823276 -0.06312495 -0.09732169 -0.11885332 -0.10718915
0.31422505 0.07302032 0.11626225 -0.14269145 0.0792204 -0.099378794 -0.026849132 -0.051495075
-0.031244894 0.0056580324 -0.023723083 -0.0363146 0.19584253 -0.10576494 0.09019512 0.10540301
-0.059615027 0.15889956 -0.021448812 -0.13479601 -0.16465735 -0.13382861 -0.0031768912 0.19320776
-0.014655112 -0.007493671 0.13332382 0.046779327 0.11013523 -0.026589852 0.14195088 0.06659589
0.08722099 0.08630209 -0.030540317 -0.026708819 -0.10465844 0.06881427 0.25003654 0.27239236
0.12387637 0.3396673 -0.39388135 -0.20947538 -0.17661756 -0.11883687 -0.16868994 0.0006832481
0.1455769 0.39209145 -0.09600194 -0.08718714 -0.07374409 0.08889163 -0.0456521 0.10712317
0.045924205 0.01608152 -0.00094539195 -0.02510558 0.015934242 -0.028999802 0.3085931 0.092191495
-0.022354852 0.13652381 0.10255168 -0.10306653 -0.009119395 0.12563345 0.05363274 0.00010104175
0.071884386 0.11455573 -0.024928782 -0.097119406 0.12690248 -0.069065414 -0.12915875 0.17468849
-0.08517352 -0.118317865 0.06500714 -0.14504497 0.0769933 -0.07247237 -0.053825844 0.0029493985
0.070425086 0.18402559 0.08640803 0.00020330961 0.15967277 -0.12552096 0.054771423 -0.051350426
0.0017503793 -0.02159215 -0.06688753 0.016785737 0.10766223 0.10495078 0.1704226 0.21721919

actor.0.bias f4 [64]
00000000: ee99 caba 3930 b33c 1cda e73d 3682 413c
00000010: 21a2 1f3d cf34 c2bc 933c d53d 5424 47be
00000020: d941 163e 6431 52bd 3245 d6bc 4385 ffbd
00000030: b6b3 f8bd c3eb 813d 7512 40be 35a6 043e
00000040: 588e f23c 7906 613b e830 5abd 2ce0 88bc
00000050: c94c d93c 582c ddbd 4fa2 723d 7697 ffbd
00000060: ff6f 82bd e25a 473d 5258 853d 745f 3f3e
00000070: 68f6 f73c 3362 91bd 2bb2 cebb e91f 093e
00000080: d4ac 293c df30 9fbd 1aad 9939 9cfb 6c3d
00000090: fc91 1f3e 9e49 153e 8ea3 2dbd fa1a d8bd
000000a0: 91c5 363e 74e6 293d 3dad cf3a f789 3bbc
000000b0: 2ea6 a3bc e7fe f13d 904d f2ba e3a0 163d
000000c0: 55fe da3d 006f 7a3c 5e87 9d3d fed1 52be
000000d0: 899d 4bbd 79fa 81bc 8268 693e 00de b23e
000000e0: abfc 2d3e 3767 15bd 54d0 eabd 78b2 b3bc
000000f0: 7c54 18bd c9e5 14bd 7bbc bdbd 237a 2c3d
-0.0015457252 0.02187358 0.11320898 0.01181083 0.038972978 -0.023706822 0.10411944 -0.19447452
0.14673556 -0.051316634 -0.026156042 -0.124765895 -0.12143652 0.06343796 -0.18757041 0.12954028
0.02960889 0.0034336133 -0.053269297 -0.016708456 0.026525872 -0.107994735 0.05923682 -0.12480061
-0.06369018 0.048670657 0.065109864 0.18688756 0.030268863 -0.07098808 -0.0063078604 0.13391079
0.010356147 -0.07772993 0.00029311405 0.05785714 0.15583032 0.14578864 -0.042392306 -0.1055202
0.17848803 0.041479543 0.0015844476 -0.011446468 -0.019976702 0.11816197 -0.001848625 0.036774527
0.10693041 0.0152852535 0.07691835 -0.20587918 -0.049710784 -0.015866505 0.22793773 0.34934998
0.16990916 -0.036475386 -0.11465517 -0.021935686 -0.037189946 -0.036351953 -0.092644654 0.042108666

actor.2.weight f4 [64, 64]
00000000: ec59 aebd f9c9 27be e52b 7f3d d86d bfbd
00000010: fa23 a5bc 3c87 8f3d c6c7 0cbd 36c9 a7bd
00000020: 7fec 13be f1e0 6fbc 7c73 80bd a1c8 06bc
00000030: c177 9c3c 8900 77bd 9a94 ad3d 9cb1 59bd
00000040: dfdd 90bd ec3b ccbd 7857 1b3d c3a6 c8bd
00000050: 9e6b 003c 1612 09bd 1333 8b3d f756 a1bd
00000060: fc38 7cbd 67db 07bd 5224 d7bd 4673 d63b
00000070: 9629 9fbd 60a1 c23b c098 4f3d 8580 443d
00000080: 9748 31bd e8be 2f3d f56b d7bd 092a 12be
00000090: d50b 27bd 9d7c f7bd 9454 c6bd 07e6 323c
000000a0: 7352 973d e2ff 91bd ee12 f8bc e544 fcbd
000000b0: 5fe0 8cbc 5928 55bb e1ce 2ebd 1516 993d
000000c0: 08b3 f0bd 82b3 6abd e4a0 c2bd 0147 a83d
000000d0: 1100 b53d 1134 ce3d 9346 9d3d b3ed ea3c
000000e0: d190 eebd 9f2b cebd 5490 433c 80fb 18be
000000f0: fbb3 0a3d 3c7e 773c 902c b33b c832 16be
00000100: 4ca6 083e 2661 c9bc 9c68 17be 8e6c a43d
00000110: c464 ec3c 6e4d 673c f483 523d de70 92bd
00000120: ee7f efbb a288 073e 738a d0bc 58e7 e0bd
00000130: d75e 82be c6ed 623c a43b 42be 967a b0be
00000140: 88b3 1fbe ef8a e23d fbc4 43bd da63 973d
00000150: 7cb8 a63a 61b6 9a3d 4907 3f3e 45c7 48be
00000160: aeb3 f5bb a484 d5bc b623 913c 6d36 e43d
00000170: a47a 553d 51f4 033e 6947 86bd ffcc 283e
00000180: 76f6 a2bd cd77 a2bb 85ac 773c 59cb 5a3c
00000190: 3cc1 99be 2ae9 88be 9edf 213d c349 e03d
000001a0: f8d6 7fbe 6064 d33d 205d 323d 3494 f23d
000001b0: ca9c a7bb 20ea 9a38 ef7f 833e 85e5 c2bd
000001c0: 75c3 5dbe 322f 00bc 7d95 493a 5afd 4dbd
000001d0: d020 bb3d 2b02 cebd 5479 7dbe 515d d43d
000001e0: 3f32 93bd 3b30 f13d 32e1 be3d 5460 293d
000001f0: b36e 42bd 992c 093e 9036 453d 0102 b2bc
00000200: 1696 4bbe 392a 0c3d 726a e13d 4e80 363d
00000210: 8956 4c3e 660e 763e 39c6 943c cf72 4abe
00000220: 3e13 bbbb fa85 4bbd 7b5d 84bd e6e6 12be
00000230: 209a 573d addb 463d 6d4d 2ebc 7812 12be
00000240: 009c 82be de6d 573e 96d4 283e b829 cf3d
00000250: 4da5 103d a1ad b2bd a2f1 febd 02be ebbd
00000260: 0da4 bdbd d7d3 8dbe c67f 1d3e b2f6 a3bd
00000270: ac97 5e3e f09f 15bd c91e e93d 8ed5 fa3c
00000280: 5e07 44bd 7ee8 bc3d 2b36 a4be ca98 afbd
00000290: bcc2 34be fd88 92bd b47c d03c 1e0e 19be
000002a0: 467c 81be 6d5f 743d 4849 12bd 03db f53d
000002b0: cb54 54be 6a37 4f3c ac07 513e 8b2f e5bc
000002c0: b602 84bd d26a 713d 9e34 debd e0e9 fa3c
000002d0: f10d 3cbb 0ed6 b9bd 3acf 07be 56f9 36be
000002e0: 511c 33be 5981 6f3b 1bd4 4c3e 2977 8abd
000002f0: eb08 303d 71b0 c73e 518d 043d ca5f 19be
00000300: 99a6 af3d 49dc 763d 7c34 f93d 7337 7b3c
00000310: 54d9 8ebd 79f9 a83c 79b8 05be 0fb6 1b3e
00000320: e611 c73d 5aab 35bd 501c 87be 36f6 4dbd
00000330: 941e 2ebe 9868 033d 9f2b c2bc 629a 99bd
00000340: c522 38bd f286 e13c 1d76 2c3b 923d a43d
00000350: 08df 18bd b6fd 743d 84b6 92bd 9805 2a3d
00000360: e98c a8bc f3f0 c83d 0cd4 8b3d c699 98bd
00000370: c4d8 f2bd c6ea 17be c023 c5bd a9dc 163b
00000380: 88f7 d23d 2351 bdba 49bc 073e 9d16 de3b
00000390: bc3f 2dbe b489 c1bd 59ba 43bd 9228 94bd
000003a0: f593 0abe bddb 5bbd a7f7 d5bd 1479 afbc
000003b0: 715a 993d c710 143d 53b0 2cbd f658 f63c
000003c0: b929 273d 6948 173e b20d 6fbe 061b 9abd
000003d0: 05cb 11be 3a91 69be 6c32 e03d ece9 f1bd
000003e0: a819 d3bd 8dac 1f3c 4430 07be 8aed 0f3c
000003f0: 0943 95bb ef27 85bd e901 783d e657 84bd
-0.08513245 -0.1638564 0.06229772 -0.09347123 -0.020158757 0.07008216 -0.034370206 -0.08192675
-0.14445685 -0.014641033 -0.06272027 -0.008226545 0.019100072 -0.060303245 0.08475609 -0.053147897
-0.070735686 -0.09972367 0.037925214 -0.09797432 0.007838158 -0.033464514 0.06796851 -0.07877915
-0.061577782 -0.033168223 -0.105049744 0.0065445034 -0.07771604 0.0059396476 0.050682783 0.04797413
-0.043282118 0.04290667 -0.10518638 -0.14273848 -0.04078277 -0.12084315 -0.09684101 0.010919101
0.07388773 -0.07128884 -0.030282464 -0.12317828 -0.017196832 -0.003252527 -0.042677764 0.07474915
-0.117528975 -0.0573001 -0.09503344 0.08216668 0.08837903 0.10068525 0.076794766 0.028677797
-0.11648715 -0.10066914 0.011936266 -0.1493969 0.03386305 0.01510578 0.0054679587 -0.14667809
0.13344687 -0.024582457 -0.14785999 0.08028518 0.028856643 0.014117582 0.05139537 -0.07150434
-0.0073089516 0.13235715 -0.025456643 -0.10981625 -0.25462982 0.013850635 -0.18968064 -0.34468526
-0.1559583 0.11061656 -0.047795277 0.07392092 0.0012719776 0.07554317 0.18655123 -0.19607265
-0.007498226 -0.026064225 0.017717224 0.111431934 0.052118912 0.12886168 -0.06556589 0.1648445
-0.07957165 -0.004958129 0.015116815 0.013354146 -0.3003024 -0.2674039 0.0395199 0.10951569
-0.24984348 0.103218794 0.043545842 0.11844674 -0.0051151263 7.3869014e-05 0.25683543 -0.095164336
-0.21656592 -0.007823752 0.0007689817 -0.050290443 0.09137118 -0.10059007 -0.24753314 0.10369361
-0.07187318 0.11776777 0.09320296 0.04135163 -0.047468852 0.13395919 0.048147738 -0.021729471
-0.19881472 0.034219954 0.11006631 0.044555955 0.19954886 0.2402893 0.018160926 -0.19770359
-0.005709081 -0.049688317 -0.064631425 -0.14345893 0.05263722 0.048549343 -0.010638577 -0.14264858
-0.25509644 0.21038005 0.16487345 0.10115379 0.035313893 -0.08724523 -0.124484316 -0.115108505
-0.09259806 -0.27700683 0.15380773 -0.08006038 0.21737546 -0.03652948 0.11382825 0.030619409
-0.04785859 0.09224032 -0.32072577 -0.08574064 -0.1765241 -0.07155035 0.025450088 -0.14946792
-0.25290126 0.059661318 -0.035714418 0.12004664 -0.20735471 0.012647489 0.20413083 -0.027976772
-0.064458296 0.058939762 -0.1084988 0.030629098 -0.0028694833 -0.09074031 -0.13262644 -0.17868552
-0.1749127 0.0036545603 0.20002787 -0.06761009 0.042977255 0.39001802 0.032361332 -0.14977947
0.08576698 0.060268674 0.12168214 0.015333044 -0.06975046 0.02062677 -0.13058652 0.15206169
0.09720211 -0.044352867 -0.26388788 -0.050283633 -0.17003852 0.03208217 -0.02370244 -0.07500149
-0.044955034 0.027530167 0.0026315518 0.08019556 -0.037322074 0.05981227 -0.07163718 0.04150924
-0.020575004 0.098115824 0.06827554 -0.07451205 -0.11857751 -0.14835653 -0.096259594 0.0023019707
0.10301119 -0.0014443736 0.13255419 0.006777598 -0.16918844 -0.09450093 -0.047785137 -0.07234301
-0.13533004 -0.053676356 -0.104476266 -0.02142004 0.074879535 0.036148813 -0.042160343 0.030071717
0.040811274 0.14773716 -0.23345068 -0.075246856 -0.14237602 -0.22809306 0.10947117 -0.11812195
-0.10307628 0.009745729 -0.13202006 0.008784661 -0.0045551104 -0.06501757 0.060548697 -0.06462078

actor.2.bias f4 [64]
00000000: 2386 afbd a55e d03b ba34 ac3b fee0 1abe
00000010: 6255 673d 4fb1 d73d f12c 0ebe b3be 9fbb
00000020: 4f06 d83c 1602 ca3d 0989 2abd eb8e b43d
00000030: 8f8b 0bbe a00b b3bd 1eda 0b3d ccde 113d
00000040: c9d5 ffbc 998f 313d 99c8 403d c54c b33d
00000050: b9aa 3abd 4e43 833c cc44 283e 06f8 c83c
00000060: a95f 0d3d 1165 d53c c0d5 8a3d 926a 943d
00000070: 797d 6cbd 2e1f 163d 5560 13bc 946c d03c
00000080: 8592 45bd 096d a23d e478 5d3c 369b cc3d
00000090: 1c4c 2d3d bff1 a63d 1338 b03d 17e1 34bd
000000a0: 90d3 433c 23fa 16be 35c9 d2bc 2550 c4bd
000000b0: e4ce 253d 8d42 69bd 3398 03be 21bd 7fbd
000000c0: b57d ccbd 580f 283e 1514 9b3c a2d7 4dbd
000000d0: d44e 93bd 0c47 e5bd a84b aa3c 6762 363d
000000e0: ea6b 38bd 1460 ac3d cecd 583d 5326 133d
000000f0: c0a9 9cbd d687 973c 4f8d 203e 6b62 abbc
-0.085705064 0.0063589388 0.005255309 -0.1512489 0.05647791 0.10531866 -0.13884331 -0.004875028
0.026370196 0.09863679 -0.041634593 0.08816322 -0.13627456 -0.08742452 0.03414356 0.035612866
-0.03122987 0.043349836 0.047066305 0.08754877 -0.04557297 0.016023304 0.16432494 0.02453233
0.034515057 0.026049169 0.06779051 0.07246889 -0.057736848 0.03665083 -0.008995135 0.0254424
-0.048235435 0.07930953 0.013517592 0.09990542 0.04230891 0.08151578 0.08604445 -0.044159975
0.011952296 -0.14743857 -0.025730709 -0.09585599 0.04048051 -0.056948233 -0.12851028 -0.062436227
-0.09984914 0.16412103 0.018930474 -0.05025447 -0.0719277 -0.11195192 0.020788029 0.044527438
-0.04502479 0.08416763 0.052930646 0.03592522 -0.07649565 0.018497389 0.15678905 -0.020920953

actor.4.weight f4 [36, 64]
00000000: b039 3a3c 9db9 5c3e 5a4a 7c3e b12d e2bd
00000010: b4e8 78bd 614c 86be 6423 843e fe50 cd3e
00000020: cc0a 1b3e 1419 163d 1912 cd3d 1bf5 8c3e
00000030: 3f82 67bd 7927 dcbd 8ee7 093f 5728 cbbe
00000040: 4073 c23e 4636 17be ed9a 2e3e 9247 103f
00000050: f2f0 78be dc3f e3be 1a40 8739 daa6 d33c
00000060: e78f b63e ea92 073e 1585 0f3d 1f23 903e
00000070: a550 a0be 8ac1 a3be 5fd7 903e db70 183f
00000080: de98 97be 74ac 03be 946e 61be 4bdc d63d
00000090: b6eb e43d 9dbb 163e c217 a2bd 3629 eb3d
000000a0: c7e8 75be 5347 3a3d 25dc 10be a7f4 5c3d
000000b0: 5261 10be f4d1 823d 7ac3 5b3d dfff f13c
000000c0: 0318 103e b68b 0e3e d580 5ebc 1ce2 04be
000000d0: 9ffe b33d 4c93 96bd 57a2 eb3e 09cd 563e
000000e0: c3b7 c7bc 2a51 6dbe 9e29 86be cccf dcbd
000000f0: b841 a7bd aaf6 2cbd 7ec8 403d 7002 3cbc
00000100: ab3e b3bd ae81 023e 2e43 683d 6dff 0a3d
00000110: bf4f 963d a54e be3d 121d 8d3e 931e 0a3d
00000120: f5d9 65be 9de9 633e dc7e 983d 006c 723e
00000130: 0b76 3a3d 71f3 2dbe ff0e 103d 3078 3e3e
00000140: 7a9b 09be a40a b23e 06d5 4bbe 556b 3dbe
00000150: e4b7 d93e 8181 d43e fea4 0abe ccf2 9ebd
00000160: 1977 1cbe c40e 893e 80a0 a2bc 532e 2d3e
00000170: 05f6 3a3e 1f09 30bd 7fc8 79bd 5e82 ccbd
00000180: 7c03 f5bc 24e1 3dbe 3136 003f 82bd 85be
00000190: d685 e63e 598f 5d3e de56 b33e a462 f3bd
000001a0: 4db7 8c3e 88ec 96bd 4810 05bd 325b edbd
000001b0: ca64 b53d 0491 cc3c bf00 2d3b 97cb 353d
000001c0: fad5 17be b520 153e 3282 d13d 129c c73b
000001d0: f5cc 4a3e 2343 bf3d 4ecf 2abc 4c48 083d
000001e0: bb3e c93c 9778 703e 9817 33be 0a28 f93d
000001f0: a84c a03d f7a3 4f3e fcf8 613e 25ed dfbd
00000200: 342c df3d 8108 bd3d 48be d63e 3c3c b93c
00000210: 619c aabd 9804 b43e 9435 9abd 4270 f0bd
00000220: bac2 67be 4f38 5abb 4015 0a3e c042 5f3d
00000230: 1ae3 683e 8f6c 80ba e435 95bd a4ad 9fbe
00000240: 7714 f23d ff05 1e3e 5c9f 9e3e 15cb 11be
00000250: 3deb 743d 39f9 d9bb d031 563c b915 13bc
00000260: 6ea4 0bbe d729 a23d 98a1 053b 5a46 1f3e
00000270: 5429 d03e 5cf3 68bd 76ec 383e a189 e1bd
00000280: 22f7 083e fa5b 4dbe c105 4e3e 3949 9b3e
00000290: e697 3c3e 0716 113d 81bd 1f3e bbbd c03e
000002a0: 25a1 8f3e fdad 613d cfb1 95ba cac4 63bd
000002b0: 464f c5bd 9fad 363d a429 d03e 304d a93d
000002c0: 1b4e 8b3d 6fe4 6e3e 36cb 8cbd 55f1 843e
000002d0: 3269 333e edf6 26bd fa84 8dbd b44b bb3e
000002e0: 4aab 57bd 30ba 37be b1bb 9bbe 3135 1d3b
000002f0: 10ac 0c3c 90af 8c3e e60a ba3b cc1a 94bd
00000300: 1453 de3d fcd0 9d3d b4d4 4e3d 4f31 823d
00000310: 6fb4 213e 529a f43d 4aed 3b3d 925f 533e
00000320: be12 e6bd 9ca5 733e 5519 a73e 51be 3d3e
00000330: 3d55 d83c c86c f3bc 418e 02bd e7dc 273e
00000340: b878 e3bc 7867 cd3d 5991 90bd 0bc0 0f3e
00000350: 75f9 0bbd f166 c53d c0cb 99bc 1a24 2b3e
00000360: ff3e 693e 1586 1cbe dc1d 52bd ac3e cc3d
00000370: 6452 ca3d d653 2d3e 015a 6f3e fdeb 18bd
00000380: 82d5 4b3e f6bc 2b3e f15f 643a 6e38 553d
00000390: 9bc0 77bd d4fe 203e 77d4 983d 7dc3 8bbb
000003a0: 9a94 9c3d 105c 113e 1d81 153e 0cc5 35be
000003b0: 332a f9bc ef90 993d ff99 023e 028a 5abd
000003c0: bf8b 7cbe 974c 5e3e 81e6 b5bd 298d 8bbd
000003d0: 59fb 863e 1283 9d3d 64ea 333e 9eec fe3d
000003e0: c6fc f93d 9246 08be 054c b53d 42f9 943c
000003f0: 262f a3bd 3145 6b3e a3cb 503d d014 9b3c
0.011366293 0.21555181 0.24637738 -0.11043871 -0.060768798 -0.26230147 0.2580825 0.40100855
0.15140837 0.03664501 0.100132175 0.2753075 -0.056520697 -0.10749716 0.5386895 -0.39679214
0.37978554 -0.14766797 0.17051287 0.5635921 -0.24310663 -0.44384658 0.00025796966 0.025836397
0.35656664 0.13239637 0.035039026 0.28151795 -0.31311527 -0.31983596 0.28289315 0.59547204
-0.29608816 -0.12858754 -0.22014838 0.10491236 0.11177771 0.14720006 -0.07914688 0.1148247
-0.24014579 0.045478176 -0.14146478 0.053944256 -0.14099625 0.06387702 0.053653218 0.029540954
0.1407166 0.13920483 -0.013580521 -0.12976879 0.087887995 -0.073523134 0.46022293 0.20976652
-0.024379617 -0.23175493 -0.26203626 -0.107818216 -0.08166832 -0.042227425 0.047066204 -0.0114751905
-0.08752187 0.12744781 0.056704693 0.033935 0.07339429 0.09292344 0.2756124 0.033720564
-0.22446425 0.22257085 0.074460715 0.23674011 0.04552273 -0.16987397 0.03517055 0.18600535
-0.13438216 0.34773743 -0.1990548 -0.18497975 0.4252311 0.41505054 -0.13539502 -0.077611536
-0.15279807 0.26769078 -0.019851923 0.16912203 0.18257912 -0.04297745 -0.060982224 -0.09985803
-0.029908888 -0.18542916 0.5008269 -0.26121145 0.45023984 0.21636714 0.35027212 -0.118840486
0.27483597 -0.073693335 -0.03248623 -0.1158966 0.088571146 0.024971493 0.002639815 0.04438361
-0.1482772 0.14563258 0.10229911 0.006091603 0.19804747 0.09338977 -0.010425402 0.033272073
0.024566045 0.23483501 -0.17489469 0.1216584 0.07827121 0.20277391 0.22067636 -0.109339036
0.10897103 0.092301376 0.41942048 0.02261173 -0.08330608 0.35159755 -0.075297505 -0.117401615
-0.22632876 -0.0033297723 0.13484669 0.054507017 0.22742882 -0.0009797978 -0.072856694 -0.31187165
0.118203096 0.15431975 0.30980957 -0.14237626 0.059794653 -0.006652024 0.0130734 -0.008977347
-0.13636944 0.079181366 0.0020390507 0.1555418 0.4065653 -0.05687271 0.18058953 -0.11012579
0.13375524 -0.20054618 0.20119382 0.30329302 0.1841732 0.035421398 0.15599634 0.37644753
0.2805263 0.05509757 -0.0011420789 -0.055607595 -0.09634261 0.04459917 0.4065677 0.082666755
0.06802007 0.23329328 -0.06874697 0.25965372 0.17520598 -0.04076283 -0.06910129 0.36581194
-0.05265359 -0.17942119 -0.30416635 0.0023988003 0.008585945 0.27477694 0.0056775687 -0.072316736
0.1085569 0.07705876 0.05049582 0.06357061 0.15791486 0.11943497 0.045880593 0.20641926
-0.112340435 0.23793644 0.32636514 0.18529631 0.026407832 -0.029714957 -0.031873945 0.16392861
-0.027767524 0.10029501 -0.07058973 0.14038102 -0.034173448 0.09638775 -0.018773913 0.1671299
0.22777937 -0.15285523 -0.051298007 0.09972891 0.09878996 0.16926512 0.23374178 -0.03733443
0.19905666 0.16771302 0.0008711806 0.05205577 -0.060486417 0.15722209 0.074623995 -0.0042652474
0.07645531 0.14195275 0.14600034 -0.17750949 -0.03041563 0.07498347 0.12754057 -0.05335427
-0.24662684 0.21708904 -0.08881856 -0.068140335 0.26363638 0.07691015 0.17569882 0.12447475
0.12206416 -0.1330817 0.0885239 0.018185262 -0.07967977 0.22975613 0.050975453 0.018930823

actor.4.bias f4 [36]
00000000: 330d 36bd 9d80 1d3e cdd1 87bd 24a1 9a3c
00000010: 5fcf 783e d935 e2bd 717d b83d 4da6 283e
00000020: c9ed 59be cf2f adbd b64b b63c 86f0 06be
00000030: d2ca 06be eb8c 2a3e d39e 083e e57b 19be
00000040: a3e9 063e f727 593d 25ab 2e3e 4f63 8a3e
00000050: 12dc dc3d 0b12 553c cda0 8c3c 59eb 5abd
00000060: 7c1a 493e e477 6d3d 6e5f ac3d 9562 2dbe
00000070: 6875 083d b835 063e b0eb 863d 71df dabd
00000080: a67a 85bd 79bd 4cbb 7ead 9c3d 84ff 163e
-0.04444618 0.15381093 -0.06631813 0.018875666 0.24297856 -0.11045427 0.09008301 0.16469689
-0.21282114 -0.084563844 0.022252899 -0.1317769 -0.13163307 0.16655318 0.13341837 -0.14988668
0.13175063 0.05301663 0.17057474 0.2702889 0.107841626 0.01300479 0.01716652 -0.0534471
0.19639009 0.057975665 0.08416639 -0.16932137 0.033315092 0.1310643 0.065879226 -0.10687149
-0.06517534 -0.0031240864 0.076502785 0.14745909

critic.0.weight f4 [64, 62]
00000000: c860 9c3d 6a19 ab3d 31d8 abbd 6c5b 1b3c
00000010: 7308 72bd a0da fabc d9b9 013c 8d36 c53c
00000020: 73bf 99bd 9415 a9bc 0329 70bd 08dc 05bd
00000030: dea3 adbd 16de 87bd 7f87 a2bd 9b6b b4bd
00000040: fe10 09bc ab20 ddbd 13fe f7bd c876 b63d
00000050: 0c4a bbbd 7c17 b63d d610 103c 3e3c 98bc
00000060: ef3e c93d 2717 cbbd c034 793d b399 ad3d
00000070: c62d 733d 718b 04be 4127 8fbc 7102 50bc
00000080: f2fb c0bd 9aa3 b13d 5232 b7bc 73eb af3d
00000090: 160d 8cbd 74b4 66bd f195 433d 86ef 843c
000000a0: c410 953d 69e9 5d3d f885 9b3d 3bba bfbd
000000b0: 3315 eb3c 612f c13d 07ad 94bd 2407 a0bd
000000c0: 73ed ff3d fed0 d9bd d420 1ebd 0ed7 adbd
000000d0: 12b7 003d 2c75 373b 527c 0cbe 3b07 393d
000000e0: 4e27 d93c 8a36 303d af98 febd d540 11be
000000f0: 0835 15be aa2e 73bd dd19 e7bd ccbf 833d
00000100: 2839 8dbc 1325 4dbd 4043 c43c 3c3d 733e
00000110: de15 0e3e 6a33 e33d 4638 3ebe 6880 abbe
00000120: 08eb d5bd f6b2 443e 8420 0d3d ad5b 523e
00000130: 8d78 e43c a57f 223e a3f5 d43d fb2e df3d
00000140: bf91 8b3d 4504 dfbb 5d60 05bd 7659 f8bd
00000150: e2da 883d 00cd ebbc a810 a33c edf3 eabc
00000160: 15fc a73d bd3a 843b 4f20 05be f301 b2bd
00000170: 689b c63c eea1 55be 73dd 703d 5f54 99bd
00000180: b5e9 b63d e77b c93d 5e11 4b3d 223d d5bd
00000190: edd3 413d da58 233e 42d8 cb3d dc2f eebb
000001a0: 6d0a fcbd cfd6 0ebe 1456 053d 9de1 78bd
000001b0: 8d4f b33d bdee 843e 061b 12be 17b0 cabd
000001c0: c2d6 b8bd c33b 24be b01b 3fbd f305 fc3d
000001d0: 7045 08be dda9 873d 6053 833d 8e46 483d
000001e0: 5e8d e53c e25c a53d a44f ee3d 8e94 983d
000001f0: 1a4f d7bd 1423 a33d 1f64 d73d 2324 473d
00000200: b780 6cbe 3ba5 41bd 284d 3dbe a0b0 aabd
00000210: 68ff 27bc c88f f3bd bf52 053e 3780 413d
00000220: f299 2bbe b7a6 d63c f695 29be 09cb c2bd
00000230: 011f a3bc 0aa1 99bd de74 f23d 9b83 d3bd
00000240: 2bc6 f23d 77ec afbc ce58 bc3c 047c e23d
00000250: c3b2 70bd adbd 40bd c437 573d c2ca 03bd
00000260: aa33 aebd 4f3d 583b ee3f 9d3a 3b58 d1bc
00000270: a6e6 63bd c67e 533d fd69 493c 220e c8bd
00000280: 6518 72bd 24b9 d8bd 9b24 6a3d 1c76 823e
00000290: 5f25 c2bd 431d 0fbe 0002 08be 6420 d6bd
000002a0: d2a0 703d 04b5 a03c 9fdf 33be ed73 d73d
000002b0: 002f 15be adb4 d63d 952c fabc 872d a93d
000002c0: de67 773d bec3 343e 5851 f23c 86ab 543d
000002d0: a671 f7bd b5a2 e9bb 7e66 563d 127e 4d3c
000002e0: 8e45 8e3d ceff eb3d 5d8e ebbd c211 efbd
000002f0: 8dab d9bd 5cf5 b53d dcac a0bd 1689 6ebe
00000300: 6c94 813d f69a 2c3e 233d 5c3d 3333 febd
00000310: ff46 b73d 6c60 443e b7c9 863d 9f7f d2bd
00000320: de3e b63c e8f9 83bd 915f 1bbd 4b6d a1bd
00000330: 82c9 abbd 4523 b83d daa5 ac3c 59b8 2a3d
00000340: d503 bdbd b2e2 c03c 8db4 e73d 4d75 8e3d
00000350: 4c09 b6bb 3779 6fbd a698 863e 3a45 b93d
00000360: 7af7 87bd 07ed 653d 0b87 13bd a704 a4bb
00000370: 5bdd f4bc 8e49 9abd 5abf 78bd 857e 02bd
00000380: 748c e3bd 2948 2bbc 9ad0 b8ba b1f4 65be
00000390: c5a7 bc3d 5656 943b 62e7 093d f629 d8bd
000003a0: 50ec ed3a ecb5 5b3d 0d65 12bd 9f4e 0fbe
000003b0: cbb0 8f3d 6fb8 cfbd bd15 b73d 1470 063d
000003c0: d860 33bd a08f 94bd 4841 05be 1347 a0bc
000003d0: 0359 13be 5868 783d c83a 27bb 924e 563d
000003e0: 3ef8 8b3d 0179 b83d d02e eabd c831 a8bd
000003f0: e4fd 39bb 1ff1 f2bd 7e16 493e 5a3c 323e
0.07635647 0.08354457 -0.083908446 0.009482246 -0.05909009 -0.030621827 0.007917845 0.024073863
-0.07507219 -0.020640172 -0.05863286 -0.03268054 -0.08478521 -0.066341564 -0.07936 -0.088095866
-0.008365868 -0.107972465 -0.12109008 0.089093745 -0.09144983 0.08891198 0.0087930765 -0.018583413
0.09826457 -0.09916525 0.060841322 0.084765814 0.059369825 -0.12943818 -0.017474772 -0.012695895
-0.09423055 0.08673783 -0.022362862 0.0858983 -0.068384334 -0.056324437 0.047750417 0.016227495
0.072785884 0.054177675 0.07593912 -0.093616925 0.028696632 0.09432865 -0.07259565 -0.07813862
0.12496462 -0.10635565 -0.038605526 -0.08488284 0.03142459 0.0027993424 -0.137193 0.04517291
0.026508 0.043020763 -0.12431466 -0.14184888 -0.14571011 -0.059370674 -0.1128423 0.06433067
-0.017239168 -0.050084185 0.023957849 0.23753828 0.13875529 0.11093791 -0.18576154 -0.33496404
-0.10445219 0.19208893 0.034454837 0.20542784 0.027889514 0.15869005 0.10398414 0.10897633
0.06814908 -0.006805929 -0.032562602 -0.12126438 0.066823736 -0.028784275 0.019905403 -0.028680766
0.08202378 0.0040353225 -0.13000606 -0.08691778 0.024244025 -0.20862553 0.05880494 -0.07486796
0.08931295 0.098380856 0.04957711 -0.10412051 0.04732125 0.15951863 0.09953357 -0.007268889
-0.12306676 -0.1394913 0.032552794 -0.060762037 0.087554075 0.25963393 -0.14268121 -0.09896868
-0.09025337 -0.16038422 -0.046657264 0.12305822 -0.13307738 0.06624196 0.06412387 0.04889541
0.02802151 0.080743566 0.11636284 0.074502096 -0.10513134 0.07965675 0.105171435 0.048618447
-0.23095976 -0.047276717 -0.18486464 -0.0833447 -0.010253765 -0.118926585 0.13019846 0.047241416
-0.16757944 0.026202543 -0.16561112 -0.09511382 -0.019912245 -0.07501419 0.11838697 -0.10327836
0.11854204 -0.02147506 0.022991564 0.1105881 -0.05876423 -0.04705589 0.052543417 -0.032175787
-0.08505948 0.0032995527 0.0011997202 -0.025554767 -0.055639885 0.051634572 0.012293336 -0.097683206
-0.059105296 -0.10582188 0.057163816 0.25480735 -0.09479784 -0.13976006 -0.13282013 -0.10455397
0.05874712 0.019617565 -0.17565773 0.10520158 -0.1456871 0.1048368 -0.030538836 0.08260637
0.06040179 0.17652795 0.029579803 0.05192139 -0.120822236 -0.007129992 0.052343838 0.012542265
0.0694686 0.115234 -0.11501763 -0.11673309 -0.10628424 0.08884689 -0.0784547 -0.23294482
0.06327137 0.16855988 0.053769242 -0.12412109 0.08949088 0.19177407 0.06581443 -0.10278248
0.022246774 -0.0644415 -0.037932936 -0.07882174 -0.08388044 0.08991102 0.021075178 0.041679714
-0.092292465 0.023545597 0.11313734 0.06955967 -0.0055553075 -0.05846521 0.26288337 0.09046407
-0.06638999 0.05613425 -0.03601746 -0.0050054374 -0.029890707 -0.07533561 -0.060729362 -0.03185894
-0.11110774 -0.010454216 -0.0014100254 -0.22456624 0.09211687 0.0045268936 0.03366793 -0.105548784
0.0018152092 0.05364029 -0.0357409 -0.13994835 0.070161425 -0.101426 0.08939693 0.03282173
-0.04379353 -0.07253957 -0.13013184 -0.01956514 -0.14389424 0.060646385 -0.0025517214 0.052321024
0.06834458 0.09007455 -0.1143471 -0.0821262 -0.002838009 -0.118623964 0.19637486 0.17405835

critic.0.bias f4 [64]
00000000: beaa 19be 542b f93d 667f 88bd cfd9 afbd
00000010: 46b1 3dbd 3185 05bd 9cb7 8cbc 301a 23be
00000020: 55e3 49be cab2 edbd 3a60 d5bd 34de 45bc
00000030: ff9a 39bd d280 0dbe 491c 31be 01bc 0f3e
00000040: 7cc8 3abc d2ed 833e 32e3 04be 8a7e 5d3d
00000050: 5e90 97bd d395 12be 15e2 6cbd a9b0 8abd
00000060: 00c1 e53d 358a 21be 4e88 d7bd 0de8 c3bb
00000070: dd3c b1bc 3cb6 f6bc 3660 bdbc df94 9abc
00000080: 08ce e3bc 70a0 f1bc cb85 953b 77c4 723d
00000090: 7698 4cbe 0da7 813d 9af5 41bd 3e86 f63d
000000a0: 65ba 11be 8d8d 2abe ce8f 3cbe 9c3b 69be
000000b0: 658e 10be 8d2b 37be b16c cf3d 536a a13c
000000c0: d3b4 103d 829d bbbc 4be8 353e 7da5 b2bc
000000d0: 011c 74bd bbb3 d2bd 699d c1bd 89e6 52be
000000e0: deae 803d be26 74bc 90d5 56be 9496 84bb
000000f0: acaf 7bbb 9cb6 1ebe 7ac0 3bbe e2aa 4abe
-0.15006539 0.12166467 -0.06664924 -0.085864656 -0.04631164 -0.032597724 -0.017177396 -0.15927958
-0.19715627 -0.11606367 -0.104187444 -0.012076903 -0.04531383 -0.13818672 -0.17295946 0.14036562
-0.011400338 0.2576738 -0.12977293 0.054075755 -0.07400583 -0.14314966 -0.057832796 -0.067719765
0.112184525 -0.15775378 -0.10524045 -0.0059785903 -0.021635467 -0.030116193 -0.023117166 -0.018869815
-0.027808204 -0.029495448 0.0045630685 0.059269395 -0.19980034 0.063306905 -0.047353365 0.120373234
-0.1423126 -0.1665556 -0.18414232 -0.22776645 -0.14116819 -0.17887707 0.10128153 0.01970402
0.035328697 -0.022902254 0.17764394 -0.021807427 -0.05959702 -0.10288187 -0.09453852 -0.20595755
0.06283353 -0.014901815 -0.20979905 -0.0040462706 -0.003840427 -0.15499347 -0.18335143 -0.19791749

critic.2.weight f4 [64, 64]
00000000: bf41 edbc 2853 54bd 4560 a8bc 7010 6dbc
00000010: 12ea 27bc d8b5 733d 9905 43be 8b31 053d
00000020: 340f 4abd 3702 8abd 0a62 00bd 99f5 363e
00000030: 0e0a 4fbd 3b8e 613d 2d0a c3bc d26b cd3d
00000040: 026d d7bd 2a1f e33e a33c 26bd f063 8b3d
00000050: c710 c3bd 4c71 bfbb e063 843d 5e7b d13d
00000060: 646f 2fbe b394 debd 9f22 8abd 9469 72bc
00000070: 9030 b13d cf6e 893d ad9b 543d 0552 0b3e
00000080: c758 68bd 7f74 1bbe 9bfd ca3d 90ef 233e
00000090: 0c1b debd 9085 9b3d cff0 073d 89d1 e43d
000000a0: 4baa 5abd 96d6 603d 8bcc f13b 1418 1cbe
000000b0: 7fe8 0cbe 9625 d9bd c799 a13c f517 56be
000000c0: b955 1e3e 03be 243d 6bca 3fbe fbce fd3d
000000d0: 6307 83be 87ab 1abd 7344 9fbe 488a 5ebd
000000e0: 3af8 dd3d b72b 1c3d 461f 2a3d e9d3 39be
000000f0: 4ea4 91bd 030b cfbb 6cd7 0c3e 45f0 13be
00000100: e049 6dbc 02b3 87bc f901 1dbd 0493 1dbd
00000110: 3e76 dbbd 5afe 8ebd 7f69 babd d4f9 b33d
00000120: edee 62bd 3499 d8bd d3fa d4bd d941 dbbd
00000130: 6569 45bd 6a2b 8abd 6054 d7bd 6c27 64bd
00000140: 868a 6a3d 3c9b e3bd 1a29 2abd a3db bb3d
00000150: a112 4c3d d869 633c 666e 0d3d 3776 98bd
00000160: 011c e8bd 6837 b7bd 8ddc b6bd 100f 9a3d
00000170: 66de 57bc ab43 ecbd 620c e7bd 7d58 d7bc
00000180: ccbd 4a3d 8b44 4abc b404 ef3b c9f0 84bd
00000190: 463d b9bc ae1d 623d 1871 ba3c 61c7 47bd
000001a0: 50cf ff3d a615 8c3d 744b ea3c 863f 2d3d
000001b0: 4e0c 883d 7c87 01bd c86a 0d3c 07f8 53bd
000001c0: d1b0 66bd 907e 4dbc 12df f1bd b5b3 903d
000001d0: c1e9 cebd d471 09be 823e 6fbd 400a 883d
000001e0: e26a c9bd 257b 39bd 7e5d 623d 95b8 d1bd
000001f0: 9066 c63d 008a 5d3d a74d c33c 63f1 45bc
00000200: f974 b13d 98e1 a9bd c75b 94bd 0ec1 933c
00000210: e417 1abe 34e2 873c 8ba8 6d3d 80c9 8e3c
00000220: 6453 fabd 3d63 2139 ddb1 9dbc 3642 ffbd
00000230: 458d 88bd 2394 a0bd 8008 bc3d dea7 ecbd
00000240: b5a5 eabd 80a9 cfba 1913 293d 49b6 9ebd
00000250: b25e a33c d42c 813d 7dc6 e53d c155 993d
00000260: c396 8ebd 2aa7 a83d c3c8 593d 957c 0ebe
00000270: 1adb 083c bbf5 0abe 6f31 a93d 0c99 01be
00000280: 45fc 6f3d fe1e 90bd 57fb ab3c c3c1 17be
00000290: cce8 883d 8b35 d03c d0ff f03c 34d2 05be
000002a0: 7e99 d53d 3eed 94bc d049 62bd 8c41 f8bc
000002b0: ab07 45bd b8fd 41be 855b 91bc b6a0 fb3d
000002c0: 4319 f43c eace d63c eb01 83bd 1976 e4bd
000002d0: 50c8 963d 74bb c2bc caa5 5abd 8546 403c
000002e0: 6f8c 76bd 19f2 fdbc b7b5 25be 8600 d0bc
000002f0: 4da0 0dbd af49 d4bd aec7 6a3d a2dd 1abe
00000300: bb18 0dbd fce7 e7bc cac0 c6bd 4df5 1bbd
00000310: 9a6e 693d 0321 e3bd ef81 863c 6022 9cbc
00000320: c522 debd 9e31 0abe fc4d 31bd e71b 8ebd
00000330: 37ef 0c3c 9009 08be b555 1d3e 45c8 f23d
00000340: 75e3 2cbd 757d b3bd aaad f8bd a400 143d
00000350: 6ff3 233d 4d79 e13d 585e 8fbd 076d b73c
00000360: 5de5 43bd 3d60 0cbe db1e d63c 2e86 64bd
00000370: 31bc 723d 3e1a aabd fcee 043d 853b 71bd
00000380: 4273 93bc 5ce6 8a3d 9a5f 38bd 76bb e1bd
00000390: fe29 373d 9aae dabd c982 b1bd edae 32bd
000003a0: cfd8 95bd abf8 b23d f2d0 e2bd 15ff 9b3d
000003b0: 7ba0 e4bd 522c ee3d b5d0 65bd 1ecb a0bd
000003c0: 674c d7bd 5fd8 413b 80be 8fbd 882f dbbd
000003d0: 2eef 483d 8927 103d 6959 d1bd 2fb8 b73d
000003e0: 4f8b 0abd edf5 863d 19df c1bd 4f56 2abe
000003f0: 087b dcbd bd0b e8bd 31b5 d93d f2a9 d83d
-0.028962014 -0.051837116 -0.020553717 -0.014469251 -0.010248678 0.05949959 -0.19045104 0.03251795
-0.049330905 -0.06738704 -0.031343497 0.17867126 -0.0505467 0.055067282 -0.023808563 0.10030331
-0.105188385 0.44359714 -0.04058517 0.06806171 -0.095246844 -0.0058423635 0.06464362 0.102286085
-0.17132336 -0.10868206 -0.06744885 -0.01479568 0.08651841 0.06710588 0.051906276 0.13605507
-0.05672529 -0.15181158 0.09911653 0.16009355 -0.108450025 0.075938344 0.033188637 0.11172778
-0.05338506 0.054892145 0.0073791198 -0.1524356 -0.13760565 -0.10602872 0.019726647 -0.20907576
0.15462388 0.04022027 -0.1872956 0.12392994 -0.25591573 -0.037761237 -0.3110691 -0.054331094
0.10838361 0.038127627 0.04153373 -0.18147244 -0.07111417 -0.0063184514 0.13754052 -0.14447124
-0.014482945 -0.01656485 -0.03833196 -0.038470283 -0.10715912 -0.069821075 -0.09102153 0.08787885
-0.05540364 -0.10576096 -0.103994034 -0.10705919 -0.048196215 -0.06746562 -0.1051414 -0.055701658
0.057261012 -0.11113593 -0.041543104 0.09172752 0.049822453 0.013880216 0.034529112 -0.07444423
-0.11333466 -0.08946115 -0.089287855 0.07522404 -0.0131755825 -0.11536344 -0.11281659 -0.026287312
0.04949741 -0.0123454435 0.007294262 -0.064912386 -0.022612225 0.055204086 0.022759005 -0.048774127
0.124907136 0.068400666 0.028600432 0.04229691 0.06642972 -0.03162335 0.008631416 -0.05175021
-0.05632097 -0.012542382 -0.118101254 0.070655264 -0.10103179 -0.13422328 -0.05840922 0.0664258
-0.098348394 -0.045283455 0.055264942 -0.10240284 0.09687531 0.054086685 0.023840738 -0.012081477
0.08664889 -0.08294982 -0.07244068 0.018036392 -0.15048176 0.016587354 0.058022063 0.017430067
-0.12222937 0.00015391126 -0.01924985 -0.124638006 -0.0666757 -0.07840755 0.09181309 -0.115554556
-0.11457387 -0.0015843362 0.04127798 -0.07749612 0.019942615 0.063073784 0.11219499 0.074870594
-0.06962349 0.08235009 0.053169977 -0.13914712 0.008353019 -0.13570301 0.08261382 -0.12656039
0.058590192 -0.07037161 0.020993872 -0.14820008 0.066850275 0.025416156 0.029418856 -0.13068467
0.10429667 -0.018179532 -0.055246174 -0.030304693 -0.048103016 -0.18944442 -0.017743835 0.122865126
0.029797202 0.026221711 -0.0639685 -0.11155338 0.07362425 -0.023771025 -0.053380765 0.011735563
-0.06019252 -0.03099923 -0.161826 -0.025390875 -0.034576703 -0.103656165 0.057319336 -0.15123609
-0.034447413 -0.028308861 -0.0970474 -0.038075734 0.056990243 -0.11090281 0.016419379 -0.01905936
-0.108464755 -0.1349549 -0.043287262 -0.06938916 0.008601955 -0.13284898 0.15364726 0.11854605
-0.042209107 -0.087641634 -0.12142499 0.036133423 0.04002708 0.110094644 -0.070004165 0.022390855
-0.04782616 -0.13708587 0.02613776 -0.055792026 0.059261505 -0.083057866 0.032454476 -0.058894653
-0.017999295 0.06782219 -0.045013048 -0.110220835 0.04471778 -0.10677834 -0.086675234 -0.043623853
-0.073167436 0.08738836 -0.110750094 0.076170124 -0.11163422 0.11629547 -0.05610724 -0.078512415
-0.105126195 0.002957843 -0.07018757 -0.10702425 0.049056225 0.035193954 -0.10222132 0.08970677
-0.03382426 0.06589875 -0.094663806 -0.16634487 -0.10765654 -0.11330364 0.10630263 0.105792895

critic.2.bias f4 [64]
00000000: a1a8 453c fd1c abbd a4d6 40bd f05b 6cbd
00000010: 5250 cdbd ef6c bcbd 24f0 9439 7073 b9bd
00000020: 313f a3bd a501 debd a9d0 9c3d 92d1 cf3c
00000030: 8753 c93c 425e 30bc 0313 41bd 2818 b3bc
00000040: 010c 5a3b c702 08be 393b d03c ff42 31bd
00000050: 8732 3e3e 80e7 6a3e 13c9 e5bd 07bf f7bd
00000060: 03eb 3f3d 462a 01be 4ded c4bd ee75 34be
00000070: b9a9 47bd 8154 9e3c 6a85 78bd 1ad7 1c3e
00000080: 1094 bdbd d869 dabd 4754 b53d 06b6 93ba
00000090: 6e86 cdbd 50a7 3dbe 6c23 fb3c d905 4fbd
000000a0: 4441 9c3d 0f0d 92bd 2d9f 31bd 00a2 febb
000000b0: ebc7 b5bd 8878 de3a eef3 9abd 29d2 ba3d
000000c0: 0aa6 d23c 443e 1bbd b15e a03c 9626 07be
000000d0: 229c d4bd 1dca efbd 127a e33c beb7 613d
000000e0: 2592 6f3b 50b6 74bd 4670 39bd 60f8 95bc
000000f0: 8836 12be 74ff b1bc cea1 f1bd 4fae f1bd
0.01206413 -0.083551385 -0.047079697 -0.057704866 -0.100250855 -0.09200465 0.00028407678 -0.09055221
-0.07971037 -0.108401574 0.07656986 0.025368486 0.024575962 -0.01076466 -0.04713727 -0.021862105
0.0033271315 -0.1328231 0.025418865 -0.043276783 0.18573962 0.22939873 -0.112199925 -0.120969824
0.046854984 -0.12613782 -0.09615574 -0.17623112 -0.048745845 0.019327404 -0.06067411 0.1531643
-0.09256756 -0.10664719 0.08853965 -0.0011269457 -0.10035406 -0.18520856 0.030656539 -0.050542686
0.07629636 -0.07131397 -0.043364692 -0.0077707767 -0.08876022 0.0016973177 -0.07566057 0.09122116
0.02571394 -0.037901178 0.019576402 -0.13198313 -0.103813425 -0.11708472 0.027768169 0.05510687
0.0036555615 -0.05974418 -0.045273088 -0.018306911 -0.14278615 -0.021728255 -0.1179844 -0.11800825

critic.4.weight f4 [1, 64]
00000000: abd4 5cbd 1be2 fd3c 8849 3bbc 0582 25bc
00000010: af04 b9bd 61d6 a63b 020a 1cbe 9cb9 d93d
00000020: 955b 283d 679e 8c3b a41d 6c3d 7b98 13bc
00000030: 84c9 3fbd 6c0c edbb 56bc 89bd b438 283c
00000040: a9f1 5fbe 4413 59bb 83f1 91b9 b1c8 53bc
00000050: cdba 4fbd c57f 093e 078f ddbd 499f 5c3b
00000060: a8fd e2bc 8dbc 24bd 0165 913a 57c3 aa3b
00000070: 6068 54bc d003 8ebc 2997 f93b cbfa c23d
00000080: aefc 193b 0329 7f3a b5ab 3ebe ef65 b5ba
00000090: 6244 07bc 37f8 393c c7f4 2bbe 054a 8e3d
000000a0: 1e24 7cbd f064 7b3d 16e1 b93d 22b6 07bb
000000b0: 9104 c63a d760 f93d bb20 7fbc aba2 f03d
000000c0: 0120 7d3c 60ae b83a 44aa b0bb 3075 743d
000000d0: da4c 8e3d 1ece ff3c 0ef8 65bd 0647 11be
000000e0: f487 82bb edc6 2638 8472 83bd fe93 a3bc
000000f0: 3710 7cbd 8c7e 593c eecc 013c 942e 9dbd
-0.053913753 0.030991605 -0.011431105 -0.0101018 -0.090340964 0.005091474 -0.15238193 0.10631105
0.041102964 0.004291344 0.057645455 -0.009008522 -0.04682304 -0.007234147 -0.06725375 0.010267425
-0.2186953 -0.0033123055 -0.00027836495 -0.0129262665 -0.050715256 0.13427646 -0.10818296 0.0033664277
-0.027708843 -0.04021888 0.0011092724 0.0052112746 -0.012964338 -0.017335802 0.0076168966 0.09520491
0.0023496556 0.0009733589 -0.18620189 -0.0013839583 -0.00825605 0.011350683 -0.16792594 0.06947712
-0.06155788 0.06137556 0.09076135 -0.0020707925 0.0015107562 0.12176674 -0.015571768 0.117497765
0.015449525 0.0014090054 -0.005391391 0.05968207 0.06948252 0.031226214 -0.056144767 -0.1418725
-0.003983492 3.976275e-05 -0.064183265 -0.01996803 -0.0615389 0.0132748 0.007922394 -0.076749
