RL/CC2-Cardiff-implementation/GT-Cardiff-CC2/Models/PPOxCCE-C3/4000.pth (torch, 78850 bytes, 11 tensors)

actor.0.weight f4 [64, 62]
000000 ed 40 79 ba e7 86 8b 3d 2a 12 d6 bd 3c 6a bf bd
       -0.0009508271 0.0681284 -0.10452683 -0.093464345
000010 a5 fa fa bb 5c 9b ae 3d 24 78 ea 3a b9 04 4c 3d
       -0.0076592737 0.08525726 0.0017888588 0.04980919
000020 ab 7f d8 bb 0d 68 1b 3d 04 10 5c bd f3 d6 80 bd
       -0.006607016 0.037941027 -0.05372621 -0.06290998
000030 44 da ad bd d2 c0 9b bd 95 98 ea bd b6 82 9b bd
       -0.084888965 -0.07605137 -0.11454884 -0.075932905
000040 81 a6 4d 3d 4d 10 9c 3d 77 54 b0 bd 46 86 62 bd
       0.05020762 0.076202966 -0.086098604 -0.055303834
000050 5d f1 3c 3d 15 fb d7 3d 86 1c d6 bc 12 a2 c2 3d
       0.04612862 0.10545937 -0.026136648 0.09503569
000060 58 b1 a7 bc c0 2c 5c 3c cf 82 eb 3d 99 48 f1 bd
       -0.020470306 0.013438404 0.11499559 -0.11781425
000070 81 46 02 be c7 4a 4a bd 72 d8 60 bd 26 9e d2 3c
       -0.12722208 -0.04938772 -0.05489392 0.025710177
000080 cf 96 a8 bd 33 76 6f bd b9 b6 b5 bd 94 98 f3 bd
       -0.082318895 -0.058462333 -0.08872742 -0.11894336
000090 23 18 c7 bd 0b 50 b0 3d 81 ba 91 3d 2f 51 13 3d
       -0.097214006 0.08609017 0.07115651 0.035966095
0000a0 2e e1 a0 bc d9 58 85 bd 18 ba fc bc 1b 09 df bd
       -0.019638624 -0.06511087 -0.030850455 -0.108904086
0000b0 01 ec 9b bd 01 f1 8e bd 8b 41 91 3d 30 f3 50 bb
       -0.076133735 -0.069795616 0.070925795 -0.0031883232
0000c0 46 65 db bd 13 5a 7e bd cb 33 68 3d 5d 56 9f 3d
       -0.10712676 -0.06209762 0.05669002 0.07780144
0000d0 84 74 4e 3d 3a f6 5f bd 2d 17 5f 3d a7 52 e9 bd
       0.050404087 -0.05467818 0.05446546 -0.11392718
0000e0 d8 83 64 bd 70 a7 c9 bd 87 f0 00 be f0 2c 6e bd
       -0.0557898 -0.09846389 -0.12591754 -0.058148324
0000f0 ec 2e 1b bd 12 eb fb bc 94 11 9a bd 63 27 1d 3d
       -0.037886545 -0.030751739 -0.07522884 0.03836764
000100 1b c9 8e 3d 8d 50 83 bc e3 7d 39 bb 9e 82 f3 3b
       0.069719516 -0.01602962 -0.0028303794 0.0074313423
000110 82 62 01 be a6 5e de bd 37 21 99 bd 73 66 82 bd
       -0.12635234 -0.108578965 -0.07477038 -0.06367197
000120 44 a0 ba 3e 64 1c 4a 3e c0 4c ab be 75 93 7e be
       0.36450398 0.19737393 -0.33456993 -0.24860938
000130 75 47 40 3d 2e 5d c2 bc 4d 6a 3f 3c b5 b7 a2 bd
       0.046943147 -0.023726072 0.011683059 -0.079451956
000140 d5 65 f2 bd f4 17 e7 3d 48 c4 c5 3d 05 ba 01 be
       -0.11835829 0.112838656 0.09656578 -0.12668617
000150 23 bb c2 3c 66 43 af bc fb 34 ab bc 27 1f 6e bd
       0.023770874 -0.021394443 -0.020899286 -0.058135178
000160 12 0b 48 3d 51 0e 9a bd 5a 45 b7 3e c9 fa 83 3e
       0.048838682 -0.07522262 0.357951 0.2577727
000170 c9 8d 95 3e e8 c0 ae 3e 95 b6 00 be 40 b9 a8 bd
       0.29209736 0.3413155 -0.1256965 -0.08238459
000180 b6 de 81 3d 05 c1 d9 3c 9c b0 80 3d 8d 45 d9 bc
       0.06341307 0.026581297 0.062836856 -0.026522422
000190 5f 87 9d 3d 87 fa 89 3e 09 0c 30 be 4a 16 e6 3c
       0.076918356 0.2694895 -0.17192091 0.0280868
0001a0 ab be b5 bd 61 8e 90 3a ba 55 d8 bd e4 ca 0e be
       -0.08874258 0.001102876 -0.10563226 -0.13944584
0001b0 68 0f 69 3a b5 05 17 be 00 7e 27 be 7e 67 c0 bd
       0.00088905403 -0.14748271 -0.16356659 -0.093947396
0001c0 8b 6c d6 bc c1 dd 93 3d 72 3e b2 3d 0e 59 f8 bd
       -0.026174804 0.072200306 0.08703317 -0.12126361
0001d0 24 b7 9c bc aa 59 ae bc d8 bb 29 3e a8 c0 f6 3c
       -0.019130297 -0.02128299 0.16575563 0.030121163
0001e0 8b b2 35 3e ad 84 e8 bc e5 8c 41 bd 09 c4 50 bc
       0.1774389 -0.028383577 -0.047253508 -0.012742051
0001f0 3e 7f f9 bd 29 29 9a bd 3f 38 02 bd 89 64 7d bd
       -0.12182473 -0.07527382 -0.03179192 -0.061863456
000200 1f b0 a4 3c b1 a4 6e be 8a bf 90 be cc d2 e5 be
       0.020103512 -0.23305012 -0.28271133 -0.44887388
000210 a7 37 1a be ec 99 b1 bd e4 4c 3f 3e 5c e0 d8 3d
       -0.15060292 -0.086719364 0.18681675 0.10589668
000220 5e 64 43 bd d3 9f aa bc 89 f0 99 3d 52 81 80 3e
       -0.04770314 -0.020828163 0.075165816 0.25098664
000230 0c 60 f6 3d f8 2c a5 3d 5c f0 f6 3d 17 7c 16 bc
       0.12030038 0.08065218 0.12057564 -0.009184859
000240 6a a6 e9 bd 86 9c 76 bd d4 19 b1 3d 1e d1 57 ba
       -0.11408694 -0.060207866 0.086475044 -0.000823276
000250 a7 47 81 bd 98 50 c7 bd 5f 69 f3 bd fc 85 db bd
       -0.06312495 -0.09732169 -0.11885332 -0.10718915
000260 ea 45 0b 3e 3f fb fa 3d ba 35 75 bb 1e 42 47 be
       0.13600889 0.12254953 -0.0037416057 -0.19458815
000270 4e 3e a2 3d 1c 87 cb bd b6 f2 db bc 80 ec 52 bd
       0.0792204 -0.099378794 -0.026849132 -0.051495075
000280 40 2a 22 3e 9b 58 e7 3d 5d bc 8e bd 03 ee d1 bc
       0.1583643 0.11296197 -0.06969521 -0.025626188
000290 93 08 56 bd b0 ad 8d 3e c4 fa 3e be 69 3a eb 3c
       -0.05225427 0.27671576 -0.18650347 0.028714376
0002a0 26 93 18 be 30 cc 62 3d 8d 28 30 3e 4e a7 58 be
       -0.14899883 0.05537051 0.17202969 -0.21157572
0002b0 22 e3 47 bd 9d ef c1 bd dd 56 80 be 4b 9f 64 be
       -0.048800595 -0.09469531 -0.2506627 -0.2232639
0002c0 ff 1b 70 bc 5b 3d bb bd 6b 6f 2f 3e b2 ae 32 3d
       -0.014655112 -0.09142562 0.17132346 0.043623634
0002d0 a6 68 1d 3e f6 d2 d9 bc c7 b5 73 3e fe 72 74 bc
       0.15371951 -0.026589852 0.23799811 -0.014919994
0002e0 52 d8 28 3d ea 38 bb bd b0 2f fa bc 74 cc da bc
       0.041221924 -0.09141715 -0.030540317 -0.026708819
0002f0 2a 57 d6 bd 7f ee 8c 3d 00 9d e2 ba 51 20 ef 3d
       -0.10465844 0.06881427 -0.0017289221 0.11676086
000300 23 9f 06 3e a9 bb 30 3e 1e 02 fa bc 39 b5 b0 3b
       0.13146643 0.17259087 -0.030518588 0.005392697
000310 6d 19 cd be a4 06 40 be 3f 20 17 be 45 2a b3 3d
       -0.4005846 -0.18752533 -0.14758395 0.08748297
000320 67 97 2a 3e 08 5d d1 3e aa 9c c4 bd 2c 8f b2 bd
       0.16659318 0.4089129 -0.09600194 -0.08718714
000330 24 07 97 bd d1 0c b6 3d b2 fd 3a bd 64 63 db 3d
       -0.07374409 0.08889163 -0.0456521 0.10712317
000340 05 1b 3c 3d 64 bd 83 3c 2e d4 77 ba 38 aa cd bc
       0.045924205 0.01608152 -0.00094539195 -0.02510558
000350 87 88 82 3c fe 90 ed bc 3f 6b 4a 3e e8 2f ee bd
       0.015934242 -0.028999802 0.19767474 -0.11630231
000360 e1 ef 61 be 08 12 b0 be 9d 06 d2 3d 8b 14 d3 bd
       -0.22064163 -0.34388757 0.10255168 -0.10306653
000370 84 69 15 bc 0e a6 00 3e 86 46 91 3d 2c ac 2e 3e
       -0.009119395 0.12563345 0.070935294 0.17057866
000380 2d 77 d8 bd 9d 06 94 bc f4 6c fc 3d b0 ef a9 3b
       -0.10569606 -0.01806956 0.12325469 0.0051860437
000390 4b ab 5b be b7 bc 42 be 67 50 06 bd 97 bc 66 3e
       -0.21452062 -0.19017301 -0.03279152 0.22532879
0003a0 f7 85 2a 3d a5 e8 6a bd 5c 4f 03 3d 8b dc 03 be
       0.041631665 -0.057350773 0.032058105 -0.12877099
0003b0 30 f8 5e 3d bb 28 4d be 7d 78 5c bd 7c f7 c5 3d
       0.05443591 -0.20035069 -0.053825844 0.096663445
0003c0 ec 39 0b bd 8b de 72 3e dc 46 62 3d 82 2f 55 39
       -0.033990785 0.23717706 0.055243358 0.00020330961
0003d0 17 b1 0f 3d 87 87 82 be f3 3a c9 3d 7d 1a ab bd
       0.035080995 -0.25494024 0.09825697 -0.083546616
0003e0 fc 6c e5 3a 05 e2 b0 bc 54 fc 88 bd 3e 82 89 3c
       0.0017503793 -0.02159215 -0.06688753 0.016785737
0003f0 2f 5e 86 3e 60 63 da 3d 76 81 a6 3d 38 0a 43 3e
       0.2624373 0.106634855 0.081301615 0.19046867

actor.0.bias f4 [64]
000000 80 c1 07 be 14 d2 b3 3d 07 39 9a 3d 6a f6 73 bc
       -0.13257408 0.087803036 0.07530408 -0.014890293
000010 0f d9 c2 bd c7 80 1b be 59 a7 04 3e 40 af 23 bd
       -0.09514057 -0.15185843 0.12954463 -0.039962053
000020 9c 69 57 3e 6d 66 7d bd 05 e0 7c bd 25 75 8c bd
       0.2103638 -0.06186526 -0.06173708 -0.06858281
000030 f5 e5 2d 3d 5a 5e 84 3d 5d b0 a5 bd 69 04 c2 3d
       0.042455632 0.06463309 -0.08090279 0.094734974
000040 35 47 35 3d 26 a9 60 bd 14 03 53 bd e6 e2 4b bd
       0.04425736 -0.054848813 -0.051516607 -0.049776934
000050 2d a7 83 bd b8 36 fc bd d2 a1 0b 3d 1f 4f db bd
       -0.064283706 -0.12315124 0.03408987 -0.107084505
000060 1e c1 1b 3d b3 89 bf 3d 33 d6 2b 3d fe 2b ae 3d
       0.038025968 0.09352436 0.041952323 0.085044846
000070 20 fc a7 38 de 0f 81 3d 2e 42 f3 bd 52 81 27 3e
       8.0101425e-05 0.063018546 -0.11877857 0.16357926
000080 64 88 06 be 5e 3e b2 bd dd 49 d6 3d 26 84 18 bd
       -0.13137966 -0.08703302 0.10463307 -0.0372354
000090 87 c8 02 3d 80 53 01 3e 42 6e 34 3d 38 67 68 bd
       0.03192952 0.12629509 0.044050463 -0.056739062
0000a0 dd 28 34 3e 75 a4 c9 3d fa 10 04 3d 53 17 f8 3c
       0.17593713 0.09845821 0.032242753 0.03028456
0000b0 07 5b 13 3c 44 15 48 3e ac db ad 3d 54 a4 a3 3d
       0.008993871 0.19539362 0.08489165 0.079903275
0000c0 f1 70 dd bd f9 1c 07 3e 74 db a0 3d 29 19 9a bd
       -0.108125575 0.13194646 0.07854357 -0.0752433
0000d0 54 18 08 bd 31 7c 4e bc 30 9a 0b 3e b7 19 71 bd
       -0.033226326 -0.012602852 0.13633037 -0.058862414
0000e0 f3 d8 c6 3d 8b ee be 3c 0b 7f 07 be d1 18 09 be
       0.097093485 0.023307106 -0.13232057 -0.13388373
0000f0 7e b6 0e 3e 9c ce 9b bc 14 f5 81 3b 96 7a 34 be
       0.13936803 -0.019019417 0.003965983 -0.17624888

actor.2.weight f4 [64, 64]
000000 3c f2 87 bd 7d 0b 0b be e5 e3 b8 3d 6c 84 e6 bd
       -0.066379994 -0.13578601 0.090278424 -0.11255726
000010 83 12 0d bd 58 e2 8e 3d b5 b7 8a bd 11 58 c9 bd
       -0.034441482 0.069767654 -0.067733206 -0.098312505
000020 05 55 32 be 23 5e 50 3b 7c 73 80 bd 76 7f d9 bb
       -0.17415245 0.003179439 -0.06272027 -0.006637509
000030 b6 64 40 bb c5 a2 55 bd 50 f4 83 3d 97 2c 75 bd
       -0.0029356903 -0.052157182 0.06443083 -0.059856977
000040 39 15 c2 bd 7a 47 cc bd 96 79 60 3c 36 d6 56 bd
       -0.09476704 -0.099745706 0.013700863 -0.05245038
000050 68 da 05 3c 3a 5c 5b bd ce ba f8 3c b8 1c a0 bd
       0.008169748 -0.05355475 0.030362513 -0.07817978
000060 08 53 a2 bd 1b 52 8b bd d9 0e fe bd 34 af 48 3b
       -0.07925993 -0.0680277 -0.12405176 0.0030622007
000070 a4 2f c2 bd f9 63 de 3c 9e 0d 23 3d ae 2d c6 3c
       -0.09481743 0.02714728 0.03980791 0.024191704
000080 70 4a 23 bd cc 44 ab 3c f9 d3 06 be 8f 31 12 be
       -0.03986591 0.020906828 -0.13166799 -0.14276718
000090 05 c9 f2 bc 40 99 d2 bd 6e 75 eb bd fb 1e 02 3c
       -0.02963687 -0.10283136 -0.11497007 0.007941957
0000a0 15 42 80 3d 43 57 81 bd 46 83 46 bd 8f 48 e1 bd
       0.06262604 -0.06315472 -0.048465036 -0.110001676
0000b0 03 69 33 3a 86 01 ad bc fd 51 cf bc 91 be 29 3d
       0.0006843956 -0.02111889 -0.02530765 0.041441504
0000c0 fe 71 04 be 83 ab b9 bd c6 41 ed bd 47 54 30 3d
       -0.1293411 -0.090659164 -0.11584811 0.043049123
0000d0 9b f2 b4 3d 53 4b 61 3d ca 5d 6e 3d f0 c7 4a 3d
       0.08835336 0.055003475 0.058194913 0.04950708
0000e0 92 33 e8 bd 1c a6 ad bd f0 e0 ae bb 10 a6 03 be
       -0.11337961 -0.084789485 -0.0053368732 -0.12856317
0000f0 2f de 0c 3d ad 8c d9 3c 59 d4 46 bb 61 5a ce bd
       0.03439158 0.026556337 -0.0030338971 -0.10075832
000100 8e 52 90 3d d5 07 9a bd 9d 30 b0 3d d9 b9 85 3e
       0.07046996 -0.07521025 0.08603022 0.26118353
000110 4c 72 7f 3b 5b 18 96 3c 0c 2e 50 3e 85 31 22 be
       0.0038978038 0.01832216 0.20330065 -0.15839203
000120 03 6d a6 3d cd 22 da 3d 88 b2 fc 3d 49 aa 7f 3e
       0.08126261 0.10651169 0.1233874 0.24967302
000130 3f df a2 be 4c 84 38 be 36 9e af bd ee a1 e7 bd
       -0.31810948 -0.18019217 -0.08575098 -0.113101825
000140 7b 52 36 3e 3f 8d d9 3d be cd 77 3e 62 a2 06 3e
       0.17804901 0.10622644 0.24199578 0.13147882
000150 f0 a4 4d be 0e 9c 0a be 53 e8 8b bd 27 56 63 3d
       -0.2008245 -0.13536093 -0.06831422 0.055502083
000160 b0 e1 3e be 76 21 f4 bc 58 74 0d 3d 37 5f 67 3d
       -0.1864078 -0.029801112 0.034534782 0.05648729
000170 7f 89 8b 3c 4e 60 fc 3d e0 a7 ee bd 4d a1 b4 3d
       0.017033337 0.12323056 -0.11653113 0.08819828
000180 8b 55 75 bd 76 04 36 bd 50 9b 15 3d 53 f3 20 be
       -0.059896033 -0.044437848 0.03652507 -0.15717821
000190 80 c0 87 bd e3 f6 04 3e 0f 35 60 3e 98 61 06 3c
       -0.06628513 0.12984805 0.2189524 0.008201979
0001a0 81 0d b2 39 4f 35 5f 3e 25 a6 42 3e 6a 62 04 3e
       0.00033960867 0.2179768 0.19008692 0.12928167
0001b0 57 15 89 3d e3 62 11 be 92 fb 78 bc fb c0 1f bd
       0.066935234 -0.14197879 -0.015196698 -0.0390024
0001c0 70 35 80 bd 32 3e b9 3d c9 4f 8b be b6 35 0a bc
       -0.062601924 0.09045066 -0.2720931 -0.008435657
0001d0 40 5a 33 3e 89 eb cd bd a7 a1 ab be 48 8c d7 3d
       0.17514896 -0.100546904 -0.33521768 0.105248034
0001e0 54 92 0c be 93 47 4a 3d 23 c6 a3 bc 8d 32 8d bc
       -0.13727695 0.049384665 -0.01999194 -0.017236019
0001f0 32 f1 12 be 72 66 3b 3d 2a cf eb bc 06 c5 c1 3c
       -0.14349821 0.045751996 -0.028785307 0.023653518
000200 fa cc 50 bd 7e 15 c1 3a 1a 96 13 be 7c 2d 6b bd
       -0.05097673 0.0014731137 -0.14412728 -0.057416424
000210 17 52 0f 3d 17 82 ef bb 1b 60 a2 bd 92 3c eb bd
       0.034990396 -0.007309209 -0.07928487 -0.11486162
000220 89 a5 58 bd a5 6f 21 be 0f ef 54 bc 20 00 a9 bd
       -0.05289224 -0.15765245 -0.012996449 -0.08251977
000230 2c 97 d5 3c 3c 64 1f 3d d6 b1 94 bb 6c ff 66 bc
       0.02607306 0.03891395 -0.0045378013 -0.014098983
000240 9c c7 17 ba 8e 25 28 3d f7 4e 63 3a bf 8e f4 3c
       -0.0005789937 0.04105144 0.00086711295 0.029853223
000250 11 36 b7 bd ee 22 ec bc eb db 1c be 53 a0 26 3d
       -0.08945859 -0.02882525 -0.15318267 0.04068024
000260 02 3e 10 be cc 07 59 bd 05 57 5f 3d 05 e2 e3 bd
       -0.14086154 -0.05298595 0.054526348 -0.11127094
000270 26 71 48 3d e0 8e ba bd e1 b1 69 3d 03 5b e4 3b
       0.04893603 -0.091092825 0.057054404 0.0069688573
000280 a5 44 d0 bd 0c 88 a9 3c 31 50 2f be 57 53 d9 bd
       -0.10169343 0.020694755 -0.17120434 -0.10611599
000290 e4 18 12 be 6b 4e d2 bb 05 eb a2 3c 1a 45 27 be
       -0.14267308 -0.0064180396 0.019887457 -0.16334954
0002a0 ea e7 82 3d 38 9e 4c bd ae e7 d0 bd ee 4c 36 bd
       0.0639189 -0.049955577 -0.102004394 -0.04450696
0002b0 5e f9 a5 bd 4e cb ce bb 17 7b 30 3c bc 6d 16 bd
       -0.08104204 -0.006310857 0.010771534 -0.036725745
0002c0 6c 6f 45 bc 91 04 62 3d 62 fc ae bd 5f 32 63 bd
       -0.012050491 0.055180136 -0.08544232 -0.05546796
0002d0 5d cf 00 be c1 d2 10 be 1a 59 8f bd 26 31 ce bc
       -0.12579103 -0.14142896 -0.06999417 -0.02516992
0002e0 f5 7a 2e be 6d 7e 2d 3c 8f c8 9f 3d 02 bf 48 3d
       -0.17039092 0.010589224 0.078019254 0.049010284
0002f0 ad 16 07 be 32 22 b5 3d e9 f8 cd bd ce 45 b5 bd
       -0.13192244 0.08844413 -0.100572415 -0.08851205
000300 b1 f9 ce 3c 0e b4 ae 3d bc 5a a8 3d c8 57 65 3d
       0.025265547 0.085304365 0.08220431 0.055991918
000310 9f ce 9f bd 2f f7 db 3c 29 a4 11 be a8 c6 24 bd
       -0.07803082 0.026851265 -0.14222778 -0.040228516
000320 51 80 ec 3d 4c 62 46 3d 35 69 32 be ea ad c5 bd
       0.11547912 0.048433587 -0.17422946 -0.09652312
000330 24 57 8b bd ed cb 8a 3c a6 df 8d bc 2a e4 d6 bd
       -0.0680373 0.016942943 -0.017318558 -0.104927376
000340 4e d5 e4 ba 18 5f 14 3d 71 14 f6 ba 2a 9a 2b 3d
       -0.0017458589 0.0362235 -0.0018774403 0.04189507
000350 2a d0 e8 bc 35 b3 d5 3c cb c0 18 bd 29 98 86 bd
       -0.028419573 0.02608643 -0.037293237 -0.06571991
000360 2a 6b 4e bd a9 37 b4 3d 57 60 d7 3c 2f fe 02 be
       -0.05039517 0.08799679 0.026291056 -0.12792276
000370 84 71 da bd 57 47 08 be 84 1b 6e bd a6 36 4d 3c
       -0.10666183 -0.13308464 -0.05813171 0.012525236
000380 71 e7 c7 3d 0b 52 66 bc cf 7d 22 3d 52 8b 36 3d
       0.09760941 -0.0140576465 0.03967076 0.04456646
000390 ee 7e 08 be 4e 70 19 be 54 a3 98 bb c8 15 6a bd
       -0.1332967 -0.14984247 -0.004658142 -0.05714968
0003a0 0e 2a cf bd 28 dc f6 bb 32 51 11 be fa 13 44 bd
       -0.10115443 -0.007533569 -0.1419113 -0.047870614
0003b0 14 37 cb bc ff 08 88 bd 0b 94 2c bc ba 2e 39 3d
       -0.024806537 -0.06642341 -0.010533343 0.045210578
0003c0 50 d9 72 bd 71 79 58 3d 48 88 0d be a9 45 4b bd
       -0.059289277 0.05285019 -0.13821518 -0.04962698
0003d0 9f 87 33 be ee d8 18 be f8 10 57 3d e8 7a 53 bd
       -0.17532204 -0.14926502 0.052506417 -0.051630884
0003e0 48 dd d2 bd ae 81 e3 3b a9 60 b2 bd 55 38 6a bc
       -0.10296112 0.0069429493 -0.08709843 -0.014295657
0003f0 0b 27 16 3d 7a 07 bf bd d7 37 55 3d bc 2c 86 bc
       0.036658328 -0.09327598 0.052055206 -0.016378753

actor.2.bias f4 [64]
000000 60 3a d7 bd fe 2e 4b 3d d5 72 2e bd 8a 5e 1f be
       -0.10509181 0.049605362 -0.04258998 -0.15563408
000010 3a 49 35 3e dd 70 18 bd 9f bb bd 3d 17 4a 22 3e
       0.17703715 -0.03721701 0.092643015 0.15848576
000020 8c 46 a7 3d 86 b2 f7 3d ec e9 ce 3c a8 f2 5b 3b
       0.081677526 0.120945975 0.025258027 0.0033561382
000030 ea fe 5e 3b e1 9f d7 bd 43 62 41 3e a1 dc 1c 3e
       0.0034026452 -0.10528541 0.1888514 0.15318538
000040 f3 4d 8f bd b2 fa f4 3d 78 42 d2 3d c3 04 0b 3d
       -0.069972895 0.11961879 0.10266584 0.033940088
000050 9d 1b 0b bd 5b 74 0c bd 85 87 33 bd 40 d0 ee 3d
       -0.03396188 -0.034290653 -0.043830413 0.11660814
000060 70 eb 32 3e 1f 1a da 3d 38 29 8b 3d 0d 17 4f bc
       0.17472625 0.106495135 0.06794971 -0.012639773
000070 0d ac 89 bc 61 11 ae 3d 7e 44 71 bd cb 22 0a 3e
       -0.016805673 0.084994085 -0.05890321 0.13489835
000080 1a 19 2e be 7f 08 5b bd 13 79 24 bd fc 7d 9c 3d
       -0.17001763 -0.0534749 -0.040154528 0.07641217
000090 80 8b 94 bc a3 76 29 bd cf 5e 89 3d 15 1c 17 3e
       -0.018132925 -0.041372906 0.067075364 0.14756806
0000a0 ea b1 1e 3e 18 1e b4 bd fb 41 21 bc 16 ce 03 be
       0.15497556 -0.087948024 -0.009842391 -0.12871584
0000b0 a3 07 17 3e 7e d4 fc 3b 06 80 9f bd f8 88 72 bd
       0.14749007 0.0077157607 -0.077880904 -0.059212655
0000c0 91 ca aa 3d be c8 43 3d 98 c0 fb 3c 83 5e 25 be
       0.08339418 0.047798865 0.030731484 -0.16149335
0000d0 d3 e5 d2 bd 70 63 e8 bd cb 0f c3 bd af b6 a0 3d
       -0.10297742 -0.11347091 -0.09524497 0.07847344
0000e0 81 98 b7 3d 5f 35 57 3e 61 99 a2 3d 19 d8 1d bd
       0.08964635 0.21016453 0.07939411 -0.038536165
0000f0 47 10 db bd 57 4c 00 3e aa 6c 54 bc c5 25 31 3e
       -0.10696464 0.12529121 -0.012965361 0.17299564

actor.4.weight f4 [36, 64]
000000 f0 1a e5 3c 91 6e 6a 3e c4 ef 70 3d c4 cd e6 bc
       0.027966946 0.2289374 0.05882241 -0.028174289
000010 25 0c 2e 3e fe d1 ce bd 7a a8 8a 3e f4 4c b6 3e
       0.1699682 -0.100986466 0.27081662 0.35605586
000020 40 d1 a1 bd a2 8c 29 3e 64 20 80 bd 73 98 05 3e
       -0.079012394 0.16557553 -0.06256178 0.13046436
000030 e2 8b 0c be 12 cd e7 bd ad 87 6d bd d2 75 05 be
       -0.13725236 -0.11318411 -0.05799072 -0.13033226
000040 cd 8a 98 3e b3 43 3d bc b3 90 8c 3e 13 2d c4 3e
       0.29793397 -0.011551785 0.27454147 0.3831564
000050 68 2e 8f bb 76 4d 53 bd 38 03 9a bd b1 de cf 3d
       -0.0043695457 -0.051587544 -0.07520145 0.10149897
000060 4d 80 04 bd 35 ba 64 3d 8d 2e 29 3e 60 9f d1 3e
       -0.03234892 0.055841643 0.16521664 0.40941906
000070 63 75 6b be 42 dc bc 3c 60 50 e0 3e 22 b7 f8 3e
       -0.22993998 0.023054246 0.4381132 0.4857722
000080 e6 86 4d bd ef 10 a5 bd 1d dc 3e bc 7a 31 75 be
       -0.050177477 -0.080598705 -0.011649159 -0.23944655
000090 df 69 87 3d 42 df db 3c 40 ec a4 bd 5b 9d 94 3e
       0.0661199 0.026839856 -0.080528736 0.29026303
0000a0 34 75 09 be 04 20 3f 3d 27 68 d6 bd c1 0b 19 be
       -0.13423616 0.04666139 -0.10469084 -0.1494589
0000b0 db 03 43 be 4e a3 1f 3e 43 7b a9 3d 28 b5 3b 3d
       -0.1904444 0.1558964 0.082754634 0.04582706
0000c0 34 4c bf 3c 15 c0 c6 3d c6 cc 02 be cf fe 9b bb
       0.023351766 0.097046055 -0.12773427 -0.0047606
0000d0 26 ed f0 3d 79 4f 25 3c 7a 5b 51 3d 40 57 79 3e
       0.117639825 0.010089749 0.05111263 0.2434969
0000e0 e9 43 79 bd d4 4b 8e 3d a8 6e 23 be a1 ed 6e 3b
       -0.06085578 0.06948057 -0.15960181 0.0036457556
0000f0 4a dd 8d 3e f6 76 80 3d f8 f8 a2 3d 9c 34 61 3e
       0.27707893 0.0627269 0.07957643 0.21992725
000100 a0 46 12 be 7c a1 00 3e 12 1f d3 3d 91 a2 cb bc
       -0.14284754 0.12561601 0.103086606 -0.024857791
000110 09 4b a4 be c2 83 de bd f1 b2 98 be 86 68 8b be
       -0.32088497 -0.108649746 -0.2982402 -0.27228183
000120 1e 53 33 be 4d f7 c5 3d 32 ff 69 be 39 dd fe 3b
       -0.17512175 0.096663095 -0.22851256 0.0077778366
000130 28 46 a4 3d 02 6d 06 be 66 48 61 3e f6 a8 54 bd
       0.08021194 -0.1312752 0.22000274 -0.051918946
000140 92 4a 65 bd bc 3e c6 3e 45 09 d0 bd e1 ec 22 be
       -0.05597932 0.38719738 -0.10158018 -0.15910675
000150 80 e5 d8 3e 16 63 2d 3e 30 07 88 3d 34 1e 9a 3c
       0.42362595 0.1693233 0.06641996 0.01881323
000160 6f d2 91 be 28 73 d3 3e 85 fe 9b bd d4 5f 65 3d
       -0.2848086 0.41298795 -0.07616905 0.055999592
000170 0a 28 c0 3e b8 c3 a8 be b5 76 08 3c 27 5b 6b bd
       0.37530547 -0.32961822 0.008329083 -0.057459977
000180 8b 93 dd 3c 3c f3 81 3c 0f 07 d2 3e 37 2d 8c be
       0.027047893 0.015863054 0.4102101 -0.27378246
000190 01 85 08 3e da d5 63 be 70 d1 54 bb 0f e0 16 be
       0.13331987 -0.22249547 -0.0032473467 -0.14733909
0001a0 be 4c 4a 3e e7 26 0d 3e d1 f1 8e bd c0 73 30 bd
       0.19755837 0.13784371 -0.069797166 -0.043079138
0001b0 f7 ab 69 3e ac d2 05 be 2f 7e 0c be a5 f8 1c 3d
       0.22819506 -0.13068646 -0.1372001 0.038323063
0001c0 e6 89 03 3f 0d d1 06 bd 51 0a 04 3f 99 ac 18 3d
       0.5138229 -0.03291421 0.5157824 0.037273977
0001d0 1b b1 ea 3c f7 42 3d 3e 5a b6 49 3e ef ce 04 3e
       0.028648904 0.18482576 0.19698468 0.12969564
0001e0 80 2b ec 3e 72 59 02 3f ce e4 af be 13 a5 4d bc
       0.46126938 0.5091773 -0.34354252 -0.012551564
0001f0 6d 4b 5b 3e 01 ee 08 be 48 19 3e 3e 0b 05 52 be
       0.21415491 -0.13372041 0.18564332 -0.20509736
000200 23 8b 12 3d a2 51 53 3e 08 b4 17 3e 0f 93 99 bd
       0.035777222 0.20636609 0.1481477 -0.07498752
000210 8a f2 43 3d 9f 8f 57 3e 8a 7c 13 3e 26 9f 89 bd
       0.047838725 0.21050881 0.14402977 -0.06719808
000220 e3 47 22 bd f8 e7 a3 3d 5e 6e 84 3e 3c 58 d9 3d
       -0.039619338 0.08003229 0.25865453 0.106125325
000230 e6 36 54 3e 12 e4 03 be 5d 4a a3 3e b7 7a dc 3d
       0.20724067 -0.1287997 0.31892672 0.107655935
000240 22 92 5c 3e e5 1e 83 3d f3 1d 8a 3e e2 1b 45 3e
       0.2154012 0.06402377 0.26975974 0.19248918
000250 27 09 8f 3e ea 89 a5 bb 41 0a 64 3d b3 12 9e bd
       0.2793667 -0.005051841 0.05567384 -0.0771841
000260 d3 19 06 be 79 a2 0b 3e 9a 13 96 3d 4c 24 da 3d
       -0.13095789 0.13636197 0.073279575 0.10651454
000270 f5 a1 a0 3e 6f 60 94 bd 75 a4 a1 3e 97 3d 92 bc
       0.31373563 -0.07244956 0.31570783 -0.017851634
000280 17 2e a6 3c 8e c1 b1 3d 01 02 a4 3e 21 14 a3 3e
       0.02028565 0.08679496 0.3203278 0.31851295
000290 53 58 f5 3d 12 81 2a 3e 92 4a 0b 3e 1c 0d a2 3e
       0.11979737 0.16650799 0.13602665 0.31650627
0002a0 ad c8 c5 3e 90 ea 9d be db 6e f9 bd c9 d5 00 3d
       0.38629666 -0.3084302 -0.12179347 0.03145388
0002b0 1e 3c e1 3c 20 ed 7b 3e 18 41 63 3e c2 15 37 3d
       0.027494486 0.24602175 0.221928 0.044698484
0002c0 0d e5 8f 3e 22 71 1c 3e 66 52 7e be e4 30 fb 3d
       0.2810444 0.15277532 -0.2483612 0.122651845
0002d0 89 44 97 3e f0 cc 88 bd 62 11 b6 3d ee 37 88 3e
       0.29544476 -0.06679714 0.08890034 0.2660517
0002e0 2c 32 94 3d b1 92 01 be 7c d6 01 be 00 27 6b bd
       0.07236132 -0.12653615 -0.12679476 -0.05741024
0002f0 84 d8 87 3e 69 58 9c 3e 66 ee f1 3d f7 a5 6f bc
       0.26532376 0.30536202 0.11813049 -0.014626971
000300 7f 44 cd 3d d0 ec 41 be ba 2a 9b 3c 8e ba 07 3d
       0.1002283 -0.18937993 0.018941272 0.033136897
000310 b9 79 11 3e ec ea 55 bc 4b 71 85 3e 1d 5f 5a 3d
       0.1420659 -0.013056498 0.26062998 0.053313363
000320 fe b9 e4 3e 0c 15 37 3e 39 57 e8 3d 78 f4 bf 3d
       0.4467315 0.17879122 0.113447614 0.093728006
000330 04 42 ec 3e 9d c6 61 bd f4 a2 b0 3e 2c a5 cd 3e
       0.46144116 -0.055121053 0.34499323 0.4016508
000340 3c e4 76 bd 26 b8 9d 3d 29 22 ba be 4f ba 94 3d
       -0.060276255 0.07701139 -0.36354187 0.07262098
000350 3c 3d ae be 18 03 2b 3e db 8f b1 3d 95 de 54 3d
       -0.34031093 0.16700399 0.086700164 0.051970083
000360 42 8f 3f 3d a0 7a eb bc 42 11 ae 3b 98 b8 80 3b
       0.04676748 -0.028744996 0.005312116 0.0039282553
000370 5e 71 e7 3d 6a b6 f4 3c 37 38 08 bd d0 31 e2 be
       0.1130092 0.029872138 -0.033256736 -0.4417863
000380 00 24 81 3e 49 a3 b4 3d 2c 74 bf 3d 34 ac 43 be
       0.25222778 0.08820207 0.0934833 -0.19108659
000390 df b3 07 3e ad 75 79 3d 21 19 de 3c 7f 87 a1 be
       0.13252209 0.06090324 0.027111592 -0.31548688
0003a0 5f bb 8a 3d 74 40 73 3e 6b 71 a9 3d 0c 57 05 bd
       0.067740194 0.23755056 0.08273586 -0.032553717
0003b0 e7 01 af bd f3 eb 28 3c dd 05 53 bd aa 8d 17 bd
       -0.08545285 0.010310161 -0.051519264 -0.037000336
0003c0 f8 10 71 3d 91 eb 24 3e 9d 7c ba 3c eb f7 c8 bd
       0.058854073 0.16105486 0.022764498 -0.098129116
0003d0 5c 91 ab 3d b2 14 2d 3d 2d 1b 9f bd 59 99 36 3d
       0.083773345 0.042256065 -0.07768855 0.044579837
0003e0 a8 0d 16 3f 19 a7 0a bd c8 83 b8 3d 83 de fc bc
       0.5861459 -0.033850763 0.0900951 -0.03086782
0003f0 1b 57 85 be 39 56 72 3e 79 05 b8 3c 22 7a ab 3e
       -0.2604302 0.23665704 0.022463547 0.33491617

actor.4.bias f4 [36]
000000 77 9f 8e bc dd 35 75 3d 49 84 cf 3d 81 97 b5 3d
       -0.017410023 0.05986582 0.10132653 0.08866788
000010 fc 2e 40 3e a0 8a 0d bd 45 bd 59 bd ee c8 12 3e
       0.18767923 -0.03455603 -0.053159017 0.14334461
000020 21 fb 11 bd 3f a5 84 3b 53 35 45 be 84 31 20 be
       -0.035639886 0.004048019 -0.19258623 -0.15643889
000030 5d 96 70 3d 32 7a 24 3e 62 e3 1f 3e f9 3a 4a bd
       0.058737148 0.16062239 0.15614083 -0.049372647
000040 6c 21 af bc f6 cf 8d be 50 e7 71 3d 00 0b 5a be
       -0.021378241 -0.27697724 0.059058487 -0.21293259
000050 35 fa c8 be 1e 8e f8 bb 46 a6 a0 3d 3c 53 f7 bd
       -0.39253393 -0.007585301 0.07844214 -0.120764226
000060 a8 08 13 3e 6c 84 d4 3a ab 88 6e 3e 61 c8 9a 3d
       0.14358771 0.0016213781 0.23294322 0.075577505
000070 71 e2 d8 3c fd 29 62 3e 38 f7 4f bd be 6c dc bd
       0.026475163 0.2208633 -0.050772876 -0.107629284
000080 ca 43 e4 bd 54 31 ec bc 07 6d 44 bd ae 75 a0 3e
       -0.11145742 -0.028832115 -0.04795554 0.31339782

critic.0.weight f4 [64, 62]
000000 c8 60 9c 3d 6a 19 ab 3d 31 d8 ab bd 6c 5b 1b 3c
       0.07635647 0.08354457 -0.083908446 0.009482246
000010 8d 04 9c bd f5 18 9a bd 6e d3 05 3e 09 f7 f5 3d
       -0.076180555 -0.075242914 0.13068935 0.12010009
000020 b5 31 d1 bd 8e 10 78 bd 7c 0e 33 3d 2a 81 54 bd
       -0.10214559 -0.060562663 0.043714985 -0.051880993
000030 0e 74 1b be 42 10 a7 bd 0c d2 a2 bd 01 4e b3 bd
       -0.1518099 -0.08157398 -0.079502195 -0.087551124
000040 fe 10 09 bc ab 20 dd bd 13 fe f7 bd c8 76 b6 3d
       -0.008365868 -0.107972465 -0.12109008 0.089093745
000050 0c 4a bb bd 7c 17 b6 3d d6 10 10 3c 3e 3c 98 bc
       -0.09144983 0.08891198 0.0087930765 -0.018583413
000060 ef 3e c9 3d 27 17 cb bd c0 34 79 3d b3 99 ad 3d
       0.09826457 -0.09916525 0.060841322 0.084765814
000070 4e 78 37 3e 30 27 87 3d 44 ac 40 bd 0b 44 73 bd
       0.17916986 0.06599271 -0.047039285 -0.059391063
000080 f2 fb c0 bd 9a a3 b1 3d 52 32 b7 bc 73 eb af 3d
       -0.09423055 0.08673783 -0.022362862 0.0858983
000090 77 3f ad bd 9b 8c 94 bd 11 3c 09 bc 8c 66 91 3d
       -0.084593706 -0.07253381 -0.008376137 0.070996374
0000a0 3b 05 08 3d 5c 34 6f 3c 17 f0 79 3d 70 ba 05 be
       0.033208113 0.014599886 0.061019983 -0.13059402
0000b0 ea 7c 92 bd 5e 2d c1 bb 76 47 51 be 8c e8 9a be
       -0.07152732 -0.005895301 -0.20437416 -0.30255544
0000c0 42 05 1c 3e 91 5e 1a be 52 f9 01 be 98 73 4a bd
       0.1523638 -0.15075137 -0.12692764 -0.049426645
0000d0 12 b7 00 3d 61 72 3c 3d 41 cd c1 bd 33 46 27 bc
       0.03142459 0.046007518 -0.09462977 -0.010209608
0000e0 6a c4 01 bc 8a 36 30 3d 34 91 f3 bc 8e dc 5b be
       -0.007920364 0.043020763 -0.029732324 -0.21470854
0000f0 25 3d ea bd 7c 86 25 3b dd 19 e7 bd cc bf 83 3d
       -0.11437444 0.002525716 -0.1128423 0.06433067
000100 28 39 8d bc 13 25 4d bd 5d 42 0f bb 11 0f ef bd
       -0.017239168 -0.050084185 -0.0021859624 -0.116727956
000110 54 83 d9 3d 92 85 40 3d c1 9c 48 bd 59 d9 b9 bd
       0.10620752 0.047002383 -0.048977617 -0.09074659
000120 fa 55 c2 3b d1 5d c1 3e 83 e1 17 be 34 ca df 3d
       0.0059306594 0.3776689 -0.1483212 0.10927239
000130 9a f8 bd 3d 77 b8 04 3e a3 f5 d4 3d fb 2e df 3d
       0.092759326 0.12960993 0.10398414 0.10897633
000140 bf 91 8b 3d 45 04 df bb 5d 60 05 bd 76 59 f8 bd
       0.06814908 -0.006805929 -0.032562602 -0.12126438
000150 e2 da 88 3d 00 cd eb bc a8 10 a3 3c ed f3 ea bc
       0.066823736 -0.028784275 0.019905403 -0.028680766
000160 15 fc a7 3d bd 3a 84 3b 93 aa 24 3e 33 80 9d 3e
       0.08202378 0.0040353225 0.16080694 0.3076187
000170 62 af 58 3c b3 50 26 3e 73 dd 70 3d 5f 54 99 bd
       0.013225408 0.16241722 0.05880494 -0.07486796
000180 b5 e9 b6 3d e7 7b c9 3d 11 45 08 3e 82 b2 6a bd
       0.08931295 0.098380856 0.13307597 -0.057299145
000190 fc a7 63 3e 63 5d 70 3e fc 50 b4 bc 08 78 0e bc
       0.2223205 0.23473124 -0.022011273 -0.00869561
0001a0 bb bf 8d 3d df 42 e0 3d 98 2f a9 3d b6 37 b0 3d
       0.06921335 0.10950255 0.08261031 0.08604376
0001b0 11 df 77 3e a3 6b 44 3e 76 ff 21 bd 55 8f 00 be
       0.24206187 0.19181685 -0.039550267 -0.12554677
0001c0 37 92 f2 3c 46 c0 08 be b0 1b 3f bd e5 c4 fb bd
       0.029610736 -0.13354596 -0.046657264 -0.12293414
0001d0 6a 16 b6 3c 55 d3 50 bd fe ca 52 3d 8e 46 48 3d
       0.022227485 -0.050982792 0.05146312 0.04889541
0001e0 d2 22 01 3e 76 57 14 3e 0a 59 2f bc 74 9a de bd
       0.12610939 0.14486489 -0.010702381 -0.10869303
0001f0 1a 4f d7 bd 14 23 a3 3d 1f 64 d7 3d 23 24 47 3d
       -0.10513134 0.07965675 0.105171435 0.048618447
000200 8c c6 fd bd 1d 10 31 3c 56 24 42 be cd ae 31 be
       -0.123913854 0.010807064 -0.18959174 -0.17351837
000210 80 e6 4b 3e 3c f0 9f 3d b6 fc 3e 3e 3d e9 35 3e
       0.19912148 0.07809493 0.18651089 0.17764755
000220 27 11 cd 3d dc 2f ef 3d b8 54 4d bd 5b b1 83 bd
       0.10013037 0.1167905 -0.050129622 -0.06430312
000230 01 1f a3 bc 0a a1 99 bd de 74 f2 3d 9b 83 d3 bd
       -0.019912245 -0.07501419 0.11838697 -0.10327836
000240 2b c6 f2 3d 77 ec af bc ce 58 bc 3c 04 7c e2 3d
       0.11854204 -0.02147506 0.022991564 0.1105881
000250 c3 b2 70 bd ad bd 40 bd c4 37 57 3d c2 ca 03 bd
       -0.05876423 -0.04705589 0.052543417 -0.032175787
000260 0d 51 b0 3c 4c f7 3e 3e d9 8f 6e bd 33 69 60 3c
       0.021523023 0.18649024 -0.058242653 0.013696956
000270 a6 e6 63 bd c6 7e 53 3d fd 69 49 3c 22 0e c8 bd
       -0.055639885 0.051634572 0.012293336 -0.097683206
000280 ea a9 e0 bd a3 84 82 bc 9a 5f 1a 3b ea b3 45 3e
       -0.109699085 -0.015932387 0.0023555518 0.19306913
000290 51 53 75 be 69 86 41 bd 9c fb fb bd b2 f2 01 bb
       -0.23957564 -0.047247324 -0.1230385 -0.0019828496
0002a0 03 90 39 bd e6 b9 d9 bd 77 6c f4 bd 38 0c 09 be
       -0.045303356 -0.106311604 -0.119347505 -0.13383567
0002b0 95 71 40 be 32 5b 6a 3c 36 8d bf bd 01 02 e8 bd
       -0.18793328 0.014303969 -0.09353106 -0.11328507
0002c0 de 67 77 3d 1b 7a 52 bd a4 82 f0 3d 43 4d 9a 3d
       0.06040179 -0.05138598 0.11743668 0.07534268
0002d0 d8 8a 38 be b5 a2 e9 bb e3 01 ab 3d 3e 4a 80 3d
       -0.18021715 -0.007129992 0.08349969 0.062641606
0002e0 d9 fe ba 3b 2d bb 2c be 5d 8e eb bd c2 11 ef bd
       0.0057066497 -0.16868277 -0.11501763 -0.11673309
0002f0 8d ab d9 bd 5c f5 b5 3d 17 8b 31 bd ed be fd bd
       -0.10628424 0.08884689 -0.043345537 -0.12389932
000300 4f b7 b1 bd 64 b4 ec 3d 98 cd 8d 3d 3e c4 ca bc
       -0.086775415 0.11557844 0.069239795 -0.024751779
000310 de d9 3c bc 9a 90 49 3e 4a b2 02 3e 3b 66 24 3d
       -0.011526553 0.19684067 0.12763324 0.040136557
000320 ff b7 a7 bd d7 a4 17 bd 91 5f 1b bd 4b 6d a1 bd
       -0.08189391 -0.037022438 -0.037932936 -0.07882174
000330 82 c9 ab bd 45 23 b8 3d da a5 ac 3c 59 b8 2a 3d
       -0.08388044 0.08991102 0.021075178 0.041679714
000340 d5 03 bd bd b2 e2 c0 3c 8d b4 e7 3d 4d 75 8e 3d
       -0.092292465 0.023545597 0.11313734 0.06955967
000350 4c 09 b6 bb 37 79 6f bd e5 91 28 bc 88 d1 10 be
       -0.0055553075 -0.05846521 -0.01028869 -0.1414243
000360 0f bd 00 bd 34 06 18 bd 0b 87 13 bd a7 04 a4 bb
       -0.0314303 -0.03711529 -0.03601746 -0.0050054374
000370 5b dd f4 bc 8e 49 9a bd eb c7 16 3d 89 d9 b0 bd
       -0.029890707 -0.07533561 0.03681175 -0.086352415
000380 4d 8a 5c be 14 35 6f 3e a7 a6 0b be 38 89 31 be
       -0.21537133 0.23360091 -0.13637792 -0.17337501
000390 59 8f 5b bd 6c 53 2b 3e 62 70 cb bd 94 91 36 be
       -0.053603504 0.16731042 -0.09933545 -0.17828971
0003a0 92 c2 3a 3d 66 14 f5 bc 26 c7 99 bd eb 08 e7 bd
       0.045595713 -0.029916953 -0.07508688 -0.11280998
0003b0 a0 bf 5c bb ad c5 15 be bd 15 b7 3d c1 47 dd bd
       -0.0033683553 -0.14626189 0.08939693 -0.108047016
0003c0 47 63 04 bc 5f a3 55 bc 1a 8e 7e be 13 47 a0 bc
       -0.00808031 -0.013039439 -0.24858895 -0.01956514
0003d0 68 4a eb 3d 3b e6 43 bc ba b1 67 bd 0a 23 aa bd
       0.11488801 -0.011956747 -0.056565978 -0.083074644
0003e0 3e f8 8b 3d 01 79 b8 3d d0 2e ea bd c8 31 a8 bd
       0.06834458 0.09007455 -0.1143471 -0.0821262
0003f0 bf c1 60 3d 90 bd 85 be b3 fb aa 3d e0 a1 c9 bc
       0.05487227 -0.26121187 0.08348789 -0.02461332

critic.0.bias f4 [64]
000000 d8 c0 3c be 45 6c ff 3d 1a 11 36 bd 87 36 93 bd
       -0.18432939 0.12471823 -0.044449903 -0.07188135
000010 91 7d 91 bd 35 27 6c bd aa 5f a8 3b 45 1d fa bd
       -0.07104028 -0.05765458 0.005138357 -0.12212614
000020 08 22 22 be fa 2f 36 3d fc 5a c9 bd ad 67 30 bc
       -0.15833294 0.044479348 -0.09831807 -0.010766906
000030 62 c1 2c be 3c 2f 28 be c6 e7 e7 bc 01 eb 1c bc
       -0.16870645 -0.16424268 -0.02830876 -0.009577514
000040 5f e5 ba bd 6d a2 9f 3e e1 df 91 bb 85 8a 37 3d
       -0.0912578 0.3117861 -0.0044517373 0.044809837
000050 1d 2f 6c bd 2a fb 24 bc 04 75 e0 bc 74 87 92 bd
       -0.05766212 -0.010069648 -0.027399547 -0.07154742
000060 61 54 0d 3d 91 ed 8f bd 00 a1 d9 bd cc dc 2d bd
       0.034504298 -0.07027734 -0.106264114 -0.042446896
000070 99 c4 53 bc 00 6a ce bd 14 83 c5 bc 59 0d 87 bc
       -0.0129252905 -0.10078812 -0.024110354 -0.016485857
000080 bf e5 a1 bd ee e7 b2 bd 53 88 48 bc 13 29 c6 3d
       -0.07905149 -0.08735643 -0.0122395335 0.09675803
000090 ed 48 99 3d d4 0f b4 3d 9b 37 ef bc ec 32 ae 3d
       0.074846126 0.087920815 -0.02920132 0.08505806
0000a0 eb 9e 3d be 4b 70 36 be 8a 7b 43 bd b2 ab ef 3c
       -0.18517654 -0.17816274 -0.047725238 0.029256675
0000b0 19 a9 38 be 69 98 75 be 08 65 eb 3d f7 66 c6 3d
       -0.18033256 -0.23983921 0.114938796 0.09687608
0000c0 c7 ca 7b 3d 75 49 25 3d 96 c0 1f bc 63 f7 74 3c
       0.06147268 0.040353257 -0.009750506 0.01495156
0000d0 82 2b b5 bd 0d 1a 3f be 06 59 4b be 9c 38 6c be
       -0.08846189 -0.18662281 -0.19858178 -0.2306847
0000e0 8e be 46 3d 03 7d 28 bd 15 04 4a be 39 85 b8 3b
       0.04852157 -0.041134845 -0.1972812 0.0056311158
0000f0 cc f2 44 3d c2 3d ed bd 0c 00 bb bd 24 4a 28 be
       0.04808311 -0.11584045 -0.09130868 -0.16434532

critic.2.weight f4 [64, 64]
000000 8e 57 8f 3d b2 40 4d 3e 05 32 4b 3d 09 1e 7e 3d
       0.069991216 0.2004421 0.04960825 0.062040363
000010 eb bf b2 3d 93 22 82 bd 75 26 2b 3e ea 5e 8e bd
       0.08728012 -0.06354251 0.16713889 -0.06951697
000020 7f f2 97 ba 07 a0 4d be b7 e8 1f 3d d8 26 78 3e
       -0.0011592655 -0.20080577 0.039040294 0.24233568
000030 16 77 33 bc 0e 8e 71 3e 20 cb bb 3c 4f ea 36 3d
       -0.010953685 0.23589346 0.022924006 0.044657048
000040 3b a5 bf 3d 7d a7 e3 3e 05 1a 52 bd b2 69 8b 3e
       0.09357687 0.4446372 -0.051294345 0.27229077
000050 cf 5c b6 3d 8e e5 9b 3e 02 b4 8c 3d d0 63 9f 3e
       0.089044206 0.30448574 0.06870271 0.31130838
000060 3d 78 9a 3b c9 12 1a bd 79 17 9d bd bf 19 67 3d
       0.0047140406 -0.03761557 -0.07670493 0.056421038
000070 a7 a8 c6 bc c4 c0 32 3e b4 1e 40 3d eb d5 cf 3d
       -0.024250342 0.17456347 0.04690428 0.101482235
000080 0b 40 10 3e 7d 64 57 bd c8 93 18 3d 85 01 d1 bc
       0.1408693 -0.052586067 0.03725031 -0.02551342
000090 15 5c 6f be 6a a5 29 3e 68 2e c7 3d ed 6f f6 3d
       -0.2337497 0.16567007 0.09725648 0.12033067
0000a0 d2 0e a2 bd 34 09 d2 3d 13 1c 5e 3e d5 34 b2 be
       -0.07912983 0.102556616 0.21690397 -0.34805933
0000b0 b2 46 93 3c 34 6c 05 bd 37 b6 52 3e f1 bd 47 be
       0.017978046 -0.032573894 0.20577322 -0.1950605
0000c0 e3 0a 89 3e 2a fa 2f 3e a9 02 2e bd 06 c1 be 3e
       0.26766118 0.17185274 -0.042483006 0.3725664
0000d0 d5 88 74 3d 23 3e 9a 3d 25 36 84 bc eb 91 3b 3c
       0.059700806 0.07531383 -0.0161391 0.011448364
0000e0 e7 68 4a 3e c3 3f df 3c 8e c1 a7 3d 0f 81 7c be
       0.1976658 0.027252084 0.081912145 -0.24658607
0000f0 97 c1 e8 bc f1 f2 0e 3e d9 72 92 3e 15 c5 01 bc
       -0.028412623 0.13959862 0.28603247 -0.007920523
000100 4c 7a 9b 3d f6 2b 4c 3b c2 52 0c be 59 39 05 3d
       0.07591686 0.0031154132 -0.13703445 0.032525394
000110 7a 08 99 bd 17 bc 8c bd 3a 6e 92 bd cc 52 db 3d
       -0.0747232 -0.06871813 -0.0714993 0.107091516
000120 ce e6 a9 bd 11 d2 36 be 37 24 1e be e5 51 b3 bc
       -0.082959756 -0.17853571 -0.15443502 -0.021889636
000130 f8 cf f6 bd f6 4e 05 be c3 a1 02 be 78 5d 57 bc
       -0.12051386 -0.13018402 -0.1275702 -0.013144843
000140 aa 8b 84 3c 2b df 67 be c6 ae c3 bd a4 69 97 3d
       0.016179878 -0.22643726 -0.0955482 0.07393196
000150 c7 70 85 3d 04 62 a6 3c 6e 03 29 3d 7c 95 a5 bd
       0.06515651 0.02031041 0.041263036 -0.080851525
000160 4c 3b 1c be c6 b1 12 be 5a b6 2a be 2d d3 9a 3b
       -0.15256995 -0.14325628 -0.16671124 0.004724881
000170 bd 6d 8a bd f0 c9 bf bd be 53 5f be f4 da 39 bc
       -0.06759212 -0.093646884 -0.21809289 -0.011343706
000180 3a 75 dc 3d 75 5e b8 ba 3c b8 ae 3c b4 fb 1b be
       0.10764547 -0.0014066236 0.021328084 -0.15232736
000190 1d b2 5b 3c f0 44 bb 3c df 9c 1b 3d 13 b9 de 3c
       0.013409165 0.02286002 0.0379914 0.02718786
0001a0 13 54 4a 3e 89 78 b8 3c d9 cc 12 3d ea c2 a3 3c
       0.19758634 0.022518413 0.03583989 0.019990403
0001b0 7f 7a 88 3d 31 3a 38 be 8f 09 33 3d a4 f5 f8 bd
       0.06663989 -0.17990948 0.043710288 -0.12156227
0001c0 48 06 a3 bd af 3b 28 bd 65 4a c9 bd 7a ec b8 3d
       -0.079601824 -0.041072544 -0.09828643 0.09029479
0001d0 a1 b1 1b be 2c 8f 4a be 89 c7 03 bc 58 fa a5 3d
       -0.15204479 -0.19781178 -0.008043178 0.0810439
0001e0 10 33 10 be 68 ed a9 bd e9 19 76 bc ff ee 26 be
       -0.14081979 -0.08297235 -0.015020826 -0.16302107
0001f0 42 ca b4 3c b6 b1 84 3b 40 6f 82 3d 1b 79 2e 3c
       0.0220691 0.004049505 0.063688755 0.010648991
000200 d5 89 e2 3c 4d ab 4b bd ff 07 bc b9 46 f9 28 3d
       0.027653614 -0.049723912 -0.00035864112 0.04125335
000210 a5 b5 da bd 0f 5d e1 3c 26 fb 92 3d 05 8c 18 3d
       -0.10679177 0.027510194 0.07176809 0.037242908
000220 fa ef e5 bd cb 54 d7 bc c2 2c bf 3c 1e 10 09 be
       -0.112274125 -0.02628555 0.023336772 -0.13385054
000230 ea 2b 19 bc 98 e9 c7 bd 01 66 90 3d 07 9a 77 3d
       -0.009348849 -0.09761351 0.07050706 0.060449626
000240 4d dc a6 bd 4f 3f 0a 3d 7b 42 9e bb 45 c5 70 bd
       -0.08147488 0.033751782 -0.0048297024 -0.05878188
000250 52 1c 51 bc 7c 6a 4c 3d fb 4c 3c 3e 04 22 64 3d
       -0.0127631 0.04990624 0.1838874 0.055696502
000260 43 0b 0b be ff 53 51 3d 2f ef 35 3d 44 38 2c be
       -0.13578515 0.051105496 0.044417556 -0.16818339
000270 98 2e 01 3d d0 a1 d9 bd da 6f ca 3d 64 b4 8f be
       0.031538576 -0.106265664 0.09884615 -0.28067315
000280 f0 54 90 bc 90 e6 84 bc 4f 21 6f 3d 9d 19 2a 3d
       -0.017618626 -0.016223222 0.058381375 0.041528333
000290 49 28 c6 b9 42 12 de bc 4e ad b0 bc f2 d4 14 be
       -0.00037795518 -0.027108315 -0.021567013 -0.14534357
0002a0 9a 16 f7 3d d9 0c 0d 3d 09 8a 01 ba 22 86 8a 3c
       0.12064858 0.03443608 -0.00049415283 0.016909663
0002b0 2e 58 09 bd da 2b ea bd f8 61 52 bc d2 fd 97 3d
       -0.03353136 -0.11434145 -0.01284074 0.07421459
0002c0 49 77 9b 3d 25 37 63 bd 7a c4 14 bc 4b e2 86 bd
       0.07591111 -0.05547251 -0.009080047 -0.06586131
0002d0 22 0c a9 3d 22 4b 2e 3c e7 c6 da bc bf 97 75 3c
       0.08254267 0.01063803 -0.026706172 0.014989792
0002e0 7f 09 ce bd b8 1e 9f 3d e3 c5 83 bd 83 fa e8 bd
       -0.10060405 0.07769531 -0.06434228 -0.11375906
0002f0 31 bd 8d bd 66 90 89 bd 58 3d 89 bc 07 c1 1a be
       -0.06920851 -0.06716995 -0.016752884 -0.15112697
000300 8a 42 7b bc a5 62 b9 3b b4 22 7f bd e8 c1 19 3c
       -0.015335688 0.0056575113 -0.062288955 0.00938461
000310 33 4b 2f 3d e3 d6 ab bd de b1 0a 3c fc dc 39 3c
       0.042796325 -0.08390596 0.008465258 0.011344191
000320 1a a7 a7 bd db f0 22 be d9 47 c4 bb 52 28 84 bd
       -0.08186169 -0.15912192 -0.00599001 -0.06453003
000330 b8 b6 eb 3c fd 74 ce bd 27 d5 25 3e ac f6 fc 3d
       0.02877365 -0.100809075 0.16194592 0.123517364
000340 cf 1a 35 3c 3f c7 bb bd 62 6b 0b be 59 1d 07 3d
       0.011053755 -0.091688626 -0.13615182 0.032986972
000350 65 01 26 3d c0 1d c8 3d 17 36 a0 bd fd 90 b7 3d
       0.040528674 0.09771299 -0.07822817 0.08963201
000360 c5 df b8 bd 91 90 d9 bd 92 8e 3c 3d 79 27 13 bd
       -0.09027056 -0.10623277 0.046034403 -0.035926316
000370 e4 19 8c 3d 88 f3 67 bd 14 d8 65 3d 41 63 8a bd
       0.06840876 -0.056628734 0.05611427 -0.067572124
000380 4a 56 8b 3d 7f 14 9e 3d 96 1c 9d bd 2d 16 15 be
       0.06803568 0.07718753 -0.07671468 -0.1455924
000390 2f 9d 90 3d 5d 26 fa bd 5a b4 a4 bd 4d 7a 65 bd
       0.070612304 -0.122143485 -0.08042212 -0.05602484
0003a0 91 18 e1 bd 34 fe 1f 3e 5a 25 45 bd 55 05 c1 3d
       -0.10991014 0.15624315 -0.048131324 0.09424845
0003b0 41 42 e0 bd 11 7d d7 3d 6b 09 8f bd af 91 2b bd
       -0.10950137 0.105219014 -0.06984218 -0.04188698
0003c0 98 d7 a2 bd d7 b3 e9 3c 76 76 76 bd 70 0a 99 bd
       -0.079512775 0.028528137 -0.060171567 -0.07472694
0003d0 d7 e7 69 3d ba ac 9c 3d 7c e0 ca bd 48 3a 08 3e
       0.057105865 0.076501325 -0.09906098 0.13303483
0003e0 51 f5 f8 ba f5 67 8e 3d 21 1b 12 bd d6 97 0f be
       -0.0018994008 0.06953422 -0.035670403 -0.14022765
0003f0 b8 98 16 bd 09 17 db bd 81 12 e2 3d 56 4e d1 3d
       -0.036766738 -0.10697753 0.110386856 0.102200195

critic.2.bias f4 [64]
000000 b6 a3 34 3e 7a 86 c3 bd 7f c2 54 bd 72 97 5a bd
       0.17640576 -0.09547134 -0.0519433 -0.053367086
000010 d0 99 bc bd 86 62 10 be 63 8d 7d bd 9c 59 6c 3c
       -0.09209025 -0.14100084 -0.061902415 0.014425661
000020 3a 5d be bd f9 d5 e4 bd f1 0e db 3d 54 2a e1 3d
       -0.09295125 -0.111736245 0.10696209 0.109944016
000030 f2 5e 05 bd 47 c1 8f bc 63 ba 2c bd 05 86 1f bd
       -0.03256125 -0.017548217 -0.04216994 -0.03894617
000040 7f d3 bf bd 11 c7 32 bc de 77 5f 3e 0e 42 61 3e
       -0.093665116 -0.010911719 0.2182307 0.21997854
000050 f4 de b7 bc 44 19 c7 ba 20 d3 fa bd fe a2 2b be
       -0.02244518 -0.0015190025 -0.122473 -0.16761395
000060 d8 db 13 3e b2 a0 0a be 89 04 9d bd bf c4 25 be
       0.14439332 -0.13537863 -0.07666881 -0.16188334
000070 99 9d f0 bc fd a3 85 bc 51 0b cc bd 91 01 a7 bd
       -0.029372023 -0.016313547 -0.09963096 -0.08154596
000080 be 02 f8 bd e8 95 cf bd 47 ed 3e 3e 1a d9 74 bd
       -0.12109898 -0.10136014 0.18645202 -0.059777357
000090 36 73 e2 bd c9 72 2d be f4 a1 1e be 76 20 4f bd
       -0.11057131 -0.16938318 -0.15491468 -0.050568067
0000a0 1d 2e 0f bd 6d 68 83 bd 28 0d 36 3d 7f fd 96 bd
       -0.034956086 -0.06416402 0.04444614 -0.07372569
0000b0 05 7f 1f be 13 96 e9 3d 69 fc b6 bd cb 58 4e bd
       -0.15575798 0.114055775 -0.08934862 -0.05037765
0000c0 98 a1 d4 bd 6d a1 94 3d 78 5c 51 3d 04 7e 03 be
       -0.10382384 0.07257352 0.051113576 -0.1284104
0000d0 a6 4a 86 bd 1d 91 1c be dc 7f e5 bc d4 02 79 bc
       -0.06557207 -0.15289731 -0.02801507 -0.015198428
0000e0 44 49 18 bd 4a a7 07 be cc 51 de bc 98 8b ca bd
       -0.037179247 -0.1324741 -0.027138613 -0.09889907
0000f0 9b fd 0f be 1c 01 13 bd 21 8c 24 be c6 d4 c6 bd
       -0.14061587 -0.03588973 -0.1606908 -0.09708552

critic.4.weight f4 [1, 64]
000000 7f 5f 43 be b3 5c 37 3d eb c7 6a bb 67 a8 bd bc
       -0.19079398 0.04476614 -0.0035824727 -0.02315159
000010 c6 1a 19 be c4 a9 33 3b 18 50 58 3d 8f e8 da 3d
       -0.1495162 0.002741442 0.05281076 0.10688888
000020 a3 09 76 3d 49 d2 4e 3b 77 c6 3d 3d f5 12 8c bd
       0.060067784 0.0031558445 0.04633185 -0.06839553
000030 a9 ce 68 bb 0e 95 8f bb 04 46 89 bd 94 d4 3b 3d
       -0.003552357 -0.0043817824 -0.067028075 0.045857027
000040 d7 c8 73 bb 55 58 10 3e 12 32 f4 3d ef 90 1f 3e
       -0.0037198567 0.14096196 0.11923613 0.15582632
000050 a1 1e bb 3c 3f 0c 90 bc b2 b9 2b bd cb 68 0a 3e
       0.022841753 -0.017583964 -0.04192514 0.13516538
000060 b1 e9 bc 3d fb 2e 83 3c b6 55 65 bb 0f 1d 29 bc
       0.092242606 0.016013613 -0.0034993715 -0.0103218695
000070 79 e1 ba bc 51 5a fa bc 87 76 05 3d 3b ea d2 bd
       -0.022812592 -0.030560644 0.03258374 -0.10298582
000080 08 5b 90 bb 37 c5 98 3d d2 4d 1b be 42 1a 0e bc
       -0.004405383 0.07459491 -0.15166405 -0.008673253
000090 5d e6 4b 3c 6a 10 ea 3b 02 1e 45 bd e3 69 aa 3d
       0.01244506 0.00714307 -0.04812432 0.083209775
0000a0 f7 83 00 3a 6c 56 11 3e da fb ab 3d 49 45 79 3c
       0.0004902477 0.14193124 0.08397646 0.015214273
0000b0 f5 c0 91 3b e0 63 92 3d 0a 72 c6 3c 29 e9 92 3d
       0.004448051 0.07147956 0.0242243 0.07173378
0000c0 10 f1 aa 3c 8f 76 b4 bd 31 db 6e bd 54 5d c5 3d
       0.0208669 -0.08811676 -0.058314506 0.096369416
0000d0 8d 87 95 3d 41 23 8d 3b 46 ad 00 bc fa 50 05 3d
       0.07301245 0.004307181 -0.007853812 0.03254793
0000e0 c2 0c ac ba dc cf d3 b9 f6 66 03 bd 43 ac 89 bb
       -0.0013126361 -0.00040399923 -0.032080613 -0.0042014434
0000f0 56 fb 13 bd f9 27 b3 3d 2f 2e cd bc 64 c6 c7 bd
       -0.036128365 0.087478586 -0.025046436 -0.09754637
