RL/CC2-Cardiff-implementation/GT-Cardiff-CC2/Models/PPOxCCE-C3/5000.pth (torch, 78850 bytes, 11 tensors)

actor.0.weight f4 [64, 62]
-0.0009508271 0.0681284 -0.10452683 -0.093464345 -0.0076592737 0.08525726 0.0017888588 0.04980919
-0.006607016 0.037941027 -0.05372621 -0.06290998 -0.084888965 -0.07605137 -0.11454884 -0.075932905
0.05020762 0.076202966 -0.086098604 -0.055303834 0.04612862 0.10545937 -0.026136648 0.09503569
-0.020470306 0.013438404 0.11499559 -0.11781425 -0.12722208 -0.04938772 -0.05489392 0.025710177
-0.082318895 -0.058462333 -0.08872742 -0.11894336 -0.097214006 0.08609017 0.07115651 0.035966095
-0.019638624 -0.06511087 -0.030850455 -0.108904086 -0.076133735 -0.069795616 0.070925795 -0.0031883232
-0.10712676 -0.06209762 0.05669002 0.07780144 0.050404087 -0.05467818 0.05446546 -0.11392718
-0.0557898 -0.09846389 -0.12591754 -0.058148324 -0.037886545 -0.030751739 -0.07522884 0.03836764
0.069719516 -0.01602962 -0.059715077 0.0024760389 -0.1357948 -0.07137337 -0.123237975 -0.2550963
0.3736011 0.19279757 -0.35839546 -0.28847837 0.016935984 0.08757584 0.011683059 -0.079451956
-0.11835829 0.112838656 0.09656578 -0.12668617 0.023770874 -0.021394443 -0.020899286 -0.058135178
0.048838682 -0.07522262 0.34248653 0.21292001 0.39605904 0.5226219 -0.1256965 -0.08238459
0.06341307 0.026581297 0.087907106 -0.1086831 0.1296456 0.20174704 -0.23516925 -0.103921264
-0.109087564 0.050291713 -0.1056316 -0.13944584 -0.06659146 -0.22865368 -0.16323225 -0.13573365
-0.038037747 0.089561515 0.08703317 -0.20115313 -0.03687495 0.04142482 0.14112677 0.030121163
0.12684846 0.0791145 -0.12755415 0.017744744 -0.12182473 -0.07527382 -0.03179192 -0.061863456
0.03847668 -0.23009151 -0.23564465 -0.4249575 -0.13708463 -0.10295314 0.17917313 0.16168769
-0.09391698 -0.046748932 0.055441324 0.27507326 0.12030038 0.08065218 0.12057564 -0.009184859
-0.11408694 -0.060207866 0.086475044 -0.000823276 -0.06312495 -0.09732169 -0.11885332 -0.10718915
0.06635187 0.048971854 -0.030542402 -0.20971595 0.0792204 -0.099378794 -0.026849132 -0.051495075
0.14923374 -0.001238886 0.0012228725 -0.10919976 -0.06844473 0.2577755 -0.10678592 0.029577898
-0.17509791 0.043279495 0.10514771 -0.29495293 -0.08656732 -0.13252325 -0.21510957 -0.27936864
-0.014655112 -0.18419869 0.18748802 0.015792932 0.15302354 -0.026589852 0.19551401 0.018235914
-0.060155943 -0.08764035 -0.030540317 -0.026708819 -0.10465844 0.06881427 0.052378148 0.1515062
0.15689202 0.22572921 0.11965174 0.1855814 -0.41088626 -0.19624203 -0.22645123 0.014871336
0.16794218 0.32829458 -0.09600194 -0.08718714 -0.07374409 0.08889163 -0.0456521 0.10712317
0.045924205 0.01608152 -0.00094539195 -0.02510558 0.015934242 -0.028999802 0.24214464 -0.12781984
-0.20734191 -0.36747757 0.10255168 -0.10306653 -0.009119395 0.12563345 0.0267432 0.21363531
-0.20224349 0.008838452 0.2465264 0.13066544 -0.2662566 -0.28588238 -0.023473773 0.18776
0.006677442 -0.15443973 -0.036304735 -0.16450739 -0.037197262 -0.26600933 -0.053825844 0.06247216
-0.052375186 0.15226059 0.06473411 0.00020330961 0.03087512 -0.3447807 0.1271143 -0.15551889
0.0017503793 -0.02159215 -0.06688753 0.016785737 0.33741578 0.114129044 0.11319634 0.27512833
00000000: ed40 79ba e786 8b3d 2a12 d6bd 3c6a bfbd
00000010: a5fa fabb 5c9b ae3d 2478 ea3a b904 4c3d
00000020: ab7f d8bb 0d68 1b3d 0410 5cbd f3d6 80bd
00000030: 44da adbd d2c0 9bbd 9598 eabd b682 9bbd
00000040: 81a6 4d3d 4d10 9c3d 7754 b0bd 4686 62bd
00000050: 5df1 3c3d 15fb d73d 861c d6bc 12a2 c23d
00000060: 58b1 a7bc c02c 5c3c cf82 eb3d 9948 f1bd
00000070: 8146 02be c74a 4abd 72d8 60bd 269e d23c
00000080: cf96 a8bd 3376 6fbd b9b6 b5bd 9498 f3bd
00000090: 2318 c7bd 0b50 b03d 81ba 913d 2f51 133d
000000a0: 2ee1 a0bc d958 85bd 18ba fcbc 1b09 dfbd
000000b0: 01ec 9bbd 01f1 8ebd 8b41 913d 30f3 50bb
000000c0: 4665 dbbd 135a 7ebd cb33 683d 5d56 9f3d
000000d0: 8474 4e3d 3af6 5fbd 2d17 5f3d a752 e9bd
000000e0: d883 64bd 70a7 c9bd 87f0 00be f02c 6ebd
000000f0: ec2e 1bbd 12eb fbbc 9411 9abd 6327 1d3d
00000100: 1bc9 8e3d 8d50 83bc cc97 74bd 0a45 223b
00000110: cb0d 0bbe 342c 92bd 3164 fcbd fb9b 82be
00000120: a548 bf3e ba6c 453e 9c7f b7be 70b3 93be
00000130: 55bd 8a3c f65a b33d 4d6a 3f3c b5b7 a2bd
00000140: d565 f2bd f417 e73d 48c4 c53d 05ba 01be
00000150: 23bb c23c 6643 afbc fb34 abbc 271f 6ebd
00000160: 120b 483d 510e 9abd 655a af3e b407 5a3e
00000170: 40c8 ca3e 8dca 053f 95b6 00be 40b9 a8bd
00000180: b6de 813d 05c1 d93c a408 b43d 3f95 debd
00000190: d1c1 043e c796 4e3e 35d0 70be acd4 d4bd
000001a0: 4d69 dfbd affe 4d3d 6155 d8bd e4ca 0ebe
000001b0: 1a61 88bd 3124 6abe 5b26 27be c3fd 0abe
000001c0: 78cd 1bbd 076c b73d 723e b23d 16fb 4dbe
000001d0: 300a 17bd 12ad 293d 8983 103e a8c0 f63c
000001e0: 90e4 013e c806 a23d 8e9d 02be 6d5d 913c
000001f0: 3e7f f9bd 2929 9abd 3f38 02bd 8964 7dbd
00000200: b999 1d3d 1c9d 6bbe d54c 71be 0894 d9be
00000210: ea5f 0cbe 19d9 d2bd 2979 373e 7591 253e
00000220: 8c57 c0bd cf7b 3fbd 7116 633d 67d6 8c3e
00000230: 0c60 f63d f82c a53d 5cf0 f63d 177c 16bc
00000240: 6aa6 e9bd 869c 76bd d419 b13d 1ed1 57ba
00000250: a747 81bd 9850 c7bd 5f69 f3bd fc85 dbbd
00000260: 7de3 873d b696 483d 0f34 fabc c7bf 56be
00000270: 4e3e a23d 1c87 cbbd b6f2 dbbc 80ec 52bd
00000280: bbd0 183e 1e62 a2ba cb48 a03a 20a4 dfbd
00000290: c02c 8cbd 26fb 833e 94b2 dabd 594d f23c
000002a0: de4c 33be d745 313d af57 d73d 1204 97be
000002b0: 354a b1bd 2db4 07be af45 5cbe 6809 8fbe
000002c0: ff1b 70bc 959e 3cbe dcfc 3f3e 2e60 813c
000002d0: 34b2 1c3e f6d2 d9bc d334 483e 7c63 953c
000002e0: 1466 76bd c97c b3bd b02f fabc 74cc dabc
000002f0: 2a57 d6bd 7fee 8c3d 788a 563d 7124 1b3e
00000300: 4da8 203e 8f25 673e f90b f53d 0d09 3e3e
00000310: af5f d2be acf3 48be d5e2 67be e7a6 733c
00000320: 09f9 2b3e 3a16 a83e aa9c c4bd 2c8f b2bd
00000330: 2407 97bd d10c b63d b2fd 3abd 6463 db3d
00000340: 051b 3c3d 64bd 833c 2ed4 77ba 38aa cdbc
00000350: 8788 823c fe90 edbc c4f4 773e 34e3 02be
00000360: 7051 54be 0526 bcbe 9d06 d23d 8b14 d3bd
00000370: 8469 15bc 0ea6 003e 8e14 db3c 37c3 5a3e
00000380: eb18 4fbe 28cf 103c 6b71 7c3e 29cd 053e
00000390: c952 88be 2d5f 92be 124c c0bc 2844 403e
000003a0: 72ce da3b 7325 1ebe 46b4 14bd a074 28be
000003b0: 285c 18bd 6032 88be 7d78 5cbd cfe2 7f3d
000003c0: 5d87 56bd 33ea 1b3e 5193 843d 822f 5539
000003d0: d2ed fc3c 1987 b0be 402a 023e 5840 1fbe
000003e0: fc6c e53a 05e2 b0bc 54fc 88bd 3e82 893c
000003f0: c3c1 ac3e 7dbc e93d 7cd3 e73d 9fdd 8c3e

actor.0.bias f4 [64]
-0.13257408 0.14995277 0.06876001 -0.05865017 -0.109291025 -0.20343156 0.16523184 -0.031092556
0.18933398 -0.053759817 -0.09087345 -0.10168508 0.03448197 0.19775754 -0.068093814 0.038245264
0.014560388 -0.021520734 -0.07835935 -0.031937145 -0.052698027 -0.08313992 0.039446507 -0.07794499
0.08921853 0.11521032 0.020307528 0.07441227 0.023686623 0.07478914 -0.11877857 0.10278838
-0.13137966 -0.08646486 0.09794223 -0.022942312 0.12503715 0.15718576 0.005023964 -0.06769303
0.12908535 0.09556069 0.0057496033 -0.0072271004 -0.0686991 0.22842775 0.037271976 0.07002442
-0.14225401 0.11728941 0.17984955 -0.16095662 -0.041255035 -0.031398278 0.12023484 -0.058862414
0.124882504 0.06774392 -0.09988466 -0.13388373 0.13717599 0.016602512 0.044171646 -0.17677833
00000000: 80c1 07be 388d 193e 0cd2 8c3d 293b 70bd
00000010: f9d3 dfbd 5d50 50be 8932 293e d1b5 febc
00000020: c4e0 413e 4133 5cbd dc1b babd 4440 d0bd
00000030: f73c 0d3d f480 4a3e c574 8bbd 11a7 1c3d
00000040: b28e 6e3c 404c b0bc de7a a0bd 86d0 02bd
00000050: e3d9 57bd 4345 aabd a992 213d 9fa1 9fbd
00000060: 34b8 b63d 63f3 eb3d f95b a63c 7665 983d
00000070: 730a c23c 0c2b 993d 2e42 f3bd b782 d23d
00000080: 6488 06be 7d14 b1bd f095 c83d 84f1 bbbc
00000090: bd09 003e 4ef5 203e 11a0 a43b a5a2 8abd
000000a0: f32e 043e 53b5 c33d 2b67 bc3b 50d1 ecbb
000000b0: 1db2 8cbd f7e8 693e 80aa 183d f768 8f3d
000000c0: 09ab 11be 6e35 f03d 7b2a 383e d0d1 24be
000000d0: 0afb 28bd 7b9b 00bd af3d f63d b719 71bd
000000e0: 66c2 ff3d 53bd 8a3d 5490 ccbd d118 09be
000000f0: dd77 0c3e fe01 883c 54ed 343d 6105 35be

actor.2.weight f4 [64, 64]
-0.066379994 -0.13578601 0.090278424 -0.11255726 -0.034441482 0.069767654 -0.067733206 -0.098312505
-0.17415245 0.003179439 -0.06272027 -0.006637509 -0.0029356903 -0.052157182 0.06443083 -0.059856977
-0.09476704 -0.099745706 0.013700863 -0.05245038 0.008169748 -0.05355475 0.030362513 -0.07817978
-0.07925993 -0.0680277 -0.12405176 0.0030622007 -0.09481743 0.02714728 0.03980791 0.024191704
-0.03986591 0.020906828 -0.13166799 -0.14276718 -0.02963687 -0.10283136 -0.11497007 0.007941957
0.06262604 -0.06315472 -0.048465036 -0.110001676 0.0006843956 -0.02111889 -0.02530765 0.041441504
-0.1293411 -0.090659164 -0.11584811 0.043049123 0.08835336 0.055003475 0.058194913 0.04950708
-0.11337961 -0.084789485 -0.0053368732 -0.12856317 0.03439158 0.026556337 -0.0030338971 -0.10075832
0.07046996 -0.12261607 0.0724669 0.21300681 -0.031231014 0.034126885 0.221563 -0.1511702
0.036813285 0.14011927 0.16566072 0.2051701 -0.2825864 -0.25776595 0.03789987 -0.098835886
0.19463691 0.06724788 0.23110078 0.10509945 -0.22220914 -0.2131883 -0.1391624 0.0015382596
-0.20306653 -0.025836457 -0.016056616 0.051515643 -0.053833105 0.09819945 -0.11653113 0.10248344
-0.059896033 -0.08791355 0.12228017 -0.20319493 -0.15491566 0.08250109 0.21977653 -0.0109329205
0.059655514 0.15684918 0.14173494 0.16579704 0.045833565 -0.17285818 -0.02002528 -0.050124854
-0.11819073 0.072953865 -0.31377754 0.011526787 0.1379024 -0.071335815 -0.32702124 0.105248034
-0.118937425 0.15263623 -0.053658854 -0.017236019 -0.06756832 0.06827872 -0.0895786 0.02396545
-0.05097673 0.0014731137 -0.14412728 -0.057416424 0.034990396 -0.007309209 -0.07928487 -0.11486162
-0.05289224 -0.15765245 -0.012996449 -0.08251977 0.02607306 0.03891395 -0.0045378013 -0.014098983
-0.0005789937 0.04105144 0.00086711295 0.029853223 -0.08945859 -0.02882525 -0.15318267 0.04068024
-0.14086154 -0.05298595 0.054526348 -0.11127094 0.04893603 -0.091092825 0.057054404 0.0069688573
-0.10169343 0.020694755 -0.17120434 -0.10611599 -0.14267308 -0.0064180396 0.019887457 -0.16334954
0.0639189 -0.049955577 -0.102004394 -0.04450696 -0.08104204 -0.006310857 0.010771534 -0.036725745
-0.012050491 0.055180136 -0.08544232 -0.05546796 -0.12579103 -0.14142896 -0.06999417 -0.02516992
-0.17039092 0.010589224 0.078019254 0.049010284 -0.13192244 0.08844413 -0.100572415 -0.08851205
0.025265547 0.085304365 0.08220431 0.055991918 -0.07803082 0.026851265 -0.14222778 -0.040228516
0.11547912 0.048433587 -0.17422946 -0.09652312 -0.0680373 0.016942943 -0.017318558 -0.104927376
-0.0017458589 0.0362235 -0.0018774403 0.04189507 -0.028419573 0.02608643 -0.037293237 -0.06571991
-0.05039517 0.08799679 0.026291056 -0.12792276 -0.10666183 -0.13308464 -0.05813171 0.012525236
0.09760941 -0.0140576465 0.03967076 0.04456646 -0.1332967 -0.14984247 -0.004658142 -0.05714968
-0.10115443 -0.007533569 -0.1419113 -0.047870614 -0.024806537 -0.06642341 -0.010533343 0.045210578
-0.059289277 0.05285019 -0.13821518 -0.04962698 -0.17532204 -0.14926502 0.052506417 -0.051630884
-0.10296112 0.0069429493 -0.08709843 -0.014295657 0.036658328 -0.09327598 0.052055206 -0.016378753
00000000: 3cf2 87bd 7d0b 0bbe e5e3 b83d 6c84 e6bd
00000010: 8312 0dbd 58e2 8e3d b5b7 8abd 1158 c9bd
00000020: 0555 32be 235e 503b 7c73 80bd 767f d9bb
00000030: b664 40bb c5a2 55bd 50f4 833d 972c 75bd
00000040: 3915 c2bd 7a47 ccbd 9679 603c 36d6 56bd
00000050: 68da 053c 3a5c 5bbd ceba f83c b81c a0bd
00000060: 0853 a2bd 1b52 8bbd d90e febd 34af 483b
00000070: a42f c2bd f963 de3c 9e0d 233d ae2d c63c
00000080: 704a 23bd cc44 ab3c f9d3 06be 8f31 12be
00000090: 05c9 f2bc 4099 d2bd 6e75 ebbd fb1e 023c
000000a0: 1542 803d 4357 81bd 4683 46bd 8f48 e1bd
000000b0: 0369 333a 8601 adbc fd51 cfbc 91be 293d
000000c0: fe71 04be 83ab b9bd c641 edbd 4754 303d
000000d0: 9bf2 b43d 534b 613d ca5d 6e3d f0c7 4a3d
000000e0: 9233 e8bd 1ca6 adbd f0e0 aebb 10a6 03be
000000f0: 2fde 0c3d ad8c d93c 59d4 46bb 615a cebd
00000100: 8e52 903d 221e fbbd 8769 943d 751e 5a3e
00000110: 2fd8 ffbc a2c8 0b3d 69e1 623e 5ccc 1abe
00000120: 87c9 163d 6d7b 0f3e f7a2 293e 1c18 523e
00000130: 2aaf 90be e6f9 83be e53c 1b3d 786a cabd
00000140: e64e 473e 42b9 893d afa5 6c3e 613e d73d
00000150: cb8a 63be 094e 5abe 9780 0ebe 6d9f c93a
00000160: acf0 4fbe faa6 d3bc 2a89 83bc 1102 533d
00000170: 1a80 5cbd cb1c c93d e0a7 eebd d6e2 d13d
00000180: 8b55 75bd 050c b4bd 076e fa3d 5512 50be
00000190: 36a2 1ebe 55f6 a83d 190d 613e fe1f 33bc
000001a0: 5759 743d 129d 203e f722 113e b3c6 293e
000001b0: fabb 3b3d bc01 31be 0e0c a4bc b84f 4dbd
000001c0: fb0d f2bd d668 953d 73a7 a0be d9da 3c3c
000001d0: 4936 0d3e 8318 92bd 546f a7be 488c d73d
000001e0: 7795 f3bd ac4c 1c3e 63c9 5bbd 8d32 8dbc
000001f0: 4261 8abd b7d5 8b3d fc74 b7bd 3153 c43c
00000200: facc 50bd 7e15 c13a 1a96 13be 7c2d 6bbd
00000210: 1752 0f3d 1782 efbb 1b60 a2bd 923c ebbd
00000220: 89a5 58bd a56f 21be 0fef 54bc 2000 a9bd
00000230: 2c97 d53c 3c64 1f3d d6b1 94bb 6cff 66bc
00000240: 9cc7 17ba 8e25 283d f74e 633a bf8e f43c
00000250: 1136 b7bd ee22 ecbc ebdb 1cbe 53a0 263d
00000260: 023e 10be cc07 59bd 0557 5f3d 05e2 e3bd
00000270: 2671 483d e08e babd e1b1 693d 035b e43b
00000280: a544 d0bd 0c88 a93c 3150 2fbe 5753 d9bd
00000290: e418 12be 6b4e d2bb 05eb a23c 1a45 27be
000002a0: eae7 823d 389e 4cbd aee7 d0bd ee4c 36bd
000002b0: 5ef9 a5bd 4ecb cebb 177b 303c bc6d 16bd
000002c0: 6c6f 45bc 9104 623d 62fc aebd 5f32 63bd
000002d0: 5dcf 00be c1d2 10be 1a59 8fbd 2631 cebc
000002e0: f57a 2ebe 6d7e 2d3c 8fc8 9f3d 02bf 483d
000002f0: ad16 07be 3222 b53d e9f8 cdbd ce45 b5bd
00000300: b1f9 ce3c 0eb4 ae3d bc5a a83d c857 653d
00000310: 9fce 9fbd 2ff7 db3c 29a4 11be a8c6 24bd
00000320: 5180 ec3d 4c62 463d 3569 32be eaad c5bd
00000330: 2457 8bbd edcb 8a3c a6df 8dbc 2ae4 d6bd
00000340: 4ed5 e4ba 185f 143d 7114 f6ba 2a9a 2b3d
00000350: 2ad0 e8bc 35b3 d53c cbc0 18bd 2998 86bd
00000360: 2a6b 4ebd a937 b43d 5760 d73c 2ffe 02be
00000370: 8471 dabd 5747 08be 841b 6ebd a636 4d3c
00000380: 71e7 c73d 0b52 66bc cf7d 223d 528b 363d
00000390: ee7e 08be 4e70 19be 54a3 98bb c815 6abd
000003a0: 0e2a cfbd 28dc f6bb 3251 11be fa13 44bd
000003b0: 1437 cbbc ff08 88bd 0b94 2cbc ba2e 393d
000003c0: 50d9 72bd 7179 583d 4888 0dbe a945 4bbd
000003d0: 9f87 33be eed8 18be f810 573d e87a 53bd
000003e0: 48dd d2bd ae81 e33b a960 b2bd 5538 6abc
000003f0: 0b27 163d 7a07 bfbd d737 553d bc2c 86bc

actor.2.bias f4 [64]
-0.10509181 0.03126438 -0.04258998 -0.15563408 0.12719473 -0.037216995 0.053854752 0.13857463
0.06623972 0.09497445 0.032625105 0.0033561382 0.0036361387 -0.12849668 0.17299786 0.17159681
-0.090561986 0.048319735 0.09391396 -0.00329152 -0.063540734 -0.034290653 -0.043830413 0.08177641
0.08804253 0.11023661 0.06794971 -0.039467465 -0.02020466 0.070104875 -0.056690764 0.07392035
-0.19620614 -0.0534749 0.0045551173 0.17927876 -0.018149506 -0.0047401963 0.06815711 0.124406785
0.07566174 -0.13276695 -0.0027699405 -0.12871584 0.20516434 0.05881913 -0.09889028 -0.059212655
0.0754023 0.047798865 0.015640777 -0.16149335 -0.11930255 -0.11347091 -0.09524497 -0.01073021
0.16191521 0.20424683 0.025452776 0.1270084 -0.10413841 0.06540971 -0.012965361 0.23701172
00000000: 603a d7bd 140f 003d d572 2ebd 8a5e 1fbe
00000010: 563f 023e d970 18bd cd96 5c3d 82e6 0d3e
00000020: b1a8 873d f781 c23d e7a1 053d a8f2 5b3b
00000030: 494c 6e3b a294 03be 5a26 313e 13b7 2f3e
00000040: 9078 b9bd eaea 453d f655 c03d 8bb6 57bb
00000050: a521 82bd 5b74 0cbd 8587 33bd 647a a73d
00000060: a44f b43d bbc3 e13d 3829 8b3d a3a8 21bd
00000070: 3e84 a5bc 2593 8f3d 9334 68bd 8d63 973d
00000080: 43ea 48be 7f08 5bbd 1843 953b da94 373e
00000090: 46ae 94bc a653 9bbb f495 8b3d fcc8 fe3d
000000a0: 8bf4 9a3d 0ff4 07be e487 35bb 16ce 03be
000000b0: 9a16 523e 54ec 703d fd86 cabd f888 72bd
000000c0: 856c 9a3d bec8 433d 1621 803c 835e 25be
000000d0: e554 f4bd 7063 e8bd cb0f c3bd c3cd 2fbc
000000e0: 1acd 253e 1526 513e 5782 d03c 7d0e 023e
000000f0: 8546 d5bd 87f5 853d aa6c 54bc 33b3 723e

actor.4.weight f4 [36, 64]
0.027966946 0.23150022 0.05882241 -0.028174289 0.19603604 -0.100986466 0.28764483 0.39239654
-0.16269892 0.2081376 -0.05833544 0.13046436 -0.15527856 -0.121101804 -0.07129883 -0.16185667
0.32940063 0.0093739815 0.2829673 0.420811 -0.051914953 -0.051587544 -0.07520145 0.11246095
-0.022193264 0.018764598 0.16521664 0.45659438 -0.29396346 0.023025671 0.4307725 0.5195449
-0.053052414 -0.080598705 -0.12080348 -0.2497913 0.066118844 0.024512634 -0.060389865 0.29281032
-0.153447 0.0029081504 -0.19270669 -0.1494589 -0.16863012 0.16986006 0.04803225 0.04582706
0.011918737 0.097046055 -0.14530918 -0.0047606 0.063309245 0.010089749 0.05111263 0.24543476
-0.18112263 0.07559418 -0.20073707 0.07051494 0.27548212 0.034288168 0.07957643 0.16635147
-0.14284754 0.095285915 0.103086606 -0.024857791 -0.44278586 -0.108649746 -0.5099678 -0.3938669
-0.24896689 0.045060232 -0.35515037 0.0077778366 0.07416416 -0.12166338 0.22119883 -0.1805702
-0.13831723 0.46656522 -0.1739373 -0.23262364 0.5066536 0.1693233 0.06641996 -0.037963245
-0.3208698 0.5468356 -0.07616905 -0.033444572 0.40806952 -0.49330118 0.06205153 -0.123534314
0.026368817 0.015863054 0.50804573 -0.4443194 0.13327846 -0.36488643 -0.051870085 -0.21370769
0.22880697 0.099561274 -0.13062628 -0.043079138 0.23294546 -0.36729953 -0.2667329 0.038323063
0.60309887 -0.03291421 0.597887 0.037273977 0.011988733 0.18482576 0.19698468 0.15770496
0.5527677 0.6601588 -0.40907022 -0.21753804 0.26262468 -0.24804856 0.18564332 -0.33179134
0.035777222 0.22760226 0.1481477 -0.07498752 0.09706549 0.21050881 0.15230855 -0.051697936
-0.035420526 0.088740006 0.30533287 0.106125325 0.19237171 -0.15318933 0.31441304 0.15034379
0.23449343 0.006542628 0.27269447 0.15754007 0.31921834 -0.005051841 0.05567384 -0.029585432
-0.07629673 0.15439613 0.073279575 0.052840076 0.33802992 -0.050023697 0.3835862 -0.010778796
0.057525963 0.08679496 0.3695529 0.35954773 0.119829535 0.20269936 0.18699192 0.321809
0.42272916 -0.21838687 -0.12438679 0.03145388 0.027199302 0.28292048 0.25209445 0.044698484
0.30096477 0.15277532 -0.24092567 0.122651845 0.39306006 -0.06679714 0.08890034 0.2706148
0.10672841 -0.19089814 -0.070624076 -0.20184731 0.30439126 0.3304324 0.11813049 -0.060884707
0.1002283 -0.3545021 0.018941272 0.033136897 0.07448204 -0.013056498 0.23212476 -0.067019574
0.52773464 0.13053824 0.064317934 0.093728006 0.5964459 -0.08216637 0.41264737 0.4573515
-0.099926114 -0.0021830641 -0.52948225 0.039654046 -0.4385255 0.16700399 0.086700164 -0.028520402
-0.009118984 -0.07311754 0.005312116 -0.057775624 0.070630856 -0.0546115 -0.08465844 -0.57241887
0.25224394 0.08820207 0.060661115 -0.32121757 0.13257477 0.025885671 0.0055285785 -0.46019056
0.022117049 0.18638068 0.0692586 -0.032553717 -0.30760038 -0.076140985 -0.1351309 -0.037000336
-0.002489488 0.16105486 -0.08159054 -0.098129116 0.07040834 0.042256065 -0.07768855 -0.013862869
0.6144086 -0.08590627 -0.0042549316 -0.0530401 -0.29455623 0.30051976 0.022463547 0.39438352
00000000: f01a e53c 650e 6d3e c4ef 703d c4cd e6bc
00000010: acbd 483e fed1 cebd 2f46 933e 33e8 c83e
00000020: 8c9a 26be 0622 553e 24f1 6ebd 7398 053e
00000030: 5801 1fbe 3904 f8bd 1f05 92bd c1bd 25be
00000040: 33a7 a83e 5495 193c 17e1 903e 8a74 d73e
00000050: c6a4 54bd 764d 53bd 3803 9abd ed51 e63d
00000060: a6ce b5bc 37b8 993c 8d2e 293e bdc6 e93e
00000070: 6182 96be 55a0 bc3c 378e dc3e e500 053f
00000080: 7d4d 59bd ef10 a5bd d167 f7bd 4ac9 7fbe
00000090: 5169 873d b8ce c83c 5d5b 77bd 3ceb 953e
000000a0: 3621 1dbe ab96 3e3b e754 45be c10b 19be
000000b0: 60ad 2cbe ccef 2d3e 77bd 443d 28b5 3b3d
000000c0: ce46 433c 15c0 c63d eecb 14be cffe 9bbb
000000d0: 47a8 813d 794f 253c 7a5b 513d 4053 7b3e
000000e0: 3678 39be 1fd1 9a3d 058e 4dbe 236a 903d
000000f0: fe0b 8d3e c071 0c3d f8f8 a23d 0a58 2a3e
00000100: a046 12be 4325 c33d 121f d33d 91a2 cbbc
00000110: d4b4 e2be c283 debd 408d 02bf eca8 c9be
00000120: 2df1 7ebe 1491 383d 45d6 b5be 39dd fe3b
00000130: 61e3 973d a62a f9bd f281 623e 65e7 38be
00000140: 08a3 0dbe a3e1 ee3e 9f1c 32be e434 6ebe
00000150: 0db4 013f 1663 2d3e 3007 883d 597f 1bbd
00000160: 0c49 a4be 6bfd 0b3f 85fe 9bbd 2dfd 08bd
00000170: 7dee d03e f991 fcbe bf29 7e3d 8fff fcbd
00000180: 6b03 d83c 3cf3 813c 490f 023f d57d e3be
00000190: 267a 083e 65d2 babe ba75 54bd 30d6 5abe
000001a0: 604c 6a3e c8e6 cb3d e5c2 05be c073 30bd
000001b0: 4189 6e3e af0e bcbe 3791 88be a5f8 1c3d
000001c0: b064 1a3f 0dd1 06bd 1f0f 193f 99ac 183d
000001d0: 646c 443c f742 3d3e 5ab6 493e 697d 213e
000001e0: 2f82 0d3f 2b00 293f a771 d1be 4bc2 5ebe
000001f0: be76 863e 7100 7ebe 4819 3e3e 8ee0 a9be
00000200: 238b 123d 9110 693e 08b4 173e 0f93 99bd
00000210: 46ca c63d 9f8f 573e c6f6 1b3e 37c1 53bd
00000220: 1d15 11bd 52bd b53d 9754 9c3e 3c58 d93d
00000230: 17fd 443e aadd 1cbe bffa a03e b9f3 193e
00000240: 0c1f 703e 8b63 d63b 9c9e 8b3e 2f52 213e
00000250: 9670 a33e ea89 a5bb 410a 643d 265d f2bc
00000260: 7641 9cbd 051a 1e3e 9a13 963d d66e 583d
00000270: 4212 ad3e a6e5 4cbd 6965 c43e 8c99 30bc
00000280: 58a0 6b3d 8ec1 b13d 0a36 bd3e a416 b83e
00000290: 3069 f53d 6c90 4f3e cf7a 3f3e 26c4 a43e
000002a0: f56f d83e cfa0 5fbe 80be febd c9d5 003d
000002b0: 12d1 de3c f4da 903e 8612 813e c215 373d
000002c0: 0e18 9a3e 2271 1c3e 38b5 76be e430 fb3d
000002d0: 2b3f c93e f0cc 88bd 6211 b63d 068e 8a3e
000002e0: 6d94 da3d cd7a 43be 5ba3 90bd 10b1 4ebe
000002f0: 2cd9 9b3e 6f2e a93e 66ee f13d 3e62 79bd
00000300: 7f44 cd3d 4d81 b5be ba2a 9b3c 8eba 073d
00000310: 0a8a 983d ecea 55bc 1db2 6d3e 8f41 89bd
00000320: 9e19 073f d1ab 053e 1fb9 833d 78f4 bf3d
00000330: aeb0 183f d746 a8bd 8446 d33e fa29 ea3e
00000340: 10a6 ccbd bd11 0fbb 268c 07bf 486c 223d
00000350: 6a86 e0be 1803 2b3e db8f b13d 9ea3 e9bc
00000360: cb67 15bc a6be 95bd 4211 ae3b 22a6 6cbd
00000370: e9a6 903d 4fb0 5fbd 6761 adbd 0b8a 12bf
00000380: 1e26 813e 49a3 b43d ca77 783d a176 a4be
00000390: aec1 073e 300e d43c 1429 b53b 199e ebbe
000003a0: d02e b53c 94da 3e3e 74d7 8d3d 0c57 05bd
000003b0: cc7d 9dbe ceef 9bbd c15f 0abe aa8d 17bd
000003c0: ae26 23bb 91eb 243e f118 a7bd ebf7 c8bd
000003d0: 3f32 903d b214 2d3d 2d1b 9fbd 1621 63bc
000003e0: e249 1d3f a0ef afbd f46c 8bbb 9340 59bd
000003f0: 13d0 96be badd 993e 7905 b83c a3ec c93e

actor.4.bias f4 [36]
-0.019435074 0.014491097 0.08533817 0.021360908 0.2264166 0.042236194 -0.0466813 0.15173584
0.032466214 0.019944295 -0.21973051 -0.082777485 -0.0056024026 0.12865752 0.16556525 -0.12972747
0.02866477 -0.34411937 0.16903843 -0.32240212 -0.41445783 0.0026949663 0.03293566 0.028616449
0.1829252 0.028457848 0.19945006 0.035438657 0.16284455 0.19963492 -0.032429222 -0.072382875
-0.059927452 -0.026021525 -0.07167695 0.31807348
00000000: 4e36 9fbc 116c 6d3c c7c5 ae3d 12fd ae3c
00000010: c1d9 673e dcff 2c3d e434 3fbd a460 1b3e
00000020: 4bfb 043d 3862 a33c 0901 61be 3e87 a9bd
00000030: 5c94 b7bb ccbe 033e f089 293e 47d7 04be
00000040: 61d2 ea3c 6a30 b0be 6918 2d3e e411 a5be
00000050: d133 d4be 089e 303b 8be7 063d 0b6d ea3c
00000060: be50 3b3e 6f20 e93c a33c 4c3e 2028 113d
00000070: b9c0 263e 196d 4c3e 81d4 04bd 793d 94bd
00000080: 7d76 75bd 182b d5bc 5dcb 92bd 87da a23e

critic.0.weight f4 [64, 62]
0.07635647 0.08354457 -0.083908446 0.009482246 -0.076180555 -0.075242914 0.111613765 0.09454365
-0.10214559 -0.060562663 0.03969466 -0.051880993 -0.1518099 -0.08157398 -0.079502195 -0.08755855
-0.008365868 -0.107972465 -0.12109008 0.089093745 -0.09144983 0.08891198 0.0087930765 -0.018583413
0.09826457 -0.09916525 0.060841322 0.084765814 0.17676403 0.065994486 -0.047039285 -0.05939061
-0.09423055 0.08673783 -0.022362862 0.0858983 -0.084593706 -0.07253381 -0.008376137 0.06688031
0.033208113 0.014599886 0.061019983 -0.13059402 -0.07152732 -0.005895301 -0.20437416 -0.30255544
0.10390902 -0.15075137 -0.12692764 -0.066163406 0.03142459 0.033429462 -0.09659646 -0.024631193
-0.009172971 0.043020763 -0.031930268 -0.21470854 -0.11437444 -0.016860534 -0.1128423 0.06433067
-0.017239168 -0.050084185 0.021879042 -0.07211965 0.09130317 0.043457787 -0.060813107 -0.086142875
0.08995279 0.42200407 -0.18850671 0.008931076 0.06986325 0.035984904 0.10398414 0.10897633
0.06814908 -0.006805929 -0.032562602 -0.12126438 0.066823736 -0.028784275 0.019905403 -0.028680766
0.08202378 0.0040353225 0.22322069 0.39403322 0.025372598 0.2742103 0.05880494 -0.07486796
0.08931295 0.098380856 0.11896845 -0.11111445 0.2586366 0.2596311 -0.0024388507 0.13380069
0.07296681 0.112187415 0.021107629 0.05231616 0.29015678 0.1484219 -0.039550267 -0.12554677
0.012377701 -0.13805808 -0.046657264 -0.124379225 0.014480374 -0.036109827 0.0009376747 0.04889541
0.10439453 0.16206436 -0.05484793 -0.12530419 -0.10513134 0.07965675 0.105171435 0.048618447
-0.123913854 0.010807064 -0.18959174 -0.17351837 0.13775063 0.055016685 0.28372255 0.20130304
0.1040736 0.044991124 -0.07283051 -0.12798154 -0.019912245 -0.07501419 0.11838697 -0.10327836
0.11854204 -0.02147506 0.022991564 0.1105881 -0.05876423 -0.04705589 0.052543417 -0.032175787
0.014998823 0.1739689 -0.058692437 0.029365698 -0.055639885 0.051634572 0.012293336 -0.097683206
-0.2046337 -0.102193095 0.016158532 0.19218263 -0.22039656 0.020721748 -0.035621405 0.00038403572
-0.0496893 -0.106311604 -0.12583187 -0.16720524 -0.18793328 0.014303969 -0.09475864 -0.11473561
0.06040179 -0.14373676 0.08819696 0.08946842 -0.25942835 -0.007129992 0.046641044 0.0638185
-0.088141516 -0.17058143 -0.11501763 -0.11673309 -0.10628424 0.08884689 -0.043345537 -0.12389932
-0.13217884 0.05084382 0.06253464 0.00771991 0.08933893 0.24708593 0.27559653 0.08400363
-0.111699544 0.030625813 -0.037932936 -0.07882174 -0.08388044 0.08991102 0.021075178 0.041679714
-0.092292465 0.023545597 0.11313734 0.06955967 -0.0055553075 -0.05846521 0.010677406 -0.1414243
-0.0314303 -0.044232365 -0.03601746 -0.0050054374 -0.029890707 -0.07533561 -0.018668234 -0.17834622
-0.1996999 0.30200723 -0.16562302 -0.18269612 -0.05490634 0.17457998 -0.09933545 -0.17828971
-0.07297193 -0.08764363 -0.07508688 -0.11280998 -0.10248298 -0.14086339 0.08939693 -0.30327654
0.04106665 0.11846104 -0.28907245 -0.01956514 0.17236711 0.016144134 -0.24233685 -0.17274155
0.06834458 0.09007455 -0.1143471 -0.0821262 0.1046628 -0.16955134 0.07751015 0.042767342
00000000: c860 9c3d 6a19 ab3d 31d8 abbd 6c5b 1b3c
00000010: 8d04 9cbd f518 9abd c295 e43d 1aa0 c13d
00000020: b531 d1bd 8e10 78bd de96 223d 2a81 54bd
00000030: 0e74 1bbe 4210 a7bd 0cd2 a2bd e651 b3bd
00000040: fe10 09bc ab20 ddbd 13fe f7bd c876 b63d
00000050: 0c4a bbbd 7c17 b63d d610 103c 3e3c 98bc
00000060: ef3e c93d 2717 cbbd c034 793d b399 ad3d
00000070: a101 353e 1e28 873d 44ac 40bd 9143 73bd
00000080: f2fb c0bd 9aa3 b13d 5232 b7bc 73eb af3d
00000090: 773f adbd 9b8c 94bd 113c 09bc 8bf8 883d
000000a0: 3b05 083d 5c34 6f3c 17f0 793d 70ba 05be
000000b0: ea7c 92bd 5e2d c1bb 7647 51be 8ce8 9abe
000000c0: 41ce d43d 915e 1abe 52f9 01be ae80 87bd
000000d0: 12b7 003d 55ed 083d 5dd4 c5bd 5bc7 c9bc
000000e0: 3b4a 16bc 8a36 303d 50c9 02bd 8edc 5bbe
000000f0: 253d eabd 1a1f 8abc dd19 e7bd ccbf 833d
00000100: 2839 8dbc 1325 4dbd ad3b b33c 78b3 93bd
00000110: 28fd ba3d cb00 323d 2a17 79bd ad6b b0bd
00000120: 2b39 b83d eb10 d83e e707 41be a653 123c
00000130: 7714 8f3d e864 133d a3f5 d43d fb2e df3d
00000140: bf91 8b3d 4504 dfbb 5d60 05bd 7659 f8bd
00000150: e2da 883d 00cd ebbc a810 a33c edf3 eabc
00000160: 15fc a73d bd3a 843b f793 643e b9be c93e
00000170: 32da cf3c 4b65 8c3e 73dd 703d 5f54 99bd
00000180: b5e9 b63d e77b c93d bba5 f33d f98f e3bd
00000190: 046c 843e 5eee 843e 20d5 1fbb 0c03 093e
000001a0: 9f6f 953d 84c2 e53d e8e9 ac3c 7849 563d
000001b0: 6e8f 943e e9fb 173e 76ff 21bd 558f 00be
000001c0: d7cb 4a3c 195f 0dbe b01b 3fbd 89ba febd
000001d0: 173f 6d3c e6e7 13bd 49ce 753a 8e46 483d
000001e0: cdcc d53d 33f4 253e 39a8 60bd be4f 00be
000001f0: 1a4f d7bd 1423 a33d 1f64 d73d 2324 473d
00000200: 8cc6 fdbd 1d10 313c 5624 42be cdae 31be
00000210: 800e 0d3e 2d59 613d 1544 913e 6222 4e3e
00000220: 8a24 d53d 9d48 383d 2a28 95bd 980d 03be
00000230: 011f a3bc 0aa1 99bd de74 f23d 9b83 d3bd
00000240: 2bc6 f23d 77ec afbc ce58 bc3c 047c e23d
00000250: c3b2 70bd adbd 40bd c437 573d c2ca 03bd
00000260: a0bd 753c e724 323e 7b67 70bd 5590 f03c
00000270: a6e6 63bd c67e 533d fd69 493c 220e c8bd
00000280: 7f8b 51be 9d4a d1bd e65e 843c 86cb 443e
00000290: a3af 61be a8c0 a93c c0e7 11bd 6758 c939
000002a0: 0287 4bbd e6b9 d9bd 12da 00be da37 2bbe
000002b0: 9571 40be 325b 6a3c d110 c2bd 81fa eabd
000002c0: de67 773d bb2f 13be 9ca0 b43d 383b b73d
000002d0: cbd3 84be b5a2 e9bb ae0a 3f3d 46b3 823d
000002e0: 8a83 b4bd e6ac 2ebe 5d8e ebbd c211 efbd
000002f0: 8dab d9bd 5cf5 b53d 178b 31bd edbe fdbd
00000300: e459 07be 9c41 503d 2912 803d 4cf7 fc3b
00000310: 54f7 b63d 1804 7d3e fd1a 8d3e 180a ac3d
00000320: bbc2 e4bd fce2 fa3c 915f 1bbd 4b6d a1bd
00000330: 82c9 abbd 4523 b83d daa5 ac3c 59b8 2a3d
00000340: d503 bdbd b2e2 c03c 8db4 e73d 4d75 8e3d
00000350: 4c09 b6bb 3779 6fbd 49f0 2e3c 88d1 10be
00000360: 0fbd 00bd ff2c 35bd 0b87 13bd a704 a4bb
00000370: 5bdd f4bc 8e49 9abd 20ee 98bc 64a0 36be
00000380: 217e 4cbe b1a0 9a3e 1599 29be b114 3bbe
00000390: 78e5 60bd 18c5 323e 6270 cbbd 9491 36be
000003a0: 4f72 95bd 817e b3bd 26c7 99bd eb08 e7bd
000003b0: 99e2 d1bd 7e3e 10be bd15 b73d 1047 9bbe
000003c0: 8135 283d b49b f23d 4e01 94be 1347 a0bc
000003d0: 0181 303e b440 843c 2727 78be 29e3 30be
000003e0: 3ef8 8b3d 0179 b83d d02e eabd c831 a8bd
000003f0: 7359 d63d de9e 2dbe a4bd 9e3d cf2c 2f3d

critic.0.bias f4 [64]
-0.1994064 0.10134478 -0.07638034 -0.0113097 -0.047361944 -0.057657693 0.031603593 -0.14714934
-0.19573233 0.062076565 -0.042268913 0.075161636 -0.15912306 -0.15351643 -0.038690843 0.020718684
-0.017514687 0.3117363 0.017799536 0.07097731 -0.02533059 -0.0015027893 -0.029090744 -0.08456904
-0.0063881744 -0.07897973 -0.117477454 -0.051628724 0.04505624 -0.07409173 0.07243536 -0.053968284
-0.06870187 -0.08735643 -0.052527573 0.13803534 0.10492909 0.017831128 -0.11205848 0.20732704
-0.18517669 -0.17993352 -0.10040155 0.054890797 -0.1789464 -0.26288128 0.14064671 0.11590551
0.0767071 0.05404039 -0.009750506 0.0032865282 -0.07372683 -0.18685147 -0.19858178 -0.16673844
0.029557776 0.0022290975 -0.19947724 0.014566803 0.06975713 -0.14451207 -0.11184053 -0.18463479
00000000: 3131 4cbe da8d cf3d 4c6d 9cbd 524c 39bc
00000010: 99fe 41bd 792a 6cbd c572 013d 51ae 16be
00000020: 0e6e 48be ff43 7e3d 2b22 2dbd 58ee 993d
00000030: 28f1 22be 6933 1dbe 4a7a 1ebd 3bba a93c
00000040: f67a 8fbc e69b 9f3e 55d0 913c 8d5c 913d
00000050: 1982 cfbc 3ef9 c4ba b64f eebc 8832 adbd
00000060: e453 d1bb 20c0 a1bd 0598 f0bd a478 53bd
00000070: e48c 383d 68bd 97bd fd58 943d d90d 5dbd
00000080: 91b3 8cbd eee7 b2bd 2727 57bd 2359 0d3e
00000090: 10e5 d63d 9612 923c eb7e e5bd 8a4d 543e
000000a0: f59e 3dbe 7e40 38be 549f cdbd 2cd5 603d
000000b0: ba3d 37be 6098 86be b105 103e de5f ed3d
000000c0: 9d18 9d3d 7559 5d3d 96c0 1fbc cb62 573b
000000d0: 18fe 96bd fe55 3fbe 0659 4bbe 7bbd 2abe
000000e0: 2623 f23c 0d16 123b c343 4cbe 9aa9 6e3c
000000f0: d4dc 8e3d f9fa 13be a60c e5bd e710 3dbe

critic.2.weight f4 [64, 64]
0.06917954 0.1850695 0.09100713 0.09824164 0.06895974 -0.06354251 0.2018251 -0.06617605
-0.025112895 -0.2568981 0.0751214 0.25080553 -0.0042882552 0.27112156 0.034840196 0.0038142062
0.13086617 0.45659414 -0.09453733 0.31880218 0.2149879 0.37053886 0.054665044 0.30183735
-0.01594487 -0.040771294 -0.010504885 0.038568445 -0.1326786 0.20315711 0.11340197 0.086826324
0.11843362 -0.052586067 0.025174739 -0.09089113 -0.31651518 0.17015116 0.07689929 0.26125297
-0.07912969 0.08219526 0.17574017 -0.42663097 0.00886581 -0.0049247844 0.23584013 -0.23341992
0.31356484 0.19722478 -0.042483006 0.39457428 0.07212311 0.14944893 -0.0161391 -0.040588975
0.22275308 0.04246963 0.09346981 -0.2690626 -0.0069588847 0.17965639 0.2803964 0.025499357
0.07591686 -0.0011890065 -0.14040823 0.032525394 -0.070738465 -0.06871813 -0.0714993 0.09335523
-0.08442697 -0.17853571 -0.15443502 -0.021889636 -0.12051386 -0.14944105 -0.1275702 0.008059679
0.016179878 -0.22643726 -0.0955482 0.07393196 0.06515651 0.02031041 0.03767537 -0.080851525
-0.15256995 -0.14325628 -0.16671124 0.004724881 -0.06759212 -0.09495628 -0.21809289 -0.006363458
0.11389077 -0.0014066236 0.021328084 -0.15232736 0.013409165 0.014968697 0.033973448 0.02718786
0.19758634 0.022518413 0.03583989 0.019990403 0.06663989 -0.17990948 0.043710288 -0.12156227
-0.07784058 -0.048620537 -0.09828643 0.0878917 -0.15204479 -0.19781178 -0.008043178 0.0810439
-0.14534591 -0.08297235 -0.009803495 -0.16302107 0.0220691 -0.011262873 0.057982568 0.010648991
0.026140148 -0.045352083 -0.00035864112 0.04125335 -0.10751369 0.027510194 0.07176809 0.037947625
-0.112274125 -0.030052502 0.023336772 -0.13665524 -0.009348849 -0.0984212 0.103986464 0.060449626
-0.08147488 0.033751782 -0.012694882 -0.05878188 -0.06372709 0.04990624 0.1838874 0.055696502
-0.1637224 0.040944364 0.05577358 -0.170177 0.029586878 -0.106265664 0.09884615 -0.28215304
-0.017774029 -0.016223222 0.058381375 -0.009588814 -0.009695623 -0.046225198 -0.06032889 -0.15266733
0.12064858 0.03443608 -0.00049415283 0.007074118 -0.03353136 -0.11434145 -0.01284074 0.05610303
0.07591144 -0.053553276 -0.009080047 -0.102449164 0.08254267 0.01063803 -0.026706172 0.014989792
-0.100803025 0.07769531 -0.06434228 -0.12485199 -0.09617753 -0.0812623 -0.028646488 -0.15112697
-0.015335688 -0.016312454 -0.062288955 0.00938461 0.005332372 -0.08390596 0.008465258 0.001450466
-0.08186169 -0.18504065 -0.00599001 -0.06558352 0.02877365 -0.100809075 0.16194592 0.123517364
0.011053755 -0.091688626 -0.13615182 0.032986972 0.036143918 0.09771299 -0.07822817 0.08963201
-0.09027056 -0.11197343 0.044665594 -0.035926316 0.06840876 -0.059651338 0.05611427 -0.067572124
0.06803568 0.07718753 -0.07671468 -0.1459144 0.042239908 -0.14519718 -0.08065546 -0.05602484
-0.10991014 0.15624315 -0.048131324 0.058977973 -0.10950137 0.105219014 -0.06984218 -0.044947714
-0.079512775 0.028528137 -0.060171567 -0.09759678 0.057105865 0.076501325 -0.09906098 0.122650795
-0.0018994008 0.06555044 -0.035670403 -0.14022765 -0.041948054 -0.10697753 0.07748795 0.102200195
00000000: 01ae 8d3d dc82 3d3e f261 ba3d ea32 c93d
00000010: c43a 8d3d 9322 82bd 3dab 4e3e 4f87 87bd
00000020: 8fb9 cdbc 2688 83be 40d9 993d 9569 803e
00000030: 7e84 8cbb 72d0 8a3e 98b4 0e3d c3f7 793b
00000040: c801 063e b5c6 e93e ca9c c1bd 0a3a a33e
00000050: ca25 5c3e 45b7 bd3e 74e8 5f3d 6d8a 9a3e
00000060: d19e 82bc cdff 26bd ae1c 2cbc f2f9 1d3d
00000070: e6dc 07be 6b08 503e 4b3f e83d 00d2 b13d
00000080: 538d f23d 7d64 57bd 413b ce3c 2125 babd
00000090: 470e a2be 1b3c 2e3e 607d 9d3d f3c2 853e
000000a0: bf0e a2bd fd55 a83d 3bf5 333e 606f dabe
000000b0: e741 113c 1660 a1bb 1380 713e a205 6fbe
000000c0: 928b a03e 4bf5 493e a902 2ebd a405 ca3e
000000d0: 48b5 933d 2409 193e 2536 84bc a040 26bd
000000e0: 6219 643e a2f4 2d3d 1a6d bf3d 93c2 89be
000000f0: 5b07 e4bb d8f7 373e 1e90 8f3e 07e4 d03c
00000100: 4c7a 9b3d 70d8 9bba 2dc7 0fbe 5939 053d
00000110: 54df 90bd 17bc 8cbd 3a6e 92bd 0731 bf3d
00000120: 0ce8 acbd 11d2 36be 3724 1ebe e551 b3bc
00000130: f8cf f6bd 1307 19be c3a1 02be be0c 043c
00000140: aa8b 843c 2bdf 67be c6ae c3bd a469 973d
00000150: c770 853d 0462 a63c 7d51 1a3d 7c95 a5bd
00000160: 4c3b 1cbe c6b1 12be 5ab6 2abe 2dd3 9a3b
00000170: bd6d 8abd 7078 c2bd be53 5fbe 8e84 d0bb
00000180: 903f e93d 755e b8ba 3cb8 ae3c b4fb 1bbe
00000190: 1db2 5b3c 443f 753c be27 0b3d 13b9 de3c
000001a0: 1354 4a3e 8978 b83c d9cc 123d eac2 a33c
000001b0: 7f7a 883d 313a 38be 8f09 333d a4f5 f8bd
000001c0: e26a 9fbd 5426 47bd 654a c9bd 9000 b43d
000001d0: a1b1 1bbe 2c8f 4abe 89c7 03bc 58fa a53d
000001e0: 8fd5 14be 68ed a9bd d79e 20bc ffee 26be
000001f0: 42ca b43c ea87 38bc 217f 6d3d 1b79 2e3c
00000200: dd23 d63c 1bc3 39bd ff07 bcb9 46f9 283d
00000210: 2330 dcbd 0f5d e13c 26fb 923d f86e 1b3d
00000220: faef e5bd aa30 f6bc c22c bf3c 5aef 0bbe
00000230: ea2b 19bc 0e91 c9bd dbf6 d43d 079a 773d
00000240: 4ddc a6bd 4f3f 0a3d 32fe 4fbc 45c5 70bd
00000250: 5983 82bd 7c6a 4c3d fb4c 3c3e 0422 643d
00000260: d8a6 27be 47b5 273d d672 643d e142 2ebe
00000270: 2e60 f23c d0a1 d9bd da6f ca3d 5d76 90be
00000280: d79a 91bc 90e6 84bc 4f21 6f3d 671a 1dbc
00000290: 64da 1ebc a256 3dbd 6d1b 77bd d354 1cbe
000002a0: 9a16 f73d d90c 0d3d 098a 01ba 01ce e73b
000002b0: 2e58 09bd da2b eabd f861 52bc 4acc 653d
000002c0: 7577 9b3d ae5a 5bbd 7ac4 14bc ded0 d1bd
000002d0: 220c a93d 224b 2e3c e7c6 dabc bf97 753c
000002e0: d171 cebd b81e 9f3d e3c5 83bd 66b2 ffbd
000002f0: baf8 c4bd d96c a6bd 0aac eabc 07c1 1abe
00000300: 8a42 7bbc b2a1 85bc b422 7fbd e8c1 193c
00000310: 2ebb ae3b e3d6 abbd deb1 0a3c 901d be3a
00000320: 1aa7 a7bd 4c7b 3dbe d947 c4bb a750 86bd
00000330: b8b6 eb3c fd74 cebd 27d5 253e acf6 fc3d
00000340: cf1a 353c 3fc7 bbbd 626b 0bbe 591d 073d
00000350: a50b 143d c01d c83d 1736 a0bd fd90 b73d
00000360: c5df b8bd 5352 e5bd 45f3 363d 7927 13bd
00000370: e419 8c3d f654 74bd 14d8 653d 4163 8abd
00000380: 4a56 8b3d 7f14 9e3d 961c 9dbd 966a 15be
00000390: c103 2d3d 92ae 14be b12e a5bd 4d7a 65bd
000003a0: 9118 e1bd 34fe 1f3e 5a25 45bd e392 713d
000003b0: 4142 e0bd 117d d73d 6b09 8fbd 181b 38bd
000003c0: 98d7 a2bd d7b3 e93c 7676 76bd d2e0 c7bd
000003d0: d7e7 693d baac 9c3d 7ce0 cabd 5730 fb3d
000003e0: 51f5 f8ba 4f3f 863d 211b 12bd d697 0fbe
000003f0: b9d1 2bbd 0917 dbbd 01b2 9e3d 564e d13d

critic.2.bias f4 [64]
0.18874358 -0.094921745 -0.06855761 -0.064590484 -0.09209025 -0.17303957 -0.06317818 0.014091401
-0.10982956 -0.112020984 0.042106643 0.074610926 -0.032561373 -0.024578635 -0.04216994 -0.058162175
-0.12647165 -0.01056181 0.2200294 0.22279984 -0.02244518 -0.011846209 -0.12589595 -0.19247532
0.14119013 -0.15745676 -0.10156406 -0.16793841 -0.029319268 -0.016313547 -0.11280015 -0.105400376
-0.120684005 -0.12229308 0.20598511 -0.08736966 -0.09677934 -0.17963499 -0.15491468 -0.07236935
-0.03158256 -0.06803957 0.042067416 -0.07372569 -0.15913618 0.120355725 -0.114067234 -0.05037765
-0.123534836 0.059020724 0.030455774 -0.1284104 -0.06557207 -0.15649982 -0.041372698 -0.014614261
-0.037179247 -0.13267498 -0.07095011 -0.10597663 -0.14064676 -0.053525288 -0.16819456 -0.13751277
00000000: ff45 413e 5566 c2bd ef67 8cbd 0448 84bd
00000010: d099 bcbd 4931 31be 9063 81bd 9fdf 663c
00000020: 52ee e0bd 426b e5bd 0478 2c3d 9dcd 983d
00000030: 135f 05bd 2259 c9bc 63ba 2cbd 763b 6ebd
00000040: c981 01be 710b 2dbc 634f 613e a425 643e
00000050: f4de b7bc 9a16 42bc deea 00be 4018 45be
00000060: 2594 103e 583c 21be d100 d0bd 0cf8 2bbe
00000070: f62e f0bc fda3 85bc c403 e7bd 27dc d7bd
00000080: 2d29 f7bd cb74 fabd c3ed 523e ddee b2bd
00000090: 3f34 c6bd 3cf2 37be f4a1 1ebe 6236 94bd
000000a0: b75c 01bd 5458 8bbd e24e 2c3d 7ffd 96bd
000000b0: 98f4 22be 107d f63d 159c e9bd cb58 4ebd
000000c0: d5ff fcbd b7bf 713d 637e f93c 047e 03be
000000d0: a64a 86bd 7d41 20be 6b76 29bd a770 6fbc
000000e0: 4449 18bd f3db 07be 4b4e 91bd 460a d9bd
000000f0: b405 10be 553d 5bbd 323b 2cbe 26d0 0cbe

critic.4.weight f4 [1, 64]
-0.204377 0.04517811 0.0003041047 -0.022306502 -0.1495162 0.00030747027 0.05179688 0.08030051
0.05887179 0.0023545276 0.0066757225 -0.052017942 -0.0035524217 0.022971522 -0.067028075 0.004641393
0.027818903 0.13279673 0.099836744 0.15027311 0.022841753 -0.010461542 -0.03858343 0.1107035
0.08420306 0.010621119 -0.02681888 -0.003453642 -0.022774415 -0.030560644 0.023944156 -0.07821039
-0.0044730883 0.059534173 -0.15840518 -0.021625532 0.015949447 0.00031725084 -0.04812432 0.049820244
-0.03188368 0.11185373 0.10243383 0.015214273 0.003993233 0.05694604 0.0170338 0.07173378
0.0120281 -0.07157864 -0.053129345 0.096369416 0.07301245 0.0041409796 -0.0037765384 0.032747936
-0.0013126361 0.00024572742 -0.0049855364 0.0010080098 -0.036110714 0.086953916 -0.026683368 -0.13027258
00000000: 3448 51be af0c 393d 3e70 9f39 20bc b6bc
00000010: c61a 19be f633 a139 f728 543d 9874 a43d
00000020: 8c23 713d 6b4e 1a3b 05c0 da3b c410 55bd
00000030: bfcf 68bb c62e bc3c 0446 89bd d416 983b
00000040: 78e4 e33c defb 073e 3577 cc3d 32e1 193e
00000050: a11e bb3c e366 2bbc a909 1ebd 84b8 e23d
00000060: a772 ac3d 3404 2e3c 45b3 dbbc 7f56 62bb
00000070: 6991 babc 515a fabc 8926 c43c c52c a0bd
00000080: fc92 92bb 1bda 733d f834 22be 0728 b1bc
00000090: 6aa8 823c b054 a639 021e 45bd 5010 4c3d
000000a0: 7698 02bd 9213 e53d d4c8 d13d 4945 793c
000000b0: abd9 823b 4040 693d 788a 8b3c 29e9 923d
000000c0: 8211 453c d297 92bd 289e 59bd 545d c53d
000000d0: 8d87 953d 0eb1 873b cd7f 77bb b322 063d
000000e0: c20c acba fad4 8039 b65d a3bb 321f 843a
000000f0: d4e8 13bd e514 b23d 1497 dabc 2d66 05be
