RL/CC2-Cardiff-implementation/GT-Cardiff-CC2/Models/PPOxCCE-C3/8000.pth (torch, 78850 bytes, 11 tensors)

actor.0.weight f4 [64, 62]
00000000: ed40 79ba e786 8b3d 2a12 d6bd 3c6a bfbd
00000010: a5fa fabb 5c9b ae3d 2478 ea3a b904 4c3d
00000020: ab7f d8bb 0d68 1b3d 0410 5cbd f3d6 80bd
00000030: 44da adbd d2c0 9bbd 9598 eabd b682 9bbd
00000040: 81a6 4d3d 4d10 9c3d 7754 b0bd 4686 62bd
00000050: 5df1 3c3d 15fb d73d 861c d6bc 12a2 c23d
00000060: 58b1 a7bc c02c 5c3c cf82 eb3d 9948 f1bd
00000070: 8146 02be c74a 4abd 72d8 60bd 269e d23c
00000080: cf96 a8bd 3376 6fbd b9b6 b5bd 9498 f3bd
00000090: 2318 c7bd 0b50 b03d 81ba 913d 2f51 133d
000000a0: 2ee1 a0bc d958 85bd 18ba fcbc 1b09 dfbd
000000b0: 01ec 9bbd 01f1 8ebd 8b41 913d 30f3 50bb
000000c0: 4665 dbbd 135a 7ebd cb33 683d 5d56 9f3d
000000d0: 8474 4e3d 3af6 5fbd 2d17 5f3d a752 e9bd
000000e0: d883 64bd 70a7 c9bd 87f0 00be f02c 6ebd
000000f0: ec2e 1bbd 12eb fbbc 9411 9abd 6327 1d3d
00000100: 1bc9 8e3d 8d50 83bc f3e3 3cbe 9a99 12be
00000110: c0b6 1cbe ba20 f0bd 1e6d 35be 2328 a2be
00000120: b23d c43e fae1 8f3e 2022 aebe 921a 80be
00000130: 58d4 3c3d c68b eb3c 4d6a 3f3c b5b7 a2bd
00000140: d565 f2bd f417 e73d 48c4 c53d 05ba 01be
00000150: 23bb c23c 6643 afbc fb34 abbc 271f 6ebd
00000160: 120b 483d 510e 9abd 7caf 053e e856 463e
00000170: 9c85 ac3e f668 193f 95b6 00be 40b9 a8bd
00000180: b6de 813d 05c1 d93c 4c8d 443d 5dba 16be
00000190: cc2a 0b3e 8feb 873e 788c 8fbe 6ad6 7b3d
000001a0: 15ca 89be d69d 763d 6155 d8bd e4ca 0ebe
000001b0: c24a 62bd 2e7d 6bbe d254 b03d 4233 aa3d
000001c0: c5a8 92bd fe51 9ebc 723e b23d 1e78 6dbe
000001d0: cfd4 a3b9 a570 f23d e7df 903e a8c0 f63c
000001e0: 7c3e 633e 342a 083e 7f32 0abe 8a9d 5cbd
000001f0: 3e7f f9bd 2929 9abd 3f38 02bd 8964 7dbd
00000200: 9199 1d3d 1c9d 6bbe d54c 71be 0894 d9be
00000210: 5906 d4bd 6cfd 41be 4ae3 483e 69ec 6f3e
00000220: 531e 39bd cf8f a7bd baef efbb 744d 4c3e
00000230: 0c60 f63d f82c a53d 5cf0 f63d 177c 16bc
00000240: 6aa6 e9bd 869c 76bd d419 b13d 1ed1 57ba
00000250: a747 81bd 9850 c7bd 5f69 f3bd fc85 dbbd
00000260: 1f5a 43be e6ac 8cbd e8ba 193b f8d2 bcbe
00000270: 4e3e a23d 1c87 cbbd b6f2 dbbc 80ec 52bd
00000280: 151b 07bd 79a1 1abe e27a 9db9 755e 1dbe
00000290: 4b01 aebe 6d6d 263d 7dc9 63be 2a41 44bc
000002a0: de4c 33be d745 313d 6d3c d13d f687 99be
000002b0: 354a b1bd 2db4 07be d5c4 65be 657c 8dbe
000002c0: ff1b 70bc 15d3 3ebe 3d9e 7d3e 0fe6 0ebc
000002d0: 983d 413e f6d2 d9bc 7423 3a3e bbba afbd
000002e0: 383f 75bd 0f13 cebd b02f fabc 74cc dabc
000002f0: 2a57 d6bd 7fee 8c3d b171 2f3e 176d c33e
00000300: d0db 5b3e 9c4e ee3e 11d9 103e 59db d63e
00000310: 0439 e7be f3ad b1bd 015b 2abe 9656 6f3d
00000320: ab9a 243e 8d02 d23e aa9c c4bd 2c8f b2bd
00000330: 2407 97bd d10c b63d b2fd 3abd 6463 db3d
00000340: 051b 3c3d 64bd 833c 2ed4 77ba 38aa cdbc
00000350: 8788 823c fe90 edbc b7af d83e cc7e 87bd
00000360: 7051 54be 5f0d c5be 9d06 d23d 8b14 d3bd
00000370: 8469 15bc 0ea6 003e b1c6 233a f257 4c3e
00000380: 55c3 79be 79ff e2bd 13cc 833e a424 183e
00000390: 8f59 acbe 62e6 30bd 8c82 debd 4487 003e
000003a0: fc9b 163c 4ad0 81be ecb4 14bd a074 28be
000003b0: 4882 81bd e1e5 36be 7d78 5cbd 19f2 24bc
000003c0: b0f3 87bd 3c0b 763e f9c6 0d3d 822f 5539
000003d0: fb65 b3bd a5a7 52be 18b4 733d c9c0 e6bd
000003e0: fc6c e53a 05e2 b0bc 54fc 88bd 3e82 893c
000003f0: e043 a83e 0f6a b43e 08fc 353e 6b99 083f
-0.0009508271 0.0681284 -0.10452683 -0.093464345 -0.0076592737 0.08525726 0.0017888588 0.04980919
-0.006607016 0.037941027 -0.05372621 -0.06290998 -0.084888965 -0.07605137 -0.11454884 -0.075932905
0.05020762 0.076202966 -0.086098604 -0.055303834 0.04612862 0.10545937 -0.026136648 0.09503569
-0.020470306 0.013438404 0.11499559 -0.11781425 -0.12722208 -0.04938772 -0.05489392 0.025710177
-0.082318895 -0.058462333 -0.08872742 -0.11894336 -0.097214006 0.08609017 0.07115651 0.035966095
-0.019638624 -0.06511087 -0.030850455 -0.108904086 -0.076133735 -0.069795616 0.070925795 -0.0031883232
-0.10712676 -0.06209762 0.05669002 0.07780144 0.050404087 -0.05467818 0.05446546 -0.11392718
-0.0557898 -0.09846389 -0.12591754 -0.058148324 -0.037886545 -0.030751739 -0.07522884 0.03836764
0.069719516 -0.01602962 -0.1844633 -0.14316407 -0.15304089 -0.11724992 -0.17717406 -0.31671247
0.3832832 0.28102094 -0.3401041 -0.25020272 0.046100944 0.028753173 0.011683059 -0.079451956
-0.11835829 0.112838656 0.09656578 -0.12668617 0.023770874 -0.021394443 -0.020899286 -0.058135178
0.048838682 -0.07522262 0.13055223 0.1936909 0.33695686 0.5992578 -0.1256965 -0.08238459
0.06341307 0.026581297 0.047986314 -0.1471953 0.13590544 0.26546904 -0.28036857 0.061483778
-0.2691199 0.060209118 -0.1056316 -0.13944584 -0.055247076 -0.22996971 0.08609928 0.08310558
-0.071610965 -0.019326206 0.08703317 -0.23190352 -0.00031248337 0.118378915 0.28295824 0.030121163
0.22191805 0.13297349 -0.13495825 -0.05386118 -0.12182473 -0.07527382 -0.03179192 -0.061863456
0.03847653 -0.23009151 -0.23564465 -0.4249575 -0.10352773 -0.18944329 0.19617954 0.23430027
-0.045194935 -0.08181726 -0.007322279 0.19951421 0.12030038 0.08065218 0.12057564 -0.009184859
-0.11408694 -0.060207866 0.086475044 -0.000823276 -0.06312495 -0.09732169 -0.11885332 -0.10718915
-0.19077347 -0.06868915 0.0023457352 -0.36879706 0.0792204 -0.099378794 -0.026849132 -0.051495075
-0.03298481 -0.1510066 -0.00030036928 -0.15368064 -0.3398536 0.0406317 -0.2224483 -0.011978427
-0.17509791 0.043279495 0.102166034 -0.29986542 -0.08656732 -0.13252325 -0.22438367 -0.27633968
-0.014655112 -0.18635209 0.24767394 -0.008721842 0.18871152 -0.026589852 0.18177587 -0.08580538
-0.059874743 -0.10062229 -0.030540317 -0.026708819 -0.10465844 0.06881427 0.17133214 0.38169166
0.2147057 0.4654435 0.14145304 0.41964224 -0.45160687 -0.08675756 -0.16636278 0.058432184
0.16074626 0.4101757 -0.09600194 -0.08718714 -0.07374409 0.08889163 -0.0456521 0.10712317
0.045924205 0.01608152 -0.00094539195 -0.02510558 0.015934242 -0.028999802 0.4232156 -0.066159815
-0.20734191 -0.38486764 0.10255168 -0.10306653 -0.009119395 0.12563345 0.0006247564 0.19955423
-0.2439092 -0.11083884 0.25741634 0.14857727 -0.33662078 -0.04318846 -0.108647436 0.125516
0.009192463 -0.25354224 -0.036305353 -0.16450739 -0.06323677 -0.1786113 -0.053825844 -0.010067486
-0.066382766 0.24027723 0.034613583 0.00020330961 -0.087596856 -0.20571764 0.059497923 -0.112672396
0.0017503793 -0.02159215 -0.06688753 0.016785737 0.32864285 0.35237166 0.17771924 0.533591

actor.0.bias f4 [64]
00000000: 80c1 07be 2461 573e 8dc7 163d 0ac6 f5bd
00000010: 0a19 10be 1df2 4fbe 13c7 503e fc82 5bbb
00000020: 98c9 073e efb7 1fbd f853 ccbd ae53 f3bd
00000030: 821e d2bd a8b1 b23d 10d4 b3bd 1abf c33b
00000040: ed5c 4e3b 0e1a ff3c f95e 05be d9f6 40bd
00000050: 4f37 b7bd 1b37 b8bc 2cdb d73d fdbd 153d
00000060: 41f0 363e ceb7 ba3c 1ceb 31ba 247f 14bc
00000070: ac59 e33c 95e2 e03d 2e42 f3bd e643 0ebd
00000080: 6488 06be be30 14be 7df9 243e e589 f3bd
00000090: 2275 e93d c1f8 cf3d a7c3 7fbd b98a f3bd
000000a0: c224 11bc 7d2d ab3d 909e 49bd c82d c3bd
000000b0: e4de 39be f99e 0e3e ca4b 623c 2b43 eb3b
000000c0: 14ab 11be 9012 f43c 6231 06bd 9acd 2bbe
000000d0: 99b4 18bd 4de5 29bd 38a9 bc3d b719 71bd
000000e0: 4ee1 033e d7bd fd3d 44de 32be d118 09be
000000f0: 03f8 093e 7007 763d cd96 0f3d 6105 35be
-0.13257408 0.2103315 0.0368114 -0.120006636 -0.14072052 -0.20307203 0.20388441 -0.003349482
0.13260496 -0.038993772 -0.09976953 -0.11881195 -0.10259725 0.087252915 -0.08780682 0.005973709
0.0031488494 0.031140354 -0.1302451 -0.047110412 -0.08946096 -0.022487214 0.105398506 0.03655814
0.17865087 0.022792723 -0.0006787048 -0.009063516 0.02775272 0.10980717 -0.11877857 -0.03473272
-0.13137966 -0.14471719 0.16110797 -0.11891536 0.113992944 0.10154868 -0.062442448 -0.118916936
-0.008858861 0.083582856 -0.049223483 -0.095302165 -0.18151432 0.13927831 0.013812015 0.007179638
-0.14225417 0.029794008 -0.03276194 -0.1677765 -0.037281606 -0.041478444 0.092119634 -0.058862414
0.12878916 0.12389725 -0.174676 -0.13388373 0.13473515 0.060065687 0.035055924 -0.17677833

actor.2.weight f4 [64, 64]
00000000: 3cf2 87bd 7d0b 0bbe e5e3 b83d 6c84 e6bd
00000010: 8312 0dbd 58e2 8e3d b5b7 8abd 1158 c9bd
00000020: 0555 32be 235e 503b 7c73 80bd 767f d9bb
00000030: b664 40bb c5a2 55bd 50f4 833d 972c 75bd
00000040: 3915 c2bd 7a47 ccbd 9679 603c 36d6 56bd
00000050: 68da 053c 3a5c 5bbd ceba f83c b81c a0bd
00000060: 0853 a2bd 1b52 8bbd d90e febd 34af 483b
00000070: a42f c2bd f963 de3c 9e0d 233d ae2d c63c
00000080: 704a 23bd cc44 ab3c f9d3 06be 8f31 12be
00000090: 05c9 f2bc 4099 d2bd 6e75 ebbd fb1e 023c
000000a0: 1542 803d 4357 81bd 4683 46bd 8f48 e1bd
000000b0: 0369 333a 8601 adbc fd51 cfbc 91be 293d
000000c0: fe71 04be 83ab b9bd c641 edbd 4754 303d
000000d0: 9bf2 b43d 534b 613d ca5d 6e3d f0c7 4a3d
000000e0: 9233 e8bd 1ca6 adbd f0e0 aebb 10a6 03be
000000f0: 2fde 0c3d ad8c d93c 59d4 46bb 615a cebd
00000100: 8e52 903d b96c 32be 7147 553d 5c49 353e
00000110: 0ff2 2bbe 7d46 0fbd c84f 923e 5e4a cebe
00000120: 7c0c 7d3d 9f84 453e 161f 573e eddd 153e
00000130: 6f26 99be 88ba 41be cdfe 993c f7e1 25bd
00000140: dcf1 a73e 4b8b 173e 39ca d83c 6bb1 873c
00000150: f3f3 66be 41da 67be 98d2 87be d2c9 053d
00000160: d6f7 11be 90e0 f3bd 0cf3 03be 013a 133e
00000170: e867 c3bd 9a14 773d e0a7 eebd 391d 773d
00000180: 8b55 75bd 9bba 16be 613d 573e 188a 1fbe
00000190: b0a4 8bbe 0720 fe3d afbb 5d3e f29e 19bc
000001a0: 7ced c13d 3f67 853e 5574 653d e3a0 b33d
000001b0: f8fa 213d db55 1bbe 858c 95bb 69c7 27be
000001c0: ff0d f2bd 3330 a53d 105e c8be 08b2 563d
000001d0: 2edb 363e aeec 6d3d 9aa3 89be 488c d73d
000001e0: cf00 0fbe 6044 173e 6ff0 443a 8d32 8dbc
000001f0: cede 5b3d dd46 5e3b b666 20be 3153 c43c
00000200: facc 50bd 7e15 c13a 1a96 13be 7c2d 6bbd
00000210: 1752 0f3d 1782 efbb 1b60 a2bd 923c ebbd
00000220: a2f2 96bd a56f 21be 0fef 54bc 2000 a9bd
00000230: e81a ad3b 3c64 1f3d d6b1 94bb eb31 0fbd
00000240: 3ae3 98bc 8e25 283d ad7c a0bc bf8e f43c
00000250: 1136 b7bd ee22 ecbc fbc7 30be 368f a23c
00000260: 475b 25be cc07 59bd 0557 5f3d 05e2 e3bd
00000270: abc5 e53c e08e babd e1b1 693d 4908 62bc
00000280: a544 d0bd 0c88 a93c 3150 2fbe 5753 d9bd
00000290: e418 12be 6b4e d2bb 895e 87ba 1a45 27be
000002a0: 4830 303d 389e 4cbd aee7 d0bd ee4c 36bd
000002b0: 5ef9 a5bd 4ecb cebb e3f4 25bc e228 6bbd
000002c0: 6c6f 45bc 07be 0c3d 62fc aebd d440 9cbd
000002d0: 5dcf 00be c1d2 10be ab1f babd 2631 cebc
000002e0: f57a 2ebe 6d7e 2d3c 8fc8 9f3d 02bf 483d
000002f0: 27bf 1bbe 3222 b53d e9f8 cdbd ce45 b5bd
00000300: b1f9 ce3c 0eb4 ae3d bc5a a83d c857 653d
00000310: 9fce 9fbd 2ff7 db3c 29a4 11be a8c6 24bd
00000320: 5180 ec3d 4c62 463d 3569 32be eaad c5bd
00000330: 2457 8bbd edcb 8a3c a6df 8dbc 2ae4 d6bd
00000340: 4ed5 e4ba 185f 143d 7114 f6ba 2a9a 2b3d
00000350: 2ad0 e8bc 35b3 d53c cbc0 18bd 2998 86bd
00000360: 2a6b 4ebd a937 b43d 5760 d73c 2ffe 02be
00000370: 8471 dabd 5747 08be 841b 6ebd a636 4d3c
00000380: 71e7 c73d 0b52 66bc cf7d 223d 528b 363d
00000390: ee7e 08be 4e70 19be 54a3 98bb c815 6abd
000003a0: 0e2a cfbd 28dc f6bb 3251 11be fa13 44bd
000003b0: 1437 cbbc ff08 88bd 0b94 2cbc ba2e 393d
000003c0: 50d9 72bd 7179 583d 4888 0dbe a945 4bbd
000003d0: 9f87 33be eed8 18be f810 573d e87a 53bd
000003e0: 48dd d2bd ae81 e33b a960 b2bd 5538 6abc
000003f0: 0b27 163d 7a07 bfbd d737 553d bc2c 86bc
-0.066379994 -0.13578601 0.090278424 -0.11255726 -0.034441482 0.069767654 -0.067733206 -0.098312505
-0.17415245 0.003179439 -0.06272027 -0.006637509 -0.0029356903 -0.052157182 0.06443083 -0.059856977
-0.09476704 -0.099745706 0.013700863 -0.05245038 0.008169748 -0.05355475 0.030362513 -0.07817978
-0.07925993 -0.0680277 -0.12405176 0.0030622007 -0.09481743 0.02714728 0.03980791 0.024191704
-0.03986591 0.020906828 -0.13166799 -0.14276718 -0.02963687 -0.10283136 -0.11497007 0.007941957
0.06262604 -0.06315472 -0.048465036 -0.110001676 0.0006843956 -0.02111889 -0.02530765 0.041441504
-0.1293411 -0.090659164 -0.11584811 0.043049123 0.08835336 0.055003475 0.058194913 0.04950708
-0.11337961 -0.084789485 -0.0053368732 -0.12856317 0.03439158 0.026556337 -0.0030338971 -0.10075832
0.07046996 -0.17424287 0.052070085 0.17703766 -0.16791557 -0.034979332 0.28576493 -0.40291113
0.061779484 0.19288872 0.21007952 0.14635439 -0.29912135 -0.18918812 0.018798256 -0.0404987
0.32801712 0.1479923 0.026463615 0.016564092 -0.22553997 -0.22641851 -0.26527858 0.032663174
-0.14254698 -0.11908066 -0.12885684 0.14377595 -0.09541303 0.06032238 -0.11653113 0.060330603
-0.059896033 -0.14719622 0.21019508 -0.15580022 -0.27274084 0.124084525 0.21653627 -0.009376274
0.09469125 0.26055333 0.056019146 0.08770921 0.039545983 -0.1516947 -0.0045638704 -0.16384663
-0.11819076 0.08065834 -0.39134264 0.052415878 0.17857048 0.058087043 -0.2688263 0.105248034
-0.13965152 0.14772177 0.0007512634 -0.017236019 0.05367928 0.003391675 -0.15664181 0.02396545
-0.05097673 0.0014731137 -0.14412728 -0.057416424 0.034990396 -0.007309209 -0.07928487 -0.11486162
-0.07370497 -0.15765245 -0.012996449 -0.08251977 0.0052827485 0.03891395 -0.0045378013 -0.034959715
-0.018663038 0.04105144 -0.0195907 0.029853223 -0.08945859 -0.02882525 -0.17263786 0.019843679
-0.16148101 -0.05298595 0.054526348 -0.11127094 0.028048357 -0.091092825 0.057054404 -0.013795921
-0.10169343 0.020694755 -0.17120434 -0.10611599 -0.14267308 -0.0064180396 -0.0010327856 -0.16334954
0.043014795 -0.049955577 -0.102004394 -0.04450696 -0.08104204 -0.006310857 -0.010129186 -0.057412036
-0.012050491 0.03436091 -0.08544232 -0.076295525 -0.12579103 -0.14142896 -0.090880714 -0.02516992
-0.17039092 0.010589224 0.078019254 0.049010284 -0.15209638 0.08844413 -0.100572415 -0.08851205
0.025265547 0.085304365 0.08220431 0.055991918 -0.07803082 0.026851265 -0.14222778 -0.040228516
0.11547912 0.048433587 -0.17422946 -0.09652312 -0.0680373 0.016942943 -0.017318558 -0.104927376
-0.0017458589 0.0362235 -0.0018774403 0.04189507 -0.028419573 0.02608643 -0.037293237 -0.06571991
-0.05039517 0.08799679 0.026291056 -0.12792276 -0.10666183 -0.13308464 -0.05813171 0.012525236
0.09760941 -0.0140576465 0.03967076 0.04456646 -0.1332967 -0.14984247 -0.004658142 -0.05714968
-0.10115443 -0.007533569 -0.1419113 -0.047870614 -0.024806537 -0.06642341 -0.010533343 0.045210578
-0.059289277 0.05285019 -0.13821518 -0.04962698 -0.17532204 -0.14926502 0.052506417 -0.051630884
-0.10296112 0.0069429493 -0.08709843 -0.014295657 0.036658328 -0.09327598 0.052055206 -0.016378753

actor.2.bias f4 [64]
00000000: 603a d7bd a6a2 af3c 8d0a 82bd 8a5e 1fbe
00000010: 4ee1 923d e3e6 6bbd 8077 403d f47b 3b3e
00000020: 08e1 9d3c 031c f03d 1756 47bd a8f2 5b3b
00000030: d1c9 173d 87d1 0fbe 7aa8 043e 8d31 4d3e
00000040: 4a8d 32be fc63 033e abd0 7c3d 0695 78bb
00000050: 90a9 d13b 5b74 0cbd 0df8 91bd b389 2c3e
00000060: 6e08 fe3a 178a aa3d 3829 8b3d f09b 0ebe
00000070: 08e0 5d3b cf45 b33d 11ec c8bc 52d5 2e3c
00000080: 76eb 48be 7f08 5bbd a3ca d03d 1095 4e3e
00000090: 8f15 4fbd a96a 2cbe 60f4 393e 3174 053d
000000a0: 2a4a 023c 697f 44be 2bba 9e3b 6d27 19be
000000b0: bc7c 6b3e 229e 453d bbeb 68bd f888 72bd
000000c0: 5e8e 99bc 5978 ed3c 095f 013d 835e 25be
000000d0: 2d84 5fbe 7063 e8bd cb0f c3bd 5bf1 28bd
000000e0: cd81 5f3e 4d20 a73e 6301 15be 9cfe 013e
000000f0: a81c c7bd 1d45 2a3d aa6c 54bc c1a9 973e
-0.10509181 0.021439862 -0.06349669 -0.15563408 0.0717188 -0.057593238 0.046988964 0.18309003
0.019272342 0.11724093 -0.048666086 0.0033561382 0.0370577 -0.14044772 0.12954894 0.20038433
-0.1743671 0.1283111 0.06172244 -0.0037930622 0.0063983873 -0.034290653 -0.0712739 0.16849403
0.0019381174 0.0832712 0.06794971 -0.13926673 0.0033855457 0.08753549 -0.024526628 0.010670977
-0.19621071 -0.0534749 0.101949 0.2017405 -0.05055767 -0.16837563 0.18159628 0.032581512
0.007952252 -0.19189228 0.0048439703 -0.14956446 0.22996801 0.04824651 -0.056865435 -0.059212655
-0.018744644 0.02898805 0.031584773 -0.16149335 -0.21827765 -0.11347091 -0.09524497 -0.0412458
0.21826859 0.3264183 -0.1455131 0.12694782 -0.097222626 0.041569818 -0.012965361 0.296217

actor.4.weight f4 [36, 64]
00000000: f01a e53c 8f4a 4b3e 9430 953d c4cd e6bc
00000010: 7cd2 8b3e 444b cdbd b95a a23e 9efe e43e
00000020: c66b 09bd ee8d 893e 0acf d8bd 7398 053e
00000030: 5121 cdbd 64df cfbd e49c d7bd 1f3e 70be
00000040: b0af bc3e 3f26 153e f8a5 913e dc13 083f
00000050: 16cc 23be 764d 53bd c561 08be 7b3b 063e
00000060: 9288 65ba 75fd dd3c 8d2e 293e f263 263f
00000070: bee1 debe 3bf2 8f3d ac5b 173f 6322 0e3f
00000080: cd4d 59bd ef10 a5bd 199b 77be f589 6ebe
00000090: ea42 c23d 278c cd3d acfb 82bd e098 713e
000000a0: 3685 6bbe fb2e 823d f993 3bbe 04e9 1abe
000000b0: eb01 9ebe 273d 373e 1158 afbd 28b5 3b3d
000000c0: b19f e53c 03df c63d 166c e4bd cffe 9bbb
000000d0: 9d03 e6bb 794f 253c 7a5b 513d b19e 813e
000000e0: 6d34 1cbe de6d b03c f77e 2d3d b84b e53d
000000f0: af16 8c3e 86a7 82bd f8f8 a23d e633 2e3e
00000100: a046 12be 1d5e 6a3c 3521 d33d 91a2 cbbc
00000110: e642 2fbf 8880 debd a4e0 5bbf 79db 29bf
00000120: 32cd 89be 9ad1 d3bc b538 10bf 39dd fe3b
00000130: df1c 51bd a62a f9bd 4764 353e ba88 f8be
00000140: 23a9 aebe 4e4a 253f 25c6 f2be d5ae 3ebe
00000150: 61ff f83e 1663 2d3e 0046 df3d a4f6 16be
00000160: 1c8d 92be 2a8a 3b3f 85fe 9bbd 43ec 60bc
00000170: e761 b63e 2322 0cbf 579b dbbb e1a2 95be
00000180: 3c03 d83c 3cf3 813c 1632 f53e daa0 11bf
00000190: bcd1 173e 517e e1be 65ad 8ebe 6652 02bf
000001a0: 5c19 883e 7ab5 993d b735 b6be c073 30bd
000001b0: 62e0 4b3d a80f 0cbf 42ed 13bf a5f8 1c3d
000001c0: 85cd 3f3f f6b5 06bd bd52 2e3f 99ac 183d
000001d0: 72d7 75bc f742 3d3e 5ab6 493e 87a4 e938
000001e0: 88ad 293f 1bde 443f c387 cdbe c209 09bf
000001f0: 1a6d 463e 5b22 11bf 4819 3e3e 763a 3cbf
00000200: 238b 123d 0a33 8b3e 6892 183e 0f93 99bd
00000210: 1d5d 94bd 1b9b 573e d437 9e3d 28d8 58be
00000220: 68d2 edbd 19b7 cc3b 9edc a03e 3c58 d93d
00000230: 954f 063e 0bae 1cbe 34cd d53e 640b d13d
00000240: a13b 843e e368 6e3d 2247 9d3e d491 5e3e
00000250: 3f19 c03e ea89 a5bb 7895 c33d 50a6 93be
00000260: 5e88 29be 0456 2b3e 9a13 963d e847 183d
00000270: 29a9 c53e a01c f4bd f4c4 f13e 628b d5bd
00000280: 13a5 6b3d 8ec1 b13d 2df3 e13e 002c 993e
00000290: cb0f 003e 5ab4 403e 4bb5 763e 8689 be3e
000002a0: da0d ea3e 1bb7 a4be 399a edbd 082f 003d
000002b0: 1d2b d3bc 7f04 6e3e 26f2 893e c215 373d
000002c0: d71f d83e 3082 1c3e b8be 93be e430 fb3d
000002d0: 0d8b 003f f0cc 88bd 6211 b63d a57a bd3e
000002e0: a091 233e 4adc 4bbe 58d2 81bd 8a00 90be
000002f0: f53a c83e 278f b23e 66ee f13d db7d 8fbd
00000300: 7f44 cd3d 88ba 17bf 8a51 9b3c 8eba 073d
00000310: 60b9 09be 25c8 55bc 150f 623d 96dc c9be
00000320: ad3e ff3e 8e00 09bd c4aa 74be 78f4 bf3d
00000330: 737c 253f d746 a8bd c83b f73e bb8a c53e
00000340: ba52 42be 1bb2 8abd 87f8 74bf 0f61 acbc
00000350: feef 36bf 1803 2b3e 6308 b23d 4477 d5b9
00000360: 3924 9a3d f3a1 51be 4211 ae3b ab9b 1abe
00000370: 4472 d2bd abfd cdbe 1d02 24be e80f 55bf
00000380: 1e26 813e 49a3 b43d 2b37 63be e401 38bf
00000390: 8530 083e 10f1 12be 9161 0fbe 6390 55bf
000003a0: 4107 fabc 5157 713e 3842 0abe 7064 05bd
000003b0: f1b2 0cbf 263a 18bf 1e23 debe aa8d 17bd
000003c0: fe40 b8bc d8c2 213e 6c88 aabe ebf7 c8bd
000003d0: 9ac3 a23d b214 2d3d 2d1b 9fbd 2f6b 29bd
000003e0: 1268 203f c9d7 92be e73b 07ba 60ec 9ebe
000003f0: c358 07bf c0ed 603e 7905 b83c 6431 873e
0.027966946 0.1985266 0.07284656 -0.028174289 0.27309024 -0.100241214 0.3170984 0.44725507
-0.033550046 0.26866096 -0.105863646 0.13046436 -0.1001612 -0.1015003 -0.105279714 -0.23461197
0.3685279 0.14565371 0.28446937 0.53155303 -0.15995821 -0.051587544 -0.13318546 0.13108627
-0.00087560073 0.027098397 0.16521664 0.64996254 -0.43531603 0.07028624 0.59124255 0.5552122
-0.053052712 -0.080598705 -0.24180259 -0.23294814 0.09485419 0.100364976 -0.06395659 0.23593473
-0.23000035 0.06356617 -0.18318166 -0.15127951 -0.30860838 0.17894422 -0.08561719 0.04582706
0.028030248 0.09710505 -0.11153428 -0.0047606 -0.0070194737 0.010089749 0.05111263 0.25316384
-0.15254374 0.021536764 0.04235741 0.11196083 0.27361056 -0.06379609 0.07957643 0.17011985
-0.14284754 0.014304665 0.10309068 -0.024857791 -0.68461454 -0.10864359 -0.8588965 -0.66350514
-0.26914364 -0.025856782 -0.5633653 0.0077778366 -0.051052924 -0.12166338 0.17714034 -0.48541814
-0.34113416 0.64566505 -0.47416797 -0.1862138 0.4863234 0.1693233 0.10902023 -0.14742523
-0.28623283 0.73257697 -0.07616905 -0.013728204 0.3562157 -0.5473959 -0.0067018676 -0.2922583
0.02636873 0.015863054 0.47889775 -0.56886065 0.14826101 -0.44041684 -0.27866665 -0.5090698
0.26581848 0.07505317 -0.35587856 -0.043079138 0.049774535 -0.5471139 -0.577839 0.038323063
0.7492297 -0.032888375 0.68095 0.037273977 -0.015004979 0.18482576 0.19698468 0.000111409514
0.6628041 0.76901406 -0.4014264 -0.53530514 0.19377556 -0.5669305 0.18564332 -0.73526704
0.035777222 0.27187377 0.148996 -0.07498752 -0.072443224 0.21055262 0.07725492 -0.21176207
-0.116123974 0.006247413 0.31418318 0.106125325 0.13116296 -0.15300767 0.4175812 0.10207251
0.25826743 0.058205497 0.30718333 0.21735317 0.3751926 -0.005051841 0.09549993 -0.28837824
-0.16555926 0.16732031 0.073279575 0.03717795 0.3860562 -0.11919522 0.47220576 -0.10426976
0.057530474 0.08679496 0.4413084 0.29916382 0.12506025 0.18818799 0.24092595 0.37214297
0.45713693 -0.32170948 -0.11601681 0.031294852 -0.025777394 0.23243903 0.26942557 0.044698484
0.42211792 0.15284038 -0.28856444 0.122651845 0.50212175 -0.06679714 0.08890034 0.37007633
0.1597352 -0.19908252 -0.06338948 -0.2812541 0.3910748 0.34874842 0.11813049 -0.07006427
0.1002283 -0.59269 0.01895978 0.033136897 -0.13449621 -0.013048206 0.055190165 -0.39426106
0.49852505 -0.033447795 -0.23893267 0.093728006 0.6464302 -0.08216637 0.48287797 0.38582405
-0.1897687 -0.06772252 -0.9569172 -0.021042375 -0.7145995 0.16700399 0.08693006 -0.00040715386
0.0752644 -0.20471935 0.005312116 -0.15098445 -0.10275701 -0.40232596 -0.16016431 -0.83227396
0.25224394 0.08820207 -0.22189014 -0.71877885 0.13299759 -0.1434977 -0.14002062 -0.8342344
-0.030521037 0.23568465 -0.13501823 -0.032566488 -0.5496054 -0.5946373 -0.43386167 -0.037000336
-0.022491928 0.15796983 -0.33307207 -0.098129116 0.07947464 0.042256065 -0.07768855 -0.041361984
0.626588 -0.28680256 -0.00051587675 -0.31039715 -0.52869815 0.21965694 0.022463547 0.2640487

actor.4.bias f4 [36]
00000000: 9469 a5bd 8788 2cbe ac42 863c 8709 63be
00000010: 21b3 8b3e 9d9f 1b3d 945c adba 7c72 803e
00000020: 1330 2d3a 5b8c 16bd 073f 05be ec9c a93d
00000030: 4510 e83d d5e3 71bb 7386 353e eec3 24be
00000040: cf64 0d3e 7ac5 06bf 6f41 8d3e 6b29 02bf
00000050: 0874 18bf 1b5b 333e cc4b f23d c2e1 a63d
00000060: c342 523e 43b8 063e fd15 943d a8fa 4a3d
00000070: 7c83 973e 5ea5 6d3d 6b33 26bc 6c7a 8b3d
00000080: f490 10bd 6ca4 bb3d 3412 36bd b7f2 953e
-0.08076778 -0.16848956 0.016389214 -0.22171603 0.27285102 0.037994016 -0.0013226443 0.25087345
0.000660659 -0.036754947 -0.13012324 0.082818836 0.11331228 -0.003690948 0.1772707 -0.16090366
0.13807987 -0.52645075 0.27588984 -0.5084445 -0.5955205 0.17515223 0.11830863 0.08148529
0.2053328 0.13156228 0.072307564 0.04955545 0.29592502 0.058019035 -0.010144095 0.068104595
-0.035294488 0.0916222 -0.044450954 0.2928674

critic.0.weight f4 [64, 62]
00000000: c860 9c3d 6a19 ab3d 31d8 abbd 6c5b 1b3c
00000010: 8d04 9cbd f518 9abd c295 e43d 1aa0 c13d
00000020: b531 d1bd 8e10 78bd de96 223d 2a81 54bd
00000030: 0e74 1bbe 4210 a7bd 0cd2 a2bd e651 b3bd
00000040: fe10 09bc ab20 ddbd 13fe f7bd c876 b63d
00000050: 0c4a bbbd 7c17 b63d d610 103c 3e3c 98bc
00000060: ef3e c93d 2717 cbbd c034 793d b399 ad3d
00000070: a101 353e 1e28 873d 44ac 40bd 9143 73bd
00000080: f2fb c0bd 9aa3 b13d 5232 b7bc 73eb af3d
00000090: 773f adbd 9b8c 94bd 113c 09bc 8bf8 883d
000000a0: 3b05 083d 5c34 6f3c 17f0 793d 70ba 05be
000000b0: ea7c 92bd 5e2d c1bb 7647 51be 8ce8 9abe
000000c0: 41ce d43d 915e 1abe 52f9 01be ae80 87bd
000000d0: 12b7 003d 55ed 083d 5dd4 c5bd 5bc7 c9bc
000000e0: 3b4a 16bc 8a36 303d 50c9 02bd 8edc 5bbe
000000f0: 253d eabd 1a1f 8abc dd19 e7bd ccbf 833d
00000100: 2839 8dbc 1325 4dbd d813 84bc 4ba0 dfbd
00000110: 52dd 0d3e 9aac 693c a56b e4bd eab1 1fbc
00000120: fe25 bb3d 9a76 0b3f 3250 3ebe 1419 83bd
00000130: 66b2 183e 2d06 92bd a3f5 d43d fb2e df3d
00000140: bf91 8b3d 4504 dfbb 5d60 05bd 7659 f8bd
00000150: e2da 883d 00cd ebbc a810 a33c edf3 eabc
00000160: 15fc a73d bd3a 843b 4bb4 c43e 90bf 1b3f
00000170: 7a2f f3bb 7148 263f 73dd 703d 5f54 99bd
00000180: b5e9 b63d e77b c93d 8764 013d 0204 25be
00000190: 9a20 6f3e 5a1e 263e b23f fcbc 481d fb3d
000001a0: aa8d 1e3e b874 943d d453 a63c 7154 c63d
000001b0: 07b9 8e3e 035d 4a3d 76ff 21bd 558f 00be
000001c0: 91d3 473d 7c5e bcbd b01b 3fbd 70a2 26be
000001d0: acce 00bd 80ce 4fbe 8671 053d 8e46 483d
000001e0: 12ec b13c 7c3e 1e3e 755d 00be 18ea bfbd
000001f0: 1a4f d7bd 1423 a33d 1f64 d73d 2324 473d
00000200: 8cc6 fdbd 1d10 313c 5624 42be cdae 31be
00000210: 65e6 a43d 9454 f63d 053d bc3e e6af af3e
00000220: c316 6f3e 023b fb3c cc16 0abb 555c a9bd
00000230: 011f a3bc 0aa1 99bd de74 f23d 9b83 d3bd
00000240: 2bc6 f23d 77ec afbc ce58 bc3c 047c e23d
00000250: c3b2 70bd adbd 40bd c437 573d c2ca 03bd
00000260: 48ba 47bd 67a0 b03d ec0e 98bd 3151 a2bd
00000270: a6e6 63bd c67e 533d fd69 493c 220e c8bd
00000280: 73e7 b7be b82d 56be 8fb8 6cbb de6f 803d
00000290: a307 9cbe 413b f63c 4d80 853d 71e1 d7bd
000002a0: 0287 4bbd e6b9 d9bd 12da 00be da37 2bbe
000002b0: 9571 40be 325b 6a3c d110 c2bd 81fa eabd
000002c0: de67 773d d60c 8dbe 45a4 313d 7928 ee3d
000002d0: 7ef6 fbbe b5a2 e9bb 7286 873d f598 d9bc
000002e0: bc2b 61be e6ac 2ebe 5d8e ebbd c211 efbd
000002f0: 8dab d9bd 5cf5 b53d 178b 31bd edbe fdbd
00000300: f759 07be 1a28 ab3c 9d90 c6bc 5d8d 693d
00000310: 1cdc 403e 5fb1 cc3e 4f96 843e 1214 ddbc
00000320: e508 863d 9c8e 71bd 915f 1bbd 4b6d a1bd
00000330: 82c9 abbd 4523 b83d daa5 ac3c 59b8 2a3d
00000340: d503 bdbd b2e2 c03c 8db4 e73d 4d75 8e3d
00000350: 4c09 b6bb 3779 6fbd 9515 3bbc 88d1 10be
00000360: 2fa7 12bd bc5a 083c 0b87 13bd a704 a4bb
00000370: 5bdd f4bc 8e49 9abd f6f9 8bbd 4e6f 48be
00000380: 0f26 6fbe c2a9 553e 1172 8bbe 00c7 78be
00000390: 2123 1cbe 22fc 2b3e 6270 cbbd 9491 36be
000003a0: 0f11 9fbd 7763 b3bd 26c7 99bd eb08 e7bd
000003b0: 671c e3bd da7a 0bbe bd15 b73d d00b a1be
000003c0: dee6 a5bd 368b a03d ca8d babe 1347 a0bc
000003d0: 40ba e43d e736 10bc 5f89 85be 2d62 2fbe
000003e0: 3ef8 8b3d 0179 b83d d02e eabd c831 a8bd
000003f0: cc68 e93d 7ba9 04be d933 ba3d cfdf 633d
0.07635647 0.08354457 -0.083908446 0.009482246 -0.076180555 -0.075242914 0.111613765 0.09454365
-0.10214559 -0.060562663 0.03969466 -0.051880993 -0.1518099 -0.08157398 -0.079502195 -0.08755855
-0.008365868 -0.107972465 -0.12109008 0.089093745 -0.09144983 0.08891198 0.0087930765 -0.018583413
0.09826457 -0.09916525 0.060841322 0.084765814 0.17676403 0.065994486 -0.047039285 -0.05939061
-0.09423055 0.08673783 -0.022362862 0.0858983 -0.084593706 -0.07253381 -0.008376137 0.06688031
0.033208113 0.014599886 0.061019983 -0.13059402 -0.07152732 -0.005895301 -0.20437416 -0.30255544
0.10390902 -0.15075137 -0.12692764 -0.066163406 0.03142459 0.033429462 -0.09659646 -0.024631193
-0.009172971 0.043020763 -0.031930268 -0.21470854 -0.11437444 -0.016860534 -0.1128423 0.06433067
-0.017239168 -0.050084185 -0.016122743 -0.10919245 0.13853958 0.014262343 -0.11153344 -0.009747008
0.09138106 0.54477847 -0.1858528 -0.06401268 0.14911804 -0.07130084 0.10398414 0.10897633
0.06814908 -0.006805929 -0.032562602 -0.12126438 0.066823736 -0.028784275 0.019905403 -0.028680766
0.08202378 0.0040353225 0.38418803 0.60839176 -0.007421431 0.64954287 0.05880494 -0.07486796
0.08931295 0.098380856 0.03159001 -0.1611481 0.2335228 0.16222516 -0.030792091 0.12261444
0.15483728 0.07248825 0.020303644 0.09684075 0.2787554 0.04940511 -0.039550267 -0.12554677
0.04878575 -0.09197709 -0.046657264 -0.16272902 -0.031447098 -0.20293617 0.032578968 0.04889541
0.021719012 0.15453523 -0.12535651 -0.09370822 -0.10513134 0.07965675 0.105171435 0.048618447
-0.123913854 0.010807064 -0.18959174 -0.17351837 0.08051757 0.12027851 0.36765304 0.34313887
0.23348527 0.030667786 -0.0021070717 -0.08269564 -0.019912245 -0.07501419 0.11838697 -0.10327836
0.11854204 -0.02147506 0.022991564 0.1105881 -0.05876423 -0.04705589 0.052543417 -0.032175787
-0.048761636 0.08624344 -0.07424721 -0.07925642 -0.055639885 0.051634572 0.012293336 -0.097683206
-0.3591877 -0.20915878 -0.0036120748 0.06271337 -0.30474576 0.030057551 0.06518612 -0.105410464
-0.0496893 -0.106311604 -0.12583187 -0.16720524 -0.18793328 0.014303969 -0.09475864 -0.11473561
0.06040179 -0.27548856 0.04336955 0.11628813 -0.49211496 -0.007129992 0.0661744 -0.026562193
-0.2198934 -0.17058143 -0.11501763 -0.11673309 -0.10628424 0.08884689 -0.043345537 -0.12389932
-0.13217913 0.020893145 -0.024238879 0.05701958 0.18833965 0.39979073 0.25895926 -0.02698711
0.06544665 -0.058973894 -0.037932936 -0.07882174 -0.08388044 0.08991102 0.021075178 0.041679714
-0.092292465 0.023545597 0.11313734 0.06955967 -0.0055553075 -0.05846521 -0.01141872 -0.1414243
-0.03580397 0.008322414 -0.03601746 -0.0050054374 -0.029890707 -0.07533561 -0.06834786 -0.1957371
-0.23354362 0.20865539 -0.27235463 -0.24294662 -0.15247776 0.167954 -0.09933545 -0.17828971
-0.077669255 -0.08759206 -0.07508688 -0.11280998 -0.11089402 -0.13621083 0.08939693 -0.31454325
-0.08100675 0.078390524 -0.364363 -0.01956514 0.11168337 -0.008802152 -0.26081368 -0.17127295
0.06834458 0.09007455 -0.1143471 -0.0821262 0.113969415 -0.12955277 0.090919204 0.055633362

critic.0.bias f4 [64]
00000000: 3131 4cbe eacf 343d 602f b7bd dae8 cfbd
00000010: 0f7a 683b 792a 6cbd a0be dfbb 1c45 33be
00000020: a74b 81be 141d 543b 7df9 54bd 36d6 7a3d
00000030: 8547 21be bbfd 24be 4dfe 7cbd 3943 ed3c
00000040: ff8c 0dbd 5325 933e 6ac3 29bd 0b9c c93d
00000050: a817 bbbd 60f8 653d ba08 a7bd ef69 8abd
00000060: 2eef 76bc a49e 37be 9d9c 71be 386d b9bd
00000070: 3635 b73d 4668 84bd 97b1 51bb 4123 20bc
00000080: d95f 22bd eee7 b2bd beea 8c3c 15d8 073e
00000090: 9fce 093e 1ae8 ac3c ebfd 29bd 2beb 193e
000000a0: f59e 3dbe b52a 55be 126a 21be 31f2 8e3c
000000b0: 5430 58be 8c98 8abe 1bc4 ef3d caf8 feba
000000c0: 5ea2 3a3d 13c0 93bd 96c0 1fbc 8e7f 0b3c
000000d0: b257 013d 4f7a 2bbe 0659 4bbe 89ce 76be
000000e0: 1e65 00bd cba0 1abd 72eb 95bd 5791 d3bd
000000f0: cbe0 633d 2c09 33bd 9073 62be b602 0bbe
-0.1994064 0.044143595 -0.08944583 -0.10151835 0.0035473143 -0.057657693 -0.006828144 -0.17506832
-0.2525303 0.0032365965 -0.051995743 0.061239444 -0.15749939 -0.16112415 -0.061765958 0.028962718
-0.034558292 0.28739414 -0.041446127 0.09844216 -0.091353714 0.056145072 -0.08155961 -0.067584865
-0.015071673 -0.1793161 -0.235949 -0.09054035 0.08945696 -0.06465201 -0.003199672 -0.00977403
-0.03964219 -0.08735643 0.017201778 0.13266023 0.13457726 0.021106768 -0.04150192 0.15031116
-0.18517669 -0.20817073 -0.15763119 0.01744947 -0.21112186 -0.2706951 0.11707326 -0.0019452807
0.045565 -0.072143696 -0.009750506 0.008514298 0.031577773 -0.16745876 -0.19858178 -0.24102224
-0.031346433 -0.037751 -0.07320298 -0.10330456 0.0556343 -0.04370992 -0.22114396 -0.13575253

critic.2.weight f4 [64, 64]
00000000: 01ae 8d3d ec40 363e 5b2c d53d 8700 593d
00000010: afaf ac3d 9322 82bd f766 783e 3599 e2bd
00000020: ccae 0ebc ff7e 8ebe 514a 603d 56dd ae3e
00000030: 3f52 00bd fdd7 d13e 4cfd c23c d0a5 fa3d
00000040: b04c ef3d 9f1e da3e bf62 c1bd 8e40 dd3e
00000050: ab06 493e 09c2 e33e f21d 403b a74d 673e
00000060: bd80 e0bc 5bff d2bc b105 e2bc 52cd d23c
00000070: 3b35 acbe 1cfe bc3e 8454 ce3d 7a13 083d
00000080: 64fc 3f3e 7d64 57bd 64b4 073e 1a1c b5be
00000090: 0aa2 11bf d9a5 243e 1978 123e e645 773e
000000a0: bf0e a2bd c043 d33d 0c30 2c3e 4b0e a7be
000000b0: 628d 6f3d a42a 9ebb 1ab7 7c3e 3eaf 17be
000000c0: da09 8c3e 7edd ba3d a902 2ebd 4239 b73e
000000d0: cbf9 c33d c3aa 293e 2536 84bc d74f 083d
000000e0: f3d4 733e 15a5 d43a a457 7c3e 9df6 2dbe
000000f0: f34a 04bf b38a a83e c220 963e db3d 013e
00000100: 4c7a 9b3d ea68 bfbc f4f6 35be 3d65 0dbd
00000110: 777d c4bd 17bc 8cbd 3a6e 92bd 642b 283d
00000120: 9853 c8bd 11d2 36be 2ea7 44be 88f0 87bd
00000130: c1ea f9bd 5915 0ebe c3a1 02be 4d96 acbc
00000140: 9c1c 23bc 9ada 7abe c6ae c3bd a469 973d
00000150: a697 963d 0462 a63c 18f7 c73c a7e8 fcbd
00000160: 4c3b 1cbe e3fc 19be e06e 2cbe 2dd3 9a3b
00000170: bd6d 8abd abc2 e7bd 59ca 64be 6a55 65bd
00000180: a3e4 b53d 755e b8ba 3cb8 ae3c b4fb 1bbe
00000190: 1db2 5b3c d8e6 d1bc 07fb ec3c 9062 daba
000001a0: 1354 4a3e 8978 b83c d9cc 123d bd15 04bb
000001b0: 7f7a 883d 313a 38be 8f09 333d c241 31be
000001c0: 75df 95bd 3ae8 babd 654a c9bd 725a a83d
000001d0: 0ed9 42be c4f7 22be 89c7 03bc 65e6 343d
000001e0: a012 03be c566 d4bd 968f 1dbd e72b 47be
000001f0: 42ca b43c f97c dabc b55f 893d 1b79 2e3c
00000200: dd23 d63c 7574 40bd d64f af39 e238 2f3c
00000210: 2330 dcbd 0f5d e13c 26fb 923d f86e 1b3d
00000220: faef e5bd 3909 f6bc c22c bf3c 5aef 0bbe
00000230: ea2b 19bc 0e91 c9bd dbf6 d43d 079a 773d
00000240: 4ddc a6bd 7aae 823b 32fe 4fbc 45c5 70bd
00000250: 5983 82bd 7c6a 4c3d fb4c 3c3e 0422 643d
00000260: d8a6 27be 4cc4 273d a3d4 633d e142 2ebe
00000270: 2e60 f23c d0a1 d9bd 8832 8d3d 66dd 8fbe
00000280: 8551 5dbd 90e6 84bc 4f21 6f3d 671a 1dbc
00000290: 64da 1ebc a256 3dbd 79e1 85bd d354 1cbe
000002a0: 9a16 f73d d90c 0d3d 098a 01ba 3488 a53b
000002b0: 2e58 09bd da2b eabd f861 52bc 0288 533d
000002c0: 562e 2c3d cc51 5bbd 7ac4 14bc 1395 0bbe
000002d0: 220c a93d 224b 2e3c e7c6 dabc 2a4f d63b
000002e0: d171 cebd 098c 353d e3c5 83bd b59e 08be
000002f0: baf8 c4bd d96c a6bd 3606 80bd 07c1 1abe
00000300: 8a42 7bbc bfa1 85bc b422 7fbd e8c1 193c
00000310: e0ba ae3b e3d6 abbd deb1 0a3c 491d be3a
00000320: 1aa7 a7bd 8e97 51be d947 c4bb a750 86bd
00000330: b8b6 eb3c fd74 cebd 9c52 113e acf6 fc3d
00000340: cf1a 353c 3fc7 bbbd 626b 0bbe 591d 073d
00000350: a50b 143d c01d c83d 1736 a0bd fd90 b73d
00000360: c5df b8bd 5352 e5bd 45f3 363d 7927 13bd
00000370: e419 8c3d f654 74bd 14d8 653d 4163 8abd
00000380: 4a56 8b3d 7f14 9e3d 961c 9dbd 7457 22be
00000390: 1c4a b43c 92ae 14be b12e a5bd 4d7a 65bd
000003a0: 9118 e1bd 34fe 1f3e 5a25 45bd 087e 1e3d
000003b0: 4142 e0bd 117d d73d 6b09 8fbd 181b 38bd
000003c0: 98d7 a2bd d79e 233c 7676 76bd d2e0 c7bd
000003d0: eba7 443d baac 9c3d 7ce0 cabd 5730 fb3d
000003e0: 51f5 f8ba 4f3f 863d 211b 12bd d697 0fbe
000003f0: b9d1 2bbd 0917 dbbd 00b2 9e3d 564e d13d
0.06917954 0.17798203 0.10408851 0.05297902 0.084319465 -0.06354251 0.24258028 -0.11064378
-0.008708667 -0.27831265 0.054758374 0.3415324 -0.031328436 0.40985098 0.023802422 0.122386575
0.11684549 0.42601487 -0.094426624 0.43213314 0.1963145 0.44483975 0.0029314724 0.22588216
-0.027405137 -0.025756529 -0.027590604 0.02573267 -0.33634362 0.3691262 0.10074714 0.0332217
0.18748623 -0.052586067 0.13252407 -0.35373002 -0.56887877 0.16078891 0.14303626 0.24147758
-0.07912969 0.10315657 0.16815203 -0.32628092 0.058484443 -0.0048268605 0.24679223 -0.14812943
0.27351266 0.091242775 -0.042483006 0.35785872 0.095691286 0.16569047 -0.0161391 0.033279266
0.23811702 0.0016223515 0.24642807 -0.16988607 -0.51676863 0.3291832 0.29321867 0.12621252
0.07591686 -0.023365457 -0.17769986 -0.034520376 -0.09594243 -0.06871813 -0.0714993 0.041057006
-0.09781569 -0.17853571 -0.19204399 -0.066376746 -0.12202979 -0.13875331 -0.1275702 -0.021067763
-0.0099555515 -0.24497452 -0.0955482 0.07393196 0.073531434 0.02031041 0.024409816 -0.123490624
-0.15256995 -0.15037875 -0.1683917 0.004724881 -0.06759212 -0.11316427 -0.22342815 -0.05598966
0.088814996 -0.0014066236 0.021328084 -0.15232736 0.013409165 -0.02562277 0.028928293 -0.0016661454
0.19758634 0.022518413 0.03583989 -0.0020154559 0.06663989 -0.17990948 0.043710288 -0.17310241
-0.07318012 -0.09126325 -0.09828643 0.08220376 -0.19028112 -0.15914828 -0.008043178 0.044165034
-0.12800074 -0.10371164 -0.038467012 -0.19450341 0.0220691 -0.02667092 0.06707708 0.010648991
0.026140148 -0.046986062 0.00033438083 0.010694714 -0.10751369 0.027510194 0.07176809 0.037947625
-0.112274125 -0.030033695 0.023336772 -0.13665524 -0.009348849 -0.0984212 0.103986464 0.060449626
-0.08147488 0.0039880844 -0.012694882 -0.05878188 -0.06372709 0.04990624 0.1838874 0.055696502
-0.1637224 0.040958688 0.055622708 -0.170177 0.029586878 -0.106265664 0.06894404 -0.280986
-0.05403282 -0.016223222 0.058381375 -0.009588814 -0.009695623 -0.046225198 -0.06537146 -0.15266733
0.12064858 0.03443608 -0.00049415283 0.005051637 -0.03353136 -0.11434145 -0.01284074 0.05164338
0.042036377 -0.053544804 -0.009080047 -0.13631086 0.08254267 0.01063803 -0.026706172 0.006540199
-0.100803025 0.044323 -0.06434228 -0.13341792 -0.09617753 -0.0812623 -0.06251185 -0.15112697
-0.015335688 -0.016312478 -0.062288955 0.00938461 0.005332336 -0.08390596 0.008465258 0.0014504577
-0.08186169 -0.2046797 -0.00599001 -0.06558352 0.02877365 -0.100809075 0.14191669 0.123517364
0.011053755 -0.091688626 -0.13615182 0.032986972 0.036143918 0.09771299 -0.07822817 0.08963201
-0.09027056 -0.11197343 0.044665594 -0.035926316 0.06840876 -0.059651338 0.05611427 -0.067572124
0.06803568 0.07718753 -0.07671468 -0.15853673 0.022007994 -0.14519718 -0.08065546 -0.05602484
-0.10991014 0.15624315 -0.048131324 0.03869441 -0.10950137 0.105219014 -0.06984218 -0.044947714
-0.079512775 0.009986601 -0.060171567 -0.09759678 0.0480117 0.076501325 -0.09906098 0.122650795
-0.0018994008 0.06555044 -0.035670403 -0.14022765 -0.041948054 -0.10697753 0.077487946 0.102200195

critic.2.bias f4 [64]
00000000: 97f9 763e 9044 f8bd ad9d a0bd 374c aebd
00000010: d099 bcbd 0658 59be 2639 acbd 7824 75bd
00000020: 52ee e0bd de21 e8bd 0312 46b9 9033 ba3d
00000030: db9c 4fbd d631 3cbd f528 81bd 8a5e 76bc
00000040: 19b8 01be 2ae4 cd3c 7039 2f3e a772 3d3e
00000050: f4de b7bc efcd 19bd deea 00be 4918 45be
00000060: f36a 313d 583c 21be 8e7f 2fbe cb30 39be
00000070: 251a d03d 7149 3dbd f422 ffbd 38dc d7bd
00000080: ad36 11be cb74 fabd d7cc 763e b6ac 37be
00000090: 8186 fbbd faf8 37be f4a1 1ebe cbdf 3bbd
000000a0: 3f2c b2bc 7b23 ebbd e453 623d 6639 e7bd
000000b0: adb3 39be 0eae 42bd 159c e9bd cb58 4ebd
000000c0: dfff fcbd c570 7f3d e7a7 c4bd 554d 13be
000000d0: 6361 76bd e540 2bbe 25ed b5bd a47f 25bd
000000e0: 2f47 3cbd 9132 3bbe 7130 17be 4563 d9bd
000000f0: b405 10be 767c 98bd f20a 76be 9f18 0dbe
0.24118648 -0.12122452 -0.07842574 -0.085106306 -0.09209025 -0.21224985 -0.08409338 -0.059849232
-0.10982956 -0.11334585 -0.00018889461 0.09091866 -0.0506867 -0.045945965 -0.0630664 -0.015037188
-0.12667884 0.025133211 0.17111754 0.18500768 -0.02244518 -0.03754991 -0.12589595 -0.19247545
0.043314885 -0.15745676 -0.17138502 -0.1808502 0.10161237 -0.046212617 -0.12457839 -0.1054005
-0.14181013 -0.12229308 0.24101578 -0.17936978 -0.12281514 -0.17966071 -0.15491468 -0.045867722
-0.021749614 -0.11481377 0.055255786 -0.11290245 -0.18134947 -0.047529273 -0.114067234 -0.05037765
-0.12353491 0.062363405 -0.09602337 -0.14384969 -0.06015147 -0.16723974 -0.08883122 -0.04040493
-0.045966323 -0.18281008 -0.14764573 -0.10614637 -0.14064676 -0.07445614 -0.24027613 -0.13778923

critic.4.weight f4 [1, 64]
00000000: f635 35be b816 dfbb 49a4 0fbc 83e4 a3bc
00000010: c61a 19be 52b3 b53b e1b5 273d 2cd5 063d
00000020: 8c23 713d 31c7 53bd 6d60 74bb da00 f7bd
00000030: 391f 48bb 1195 cf3c 14a5 86bd c0ad f9bc
00000040: 292c e73c 8f08 e23d 714b 9f3d 825b 183e
00000050: a11e bb3c 658f 9abb a909 1ebd 75b8 e23d
00000060: 4eee b33b 3404 2e3c f015 953c 97d3 2b3b
00000070: ca48 42be 0ac4 cbbc 8da7 d43c c32c a0bd
00000080: 5270 0dbc 1bda 733d 4c14 eebd 1912 f53c
00000090: 438f 333a fece 9c39 021e 45bd 2774 d73d
000000a0: 6d5e 2abc eb66 d73d f74c 0d3e de2c e9bc
000000b0: c1c4 8cbb b488 c2bb 788a 8b3c 29e9 923d
000000c0: 5c11 453c d4c8 a8bd 8ecb 393c f7f8 c23d
000000d0: bcb8 053e 5804 7a3b 1fd9 023d 8da2 003d
000000e0: 367e ab3c 8add 503a ecac d0bb 7c60 903a
000000f0: d4e8 13bd c484 8a3d 4fdf a83b 4056 05be
-0.17696366 -0.006808128 -0.008767196 -0.020006424 -0.1495162 0.0055450583 0.040944938 0.03291814
0.05887179 -0.051703636 -0.003728892 -0.12060709 -0.0030536188 0.025339635 -0.06574455 -0.030478358
0.0282193 0.11036789 0.07778061 0.14878657 0.022841753 -0.004716801 -0.03858343 0.11070339
0.0054910546 0.010621119 0.018198937 0.0026218647 -0.1897308 -0.024873752 0.0259588 -0.078210376
-0.008632736 0.059534173 -0.11624965 0.029915856 0.0006849656 0.0002990886 -0.04812432 0.10520201
-0.010398489 0.10517677 0.13798891 -0.028463777 -0.004295916 -0.0059367064 0.0170338 0.07173378
0.012028065 -0.0824143 0.011340035 0.095201425 0.13058752 0.0038149562 0.031945344 0.03140502
0.020934206 0.0007967582 -0.00636827 0.0011015083 -0.036110714 0.06763604 0.0051535736 -0.13021183
