RL/CC2-Cardiff-implementation/GT-Cardiff-CC2/Models/PPOxCCE/model.pth (torch, 78866 bytes, 11 tensors)

actor.0.weight f4 [64, 62]
00000000: ed40 79ba e786 8b3d 2a12 d6bd 3c6a bfbd
00000010: a4cb 3b3e d20d 953e ed86 0c3e fa74 1a3f
00000020: 16b4 9cbe 7875 b5bc 98b2 03be 6bf1 2abe
00000030: 23d9 66be 45dd 88be 95b9 22bd 41ef eebd
00000040: 81a6 4d3d 4d10 9c3d 7754 b0bd 4686 62bd
00000050: 5df1 3c3d 15fb d73d 861c d6bc 12a2 c23d
00000060: 58b1 a7bc c02c 5c3c cf82 eb3d 9948 f1bd
00000070: 2951 40be 2050 1a3c 5ee2 0f3d efff d23e
00000080: cf96 a8bd 3376 6fbd b9b6 b5bd 9498 f3bd
00000090: 1abb 153e fe6c eb3e 276e 37bc 2ab7 743e
000000a0: cabe 99be 39f7 33bd 9d5c 843d a32a b0be
000000b0: 9745 093e 5017 a83e 4ed2 163c 1788 443e
000000c0: 1d21 45bd 42d1 373e 31ea 413e 1cbc f23e
000000d0: 8474 4e3d 08bb 0e3d a0e8 1e3e c103 863c
000000e0: b38a e43d 70a7 c9bd 0381 65bd 0bde 10bc
000000f0: fd6e 573e 869a 8e3d 9411 9abd 6327 1d3d
00000100: 1bc9 8e3d 8d50 83bc d60e aa3d c106 a63e
00000110: 0e1a dd3d 0bda fb3e b95f b03e 265c 313e
00000120: 5991 853e 53ee f13e 402d 113e fb59 8abd
00000130: fea0 6a3d d601 06be 4d6a 3f3c b5b7 a2bd
00000140: d565 f2bd f417 e73d 48c4 c53d 05ba 01be
00000150: 23bb c23c 6643 afbc fb34 abbc 271f 6ebd
00000160: 120b 483d 510e 9abd 00a6 57bd 2b0d 093e
00000170: 7d81 1d3e 9d98 5b3e 95b6 00be 40b9 a8bd
00000180: b6de 813d 05c1 d93c 4d51 3dbe 01a4 aebe
00000190: a3b2 5b3e 39c5 b03e abd6 39be df33 50bd
000001a0: 1182 35be 66bc d1bc f445 8ebe c0b4 86be
000001b0: e102 dbbd a3e2 7fbd beef 0d3d 36b9 b13e
000001c0: 6eaa 2dbd c25b 003e 723e b23d 339e babd
000001d0: a229 8dbd b57d 893d 9f84 073d a8c0 f63c
000001e0: 6a17 403d 2e8b 88bd 7407 863d 108c 75bc
000001f0: 3e7f f9bd 2929 9abd 3f38 02bd 8964 7dbd
00000200: b391 b8bd 48a4 1ebe 3047 11be 4900 36be
00000210: dba0 08bf 4915 cabd 98f7 2fbd 641a 7ebe
00000220: 8e1a 92bc 9318 4c3d ffe7 4e3e 725c c13e
00000230: 0c60 f63d f82c a53d 5cf0 f63d 177c 16bc
00000240: 6aa6 e9bd 869c 76bd d419 b13d 1ed1 57ba
00000250: a747 81bd 9850 c7bd 5f69 f3bd fc85 dbbd
00000260: c5fd 723e ee1c da3d a8d2 0e3e 8d67 f9bd
00000270: 4e3e a23d 1c87 cbbd b6f2 dbbc 80ec 52bd
00000280: 20cf d53d a100 213e f795 0abd 9a50 b6bb
00000290: 0e2f 9e3d d967 243c 03ae 6fb9 2a93 9a3e
000002a0: 5ffd 30be 3a20 9cbe ecab c13d 5953 cabd
000002b0: e334 42be f536 9dbe fee2 67bd 380c 8c3e
000002c0: ff1b 70bc 16ee b43b 7fbb c03d 522c 453c
000002d0: 077a 353e f6d2 d9bc c391 e73d 7f54 963d
000002e0: 3b87 563e 2c79 c8bb b02f fabc 74cc dabc
000002f0: 2a57 d6bd 7fee 8c3d bfe0 833e c09a bc3e
00000300: f18d 1d3c d02e d93e 907c 18be 19a1 10be
00000310: c67f 07be dc99 19be 7e6e 90bd b694 b83d
00000320: eb26 883d 75f3 b03e aa9c c4bd 2c8f b2bd
00000330: 2407 97bd d10c b63d b2fd 3abd 6463 db3d
00000340: 051b 3c3d 64bd 833c 2ed4 77ba 38aa cdbc
00000350: 8788 823c fe90 edbc 4bf7 fd3d 1674 0ebe
00000360: 7b56 edbd 5852 27be 9d06 d23d 8b14 d3bd
00000370: 8469 15bc 0ea6 003e 533a 3c3e 4b56 65bc
00000380: db80 cdba a9f3 003e c5ca 7fbd e1a7 80bd
00000390: 745b d73b 2ba6 5d3d 6144 1fbe 160d a73d
000003a0: e40b 0f3d 5625 ae3e b5be 8dbc 23b4 5abe
000003b0: 6a23 363e 8a93 76bd 7d78 5cbd 4335 be3d
000003c0: 1bea 083d d4d2 6d3d b8e2 863c 822f 5539
000003d0: 3d40 1f3e a373 03be bf17 673e ed0a 47be
000003e0: fc6c e53a 05e2 b0bc 54fc 88bd 3e82 893c
000003f0: 5fa4 6c3e 30ee a23d f3f2 25bd 86c3 f93d
-0.0009508271 0.0681284 -0.10452683 -0.093464345 0.18339401 0.29112107 0.13723345 0.6033474
-0.30606145 -0.02215074 -0.12861097 -0.16693656 -0.22543769 -0.26731315 -0.039727766 -0.11666728
0.05020762 0.076202966 -0.086098604 -0.055303834 0.04612862 0.10545937 -0.026136648 0.09503569
-0.020470306 0.013438404 0.11499559 -0.11781425 -0.1878096 0.009418517 0.03512799 0.41210887
-0.082318895 -0.058462333 -0.08872742 -0.11894336 0.14622155 0.45981592 -0.011195696 0.23897997
-0.30028373 -0.04393694 0.06462977 -0.3440753 0.13405453 0.32830286 0.009205414 0.19192539
-0.048127282 0.1795092 0.18936993 0.4740914 0.050404087 0.034846336 0.15518427 0.016359212
0.11159267 -0.09846389 -0.05603124 -0.008842002 0.21038432 0.06963067 -0.07522884 0.03836764
0.069719516 -0.01602962 0.08303611 0.32427028 0.10795985 0.4918979 0.3444803 0.17320308
0.26087454 0.4725214 0.14177418 -0.06755444 0.05728244 -0.13086638 0.011683059 -0.079451956
-0.11835829 0.112838656 0.09656578 -0.12668617 0.023770874 -0.021394443 -0.020899286 -0.058135178
0.048838682 -0.07522262 -0.052648544 0.1338393 0.15381427 0.21444936 -0.1256965 -0.08238459
0.06341307 0.026581297 -0.18488045 -0.341095 0.21454863 0.3452547 -0.18148296 -0.050830718
-0.17725398 -0.02560253 -0.27787745 -0.26309776 -0.106939085 -0.062471997 0.034652464 0.34711617
-0.042398863 0.12535003 0.08703317 -0.09112205 -0.068927065 0.0671343 0.03308546 0.030121163
0.04689733 -0.066671714 0.0654439 -0.014987007 -0.12182473 -0.07527382 -0.03179192 -0.061863456
-0.09012165 -0.15492356 -0.14187312 -0.17773546 -0.53370446 -0.09867341 -0.042960733 -0.24814755
-0.017834928 0.049828123 0.20205687 0.37765843 0.12030038 0.08065218 0.12057564 -0.009184859
-0.11408694 -0.060207866 0.086475044 -0.000823276 -0.06312495 -0.09732169 -0.11885332 -0.10718915
0.23729618 0.10650049 0.13947546 -0.12177954 0.0792204 -0.099378794 -0.026849132 -0.051495075
0.104398966 0.15722896 -0.033834424 -0.0055638077 0.07723819 0.010034525 -0.0002285764 0.30190402
-0.17284153 -0.30493337 0.094566196 -0.098791786 -0.18965487 -0.3070599 -0.05661296 0.27353072
-0.014655112 0.005521546 0.09410762 0.012034493 0.17722331 -0.026589852 0.11307099 0.07340335
0.20950024 -0.0061179604 -0.030540317 -0.026708819 -0.10465844 0.06881427 0.25757405 0.36836815
0.009616361 0.42418528 -0.14891267 -0.14123954 -0.13232335 -0.15000099 -0.07052325 0.09012739
0.06648048 0.34560743 -0.09600194 -0.08718714 -0.07374409 0.08889163 -0.0456521 0.10712317
0.045924205 0.01608152 -0.00094539195 -0.02510558 0.015934242 -0.028999802 0.12400683 -0.13911471
-0.115887605 -0.16340005 0.10255168 -0.10306653 -0.009119395 0.12563345 0.18381624 -0.013997625
-0.0015678661 0.12592949 -0.062449235 -0.0628202 0.0065721814 0.05411355 -0.15553428 0.08156793
0.03492345 0.3401286 -0.01730285 -0.21357779 0.17786947 -0.060199298 -0.053825844 0.092875026
0.033426385 0.05806239 0.01646553 0.00020330961 0.15551849 -0.1283708 0.22567652 -0.19437762
0.0017503793 -0.02159215 -0.06688753 0.016785737 0.23109578 0.07955587 -0.040514898 0.12195496

actor.0.bias f4 [64]
00000000: 9130 f13d cfd2 023d 7e06 a13d 03f5 e73c
00000010: df80 aebc 916e 17bd d084 6a3d 63ae 42bc
00000020: 88f7 a73d 414a 47bd bba5 bd3d e45e 57bd
00000030: 7d51 00bd 6a87 023e e0e0 cebd 1e93 9dba
00000040: 81c2 2fbd 697e 553d 936a 41bd f96d 91bd
00000050: 2419 f5bc 5b6a aebd 78a1 a73d 033a 863c
00000060: 3f65 023c 5cde 3d3e 5a33 2c3d 7610 d53d
00000070: 54bb 42bb 9bba 0dbd f5ba 31bd 797b d13c
00000080: 1028 cbbc 0ebf b2bd 940d 863d b575 59bd
00000090: 9dc5 053e ae3e 053e 99c4 5abb 1bad 6dbe
000000a0: 1b55 0f3e 59f2 88bc 6882 93bc e78f be3b
000000b0: d640 c03d c3c1 9ebc 5d87 803d f7b7 d53d
000000c0: 3adc 0a3e 7b22 9ebd ba40 ac3d b95d f1bd
000000d0: 75fe 4ebd 8b00 33bd 5d19 0a3e c55c 8c3d
000000e0: e176 673d d117 853c b308 0dbe 04e9 513d
000000f0: ea9a 24bd 3e96 9ebd 1b0c 74bd 87d4 e33d
0.117768414 0.031939324 0.078625664 0.028315073 -0.021301685 -0.03697068 0.057255566 -0.011882397
0.0820151 -0.0486548 0.09260126 -0.05258073 -0.031327713 0.12746969 -0.10101485 -0.0012021994
-0.042910103 0.052122507 -0.047220778 -0.07101054 -0.029919215 -0.085163794 0.081850946 0.016385084
0.007958709 0.18541855 0.04204116 0.1040353 -0.0029713707 -0.03460179 -0.043391187 0.025571572
-0.024799377 -0.08727847 0.065455586 -0.05309077 0.13063665 0.13012192 -0.0033381341 -0.23210566
0.13997309 -0.016717123 -0.018006518 0.0058154943 0.093873665 -0.019379502 0.062758185 0.10435479
0.13560572 -0.077214204 0.08410783 -0.11785454 -0.050535638 -0.04370169 0.13486238 0.06853632
0.056509856 0.016246708 -0.1377285 0.05124761 -0.0401868 -0.077435 -0.059581857 0.11124521

actor.2.weight f4 [64, 64]
00000000: 18db a13d 7546 1cbe 7713 b43e d1ad 263e
00000010: a8c6 c73e 8517 a03e a18a 1a3e 3a5d ffbd
00000020: d5f6 47bd 9451 623d 39cf 11be 7411 313e
00000030: 8d0d a1be 7163 dbbc d508 bf3d 7bbf 63be
00000040: 45a6 1fbe 28be d53d 730d f43d 52af debd
00000050: b357 913e 012f 07bd 2a60 af3e 7f39 7cbd
00000060: b1c3 57be 384f 1f3e ce0d d63c e6a5 1d3e
00000070: f2d3 8a3e 68fb db3d f95d 853d 3c20 643e
00000080: 4e8f 03bd ea16 ec3d 7044 52be 4a5e 4cbc
00000090: 6421 433d 85dd 223e 9a4d a5be 3366 033d
000000a0: 7dd4 7abd a9a0 94bd 6fb1 153e fb38 2fbe
000000b0: 4d9a 19be c901 50bc 6e85 473e 53b9 aa3e
000000c0: dbda a23d 250e 903d 08b2 f33d 896d d63e
000000d0: d028 483e db7e a33d fecc 103e 8d0f 43be
000000e0: 2353 e6bd aa08 1abe 7d97 373e fbd3 953d
000000f0: 229c 0f3d 93db 5e3e 0a69 173e f76a f0bd
00000100: 5431 ae3e 79cf 363d ae4f 35be 1246 563e
00000110: a4c7 f63d 6466 f2bc 2350 953e 992f 9ebe
00000120: e43f 893e 812e 623e c790 f53d e1b8 843e
00000130: d502 69be 910b 49be 00f0 39be b373 c0be
00000140: 8053 49be cf70 053f b9bd 2b3d fc04 723c
00000150: b356 6fbd 69a2 223e b88f 3e3e 6026 5abe
00000160: 2530 5fbd a163 0e3c 4220 8ebc a3d3 bd3e
00000170: b6ee 673d 97af 413e c2f2 fcbd c4cf c93d
00000180: b456 adbd 3ccc 29b9 4795 85be 7909 9dbd
00000190: 7832 ecbd f7b2 24bd 9edb aa3c 38bb a23c
000001a0: ccb4 06bf d791 bebc 994c 663e e6b7 85be
000001b0: 5509 76be 677b 0fbe f345 223e b372 e3bd
000001c0: f344 1dbe 33e3 073e de5a 36be d29c 6b3e
000001d0: dc74 ebbc 981b 243c d606 693e 82af a33d
000001e0: 0251 0d3e e20c a53d 6914 333e e3f1 b73c
000001f0: ddc7 7fbe 6fc6 923e 5488 573e 52f7 d23c
00000200: 60e8 7bbe 8cb8 c23d 59aa 3b3b 46e4 c63d
00000210: e3ad ce3d 8d54 f83d b19a 2b3e 9441 adbe
00000220: 8143 3f3e a09f 983d 2629 acbd 88c9 d7bd
00000230: 8ef5 e23e 6c94 213e 6200 c63d 4da8 1ebe
00000240: ccce c9be ffe2 c03d 6122 743e 99aa 86bd
00000250: feb4 2ebe feb3 213d 141e 14be 181f c53d
00000260: 7825 a53d 38c5 a1be dc4a 0e3e 89e5 f63c
00000270: 3d67 ef3d 5239 d5bd 0b9e 333e 6d89 1b3e
00000280: cf5e f33c 0677 233e 1906 09be 671e c63c
00000290: 0ec8 79bd 0176 21be 1852 833e 1553 3cbe
000002a0: a78c e83d bc38 e43d 375a 98bd 9f47 b13d
000002b0: 8ae2 33be 4895 8d3e 2ae4 fabd ed50 f53d
000002c0: 08c0 0cbb 8f34 f43d dd9d 013d f7e5 813d
000002d0: ad2e 453b ddf5 5d3d 6573 f8bd d071 6abd
000002e0: 9f8f a7bd aad8 523d 65e5 ae3e c237 44bd
000002f0: ba35 363d 97d0 1a3e 63f4 d339 c956 8bbd
00000300: a0d2 443d 2edd bc3d 345c fc3d 1238 ab3d
00000310: 58cb bbbd 8f1a ca3c 27fb edbd 7272 aab9
00000320: 0581 dd3d 7876 4a3d 5980 0cbe fde7 8fbd
00000330: a6c3 a6bd b890 2b3d 5b1a abbc 68ac 07be
00000340: 74ad 48bd d18e ecbb c6e7 64bc 18df 013e
00000350: 0af5 4ebc 5e07 ed3c c7e2 70bd 1556 c8bc
00000360: 8208 873b 1a50 dd3d 599d 513d beaf c2bd
00000370: e305 ecbd 1ed6 05be 2a92 82bd aa5f d23a
00000380: c684 c23d 5688 a4bc 2218 7d3c f6ea c93c
00000390: 74d2 f6bd 1eed 08be b59c a73c 0894 c83c
000003a0: b37f d2bd 0a41 c73b 2f81 15be c9e6 fc3b
000003b0: 0f7b e03c bae9 45bd c934 a0bc 8773 593d
000003c0: 34c4 e4bc e370 b23d 1e72 e8bd 148d 95bd
000003d0: cf29 02be daae 0fbe 167a 463d b341 15bc
000003e0: 8593 d1bd 09e8 b33b c039 01be 6b02 313c
000003f0: 4a9c 043d 87cf 94bc d3df 613d 4208 33bb
0.07903117 -0.15261252 0.351711 0.16277243 0.3901875 0.31267944 0.15091945 -0.124689534
-0.04881938 0.05525358 -0.14239205 0.17291814 -0.3145565 -0.026780816 0.093278565 -0.22241013
-0.1559077 0.1043666 0.11916628 -0.108732834 0.28387222 -0.03300381 0.34253055 -0.06157827
-0.21070744 0.15557563 0.02612963 0.15395316 0.27114826 0.10741311 0.065120645 0.22277921
-0.032119088 0.11527808 -0.2053392 -0.012473652 0.047639266 0.15904815 -0.32285768 0.032079887
-0.0612378 -0.07257206 0.14618467 -0.1711158 -0.15000267 -0.012695738 0.19484493 0.33344516
0.079518996 0.07033948 0.11899191 0.41880444 0.19546819 0.0798318 0.14140698 -0.19048901
-0.11246326 -0.15042368 0.17928882 0.07315823 0.03506101 0.21763448 0.14786163 -0.11739152
0.3402201 0.044631455 -0.17706177 0.20925167 0.12049797 -0.02958984 0.29162702 -0.3089569
0.26806557 0.22088052 0.11990505 0.259223 -0.22754987 -0.19633318 -0.18157959 -0.37588271
-0.19660759 0.5212526 0.04192898 0.014771696 -0.058432292 0.15882267 0.18609512 -0.21303701
-0.054489274 0.008690746 -0.017349366 0.37075529 0.056624137 0.18914638 -0.1235099 0.09854081
-0.08463803 -0.00016193179 -0.26090452 -0.076678224 -0.11533064 -0.040209737 0.020856675 0.019864663
-0.52619624 -0.023262901 0.22490157 -0.26116866 -0.24026997 -0.14011918 0.15846996 -0.111058615
-0.15358333 0.13270263 -0.178081 0.23009041 -0.028742246 0.0100163445 0.22756514 0.0799246
0.13800433 0.08059098 0.17488255 0.022454208 -0.24978586 0.28667018 0.21048099 0.025752697
-0.24600363 0.09507856 0.002863547 0.097115085 0.1009176 0.12125502 0.16758229 -0.33839095
0.18678094 0.07452321 -0.08406286 -0.10536486 0.44327968 0.15779275 0.09668042 -0.15493889
-0.39415586 0.09418296 0.2384124 -0.06575508 -0.1706123 0.039478295 -0.14464599 0.09625071
0.08063787 -0.31595778 0.13895744 0.030138748 0.11689613 -0.104113236 0.17540757 0.15189143
0.029708294 0.15963373 -0.13381232 0.024184419 -0.060981803 -0.15767671 0.2564857 -0.18391068
0.11354952 0.11143634 -0.07439082 0.08656239 -0.17566887 0.27652955 -0.1225055 0.11978326
-0.0021476764 0.11924087 0.03164469 0.063426904 0.0030087635 0.05418955 -0.12131385 -0.057237446
-0.081816904 0.05147616 0.3415939 -0.047904737 0.04448483 0.15118633 0.00040427138 -0.06803662
0.04805243 0.09221874 0.12322274 0.08360304 -0.09169644 0.024670867 -0.11620169 -0.00032510195
0.10815624 0.049429387 -0.13720836 -0.0702667 -0.08142786 0.04188606 -0.02088659 -0.13249362
-0.048993543 -0.0072191735 -0.013971275 0.1268276 -0.012631664 0.028934177 -0.05881002 -0.02445511
0.0041208873 0.10806294 0.05117545 -0.095061764 -0.1152456 -0.1306996 -0.06375535 0.0016050239
0.09497981 -0.020084541 0.015447648 0.02464817 -0.120518595 -0.13371703 0.020460466 0.02448465
-0.10278263 0.0060807513 -0.14600061 0.0077179414 0.027402429 -0.048318602 -0.01955642 0.05308869
-0.027925588 0.08712938 -0.11349891 -0.07302299 -0.12711261 -0.14031544 0.048456274 -0.009109902
-0.10233215 0.005490307 -0.12619686 0.010803799 0.03237561 -0.018165363 0.055145096 -0.0027318154

actor.2.bias f4 [64]
00000000: 66db 8ebd 2a1d 023d ce44 223d c748 02be
00000010: 4b92 6c3d 9f74 4b3d efcc f7bd cf43 6e3c
00000020: 0311 98bc 0c4c 993d 929c 91bd 4a29 873c
00000030: e7cc e2bd 3895 b4bd 3e65 833d 520c dcbc
00000040: fb4f 02be 48bf 8539 d90c 843d 9f50 b53d
00000050: d8c3 d7bd f2a1 14bd 30a9 d6bc 9cff f83b
00000060: 5ddc e63d ba4c ae3c 3793 be3d 6cc3 62bc
00000070: 7129 edbd 6503 89ba 35fa 3fbd 3a43 263d
00000080: 7157 e5bd f385 a13c 2c96 413d 4958 383d
00000090: 2ee5 a93c 206d ec3d ef30 113e 22b1 25bd
000000a0: 7913 e63c 74d2 22be eb51 58bd eb13 b2bd
000000b0: 1b2b 273d 1f14 73bd b6e4 b5bc 9b2a 34bd
000000c0: d8b5 b7bb e959 b23d 68e8 d53d e759 05be
000000d0: 4d2b 29bc 306d afbd 96c3 92bc ac05 043d
000000e0: 89a0 36bd c992 8b3d 7b6b 7d3d 5a36 8fbc
000000f0: 9729 7abd 604a a83b 0fcb ab3b 25fe b6bc
-0.06975441 0.031766094 0.0396164 -0.12723075 0.057756703 0.049671765 -0.12099635 0.014542534
-0.0185628 0.07485208 -0.071099415 0.01649918 -0.11074238 -0.08817524 0.06415795 -0.026861344
-0.12725823 0.00025510252 0.06447763 0.08853268 -0.10535401 -0.036287256 -0.026203722 0.0075988304
0.112725 0.02127682 0.09305423 -0.0138405375 -0.1158017 -0.0010453282 -0.046869475 0.040591456
-0.11198319 0.019717192 0.047262356 0.04500607 0.020739164 0.115442514 0.14178823 -0.04045213
0.028085457 -0.15900594 -0.052812498 -0.08695205 0.040812593 -0.05934536 -0.022203784 -0.043985944
-0.0056063943 0.08708555 0.104447186 -0.13022576 -0.010325265 -0.08565748 -0.017915528 0.03223197
-0.044586692 0.068151064 0.06187008 -0.017481972 -0.06107482 0.0051358193 0.0052427123 -0.022337982

actor.4.weight f4 [36, 64]
00000000: 08a9 a53d a064 d33e 9093 0a3e 8c55 b0bd
00000010: 17e0 293e 9c7c bebd f8dc 293d 8c52 a43e
00000020: 5527 133e 8aa5 eb3d a531 9cbd d7ec dcbb
00000030: 7353 b3bd 6b1e 49bd fab7 2c3e f0cb 053d
00000040: 2729 863e 68fc 5fbe 5532 443e 9053 fd3e
00000050: 34a2 38be 398a a5be 26a3 1cbe d610 373e
00000060: e3a6 9c3e eef9 0d3d fa00 c03e 74d4 b7bc
00000070: e3d7 5fbe 9975 90be 03bf a33e 51f4 aa3e
00000080: 6887 66bd 5586 69be 6511 6d3d fa72 8b3e
00000090: 7690 d2bd c785 f63d d6f6 c13c 5436 a23e
000000a0: d662 e2bd 30bc 72bd e74a 58bd 2f6c 85bd
000000b0: 1112 abbd 93a8 a23c 203c 04be 6086 45bd
000000c0: 7ac0 2b3e d434 803d 50a4 1dbf baff 0bbd
000000d0: d234 2fbd d0a6 bbbd 1b5c c73e a87f 3c3e
000000e0: 1af0 bbbc 0d28 1dbe feb9 f5be fbf2 54bd
000000f0: 80e8 8ebd 47c8 3ebd f94c d43e 0175 63bc
00000100: c2ab 48be 89a1 0e3c bdb7 8f3e 18e1 e9bb
00000110: cc2a 973d 3c70 8cbd 8096 7c3d 69de 673e
00000120: d242 dd3d 5065 5c3e 5e73 053e 0091 7c3e
00000130: cfe7 b03d 35f2 97bd 4268 e13e 42da 813a
00000140: 77b7 73be e60b aa3e 0261 83be c47c 8fbc
00000150: 097d 783e c8e2 b63e 6988 673d 9fe8 3dbe
00000160: e5ac 8dbe 2895 bf3c 4e87 9a3d 3f84 843e
00000170: 8f92 313e 192d 463d ddc9 75be 1e4f 7cbd
00000180: d451 46bd e646 8ebe 0ce3 a13d d2d7 20be
00000190: 45b9 5d3e 3541 9d3e 4be3 ae3e 9960 7ebe
000001a0: adc8 363e 4e80 1f3e 3b2d 733c 7831 e23c
000001b0: a81d a63d 61f5 8f3e d890 47be e5be 513d
000001c0: 7908 4ebe 52eb 443e b1b5 c73c 76c1 9fbc
000001d0: 4061 613e f323 b33d 1438 8f3e 3dd1 b5bd
000001e0: a706 d43c 89be e53c db3b c4bd abb5 ba3e
000001f0: b333 af3d 5322 b03d 58e2 e33e 6c88 b03c
00000200: c059 843e aa82 f43c 24f4 903e 803c 84bd
00000210: 2a32 49be a56f 2e3d 35a5 903d 0b59 42be
00000220: 029b f83d 2f9e 91bd df57 e13d b0f2 3e3e
00000230: c7e9 b93d 4fd4 923b 16d9 023e eb05 d7bd
00000240: c6a0 f83d 07a4 dd3d c87e 863e e09c c9bd
00000250: fc02 653e cb2c e2bc e735 5c3e 9710 8cbe
00000260: 7d38 5abd 9eb8 173b b115 03be f9a2 5f3e
00000270: a952 563e efe5 b5bc 11c5 b83d afbc a8bd
00000280: fda8 cc3c 935a 183d efac 773c 8ac3 893e
00000290: 740d 35bd 197b 213e 409b 813d add6 573e
000002a0: 2093 8a3e 8beb 27be ec32 45bd ecca 8f3d
000002b0: e87d 11be baf4 7b3d 49af 9c3e 16a2 9e3d
000002c0: d31b 713e 4250 5e3e ae52 4fbd 93c1 5a3c
000002d0: e7c1 f63d 426f 79bc 6a4e eebd 4669 993e
000002e0: 3f55 46bd 5916 0ebe f57a 21be 8470 4ebd
000002f0: 9a31 673c 2eed 813e d4b1 87bc edb8 a5bd
00000300: 5739 623e 7780 d83c d6ee abbd 08c3 403d
00000310: 15c1 083e 701d 053c 5f5a ad3d c439 943d
00000320: 3655 1fbe c929 273e a462 a13d b12f b1bb
00000330: 6be6 3e3d d891 0dbd ae20 1a3d 7a05 c13d
00000340: 78d0 3cbb cba3 1cbe a917 fd3c cdbb fdbc
00000350: 7d6e a1bd 5d47 ccbd ac50 a33d fb6f 983e
00000360: 6b2b 713e 0ae1 b7bd 6520 99bd a6f4 21bd
00000370: 4999 433e 4630 693e b70e 8e3e bfe5 a5be
00000380: 5f67 a43e 1557 223e 012f 34bd 0e0e 0fbd
00000390: e96b ecbd ef59 463d ad0b 3ebd 5648 f4bd
000003a0: 78bf 4fbd 8c78 503e 0183 3e3d d516 97bd
000003b0: 2ab8 26bd 1266 ca3d 727b 5e3e e3c6 843d
000003c0: ea63 a73d fa68 a93d d6fd 57bc dc82 d0bd
000003d0: ec88 a43e a666 863d bccf d13d 7974 e93d
000003e0: 01b3 fe3d 2782 61bd 1faa 983d 7a9a 85bc
000003f0: 8ed9 8ebd 4ea9 0a3e cc12 55be dcfc 85bb
0.08088881 0.41287708 0.13532853 -0.08610067 0.1658939 -0.09301111 0.041470498 0.32094228
0.14370473 0.115061834 -0.076266564 -0.0067421007 -0.08756151 -0.049101274 0.16867056 0.032665193
0.26203272 -0.21873629 0.19159825 0.49477816 -0.18030626 -0.32332018 -0.15296611 0.17877516
0.30596074 0.03466218 0.37500745 -0.022440173 -0.21859698 -0.2821472 0.31981668 0.33389524
-0.056281477 -0.2280515 0.057877917 0.27236158 -0.1028146 0.12037235 0.02367727 0.31682074
-0.11054008 -0.0592615 -0.052805807 -0.06514775 -0.08353055 0.019855773 -0.12913561 -0.048223853
0.16772643 0.06260076 -0.61578846 -0.034179427 -0.042774983 -0.09162676 0.38937458 0.18408072
-0.022941638 -0.1534731 -0.47993463 -0.051989537 -0.069779396 -0.046577718 0.41464975 -0.013882876
-0.1959677 0.008705505 0.2806987 -0.007137429 0.0738121 -0.068573445 0.061666965 0.22643436
0.108037606 0.21523023 0.1303229 0.24664688 0.08637964 -0.07419244 0.44024855 0.0009906965
-0.23800455 0.33212203 -0.2565995 -0.017515548 0.24266447 0.35719895 0.056526575 -0.18545769
-0.2767097 0.023386553 0.075453386 0.25882146 0.17341064 0.048382852 -0.24002786 -0.06159889
-0.04841788 -0.27788466 0.07904634 -0.15707329 0.21652706 0.30713812 0.34157786 -0.24841537
0.17849989 0.15576288 0.014842327 0.02761148 0.08111125 0.28116897 -0.19488847 0.05120744
-0.2012042 0.19230393 0.02437863 -0.019501429 0.22009754 0.08747091 0.27972472 -0.088778
0.025882078 0.028044956 -0.09581729 0.36466727 0.08554783 0.08600297 0.44508624 0.021549426
0.25849724 0.029847462 0.28311265 -0.06456852 -0.19648042 0.04258694 0.07062761 -0.1897928
0.121389404 -0.07110249 0.11003088 0.18647265 0.090777926 0.0044808756 0.12778124 -0.10499176
0.1214004 0.10822301 0.262686 -0.09844375 0.2236442 -0.02760925 0.21504937 -0.27356407
-0.053276528 0.0023150812 -0.12801243 0.21839513 0.2092997 -0.022204367 0.090219624 -0.082391135
0.024982924 0.037195753 0.015116914 0.26906997 -0.044202283 0.15769614 0.0632844 0.21077986
0.27065372 -0.16398446 -0.048144266 0.07021126 -0.14208186 0.061512686 0.30602482 0.07745759
0.2354577 0.21710303 -0.05061596 0.013351816 0.12048703 -0.01522428 -0.1163605 0.2996313
-0.04842114 -0.13875712 -0.1576956 -0.050400272 0.014110947 0.25376266 -0.016564287 -0.080919124
0.22092186 0.026428444 -0.08395164 0.047060996 0.13354905 0.008124694 0.084645025 0.072375804
-0.15559849 0.16324534 0.07880142 -0.0054072966 0.046606462 -0.034562916 0.037628822 0.09424873
-0.002881078 -0.15296857 0.030895071 -0.03097334 -0.07882402 -0.09974549 0.07974371 0.29772934
0.23551719 -0.0897847 -0.07476882 -0.039539956 0.19101442 0.22772321 0.27745602 -0.32401845
0.32110116 0.15853532 -0.04399014 -0.034925513 -0.1154402 0.04842561 -0.046397854 -0.119278595
-0.05071971 0.20358485 0.046511654 -0.07377402 -0.040702976 0.098827496 0.21726778 0.06483247
0.08173354 0.08271976 -0.013183078 -0.101812094 0.32135713 0.065625474 0.102447 0.113991685
0.12436486 -0.055055764 0.07454323 -0.016309012 -0.06975089 0.13541147 -0.20807952 -0.004088981

actor.4.bias f4 [36]
00000000: 55ee 83bd 0d60 e63d de90 253c 8ddf 56bd
00000010: 8b8d 543e e056 99bd b84f efbd 6e9b 243e
00000020: 2118 b7bd b913 80bd 6aaf 883c d8c2 113e
00000030: b070 2dbd 78d3 013e 3837 103e 42f6 5d3d
00000040: e4e5 b3bc 7cb7 5abc c5c3 0e3e 45e1 183d
00000050: 1bb2 5abd abb1 0c3d 3246 f23d ffc6 c4bd
00000060: cca6 393e af68 74be 83d8 093e 9d2f bb3c
00000070: 1f76 153d bd5d aabd dc05 b63c 0518 4a3d
00000080: 8c3b 89be cc80 9f3d c69e c73d 6c5e 803e
-0.064419426 0.11248789 0.01010534 -0.05245929 0.2075712 -0.07487273 -0.11685127 0.16074917
-0.08940149 -0.06253762 0.016685206 0.14234483 -0.042343795 0.12678325 0.14083564 0.054189928
-0.021960206 -0.01334941 0.13941868 0.03732421 -0.05339251 0.034349125 0.11829795 -0.09608268
0.18130034 -0.23868059 0.13461499 0.022849852 0.036489602 -0.083186604 0.02221959 0.049339313
-0.26803243 0.07788238 0.097470805 0.25072038

critic.0.weight f4 [64, 62]
00000000: c860 9c3d 6a19 ab3d 31d8 abbd 6c5b 1b3c
00000010: a01b 23bd ef01 3abc 87e8 c93b c913 123c
00000020: 73bf 99bd 9415 a9bc 0329 70bd 08dc 05bd
00000030: cc7a a7bd 16de 87bd 90b6 98bd f668 63bd
00000040: fe10 09bc ab20 ddbd 13fe f7bd c876 b63d
00000050: 0c4a bbbd 7c17 b63d d610 103c 3e3c 98bc
00000060: ef3e c93d 2717 cbbd c034 793d b399 ad3d
00000070: 30d2 003e 138b 0ebe 4527 393b 15f8 fdbc
00000080: f2fb c0bd 9aa3 b13d 5232 b7bc 73eb af3d
00000090: 160d 8cbd 74b4 66bd f195 433d 86ef 843c
000000a0: c410 953d 69e9 5d3d 1e33 d03d 3bba bfbd
000000b0: d195 833a 6e78 883d 67a9 28bc ab9d edbd
000000c0: 73ed ff3d fed0 d9bd dd3d 3fbd 09bd a3bd
000000d0: 12b7 003d e79b dabb 7b4b e4bd 6225 2a3d
000000e0: 8921 b73c 8a36 303d af98 febd 83d4 edbd
000000f0: 60b8 c2bd aad3 c3bd dd19 e7bd ccbf 833d
00000100: 2839 8dbc 1325 4dbd 0f91 063e 0756 72bd
00000110: 3295 083e 542d 7ebd fbc9 0abe 8548 54be
00000120: c762 273c b35b 4a3e 375b d1bd 253e ad3d
00000130: 52d7 f03d 3cec e53d a3f5 d43d fb2e df3d
00000140: bf91 8b3d 4504 dfbb 5d60 05bd 7659 f8bd
00000150: e2da 883d 00cd ebbc a810 a33c edf3 eabc
00000160: 15fc a73d bd3a 843b c462 6d3e 4628 9a3e
00000170: 6346 243d fa40 cc3d 73dd 703d 5f54 99bd
00000180: b5e9 b63d e77b c93d 0213 20bd af0e 59be
00000190: b2ed 853d 8b95 bd3d bb24 83bd a0fc a2bd
000001a0: 9f1a 93bd 8dc1 2ebe 58af 943d 946c 9cbe
000001b0: a9d1 a23d 1559 623e be2b 98bb 5355 35be
000001c0: 8374 123c f99f cdbc b01b 3fbd bb3e 06bd
000001d0: 8bdd 23be 08a0 c2bd 2d4a 2bbd 8e46 483d
000001e0: 4843 4dbd 61f2 e83c 1da2 ee3d baf5 aebc
000001f0: 1a4f d7bd 1423 a33d 1f64 d73d 2324 473d
00000200: f757 28be aff1 fabc e1df e6bd 52b5 35be
00000210: 9c60 bd3c 4304 55bc dece 9e3d 9a47 f23b
00000220: 149c a0bd f90e f83c 2135 86bd 86b8 fdbd
00000230: 011f a3bc 0aa1 99bd de74 f23d 9b83 d3bd
00000240: 2bc6 f23d 77ec afbc ce58 bc3c 047c e23d
00000250: c3b2 70bd adbd 40bd c437 573d c2ca 03bd
00000260: 1e63 9b3c dfed aa3d 80ad 6cbb 7b24 9e3d
00000270: a6e6 63bd c67e 533d fd69 493c 220e c8bd
00000280: 4ffc c2bb f0f4 6c3d bbb1 8ebd 2917 8a3d
00000290: 7c2b 6cbd 9628 d73c 4f6c 1b3c f419 0bbe
000002a0: 7534 863d b281 c8bd 7003 dcbd 5476 a1bd
000002b0: 311d 33be 8cf5 d23c 9850 edbd 4b4b ce3c
000002c0: de67 773d 9752 b13c 2b09 9ebc aebc 31bd
000002d0: 21ea ebbd b5a2 e9bb 51d3 b1bd a7c1 583d
000002e0: 42e9 ab3c fc4e 56bd 5d8e ebbd c211 efbd
000002f0: 8dab d9bd 5cf5 b53d 1d4a 633e dfbe a8be
00000300: e8a2 f0bd 82ad 4dbd 5d20 833c d133 e2bd
00000310: 7fc9 a3bc fc51 293d 76c7 abbc 6d83 073b
00000320: b20a f7bd 75e3 41bd 915f 1bbd 4b6d a1bd
00000330: 82c9 abbd 4523 b83d daa5 ac3c 59b8 2a3d
00000340: d503 bdbd b2e2 c03c 8db4 e73d 4d75 8e3d
00000350: 4c09 b6bb 3779 6fbd 3488 763d 098f bcbd
00000360: 5f85 56bc f7df 3fbc 0b87 13bd a704 a4bb
00000370: 5bdd f4bc 8e49 9abd 478f ad3b 5fe5 663d
00000380: d045 c7bd cb3b 583b ed0a f4ba 773f d4bd
00000390: 1e98 c33d b2c6 1f3d 6aaf f4bd e9bf 5dbe
000003a0: 17e8 4f3d 11ce 073e 7888 7bbc e3ea c2bd
000003b0: 9b66 323d 8ef7 0cbe bd15 b73d b846 523b
000003c0: 3c00 ccbd 28d6 423c 5230 f1bd 1347 a0bc
000003d0: f5a2 c0bd ed2d babc c371 203d 7d7e 61bd
000003e0: 3ef8 8b3d 0179 b83d d02e eabd c831 a8bd
000003f0: e24b 6f3d 362b 0abe f0dd a13d e15f 543d
0.07635647 0.08354457 -0.083908446 0.009482246 -0.039821267 -0.011353 0.0061617526 0.00891585
-0.07507219 -0.020640172 -0.05863286 -0.03268054 -0.081777185 -0.066341564 -0.07456696 -0.05552002
-0.008365868 -0.107972465 -0.12109008 0.089093745 -0.09144983 0.08891198 0.0087930765 -0.018583413
0.09826457 -0.09916525 0.060841322 0.084765814 0.1258018 -0.1392024 0.0028252166 -0.031002084
-0.09423055 0.08673783 -0.022362862 0.0858983 -0.068384334 -0.056324437 0.047750417 0.016227495
0.072785884 0.054177675 0.10166 -0.093616925 0.0010039156 0.06663595 -0.010294295 -0.116023384
0.12496462 -0.10635565 -0.046689857 -0.0799504 0.03142459 -0.006671417 -0.11147209 0.041539557
0.022354858 0.043020763 -0.12431466 -0.11612799 -0.09507823 -0.09561856 -0.1128423 0.06433067
-0.017239168 -0.050084185 0.13141273 -0.059164073 0.13338163 -0.062054947 -0.13553612 -0.20730789
0.010216421 0.19761543 -0.10222476 0.08459119 0.11759819 0.11226699 0.10398414 0.10897633
0.06814908 -0.006805929 -0.032562602 -0.12126438 0.066823736 -0.028784275 0.019905403 -0.028680766
0.08202378 0.0040353225 0.23182207 0.3010885 0.04010619 0.09973331 0.05880494 -0.07486796
0.08931295 0.098380856 -0.039080627 -0.21197008 0.065394774 0.09257039 -0.0640349 -0.07958341
-0.07182812 -0.17066021 0.07260007 -0.3055159 0.07950146 0.22104295 -0.0046438864 -0.1770833
0.008938911 -0.025100695 -0.046657264 -0.03277467 -0.1600248 -0.0950318 -0.041818786 0.04889541
-0.050112993 0.028435888 0.116520144 -0.021357406 -0.10513134 0.07965675 0.105171435 0.048618447
-0.16439806 -0.030632822 -0.1127317 -0.1774495 0.023117356 -0.013001504 0.077543005 0.0073937895
-0.078422695 0.030280577 -0.06553102 -0.12388711 -0.019912245 -0.07501419 0.11838697 -0.10327836
0.11854204 -0.02147506 0.022991564 0.1105881 -0.05876423 -0.04705589 0.052543417 -0.032175787
0.018968161 0.083461516 -0.0036114156 0.07721802 -0.055639885 0.051634572 0.012293336 -0.097683206
-0.0059504877 0.057850778 -0.06967493 0.06742699 -0.057658657 0.02626447 0.009486272 -0.13584119
0.06552974 -0.097903624 -0.10742843 -0.078838974 -0.17491604 0.025751851 -0.11587638 0.025182387
0.06040179 0.021645827 -0.019291481 -0.04339283 -0.11519266 -0.007129992 -0.086828835 0.052919056
0.02098525 -0.05232142 -0.11501763 -0.11673309 -0.10628424 0.08884689 0.2219624 -0.32958123
-0.11749822 -0.050214298 0.016006643 -0.110450394 -0.019993542 0.041337952 -0.020969134 0.00206777
-0.12062587 -0.04733606 -0.037932936 -0.07882174 -0.08388044 0.08991102 0.021075178 0.041679714
-0.092292465 0.023545597 0.11313734 0.06955967 -0.0055553075 -0.05846521 0.060188487 -0.09206969
-0.013093322 -0.011711112 -0.03601746 -0.0050054374 -0.029890707 -0.07533561 0.005296621 0.05637109
-0.097301126 0.0032994624 -0.0018618979 -0.103636675 0.095504984 0.03900785 -0.1194752 -0.21655239
0.050758447 0.13262202 -0.015352361 -0.09517457 0.043554883 -0.1376631 0.08939693 0.0032085609
-0.09960982 0.011891879 -0.117767945 -0.01956514 -0.094060816 -0.022726977 0.03917099 -0.05505227
0.06834458 0.09007455 -0.1143471 -0.0821262 0.058421977 -0.13493046 0.07903659 0.05184925

critic.0.bias f4 [64]
00000000: 2f19 1cbe 0d36 75bd 2459 1fbe 9197 5bbd
00000010: 3544 a4bd 4f90 823b c9d2 b63d 827c 3cbe
00000020: 5174 33bc 725f 353c a831 913d aa7a 973c
00000030: da89 233d 88dd 18be 48c3 133c 28fd e4ba
00000040: bca3 1cbe 0ede 183e 1871 8fbd 68a4 013e
00000050: 7484 04be 426f 4d3d b7e2 803d 4252 cbbd
00000060: d047 9ebc 37e4 13be 7460 a43b 0489 07bb
00000070: 5d9c ee3c 4d58 693c c425 3bbc 24ee ebbd
00000080: db58 18be e01e 97bc 7253 c5bd a35f a13d
00000090: ab17 eabd 8b4c 963d d481 673d 4d41 983d
000000a0: 63a5 08be 9586 c6bd ff49 dfbd d5e6 87bc
000000b0: 0203 28be 097c 1bbe 9e1b 393e adb9 ab3d
000000c0: 5030 f0bc 49ca 84bd 7d91 6fbd 4b08 e3bd
000000d0: 9741 40bc 1601 5fbd f913 2abe 7976 013c
000000e0: ab9e 81bb 3857 84bd 5b17 a3bd dabc 0abe
000000f0: 1348 1fbb b024 a63c 05ba 6abe 0e5b 31be
-0.15243982 -0.059866 -0.15561348 -0.053611342 -0.08020822 0.003984488 0.08926923 -0.18406871
-0.010953025 0.011070119 0.07089549 0.018491108 0.039926387 -0.14928257 0.009018727 -0.0017470466
-0.15296835 0.14928457 -0.07003993 0.12660372 -0.12941152 0.05015493 0.062932424 -0.09927799
-0.019321352 -0.14442526 0.005016381 -0.0020681033 0.029127294 0.014242244 -0.011422578 -0.11520031
-0.14877646 -0.01844734 -0.096350566 0.078795694 -0.114302956 0.07338818 0.056520298 0.0743433
-0.1334434 -0.09693638 -0.109027855 -0.016589561 -0.16407397 -0.15184034 0.18076941 0.08385024
-0.029319912 -0.06483895 -0.058488358 -0.11085566 -0.011734388 -0.054444395 -0.16609181 0.007901781
-0.0039556823 -0.06461948 -0.07963439 -0.13548604 -0.0024304434 0.020281166 -0.22922523 -0.17319891

critic.2.weight f4 [64, 64]
00000000: 1cea 71bc c597 b73d cacf 5fbc d060 0bbb
00000010: 351c dbbc 6ceb 19bd af5a 6dbd bf70 0f3e
00000020: 1f90 22bd 45a9 cebd e8bc b4bd 7179 003e
00000030: d80b 36be 9380 103e 2fbd 333d a704 a1bd
00000040: e596 943d 9cfa 093e 7a1c b1bd 06b2 893d
00000050: 9120 b4bd b585 71be 596d 763d 9ce5 c13d
00000060: cde8 5ebe 1657 2ebe 3384 03be dd24 0ebd
00000070: 5249 c4bd da31 a63d 811e 1cbb e9c0 fbbd
00000080: aeb8 5bbc 3bfc 41be 1600 e3bc 5aac a13b
00000090: 5eb4 2abe 066a 803d 0b5d 27bd b301 d3bd
000000a0: 8b34 95bd 867d e33d 45de e7ba 69fd 61be
000000b0: 8034 75bd af39 02be 34be afbc 5ba9 42be
000000c0: 7e14 b33d 910f 08bd e666 27be 2645 203e
000000d0: 39bd 4cbd 6158 7abd 3aac e1bd e979 bbbd
000000e0: ec02 013e 7920 b7bc 6870 7fbd 49a7 98bd
000000f0: 308f 1cbd f379 93bd 9152 4c3d bf94 06be
00000100: e049 6dbc 884c c93b 7a65 96bc 5b41 babc
00000110: 12ca b3bd 0f89 8dbd e927 64bd e5e2 f93d
00000120: da84 5abd 2b9b d7bd fd63 d4bd 8bc8 c7bd
00000130: a673 25bd 0c4f 89bd 7782 cbbd 63f6 5cbd
00000140: 9dd4 ae3d 0092 b9bd 865c bebc 50f2 ce3d
00000150: bc3b b43d 2774 ae3c 4385 163d e65f c3bc
00000160: d89c dfbd 90f0 abbd 574b b3bd 21de 9d3d
00000170: f5d6 a13c 499e e9bd 94f4 e4bd e11b a2bc
00000180: 741a 903d 5f11 8aba 4df9 0f3c 113e f1bc
00000190: deae 93bc 0013 653d 85db bf3c 8e22 cebc
000001a0: 50cf ff3d 5705 953d 62d3 f53c c05e 433d
000001b0: 1e1c 893d 143a e7bc fe8a 313c df32 4cbd
000001c0: ff6c 65bd 7df9 23bc d2a2 c8bd 5aa9 c03d
000001d0: b9d2 c6bd 7fce 75bd e9a4 c6bc 36b5 883d
000001e0: 3597 8abd fa05 d4bc 0fa5 6a3d ca81 d1bd
000001f0: 9531 e53d a84a 613d 43a8 d23c 933f 44bc
00000200: 2d81 d63d abe8 cebd 1b7c dfb7 7003 3f3d
00000210: e6d2 92bd 5131 593b 10ec 78bd 25c4 183c
00000220: ed5f 79be 40a3 fbbd 5385 aabd e49f 64be
00000230: d81c 19bd eea6 cfbd 796e 5fbd 032a ca3b
00000240: b1c7 b0bd 77d9 55bd f199 20bd 9d1c ccbc
00000250: 3ca6 703d ba00 cb3d 78d8 c33d 5c89 b63d
00000260: 25e4 1fbd 1a53 c93d 861c c63c 53e7 e0bd
00000270: 1f9f 2d3d 34b4 b4bd bd23 a63d a697 2abe
00000280: b062 c33c 5eb7 973b 4ee4 84bc c25f 28be
00000290: 4333 9b3d 4408 893c 9f7a 95bc 1d20 0bbe
000002a0: d640 893d 4d67 d339 36d2 42be 17d7 73bc
000002b0: 9c8c c6bc 0fb7 bdbd b794 87bd 4478 a93d
000002c0: bf0c c93c 9a0d 893c 3a6d 26bd 8a38 1abe
000002d0: b6f1 ad3d 1da8 13be 422e 58bd a069 743d
000002e0: 10d2 f6bd 5964 98bb c2fe 33be 14de 89bc
000002f0: 1bf6 01be 3f70 4dbe 247a c63d db96 c5bd
00000300: 402e d13b bd45 f23c 8413 5fbd 8285 38bd
00000310: dad0 783c 90e0 c8bd 13d1 aa3b 4824 babc
00000320: 166a 05bd bd43 09be e0ad 82bc 8fbd aabd
00000330: 0a6a 43bc fdb8 40be 6914 6f3d 6edf c43d
00000340: 50a4 263c b65b aebd 75e6 29be 3c4e bd3c
00000350: 665a 113c db19 cc3d b234 b2bd f05c 183d
00000360: b206 68bd 8709 9bbd 4951 3dbd 6d34 c8bd
00000370: c66b 0c3c e011 b7bd 73c1 6a3d 433b f4bd
00000380: 2491 023d dc40 5c3d 2cdd 6cbd da5f 0abe
00000390: 0fef 1e3d 29b4 04be 03af 92bd 7fc8 abbd
000003a0: 3ce2 86bd 23d7 d13d 75a1 91bd 1f0f 8a3d
000003b0: 5eb5 a6bd 1a20 943d 11d6 17bd 9a9d 50bd
000003c0: 6c86 42bd e82f c93b 0464 3d3c ad0b 07be
000003d0: c4d6 8f3d c9a5 823c 3c30 a9bd 33f0 0d3e
000003e0: 364b 87bc 8124 b43d 9df5 7bbd fce3 13be
000003f0: 2671 b1bd ad7a 3ebe 34cd a73d f7e5 8a3d
-0.014765289 0.089644946 -0.013660381 -0.0021267422 -0.026746849 -0.03757803 -0.05794781 0.14007853
-0.039688226 -0.10090879 -0.088250935 0.12546326 -0.17777956 0.14111547 0.04388159 -0.078622155
0.07255343 0.13474506 -0.086480096 0.067234084 -0.08795274 -0.23586161 0.060162876 0.09467623
-0.21768494 -0.17025408 -0.12843399 -0.034703124 -0.09584297 0.08114977 -0.0023821893 -0.12292654
-0.01341073 -0.18943875 -0.027710002 0.004933876 -0.16670367 0.06270222 -0.040860217 -0.103030585
-0.072854124 0.11107926 -0.0017690143 -0.22069325 -0.05986452 -0.12717317 -0.021453 -0.19009916
0.08744143 -0.03321797 -0.16347846 0.15651378 -0.049985144 -0.06111944 -0.11019178 -0.09154112
0.12598771 -0.022354351 -0.06236306 -0.07453782 -0.03822249 -0.07200994 0.04988343 -0.1314268
-0.014482945 0.0061431564 -0.018358935 -0.022736242 -0.08778776 -0.069109075 -0.055702124 0.1220148
-0.053349353 -0.10527643 -0.10370634 -0.097550474 -0.040393494 -0.0670453 -0.099369936 -0.05394591
0.085366465 -0.090610504 -0.023237478 0.10104811 0.08800456 0.02129562 0.036748182 -0.023849439
-0.109185874 -0.08395493 -0.08754604 0.07708383 0.01975582 -0.114071436 -0.11179462 -0.019788684
0.070362955 -0.0010533741 0.008787465 -0.02944854 -0.01802772 0.055926323 0.023420105 -0.025162961
0.124907136 0.07276409 0.030008022 0.047697783 0.06694816 -0.028225936 0.010836361 -0.049853202
-0.05601215 -0.010008213 -0.097966805 0.09407301 -0.09708161 -0.060011383 -0.024248557 0.06675188
-0.06767122 -0.025881756 0.05728632 -0.102298334 0.11191098 0.05500284 0.025714999 -0.011978048
0.10473857 -0.10102972 -2.6641463e-05 0.046634138 -0.07169132 0.0033140967 -0.060772 0.009324108
-0.24352999 -0.12286997 -0.08326211 -0.22326618 -0.037381023 -0.10139261 -0.054548714 0.006169559
-0.08631838 -0.052209344 -0.03920931 -0.024915988 0.058752283 0.09912248 0.095627725 0.08912918
-0.039035935 0.098303035 0.024183523 -0.109816216 0.042388078 -0.088234335 0.08112285 -0.16659412
0.023850769 0.0046300134 -0.016222145 -0.16442779 0.07578137 0.016727574 -0.018246947 -0.13586469
0.067018196 0.0004032202 -0.19025502 -0.014882824 -0.02423697 -0.09263431 -0.06620162 0.08274892
0.02454221 0.016730119 -0.04063151 -0.1506063 0.08493368 -0.14419599 -0.05277849 0.059671044
-0.12051785 -0.0046506342 -0.17577651 -0.016829528 -0.12691538 -0.2006235 0.09691265 -0.09647914
0.0063836873 0.02957427 -0.05446197 -0.045049198 0.015186513 -0.09808457 0.005212912 -0.022722378
-0.032571875 -0.13404746 -0.01595205 -0.08336937 -0.011927137 -0.18820567 0.058369074 0.09612928
0.010171011 -0.08513586 -0.16591819 0.023108594 0.00887165 0.09965869 -0.08701457 0.037198007
-0.05664701 -0.075701766 -0.046220098 -0.097756244 0.008570617 -0.08938956 0.057313394 -0.11925366
0.031876698 0.053772792 -0.057828113 -0.13513127 0.038802203 -0.1295935 -0.07162287 -0.08387851
-0.065861195 0.10246112 -0.071108736 0.06741165 -0.08140062 0.072326854 -0.037069384 -0.05093155
-0.047491476 0.006139744 0.01155949 -0.13188048 0.07023385 0.015948193 -0.08261153 0.1386116
-0.016515356 0.08796025 -0.061513532 -0.14442438 -0.086641595 -0.18601485 0.08193436 0.067821436

critic.2.bias f4 [64]
00000000: 4a21 793b 686b 84bd ac10 e23a fe20 a2bd
00000010: 31d3 c7bd d953 b1bd 2a22 9ebd 242a f4bd
00000020: 50a5 353d e036 933c 3229 803c 8eda 923d
00000030: 50f6 c4bc 580c a03d 78f1 02bd c71f f93d
00000040: 5841 8ebd 2048 e8bd f3a2 903d c953 d73d
00000050: 68e0 803e 2db7 37bc 3aba 0cbe d987 10be
00000060: 0608 793d ea5d 17be 6c6d 95bd 2df7 bfbd
00000070: a18d e6bc 593d 253e 670d cbbd 18a1 3d3b
00000080: 5625 7dbd d177 dcbd 125e 6c3e 73c8 a03d
00000090: 605e 9fbd 6f36 8f3d bf9d 07be 36fa 94bd
000000a0: fc03 023d d33e aebd 57ff 183e 2f1b d03c
000000b0: f613 88bd 1823 4f3e 4089 80bd 953c ed3d
000000c0: 0cb2 a0bd b68f 7fbc 029a 823d 4937 e3bd
000000d0: 3204 5abd 2d66 e6bd 8c40 08bd 5d0b d2bc
000000e0: 2a1f a33b 370e d6bc ef5f 0abe e722 0ebc
000000f0: c7b3 1fbe fa77 78bd 49a9 1cbe 055b 04be
0.0038014227 -0.064657986 0.00172474 -0.07916449 -0.097570784 -0.08658571 -0.0772136 -0.119221
0.044347107 0.017970502 0.015644643 0.07170592 -0.024043232 0.078148544 -0.031968564 0.12164264
-0.06946057 -0.11341882 0.0706233 0.105140276 0.25171208 -0.011213106 -0.13742915 -0.14114322
0.060798667 -0.14781919 -0.07296261 -0.09373317 -0.028143706 0.16136684 -0.09914666 0.002893513
-0.061803184 -0.10765041 0.2308276 0.07850733 -0.077816725 0.06992804 -0.13243769 -0.072742864
0.03174208 -0.085080765 0.14941154 0.025403587 -0.06644432 0.20228231 -0.06276178 0.11583821
-0.0784646 -0.015598228 0.06377031 -0.11094529 -0.053226657 -0.11249957 -0.03326468 -0.025640184
0.0049780803 -0.026129825 -0.13513158 -0.008675314 -0.15595923 -0.060661294 -0.15298952 -0.12925346

critic.4.weight f4 [1, 64]
00000000: 0571 e8bd 2593 053d f085 d1bb b7d5 6cbc
00000010: f88d 90bd 5c11 fbbc d6d2 a6bc f354 b93d
00000020: 9973 393d 9877 d6bd df02 3cbc 3542 ecba
00000030: 1073 f9ba b1e1 80bb d416 67bd 506d 27bd
00000040: 09ea c6bc 0d30 483c ef2d 0d3a fb64 02be
00000050: 60c2 fc3d 4ad3 fb3b e742 8b3b 841b 233e
00000060: 282e bfb9 a629 4abb 2c6f 43bc 3aa1 4d3b
00000070: e85b dbbb 66e5 2ebe 4094 2ebd 20d7 e63c
00000080: 0ae9 0a3d d04d b03d 6126 2cbe 931c b2bd
00000090: e9de 8bbc e8df fcbd a1d2 1abe d645 f83c
000000a0: d46b fe3b 77b2 083d 6c6c 5b3e e655 1b3a
000000b0: b57e 893c 1ae3 9d3d a567 113b a94e 103e
000000c0: 10cf f93b 2d81 9dbc 9124 67bd e476 a43d
000000d0: d401 c73d e038 b3bc 2654 b2bb e6db a0bb
000000e0: 2a65 0ebb 85d2 06bb d72b 653b 0d1f d8bb
000000f0: f453 b13b 32f2 8d3c 71d2 85bd b97f c3bd
-0.11349682 0.03261103 -0.0063941404 -0.01445525 -0.070583284 -0.030647926 -0.020364206 0.09049406
0.04527626 -0.104720294 -0.011475294 -0.0018025102 -0.0019031484 -0.0039331545 -0.056418255 -0.040875733
-0.024281519 0.012218487 0.0005385568 -0.12733833 0.123417616 0.0076850997 0.0042499187 0.15928465
-0.00036464748 -0.0030847578 -0.011928361 0.0031376616 -0.0066943057 -0.17079696 -0.04262185 0.028178751
0.03391365 0.086085916 -0.16811515 -0.08696856 -0.017074065 -0.12347394 -0.15119411 0.030306738
0.007764319 0.033373322 0.21428078 0.00059255806 0.016784051 0.07709332 0.002218702 0.14092506
0.0076235607 -0.019226635 -0.056431357 0.08030489 0.097171456 -0.021877706 -0.00544216 -0.0049090264
-0.002172778 -0.0020572257 0.0034968758 -0.0065954984 0.0054116193 0.017327402 -0.06534279 -0.095458455
