RL/CC2-Cardiff-implementation/GT-Cardiff-CC2/Models/PPOxCCE-C2/2000.pth (torch, 78850 bytes, 11 tensors)

actor.0.weight f4 [64, 62]
00000000: ed40 79ba e786 8b3d 2a12 d6bd 3c6a bfbd
00000010: b254 40be b2be 7ebe 2241 35bd bc13 d53d
00000020: fadf a5bd 0b2d 0ebd 4c13 aabc 7ed7 373c
00000030: 5c6b dc3c 4b8a 8bbc de88 89be 3301 cabd
00000040: 81a6 4d3d 4d10 9c3d 7754 b0bd 4686 62bd
00000050: 5df1 3c3d 15fb d73d 861c d6bc 12a2 c23d
00000060: 58b1 a7bc c02c 5c3c cf82 eb3d 9948 f1bd
00000070: f44a dabd 7482 1fbe 119e a3be 6c23 2e3e
00000080: cf96 a8bd 3376 6fbd b9b6 b5bd 9498 f3bd
00000090: 32d1 18be 978b 0b3d 497e 28bd c352 19bd
000000a0: afa7 10bc 4538 dfbc 54c9 9ebd 063c 2cbe
000000b0: 91b6 b63b b66c 863d 0ac3 503e 5175 523e
000000c0: bee9 c8bd 31f3 19bd 2493 50bb cdb2 b4bc
000000d0: 8474 4e3d 2367 0bbc e171 563c 6e8c 85bd
000000e0: f77c 8dbd 70a7 c9bd 2578 19be 9513 b7bd
000000f0: 787d cf3d 2f27 8cbd 9411 9abd 6327 1d3d
00000100: 1bc9 8e3d 8d50 83bc 1347 2cbe cf2c 1abe
00000110: bab8 8e3d b001 373e e9a2 b73d 78c8 9b3d
00000120: 3c5a d03d 33cf d43e a2a2 eb3d ad0b a43d
00000130: ed8e ccbc 79b2 a8bd 4d6a 3f3c b5b7 a2bd
00000140: d565 f2bd f417 e73d 48c4 c53d 05ba 01be
00000150: 23bb c23c 6643 afbc fb34 abbc 271f 6ebd
00000160: 120b 483d 510e 9abd 4b95 b13c 9cd4 873d
00000170: 412f a03c 2b0e aebc 95b6 00be 40b9 a8bd
00000180: b6de 813d 05c1 d93c ef1f b2bd 20da 12be
00000190: 1c1a b43c 5407 7bbd 49aa 04be 10ea 2ebe
000001a0: 2553 2fbe 1bbc 273e 4b0c 83be 5610 f9bd
000001b0: 04f6 793d 4657 133d 2fa6 c1bd b98b 4a3d
000001c0: d2a3 1bbe bdd1 9cbc 723e b23d bf59 10be
000001d0: 3db5 413d ad2a c6bc 0dec e0bd a8c0 f63c
000001e0: 8bd2 0ebc e16d 4c3d 7db6 17bd 61ed 2cbd
000001f0: 3e7f f9bd 2929 9abd 3f38 02bd 8964 7dbd
00000200: f1d1 e03d 5892 05be 5a20 67be 133a 863d
00000210: 10ec 3dbd 75cd 6bbe 4fb3 16be 9648 e23d
00000220: deed 13be f2e9 04be b34c 60bd 7c39 af3d
00000230: 0c60 f63d f82c a53d 5cf0 f63d 177c 16bc
00000240: 6aa6 e9bd 869c 76bd d419 b13d 1ed1 57ba
00000250: a747 81bd 9850 c7bd 5f69 f3bd fc85 dbbd
00000260: 8a77 47bd 79d3 f43c 63cc 983c 974a 80be
00000270: 4e3e a23d 1c87 cbbd b6f2 dbbc 80ec 52bd
00000280: 72b4 c7bd 1dae 37be 53d8 8a3b 964a d8bd
00000290: e276 d4bd 7ec7 c73d d54c 8fbd dbb4 d9bb
000002a0: 76e6 edbd e647 52bd 0886 343e 2bce f03d
000002b0: 8e0d f23d 4095 cb3d dcfe b6bd e889 debb
000002c0: ff1b 70bc e5a4 c8bd c220 6d3e d56b 5abe
000002d0: bb1e 97bd f6d2 d9bc bc4b 613e 152e ccbd
000002e0: 859d 1e3e ab2a a83d b02f fabc 74cc dabc
000002f0: 2a57 d6bd 7fee 8c3d 8047 03bd 368e a3be
00000300: 584b 863b 3163 b63d 8469 16bc f276 733d
00000310: 615e 17bd 8722 813e 2a98 813d c652 fd3d
00000320: d313 78be 9e21 633d aa9c c4bd 2c8f b2bd
00000330: 2407 97bd d10c b63d b2fd 3abd 6463 db3d
00000340: 051b 3c3d 64bd 833c 2ed4 77ba 38aa cdbc
00000350: 8788 823c fe90 edbc 9b86 33be b820 c0bd
00000360: c1e6 7cbe 399d 333c 9d06 d23d 8b14 d3bd
00000370: 8469 15bc 0ea6 003e 5b9b bdbd d417 24be
00000380: a0bf 12be 818a 913d e8af 07be d567 1bbd
00000390: ede5 c7bd 1aff f9bd 8e02 e8bc e2f8 253d
000003a0: c56d f43c 6a5e 3a3e 68c8 90bd 9895 59be
000003b0: f1de 3abd d3e8 20be 7d78 5cbd c983 8e3c
000003c0: 0e03 00bd 67b5 633d ff7a fabd 822f 5539
000003d0: 0021 75bc 4a22 2dbe c478 1c3e 5371 3dbe
000003e0: fc6c e53a 05e2 b0bc 54fc 88bd 3e82 893c
000003f0: 953a dd3d 023d 8ebe bf8a c3bd a68b 1b3d
-0.0009508271 0.0681284 -0.10452683 -0.093464345 -0.18782309 -0.24877432 -0.04425157 0.10404155
-0.08099361 -0.034710925 -0.020761155 0.011220811 0.026906662 -0.017033717 -0.26862234 -0.0986351
0.05020762 0.076202966 -0.086098604 -0.055303834 0.04612862 0.10545937 -0.026136648 0.09503569
-0.020470306 0.013438404 0.11499559 -0.11781425 -0.106588274 -0.15577108 -0.31956533 0.170057
-0.082318895 -0.058462333 -0.08872742 -0.11894336 -0.14923552 0.03406867 -0.04113606 -0.037432443
-0.008829041 -0.027248511 -0.07753244 -0.16819772 0.005575963 0.06563704 0.20386901 0.20552565
-0.09810208 -0.03758544 -0.0031825984 -0.022057915 0.050404087 -0.008508476 0.013088674 -0.065209255
-0.06908601 -0.09846389 -0.14987238 -0.08939282 0.10131353 -0.06843411 -0.07522884 0.03836764
0.069719516 -0.01602962 -0.16823988 -0.15056156 0.069688275 0.17871737 0.089666195 0.07606596
0.10173461 0.4156433 0.11505629 0.080100395 -0.024970496 -0.08237166 0.011683059 -0.079451956
-0.11835829 0.112838656 0.09656578 -0.12668617 0.023770874 -0.021394443 -0.020899286 -0.058135178
0.048838682 -0.07522262 0.021677634 0.06632349 0.019553782 -0.02124699 -0.1256965 -0.08238459
0.06341307 0.026581297 -0.08697497 -0.1434102 0.021985106 -0.061286286 -0.12955584 -0.17081475
-0.17121561 0.1638035 -0.25595316 -0.12161319 0.061025634 0.035971902 -0.09455525 0.049449656
-0.15199211 -0.01914298 0.08703317 -0.14096735 0.047291983 -0.024190271 -0.10982523 0.030121163
-0.00871719 0.049909476 -0.03703927 -0.04221857 -0.12182473 -0.07527382 -0.03179192 -0.061863456
0.10977543 -0.13044107 -0.22570935 0.065540455 -0.046367705 -0.23027594 -0.14716838 0.11049001
-0.14446208 -0.12979868 -0.054760646 0.08555886 0.12030038 0.08065218 0.12057564 -0.009184859
-0.11408694 -0.060207866 0.086475044 -0.000823276 -0.06312495 -0.09732169 -0.11885332 -0.10718915
-0.048697986 0.029885994 0.018652147 -0.25056908 0.0792204 -0.099378794 -0.026849132 -0.051495075
-0.09751214 -0.17937513 0.0042372136 -0.10561101 -0.103742376 0.09754847 -0.069970764 -0.006643874
-0.116162226 -0.0513381 0.17629254 0.117580734 0.118189916 0.099405766 -0.08935329 -0.006791342
-0.014655112 -0.09797076 0.23157027 -0.21330197 -0.07378908 -0.026589852 0.22001547 -0.09969727
0.15489776 0.08211263 -0.030540317 -0.026708819 -0.10465844 0.06881427 -0.03205061 -0.31944436
0.004098337 0.08905638 -0.00918043 0.059439607 -0.03695524 0.25221655 0.06327851 0.123693034
-0.24226312 0.05545198 -0.09600194 -0.08718714 -0.07374409 0.08889163 -0.0456521 0.10712317
0.045924205 0.01608152 -0.00094539195 -0.02510558 0.015934242 -0.028999802 -0.17531817 -0.093812406
-0.246974 0.010962778 0.10255168 -0.10306653 -0.009119395 0.12563345 -0.09258147 -0.16024715
-0.14330912 0.07106496 -0.13250697 -0.03794082 -0.09760652 -0.1220686 -0.02832153 0.040520556
0.029837498 0.18200079 -0.070694745 -0.21248472 -0.04562277 -0.15713815 -0.053825844 0.017396824
-0.031252913 0.05559292 -0.12230491 0.00020330961 -0.014961481 -0.16907611 0.15280443 -0.18500261
0.0017503793 -0.02159215 -0.06688753 0.016785737 0.10802189 -0.2778092 -0.09547948 0.037974976

actor.0.bias f4 [64]
00000000: c2b2 95bd ec6a 233d 39fe e13d f9cd 64bd
00000010: 2792 93bd 44b0 9fbd acf9 b43d f47e 8fbc
00000020: 16bf 47bc 5303 b2bd 9610 f0bc 7b32 a3bd
00000030: 0fb4 0cbd 6d26 093d e163 42be ba52 a33d
00000040: 75f5 48be bcc2 43bd 995b e4bd 50ae 643d
00000050: cd4f 2cbd db0d dbbd 7e6a 12bc 41e5 26be
00000060: c458 5fbd 7cca 563e 5bed 2a3c e73a ce3d
00000070: 59a9 39bc 5ea4 4dbd 15cd 1ebd 474e bd3d
00000080: 4c95 5d3d 662e e03b 7d93 063e 40c9 d2bb
00000090: 98f3 0b3e cbcc 0a3e 59cc 81bd 5486 cdbd
000000a0: 1a68 fd3d bdba a83d d5b8 a73c ae9c d8bc
000000b0: 2283 7d3d 4974 0a3e c617 40bd 5580 713d
000000c0: ddbe 263e c1c6 303d a537 853d 42a2 08be
000000d0: 4011 103d 8145 f03d df4a 193e 9f53 91bd
000000e0: 9f95 9b3d 12cb 1a3c a5de edbd 393c 39bc
000000f0: b33b 103d 05b4 2cbd fd1b dfbc f5a2 7dbd
-0.07309486 0.03989689 0.11034817 -0.055860493 -0.07205611 -0.07797292 0.08836684 -0.01751659
-0.0121915545 -0.0869204 -0.029304784 -0.07968613 -0.034351405 0.03348391 -0.18983413 0.07974763
-0.19624884 -0.047793135 -0.11150283 0.0558303 -0.04206829 -0.10696002 -0.0089365225 -0.16298391
-0.054528013 0.20975679 0.0104325665 0.100698285 -0.0113318795 -0.05020558 -0.0387698 0.09243446
0.05409746 0.0068414686 0.131422 -0.0064326823 0.13667142 0.13554685 -0.06337804 -0.10035387
0.123733714 0.082387425 0.020473877 -0.026441898 0.061892636 0.13520922 -0.046897672 0.058960278
0.16283746 0.043158296 0.06504754 -0.13343146 0.0351727 0.11732007 0.14969967 -0.070960276
0.07596897 0.00944783 -0.11614732 -0.011305862 0.035213184 -0.042163868 -0.027235026 -0.061922986

actor.2.weight f4 [64, 64]
00000000: 3cf2 87bd c776 06be f70b 8b3d c877 9bbd
00000010: 64ba 51bc 4488 8b3d a60e 79bd 36c9 a7bd
00000020: 1ef5 21be 4590 903b 6def 9ebd bd4c 30bc
00000030: cf11 9d3c 3c97 60bd 9a94 ad3d 6fcb 5abd
00000040: 2055 4cbd 253b ccbd 7857 1b3d 2c6f c4bd
00000050: e840 d73c aa2b 79bd e95a 853d d0a3 aebd
00000060: fc38 7cbd fbcc 07bd ccbd bfbd f7c4 933b
00000070: cd0b 75bd 654e 843c b9c3 263d d6dd ca3c
00000080: 519e 56bd 7ed6 0b3d 9ef9 fcbd c010 ffbd
00000090: d2dd 84bd 2a15 fdbd 8f1e f0bd 957b 3d3c
000000a0: 9987 9b3d c0c9 80bd b0a4 6bbd 46f1 e0bd
000000b0: cbee 07bc e712 67bb 062c 00bd a334 973d
000000c0: cc72 02be 0c33 8cbd e2e0 a6bd 57d7 963d
000000d0: 995f 953d 1000 b13d 8184 833d f0c7 4a3d
000000e0: c974 eebd 1ca6 adbd 087a f53c 3dac 03be
000000f0: ca54 3d3d 0fa0 093d b493 743b b215 01be
00000100: b7f6 143e 53b4 073d fee0 e0bd 4784 163e
00000110: 7875 5d3d ee14 babd 77cc 503d 1b95 4abe
00000120: 075d 963d bea3 253e a0d3 ca3c 4943 5c3d
00000130: c059 40be 426f c0bd 3bba 16be bf6a c1bd
00000140: a862 ddbd 7558 bc3d 9bb3 713e a500 dabc
00000150: e853 3ebd f466 9a3d ba28 4f3d 8045 62ba
00000160: 238b 043e 55f4 16bd 58e3 4abd 8643 623d
00000170: e5c4 8a3b 6f3c 213d 70aa fcbd df5a 463d
00000180: 4429 e7bd 3485 cdbd 8f24 0abe 6ed3 ccbd
00000190: ebc8 1fbe 2dae c2bd 10be fd3d 4a1d 8b3c
000001a0: 2fed 08be e945 323c 52d6 5f3d 6c0b 7e3c
000001b0: 1089 15bc 01ff 03be 8f81 323d fe38 b0bd
000001c0: c7e7 08be 2d62 623c 6a34 68bd bc50 b63d
000001d0: 328f 503d 3b58 a0be 59f7 47be 2eca c3bc
000001e0: 7ced a73c bb52 3b3a 909b dbbc d86b 8d3c
000001f0: df5f 14be 274d 8d3b a0ea cb3d a546 1a3d
00000200: 86ea f3bd d04b 0d3b 9ae2 b9bd 5400 f93b
00000210: ffe8 9d3d 67da 333c c953 c9bd 1107 6dbd
00000220: 5ec2 47bc 4a25 ecbd 7ec4 8bbb c0a0 3abd
00000230: 9e37 9d3d 3cfc 1e3c 32bc 3c3d fd64 e0bc
00000240: 0548 073d fe5a 843d db31 ed3d bc7c 443d
00000250: 305c b2bd 58a2 11bc 7aac 9ebd de08 0d3d
00000260: fb50 cebd 97f6 9dbd c2a4 8e3d 6b6e d8bd
00000270: 26bf b13d 2cad c2bd 517a 873d 3c2e 1f3d
00000280: 2194 b9bd 4b5d 3a3d ab78 24be ca90 2ebe
00000290: d249 80bc 1961 a63d dd07 643d a33b 2abe
000002a0: d47e 683d 1ea1 1abd d94e b2bd 439f a0bc
000002b0: 0dbd c9bd 2a4f 0f3d 02be bb3d a9f1 04bd
000002c0: 065f 98bb 9066 963d c6da 87bd f346 79bc
000002d0: b5f1 06be 4754 26be 2a81 95bd c241 88bd
000002e0: 99a3 37bd 488a 98bc a4e8 cd3d 8afd a63d
000002f0: 7913 0abe f22d 353c 665a d1bd 46e3 f1bd
00000300: 0e72 d63d a350 e73d 57d5 7b3e f85d a23d
00000310: bb40 90bd 8bc3 fd3d 7657 adbd aa47 fa3c
00000320: 4476 f53d 6c5c d83d 0b42 29be 769b fcbd
00000330: c264 35be 9983 cd3c c6c9 fcbc 1d3f 9cbd
00000340: a8fb 58bd e4cd b13d dd29 293d 9256 a03d
00000350: a9bd ed3d c001 5ebc 824e 02be 3f5b 21bd
00000360: 6b1e 0cbe 9e24 943e 3f62 d4bb 5b33 97bc
00000370: c5c2 0dbd fb94 bfbd 94e9 6bbc 3587 f03c
00000380: 18e7 143e 464c 2bbd 7a71 303d 3991 0d3e
00000390: 92f9 debd 29f8 a5bb c46d 483d fc0f 2dbc
000003a0: e0a1 e5bd de1b d839 5330 8cbd 66d8 43be
000003b0: 9c9b 49bd 72f2 b4bc 968c c63c b3eb 913d
000003c0: cca5 3d3d 5fd7 a43c c227 b2bd 71cb b03c
000003d0: 001a 3fbd 624d 5bbe 8430 733d 8f67 afbd
000003e0: b05c cabd 5220 bc3d c5fd 94bd a633 ef3c
000003f0: 3593 ce3d 663f 6bbd 68fb fa3d 436a 25bb
-0.066379994 -0.13131247 0.067893915 -0.07591206 -0.012800787 0.068131 -0.060804985 -0.08192675
-0.15816161 0.0044117295 -0.077605106 -0.010760483 0.01917353 -0.05483173 0.08475609 -0.053416666
-0.04988587 -0.099722184 0.037925214 -0.09591517 0.026276067 -0.060832657 0.0651148 -0.085273385
-0.061577782 -0.03315447 -0.09362373 0.004509564 -0.059825707 0.016150663 0.040714 0.024763983
-0.052397076 0.034140103 -0.12352298 -0.12454367 -0.06487621 -0.12357552 -0.117245786 0.011565109
0.075942226 -0.06288481 -0.057530105 -0.10983519 -0.008296679 -0.003525907 -0.031291984 0.073830865
-0.12739104 -0.06845674 -0.08148362 0.073652916 0.072936244 0.0864259 0.064217575 0.04950708
-0.11643369 -0.084789485 0.029965416 -0.12858672 0.04622344 0.03359991 0.0037319483 -0.12605932
0.14547239 0.033130955 -0.10980414 0.14698897 0.054067105 -0.09086023 0.050976243 -0.19783442
0.07341962 0.16175744 0.024759114 0.053775106 -0.18784237 -0.09396221 -0.14719479 -0.09444188
-0.10809833 0.09196559 0.2360367 -0.026611635 -0.046466738 0.07539168 0.05057595 -0.0008631572
0.12943701 -0.036854107 -0.04953322 0.055240177 0.0042348974 0.039364275 -0.12337196 0.048426505
-0.11287168 -0.10035172 -0.13490508 -0.100012645 -0.15603988 -0.09505878 0.12389767 0.01698174
-0.13371728 0.010880926 0.05464775 0.015505653 -0.0091269165 -0.12890245 0.043580588 -0.086046204
-0.13369666 0.013817352 -0.05669061 0.089021176 0.05091781 -0.31317315 -0.1952795 -0.023900118
0.020498984 0.00071458117 -0.026807576 0.017263338 -0.14489697 0.004312176 0.099568605 0.037665028
-0.11909966 0.002156008 -0.09076424 0.007598916 0.07710456 0.010977364 -0.09830434 -0.057868067
-0.012192337 -0.1153055 -0.004265367 -0.04556346 0.07676624 0.009703692 0.046077915 -0.027391905
0.033027668 0.06462668 0.11581775 0.04797052 -0.087089896 -0.008888803 -0.07747741 0.034432285
-0.100740395 -0.07713049 0.06965019 -0.105679356 0.08679037 -0.09505686 0.06615127 0.038862452
-0.090614565 0.045499127 -0.16061656 -0.1704742 -0.0156602 0.08123989 0.05567156 -0.16624312
0.056761578 -0.03775131 -0.08706445 -0.019607192 -0.09850512 0.034987606 0.091671005 -0.032457028
-0.0046499996 0.07343781 -0.066335246 -0.0152146695 -0.13178141 -0.16243087 -0.07300027 -0.06653167
-0.044833753 -0.018620625 0.10054138 0.081538275 -0.1348399 0.0110583175 -0.1022232 -0.11810927
0.10470973 0.11294677 0.24593101 0.07928079 -0.07043596 0.123908125 -0.084639475 0.03055175
0.11985448 0.10564503 -0.165291 -0.12334339 -0.17714217 0.025087165 -0.030857932 -0.076292254
-0.052974373 0.08681849 0.04129969 0.07829012 0.116084404 -0.013550222 -0.12725261 -0.03939366
-0.13683479 0.28934187 -0.0064814384 -0.018457105 -0.034609575 -0.09354588 -0.014398951 0.029361347
0.1454128 -0.041820787 0.04307697 0.1382493 -0.108874455 -0.0050649834 0.048932806 -0.010562893
-0.11212516 0.00041219493 -0.068451546 -0.19125518 -0.049220666 -0.022088263 0.024236958 0.07125034
0.046300694 0.020122228 -0.086989895 0.021581383 -0.046655655 -0.21416238 0.05937244 -0.08564674
-0.0988096 0.09185852 -0.07274965 0.029199433 0.10086671 -0.05743351 0.12254983 -0.002524034

actor.2.bias f4 [64]
00000000: 928c bbbd c0f1 a5bc 93da 7b3b d4da 20bd
00000010: 9831 043e d2ab b43d aa91 0dbe 9e6b 1f3d
00000020: 2b6a a1bd 8802 a93d 087d bdbd 68bd 6b3e
00000030: 8ce3 febd add0 d1bd 3c1c 02bc ee33 ec38
00000040: 8084 64bd d342 cc3d fdff 35bd 4c5d 84bb
00000050: 0a6a cc3c db0b 89bc 29a2 ecbc 1117 083e
00000060: 7ac9 b43d 132c 493e ec80 753d a58d 94bd
00000070: f114 7bbd 2fe9 823d b1d4 973d 67fc 39bc
00000080: 0506 03be a3a0 953d fbf5 df3d 5aad 213c
00000090: aa49 13bb 3606 36bc e252 d73d cc48 7b3b
000000a0: 406e 5d3e 5e06 21be 8087 28bd 3039 b6bd
000000b0: 71d2 c13c 1fd4 b6bd 17d2 12be 8cd2 55bd
000000c0: 514e efbc 3177 c73d 52ee 363c ffad afbd
000000d0: 2ecf 5abd eb27 893c bec2 44bc 25e4 323d
000000e0: 0c56 66bd 481d a33d c157 4a3d 7575 963d
000000f0: 4c9b c7bd 6fdc 033e cf59 513d 6077 0e3d
-0.09157671 -0.020256877 0.003842984 -0.03927119 0.12909544 0.088218346 -0.13825098 0.03892099
-0.07881578 0.08252436 -0.092523634 0.23021472 -0.12445745 -0.1024488 -0.007941302 0.000112630296
-0.055790424 0.09973683 -0.044433583 -0.004039442 0.024952907 -0.016729286 -0.028885918 0.13290049
0.08827491 0.19645719 0.059937403 -0.07253579 -0.06129927 0.063921325 0.074136145 -0.011351681
-0.12795265 0.0730603 0.10935589 0.00986799 -0.0022474327 -0.011109879 0.105138555 0.003834295
0.21624088 -0.15725085 -0.041144848 -0.088976264 0.023659917 -0.08927178 -0.14337955 -0.052202746
-0.029212149 0.09739531 0.011165218 -0.08578109 -0.05342024 0.016742667 -0.012009321 0.043674607
-0.056234404 0.07964569 0.049400095 0.07346622 -0.097464174 0.12877057 0.05111104 0.034781814

actor.4.weight f4 [36, 64]
00000000: 619b 843c 1064 b63d 4ac5 8b3d aa7a 28bc
00000010: 15af 93be 7748 5ebe ff59 163d 4b34 103d
00000020: c908 dcbc dbda 063d e3b6 c3bd 2d54 7c3d
00000030: 9a75 3ebd 9b37 8cbd 46f7 8b3c 5763 063a
00000040: 5e07 88be 8229 f9bd 10ac 3cbe 4547 903d
00000050: 3f91 97bd 2ac5 d0bd 172a a6bc e89d df3c
00000060: db58 abbe 0c99 45be d717 a63d 5adf 27bc
00000070: 88da babd 9edf a9be a588 f73d e522 f3bd
00000080: 03a0 64bd 0f54 17be 0f1e dfbc 6e39 8fbb
00000090: 9174 6b3d 43c5 dc3a 1cb1 aabd 0b3a d33d
000000a0: 6efe 15be a020 583c 36e3 8fbd 93b9 8ebd
000000b0: 97da 1abe 0dc2 833c 25b3 debc 2ba4 1e3d
000000c0: b4e2 4f3d 048b 633d de24 84bd fae5 8cbe
000000d0: 5412 11bc b400 5dbe 15d5 4fbd 1a7c 4a3d
000000e0: 4449 c8bc 104d 7bbe ba85 9fbe e18c d7bd
000000f0: 8d1e a3be 7533 7cbd cfcc e93d 281e 5abe
00000100: b9ef b1bd 2221 7f3d 36e3 f53d 6823 093d
00000110: 71bb f73c 02cd df3d ce43 8d3d 9c31 2f3e
00000120: 9352 3dbc b317 753e b5be 5b3d 7408 af3e
00000130: 2098 283e ac21 90bd 05e3 053e 34ed 4b3d
00000140: c94f 0abe 62a5 2e3e 565e e2bc 3913 d43d
00000150: 274f 363e 1f11 f53d 83d4 c43d 188f 31be
00000160: 20c6 07be 1f07 283e d50c 2fbc aa80 0a3e
00000170: d725 993e 0abe 12be 7f0b 95bd e956 dfbd
00000180: be25 5ebd b409 07be 4333 9f3e 8caa 29be
00000190: 5474 1c3e 6238 1d3e 6cad 693e ae04 cfbd
000001a0: 7bb4 7a3e 76e8 643d 332d 92bb d094 623d
000001b0: cce8 0a3e 589a 563d 3584 243d ec48 5f3d
000001c0: aa98 133d 2b54 643e acde 3a3c 64a2 50be
000001d0: e35b 5a3e fd03 143e 0da3 ef3d 6e0d 383d
000001e0: 67f2 f73c 4fa3 8bbd 9836 22be 1f0d 863e
000001f0: 5512 613d a1b4 663e cbc3 853e 140e 2d3d
00000200: 0da1 e03d 671a 683d e5c8 2d3e f60b 0f3e
00000210: 3567 36be 43c5 d13d 2d40 133d 751e 90bd
00000220: 448c 323d 8e7e 103d d242 533d 2bf1 a83d
00000230: 6ae9 3c3e fc31 83bc 8d86 ee3d 3827 5ebd
00000240: 23c3 cdbd bcd5 403e 00f5 7bbb dd9e 093e
00000250: cd1d 8e3e 8a08 8e3d b718 da3d 4275 b43d
00000260: 2297 9ebe 1395 84bc 41ae b23b 909f 083e
00000270: b7d9 0d3e 2ab1 ba3d 9b58 a73e 98a2 80bd
00000280: cba5 c83d 59e4 4f3d c18f a23e 12cc d03d
00000290: c8f8 b03d a7b0 993d 682d 8b3d 1318 4f3e
000002a0: fe6c 5c3e ea01 833d 804f 5d3c 9af1 793c
000002b0: d2ec b8bd ac78 de3c ffc6 1a3e cf68 903d
000002c0: be6b 173e 4e9d 3f3e 03ba 87bd ec73 dcbc
000002d0: d713 413e 0666 dbbb 7eb3 a33d e626 6d3e
000002e0: 00f6 57bd 64da 3ebe d5ed 54be 440a 273c
000002f0: 7d35 41be 430b 153e edeb 893d 5c3f 69be
00000300: 8634 dd3d b60d 5c3d a93c eebc 4343 8d3d
00000310: afe7 453d 82ec 4b3d 8177 b13d 63ec b93d
00000320: acd1 acbd c4b3 0c3e 42a1 af3d bb4e 0dbd
00000330: 177d 3b3e 332a f5bc 8137 9a3d 8256 ba3d
00000340: 0b4b 14be c3a6 c63d 81c6 a2bd 2f5f 84bd
00000350: 3e54 0bbe d142 803d d5d8 cb3b ae1c 193d
00000360: e68d 6a3d 3097 59bd 7060 e2bc 87e2 f43c
00000370: 4f85 953d c5e8 fb3d dd4c 6f3e ffc0 583d
00000380: fc03 343e 4dea 803e 39f4 893d e31e a13c
00000390: fe26 11bd f874 b23d c49a 943c d5ad b4bc
000003a0: 4cbc bb3c 4b63 e83d 1dfd 023e aeee 7cbd
000003b0: af83 72bd 939d 1e3d 7a3d ce3d 515e a5bd
000003c0: 79e1 9cbd c3b8 203e e837 6fbb cc70 aabd
000003d0: 8222 523e 241d 033c 3c4f 433a 49a3 db3d
000003e0: 95c4 ee3d 7c08 a9bd 4389 14bb f524 3f3d
000003f0: 83a0 15be 14ed 203e e0c7 f83b 992f 72bd
0.016187372 0.08905804 0.06824739 -0.010283152 -0.28844514 -0.2170733 0.03670692 0.03520612
-0.026859658 0.03292356 -0.09556367 0.061603714 -0.046498872 -0.068465434 0.017085683 0.0005126497
-0.2656812 -0.1216612 -0.18425012 0.070448436 -0.0740075 -0.10193856 -0.020283742 0.027296975
-0.3346623 -0.19296664 0.08110016 -0.010246122 -0.09123713 -0.3317842 0.1208661 -0.1187189
-0.05581666 -0.1477816 -0.027236013 -0.00437086 0.057484213 0.0016843457 -0.08334562 0.10313805
-0.14647838 0.013191372 -0.07025759 -0.06968989 -0.15122448 0.016083742 -0.027185032 0.03873078
0.05075331 0.055552498 -0.06452344 -0.27519208 -0.008854467 -0.215823 -0.05074032 0.04943476
-0.024448998 -0.24541116 -0.31156713 -0.105249174 -0.31859246 -0.06157251 0.11416017 -0.21300566
-0.086883016 0.062287457 0.12006228 0.03348103 0.030240746 0.10927774 0.06897698 0.17108768
-0.011555332 0.23934822 0.05364867 0.34186137 0.16464281 -0.070376724 0.13074882 0.04978676
-0.13506998 0.17055276 -0.027632874 0.10355229 0.17803632 0.11966156 0.09610846 -0.17339742
-0.13259172 0.16408966 -0.010684212 0.13525644 0.29911682 -0.14330307 -0.07277583 -0.10905249
-0.054235213 -0.13187295 0.31093797 -0.16568965 0.1527875 0.1535354 0.22820061 -0.101083145
0.2448291 0.055885755 -0.0044609546 0.0553177 0.13565367 0.052393287 0.040165145 0.054512903
0.036034264 0.22297733 0.011405628 -0.20374447 0.21324115 0.14454646 0.11701021 0.044934683
0.030266954 -0.06818258 -0.15841138 0.26181886 0.054949123 0.22529842 0.2612594 0.042249754
0.10968218 0.056665804 0.16971166 0.13969406 -0.17812808 0.10242703 0.035949875 -0.07037059
0.0435908 0.035276942 0.051577397 0.08249124 0.18448415 -0.016015045 0.11646757 -0.05423662
-0.10046985 0.18831533 -0.0038445592 0.13439508 0.2775711 0.069352224 0.10649245 0.08811428
-0.3097468 -0.016184365 0.0054529016 0.13342118 0.13852583 0.091158226 0.32684788 -0.06281012
0.097972475 0.05075488 0.317503 0.10195173 0.08641201 0.07504397 0.0679577 0.20224027
0.21525952 0.063968495 0.013507724 0.015255356 -0.09029545 0.02715715 0.15114973 0.07051241
0.14787194 0.1871235 -0.06627276 -0.026910745 0.18855225 -0.0066955118 0.0799322 0.2315937
-0.05272484 -0.18637997 -0.2079385 0.010195319 -0.1886806 0.14555077 0.067344524 -0.22778076
0.10801034 0.053724013 -0.02908166 0.06897595 0.048316654 0.0497861 0.08665372 0.0907829
-0.08438429 0.1374045 0.08575679 -0.03449891 0.18309437 -0.029927349 0.07530118 0.09098531
-0.14481752 0.09699776 -0.07948018 -0.06463467 -0.13606355 0.06262744 0.0062209168 0.037380867
0.05726423 -0.0531227 -0.027633876 0.029893173 0.07300817 0.12300257 0.23369165 0.05291843
0.17579645 0.25178757 0.06736035 0.019668048 -0.035437576 0.08713716 0.018140204 -0.022055546
0.022916935 0.11347064 0.12791868 -0.06175106 -0.059207615 0.038724493 0.100703195 -0.0807463
-0.07660193 0.15695481 -0.0036501829 -0.083222955 0.20520976 0.008002553 0.00074504665 0.107245035
0.11658589 -0.082535714 -0.0022664822 0.046666104 -0.14612012 0.15715438 0.0075921863 -0.059127424

actor.4.bias f4 [36]
00000000: 7b0b 4abe 81a0 3b3e 99e8 a33d a9ce 183c
00000010: 6504 fd3d f402 67bd f8b5 143d 0586 753d
00000020: cc05 1ebd 4263 02be d572 a4be 12a9 cb3d
00000030: 8dfa eabd baaa 053e c6fe c03d df6e c23c
00000040: bf7c 763d 61de dabd be59 60bb 1e98 de3d
00000050: c8f1 83bd 1b4e afbd fada 24bd e324 23be
00000060: 46fa 583d f16f d9bc d73d 0e3e 6ff5 71bd
00000070: cd0d 6e3c 0cb6 0a3e f5f4 18bb 7fbb 783d
00000080: 0056 f4bd 0e75 6c3e 5819 b8bc 7532 7d3e
-0.19730942 0.18322946 0.08003349 0.009326615 0.12354354 -0.0563993 0.03630635 0.059942264
-0.038579747 -0.12733176 -0.3211886 0.09944357 -0.1147357 0.13053408 0.09423594 0.023734508
0.06017756 -0.10686947 -0.0034233178 0.10868858 -0.064426005 -0.08559819 -0.040247895 -0.1593204
0.052973054 -0.026542636 0.13890778 -0.059071954 0.014529658 0.13546008 -0.0023339365 0.060725685
-0.11930466 0.23091528 -0.022473022 0.24726279

critic.0.weight f4 [64, 62]
00000000: c860 9c3d 6a19 ab3d 31d8 abbd 6c5b 1b3c
00000010: ec7a 713c 5fdc 49bd aff1 22bc fb93 753d
00000020: e8d4 ddbd c4b5 5cbd 0a32 b1bc ebf5 62bd
00000030: 2ce2 eabd a5c9 f3bd 0f01 12be bab2 febd
00000040: fe10 09bc ab20 ddbd 13fe f7bd c876 b63d
00000050: 0c4a bbbd 7c17 b63d d610 103c 3e3c 98bc
00000060: ef3e c93d 2717 cbbd c034 793d b399 ad3d
00000070: d117 cc3d 6f23 5cbe 8172 953c 78de 3ebd
00000080: f2fb c0bd 9aa3 b13d 5232 b7bc 73eb af3d
00000090: 160d 8cbd 74b4 66bd 4bcf ea3d f7cf 27ba
000000a0: be09 da3d 1814 8d3d fc22 173e e5b2 28bd
000000b0: 3d6a 573e ca3a 8d3e 60a9 e13b 166a be3a
000000c0: 23b6 c73d 5f64 02be 52fd 96bd 84ad dabd
000000d0: 12b7 003d c7c1 273d f24e 53bd 9590 ec3c
000000e0: bace db3b 8a36 303d 6610 6bbd 3c5a 87bd
000000f0: 45a0 aebd e50e d5bd dd19 e7bd ccbf 833d
00000100: 2839 8dbc 1325 4dbd 875c aabd b608 7b3e
00000110: d7be 843c f032 463d d4bc a2bd 82bf 74be
00000120: c36c b03c d6cb 4b3e 6ab8 72be e5f1 2cbd
00000130: df60 e13d cefd ff3d a3f5 d43d fb2e df3d
00000140: bf91 8b3d 4504 dfbb 5d60 05bd 7659 f8bd
00000150: e2da 883d 00cd ebbc a810 a33c edf3 eabc
00000160: 15fc a73d bd3a 843b 50c1 053e fcbb 883d
00000170: af23 db3d 3b85 383e 73dd 703d 5f54 99bd
00000180: b5e9 b63d e77b c93d 0181 733c edd7 2fbd
00000190: 8412 593e b667 873e f11b c7bd 672d abbc
000001a0: e0f5 da3c 0e39 11be f91e 8dbd 8539 c4bd
000001b0: aed1 d3bd ebe0 033d dc0f 1f3e 4e13 87bd
000001c0: caa5 ec3d d47b c13d b01b 3fbd d5bb d5bc
000001d0: f555 f6bd 7fbd 0abe 1c54 f23d 8e46 483d
000001e0: e25c 00bd 05a6 113d 93c9 23bd 29f2 403e
000001f0: 1a4f d7bd 1423 a33d 1f64 d73d 2324 473d
00000200: 752e 02be 53f4 acbc 93b5 0bbe 8dd5 cabd
00000210: bb8d 3d3d 45bd 57ba 6869 1a3e 69cc c63d
00000220: 7f55 5ebd 9b4c a8bc fe0f 01be 72ca 11be
00000230: 011f a3bc 0aa1 99bd de74 f23d 9b83 d3bd
00000240: 2bc6 f23d 77ec afbc ce58 bc3c 047c e23d
00000250: c3b2 70bd adbd 40bd c437 573d c2ca 03bd
00000260: b768 0abc b60b 863d 3234 96bc cff6 993d
00000270: a6e6 63bd c67e 533d fd69 493c 220e c8bd
00000280: 0727 4fbd fad5 62bb 5c2a 4bbe 270c 053e
00000290: da6b eabd e0b0 373d 6db1 603c 4dfa 93bd
000002a0: 8958 b73c 0070 afbd bee5 94bd 84ca 7ebd
000002b0: 5773 3cbe 93b1 8a3c c1bc 04be 2f8b 2c3d
000002c0: de67 773d dc6f 2f3d 08f2 183c 2985 9dbc
000002d0: 25f2 5cbe b5a2 e9bb ab13 5dbd 6fb5 863d
000002e0: e81a ef3c 9238 b8bc 5d8e ebbd c211 efbd
000002f0: 8dab d9bd 5cf5 b53d 9c82 5fbe 3da2 88be
00000300: 7cb7 29be 6171 893e eaa0 2dbd 69d8 28be
00000310: 7149 b7bd 094f ac3d 090f cb3d ba7c 533e
00000320: a8fd 223b a342 693d 915f 1bbd 4b6d a1bd
00000330: 82c9 abbd 4523 b83d daa5 ac3c 59b8 2a3d
00000340: d503 bdbd b2e2 c03c 8db4 e73d 4d75 8e3d
00000350: 4c09 b6bb 3779 6fbd 88da 843e 34e9 d6bd
00000360: b266 8bbd fa55 b23d 0b87 13bd a704 a4bb
00000370: 5bdd f4bc 8e49 9abd 1589 62bc f59a 023d
00000380: 5de5 55be 9079 043e 64d8 3ebd aac7 00be
00000390: a12c fbbb 1c0f 92bd 513e 51be a027 77be
000003a0: befc 34bc f326 913d 26c2 08be 5762 83be
000003b0: 1ba6 353e f0ca 3b3d bd15 b73d fc9a 1abd
000003c0: 8f13 38be 8182 ebbc 265c 86bc 1347 a0bc
000003d0: e66a 99bd 6d8f 97bd 9523 28bb 455f 8a3d
000003e0: 3ef8 8b3d 0179 b83d d02e eabd c831 a8bd
000003f0: f9b9 2e3c 755c bbbd d932 d13d 6cdb 8d3d
0.07635647 0.08354457 -0.083908446 0.009482246 0.0147387795 -0.049282428 -0.009945317 0.05995558
-0.10831624 -0.053884283 -0.021630306 -0.055410307 -0.1146892 -0.11903695 -0.14258216 -0.12436433
-0.008365868 -0.107972465 -0.12109008 0.089093745 -0.09144983 0.08891198 0.0087930765 -0.018583413
0.09826457 -0.09916525 0.060841322 0.084765814 0.0996548 -0.21497892 0.018243076 -0.04659888
-0.09423055 0.08673783 -0.022362862 0.0858983 -0.068384334 -0.056324437 0.11465319 -0.00064015336
0.106463894 0.06888598 0.14759439 -0.041186232 0.2103662 0.27583915 0.006886646 0.0014527466
0.09751537 -0.12733601 -0.07372536 -0.10677627 0.03142459 0.040956285 -0.05158896 0.028877536
0.0067079933 0.043020763 -0.057388686 -0.06609008 -0.08526663 -0.104032315 -0.1128423 0.06433067
-0.017239168 -0.050084185 -0.083184294 0.24515042 0.01620428 0.04838842 -0.07946172 -0.2390118
0.021536237 0.19901976 -0.23703161 -0.042222876 0.11004805 0.12499581 0.10398414 0.10897633
0.06814908 -0.006805929 -0.032562602 -0.12126438 0.066823736 -0.028784275 0.019905403 -0.028680766
0.08202378 0.0040353225 0.13062024 0.0667648 0.107001655 0.18019573 0.05880494 -0.07486796
0.08931295 0.098380856 0.0148623 -0.042930532 0.2119847 0.26446313 -0.09722126 -0.020895673
0.02672857 -0.14181921 -0.06890673 -0.095812835 -0.103427276 0.03219692 0.15533394 -0.06595479
0.11555059 0.094474465 -0.046657264 -0.026090542 -0.12028114 -0.1354885 0.11832449 0.04889541
-0.03133858 0.03555872 -0.039987158 0.18842377 -0.10513134 0.07965675 0.105171435 0.048618447
-0.12713034 -0.021112597 -0.13643484 -0.09904013 0.046277743 -0.00082298025 0.15079272 0.09706957
-0.054280754 -0.02054434 -0.12603757 -0.14237383 -0.019912245 -0.07501419 0.11838697 -0.10327836
0.11854204 -0.02147506 0.022991564 0.1105881 -0.05876423 -0.04705589 0.052543417 -0.032175787
-0.0084478175 0.065452024 -0.018335436 0.07517778 -0.055639885 0.051634572 0.012293336 -0.097683206
-0.05057433 -0.0034612403 -0.19840378 0.12992917 -0.11446352 0.044846416 0.013714177 -0.072254755
0.022381084 -0.08566284 -0.07270382 -0.062204853 -0.18403374 0.016930377 -0.12962629 0.042124923
0.06040179 0.042831287 0.0093350485 -0.019228535 -0.21576746 -0.007129992 -0.053973835 0.065775745
0.029187635 -0.022487912 -0.11501763 -0.11673309 -0.10628424 0.08884689 -0.21827167 -0.26686278
-0.165739 0.26844314 -0.042389788 -0.16488804 -0.08949555 0.08413512 0.09914977 0.20653048
0.002487043 0.056948315 -0.037932936 -0.07882174 -0.08388044 0.08991102 0.021075178 0.041679714
-0.092292465 0.023545597 0.11313734 0.06955967 -0.0055553075 -0.05846521 0.25947976 -0.10493699
-0.06806697 0.08707805 -0.03601746 -0.0050054374 -0.029890707 -0.07533561 -0.013826628 0.03188606
-0.20888276 0.12936997 -0.046593085 -0.12576166 -0.0076652323 -0.07131788 -0.20433928 -0.2413621
-0.011046587 0.07087507 -0.13355312 -0.25660965 0.17739145 0.045847833 0.08939693 -0.03774546
-0.17976211 -0.028748753 -0.016401362 -0.01956514 -0.074910924 -0.07400403 -0.0025655974 0.067564525
0.06834458 0.09007455 -0.1143471 -0.0821262 0.0106644565 -0.09148494 0.102147765 0.06926617

critic.0.bias f4 [64]
00000000: 6f4b 1dbe 9922 513d bc7b 13be 0bb5 9cbd
00000010: a3de f8bd 075b 98bd 11f1 e7bc 81a7 3cbe
00000020: 9727 41be d414 4abd 7e39 723c 0396 653c
00000030: c651 febd b7d3 463c 7b6d 80bd 049a 3e3d
00000040: 53ac e7bd fd86 a93d 1ae3 b4bd cfd1 9a3d
00000050: 2a02 07be 821c f5bd f392 b83b bc0f c2bd
00000060: dde1 e83d b3ed 0fbe 465d abbd c14d 2f3d
00000070: 6777 d93c c299 083d 9a7c 37bb c09e 8fbd
00000080: f98a bdbd 1254 0bbe bef7 64bd ab3c 253e
00000090: 36f1 b73c 7f63 cb3d be63 25bd 5a15 713d
000000a0: 611b ddbd b00d 95bd 35d9 3dbe 9701 55bd
000000b0: 146f 20be d2b0 d8bd 996d e03d 229f 153c
000000c0: bd5f e93c 0f44 e2bc d027 8d3c 4fbb 823b
000000d0: 9233 2fbd 9f30 ddbc 7721 10be 4623 7abe
000000e0: f44e 6e3d 466c 35bd a3fb 01be 182d b8bd
000000f0: 411d a23d fce1 2bbe cbd9 e8bd 69a1 9cbd
-0.15360807 0.051058386 -0.1440267 -0.07651719 -0.121518396 -0.07439237 -0.028313192 -0.18423273
-0.18862759 -0.04933627 0.014784215 0.014012816 -0.12417941 0.012135438 -0.06270882 0.0465336
-0.11312165 0.082777 -0.08832379 0.07559549 -0.1318442 -0.11968328 0.005632752 -0.09475657
0.11371205 -0.14055519 -0.083674 0.04279876 0.026546193 0.03334976 -0.0027997852 -0.07012701
-0.092550226 -0.13606289 -0.055900328 0.16136424 0.022453886 0.09931087 -0.040378325 0.058858253
-0.10796238 -0.07278001 -0.18539889 -0.05200347 -0.15667373 -0.10580601 0.10958404 0.0091321785
0.028488034 -0.027620343 0.017230898 0.003989614 -0.04277379 -0.027000723 -0.14075266 -0.24427518
0.058180764 -0.04429271 -0.12693648 -0.08992976 0.07915736 -0.16785425 -0.11369666 -0.07647974

critic.2.weight f4 [64, 64]
00000000: 0f2e a0bd 3c14 7c3e 8879 193d 9a68 7c3d
00000010: 15d8 03bd 94a4 b83a 3615 5dbb e295 ed3d
00000020: 6e40 9abd aac7 98bd 6f88 5f3d 56c5 9d3e
00000030: f3e1 bdbc a5f4 483e b228 323d 1089 2b3e
00000040: da60 8f3d 1d59 903e 6d8e d93b 1dd4 063e
00000050: 45a0 6fbb cb77 43bd 84bd 363d c3ee c83d
00000060: d7f1 59be fd28 c03c 2f8d 8a3d 91d1 0a3e
00000070: 4fcf 8abd 76ab 763e b0f0 7abd 538a c83d
00000080: 810d 843d 9dc5 07bd cf34 c33b d1f1 4b3e
00000090: c765 56be 0169 5f3e e5b9 f73d a772 01be
000000a0: 5912 303d 2273 1a3e 9814 fa3c 9bd0 3cbe
000000b0: f636 3cbd 9d51 f5bd b257 ac3d 3a83 ec3b
000000c0: 0c81 3d3e 301a 053d 2566 72bd 43e1 493e
000000d0: a123 1cbc 7354 e73d cf9e f6bd 6a95 19bd
000000e0: 4cb4 893e a9e8 1bbc a3a1 583d 9158 6ebd
000000f0: 9216 72bc c460 a3bd 8a98 4f3e d40f 9c3d
00000100: e049 6dbc 8b92 1e3b b5da 91bc 33f5 cebc
00000110: 6ac2 b3bd 1667 91bd 05ff a7bd 8c04 d23d
00000120: d942 5dbd 652c c7bd a0bc d4bd 0733 fcbd
00000130: cbc0 39bd 738d 88bd 9f4e d7bd a5f1 72bd
00000140: 2c15 a93d 3c9b e3bd 5a7d f6bc 495c 9e3d
00000150: c7e7 8a3d f2fc 5c3c b260 0d3d e3f9 6bbd
00000160: 49db e7bd 4e0c b7bd 0c67 b6bd b696 863d
00000170: f4da 52bc 3cae 0bbe aa71 0cbe 7cfb d6bc
00000180: 741a 903d f6e5 afba 899e f23b 9f57 19bd
00000190: bc80 1dbd dd7a 623d 25d7 d33c 9505 02bd
000001a0: 50cf ff3d 1e0f 963d f350 f33c 96f0 fe3c
000001b0: 8553 883d e364 00bd 95ce 48bc 6b18 53bd
000001c0: b5ac 7bbd 8077 4abc ab7d c8bd a0a9 903d
000001d0: e3f4 cebd 9485 cebd 1a65 fbbc 1940 883d
000001e0: e466 9bbd e48c 00bd 8faa 663d d8d5 e7bd
000001f0: 1d05 d83d cfcc 613d 8496 7d3c 8e5f 653b
00000200: c733 d83c 40ba e2bd 08f1 caba 9759 923d
00000210: 2af5 f5bd 5f81 173d c0a2 2b3d 6257 963c
00000220: 374d 04be 25d3 be3c d55d fd3b ad61 f4bd
00000230: da5d cdbd 1832 8bbd 77ed 7d3d c679 78bc
00000240: 42a9 bebd 0735 d33a 7a12 453a 83ed 61bd
00000250: eb34 533d 04d1 7d3d efbf 0c3e e12b c63d
00000260: 741b 94bd c9ff ba3d 8c03 803a 0a0c 00be
00000270: 7239 7b3d 075f 24be 9279 6e3d af2e bdbd
00000280: b2c4 c5bd 9d84 e9bc 4275 233d b120 07be
00000290: 2ed6 d23c 51e1 2bbc 0d33 923d d6f2 82bd
000002a0: 635f 843d e0ae b3bc 2337 0d3c 3596 5abc
000002b0: 4652 0c3d 1124 38be 98b7 85bd 3f24 973d
000002c0: 7d07 943d 2fcb 8eb9 6049 2abd fca9 99bd
000002d0: e8e2 993d ea55 1cbe 1290 753b 8341 483d
000002e0: efa0 b7bc e62b a8bc 5292 2abe a2ea 9dbd
000002f0: 52bd efbd efe9 abbd e852 583d 3297 12be
00000300: 8d4a 1f3d 3102 4a3c 266f 99bd 92f2 353d
00000310: a662 243c e131 3cbd b2f5 683d c771 2e3c
00000320: 1e17 f7bd c951 e6bd 4d4a 9b3d 6d92 2cbd
00000330: 24ae b03d 2f29 46be e682 e33d 8909 e13d
00000340: fdf7 263d b373 1ebd bdd4 5fbd 792d 913d
00000350: ab0b 8a3d b69a b33d 8afe d6bd e8e2 9cbc
00000360: a3b4 efbd 999e 53bd d568 c73d ab0f 313d
00000370: cba5 f13c 3589 24bc 3a79 713d d0c1 91bd
00000380: 7442 7ebd ad7c e63d b047 82bd 804f 2abe
00000390: 2620 523d 881e b2bc 9e79 06bd 5129 1ebd
000003a0: 3deb 1cbe 7827 863d cd8f a8bd 0aaf b03d
000003b0: 974f fbbd e6f4 063e 6e4c a8bd 5c4b ed3c
000003c0: 7e1c 65bd ce14 5b3d 6014 24bd e64e 013d
000003d0: 5e77 ad3d 5c38 19bd abe7 c3bd 3ea3 d73d
000003e0: 193d c73d 0eee cc3d f450 af3b cf9e 08be
000003f0: aaa1 ccbd 3edf 73bd 4033 723e 753b c43d
-0.07821285 0.24617094 0.037469417 0.061623193 -0.032188494 0.0014087134 -0.0033734567 0.116008535
-0.0753182 -0.07459958 0.054573473 0.30814618 -0.02317903 0.19624574 0.04349584 0.16751504
0.07000895 0.28192988 0.006639293 0.13166852 -0.0036564034 -0.047721665 0.04461433 0.09811165
-0.21283661 0.023457045 0.0676521 0.13556506 -0.06777822 0.24088845 -0.061264694 0.09792008
0.06447888 -0.033147443 0.005957223 0.19916464 -0.20937262 0.218174 0.120960034 -0.12641393
0.042986248 0.15082982 0.030527398 -0.18438952 -0.045950852 -0.11978457 0.08415164 0.007217792
0.18506259 0.032495677 -0.059179444 0.19714837 -0.009529979 0.11295404 -0.12042009 -0.037496008
0.26895368 -0.00951592 0.052888524 -0.058189932 -0.014775889 -0.07977441 0.20273033 0.076202065
-0.014482945 0.0024196233 -0.017804483 -0.025263404 -0.08777316 -0.0709974 -0.08202938 0.102547735
-0.05401883 -0.097252645 -0.1038754 -0.1231442 -0.045349877 -0.06667604 -0.10513043 -0.05931248
0.08255991 -0.11113593 -0.03008907 0.07732446 0.06782489 0.013488041 0.034516044 -0.057611357
-0.11321122 -0.08937894 -0.089063734 0.065717146 -0.012869585 -0.13640684 -0.13715234 -0.026242964
0.070362955 -0.0013419974 0.007404153 -0.037437078 -0.03845285 0.055292953 0.025859425 -0.031743605
0.124907136 0.07327102 0.029701686 0.03112058 0.06656555 -0.031346213 -0.012256284 -0.05153696
-0.061444003 -0.012357593 -0.09789594 0.070636034 -0.10105302 -0.10084072 -0.030687857 0.06652851
-0.07587984 -0.031384364 0.056315 -0.11320084 0.1054785 0.05512696 0.01547778 0.0034999582
0.026391877 -0.110706806 -0.001548321 0.07145994 -0.12009652 0.036988612 0.041903257 0.018352214
-0.1292008 0.023294041 0.007732133 -0.11932693 -0.100276664 -0.06796664 0.061994042 -0.015165752
-0.09309627 0.0016113826 0.0007517707 -0.05515815 0.05156414 0.06196691 0.13745092 0.09676338
-0.07231799 0.091308184 0.0009766682 -0.12504593 0.06133408 -0.16051875 0.058221407 -0.0923742
-0.09656657 -0.028505618 0.039906748 -0.13196065 0.025736894 -0.010490731 0.071386434 -0.063939735
0.06463506 -0.021933973 0.008619103 -0.013341476 0.03425815 -0.17982508 -0.06529158 0.0737996
0.07227991 -0.00027235734 -0.041573882 -0.07503125 0.07513982 -0.15267149 0.0037469906 0.0488906
-0.022415606 -0.020528745 -0.1665738 -0.07710768 -0.11706032 -0.08394229 0.05281344 -0.14315489
0.038889457 0.012329624 -0.07491903 0.044420786 0.010033285 -0.045946006 0.05687494 0.010647244
-0.12064956 -0.11246068 0.07582531 -0.04213183 0.08626965 -0.19351648 0.11108951 0.10988147
0.040763844 -0.038684558 -0.054646242 0.07088751 0.06740507 0.08769743 -0.10497768 -0.019151166
-0.117043756 -0.051664922 0.09736792 0.043227833 0.029498002 -0.010042478 0.0589535 -0.07117045
-0.062075093 0.11254249 -0.063613296 -0.1663189 0.05130019 -0.021743074 -0.032830827 -0.03861362
-0.15324111 0.06550497 -0.08230553 0.08627136 -0.1227104 0.13179359 -0.08217703 0.028966598
-0.055935375 0.053486638 -0.040058494 0.031569384 0.08470033 -0.037407264 -0.095656715 0.10529183
0.0972845 0.10006343 0.0053502265 -0.1334183 -0.099917725 -0.059539072 0.23652363 0.09581653

critic.2.bias f4 [64]
00000000: 2169 df3d 24bc a4bd 1fc2 5fbd dac6 b8bb
00000010: 2f90 19bd d91b d6bd 943e 76bc 5ac0 f7bd
00000020: e923 fdbd c103 c0bc 69f8 033c 13ca 4f3d
00000030: 9588 f0bc 94b3 1c3e cb07 63bd 76a6 12bd
00000040: 518a a1bd 34ee eebd bc48 ec3b 5445 9abc
00000050: 1de7 323d 0099 7f37 f3c2 e8bd c405 1bbc
00000060: ffb7 61bc 5c14 25be be33 40bd 901c 98bd
00000070: 7501 15bd e88d 483d 4687 93bd 9991 82bd
00000080: 46f9 6bbd 479d dcbd db4b 0b3e 35de df3b
00000090: 025c 43bd 5ec1 2dbd f541 963c 5659 80bd
000000a0: ce34 c63c 8eec bbbd 096a 28bd f297 3cbc
000000b0: b1ad f1bd befa 3d3c c139 f3bd 7adb 2dbd
000000c0: 98c6 93bd 0b3b 5db9 a383 263d 421d b6bd
000000d0: 0714 afbd 2429 c8bd d8a8 cfbc 5d47 913d
000000e0: aa8f 023e 2d0f 2bbc 0c88 4abd fa31 70bd
000000f0: 8e76 01be 7758 86bc deec cabd c8c6 03be
0.109087236 -0.080436975 -0.054628488 -0.0056389393 -0.03749102 -0.1045453 -0.015029568 -0.12097235
-0.12360365 -0.02343929 0.008054831 0.050729822 -0.029362002 0.15302879 -0.055427354 -0.03580328
-0.0788771 -0.116665274 0.007210819 -0.018831886 0.043677438 1.52348075e-05 -0.113653086 -0.009461824
-0.013776778 -0.16121048 -0.046924345 -0.07427323 -0.036378343 0.048963457 -0.07203536 -0.06375427
-0.057610773 -0.10772186 0.13603155 0.006831909 -0.047695167 -0.042420737 0.018341998 -0.062670395
0.024195101 -0.091759786 -0.041116748 -0.011510836 -0.11800707 0.011595426 -0.1187625 -0.042445637
-0.07215613 -0.00021098198 0.040652882 -0.08892299 -0.08548742 -0.09773472 -0.025349066 0.070936896
0.12750116 -0.01044063 -0.04944615 -0.05864141 -0.12642881 -0.016399605 -0.0990846 -0.12868798

critic.4.weight f4 [1, 64]
00000000: 53e4 27be 6289 ac3c 258c 273d 9ebd abbc
00000010: 3cbe 10be 9538 9ebc c0a7 2d3d a5ef ae3d
00000020: ece3 113d 271b ccbc 3d8b 38bc ee4a 923c
00000030: 3cec 053b 3725 a03d 26db 01bd da7e 69bb
00000040: 8bcc 83bb 0f44 26bc e684 003d c553 17bb
00000050: 4639 fc3b 3a80 2f3b 9eab 6cbd 4372 073e
00000060: 9e63 ccba 4d15 b0bb 941b 863d cbdc b9bd
00000070: c8aa f43b b716 653c a5f1 c0bb ca06 323d
00000080: 681b 123d 87dd 903d d2c9 01bb c08a 1fbd
00000090: 43d0 dcbb bbfc 37be 8a95 1ebe 6b67 a73d
000000a0: ec78 d63b 7e18 e93d a99e 173e 27b7 20bd
000000b0: 4fcf ddbb 31ab eebb 405a 43bb 896f 113d
000000c0: 542d 01bc 3b0c 49bb 1a17 d5bd 5836 f63d
000000d0: d70d 5d3d 2958 0a3c df68 fabc 243e 28bc
000000e0: 9339 a53d 97f5 1b3d 49d0 76bd 9007 813b
000000f0: cf9c bd3c 34ea 843d bed0 a2bd 03a1 80bd
-0.16395693 0.021061603 0.040905137 -0.02096444 -0.14135069 -0.01931409 0.042396307 0.08541802
0.035617754 -0.024915291 -0.011263666 0.017857995 0.0020434996 0.07819598 -0.031703137 -0.0035628588
-0.004022186 -0.010148062 0.03137674 -0.0023090702 0.007697257 0.002677931 -0.057780854 0.13227181
-0.0015593653 -0.005373633 0.06548229 -0.09075316 0.007466648 0.013982466 -0.0058881813 0.043463506
0.035670668 0.07073503 -0.0019804132 -0.03895068 -0.006738694 -0.17967503 -0.15486732 0.08174022
0.0065451767 0.11381625 0.14806618 -0.039237168 -0.006769098 -0.007283591 -0.0029808432 0.03550676
-0.007884342 -0.0030677456 -0.10404797 0.12022084 0.053968277 0.008443871 -0.030567585 -0.010268722
0.08067622 0.03807601 -0.06025723 0.003937669 0.023146061 0.06489983 -0.07949971 -0.062807105
