RL/CC2-Cardiff-implementation/GT-Cardiff-CC2/Models/PPOxCCE-C2/3000.pth (torch, 78850 bytes, 11 tensors)

actor.0.weight f4 [64, 62]
0	0xba7940ed	-0.0009508271
1	0x3d8b86e7	0.0681284
2	0xbdd6122a	-0.10452683
3	0xbdbf6a3c	-0.093464345
4	0xbe55d2f1	-0.20881249
5	0xbe4f0151	-0.20215346
6	0xbcb8cdc4	-0.022559054
7	0x3d8193c1	0.0632701
8	0xbda5dffa	-0.08099361
9	0xbd0e2d0b	-0.034710925
10	0xbcaa134c	-0.020761155
11	0x3c37d77e	0.011220811
12	0x3dcd0a58	0.100117385
13	0xbd201599	-0.039083097
14	0xbe8a2144	-0.26978505
15	0xbda861bb	-0.082217656
16	0x3d4da681	0.05020762
17	0x3d9c104d	0.076202966
18	0xbdb05477	-0.086098604
19	0xbd628646	-0.055303834
20	0x3d3cf15d	0.04612862
21	0x3dd7fb15	0.10545937
22	0xbcd61c86	-0.026136648
23	0x3dc2a212	0.09503569
24	0xbca7b158	-0.020470306
25	0x3c5c2cc0	0.013438404
26	0x3deb82cf	0.11499559
27	0xbdf14899	-0.11781425
28	0xbde9a2f1	-0.11408032
29	0xbe080678	-0.13283718
30	0xbe9c4aca	-0.3052581
31	0x3e0a7dee	0.13524601
32	0xbda896cf	-0.082318895
33	0xbd6f7633	-0.058462333
34	0xbdb5b6b9	-0.08872742
35	0xbdf39894	-0.11894336
36	0xbe18d132	-0.14923552
37	0x3d0b8b97	0.03406867
38	0xbd287e49	-0.04113606
39	0xbd1952c3	-0.037432443
40	0xbc10a7af	-0.008829041
41	0xbcdf3845	-0.027248511
42	0xbd9ec954	-0.07753244
43	0xbe2c3c06	-0.16819772
44	0xbc960825	-0.01831443
45	0x3d73ae4e	0.0594924
46	0x3e549c4d	0.20762749
47	0x3e498197	0.19678341
48	0xbdc8e9be	-0.09810208
49	0xbd19f331	-0.03758544
50	0xbb94b060	-0.004537627
51	0xbcbbd0ba	-0.022926677
52	0x3d4e7484	0.050404087
53	0xbcb329bf	-0.021870492
54	0x3c5671e1	0.013088674
55	0xbd03bdfd	-0.03216361
56	0xbe291ab1	-0.16514088
57	0xbdc9a770	-0.09846389
58	0xbe197825	-0.14987238
59	0xbdb71395	-0.08939282
60	0x3d7dd86b	0.06197397
61	0xbd909535	-0.07059709
62	0xbd9a1194	-0.07522884
63	0x3d1d2763	0.03836764
64	0x3d8ec91b	0.069719516
65	0xbc83508d	-0.01602962
66	0xbe2c4713	-0.16823988
67	0xbe1a2ccf	-0.15056156
68	0x3d6d5a93	0.057947706
69	0x3e338e3a	0.17534724
70	0x3e70e0f4	0.23523313
71	0x3e5c5800	0.21517944
72	0x3e2155af	0.15755342
73	0x3f05e3f3	0.5230095
74	0x3d2e5160	0.042558074
75	0x3d8b5169	0.06802637
76	0xbcdae352	-0.026719723
77	0xbda8fe2f	-0.08251607
78	0x3c3f6a4d	0.011683059
79	0xbda2b7b5	-0.079451956
80	0xbdf265d5	-0.11835829
81	0x3de717f4	0.112838656
82	0x3dc5c448	0.09656578
83	0xbe01ba05	-0.12668617
84	0x3cc2bb23	0.023770874
85	0xbcaf4366	-0.021394443
86	0xbcab34fb	-0.020899286
87	0xbd6e1f27	-0.058135178
88	0x3d480b12	0.048838682
89	0xbd9a0e51	-0.07522262
90	0xba595ab3	-0.00082914083
91	0x3d847347	0.064673
92	0x3cc408b6	0.023929935
93	0xbc54fed6	-0.013000211
94	0xbe00b695	-0.1256965
95	0xbda8b940	-0.08238459
96	0x3d81deb6	0.06341307
97	0x3cd9c105	0.026581297
98	0xbdaf994f	-0.08574163
99	0xbe131b3c	-0.14365858
100	0x3d987048	0.07443291
101	0xbcbfbf1d	-0.02340656
102	0xbe3e1067	-0.18560944
103	0xbe461811	-0.19345118
104	0xbdeade49	-0.11468179
105	0x3debd2a5	0.11514787
106	0xbe830c4b	-0.25595316
107	0xbdf91056	-0.12161319
108	0x3d5f38a7	0.054497387
109	0x3cbdfb5a	0.023191143
110	0xbdc1a62f	-0.09455525
111	0x3d4a8bb9	0.049449656
112	0xbe202964	-0.1564079
113	0xbc96404b	-0.018341204
114	0x3db23e72	0.08703317
115	0xbe150646	-0.14553174
116	0x3c85faf2	0.016355012
117	0xbd6c4489	-0.057682548
118	0xbde40759	-0.11134214
119	0x3cf6c0a8	0.030121163
120	0xbcb63336	-0.022241216
121	0xba901cd6	-0.0010994922
122	0xbd3985bc	-0.045293555
123	0xbd17cbf9	-0.037059758
124	0xbdf97f3e	-0.12182473
125	0xbd9a2929	-0.07527382
126	0xbd02383f	-0.03179192
127	0xbd7d6489	-0.061863456
128	0x3d6b8073	0.057495546
129	0xbda1f3cd	-0.079078294
130	0xbe7a2357	-0.24427544
131	0x3d80ac58	0.06282872
132	0x3dfa061c	0.122081965
133	0xbdeceeff	-0.115690224
134	0xbe1f0da2	-0.15532544
135	0x3e38284a	0.17984119
136	0xbe17e42d	-0.14833136
137	0xbe019e93	-0.12658148
138	0xbd9304d2	-0.07178654
139	0x3d8f3888	0.06993204
140	0x3df6600c	0.12030038
141	0x3da52cf8	0.08065218
142	0x3df6f05c	0.12057564
143	0xbc167c17	-0.009184859
144	0xbde9a66a	-0.11408694
145	0xbd769c86	-0.060207866
146	0x3db119d4	0.086475044
147	0xba57d11e	-0.000823276
148	0xbd8147a7	-0.06312495
149	0xbdc75098	-0.09732169
150	0xbdf3695f	-0.11885332
151	0xbddb85fc	-0.10718915
152	0xbd9d2f09	-0.07674987
153	0x3cb2810d	0.021790052
154	0xbd5705f7	-0.052495923
155	0xbe886042	-0.2663594
156	0x3da23e4e	0.0792204
157	0xbdcb871c	-0.099378794
158	0xbcdbf2b6	-0.026849132
159	0xbd52ec80	-0.051495075
160	0xbe1e61a5	-0.15466936
161	0xbe60fa1e	-0.21970412
162	0x3bf65707	0.0075176987
163	0xbdaa78c8	-0.083238184
164	0xbe36c749	-0.17849459
165	0xbc709f4c	-0.014686417
166	0xbda6c7ff	-0.08143615
167	0xbdd8e6c4	-0.1059089
168	0xbe15b132	-0.14618376
169	0xbc29242f	-0.010323568
170	0x3d9d1346	0.07669692
171	0x3e2f5727	0.1712309
172	0x3daa7d4f	0.08324682
173	0x3d48e46d	0.04904597
174	0xbe27eae3	-0.16398196
175	0xbe0b82d0	-0.1362412
176	0xbc701bff	-0.014655112
177	0xbda7862e	-0.081798896
178	0x3e2b944e	0.16755792
179	0xbe820b41	-0.2539921
180	0xbdd5d602	-0.104412094
181	0xbcd9d2f6	-0.026589852
182	0x3e503d9f	0.20336007
183	0xbe4d5eb9	-0.20055665
184	0x3e323e09	0.17406477
185	0x3c035715	0.008016367
186	0xbcfa2fb0	-0.030540317
187	0xbcdacc74	-0.026708819
188	0xbdd6572a	-0.10465844
189	0x3d8cee7f	0.06881427
190	0xbd62b834	-0.05535145
191	0xbe904026	-0.2817394
192	0x3d8437c6	0.064559504
193	0x3d931a40	0.07182741
194	0xbd6b4424	-0.05743803
195	0x3c354ded	0.011065942
196	0xbd02f853	-0.0319751
197	0x3e5696cf	0.20955966
198	0x3e079fd0	0.13244557
199	0x3e0ca20e	0.13733694
200	0xbe7c8703	-0.24660878
201	0x3dd952be	0.10611485
202	0xbdc49caa	-0.09600194
203	0xbdb28f2c	-0.08718714
204	0xbd970724	-0.07374409
205	0x3db60cd1	0.08889163
206	0xbd3afdb2	-0.0456521
207	0x3ddb6364	0.10712317
208	0x3d3c1b05	0.045924205
209	0x3c83bd64	0.01608152
210	0xba77d42e	-0.00094539195
211	0xbccdaa38	-0.02510558
212	0x3c828887	0.015934242
213	0xbced90fe	-0.028999802
214	0xbdbecd8c	-0.09316549
215	0xbcdc6784	-0.026904829
216	0xbe6fb82a	-0.23410097
217	0xbd0086d6	-0.03137859
218	0x3dd2069d	0.10255168
219	0xbdd3148b	-0.10306653
220	0xbc156984	-0.009119395
221	0x3e00a60e	0.12563345
222	0xbdbd9ae7	-0.09258061
223	0xbe24178e	-0.1602461
224	0xbe0fd593	-0.14046316
225	0x3ce61eb6	0.028090816
226	0xbe07afe8	-0.13250697
227	0xbd1b67d5	-0.03794082
228	0xbdae5e4d	-0.0851408
229	0xbe2bcc6d	-0.16777201
230	0xbd6a178e	-0.05715137
231	0x3d5b3d54	0.053525284
232	0x3d254444	0.040348306
233	0x3e462e6f	0.1935365
234	0xbd90c868	-0.070694745
235	0xbe599598	-0.21248472
236	0xbd81c89b	-0.063370906
237	0xbe5684b6	-0.20949063
238	0xbd5c787d	-0.053825844
239	0xbbd113a1	-0.006380514
240	0xbdba69da	-0.09102221
241	0x3d8712f7	0.06595414
242	0xbe00c548	-0.12575257
243	0x39552f82	0.00020330961
244	0xbd642f52	-0.05570919
245	0xbe30af6e	-0.17254421
246	0x3e02183c	0.12704557
247	0xbe7367f4	-0.23770124
248	0x3ae56cfc	0.0017503793
249	0xbcb0e205	-0.02159215
250	0xbd88fc54	-0.06688753
251	0x3c89823e	0.016785737
252	0x3da4ccfc	0.0804691
253	0xbe8ac65d	-0.27104464
254	0x3c9d7083	0.019218689
255	0x3dbcaf8f	0.09213173

actor.0.bias f4 [64]
0	0xbdc57f2a	-0.09643395
1	0x3adbf553	0.0016781486
2	0x3c5d604e	0.01351173
3	0xbdc883a3	-0.09790733
4	0xbc898b7a	-0.01679014
5	0xbdcdb487	-0.100441985
6	0x3c14b99f	0.009077459
7	0xbc810a5d	-0.015752012
8	0x3dabd24a	0.08389719
9	0xbd0bb7cd	-0.034110833
10	0x3d5e37ea	0.054252543
11	0xbdd9daf0	-0.10637462
12	0xbd314561	-0.043279056
13	0x3bad4ff2	0.0052890712
14	0xbe239f5e	-0.15978763
15	0x3b7a4d14	0.0038192915
16	0xbe6d1b45	-0.23154934
17	0xbd6568b3	-0.056008052
18	0xbe1e8f7a	-0.1548442
19	0x3dc7ce8f	0.09756195
20	0x3d3ec1f4	0.046571687
21	0xbe1c6ff3	-0.1527708
22	0xbd4f84d9	-0.050663803
23	0xbe453fba	-0.19262591
24	0xbd8948d5	-0.06703345
25	0x3e61a20b	0.2203447
26	0x3c9706e0	0.018435895
27	0x3d7faab7	0.062418666
28	0xbc44ff62	-0.012023779
29	0xbd7e6e35	-0.06211682
30	0xbd090fbd	-0.033462275
31	0x3d16f160	0.036851287
32	0xbbee7ce5	-0.007278072
33	0xbd2997ba	-0.041404463
34	0x3db4cb01	0.088277824
35	0xbd813cfb	-0.06310459
36	0x3daae8c8	0.08345181
37	0x3dc313e4	0.09525278
38	0xbd004de7	-0.031324293
39	0xbe2a1d7a	-0.16612807
40	0x3cb9c287	0.022675766
41	0x3d367445	0.044544477
42	0xbd6dfa9b	-0.058100324
43	0xbd6bf33c	-0.057605013
44	0x3ddbb1b6	0.10727255
45	0x3da29f3c	0.07940528
46	0x3d77f813	0.060539316
47	0xbd700f05	-0.058608074
48	0x3e1fc7d8	0.15603578
49	0x3d332809	0.043739352
50	0x3e67b3ec	0.22627228
51	0xbe02035a	-0.12696591
52	0x3dc424b8	0.09577316
53	0x3db943d6	0.09046142
54	0x3e05f013	0.13079862
55	0xbca1b509	-0.019739645
56	0x3dc28f7d	0.095000245
57	0x3c02e9fd	0.0079903575
58	0xbe1fb449	-0.15596117
59	0xbcddf09f	-0.027092276
60	0xbab6682e	-0.0013916546
61	0xbd6d0f46	-0.057875894
62	0x3b3e2c3f	0.0029018072
63	0x3c052309	0.008126029

actor.2.weight f4 [64, 64]
0	0xbd87f23c	-0.066379994
1	0xbe0676c7	-0.13131247
2	0x3d8b09a2	0.06788947
3	0xbd9b77c8	-0.07591206
4	0xbc51ba64	-0.012800787
5	0x3d8b860e	0.06812678
6	0xbd7912f8	-0.060809106
7	0xbda7c936	-0.08192675
8	0xbe21f63e	-0.1581659
9	0x3b909045	0.0044117295
10	0xbd9ef0e6	-0.077607915
11	0xbc305e88	-0.0107647255
12	0x3c9d0853	0.019169008
13	0xbd60973c	-0.05483173
14	0x3dad949a	0.08475609
15	0xbd5ad003	-0.05342103
16	0xbd4c5520	-0.04988587
17	0xbdcc3b25	-0.099722184
18	0x3d1b5778	0.037925214
19	0xbdc4712e	-0.095919
20	0x3cd740e8	0.026276067
21	0xbd793030	-0.06083697
22	0x3d855889	0.06511027
23	0xbdaea3d0	-0.085273385
24	0xbd7c38fc	-0.061577782
25	0xbd07ccfb	-0.03315447
26	0xbdbfbdcc	-0.09362373
27	0x3b93a3cb	0.0045056096
28	0xbd750bcd	-0.059825707
29	0x3c844618	0.016146705
30	0x3d26c3b9	0.040714
31	0x3ccad47b	0.024759522
32	0xbd569e51	-0.052397076
33	0x3d0bd67e	0.034140103
34	0xbdfcfbf8	-0.12352747
35	0xbdff10c0	-0.12454367
36	0xbd84dfe6	-0.06488018
37	0xbdfd1787	-0.12358003
38	0xbdf020dd	-0.11725018
39	0x3c3d6958	0.01156076
40	0x3d9b8799	0.075942226
41	0xbd80c9c0	-0.06288481
42	0xbd6ba911	-0.05753428
43	0xbde0f146	-0.10983519
44	0xbc07ef61	-0.0082968185
45	0xbb675ecb	-0.0035304304
46	0xbd002c06	-0.031291984
47	0x3d9734a3	0.073830865
48	0xbe0272cc	-0.12739104
49	0xbd8c3560	-0.06846118
50	0xbda6e0e2	-0.08148362
51	0x3d96d51b	0.073648654
52	0x3d955f99	0.072936244
53	0x3db0fdbc	0.08642146
54	0x3d838234	0.06421319
55	0x3d4ac7f0	0.04950708
56	0xbdee7725	-0.11643819
57	0xbdada61c	-0.084789485
58	0x3cf57a08	0.029965416
59	0xbe03ac3d	-0.12858672
60	0x3d3d5010	0.04621893
61	0x3d099b53	0.033595394
62	0x3b7493b4	0.0037319483
63	0xbe0115b2	-0.12605932
64	0x3de5ddbe	0.112239346
65	0x3d34c827	0.044136193
66	0xbe03cfc8	-0.12872231
67	0x3e171b77	0.14756571
68	0x3bec6ea4	0.007215338
69	0xbdee3067	-0.11630326
70	0x3d2a0cea	0.041516222
71	0xbe78a13d	-0.24280258
72	0x3c88469e	0.016635235
73	0x3dd56583	0.104197524
74	0x3dc2b094	0.09506336
75	0x3d8b9ba0	0.068167925
76	0xbe07d745	-0.13265713
77	0xbd936dbe	-0.07198666
78	0xbe073f2f	-0.13207696
79	0xbd8c06ae	-0.068372115
80	0xbe1db48b	-0.15400903
81	0x3dbc5875	0.09196559
82	0x3e69e248	0.22840226
83	0xbd04deb8	-0.032438964
84	0xbe78d5c1	-0.2430029
85	0x3dd6ece2	0.104944006
86	0x3d991fee	0.07476793
87	0x3da12072	0.078675166
88	0x3dc22196	0.09479062
89	0xbde4d83c	-0.11174056
90	0xbd0d3eaa	-0.03448359
91	0xbc72f669	-0.014829257
92	0xbc9aed03	-0.018911844
93	0xbcbd30d4	-0.023094572
94	0xbe5b0331	-0.21387936
95	0x3cf6c90d	0.030125165
96	0xbe46ed67	-0.194265
97	0xbe396440	-0.18104649
98	0xbe10a0ec	-0.14123887
99	0xbe4570dc	-0.19281334
100	0xbe3de1f8	-0.18543231
101	0xbe3627a1	-0.17788555
102	0x3e523f64	0.20531994
103	0x3dc51c9e	0.09624599
104	0xbe02caf4	-0.12772733
105	0xbd01045e	-0.031498305
106	0x3d166f87	0.036727455
107	0xbc1f367d	-0.009717581
108	0x3d17129d	0.036882985
109	0xbe2cad25	-0.16862924
110	0x3d88dfec	0.06683335
111	0xbdc5acad	-0.09652076
112	0xbe2c39fd	-0.16818996
113	0x3d15fc75	0.036617715
114	0xbe291baa	-0.16514459
115	0x3cb289e5	0.021794269
116	0x3e037235	0.12836535
117	0xbea0da4a	-0.3141654
118	0xbe8c60b8	-0.2741754
119	0xbcc3ca2e	-0.023900118
120	0xbbfcdbc7	-0.007716629
121	0xbe34c28d	-0.1765234
122	0x3c04a0f2	0.008095013
123	0x3d47b598	0.048757166
124	0xbe0c8e49	-0.13726152
125	0x3cfc1fdc	0.03077691
126	0xbd2d4da4	-0.042310372
127	0x3d3e3ab7	0.046442714
128	0xbda8f768	-0.08250314
129	0x3b1c028c	0.002380523
130	0xbdbebfd4	-0.09313932
131	0x3b304048	0.0026893783
132	0x3dda54e9	0.106607266
133	0x3a1cd7e8	0.00059831
134	0xbdc0d731	-0.094160445
135	0xbd80f703	-0.06297114
136	0x3cb88774	0.022525527
137	0xbde00c57	-0.10939854
138	0xbcd848e7	-0.02640195
139	0xbc15fa66	-0.009153938
140	0x3d9d379e	0.07676624
141	0x3d523b8a	0.051326312
142	0x3d3bfb65	0.045894045
143	0xbce064fd	-0.027391905
144	0x3d074805	0.033027668
145	0x3d845afe	0.06462668
146	0x3dd33c07	0.10314184
147	0x3d508378	0.05090663
148	0xbda0980f	-0.07841503
149	0xbc17c473	-0.009263146
150	0xbdb2b302	-0.08725549
151	0x3db12bd2	0.08650936
152	0xbe18fe82	-0.14940837
153	0xbd94f62a	-0.072735146
154	0x3db229e3	0.086993955
155	0xbdd86e6b	-0.105679356
156	0x3dc777f7	0.09739678
157	0xbdc1fcdc	-0.09472057
158	0x3dd0574f	0.10172903
159	0x3d6ac2e9	0.057314787
160	0xbda5d209	-0.08096702
161	0x3d3ee41b	0.046604257
162	0xbe2478ab	-0.16061656
163	0xbe3ae50e	-0.1825144
164	0x3cd531d6	0.02602474
165	0x3d919241	0.07107974
166	0x3caaa224	0.020829268
167	0xbe2b6e28	-0.1674124
168	0x3d687ed4	0.056761578
169	0xbd3654e9	-0.04451457
170	0xbd8a64cf	-0.06757509
171	0x3c6b75f9	0.014371389
172	0xbdcd7f09	-0.10033996
173	0x3d0f4f2a	0.034987606
174	0x3dbbbe02	0.091671005
175	0xbcbaa9cd	-0.022786045
176	0x3ca386f7	0.019961817
177	0x3d868ec9	0.06570203
178	0xbd87dac6	-0.066335246
179	0xbc97517e	-0.018471476
180	0xbe5d563b	-0.21614926
181	0xbe1e033b	-0.1543092
182	0x3ce316d1	0.02772084
183	0xbd8841c2	-0.06653167
184	0xbd13d617	-0.036092844
185	0xbcb28fa0	-0.021797001
186	0x3dcd3823	0.10020473
187	0x3da729b0	0.08162248
188	0xbe0949a7	-0.13407002
189	0xbce38bb4	-0.027776577
190	0xbdc73947	-0.09727722
191	0xbdf1e346	-0.11810927
192	0x3cdfdcf0	0.02732703
193	0x3e0fdd4f	0.14049266
194	0x3dd186b1	0.102307685
195	0x3dd59c50	0.10430205
196	0xbd9d38cf	-0.07676851
197	0x3e603270	0.2189424
198	0xbdda6268	-0.10663301
199	0x3c323af9	0.010878318
200	0x3e0d7fae	0.13818237
201	0x3d9a4b89	0.075339384
202	0xbe5d2faa	-0.21600214
203	0xbe30a337	-0.17249762
204	0xbe83ab32	-0.2571655
205	0xbc2dc2c5	-0.010605519
206	0xbe3270f1	-0.17425896
207	0xbe005e4f	-0.12535976
208	0xbc6c623a	-0.014427716
209	0x3db03ae4	0.086049825
210	0x3da3ce33	0.07998314
211	0xbd6fea82	-0.058573253
212	0x3e7447a7	0.23855458
213	0xbd62bf6c	-0.055358335
214	0xbe18fdb0	-0.14940524
215	0xbdbab09c	-0.09115717
216	0xbe273ebd	-0.16332527
217	0x3ea65c3e	0.3249225
218	0xbd5a9cef	-0.05337232
219	0x3c53443f	0.012894689
220	0x3cd5e2e2	0.026109163
221	0xbd358562	-0.044316657
222	0xbb9e75ec	-0.0048358347
223	0x3d0f777b	0.035026055
224	0x3dade0dd	0.08490155
225	0x3d1031af	0.035203632
226	0x3d3ff663	0.046865832
227	0x3e224138	0.15845191
228	0xbe05ef85	-0.1307965
229	0x3dbae0fc	0.091249436
230	0x3d130d43	0.03590132
231	0xbdbbad3f	-0.091639034
232	0xbdbfcb05	-0.09364895
233	0xbd245b0a	-0.040125884
234	0xbd8f8774	-0.070082575
235	0xbe3ed333	-0.18635254
236	0x3b21f5e3	0.002471321
237	0xbb993c00	-0.004676342
238	0xbdbc4dbc	-0.09194514
239	0x3cd39f8c	0.025832914
240	0x3d62734d	0.05528574
241	0x3ccb801f	0.024841366
242	0xbe100a71	-0.14066483
243	0x3d91449a	0.07093163
244	0xbd59c93a	-0.05317042
245	0xbe9cc56c	-0.3061937
246	0x3d80cfb9	0.0628962
247	0xbd6bb1d8	-0.057542652
248	0xbe5270eb	-0.20550887
249	0x3e21377e	0.15743825
250	0xbdc083c3	-0.094001316
251	0x3cfc01c6	0.030762564
252	0x3db56b93	0.08858409
253	0xbce02a87	-0.027364029
254	0x3e686679	0.2269534
255	0x3c1e366f	0.009656533

actor.2.bias f4 [64]
0	0xbdbb8e88	-0.09158045
1	0xbd363aa6	-0.044489525
2	0x3c4eaa2e	0.012613816
3	0xbcf5bdd7	-0.02999775
4	0x3e01da94	0.12681037
5	0x3d10755c	0.035268173
6	0xbe0d91aa	-0.13825098
7	0x3ce1fb61	0.027585687
8	0xbda16a2b	-0.07881578
9	0x3d97e668	0.074169934
10	0xbde5e952	-0.11226143
11	0x3e205185	0.15656097
12	0xbdfee38c	-0.12445745
13	0xbdf2c112	-0.118532315
14	0xbc3d403f	-0.011550962
15	0xbbfb7f42	-0.0076750824
16	0x3d763b27	0.060115006
17	0x3d8a920b	0.06766137
18	0xbbc3d26a	-0.005976011
19	0xbb956ce8	-0.004560102
20	0xbd25d39c	-0.04048501
21	0xbc890bdb	-0.016729286
22	0xbceca229	-0.028885918
23	0x3dfa8f98	0.122344196
24	0x3d82dddb	0.06389972
25	0x3e486213	0.19568662
26	0x3d7580ec	0.059937403
27	0xbdb075cb	-0.08616217
28	0xbde8d43b	-0.11368605
29	0x3da97c88	0.082757056
30	0x3d9253c7	0.071448855
31	0xbdafaa4e	-0.08577405
32	0xbe030605	-0.12795265
33	0x3d5a5e05	0.05331232
34	0x3db95e76	0.0905122
35	0xbcf6e2d8	-0.030137464
36	0xbb2e8079	-0.0026626869
37	0xbdabb94b	-0.08384951
38	0x3bfe4d20	0.007760659
39	0x3d61c0e1	0.055115584
40	0x3e30b037	0.1725472
41	0xbe21065e	-0.15725085
42	0xbd645603	-0.05574609
43	0xbdb63930	-0.088976264
44	0x3cac4b25	0.021031925
45	0xbdb79027	-0.08963042
46	0xbe390895	-0.1806968
47	0xbd55d28c	-0.052202746
48	0xbd365259	-0.044512127
49	0x3dac12ce	0.08402024
50	0x3c368e03	0.011142257
51	0xbd7f8b9a	-0.062388994
52	0xbde61504	-0.11234477
53	0x3b42abe2	0.00297045
54	0xbcc5628e	-0.024094846
55	0x3deedbcb	0.11663016
56	0xbd66560c	-0.056234404
57	0x3d8b2671	0.067944415
58	0x3dfaeb25	0.122518815
59	0xbcacfbb7	-0.02111612
60	0xbd08fbcc	-0.033443257
61	0x3cdbed57	0.02684657
62	0x3db7e66b	0.089794956
63	0xba7818c4	-0.00094641396

actor.4.weight f4 [36, 64]
0	0x3c849b61	0.016187372
1	0x3d6be6dc	0.05759321
2	0x3d8ab547	0.06772857
3	0x3e750fe1	0.23931839
4	0xbeaa5aea	-0.33272487
5	0xbe59c443	-0.21266274
6	0x3d1659ff	0.03670692
7	0x3d9f7699	0.077862926
8	0xbcdc08c9	-0.026859658
9	0x3d624668	0.055242926
10	0xbdc13955	-0.09434763
11	0x3e6cc899	0.23123397
12	0xbd3e759a	-0.046498872
13	0xbd8744fd	-0.06604955
14	0x3c8bf70c	0.017085575
15	0x3a146c87	0.0005661924
16	0xbe4a29f3	-0.19742565
17	0xbdfae633	-0.12250938
18	0xbe53307f	-0.20623969
19	0x3d8fd825	0.07023648
20	0x3e12d5e4	0.14339405
21	0xbdd0c52a	-0.10193856
22	0xbca62a17	-0.020283742
23	0x3e7f3b4a	0.2492496
24	0xbec93138	-0.39295363
25	0xbe4842cc	-0.19556731
26	0x3da617d7	0.08110016
27	0x3bf020db	0.0073281354
28	0x3d28e232	0.04123134
29	0xbe806c06	-0.25082415
30	0x3e9d7f26	0.3076107
31	0xbe08da2b	-0.13364474
32	0xbd64a003	-0.05581666
33	0xbd9fc895	-0.0780193
34	0x3e3857b0	0.180022
35	0xba04ccf0	-0.00050659385
36	0x3d6b7dd4	0.057493046
37	0x3d3aeb22	0.045634396
38	0xbd77e4b5	-0.060520846
39	0x3e72347e	0.23652837
40	0x3ca0241d	0.01954847
41	0x3c5820a0	0.013191372
42	0xbdb2fb95	-0.08739392
43	0xbd8eb993	-0.06968989
44	0xbe1ada3c	-0.15122312
45	0x3c83a415	0.016069451
46	0xbd007ac4	-0.03136708
47	0x3d1ea42b	0.03873078
48	0x3d4fc8a2	0.050728448
49	0x3e281281	0.16413309
50	0xbd8424de	-0.06452344
51	0xbec8e16b	-0.3923448
52	0x3bb359b5	0.0054733404
53	0xbe5af916	-0.21384081
54	0xbd432836	-0.04764577
55	0x3e904d8c	0.28184164
56	0xbcc84944	-0.024448998
57	0xbe7b4be7	-0.24540673
58	0xbecf2b6b	-0.40462813
59	0xbcaea4f8	-0.021318898
60	0xbebb67c3	-0.366026
61	0x3d2f6e10	0.042829573
62	0x3e650893	0.22366552
63	0xbe0d24f2	-0.13783625
64	0xbdb1efb6	-0.08688299
65	0xbc95360f	-0.018214254
66	0x3def5102	0.11685373
67	0x3da8df6b	0.082457386
68	0x3d60a956	0.05484899
69	0x3e150c64	0.14555508
70	0x3d8d43ce	0.06897698
71	0x3e7582ad	0.2397563
72	0xbc3d5293	-0.011555332
73	0x3e8f343a	0.27969533
74	0x3d521681	0.051290993
75	0x3ebea2c2	0.3723355
76	0x3e289820	0.16464281
77	0xbd721140	-0.059098482
78	0x3e05e2d7	0.13074814
79	0x3d4be38d	0.049777556
80	0xbdf468ba	-0.119340375
81	0x3e53304c	0.20623893
82	0x3d096eb7	0.03355285
83	0x3dd3e54c	0.10346469
84	0x3e2381f0	0.15967536
85	0x3df5111f	0.11966156
86	0x3dc4d483	0.09610846
87	0xbe822d60	-0.25425243
88	0xbd76dcd6	-0.0602692
89	0x3e3a7d85	0.18211944
90	0xbc2f0cd5	-0.010684212
91	0x3e3d8315	0.18507035
92	0x3ebcbe41	0.36863902
93	0xbe67f944	-0.22653681
94	0xbe110c2f	-0.14164804
95	0xbdc1ef9a	-0.094695285
96	0xbd5e25be	-0.054235213
97	0xbe07b116	-0.13251147
98	0x3eada51d	0.33915034
99	0xbe558c5f	-0.20854329
100	0x3e1c79f6	0.152809
101	0x3e66b190	0.22528672
102	0x3e953d0d	0.2914814
103	0xbe67fe60	-0.2265563
104	0x3e8681de	0.26270956
105	0x3d64e876	0.055885755
106	0xbc7d766f	-0.015470131
107	0x3d6294d0	0.0553177
108	0x3e0ae927	0.13565503
109	0x3d5698bb	0.05239175
110	0x3da023ea	0.0781935
111	0x3d5f48ec	0.054512903
112	0x3d22088f	0.039558943
113	0x3e86778d	0.26263085
114	0x3c3ade8b	0.011405597
115	0xbe16940d	-0.14704914
116	0x3e8e4c2a	0.27792484
117	0x3e55a885	0.20865066
118	0x3e0c3047	0.13690291
119	0x3d899f55	0.06719843
120	0x3cf7f267	0.030266954
121	0xbd8b99b3	-0.06816425
122	0xbe1d1161	-0.15338661
123	0x3ea8a5fe	0.32939142
124	0x3df0f494	0.117653996
125	0x3e962930	0.293283
126	0x3eaa6b18	0.3328483
127	0xbc06b4f7	-0.008221856
128	0x3de0a10d	0.10968218
129	0x3d5e25b4	0.054235175
130	0x3e380a3e	0.17972657
131	0x3e7998e3	0.24374728
132	0xbe01545e	-0.1262984
133	0x3d7240d9	0.059143875
134	0x3d13402d	0.035949875
135	0xbdeb4ed4	-0.11489645
136	0x3d328c44	0.0435908
137	0xbceaf369	-0.02868052
138	0x3d361383	0.0444522
139	0x3dc0196d	0.093798496
140	0x3e3ce96a	0.18448415
141	0xbbbff003	-0.005857469
142	0x3dee8651	0.116467126
143	0xbd5e3151	-0.05424625
144	0xbcdbd30b	-0.026834032
145	0x3e2f1a3b	0.1709985
146	0x3ce985e1	0.028506221
147	0x3e09b6e0	0.13448668
148	0x3ea97d69	0.33103493
149	0x3d8e088a	0.069352224
150	0x3dda18b7	0.10649245
151	0x3e2207c6	0.15823278
152	0xbe4edc7d	-0.20201297
153	0xbd0736ce	-0.03301125
154	0x3bb2ae41	0.0054529016
155	0x3df8732b	0.121313415
156	0x3de78933	0.113054655
157	0x3e355d88	0.1771146
158	0x3ec61cb1	0.38693765
159	0xbcd76e86	-0.026297819
160	0x3dc8a5cb	0.097972475
161	0x3de46f0e	0.111539945
162	0x3eb63938	0.3559053
163	0x3d7ce243	0.061739217
164	0x3db10448	0.08643395
165	0x3d181279	0.037126992
166	0x3cc518df	0.024059711
167	0x3e5f1ca6	0.21788272
168	0x3e541cbc	0.20714086
169	0x3d8301ea	0.063968495
170	0x3beda62a	0.0072524743
171	0x3c79f19a	0.015255356
172	0xbdb8ec0a	-0.09029396
173	0x3cde53e1	0.027139606
174	0x3e45e9b9	0.1932744
175	0x3d9068cf	0.07051241
176	0x3e094606	0.13405618
177	0x3dfd61fb	0.12372204
178	0xbd87ba03	-0.06627276
179	0x3d8fa870	0.07014549
180	0x3e0cf809	0.13766493
181	0x3ba8fa9b	0.0051568276
182	0x3dfcaff0	0.12338245
183	0x3eb3b634	0.35099947
184	0xbd57f600	-0.05272484
185	0xbe3ec718	-0.18630636
186	0xbe13e844	-0.14444071
187	0xbd76c83f	-0.060249563
188	0xbd9428c8	-0.07234341
189	0x3df27ac1	0.1183982
190	0xbcabd5f0	-0.020976037
191	0xbe9082d7	-0.28224823
192	0x3ddd3486	0.10801034
193	0x3c6ddf82	0.01451862
194	0xbce681f9	-0.028138148
195	0x3ddd0aa4	0.10793045
196	0xbd83b25b	-0.06430503
197	0x3d2ff079	0.042953942
198	0x3db17781	0.08665372
199	0xbcb25dde	-0.021773275
200	0xbdacd1ac	-0.08438429
201	0xbb8daebb	-0.004323808
202	0x3da7d120	0.08194184
203	0xbe18d7fb	-0.1492614
204	0x3e3b7d17	0.18309437
205	0xbcc6432d	-0.024201954
206	0x3d9a3760	0.07530093
207	0x3dba5568	0.09098321
208	0xbe6d0dde	-0.23149821
209	0x3d9319b1	0.071826346
210	0xbd7defbd	-0.06199621
211	0xbd845c56	-0.06462924
212	0xbe4d5aa8	-0.20054114
213	0x3d8042d1	0.06262744
214	0x3bcbd8d5	0.0062209168
215	0x3dc835d7	0.09775894
216	0x3a7d040b	0.00096517865
217	0xbe4468b4	-0.19180566
218	0xbce26070	-0.027633876
219	0x3c87b337	0.016564948
220	0xbc592d6e	-0.01325546
221	0x3da0900f	0.07839977
222	0x3ead6e1b	0.33873066
223	0x3ce6a5ee	0.028155293
224	0x3e3403fc	0.17579645
225	0x3e89cb1f	0.26912782
226	0x3d73edc8	0.059552938
227	0x3c8920e8	0.016739324
228	0xbd111cae	-0.03542774
229	0x3d943b9d	0.07237933
230	0xbcb23210	-0.021752387
231	0x3ab3d0c0	0.0013718829
232	0xbd92896b	-0.07155117
233	0x3de8634b	0.11347064
234	0x3df52e83	0.11971762
235	0xbd7ceeae	-0.06175106
236	0xbd7282fb	-0.059206944
237	0x3d1e8bac	0.03870742
238	0x3de7a0f3	0.113099955
239	0xbda55e51	-0.0807463
240	0xbd9cf133	-0.076631926
241	0x3d27f837	0.0410082
242	0xbb6f3806	-0.0036501898
243	0xbe2a09e0	-0.1660533
244	0x3e4181c7	0.18897162
245	0xbe03fabe	-0.1288862
246	0xbd3bd40f	-0.04585653
247	0x3e7b1973	0.24521427
248	0x3deec495	0.11658589
249	0xbda8f892	-0.08250536
250	0xbddbe5e1	-0.10737205
251	0xbd326651	-0.043554608
252	0xbe4e04bc	-0.20118994
253	0x3ddf0b40	0.10890818
254	0xbe19b2d1	-0.1500962
255	0xbe75b7b1	-0.23995854

actor.4.bias f4 [36]
0	0xbd99945e	-0.07499002
1	0x3e045603	0.12923436
2	0x3df673de	0.12033819
3	0xbc28bdee	-0.010299189
4	0x3df40b4c	0.11916217
5	0xbe055ab1	-0.13022877
6	0xbce1dabe	-0.027570125
7	0x3d92971f	0.0715773
8	0xbd62ad87	-0.05534127
9	0xbe02574b	-0.12728612
10	0xbeb8f08c	-0.36121023
11	0x3d77f5b5	0.06053706
12	0xbd619984	-0.055078045
13	0x3e00c8b2	0.12576559
14	0x3da850d6	0.08218543
15	0xbdab2825	-0.08357266
16	0x3e6625b0	0.22475314
17	0xbd985fa0	-0.07440114
18	0x3d5262e7	0.051363852
19	0x3d88a63a	0.0667233
20	0xbd3b1f48	-0.04568413
21	0xbccb0a9d	-0.024785334
22	0xbcd72c42	-0.026266221
23	0xbe2ba9c0	-0.16763973
24	0x3d5e2543	0.054234754
25	0x3e04f917	0.12985645
26	0x3d658fa5	0.056045193
27	0xba9b1540	-0.0011831895
28	0xbdbd2562	-0.09235646
29	0x3e2cfeaf	0.16894029
30	0x3dadbbcb	0.08483084
31	0x3dc10f2b	0.09426721
32	0x3d83eea8	0.064420044
33	0x3ddd0d6f	0.10793578
34	0xbd401d1d	-0.046902765
35	0x3e84b4b1	0.25919107

critic.0.weight f4 [64, 62]
0	0x3d9c60c8	0.07635647
1	0x3dab196a	0.08354457
2	0xbdabd831	-0.083908446
3	0x3c1b5b6c	0.009482246
4	0x3c717aec	0.0147387795
5	0xbd49dc5f	-0.049282428
6	0xbdc97b38	-0.09837955
7	0xbd676d96	-0.056500994
8	0xbdddd4e8	-0.10831624
9	0xbd5cb5c4	-0.053884283
10	0xbcb1320a	-0.021630306
11	0xbd62f5eb	-0.055410307
12	0xbdeae22c	-0.1146892
13	0xbdf3c9a5	-0.11903695
14	0xbe101fe2	-0.14074662
15	0xbe03ad3a	-0.1285905
16	0xbc0910fe	-0.008365868
17	0xbddd20ab	-0.107972465
18	0xbdf7fe13	-0.12109008
19	0x3db676c8	0.089093745
20	0xbdbb4a0c	-0.09144983
21	0x3db6177c	0.08891198
22	0x3c1010d6	0.0087930765
23	0xbc983c3e	-0.018583413
24	0x3dc93eef	0.09826457
25	0xbdcb1727	-0.09916525
26	0x3d7934c0	0.060841322
27	0x3dad99b3	0.084765814
28	0x3dd02149	0.10162599
29	0xbe5c236f	-0.21497892
30	0x3c984001	0.018585207
31	0xbd3797af	-0.04482239
32	0xbdc0fbf2	-0.09423055
33	0x3db1a39a	0.08673783
34	0xbcb73252	-0.022362862
35	0x3dafeb73	0.0858983
36	0xbd8c0d16	-0.068384334
37	0xbd66b474	-0.056324437
38	0x3deacf4b	0.11465319
39	0xba27cff7	-0.00064015336
40	0x3dda09be	0.106463894
41	0x3d8d1418	0.06888598
42	0x3e1722fc	0.14759439
43	0xbd28b2e5	-0.041186232
44	0x3e2680f9	0.16260137
45	0x3e6a02b5	0.22852595
46	0x3cbb3cf7	0.022856219
47	0xbd3569af	-0.04429024
48	0x3dc7b623	0.09751537
49	0xbe02645f	-0.12733601
50	0xbd96fd52	-0.07372536
51	0xbddaad84	-0.10677627
52	0x3d00b712	0.03142459
53	0xbc9bed0e	-0.019033935
54	0xbd534ef2	-0.05158896
55	0xbddbf856	-0.10740726
56	0xbb8b4d32	-0.0042511458
57	0x3d30368a	0.043020763
58	0xbd6b1066	-0.057388686
59	0xbd875a3c	-0.06609008
60	0xbdef30f3	-0.11679258
61	0xbdd50ee5	-0.104032315
62	0xbde719dd	-0.1128423
63	0x3d83bfcc	0.06433067
64	0xbc8d3928	-0.017239168
65	0xbd4d2513	-0.050084185
66	0xbdaf6d50	-0.085657716
67	0x3e8bdaf1	0.27315477
68	0xbca62937	-0.020283325
69	0xbc927b0d	-0.01788094
70	0xbdac633b	-0.08417364
71	0xbe6d9374	-0.2320078
72	0x3cb6782a	0.022274096
73	0x3e5d8acb	0.21634977
74	0xbe8d87db	-0.27642712
75	0xbdb9bd88	-0.09069353
76	0x3e046ede	0.12932917
77	0x3d253aef	0.040339407
78	0x3dd4f5a3	0.10398414
79	0x3ddf2efb	0.10897633
80	0x3d8b91bf	0.06814908
81	0xbbdf0445	-0.006805929
82	0xbd05605d	-0.032562602
83	0xbdf85976	-0.12126438
84	0x3d88dae2	0.066823736
85	0xbcebcd00	-0.028784275
86	0x3ca310a8	0.019905403
87	0xbceaf3ed	-0.028680766
88	0x3da7fc15	0.08202378
89	0x3b843abd	0.0040353225
90	0x3ce74da6	0.028235268
91	0x3cd869fb	0.026417723
92	0x3d848f7f	0.06472682
93	0x3e0f86e0	0.14016294
94	0x3d70dd73	0.05880494
95	0xbd99545f	-0.07486796
96	0x3db6e9b5	0.08931295
97	0x3dc97be7	0.098380856
98	0xbd199b28	-0.037501484
99	0xbdd2aaa7	-0.102864556
100	0x3e5a047e	0.21290776
101	0x3e766581	0.24062158
102	0xbdc53d17	-0.096307926
103	0xbcab2d67	-0.020895673
104	0x3d5f3071	0.054489557
105	0xbde5ac03	-0.11214449
106	0xbd9462b5	-0.07245389
107	0xbdc87fd4	-0.09790006
108	0xbddc8634	-0.10767785
109	0x3d36ee77	0.04466101
110	0x3e0df905	0.13864525
111	0xbdc108c9	-0.09425504
112	0x3c3ea89b	0.011636878
113	0x3d768b13	0.060191225
114	0xbd3f1bb0	-0.046657264
115	0xbdb72dfe	-0.08944319
116	0xbe0de2bd	-0.13856025
117	0xbe514c9c	-0.2043938
118	0x3cf90011	0.03039554
119	0x3d48468e	0.04889541
120	0xbd94e9a0	-0.07271123
121	0x3cd16bfb	0.025564184
122	0xbd2cf92c	-0.042229816
123	0x3df8d099	0.12149162
124	0xbdd74f1a	-0.10513134
125	0x3da32314	0.07965675
126	0x3dd7641f	0.105171435
127	0x3d472423	0.048618447
128	0xbe022e75	-0.12713034
129	0xbcacf453	-0.021112597
130	0xbe0bb593	-0.13643484
131	0xbdcad58d	-0.09904013
132	0x3ccd629d	0.025071437
133	0xbcbbd628	-0.022929266
134	0x3e14b223	0.14521079
135	0x3d9ff5b0	0.07810533
136	0xbd6b4c09	-0.05744556
137	0xbca84c9b	-0.02054434
138	0xbe010ffe	-0.12603757
139	0xbe11ca72	-0.14237383
140	0xbca31f01	-0.019912245
141	0xbd99a10a	-0.07501419
142	0x3df274de	0.11838697
143	0xbdd3839b	-0.10327836
144	0x3df2c62b	0.11854204
145	0xbcafec77	-0.02147506
146	0x3cbc58ce	0.022991564
147	0x3de27c04	0.1105881
148	0xbd70b2c3	-0.05876423
149	0xbd40bdad	-0.04705589
150	0x3d5737c4	0.052543417
151	0xbd03cac2	-0.032175787
152	0xbc0a68b7	-0.0084478175
153	0x3d860bb6	0.065452024
154	0xbc963432	-0.018335436
155	0x3d99f6cf	0.07517778
156	0xbd63e6a6	-0.055639885
157	0x3d537ec6	0.051634572
158	0x3c4969fd	0.012293336
159	0xbdc80e22	-0.097683206
160	0xbd4f28d3	-0.050576042
161	0xbb62f7ed	-0.0034632639
162	0xbe4b2a6b	-0.198404
163	0x3df68d2d	0.12038646
164	0xbdea71f2	-0.114475146
165	0x3d37b0e0	0.044846416
166	0x3acd44fa	0.0015660815
167	0xbda4e62b	-0.080517136
168	0x3cb75889	0.022381084
169	0xbdaf7000	-0.08566284
170	0xbd94e5be	-0.07270382
171	0xbd7eca84	-0.062204853
172	0xbe3c7357	-0.18403374
173	0x3c8ab193	0.016930377
174	0xbe04bcc1	-0.12962629
175	0x3d2c8b2f	0.042124923
176	0x3d7767de	0.06040179
177	0x3d2f6fdc	0.042831287
178	0xbc4302b1	-0.011902497
179	0xbc951717	-0.018199487
180	0xbe5cf412	-0.2157748
181	0xbbe9a2b5	-0.007129992
182	0xbd814176	-0.06311314
183	0x3d5a6674	0.053320363
184	0x3cef1ae8	0.029187635
185	0xbcb83892	-0.022487912
186	0xbdeb8e5d	-0.11501763
187	0xbdef11c2	-0.11673309
188	0xbdd9ab8d	-0.10628424
189	0x3db5f55c	0.08884689
190	0xbea4f757	-0.32219955
191	0xbe86df2f	-0.2634215
192	0xbe86bd8c	-0.26316488
193	0x3e8e1103	0.27747354
194	0xbd2da0ea	-0.042389788
195	0xbe28d869	-0.16488804
196	0xbdbbc203	-0.09167864
197	0x3dbaad36	0.091150686
198	0x3c13b932	0.009016322
199	0x3d8c9626	0.06864576
200	0x3c390589	0.011292824
201	0x3b60f9fb	0.0034328687
202	0xbd1b5f91	-0.037932936
203	0xbda16d4b	-0.07882174
204	0xbdabc982	-0.08388044
205	0x3db82345	0.08991102
206	0x3caca5da	0.021075178
207	0x3d2ab859	0.041679714
208	0xbdbd03d5	-0.092292465
209	0x3cc0e2b2	0.023545597
210	0x3de7b48d	0.11313734
211	0x3d8e754d	0.06955967
212	0xbbb6094c	-0.0055553075
213	0xbd6f7937	-0.05846521
214	0x3e3c391f	0.18381165
215	0xbdea3800	-0.114364624
216	0xbd5a6997	-0.053323355
217	0x3ddb6435	0.10712472
218	0xbd13870b	-0.03601746
219	0xbba404a7	-0.0050054374
220	0xbcf4dd5b	-0.029890707
221	0xbd9a498e	-0.07533561
222	0xbc628915	-0.013826628
223	0x3d029af5	0.03188606
224	0xbe55e55d	-0.20888276
225	0x3def073d	0.116713025
226	0xbd3ed864	-0.046593085
227	0xbe00c7aa	-0.12576166
228	0xbc102cb0	-0.008799717
229	0xbd920f25	-0.07131795
230	0xbe87cc70	-0.2652316
231	0xbe7727a0	-0.2413621
232	0xbc8d0d90	-0.017218381
233	0x3d9eae16	0.07748048
234	0xbe915977	-0.2838857
235	0xbe85d425	-0.26138416
236	0x3ddf976c	0.10917553
237	0x3d5c6ef8	0.053816766
238	0x3db715bd	0.08939693
239	0xbda467a3	-0.0802758
240	0xbe46513d	-0.19366927
241	0xbd9e79f7	-0.07738107
242	0xbd987bab	-0.07445463
243	0xbca04713	-0.01956514
244	0xbdb7612f	-0.08954083
245	0xbd98e957	-0.07466381
246	0xbc32d6af	-0.010915442
247	0x3ced406e	0.028961387
248	0x3d8bf83e	0.06834458
249	0x3db87901	0.09007455
250	0xbdea2ed0	-0.1143471
251	0xbda831c8	-0.0821262
252	0x3c3129c9	0.010813185
253	0xbdbb5c75	-0.09148494
254	0x3dcbf3b0	0.09958589
255	0x3d8aea19	0.06782932

critic.0.bias f4 [64]
0	0xbe498c1d	-0.19682355
1	0xbd1e88aa	-0.03870455
2	0xbe2349cb	-0.15946119
3	0xbde99378	-0.114050806
4	0xbdfc4dee	-0.123195514
5	0xbdd8d604	-0.10587695
6	0xbd8937b2	-0.06700076
7	0xbe3ca781	-0.18423273
8	0xbe2870d7	-0.16449295
9	0xbd18c4d0	-0.03729707
10	0xbb86c477	-0.004112776
11	0xbd30c7fe	-0.043159477
12	0xbcd05d95	-0.025435248
13	0x3d008160	0.03137338
14	0xbcbcc86a	-0.023044784
15	0x3ce8e8c0	0.028431296
16	0xbe0989fe	-0.13431546
17	0x3d96cf61	0.07363773
18	0xbe06f9d2	-0.13181236
19	0x3dc16864	0.09443739
20	0xbe3f31ed	-0.18671389
21	0xbe30f53d	-0.17281051
22	0xbd24218f	-0.040071066
23	0x3cb691ed	0.02228638
24	0x3c963565	0.018336007
25	0xbe5be26e	-0.21473095
26	0xbe0c5e45	-0.13707836
27	0x3d998ae3	0.07497194
28	0x3beffcab	0.0073238215
29	0x3d673d91	0.0564552
30	0xbd17b819	-0.037040804
31	0xbdb83eae	-0.0899633
32	0xbda2a146	-0.07940917
33	0xbd92d5fe	-0.07169722
34	0xbd93dc3e	-0.07219742
35	0x3c38490e	0.011247886
36	0xbda4c679	-0.08045668
37	0x3def5571	0.116862185
38	0xbbe3d99a	-0.0069534304
39	0x3df37a5e	0.11888574
40	0xbde9f167	-0.11422997
41	0xbd7a8d1b	-0.061169725
42	0xbdebb218	-0.11508578
43	0xbe021394	-0.12702781
44	0xbe478780	-0.19485283
45	0xbd43a03b	-0.04776023
46	0x3d350a9c	0.04419957
47	0xbdb290c2	-0.087190166
48	0x3c7c899e	0.01541367
49	0xbc0334c1	-0.008008183
50	0xbcd5f31d	-0.026116902
51	0x3c71de31	0.014762447
52	0xbd2dff81	-0.042479996
53	0x3ca1acdb	0.019735744
54	0xbe2d123b	-0.16901486
55	0xbe7f3103	-0.2492104
56	0x3e0d104f	0.13775752
57	0xbd9d2e6f	-0.07674872
58	0xbe21692f	-0.1576278
59	0xbdd9e1e6	-0.1063879
60	0x3c307e2b	0.010772268
61	0xbe2d2321	-0.16907932
62	0xbdce46aa	-0.10072072
63	0xbdb26db5	-0.08712331

critic.2.weight f4 [64, 64]
0	0xbda1e909	-0.07905776
1	0x3e55bbae	0.20872375
2	0x3cc2b0c3	0.023765927
3	0x3d91197b	0.07084938
4	0xbd04c3b1	-0.03241319
5	0xbd0189d7	-0.031625595
6	0xbc4350ce	-0.011921121
7	0x3ded95e2	0.116008535
8	0xbddbcc48	-0.10732323
9	0xbd0ff6ff	-0.035147663
10	0x3c37b376	0.01121222
11	0x3e902870	0.2815585
12	0x3cc027d7	0.023456497
13	0x3e862897	0.26202843
14	0x3d68b0c7	0.056809213
15	0x3dfcda5b	0.123463355
16	0x3c48d229	0.012257137
17	0x3e90fcbb	0.28317818
18	0x3cfe5123	0.031044548
19	0x3e17520b	0.1477739
20	0xbc3c076b	-0.011476378
21	0xbd5c1ec5	-0.05374028
22	0x3d1939b8	0.03740856
23	0x3d259cd8	0.04043278
24	0xbe40b6ad	-0.18819685
25	0xbd8cd9ed	-0.068775035
26	0x3d505290	0.050859988
27	0x3e1178dd	0.14206262
28	0xbe16c7f8	-0.1472472
29	0x3e94f8ed	0.29096165
30	0xbc62f806	-0.013853079
31	0x3bb40d26	0.0054947315
32	0xbcd8703b	-0.026420703
33	0xbdc6f98f	-0.09715568
34	0x3a807345	0.0009799978
35	0x3ddcefd8	0.10787934
36	0xbe2947be	-0.16531274
37	0x3e4a3b62	0.19749215
38	0x3dbffd1b	0.09374448
39	0xbe59585d	-0.21225114
40	0xbc8867ec	-0.016651116
41	0x3e1bc458	0.15211618
42	0x3e3db6f8	0.18526828
43	0xbe291a0e	-0.16513845
44	0xbd87c1ea	-0.06628783
45	0xbe4a765a	-0.1977171
46	0x3d9aeb7b	0.075644456
47	0xbcc8e84d	-0.024524832
48	0x3e21daa7	0.15806065
49	0xbcc89058	-0.024482891
50	0xbbff044b	-0.007782494
51	0x3e6f98cc	0.23398131
52	0xbbda4e95	-0.0066621997
53	0x3e33e25d	0.1756682
54	0x3d976230	0.07391775
55	0xbd1e829c	-0.038698778
56	0x3e7f9a80	0.24961281
57	0x3d5893eb	0.05287544
58	0x3c868362	0.01642007
59	0xbdb0464b	-0.08607157
60	0xbaa35d8a	-0.001246379
61	0xbda29cc2	-0.079400554
62	0x3e2d5564	0.16927105
63	0x3db87fc4	0.09008744
64	0xbc6d49e0	-0.014482945
65	0x3b1e928b	0.0024196233
66	0xbc91dab5	-0.017804483
67	0xbccef533	-0.025263404
68	0xbdb3c26a	-0.08777316
69	0xbd916716	-0.0709974
70	0xbda7ff05	-0.08202938
71	0x3dd2048c	0.102547735
72	0xbd5d42d9	-0.05401883
73	0xbdc72c65	-0.097252645
74	0xbdd4bca0	-0.1038754
75	0xbdfc3307	-0.1231442
76	0xbd39c0cb	-0.045349877
77	0xbd888d73	-0.06667604
78	0xbdd74e9f	-0.10513043
79	0xbd72f1a5	-0.05931248
80	0x3da9152c	0.08255991
81	0xbde39b3c	-0.11113593
82	0xbcf67d5a	-0.03008907
83	0x3d9e5c49	0.07732446
84	0x3d8ae7c7	0.06782489
85	0x3c5cfcf2	0.013488041
86	0x3d0d60b2	0.034516044
87	0xbd6bf9e3	-0.057611357
88	0xbde7db49	-0.11321122
89	0xbdb70c4e	-0.08937894
90	0xbdb6670c	-0.089063734
91	0x3d8696b6	0.065717146
92	0xbc52daf4	-0.012869585
93	0xbe0bae3c	-0.13640684
94	0xbe0c71aa	-0.13715234
95	0xbcd6fb7c	-0.026242964
96	0x3d901a74	0.070362955
97	0xbaafe5f6	-0.0013419974
98	0x3bf29e89	0.007404153
99	0xbd19579f	-0.037437078
100	0xbd1d80bc	-0.03845285
101	0x3d627add	0.055292953
102	0x3cd3d725	0.025859425
103	0xbd020595	-0.031743605
104	0x3dffcf50	0.124907136
105	0x3d960f1e	0.07327102
106	0x3cf350f3	0.029701686
107	0x3cfef096	0.03112058
108	0x3d885385	0.06656555
109	0xbd0064e3	-0.031346213
110	0xbc48ce95	-0.012256284
111	0xbd53186b	-0.05153696
112	0xbd7bacb5	-0.061444003
113	0xbc4a7780	-0.012357593
114	0xbdc87dab	-0.09789594
115	0x3d90a9a0	0.070636034
116	0xbdcef4e3	-0.10105302
117	0xbdce8594	-0.10084072
118	0xbcfb651a	-0.030687857
119	0x3d884019	0.06652851
120	0xbd9b66e4	-0.07587984
121	0xbd008ce4	-0.031384364
122	0x3d66aa8f	0.056315
123	0xbde7d5d8	-0.11320084
124	0x3dd8051d	0.1054785
125	0x3d61cccf	0.05512696
126	0x3c7d9684	0.01547778
127	0x3b655f8e	0.0034999582
128	0x3cb4179c	0.021983914
129	0xbde4632e	-0.111517295
130	0xbacaf108	-0.001548321
131	0x3d925997	0.07145994
132	0xbdf5f52a	-0.12009652
133	0x3d06e2fc	0.032931313
134	0x3b9dcceb	0.004815688
135	0x3c965762	0.018352214
136	0xbe25702b	-0.1615607
137	0xbc11e021	-0.008903534
138	0xbc77c67b	-0.015123005
139	0xbe00764a	-0.12545124
140	0xbdcd5dda	-0.100276664
141	0xbd8e1d7f	-0.0693922
142	0x3d7ded77	0.061994042
143	0xbcc2cc3d	-0.023779029
144	0xbdc27ac6	-0.094960734
145	0x3ad33478	0.0016113659
146	0xbcfe9f76	-0.031081896
147	0xbdc320f4	-0.0952777
148	0x3d51ac61	0.051189784
149	0x3d269d66	0.04067745
150	0x3dd6471c	0.10462782
151	0x3dc62be1	0.09676338
152	0xbda54004	-0.08068851
153	0x3dbaffc9	0.091308184
154	0xbb8533e8	-0.0040650256
155	0xbdffead3	-0.12495961
156	0x3d6e8c7e	0.058239453
157	0xbe217706	-0.1576806
158	0x3d685c72	0.056728788
159	0xbdc25004	-0.09487918
160	0xbe0b6f02	-0.13616565
161	0xbcf4aa9c	-0.02986651
162	0x3d1777b9	0.03697941
163	0xbe24abbd	-0.16081138
164	0x3bbfa535	0.0058485516
165	0xbda0c05d	-0.078491904
166	0x3d91f30e	0.07126437
167	0xbd7b5480	-0.061359882
168	0x3dd9f2c0	0.10642004
169	0xbcb3704b	-0.021904131
170	0x3bdd97c6	0.0067624776
171	0xbca95fee	-0.020675626
172	0xbc64c53d	-0.013963041
173	0xbe5f19e1	-0.21787216
174	0xbd88cb82	-0.06679441
175	0x3d811df4	0.06304541
176	0x3d875e6f	0.06609809
177	0xbcde02e2	-0.027100984
178	0xbd89b68a	-0.0672427
179	0xbdbf0111	-0.09326375
180	0x3d99e2e8	0.07513982
181	0xbe1cd82a	-0.15316835
182	0xbb070da1	-0.0020607489
183	0x3d484183	0.0488906
184	0xbdd150f9	-0.102205224
185	0xbd9015b6	-0.07035391
186	0xbe2aaae9	-0.1666676
187	0xbd9deaa2	-0.07710768
188	0xbdefbd52	-0.11706032
189	0xbdabe9ef	-0.08394229
190	0x3d5156ea	0.05110828
191	0xbe129732	-0.14315489
192	0x3d9583df	0.07300543
193	0xbd82f7f8	-0.063949525
194	0xbd92542f	-0.07144963
195	0x3b2d2c63	0.0026424162
196	0x3c20b062	0.009807678
197	0xbdb066c0	-0.08613348
198	0x3d094bc0	0.033519506
199	0x3c2e71c7	0.010647244
200	0xbe80e136	-0.25171822
201	0xbd004114	-0.031312063
202	0x3d129caa	0.035793938
203	0xbde4d890	-0.111741185
204	0x3da8bfcf	0.082397096
205	0xbe7088ed	-0.23489733
206	0xbbc26e26	-0.005933541
207	0x3cc8e9ff	0.02452564
208	0x3d2b57a2	0.04183162
209	0xbd8793c5	-0.06619982
210	0x3c24a570	0.010049209
211	0x3d3a93e0	0.04555118
212	0x3d79fd4f	0.06103259
213	0x3de11624	0.10990551
214	0xbcf7e1d2	-0.030259047
215	0xbd8cb78c	-0.06870946
216	0xbd9d488f	-0.07679855
217	0xbde811ac	-0.11331496
218	0xbceb70d1	-0.028740318
219	0xbcd1cba8	-0.025609806
220	0x3d0332a7	0.032030728
221	0xbd9769af	-0.073932044
222	0xbca19bc8	-0.019727603
223	0xbe11db9c	-0.1424393
224	0xbdaf02d7	-0.085454635
225	0x3d242963	0.040078532
226	0xbd855338	-0.06510013
227	0xbe851098	-0.25989223
228	0x3e3dfaf3	0.18552761
229	0xbc80731e	-0.015679892
230	0xbde57455	-0.11203829
231	0xbe0f5e14	-0.14000732
232	0xbe764320	-0.24049044
233	0xbccd78cd	-0.025082016
234	0xbe157950	-0.14597058
235	0x3de73a35	0.11290399
236	0xbd16eb06	-0.03684523
237	0x3e14ebc7	0.14543067
238	0xbe1e206f	-0.1544206
239	0xbd00bf33	-0.03143234
240	0xbd90a2e6	-0.070623204
241	0x3deb407c	0.11486909
242	0x3d0735e1	0.033010367
243	0xbc64cc84	-0.013964776
244	0x3dad7d90	0.08471215
245	0xbdce483a	-0.1007237
246	0xbd1c3462	-0.038135894
247	0x3dd86096	0.10565297
248	0x3cecda3e	0.02891266
249	0x3e3d26a2	0.18471768
250	0xbd9125d3	-0.070872925
251	0xbe46db47	-0.19419585
252	0xbe032e3b	-0.12810604
253	0xbd73eb21	-0.05955041
254	0x3e3a4fe8	0.18194544
255	0xba111c80	-0.0005535558

critic.2.bias f4 [64]
0	0x3dfcd70e	0.12345706
1	0xbda4bc24	-0.080436975
2	0xbdb99ed1	-0.09063495
3	0xbd9dbf57	-0.07702511
4	0xbb5216aa	-0.0032056966
5	0xbe16381c	-0.14669842
6	0xbd950866	-0.072769925
7	0xbdf45ba1	-0.11931539
8	0xbe16d0e8	-0.14728129
9	0xbdd04050	-0.10168517
10	0xbccfe37e	-0.025377031
11	0x3d3ae031	0.04562396
12	0xbd02ed96	-0.03196486
13	0x3dc4b9db	0.096057616
14	0xbd6307cb	-0.055427354
15	0xbd0f1650	-0.03493339
16	0xbd9fc455	-0.07801119
17	0xbdeeee34	-0.116665274
18	0xbd178c20	-0.036998868
19	0xbd28d02b	-0.04121415
20	0x3da2cdbf	0.07949399
21	0xbc396989	-0.011316665
22	0xbe1d989f	-0.15390252
23	0xbda44fa7	-0.08023005
24	0xbd0115d7	-0.03151497
25	0xbe29d5ee	-0.16585514
26	0xbdf22783	-0.118239425
27	0xbe112888	-0.14175618
28	0xbc9636b4	-0.018336631
29	0x3ce92c92	0.028463636
30	0xbdcd0ee4	-0.10012606
31	0xbd829199	-0.06375427
32	0xbd9e5136	-0.077303335
33	0xbddc9d47	-0.10772186
34	0x3d6d5fbd	0.05795263
35	0xbd509d7c	-0.05093144
36	0xbdff958c	-0.12479696
37	0x3d271357	0.04078993
38	0x3d805762	0.06266667
39	0xbdeee0a9	-0.11663944
40	0xbbd4018a	-0.00646991
41	0xbdc68fc3	-0.09695389
42	0xbd652397	-0.055942144
43	0xbd4fe7c4	-0.05075814
44	0xbe45dc21	-0.19322254
45	0x3d88e777	0.066847734
46	0xbe03d144	-0.12872797
47	0xbd2ddb3b	-0.042445403
48	0xbbc89931	-0.0061217775
49	0xb95d3b0b	-0.00021098198
50	0x3d0d4461	0.03448904
51	0x3bfb349d	0.007666184
52	0xbdc77020	-0.09738183
53	0xbdcd4f0f	-0.10024845
54	0xbdcb40d1	-0.09924472
55	0x3bf782e9	0.0075534475
56	0x3ddc56c8	0.1075874
57	0xbb90a963	-0.0044147237
58	0xbd00ec6e	-0.031475477
59	0xbd2129d0	-0.039346516
60	0xbe16cc1a	-0.14726296
61	0xbd2d3bb9	-0.042293284
62	0xbceb940a	-0.028757114
63	0xbe03c6e6	-0.12868842

critic.4.weight f4 [1, 64]
0	0xbe11b69d	-0.14229818
1	0x3cac8962	0.021061603
2	0x3c1ab57e	0.009442685
3	0x3c0dd3da	0.008656466
4	0xbe04b4f3	-0.12959652
5	0x3b070b6e	0.0020606178
6	0x3c645d8a	0.013938317
7	0x3daf2cdf	0.0855348
8	0x3d081946	0.033227228
9	0x3998d57a	0.00029150752
10	0xbbf96d92	-0.0076119388
11	0x3c820d99	0.015875624
12	0xbb4e5f5c	-0.0031489944
13	0x3c8d4e20	0.017249167
14	0xbd01db26	-0.031703137
15	0xbb8da340	-0.0043224394
16	0xbc514aec	-0.01277421
17	0xbc26440f	-0.010148062
18	0xbb1a43c8	-0.0023538936
19	0xbcb2e90e	-0.021839645
20	0xbd81982b	-0.06327852
21	0xbbc3a165	-0.0059701675
22	0xbd553e11	-0.052061144
23	0x3d6c2097	0.057648268
24	0x3aa68ab6	0.0012706134
25	0x3b100cdf	0.0021980328
26	0x3b8bf450	0.0042710677
27	0xbd2f958b	-0.042867225
28	0xbcf02d73	-0.029318547
29	0xbccc8ae6	-0.024968576
30	0x3bf4f313	0.007475266
31	0x3d3206ca	0.043463506
32	0x3cf7f472	0.030267928
33	0x3d90dd87	0.07073503
34	0xbb6dcce0	-0.0036285445
35	0xbc0b388c	-0.008497369
36	0xbc38b7a5	-0.011274253
37	0xbe080193	-0.1328185
38	0xbe097270	-0.1342256
39	0x3d6d1347	0.057879712
40	0xbc45fbb8	-0.01208394
41	0x3de8f75a	0.113753036
42	0x3dfa6ea8	0.12228137
43	0xbb9f9dc4	-0.004871102
44	0x3956be4d	0.00020479523
45	0xbd8718a3	-0.06596496
46	0xbb638373	-0.00347158
47	0x3d116fa1	0.03550685
48	0xbd1b27ff	-0.03787994
49	0xbb490c3b	-0.0030677456
50	0xbd95617e	-0.07293986
51	0x3dbc8983	0.09205916
52	0x3d4e62c7	0.05038717
53	0x3c076dab	0.008265893
54	0x3b5a3da2	0.0033300896
55	0xbc59e7bc	-0.013299879
56	0x3d148e67	0.036268618
57	0x3dc9cac7	0.0985313
58	0xbd53bddd	-0.05169474
59	0xbc6f2160	-0.01459536
60	0x3c7d58b4	0.015463043
61	0x3d34cab6	0.044138633
62	0xbc8a664d	-0.016894484
63	0xbd80a0c7	-0.06280666
