RL/CC2-Cardiff-implementation/GT-Cardiff-CC2/Models/PPOxCCE-C2/4000.pth (torch, 78850 bytes, 11 tensors)

actor.0.weight f4 [64, 62]
00000000: ed40 79ba e786 8b3d 2a12 d6bd 3c6a bfbd
00000010: bac2 1fbe 0109 1bbe d08f cabd 1703 4e3d
00000020: fadf a5bd 0b2d 0ebd 4c13 aabc 7ed7 373c
00000030: 3f4f 193e f991 6abd 4421 8abe 438d 2bbe
00000040: 81a6 4d3d 4d10 9c3d 7754 b0bd 4686 62bd
00000050: 5df1 3c3d 15fb d73d 861c d6bc 12a2 c23d
00000060: 58b1 a7bc c02c 5c3c cf82 eb3d 9948 f1bd
00000070: 7ce5 1bbe 7eb2 46be ac4a 9cbe c830 e43d
00000080: cf96 a8bd 3376 6fbd b9b6 b5bd 9498 f3bd
00000090: 32d1 18be 978b 0b3d 497e 28bd c352 19bd
000000a0: afa7 10bc 4538 dfbc 54c9 9ebd 063c 2cbe
000000b0: b46f 52bd bc71 3d3c 931f 393e b0cd 163e
000000c0: bee9 c8bd 31f3 19bd 56b8 2cbd f1fd a23c
000000d0: 8474 4e3d 5040 65bd e171 563c dd90 b5bd
000000e0: 1de7 5dbe 70a7 c9bd 2578 19be 9513 b7bd
000000f0: ac85 d73c dbae 93bd 9411 9abd 6327 1d3d
00000100: 1bc9 8e3d 8d50 83bc b83c 49be b4a5 6abd
00000110: f2a7 353d 83c9 723e 818f d83e 42b9 623e
00000120: 96b8 063e b862 033f c4cb 143e 93d1 863d
00000130: 1bc5 49bd 8b5c 3dbd 4d6a 3f3c b5b7 a2bd
00000140: d565 f2bd f417 e73d 48c4 c53d 05ba 01be
00000150: 23bb c23c 6643 afbc fb34 abbc 271f 6ebd
00000160: 120b 483d 510e 9abd 1cac 8cbd 2978 683d
00000170: 2aad c53c 78e3 58bd 95b6 00be 40b9 a8bd
00000180: b6de 813d 05c1 d93c 4f99 afbd 3c1b 13be
00000190: c443 80bc 37c4 f43b 6710 3ebe 1118 46be
000001a0: 7f28 7cbd e7cd 623d 02f8 78be 5610 f9bd
000001b0: 70d3 913d 5d79 5a3d 945b 36be 9dc3 47bd
000001c0: 32ab 0dbe a304 193d 723e b23d 3969 babd
000001d0: 81b1 dabc b2fb d83c 0a9b 28be a8c0 f63c
000001e0: e93e eebc fe0f 29bd 238c fbbc 34fc bc3c
000001f0: 3e7f f9bd 2929 9abd 3f38 02bd 8964 7dbd
00000200: 6596 a33c ac23 6fbd ee97 94be 6bad e23c
00000210: a515 673d 154a e6bd a20d 1fbe 4ce7 323e
00000220: 05a0 62be f32a 28be f501 16be ab1d a73c
00000230: 0c60 f63d f82c a53d 5cf0 f63d 177c 16bc
00000240: 6aa6 e9bd 869c 76bd d419 b13d 1ed1 57ba
00000250: a747 81bd 9850 c7bd 5f69 f3bd fc85 dbbd
00000260: 6399 02be 0d81 b23c 68df a3bb 4260 88be
00000270: 4e3e a23d 1c87 cbbd b6f2 dbbc 80ec 52bd
00000280: ec25 58be 3ec8 95be ec37 adbc 39df 5dbe
00000290: 49c7 36be 4c9f 70bc 0ebc 7fbd 2d4f 2dbe
000002a0: 24db 34be c8d9 923b 135d 2e3d caa8 b93d
000002b0: a7f5 053d f31a 483d e3ea 27be 7ac3 0bbe
000002c0: ff1b 70bc bf78 03be 8291 343e dcc5 b0be
000002d0: 909a cbbd f6d2 d9bc d14e 553e 9456 42be
000002e0: b9b6 963d 71e6 47bd b02f fabc 74cc dabc
000002f0: 2a57 d6bd 7fee 8c3d 7ea2 bb3c ab74 7cbe
00000300: 9264 3cbd a7fd ce3d 5313 6bbd fb19 363c
00000310: d68d 15bd fed0 543e 9381 063d 81ef 153c
00000320: 3cfe abbe 4001 5bbb aa9c c4bd 2c8f b2bd
00000330: 2407 97bd d10c b63d b2fd 3abd 6463 db3d
00000340: 051b 3c3d 64bd 833c 2ed4 77ba 38aa cdbc
00000350: 8788 823c fe90 edbc c31f f4bd 18c2 9fbd
00000360: 3a03 8abe 4755 8dbd 9d06 d23d 8b14 d3bd
00000370: 8469 15bc 0ea6 003e e79a bdbd 8e17 24be
00000380: 8b04 10be da46 9abb e8af 07be d567 1bbd
00000390: c3f5 bcbd 85e4 2abe b11e 3bbd dd4e eb3b
000003a0: 016d 253d e189 233e 68c8 90bd 9895 59be
000003b0: d3be 89bd 4146 8dbe 7d78 5cbd 306d 05bd
000003c0: cdf9 febd 47ca 083d f2c6 10be 822f 5539
000003d0: 3776 b8bd 571a 4abe 3b42 153e ac44 b1be
000003e0: fc6c e53a 05e2 b0bc 54fc 88bd 3e82 893c
000003f0: 45d9 063d bc95 65be e581 c4bd 3ef2 893d
-0.0009508271 0.0681284 -0.10452683 -0.093464345 -0.15601626 -0.15140153 -0.09890711 0.050295915
-0.08099361 -0.034710925 -0.020761155 0.011220811 0.14971636 -0.057268117 -0.26978505 -0.16753106
0.05020762 0.076202966 -0.086098604 -0.055303834 0.04612862 0.10545937 -0.026136648 0.09503569
-0.020470306 0.013438404 0.11499559 -0.11781425 -0.1522426 -0.19404027 -0.3052572 0.11142117
-0.082318895 -0.058462333 -0.08872742 -0.11894336 -0.14923552 0.03406867 -0.04113606 -0.037432443
-0.008829041 -0.027248511 -0.07753244 -0.16819772 -0.05137606 0.011562761 0.18078451 0.14726901
-0.09810208 -0.03758544 -0.042167984 0.01989648 0.050404087 -0.055969536 0.013088674 -0.08865521
-0.21670194 -0.09846389 -0.14987238 -0.08939282 0.026308857 -0.072110854 -0.07522884 0.03836764
0.069719516 -0.01602962 -0.19652069 -0.057286933 0.04434962 0.23709683 0.42296985 0.22140983
0.13156351 0.5132251 0.14530855 0.06582942 -0.04926024 -0.046230834 0.011683059 -0.079451956
-0.11835829 0.112838656 0.09656578 -0.12668617 0.023770874 -0.021394443 -0.020899286 -0.058135178
0.048838682 -0.07522262 -0.06868765 0.05675522 0.024130423 -0.052951306 -0.1256965 -0.08238459
0.06341307 0.026581297 -0.08574163 -0.14365858 -0.015657313 0.0074696797 -0.18560944 -0.19345118
-0.061562058 0.055372145 -0.24313357 -0.12161319 0.07120407 0.053338397 -0.17808372 -0.048770536
-0.13834837 0.037357938 0.08703317 -0.09102101 -0.026695969 0.026487205 -0.16465393 0.030121163
-0.029082732 -0.041275017 -0.03070647 0.023069479 -0.12182473 -0.07527382 -0.03179192 -0.061863456
0.019969175 -0.05838363 -0.29022163 0.027670583 0.056417126 -0.11244599 -0.15532544 0.17471045
-0.22131355 -0.16422634 -0.14649184 0.020399889 0.12030038 0.08065218 0.12057564 -0.009184859
-0.11408694 -0.060207866 0.086475044 -0.000823276 -0.06312495 -0.09732169 -0.11885332 -0.10718915
-0.12753825 0.021790052 -0.0050009973 -0.2663594 0.0792204 -0.099378794 -0.026849132 -0.051495075
-0.21108216 -0.29254335 -0.02114483 -0.21667184 -0.17849459 -0.014686417 -0.062435202 -0.16924734
-0.1766172 0.004481528 0.04256923 0.09065397 0.032704975 0.048853826 -0.16398196 -0.13648787
-0.014655112 -0.1283903 0.17633632 -0.34525955 -0.0994159 -0.026589852 0.20830847 -0.1897834
0.0735907 -0.04880375 -0.030540317 -0.026708819 -0.10465844 0.06881427 0.02290463 -0.2465388
-0.04599435 0.10106974 -0.057391476 0.011114593 -0.03651222 0.20782849 0.032838415 0.00915134
-0.33592403 -0.0033417493 -0.09600194 -0.08718714 -0.07374409 0.08889163 -0.0456521 0.10712317
0.045924205 0.01608152 -0.00094539195 -0.02510558 0.015934242 -0.028999802 -0.119201206 -0.07800692
-0.26955587 -0.06901031 0.10255168 -0.10306653 -0.009119395 0.12563345 -0.09258061 -0.1602461
-0.14064233 -0.004708153 -0.13250697 -0.03794082 -0.09226563 -0.16688736 -0.045683566 0.007181032
0.040387157 0.15970565 -0.070694745 -0.21248472 -0.0672585 -0.27592662 -0.053825844 -0.032574832
-0.124499895 0.03339603 -0.14138392 0.00020330961 -0.09006923 -0.1973661 0.14576046 -0.34622705
0.0017503793 -0.02159215 -0.06688753 0.016785737 0.032922048 -0.224204 -0.09595088 0.06735657

actor.0.bias f4 [64]
00000000: 86fa 07be 5c77 b3bb 0ca0 b0b9 ea9b 00be
00000010: f28e 63bd 1c3c 18be fbee 47bc 7cb3 d13a
00000020: bcd0 dc3b 3a02 08bc 27ab ca3d 371e 2bbe
00000030: e2d8 aabd 18ca 353c c552 04be 1082 16bd
00000040: 0c1c 63be 6396 75bc 49b1 a4bd e218 fc3d
00000050: 2a77 31bd c734 f5bd aa0f 05be 31b2 a3ba
00000060: 5539 573c c483 093e 95cf 753d 6443 72bc
00000070: 71a0 cdbb 5d73 00be a8c5 89bc 2df0 a13d
00000080: d089 70bc 1b7a 06be 864d 8a3d 9e20 12be
00000090: ff68 a93d 68ad 993d 88a2 48bd 0da5 42be
000000a0: 709f 933d 4a5e bebc 41f2 adbd 7be6 8fbc
000000b0: 2e57 fe3d 082e ad3c cf13 2f3e 59ef 71bd
000000c0: caf5 9f3d e06d af3d 5294 d23e 672c 32be
000000d0: e9bc f03d e3c4 f43d c4cc 0a3e 056f 84bd
000000e0: cfb7 e53d 7555 49bd e29b 59be c281 71bd
000000f0: 77e0 9ebd c72d e6bd 1c28 5abd 28b2 4bbd
-0.13279161 -0.005476875 -0.0003368858 -0.12559476 -0.055556245 -0.1486668 -0.0122029735 0.0015998925
0.0067387503 -0.008301312 0.09895926 -0.16710745 -0.08342148 0.011095546 -0.12922199 -0.03674513
-0.22178668 -0.014989468 -0.08041627 0.123094335 -0.043326534 -0.11972957 -0.12994257 -0.0012489018
0.013136228 0.13429171 0.06001242 -0.014786575 -0.0062752296 -0.12544008 -0.016817883 0.07907138
-0.014681295 -0.13132517 0.06753068 -0.14270255 0.082719795 0.07503778 -0.048983127 -0.19008274
0.07208145 -0.02323832 -0.08493472 -0.017565956 0.12418972 0.021140113 0.170974 -0.05906615
0.078105524 0.08565879 0.41128784 -0.1739975 0.11754782 0.11951616 0.13554674 -0.06466488
0.11216699 -0.049153764 -0.21250871 -0.058961637 -0.07757657 -0.112392 -0.053260908 -0.04973045

actor.2.weight f4 [64, 64]
00000000: 3cf2 87bd c776 06be a209 8b3d c877 9bbd
00000010: 64ba 51bc 0e86 8b3d f812 79bd 36c9 a7bd
00000020: 3ef6 21be 4590 903b e6f0 9ebd 885e 30bc
00000030: 5308 9d3c 3c97 60bd 9a94 ad3d 03d0 5abd
00000040: 2055 4cbd 253b ccbd 7857 1b3d 2e71 c4bd
00000050: e840 d73c 3030 79bd 8958 853d d0a3 aebd
00000060: fc38 7cbd fbcc 07bd ccbd bfbd cba3 933b
00000070: cd0b 75bd 1846 843c b9c3 263d 7bd4 ca3c
00000080: 519e 56bd 7ed6 0b3d f8fb fcbd c010 ffbd
00000090: e6df 84bd 8717 fdbd dd20 f0bd 5869 3d3c
000000a0: 9987 9b3d c0c9 80bd 11a9 6bbd 46f1 e0bd
000000b0: 61ef 07bc cb5e 67bb 062c 00bd a334 973d
000000c0: cc72 02be 6035 8cbd e2e0 a6bd 1bd5 963d
000000d0: 995f 953d bcfd b03d 3482 833d f0c7 4a3d
000000e0: 2577 eebd 1ca6 adbd 087a f53c 3dac 03be
000000f0: 1050 3d3d 539b 093d b493 743b b215 01be
00000100: 2a51 b23d 90dc 33bd 2d89 31be 5967 d03d
00000110: ec2e dcbc 2849 ecbd d493 5a3d d46c 90be
00000120: 7eca b1bc 7e01 1f3e 5334 4e3d a558 c43c
00000130: b89e e6bd 1add c8bd e556 e6bd 7b06 8cbd
00000140: 2fb4 1dbe 7558 bc3d ed3c 2d3e 2789 89bd
00000150: 659a 9dbe d1e8 903d 4126 993d 3e32 803d
00000160: 2601 033d 309e f9bd 7c70 8dbd b0b8 73bc
00000170: 537e abbd 0623 1d3b 37bd 63be 37e2 a3bd
00000180: 4cdd 81be b0d6 3abe df75 1bbe eb84 4dbe
00000190: 9251 62be 0839 48be 18e4 203e eec7 c43d
000001a0: 9cca 02be 22c8 a5bc 4a24 333d d89f 86bd
000001b0: 5e1d d6bb d234 5ebe e56a 423d adac c5bd
000001c0: b1a2 1cbe 2911 24bc a272 22be ffc0 ca3c
000001d0: c7ea c33d 7e24 acbe 7fed 89be 2eca c3bc
000001e0: 10a0 40bd 67d4 34be ddbc 043c d85a 533d
000001f0: 805b 4bbe 18d1 f4bb 28a8 88bd 18f2 113d
00000200: 4e1d d8bd 304d 443d 0e88 0ebc 7059 fcbc
00000210: 0da4 833e 82d0 0e3e 479c 783d 0880 97bd
00000220: 912e 2e3e dc7b 09bd edf7 dabc 7feb 57be
00000230: 0e0c 1f3e debc a83d 5ac4 0a3d f41b 243c
00000240: 6fe1 913d c542 d93d d9af cd3d 4d17 963e
00000250: d800 03be 8aa0 cf3d 9937 1dbe 9d90 0c3e
00000260: c93a 14be 7a01 0cbd 7112 823e 6ab7 3d3d
00000270: f5cc 3e3e 2ce3 163d 9a3a 063e 2d25 8b3e
00000280: e893 09be 11e8 d43c ce7c 2abe 40c2 28be
00000290: 9b2b 0bbd 0e5c 42bd 9dda 963d a201 e8bd
000002a0: da99 d03d a8f8 82bd ea4c 3bbd 018d c3bc
000002b0: 604c 42be e128 523c 5b48 2b3e 0a7a 3bbb
000002c0: e22c dc3d 0ebe a83d 9aff 58bb cf22 45bd
000002d0: 942f 77be 1203 86be b80d 8bbd 6284 d7bd
000002e0: 47d1 ffbd ab5f aabd d609 273e 4e53 0a3d
000002f0: 8f78 08bd 5bd2 983d e023 4ebe ba8b 0bbe
00000300: 09f0 973d 3a10 fa3d 71d0 a73d 210e c23d
00000310: 358e c6bd 9158 313e ed17 b9bd ac0a 5ebd
00000320: 52c1 d23d b3eb 183d c11b 9cbe 79c1 33be
00000330: 4455 83be 8311 86bd 3712 09be 2d48 32be
00000340: d622 c4bc 0a39 b63d 924d 1fbc 8010 dbbd
00000350: 7b12 573e f8f3 31bc 9efc 18be a185 3bbe
00000360: 8361 8fbe d758 8f3e 5306 8cbd 81ac 7abd
00000370: 3dbd 0d3d 660f 81bd 0857 1ebc 3ace d7bc
00000380: 2ee0 c43d 1a94 82bb 017a cfbb 4590 183e
00000390: 57b7 40be ea6e 383c 7fc2 cdbc 1dd5 c1bd
000003a0: 2829 0cbe 6a64 c6bc 4eef bfbd 2b20 64be
000003b0: e8ac 1bbc 253f 7fbd f319 28be 53f9 a43c
000003c0: f383 9c3c 99c7 abbb 0a00 83be 432a 6f3d
000003d0: 0c2b 0dbe 1fe3 ccbe 5740 883c 0b34 1fbe
000003e0: e8c7 8cbe eb6d 093e 6068 b3bd 6b35 013d
000003f0: a39a 1e3c 26e5 a4bd 728f 4d3e 847b 213d
-0.066379994 -0.13131247 0.06788947 -0.07591206 -0.012800787 0.06812678 -0.060809106 -0.08192675
-0.1581659 0.0044117295 -0.077607915 -0.0107647255 0.019169008 -0.05483173 0.08475609 -0.05342103
-0.04988587 -0.099722184 0.037925214 -0.095919 0.026276067 -0.06083697 0.06511027 -0.085273385
-0.061577782 -0.03315447 -0.09362373 0.0045056096 -0.059825707 0.016146705 0.040714 0.024759522
-0.052397076 0.034140103 -0.12352747 -0.12454367 -0.06488018 -0.12358003 -0.11725018 0.01156076
0.075942226 -0.06288481 -0.05753428 -0.10983519 -0.0082968185 -0.0035304304 -0.031291984 0.073830865
-0.12739104 -0.06846118 -0.08148362 0.073648654 0.072936244 0.08642146 0.06421319 0.04950708
-0.11643819 -0.084789485 0.029965416 -0.12858672 0.04621893 0.033595394 0.0037319483 -0.12605932
0.08706887 -0.043911517 -0.17337485 0.10175962 -0.026877843 -0.11537391 0.053363636 -0.2820803
-0.021703001 0.15527913 0.05034287 0.02396805 -0.11260742 -0.09807797 -0.112470426 -0.068371736
-0.15400766 0.09196559 0.16917773 -0.06715613 -0.30781856 0.07075656 0.074779995 0.06259583
0.031983517 -0.12188375 -0.0690622 -0.014875576 -0.08373704 0.0023977174 -0.22240148 -0.080021314
-0.2536415 -0.1824596 -0.15181683 -0.20070235 -0.22101429 -0.19553006 0.15712011 0.09608446
-0.12772602 -0.020237032 0.04373578 -0.065734565 -0.0065342626 -0.21699837 0.047465224 -0.09652076
-0.15296437 -0.010013857 -0.15864041 0.02475023 0.095662646 -0.3362159 -0.26939008 -0.023900118
-0.047027647 -0.1765915 0.008101669 0.051600307 -0.19859123 -0.007471215 -0.06672698 0.03563127
-0.105524644 0.047925174 -0.00869943 -0.030804366 0.25711098 0.13946727 0.060695913 -0.07397467
0.17009951 -0.033565387 -0.026729548 -0.21085928 0.15531942 0.082391486 0.03387866 0.01001643
0.07123076 0.106084384 0.10043306 0.29314652 -0.1279329 0.10138042 -0.1535324 0.1372704
-0.1447555 -0.034181096 0.25404695 0.046317495 0.18632872 0.03683774 0.13108292 0.271768
-0.13435328 0.025989564 -0.16649172 -0.1648035 -0.033977132 -0.04745107 0.07365916 -0.113284364
0.10185595 -0.06395084 -0.045727648 -0.023870947 -0.18974447 0.012827129 0.1672682 -0.0028606676
0.10750748 0.08239375 -0.0033111335 -0.0481289 -0.24139243 -0.26174217 -0.06789726 -0.10523297
-0.12491088 -0.083190285 0.16312346 0.03377085 -0.0333181 0.07461997 -0.20130873 -0.1362752
0.0741883 0.12210126 0.08194054 0.09475351 -0.096950926 0.17318942 -0.090377666 -0.054209396
0.10290779 0.037334155 -0.30489925 -0.17554273 -0.2565099 -0.06546309 -0.13385855 -0.17410345
-0.023942392 0.08897598 -0.009723084 -0.106965065 0.21003143 -0.010861389 -0.14940116 -0.18312694
-0.28004083 0.27997467 -0.06837144 -0.06119967 0.0346043 -0.06301765 -0.009664305 -0.026343454
0.096130714 -0.0039849402 -0.0063316827 0.14898784 -0.18819939 0.011256913 -0.025117157 -0.09464476
-0.13687575 -0.024217803 -0.093718156 -0.22277896 -0.009501673 -0.06231608 -0.16416149 0.020138418
0.019105887 -0.0052422998 -0.25585967 0.058389913 -0.13785952 -0.4001703 0.016632242 -0.15547197
-0.27496266 0.13420837 -0.08760142 0.031545084 0.009680423 -0.08051519 0.20074251 0.039424434

actor.2.bias f4 [64]
00000000: 888e bbbd 9a16 c8bd 27a2 503d 37d4 d2bd
00000010: c205 033e a8d2 23bd aa91 0dbe 8ca0 133d
00000020: eea7 b2bd 0e5e 1c3e 52e9 e5bd 2b56 bd3d
00000030: 8ce3 febd 0dc2 f2bd 4440 3dbc 707f fbbb
00000040: 8d15 d33d b55c 853d bf4a 67bd e86c 95bb
00000050: 1f95 cfbd db0b 89bc 29a2 ecbc 27e1 913d
00000060: e85e 153c c125 2a3e ec80 753d f744 94bd
00000070: 3180 38be 76ca 7abc e069 f33c 8316 dfbd
00000080: c4ae 56bd ec4d 4c3d 3f81 e8bc 7e03 79bd
00000090: ab97 d33c 1633 713c de4d ae3d 886f cf3c
000000a0: a6c1 b73d 9463 75bd 0417 00be a0f8 e0bd
000000b0: 8f22 c73d 958b c03d ad08 39be 8cd2 55bd
000000c0: 5952 36bd 8dae f53c 3822 91bc 525f 91bd
000000d0: d9d4 21be bf2a 6a3d 5c42 99bd 6981 c63d
000000e0: 0c56 66bd 19d5 6b3d 42c4 4e3e 0bc8 8abd
000000f0: 8265 34bd ab93 efbc f398 a03d fb01 423d
-0.09158045 -0.09769936 0.05093589 -0.10294383 0.12795165 -0.03999582 -0.13825098 0.03604178
-0.08723436 0.15270254 -0.11226143 0.09244951 -0.12445745 -0.118534185 -0.011550967 -0.007675104
0.10306845 0.06511823 -0.056467768 -0.004560102 -0.101358645 -0.016729286 -0.028885918 0.071230225
0.009116866 0.16615964 0.059937403 -0.072397165 -0.18017651 -0.0153070595 0.029713571 -0.10892966
-0.052412763 0.049879 -0.028381942 -0.060794346 0.025829157 0.0147216525 0.08510946 0.025321737
0.089724824 -0.05990942 -0.1250878 -0.109849215 0.097233884 0.09401623 -0.18069716 -0.052202746
-0.044512127 0.029990459 -0.017716512 -0.07098259 -0.15803851 0.057169672 -0.0748336 0.09692652
-0.056234404 0.057576273 0.20192054 -0.067764364 -0.044042118 -0.029245218 0.07841673 0.04736517

actor.4.weight f4 [36, 64]
00000000: 619b 843c 2d0e b83d 6786 f03d e987 a73e
00000010: 8c74 d2be 069d 81be ff59 163d b43e 833d
00000020: 9f2d 3dbd b06d aa3d 5539 c1bd 05e6 8a3e
00000030: 9a75 3ebd e644 87bd 0cf7 8b3c 876c 143a
00000040: 8712 2fbe 6ab7 f8bc 9ad0 42be 25d8 8f3d
00000050: 74ca 543e 2ac5 d0bd 172a a6bc 7f5d 973e
00000060: 1307 00bf 20b1 82be d717 a63d 459b a23d
00000070: be8d 733d 8bef 91be ffd2 d03e bcc2 f0bd
00000080: e98c 333d b423 16be 37c1 783e 591e 1f3d
00000090: d6ae 193d 60de f43d 51ad 8cbd ec9b b03e
000000a0: d7c8 703d eddb df3d a725 47bc 1341 8ebd
000000b0: c55d dabd 0f6b e8bc c47a 00bd 2ba4 1e3d
000000c0: a2c8 4f3d 281a 723e 7e1b 84bd be3d 00bf
000000d0: f151 ae3d 160a afbe 6ea1 b2bd 4dc1 bf3e
000000e0: 4449 c8bc 374c 7bbe a0b4 ebbe f0f6 68bd
000000f0: 0335 d6be 85a6 5c3d 950a 963e c7b3 0ebe
00000100: b6ef b1bd bb4a 7d3d 622e 893e 205f b53d
00000110: fc26 6c3d 762a da3d ce43 8d3d 080b 9d3e
00000120: 2f61 af3d 3c5d 923e 8116 523d cfe0 ae3e
00000130: 2098 283e 2410 72bd d7e2 053e 8de3 4b3d
00000140: cfae d8bd 2ed6 8d3e 8622 ff3c 4ce5 d33d
00000150: 8be4 2d3e 1f11 f53d 83d4 c43d c3e4 6abe
00000160: 9ebb 84bd 9b4b 3f3e d50c 2fbc e19e 8d3e
00000170: 36fc c23e d2df 58be 85b7 d7bd 6ee8 42bd
00000180: a5cc b3bd fee7 1bbe e091 a83e bde7 1dbe
00000190: cff0 283e 3664 a33e ca3f c03e 8098 07be
000001a0: f05a 733e d7b4 cf3d 54d1 043d 5582 633d
000001b0: 7c71 573c 522e 62bd ea23 a03d ec48 5f3d
000001c0: 8f08 223d 27d9 913e 0eb4 433c c1e4 26be
000001d0: e098 b33e 14e1 853e 513f 293e e8e7 c43d
000001e0: 67f2 f73c 4189 8bbd a8a3 56be c705 cb3e
000001f0: 1a35 2d3e ec1f a53e 2b84 a63e 778f afbd
00000200: 0da1 e03d c9e0 8f3c c417 853e 8a3c 7c3e
00000210: 4f1e 7abe b77c 833d 2d40 133d 92e6 2ebe
00000220: cd54 1b3e ae96 88bd 8313 363d 624e 873d
00000230: 6ae9 3c3e 1ae8 bfbb 5186 ee3d 5131 5ebd
00000240: d63d 81bd b817 de3d cb94 b9bc e0b6 093e
00000250: 38b6 ae3e 8a08 8e3d b718 da3d abc6 293e
00000260: eae4 91be 36f3 f5bd 41ae b23b 5918 793d
00000270: e8b7 bf3d 5dcb d53d a984 c33e e9d3 bebd
00000280: 0b0a c33d 505b 9f3d 2068 bc3e 62fe e9bc
00000290: 78c0 263e 5c25 923d cc6e 46bd f150 653e
000002a0: 8aad 3a3e 81a2 463e 268e ccbc 7fa8 7c3c
000002b0: 08d4 5cbd 87b4 593d b9e9 453e cf68 903d
000002c0: 0646 093e 2463 143e 339e 87bd b802 393d
000002d0: 8a7d b83d f594 a3bd 24f9 813d 34da b73e
000002e0: 00f6 57bd d0c7 3ebe 9088 80be 21a4 8bbd
000002f0: da03 27be c596 fc3d 83f9 d8bc d7b5 afbe
00000300: 8634 dd3d 68c2 30bc 36e0 48bc 3c9b 513e
00000310: cfb4 11be d3b6 7b3d 8177 b13d 859a 06be
00000320: 5ad0 303d 97f4 25bd 20d1 a73d 9c27 5bbe
00000330: 177d 3b3e 2c42 c6bc 6037 9a3d 6855 ba3d
00000340: aa36 a4be bc09 fe3d e7d9 19be 565c 84bd
00000350: a70c 74be d142 803d d5d8 cb3b d34c 2d3e
00000360: b7b7 84bc ed45 b1be 7060 e2bc 69f6 463d
00000370: 29a0 89bd f1c8 fb3c c0fb e73e 01f5 03bd
00000380: faba a23e 0b82 aa3e 411e 063e 46ee ac3d
00000390: e317 22be f1fd 013e b73f 6abd c836 023e
000003a0: a619 e8bd e5d4 393e 9097 483d 77ba 7cbd
000003b0: 624a c1bd 3b26 10bd f3a0 e73d 515e a5bd
000003c0: 33f1 9cbd 62ec b73d a94f 6ebb 8f34 15be
000003d0: 16c0 723e 94d6 3fbe efeb cebd da56 c63e
000003e0: 95c4 ee3d 18f9 a8bd c943 91be 133c 7cbd
000003f0: 305e a6be 0af8 a73d 6f72 09be f1ce c9be
0.016187372 0.08987079 0.11744385 0.3272088 -0.41104543 -0.25315112 0.03670692 0.06408444
-0.046186086 0.083217025 -0.09434763 0.27128616 -0.046498872 -0.06604938 0.017085575 0.0005661924
-0.17096911 -0.030360896 -0.19024888 0.07023648 0.20780355 -0.10193856 -0.020283742 0.2956352
-0.50010794 -0.2552576 0.08110016 0.079397716 0.059461348 -0.2850307 0.40785977 -0.11755893
0.043835554 -0.14662057 0.24292456 0.0388473 0.037520252 0.11956477 -0.06868995 0.3449396
0.058785286 0.109306194 -0.012154973 -0.06946006 -0.10662416 -0.028371362 -0.03136708 0.03873078
0.050728448 0.2364279 -0.06450556 -0.5009421 0.08511723 -0.34187382 -0.087221965 0.37452164
-0.024448998 -0.24540792 -0.46036243 -0.056876123 -0.4183732 0.053869743 0.29304948 -0.13935767
-0.08688299 0.061838847 0.267932 0.08856034 0.057654366 0.1065263 0.06897698 0.3067248
0.08563458 0.28586757 0.051290993 0.3415589 0.16464281 -0.059097424 0.13074814 0.049777556
-0.10580217 0.2770247 0.031144392 0.10346469 0.16981713 0.11966156 0.09610846 -0.22938828
-0.06481098 0.18681185 -0.010684212 0.27660277 0.38083047 -0.2117913 -0.105330504 -0.047584943
-0.08779267 -0.15225217 0.32923794 -0.15420432 0.16498111 0.31912392 0.37548667 -0.13241768
0.23765159 0.10141914 0.032426193 0.055544216 0.013149615 -0.055219956 0.0781935 0.054512903
0.039558943 0.28485987 0.011944784 -0.162982 0.35077572 0.26148283 0.1652806 0.09614545
0.030266954 -0.068132885 -0.20960867 0.39652845 0.16914788 0.32250917 0.3252271 -0.085722856
0.10968218 0.01756324 0.25994694 0.24632469 -0.24425624 0.06420272 0.035949875 -0.17080143
0.15169068 -0.06669365 0.0444522 0.06606747 0.18448415 -0.005856526 0.116467126 -0.05424625
-0.063106224 0.10844368 -0.022653958 0.13448668 0.34123397 0.069352224 0.10649245 0.16579692
-0.2849496 -0.120092794 0.0054529016 0.060814235 0.09361249 0.10439179 0.3818715 -0.093177624
0.095234 0.07781088 0.3679819 -0.028563682 0.16284359 0.07136032 -0.048445508 0.22394158
0.18230262 0.19397928 -0.024970125 0.015421032 -0.053913146 0.05315068 0.1932744 0.07051241
0.13405618 0.14490944 -0.06621971 0.04516861 0.0900832 -0.07987396 0.06346348 0.35908663
-0.05272484 -0.1863091 -0.2510419 -0.068184145 -0.16310063 0.123334445 -0.026486164 -0.3431842
0.10801034 -0.010788538 -0.012260487 0.20469373 -0.14229129 0.06145365 0.08665372 -0.13144882
0.04316745 -0.040516462 0.08194184 -0.21401829 0.18309437 -0.024201475 0.07530093 0.09098321
-0.32072955 0.124042004 -0.1502453 -0.06462924 -0.23832951 0.06262744 0.0062209168 0.16923837
-0.016200883 -0.34623662 -0.027633876 0.04857484 -0.06720001 0.030735465 0.45309258 -0.032216076
0.31783277 0.3330234 0.13097478 0.084438846 -0.15829425 0.12694527 -0.05718967 0.1271621
-0.11333017 0.18147619 0.048972666 -0.061701264 -0.094380155 -0.03519271 0.113099955 -0.0807463
-0.076631926 0.08980633 -0.00363634 -0.14570831 0.23706087 -0.18734199 -0.101035945 0.38738137
0.11658589 -0.08250636 -0.28372028 -0.06158073 -0.32493734 0.082016066 -0.13422559 -0.39415696

actor.4.bias f4 [36]
00000000: b405 b1bc 47af c43d ca9e b33d f754 e3bc
00000010: 19a2 af3d 6cee a5bd 08d5 323e 9744 103e
00000020: 215b 01be f99d 1abe e10a c9be e162 033c
00000030: 4978 963d 442d a43d 1708 b83d 86d0 edbb
00000040: 8432 203e 9ac7 5b3d 432d acbc f7ab 1d3e
00000050: 02ed b2bd c8c2 89bc 80ba 4c3c 64fd 2ebe
00000060: a8f6 3abd 5236 cb3d 63c6 f33d 2d72 803d
00000070: 2f5e 17be 1b5e 4c3e 22e6 8bbc e3d4 613d
00000080: a26a f03c 4b2c 683d 41c6 003e e6b2 a93e
-0.021609165 0.09603744 0.08770521 -0.027750475 0.085758395 -0.08102116 0.17464077 0.14088665
-0.12632419 -0.15099324 -0.39266112 0.00801918 0.07347161 0.08016446 0.08985918 -0.007257524
0.1564427 0.05365715 -0.021017676 0.1539763 -0.08736612 -0.016816512 0.012495637 -0.17088848
-0.045645386 0.0992247 0.11903074 0.06271777 -0.14782022 0.19957773 -0.01707751 0.055134665
0.029347721 0.056682866 0.12575628 0.331443

critic.0.weight f4 [64, 62]
00000000: c860 9c3d 6a19 ab3d 31d8 abbd 6c5b 1b3c
00000010: ec7a 713c 5fdc 49bd 8355 00be 42b5 8bbd
00000020: e8d4 ddbd c4b5 5cbd 0a32 b1bc ebf5 62bd
00000030: 2ce2 eabd a5c9 f3bd e21f 10be 3aad 03be
00000040: fe10 09bc ab20 ddbd 13fe f7bd c876 b63d
00000050: 0c4a bbbd 7c17 b63d d610 103c 3e3c 98bc
00000060: ef3e c93d 2717 cbbd c034 793d b399 ad3d
00000070: 4921 d03d 6f23 5cbe 0140 983c af97 37bd
00000080: f2fb c0bd 9aa3 b13d 5232 b7bc 73eb af3d
00000090: 160d 8cbd 74b4 66bd 4bcf ea3d f7cf 27ba
000000a0: be09 da3d 1814 8d3d fc22 173e e5b2 28bd
000000b0: c14f 1f3e d7d2 623e 5e2c 173c b057 52bd
000000c0: 23b6 c73d 5f64 02be 52fd 96bd 84ad dabd
000000d0: 12b7 003d bbd1 d2bc f24e 53bd c548 fdbd
000000e0: c0f2 53bc 8a36 303d 6610 6bbd 3c5a 87bd
000000f0: e3dc ffbd e50e d5bd dd19 e7bd ccbf 833d
00000100: 2839 8dbc 1325 4dbd ee85 13bd 6a38 d13e
00000110: a99b 88bd 63af 4ebc 2940 c3bd 6cbe 79be
00000120: 9836 963d ca37 803e db87 8dbe 91bd b9bd
00000130: 03d5 bb3d ca20 21bc a3f5 d43d fb2e df3d
00000140: bf91 8b3d 4504 dfbb 5d60 05bd 7659 f8bd
00000150: e2da 883d 00cd ebbc a810 a33c edf3 eabc
00000160: 15fc a73d bd3a 843b e3c4 0f3d 2c2d acbd
00000170: 16ce 8f3a fcee e43d 73dd 703d 5f54 99bd
00000180: b5e9 b63d e77b c93d 289b 19bd a7aa d2bd
00000190: b008 293e e911 473e 173d c5bd 672d abbc
000001a0: 915a 323d 1faf e5bd b562 94bd d47f c8bd
000001b0: d9ca c4bd 9e24 993d 3c67 483e 2436 5bbd
000001c0: cb02 15bd 6f96 a13d b01b 3fbd d624 93bd
000001d0: aa67 1bbe f733 7fbe ffb5 82bc 8e46 483d
000001e0: 84c9 f1bd 9ee1 a3bb 7a7f 9dbc 7316 223e
000001f0: 1a4f d7bd 1423 a33d 1f64 d73d 2324 473d
00000200: 752e 02be 53f4 acbc 93b5 0bbe 8dd5 cabd
00000210: 9d62 cd3c 28d6 bbbc 7925 0b3e dfb4 9c3d
00000220: 5485 71bd 9b4c a8bc fe0f 01be 72ca 11be
00000230: 011f a3bc 0aa1 99bd de74 f23d 9b83 d3bd
00000240: 2bc6 f23d 77ec afbc ce58 bc3c 047c e23d
00000250: c3b2 70bd adbd 40bd c437 573d c2ca 03bd
00000260: b768 0abc b60b 863d 3234 96bc cff6 993d
00000270: a6e6 63bd c67e 533d fd69 493c 220e c8bd
00000280: d328 4fbd edf7 62bb 6b2a 4bbe 6c6f f63d
00000290: f271 eabd e0b0 373d a144 cd3a 2be6 a4bd
000002a0: 8958 b73c 0070 afbd bee5 94bd 84ca 7ebd
000002b0: 5773 3cbe 93b1 8a3c c1bc 04be 2f8b 2c3d
000002c0: de67 773d dc6f 2f3d b539 4fbc 708e a6bc
000002d0: 12f4 5cbe b5a2 e9bb f35d 81bd cf8d 523d
000002e0: e81a ef3c 9238 b8bc 5d8e ebbd c211 efbd
000002f0: 8dab d9bd 5cf5 b53d da2f babe 9a2a 9dbe
00000300: bcdb 76be 866b bd3e eaa0 2dbd 69d8 28be
00000310: 03c2 bbbd 36ad ba3d a059 c43d e1fa 2a3e
00000320: 494a 80bd 80b2 a43b 915f 1bbd 4b6d a1bd
00000330: 82c9 abbd 4523 b83d daa5 ac3c 59b8 2a3d
00000340: d503 bdbd b2e2 c03c 8db4 e73d 4d75 8e3d
00000350: 4c09 b6bb 3779 6fbd a781 5b3e 1e17 36be
00000360: 4b06 d2bc b3f9 183e 0b87 13bd a704 a4bb
00000370: 5bdd f4bc 8e49 9abd 1589 62bc f59a 023d
00000380: 5de5 55be 7e03 ef3d 64d8 3ebd aac7 00be
00000390: b02c 10bc 250f 92bd c199 acbe 41c4 83be
000003a0: 3a6f 8a3d 08a0 0c3e bfb7 c2be 25d4 85be
000003b0: 8137 1c3e b124 813d bd15 b73d 6cd4 74bd
000003c0: 9452 46be 591a 13bd c7d2 50bd 1347 a0bc
000003d0: 2764 b7bd 57e9 98bd 49c2 fb3c f9b2 a13c
000003e0: 3ef8 8b3d 0179 b83d d02e eabd c831 a8bd
000003f0: dcd2 2a3c 755c bbbd 6136 cb3d c75e 8a3d
0.07635647 0.08354457 -0.083908446 0.009482246 0.0147387795 -0.049282428 -0.1253262 -0.068216816
-0.10831624 -0.053884283 -0.021630306 -0.055410307 -0.1146892 -0.11903695 -0.14074662 -0.1285905
-0.008365868 -0.107972465 -0.12109008 0.089093745 -0.09144983 0.08891198 0.0087930765 -0.018583413
0.09826457 -0.09916525 0.060841322 0.084765814 0.10162599 -0.21497892 0.018585207 -0.04482239
-0.09423055 0.08673783 -0.022362862 0.0858983 -0.068384334 -0.056324437 0.11465319 -0.00064015336
0.106463894 0.06888598 0.14759439 -0.041186232 0.15557767 0.22150742 0.009226887 -0.051353157
0.09751537 -0.12733601 -0.07372536 -0.10677627 0.03142459 -0.025734773 -0.05158896 -0.12367395
-0.012936294 0.043020763 -0.057388686 -0.06609008 -0.12493303 -0.104032315 -0.1128423 0.06433067
-0.017239168 -0.050084185 -0.036016397 0.40863353 -0.06670315 -0.012615058 -0.09533722 -0.24389046
0.07334632 0.25042564 -0.27642712 -0.0906936 0.09171488 -0.009834478 0.10398414 0.10897633
0.06814908 -0.006805929 -0.032562602 -0.12126438 0.066823736 -0.028784275 0.019905403 -0.028680766
0.08202378 0.0040353225 0.035099875 -0.08407053 0.0010971453 0.11178395 0.05880494 -0.07486796
0.08931295 0.098380856 -0.037501484 -0.102864556 0.1650722 0.19440426 -0.096307926 -0.020895673
0.043543402 -0.11215042 -0.07245389 -0.09790006 -0.096090026 0.07477687 0.19570631 -0.05351843
-0.036379617 0.07890021 -0.046657264 -0.0718476 -0.15176263 -0.24922167 -0.015955923 0.04889541
-0.11806014 -0.005001261 -0.019225825 0.15828876 -0.10513134 0.07965675 0.105171435 0.048618447
-0.12713034 -0.021112597 -0.13643484 -0.09904013 0.025071437 -0.022929266 0.13588513 0.07651686
-0.058965042 -0.02054434 -0.12603757 -0.14237383 -0.019912245 -0.07501419 0.11838697 -0.10327836
0.11854204 -0.02147506 0.022991564 0.1105881 -0.05876423 -0.04705589 0.052543417 -0.032175787
-0.0084478175 0.065452024 -0.018335436 0.07517778 -0.055639885 0.051634572 0.012293336 -0.097683206
-0.050576042 -0.0034632639 -0.198404 0.12032971 -0.114475146 0.044846416 0.0015660712 -0.080517136
0.022381084 -0.08566284 -0.07270382 -0.062204853 -0.18403374 0.016930377 -0.12962629 0.042124923
0.06040179 0.042831287 -0.012648036 -0.020331591 -0.2157748 -0.007129992 -0.063167475 0.05140477
0.029187635 -0.022487912 -0.11501763 -0.11673309 -0.10628424 0.08884689 -0.36364633 -0.30696565
-0.2410726 0.36996096 -0.042389788 -0.16488804 -0.09167864 0.091150686 0.09587407 0.16697265
-0.06264169 0.0050261617 -0.037932936 -0.07882174 -0.08388044 0.08991102 0.021075178 0.041679714
-0.092292465 0.023545597 0.11313734 0.06955967 -0.0055553075 -0.05846521 0.21436177 -0.17782256
-0.025637766 0.14939003 -0.03601746 -0.0050054374 -0.029890707 -0.07533561 -0.013826628 0.03188606
-0.20888276 0.11670588 -0.046593085 -0.12576166 -0.008799717 -0.07131795 -0.33711055 -0.25735667
0.06759496 0.13732922 -0.38030812 -0.26138416 0.15255548 0.063058265 0.08939693 -0.059772894
-0.19367439 -0.0359138 -0.050982263 -0.01956514 -0.089546494 -0.07466381 0.03073229 0.019738661
0.06834458 0.09007455 -0.1143471 -0.0821262 0.010426249 -0.09148494 0.09922481 0.067563586

critic.0.bias f4 [64]
00000000: f0d8 50be a0c6 81bc 7a76 24be b5cd 95bd
00000010: e8c5 fcbd ef5a 81bd 6fb2 19bd 81a7 3cbe
00000020: e68f 41be dc38 393d e2eb 15bb 7016 94bd
00000030: 1217 86bd 081d 0f3d df91 36bd de21 853c
00000040: fe89 09be c21e 113e ee42 9ebd 01d6 b83d
00000050: 5306 3fbe 3df5 30be daed 2b3c a8e0 043d
00000060: f4ce e73c bad4 54be 87a8 40be 5fba d33d
00000070: a23d 583d 5adf b93d a2b7 bbbd 56c6 cebd
00000080: 27f6 a3bd ff6f 86bd 7c9c a0bd 4b53 503d
00000090: 7e88 1cbd 8d77 0a3e d467 e23b 96f0 d53d
000000a0: 8a95 2bbd af75 adbd 840f 99bd 1beb a4bd
000000b0: cb29 4bbe 162a 01be b39c c43c bb80 04be
000000c0: 70bc c83d 08c4 443d 6c70 313d bb88 743c
000000d0: c96a 5ebd ae16 95ba 4e22 c3bd c8a8 49be
000000e0: e7d1 243e 90bb 84bd e4a0 a9bd c2d5 06be
000000f0: 4993 a53d 2123 2dbe d324 dabd 74b6 2ebd
-0.20395255 -0.015841782 -0.1606082 -0.07314626 -0.12342435 -0.06316172 -0.037523683 -0.18423273
-0.18902549 0.04522024 -0.0022876193 -0.07230842 -0.06547369 0.034939796 -0.044572707 0.0162515
-0.13431546 0.1417189 -0.077276096 0.09025193 -0.18654756 -0.17281051 0.01049372 0.03244081
0.028296925 -0.20784274 -0.18814288 0.10338282 0.052793153 0.09075804 -0.091658846 -0.10096423
-0.08005934 -0.0656433 -0.07842347 0.050860684 -0.038216107 0.13522168 0.00690935 0.10446279
-0.04189066 -0.08469712 -0.074736625 -0.08052655 -0.19840162 -0.12613711 0.024000501 -0.12939732
0.098015666 0.048038512 0.043320104 0.014925177 -0.054301057 -0.0011374557 -0.095280275 -0.19693291
0.16095696 -0.06481087 -0.082826406 -0.1316748 0.08084733 -0.16907932 -0.10651555 -0.04265447

critic.2.weight f4 [64, 64]
00000000: 72a2 c4bd d0b1 483e ba29 843c 7943 123e
00000010: cef3 03bd 1f7d 68bc e739 183d e295 ed3d
00000020: 4133 fcbd 8dfa c0bd 0251 b33c 2955 a23e
00000030: 1153 2dbc 6d34 843e 9a97 ad3d 36fd cc3d
00000040: 29d2 483c eb56 973e 18a3 f83c 46e6 363e
00000050: a9d9 3ebc c51e 5cbd 89cc b73d c7a1 d83d
00000060: e992 48be c837 a1bc 28ae 073d 6b06 133e
00000070: b659 81be f51a 9d3e f813 5dbd cf57 173d
00000080: efc5 88bd 1b7b 86bd 1d1f 0bbb 96e0 283e
00000090: 2a31 25be ba60 663e 7b7a c63d d1b5 3dbe
000000a0: b389 61bd 9411 253e ac53 a23e 1b52 8cbd
000000b0: 9f45 8dbd 98a3 09be ebc6 8f3d e4b4 bd3c
000000c0: 90e1 543e bedf b7bd 2cf8 10bd 7830 633e
000000d0: f055 bcbc 36eb 3c3e d140 563e 347a 93bc
000000e0: f126 893e a576 d53d ae1e 243d f318 a0bd
000000f0: c6b1 573d c29c a2bd 8909 273e ecdb 103e
00000100: e049 6dbc 8b92 1e3b b5da 91bc 33f5 cebc
00000110: 6ac2 b3bd 1667 91bd 05ff a7bd 8c04 d23d
00000120: d942 5dbd 652c c7bd a0bc d4bd 0733 fcbd
00000130: cbc0 39bd 738d 88bd 9f4e d7bd a5f1 72bd
00000140: 2c15 a93d 3c9b e3bd 5a7d f6bc 495c 9e3d
00000150: c7e7 8a3d f2fc 5c3c b260 0d3d e3f9 6bbd
00000160: 49db e7bd 4e0c b7bd 0c67 b6bd b696 863d
00000170: f4da 52bc 3cae 0bbe aa71 0cbe 7cfb d6bc
00000180: 741a 903d f6e5 afba 899e f23b 9f57 19bd
00000190: bc80 1dbd dd7a 623d 25d7 d33c 9505 02bd
000001a0: 50cf ff3d 1e0f 963d f350 f33c 96f0 fe3c
000001b0: 8553 883d e364 00bd 95ce 48bc 6b18 53bd
000001c0: b5ac 7bbd 8077 4abc ab7d c8bd a0a9 903d
000001d0: e3f4 cebd 9485 cebd 1a65 fbbc 1940 883d
000001e0: e466 9bbd e48c 00bd 8faa 663d d8d5 e7bd
000001f0: 1d05 d83d cfcc 613d 8496 7d3c 8e5f 653b
00000200: 9c17 b43c 2e63 e4bd 08f1 caba 9759 923d
00000210: 2af5 f5bd fce2 063d ebcc 9d3b 6257 963c
00000220: 2b70 25be 21e0 11bc 7bc6 77bc 4a76 00be
00000230: da5d cdbd 7f1d 8ebd 77ed 7d3d 3dcc c2bc
00000240: c67a c2bd 7834 d33a 769f febc f420 c3bd
00000250: 61ac 513d 669d 263d 1c47 d63d e12b c63d
00000260: 0440 a5bd c9ff ba3d e833 85bb d3ea ffbd
00000270: 7e8c 6e3d 0677 21be 725c 683d 0450 c2bd
00000280: 026f 0bbe 9caa f4bc b977 173d bdab 24be
00000290: 35a5 bf3b 5dc0 a0bd 0ef3 913d 8054 7bbd
000002a0: c0f2 d93d 4b70 b3bc c697 dd3b ee5f a9bc
000002b0: 3dc5 64bc e119 5fbe 82cb 88bd f41d 813d
000002c0: 6f5e 873d e202 debc 8ab6 89bd 1101 bfbd
000002d0: e8e2 993d 2ad8 1cbe a10d 07bb 8341 483d
000002e0: f950 d1bd b615 90bd e9aa 2abe a2ea 9dbd
000002f0: 52bd efbd efe9 abbd ea56 513d 3297 12be
00000300: 3b77 953d dc7c 81bd 2f54 92bd 6fc8 8fbc
00000310: 62b0 203c e96a 24bd 0533 813e c771 2e3c
00000320: cce6 8fbe bb0a 243c 94c2 bc3d 0728 d6bd
00000330: ddc9 a83d a5b7 43be b4cd 1e3c 04c8 dd3c
00000340: a257 2b3d 16d6 83bb 71b5 943d 0441 583e
00000350: 4ffd 793d 2416 e13d cc6d 79bd 0981 5dbd
00000360: 4d87 e4bc 38b8 ebbd 5c61 08bd 6a32 9bbd
00000370: fcf8 7d3d 86bc 06be 5704 2ebd afb0 1fbe
00000380: 1566 cfbd 22b2 133d 3f57 85bd 651d 82be
00000390: 675d 643e bad1 1dbd bfcc 0dbe 5322 13be
000003a0: 9da9 93be b10d 403c 9368 dcbd e81c 013e
000003b0: 18ec 6dbd cd93 093e 50e3 0ebe d884 02bd
000003c0: 2e33 38bd 2c1d 193e f0f4 b83d 4448 0dbd
000003d0: 907d ad3d 3cfc d4bd 55d8 86bc bade 033e
000003e0: ba31 043d bc42 8f3e b4cd e0bd 4fd8 5cbe
000003f0: d145 03be 21eb 73bd 0640 243e fa7e adba
-0.096012965 0.1959908 0.016133178 0.14283551 -0.032214932 -0.014189987 0.037164595 0.116008535
-0.123144634 -0.09422789 0.021889213 0.31705597 -0.010578887 0.25821248 0.08476181 0.10009234
0.012257137 0.295585 0.030351207 0.1786128 -0.011648574 -0.05374028 0.08974559 0.105777316
-0.19587292 -0.019679919 0.033125073 0.14357917 -0.25263757 0.3068463 -0.05397412 0.036948975
-0.06678378 -0.06566449 -0.0021228262 0.16491923 -0.16132036 0.22497836 0.0969133 -0.18526389
-0.05506296 0.16119987 0.31704462 -0.06851598 -0.06898045 -0.13441312 0.070203625 0.023157544
0.2078917 -0.08978222 -0.035392925 0.22186458 -0.022990197 0.18449101 0.20923163 -0.018002607
0.26787522 0.1042302 0.04006832 -0.07817259 0.052659772 -0.079400554 0.16312231 0.14146394
-0.014482945 0.0024196233 -0.017804483 -0.025263404 -0.08777316 -0.0709974 -0.08202938 0.102547735
-0.05401883 -0.097252645 -0.1038754 -0.1231442 -0.045349877 -0.06667604 -0.10513043 -0.05931248
0.08255991 -0.11113593 -0.03008907 0.07732446 0.06782489 0.013488041 0.034516044 -0.057611357
-0.11321122 -0.08937894 -0.089063734 0.065717146 -0.012869585 -0.13640684 -0.13715234 -0.026242964
0.070362955 -0.0013419974 0.007404153 -0.037437078 -0.03845285 0.055292953 0.025859425 -0.031743605
0.124907136 0.07327102 0.029701686 0.03112058 0.06656555 -0.031346213 -0.012256284 -0.05153696
-0.061444003 -0.012357593 -0.09789594 0.070636034 -0.10105302 -0.10084072 -0.030687857 0.06652851
-0.07587984 -0.031384364 0.056315 -0.11320084 0.1054785 0.05512696 0.01547778 0.0034999582
0.021983914 -0.111517295 -0.001548321 0.07145994 -0.12009652 0.032931313 0.004815688 0.018352214
-0.1615607 -0.008903534 -0.015123005 -0.12545124 -0.100276664 -0.0693922 0.061994042 -0.023779029
-0.094960734 0.0016113659 -0.031081896 -0.0952777 0.051189784 0.04067745 0.10462782 0.09676338
-0.08068851 0.091308184 -0.0040650256 -0.12495961 0.058239453 -0.1576806 0.056728788 -0.09487918
-0.13616565 -0.02986651 0.03697941 -0.16081138 0.0058485516 -0.078491904 0.07126437 -0.061359882
0.10642004 -0.021904131 0.0067624776 -0.020675626 -0.013963041 -0.21787216 -0.06679441 0.06304541
0.06609809 -0.027100984 -0.0672427 -0.09326375 0.07513982 -0.15316835 -0.0020607489 0.0488906
-0.102205224 -0.07035391 -0.1666676 -0.07710768 -0.11706032 -0.08394229 0.05110828 -0.14315489
0.07298132 -0.06322643 -0.07144963 -0.017551629 0.009807678 -0.04014102 0.25234237 0.010647244
-0.28105772 0.010012324 0.092168 -0.10456853 0.08241627 -0.19113024 0.009692598 0.027072914
0.04183162 -0.0040233238 0.0726117 0.21118551 0.06103259 0.10990551 -0.060895726 -0.054078136
-0.027896548 -0.11509746 -0.033295974 -0.07577975 0.062005028 -0.13157853 -0.042484608 -0.15594743
-0.101268925 0.036058553 -0.065107815 -0.2541305 0.22301255 -0.03853009 -0.13847636 -0.14368562
-0.28840342 0.011722014 -0.107621334 0.12608683 -0.058086485 0.13435288 -0.139539 -0.03186497
-0.044970684 0.14952534 0.09031093 -0.034492746 0.08471215 -0.103996724 -0.016460577 0.12877932
0.032273985 0.27980602 -0.10976735 -0.2156689 -0.12819602 -0.05955041 0.16040048 -0.0013236695

critic.2.bias f4 [64]
00000000: 2856 333e 24bc a4bd d19e b9bd 8301 5bbd
00000010: 99ed 6b3c 822b 1abe 93af cdbd fcaa 15be
00000020: e8d0 16be 18b9 0ebe 5bbf e3bc a414 303d
00000030: ef54 08bd 88b3 073e cb07 63bd 348c 10bd
00000040: 0970 bbbd 34ee eebd fd98 17bd ba8e 47bd
00000050: ad8a fd3c 70fd 9cbc a9ca 3abe e793 eebb
00000060: 302d 01bd 716b 3ebe ade4 02be 0ae3 0dbd
00000070: 5f19 7fbd 4442 ab3c 7a1e cdbd 9991 82bd
00000080: addd a4bd 479d dcbd fdb6 963d 1207 dbbc
00000090: 473d 00be 348d 693d 49b9 ed3d 9e10 f1bd
000000a0: 1381 48bd 3294 c6bd 3326 65bd 523f 68bd
000000b0: 2619 46be 7868 ef3d 6d74 04be 3bdb 2dbd
000000c0: bcf6 babc 0b3b 5db9 a529 a33d ba9c 0d3d
000000d0: 2070 c7bd 0f4f cdbd b894 d0bd 320c 763c
000000e0: ad83 293e 301a 833b 7f91 1fbd 7770 b0bd
000000f0: 5cd3 16be c56c 62bd 6c12 a8bd e6c6 03be
0.17513335 -0.080436975 -0.09063495 -0.05346824 0.014399909 -0.1505566 -0.10043254 -0.14616007
-0.14728129 -0.13937795 -0.027801206 0.042988434 -0.033284124 0.1325208 -0.055427354 -0.035289958
-0.091522284 -0.116665274 -0.037011135 -0.0487201 0.030949915 -0.019163817 -0.18241371 -0.007280815
-0.031537235 -0.18595673 -0.12782545 -0.03464035 -0.062280055 0.020905621 -0.100155786 -0.06375427
-0.08050094 -0.10772186 0.07359121 -0.02673677 -0.12523375 0.057019427 0.11607606 -0.117707476
-0.04895122 -0.09696235 -0.055944633 -0.056701012 -0.19345531 0.11689848 -0.12935038 -0.042445403
-0.02282273 -0.00021098198 0.079669274 0.034573294 -0.09738183 -0.10024845 -0.10184616 0.015017556
0.16554137 0.0040009245 -0.038957115 -0.08615201 -0.14729065 -0.055279512 -0.08206639 -0.12868842

critic.4.weight f4 [1, 64]
00000000: ff77 1fbe 6289 ac3c 7eb5 1a3c 7cde 603d
00000010: 3ba2 f8bd 79a6 1d3c 6cac 59bc a115 8b3d
00000020: 4619 083d 2f67 553b 01f3 1cbc bd89 913b
00000030: 9bf7 46bb 077d 783d 26db 01bd bb3e 8dbb
00000040: b3b6 c8bc 0f44 26bc a2bd 1abb d656 9a3c
00000050: 9c50 f5bc a8ea f83a 531f 33bd 624a e53d
00000060: 33db a93a c53b ef3a b89d 143d 4acc 12be
00000070: e656 3638 f4c8 81bc 286e f43b ca06 323d
00000080: ff01 e83c 87dd 903d a24c b6bc 13e1 8fbc
00000090: d48f 0abc e468 11be fbb2 16be 4edd 6b3d
000000a0: d234 46bc 50f7 e83d 5b6d fa3d be32 52bb
000000b0: 37bf 7bbb 8473 00be 88c9 87bb a16f 113d
000000c0: 8750 adbc 3b0c 49bb 6658 a8bd fdf3 a03d
000000d0: c762 4e3d ab6d 073c 359d 123b bfca a5bc
000000e0: f0b9 b63d 78aa c03d cf9c 22bd 50ff 5abb
000000f0: 022e 7d3c 2424 bfbc 96d0 cabb c7a0 80bd
-0.15573119 0.021061603 0.009442685 0.054899678 -0.12140318 0.00962221 -0.0132857375 0.06791235
0.033227228 0.0032562723 -0.009579421 0.0044414685 -0.0030359987 0.06066611 -0.031703137 -0.0043104566
-0.02450118 -0.010148062 -0.0023611565 0.018840235 -0.029945664 0.0018990831 -0.043731045 0.11195828
0.0012959003 0.0018252066 0.036283225 -0.14335743 4.3473112e-05 -0.015842892 0.0074594207 0.043463506
0.028321264 0.07073503 -0.022253338 -0.017563378 -0.008457143 -0.14200169 -0.14716713 0.0575841
-0.012097554 0.11375296 0.12227889 -0.0032073702 -0.0038413533 -0.12544066 -0.0041438974 0.03550685
-0.021156562 -0.0030677456 -0.08219986 0.07859037 0.05038717 0.008265893 0.0022371535 -0.020238278
0.089221835 0.09407514 -0.039700326 -0.0033416338 0.015452864 -0.023332663 -0.006189416 -0.06280666
