RL/CC2-Cardiff-implementation/GT-Cardiff-CC2/Models/PPOxCCE-C2/5000.pth (torch, 78850 bytes, 11 tensors)

actor.0.weight f4 [64, 62]
00000000: ed40 79ba e786 8b3d 2a12 d6bd 3c6a bfbd
00000010: a545 22be dc08 1bbe e21a cbbd d6d0 333d
00000020: fadf a5bd 0b2d 0ebd 4c13 aabc 7ed7 373c
00000030: 84ea 083e 7d7b 6ebd 4421 8abe 8c21 2cbe
00000040: 81a6 4d3d 4d10 9c3d 7754 b0bd 4686 62bd
00000050: 5df1 3c3d 15fb d73d 861c d6bc 12a2 c23d
00000060: 58b1 a7bc c02c 5c3c cf82 eb3d 9948 f1bd
00000070: 7ce5 1bbe 7eb2 46be ac4a 9cbe d130 e43d
00000080: cf96 a8bd 3376 6fbd b9b6 b5bd 9498 f3bd
00000090: 32d1 18be 978b 0b3d 497e 28bd c352 19bd
000000a0: afa7 10bc 4538 dfbc 54c9 9ebd 063c 2cbe
000000b0: 3488 8cbd ecd7 3cba c5b3 303e 957e 023e
000000c0: bee9 c8bd 31f3 19bd 5cb8 2cbd 02fe a23c
000000d0: 8474 4e3d 620a 77bd e171 563c dcdf c9bd
000000e0: a5ed 5dbe 70a7 c9bd 2578 19be 9513 b7bd
000000f0: ddf4 f3ba dbae 93bd 9411 9abd 6327 1d3d
00000100: 1bc9 8e3d 8d50 83bc b45d 8ebe 66e5 e3bd
00000110: b6e2 6bbd 5ee5 733e d385 f53e df34 853e
00000120: 93b8 133e 3739 0d3f 72a5 4a3d 2eaa b4bd
00000130: b11b ccbd c1a6 abbd 4d6a 3f3c b5b7 a2bd
00000140: d565 f2bd f417 e73d 48c4 c53d 05ba 01be
00000150: 23bb c23c 6643 afbc fb34 abbc 271f 6ebd
00000160: 120b 483d 510e 9abd a3fe 0fbe b570 683d
00000170: 9d1e cc3c 6158 bebd 95b6 00be 40b9 a8bd
00000180: b6de 813d 05c1 d93c 4f99 afbd 3c1b 13be
00000190: 55c1 543c a032 853a 6710 3ebe 1118 46be
000001a0: bfe2 7cbd fe01 2e3d 746a 93be 5610 f9bd
000001b0: 3692 913d 30be b33c 0bc8 8cbe 8daf f7bd
000001c0: f8ba 9abc 6e8a b63d 723e b23d 9b05 8fbd
000001d0: 9733 273c 52e9 46bd d52d 21be a8c0 f63c
000001e0: 9e44 31bd cae4 abbc b60c 83bd 6d4e 823d
000001f0: 3e7f f9bd 2929 9abd 3f38 02bd 8964 7dbd
00000200: d7b7 113c cbcf 74bd 2298 94be dc83 d83c
00000210: 1293 8e3d 9946 1bbe 4e3e 28be 8de8 6b3e
00000220: 05a0 62be f32a 28be 1402 16be fe1e a73c
00000230: 0c60 f63d f82c a53d 5cf0 f63d 177c 16bc
00000240: 6aa6 e9bd 869c 76bd d419 b13d 1ed1 57ba
00000250: a747 81bd 9850 c7bd 5f69 f3bd fc85 dbbd
00000260: 6899 02be 0d81 b23c 68df a3bb 4260 88be
00000270: 4e3e a23d 1c87 cbbd b6f2 dbbc 80ec 52bd
00000280: a70d a4be e8c7 97be ee66 94bd 0744 a1be
00000290: 49c7 36be 4c9f 70bc 0910 cdbc 7ee4 33be
000002a0: df7f 86be 0a09 7cbd 5344 563d 779d 0d3e
000002b0: a7f5 053d f31a 483d e3ea 27be 7ac3 0bbe
000002c0: ff1b 70bc 0aaa 02be e774 ec3d b07c a6be
000002d0: 25e0 bebd f6d2 d9bc 8e14 143e 7a28 6cbe
000002e0: 4b63 ff3d 72e6 47bd b02f fabc 74cc dabc
000002f0: 2a57 d6bd 7fee 8c3d dbe7 833d 0d74 91be
00000300: f6c7 5fbd 3470 8f3d 6f13 6bbd 7b19 363c
00000310: d68d 15bd a901 7d3e c74e 0fbc d842 d2bd
00000320: 9651 b4be cd48 d93c aa9c c4bd 2c8f b2bd
00000330: 2407 97bd d10c b63d b2fd 3abd 6463 db3d
00000340: 051b 3c3d 64bd 833c 2ed4 77ba 38aa cdbc
00000350: 8788 823c fe90 edbc 0c99 42be 92c2 9fbd
00000360: 3a03 8abe 337f b3bd 9d06 d23d 8b14 d3bd
00000370: 8469 15bc 0ea6 003e e79a bdbd 8e17 24be
00000380: 8b04 10be c9e2 e33c e8af 07be d567 1bbd
00000390: c3f5 bcbd 85e4 2abe 9f1e 8dbd 1add 08bc
000003a0: 6aed f33c 406d 413e 68c8 90bd 9895 59be
000003b0: d3be 89bd 4146 8dbe 7d78 5cbd f6c3 fabc
000003c0: e367 e3bd 7e5f a93d 3c05 3bbe 822f 5539
000003d0: a11c 99bd 571a 4abe 1f31 483e ac44 b1be
000003e0: fc6c e53a 05e2 b0bc 54fc 88bd 3e82 893c
000003f0: a74a 09bc 91ef acbe 692f 4fbd 41d7 f13c
-0.0009508271 0.0681284 -0.10452683 -0.093464345 -0.1584688 -0.15140098 -0.09917237 0.043900333
-0.08099361 -0.034710925 -0.020761155 0.011220811 0.1337071 -0.058223236 -0.26978505 -0.16809672
0.05020762 0.076202966 -0.086098604 -0.055303834 0.04612862 0.10545937 -0.026136648 0.09503569
-0.020470306 0.013438404 0.11499559 -0.11781425 -0.1522426 -0.19404027 -0.3052572 0.111421235
-0.082318895 -0.058462333 -0.08872742 -0.11894336 -0.14923552 0.03406867 -0.04113606 -0.037432443
-0.008829041 -0.027248511 -0.07753244 -0.16819772 -0.06861916 -0.0007203806 0.17256077 0.127436
-0.09810208 -0.03758544 -0.042168006 0.019896511 0.050404087 -0.060312636 0.013088674 -0.09857151
-0.21672685 -0.09846389 -0.14987238 -0.08939282 -0.0018612404 -0.072110854 -0.07522884 0.03836764
0.069719516 -0.01602962 -0.27805865 -0.11127739 -0.057589255 0.23817965 0.47953662 0.260169
0.14425878 0.5516543 0.049474187 -0.08821522 -0.09966219 -0.08381415 0.011683059 -0.079451956
-0.11835829 0.112838656 0.09656578 -0.12668617 0.023770874 -0.021394443 -0.020899286 -0.058135178
0.048838682 -0.07522262 -0.1406198 0.05674811 0.024916941 -0.09294201 -0.1256965 -0.08238459
0.06341307 0.026581297 -0.08574163 -0.14365858 0.012985547 0.0010162182 -0.18560944 -0.19345118
-0.06173968 0.04248237 -0.28792155 -0.12161319 0.07107966 0.021941274 -0.2749637 -0.120940305
-0.018887982 0.08913122 0.08703317 -0.06983491 0.010205171 -0.048562355 -0.1574014 0.030121163
-0.04327833 -0.020983119 -0.06398909 0.06362615 -0.12182473 -0.07527382 -0.03179192 -0.061863456
0.0088939285 -0.05976848 -0.29022318 0.026430063 0.06961645 -0.1516365 -0.16430017 0.2303793
-0.22131355 -0.16422634 -0.1464923 0.02040052 0.12030038 0.08065218 0.12057564 -0.009184859
-0.11408694 -0.060207866 0.086475044 -0.000823276 -0.06312495 -0.09732169 -0.11885332 -0.10718915
-0.12753832 0.021790052 -0.0050009973 -0.2663594 0.0792204 -0.099378794 -0.026849132 -0.051495075
-0.32041666 -0.29644704 -0.07246195 -0.31497213 -0.17849459 -0.014686417 -0.02503206 -0.17567632
-0.26269433 -0.061532058 0.052311253 0.138296 0.032704975 0.048853826 -0.16398196 -0.13648787
-0.014655112 -0.12760177 0.11545735 -0.32517004 -0.09320096 -0.026589852 0.14460966 -0.23062316
0.124701105 -0.048803754 -0.030540317 -0.026708819 -0.10465844 0.06881427 0.06440707 -0.28408852
-0.054634057 0.07003823 -0.05739158 0.011114473 -0.03651222 0.24707665 -0.008746809 -0.10266656
-0.35218495 0.026523972 -0.09600194 -0.08718714 -0.07374409 0.08889163 -0.0456521 0.10712317
0.045924205 0.01608152 -0.00094539195 -0.02510558 0.015934242 -0.028999802 -0.19003695 -0.07800783
-0.26955587 -0.08764496 0.10255168 -0.10306653 -0.009119395 0.12563345 -0.09258061 -0.1602461
-0.14064233 0.0278181 -0.13250697 -0.03794082 -0.09226563 -0.16688736 -0.06890606 -0.008353496
0.029776294 0.18889332 -0.070694745 -0.21248472 -0.0672585 -0.27592662 -0.053825844 -0.03061102
-0.11103799 0.08270167 -0.18263716 0.00020330961 -0.07476164 -0.1973661 0.19549988 -0.34622705
0.0017503793 -0.02159215 -0.06688753 0.016785737 -0.008379615 -0.33776525 -0.050582323 0.029521586

actor.0.bias f4 [64]
00000000: 73f5 1bbe be6b ab3c a32c 25bd 1724 c9bd
00000010: 6634 f5bd b924 6fbe 44cf 003d 4f43 3c3d
00000020: c28c 7abd 37f6 5fbd 49a1 c23d 4bc8 16be
00000030: 2e3b eebd 35d6 363d b12d debd d893 8ebd
00000040: ed61 24be 39e3 da3c 60c2 08be 8218 aa3d
00000050: 03d3 cebd 7ab2 17be 7639 9bbc 1c6f 69bc
00000060: 1f7c 64bb 0732 9c3d b1d3 1a3d 9cb7 ab3b
00000070: 9440 a8bd b087 10be 910c 153c 294b bf3d
00000080: 8d63 92bc 88db bbbd 2337 ac3d c6c5 33be
00000090: 9772 1e3c cc9f 953d 33a3 5ebd 0da5 42be
000000a0: 3abe be3d c275 80bc 75cb ecbc 360a 32bd
000000b0: 9a22 3b3d 0adf e9bc 6f90 7b3e f2c2 98bc
000000c0: 6e99 ac3d d4eb 8c3d a511 ca3e a255 52be
000000d0: a08c ec3d 7c14 c33d 80f7 483d 5e5e dcba
000000e0: c652 233e 2c90 b0bd 1dfb 41be d033 30bd
000000f0: fe19 96bd eb93 babd 7d39 b0bd 225d 6dbd
-0.1523035 0.020925399 -0.040325772 -0.09821337 -0.11972885 -0.23353852 0.031447664 0.045962628
-0.061169393 -0.05467817 0.09503419 -0.14724843 -0.116323814 0.044637877 -0.10848559 -0.06961793
-0.1605298 0.026719676 -0.13355398 0.08305456 -0.10098841 -0.14814177 -0.018948298 -0.014247682
-0.003486402 0.076267295 0.03779954 0.005240394 -0.08215442 -0.1411426 0.009097234 0.093405075
-0.017869735 -0.09172732 0.08408954 -0.17555913 0.009670875 0.073058695 -0.054354858 -0.19008274
0.093136266 -0.015681151 -0.02890561 -0.04346677 0.045687295 -0.028548736 0.24566816 -0.018647645
0.08427702 0.06880918 0.39466587 -0.20540479 0.115502596 0.095253915 0.04906416 -0.0016812792
0.15949544 -0.086212486 -0.18943448 -0.043018162 -0.07329176 -0.09110244 -0.08604715 -0.057950146

actor.2.weight f4 [64, 64]
00000000: 3cf2 87bd c776 06be a209 8b3d c877 9bbd
00000010: 64ba 51bc 0e86 8b3d f812 79bd 36c9 a7bd
00000020: 3ef6 21be 4590 903b e6f0 9ebd 885e 30bc
00000030: 5308 9d3c 3c97 60bd 9a94 ad3d 03d0 5abd
00000040: 2055 4cbd 253b ccbd 7857 1b3d 2e71 c4bd
00000050: e840 d73c 3030 79bd 8958 853d d0a3 aebd
00000060: fc38 7cbd fbcc 07bd ccbd bfbd cba3 933b
00000070: cd0b 75bd 1846 843c b9c3 263d 7bd4 ca3c
00000080: 519e 56bd 7ed6 0b3d f8fb fcbd c010 ffbd
00000090: e6df 84bd 8717 fdbd dd20 f0bd 5869 3d3c
000000a0: 9987 9b3d c0c9 80bd 11a9 6bbd 46f1 e0bd
000000b0: 61ef 07bc cb5e 67bb 062c 00bd a334 973d
000000c0: cc72 02be 6035 8cbd e2e0 a6bd 1bd5 963d
000000d0: 995f 953d bcfd b03d 3482 833d f0c7 4a3d
000000e0: 2577 eebd 1ca6 adbd 087a f53c 3dac 03be
000000f0: 1050 3d3d 539b 093d b493 743b b215 01be
00000100: f050 b23d f7dd 33bd 2d89 31be 0967 d03d
00000110: e62f dcbc 2849 ecbd c393 5a3d d46c 90be
00000120: 78cb b1bc 7e01 1f3e c233 4e3d a558 c43c
00000130: b89e e6bd 7add c8bd e556 e6bd 7b06 8cbd
00000140: 2fb4 1dbe 7558 bc3d b93c 2d3e 2789 89bd
00000150: 659a 9dbe 76e8 903d 4126 993d 3e32 803d
00000160: 5800 033d 309e f9bd de70 8dbd b0b8 73bc
00000170: a97e abbd 2a22 1d3b 68bd 63be c6e2 a3bd
00000180: 4cdd 81be b0d6 3abe df75 1bbe eb84 4dbe
00000190: a551 62be 0839 48be f6e3 203e eec7 c43d
000001a0: 9cca 02be 22c8 a5bc 4a24 333d 2aa0 86bd
000001b0: fa20 d6bb d234 5ebe e56a 423d adac c5bd
000001c0: b1a2 1cbe 0513 24bc a272 22be ffc0 ca3c
000001d0: c7ea c33d 7e24 acbe 7fed 89be 2eca c3bc
000001e0: 4fa0 40bd 67d4 34be ddbc 043c a95a 533d
000001f0: 855b 4bbe 06d6 f4bb 28a8 88bd 18f2 113d
00000200: 930c cbbd 0c26 573d c40c 5dbc 879a 82bd
00000210: 68e6 7b3e 0af5 8a3d 301e 893c 049f e6bd
00000220: a0f2 3a3e af45 68bc b99e 62bd a25f 9cbe
00000230: bbe2 393e 0de2 303d f8cb 53bd 160c f13c
00000240: 1e67 853d 7c47 903d 7449 763d 1674 903e
00000250: cd8d 46be 78a3 6b3d 8311 8fbd e6e6 843d
00000260: 50d8 1abe b9a7 c5bd c617 793e db44 7a3d
00000270: dda1 1e3e f0df 9c3d d312 c63d 8774 6a3e
00000280: 579b 4abe 40a8 87bd 3e4b 2ebe 5bdc 43be
00000290: 50ee e6bd bb81 b7bd 8773 223d a201 e8bd
000002a0: f63e 933d cbf1 3abd 2f36 28bd dd27 5dbd
000002b0: e952 65be 0b28 34bc 8e33 0f3e c2c5 06bb
000002c0: ebe7 a83d 99ed 6e3c bb5d 7bbd aa20 9abd
000002d0: 28b1 91be 1d6b 9cbe 861b c1bd 4cd3 03be
000002e0: aab1 32be 1cef fdbd b2e8 133e 22f4 07bd
000002f0: b9a5 0fbd e8b7 863d 728c 7bbe 281f 6fbe
00000300: fcef 973d e0f5 ea3d cad0 a73d 73da c23d
00000310: bc09 0abe b4ab 1c3e da99 c2bd 79cd 67bd
00000320: b463 573d 2a47 98bd 1b07 94be 84b9 08be
00000330: 2bc0 8fbe 5a8d d4bd cd04 12be 9a8c 32be
00000340: db05 14bd c5e0 b63d b982 8d3c 0613 d8bd
00000350: 3ee5 233e c603 d2bd 9efc 18be e4af 32be
00000360: abc3 87be 1e51 6f3e 70f1 0abe b012 dbbd
00000370: bfee 50bd 860b 21be d3aa b2bd 5f46 9cbd
00000380: 8b6a 3d3c e7d0 8ebd 94d3 13bd dcd2 c13d
00000390: d9b3 73be 940c 383c 4244 c2bc 1dd5 c1bd
000003a0: 894f 0cbe b5cb d0bb 3c12 f2bd 95ab 61be
000003b0: b833 9abd f9be 6fbd 3857 69be 28e5 a73c
000003c0: ddcf 50bd 4325 39bd 80dd a4be 3fb1 1bbc
000003d0: ec2a 3cbe 7379 d1be 3e0e 48bd 16cb 7abe
000003e0: 3fe7 8bbe 1b92 ef3d 5939 b5bd f1d0 40bd
000003f0: 860d 5c3b 6104 05be 1c03 f53d 01fc b2bb
-0.066379994 -0.13131247 0.06788947 -0.07591206 -0.012800787 0.06812678 -0.060809106 -0.08192675
-0.1581659 0.0044117295 -0.077607915 -0.0107647255 0.019169008 -0.05483173 0.08475609 -0.05342103
-0.04988587 -0.099722184 0.037925214 -0.095919 0.026276067 -0.06083697 0.06511027 -0.085273385
-0.061577782 -0.03315447 -0.09362373 0.0045056096 -0.059825707 0.016146705 0.040714 0.024759522
-0.052397076 0.034140103 -0.12352747 -0.12454367 -0.06488018 -0.12358003 -0.11725018 0.01156076
0.075942226 -0.06288481 -0.05753428 -0.10983519 -0.0082968185 -0.0035304304 -0.031291984 0.073830865
-0.12739104 -0.06846118 -0.08148362 0.073648654 0.072936244 0.08642146 0.06421319 0.04950708
-0.11643819 -0.084789485 0.029965416 -0.12858672 0.04621893 0.033595394 0.0037319483 -0.12605932
0.08706844 -0.043912854 -0.17337485 0.101759024 -0.026878309 -0.11537391 0.053363573 -0.2820803
-0.021703467 0.15527913 0.05034233 0.02396805 -0.11260742 -0.09807868 -0.112470426 -0.068371736
-0.15400766 0.09196559 0.16917695 -0.06715613 -0.30781856 0.070755884 0.074779995 0.06259583
0.03198275 -0.12188375 -0.06906293 -0.014875576 -0.08373768 0.0023976662 -0.22240222 -0.08002238
-0.2536415 -0.1824596 -0.15181683 -0.20070235 -0.22101457 -0.19553006 0.1571196 0.09608446
-0.12772602 -0.020237032 0.04373578 -0.065735176 -0.006534693 -0.21699837 0.047465224 -0.09652076
-0.15296437 -0.0100143 -0.15864041 0.02475023 0.095662646 -0.3362159 -0.26939008 -0.023900118
-0.047027882 -0.1765915 0.008101669 0.051600132 -0.1985913 -0.0074718026 -0.06672698 0.03563127
-0.09914508 0.05252652 -0.013491813 -0.0637713 0.24599612 0.06785019 0.016738027 -0.112607986
0.18256617 -0.01417677 -0.05532715 -0.30541712 0.18152897 0.04318433 -0.05170819 0.029424708
0.06513809 0.070448846 0.060128644 0.28213567 -0.1939003 0.057528943 -0.06985762 0.06489353
-0.15121579 -0.09651131 0.24325475 0.061100822 0.15491433 0.076599 0.09671559 0.22896014
-0.1978582 -0.06623888 -0.1702089 -0.19127028 -0.11275923 -0.08960291 0.039660957 -0.113284364
0.07189743 -0.045640748 -0.0410673 -0.053993095 -0.22394909 -0.010995875 0.1398451 -0.002056465
0.0824736 0.014583015 -0.061368685 -0.075257614 -0.28455472 -0.3055047 -0.09429078 -0.12873572
-0.17450586 -0.12399122 0.14444235 -0.033191808 -0.035070155 0.06578046 -0.24565294 -0.23351729
0.0741882 0.11472678 0.0819412 0.09514322 -0.13480276 0.15299875 -0.09502001 -0.05659244
0.05258532 -0.074354485 -0.2891167 -0.13352019 -0.280763 -0.10378523 -0.14259644 -0.17436448
-0.036138397 0.0892959 0.017274247 -0.105505034 0.16005418 -0.10254626 -0.14940116 -0.1744991
-0.2651647 0.23370788 -0.13568664 -0.10696924 -0.051008936 -0.15727052 -0.087239884 -0.0763061
0.011561046 -0.06973439 -0.03609045 0.09464046 -0.23799075 0.011233468 -0.023714188 -0.09464476
-0.13702215 -0.00637194 -0.11819884 -0.2203811 -0.07529396 -0.058531735 -0.22787178 0.020495012
-0.050979484 -0.04520155 -0.3220024 -0.009502708 -0.18375748 -0.4091297 -0.048841707 -0.24491534
-0.27324864 0.11697789 -0.08848829 -0.047074262 0.0033577397 -0.12989952 0.11963484 -0.00546217

actor.2.bias f4 [64]
00000000: 888e bbbd d316 c8bd 78d5 d1bb ef7c 2ebe
00000010: afe0 d83d f622 26bd aa91 0dbe e106 fabc
00000020: 40f3 d6bd a1f0 fa3d 3b31 05be 9d66 1c3d
00000030: 8ce3 febd fad0 0ebe 4440 3dbc 186c e1bc
00000040: e66e 7d3b 1a10 d93d 46ca 7ebd 6cd9 24bc
00000050: 5198 a8bd 5cb0 0dbd c99c 8bbd eb1d 463d
00000060: f639 1c3d 5cdc e03d e920 f03d 0235 803b
00000070: d98f 29be 4ab2 95bd a5ad 883c 5e84 8abd
00000080: ec09 43bd 90d8 c0bc 7c30 b6bd 9874 8cbd
00000090: ff8c 353b ff15 46bd 8d98 d93d c358 c0bc
000000a0: 5df2 0f3d 1954 02be 72ce 0abe e7f8 e0bd
000000b0: 92e6 023e 8f90 c83d ad08 39be 8cd2 55bd
000000c0: 3526 66bd 42eb cdbc 565c 93bc cd73 1cbd
000000d0: 69f4 dfbd 6f2c d53d 38e9 edbd dfdd f33d
000000e0: 0c56 66bd 19d5 6b3d da53 383e dbfa 02bc
000000f0: 4404 08be d4ea d23c d95c 50bc 577e 933d
-0.09158045 -0.097699784 -0.0064036213 -0.17039846 0.1058973 -0.040560685 -0.13825098 -0.030520858
-0.10495615 0.122529276 -0.13007061 0.038183797 -0.12445745 -0.13946906 -0.011550967 -0.027517363
0.0038670837 0.10598774 -0.06220462 -0.010061603 -0.08232177 -0.034592018 -0.06817014 0.048368376
0.038141213 0.1097953 0.11725027 0.003912569 -0.1655878 -0.073093966 0.016684363 -0.06763528
-0.047616884 -0.023540765 -0.088959664 -0.06858176 0.0027702448 -0.04836082 0.106248 -0.023479825
0.035143245 -0.12727393 -0.13555315 -0.10984974 0.12783268 0.09793197 -0.18069716 -0.052202746
-0.05618878 -0.025136594 -0.017988365 -0.038196374 -0.109352894 0.10408866 -0.116167486 0.11907553
-0.056234404 0.057576273 0.18000737 -0.007994379 -0.13282877 0.02574674 -0.012717449 0.07201832

actor.4.weight f4 [36, 64]
00000000: 619b 843c 2d0e b83d f93c 0e3e 5982 9d3e
00000010: d296 e5be 1a9d 81be ff59 163d f68f 633d
00000020: c185 1bbd e8d0 fd3c f911 e4bd 2993 113e
00000030: 9a75 3ebd d8f0 9cbd 0cf7 8b3c 545c 123a
00000040: 76bf 0bbe 4f28 28bd 9c19 43be 1a74 903d
00000050: 8283 da3d 2ce1 d0bd 7b0b 18ba d0e9 723e
00000060: 2d9e 0cbf 7d7e a1be c8bf 673c d402 e93c
00000070: 30ef febc 7641 8fbe 7666 b53e 1c2e 93bd
00000080: 18fa bc3b cf42 13be 339d 583e 059b f93c
00000090: ffa5 ccbc 6af0 ae3d e590 aabd 3ccb 9c3e
000000a0: df90 8fbd 78e4 073e 35b3 36bc 1341 8ebd
000000b0: dea1 0dbc e992 bdbd c47a 00bd 2ba4 1e3d
000000c0: fdf6 523d 8aa2 483e 6b1b 84bd 01b9 2ebf
000000d0: a01e c53d 2c80 d2be 1021 dcbd 7738 9d3e
000000e0: 4449 c8bc 374c 7bbe 2a86 edbe 50e7 c4bd
000000f0: 7096 c5be a588 723d b7af 753e 1a96 32be
00000100: b6ef b1bd 124b 7d3d d821 493e 4015 b53d
00000110: 041d a5ba 9c54 de3d ce43 8d3d b745 9a3e
00000120: 3509 a83d bb72 873e 725c 043d cca9 c13e
00000130: 2098 283e 631a 9cbd d7e2 053e 2ec1 4b3d
00000140: a8ac 30be eb4c 733e ee4d f03c 305e d43d
00000150: 23a5 c43d 59cb f43d 6297 153e 50ef 5abe
00000160: 1a09 14be a5a4 fa3d 4e91 70bc e949 6d3e
00000170: 1db0 e03e 95d5 65be 036c 28be 5bfb edbd
00000180: b05e 57be c91b 1abe 6e5f bd3e c6bb 71be
00000190: a466 2a3e 6df8 953e a99c bc3e 8c8c 55be
000001a0: 6159 5c3e e5a1 a43c ca7c fd3c 5582 633d
000001b0: 64e9 c03c 8af7 24be ea23 a03d ec48 5f3d
000001c0: 3204 273d bb92 9e3e 2cef 433c 959e 9bbe
000001d0: d3a8 d33e 69d0 3e3e 339c 0c3e 1d49 413d
000001e0: 67f2 f73c 4189 8bbd 55cf 9fbe 767d d53e
000001f0: 779d af3d c328 c53e d626 b23e b4d2 27be
00000200: 0da1 e03d 9fe0 8f3c 24f1 913e 0854 823e
00000210: c523 a1be a97c 833d 2d40 133d cf21 90be
00000220: 2cb0 063e 2979 10bd 989c cc3c 8cf2 123e
00000230: 6ae9 3c3e 5a25 9fbc 5186 ee3d 723f 5ebd
00000240: da54 b5bd c9ba 843d 2abb b9bc 74ec 093e
00000250: 403d e53e 53df 8d3d 2552 453d 9144 503e
00000260: 45b9 a4be 8e71 42be 4987 4f3d 3c88 853d
00000270: d7c7 053e aa27 ce3d a784 cb3e 9bbb 32be
00000280: 0763 d53d 3e28 943d 83ab b53e 0927 90bd
00000290: 590a 273e 1cfc 833d 5c2d 4bbe 2714 7f3e
000002a0: 20af 853e f141 013e 98e1 cbbc 7fa8 7c3c
000002b0: 68fd ff3b 98a3 ac3d b9e9 453e cf68 903d
000002c0: 9543 0a3e a377 3a3e df9d 87bd c426 313e
000002d0: dbb2 b73d 8436 ecbd 5e7d c13c 8bbc cf3e
000002e0: 00f6 57bd d0c7 3ebe f135 8abe 70f4 d3bd
000002f0: 7016 9cbe fe64 d03d 5244 b1bc ada7 b6be
00000300: 8634 dd3d 97c2 30bc 8021 58bb 7c31 473e
00000310: fb3e 5fbe ddb6 7b3d 8177 b13d cf5f 32be
00000320: b07c 303e eb3a ddbc bd76 843d 909f 95be
00000330: 177d 3b3e 3113 03bd 6037 9a3d 8a54 ba3d
00000340: f219 ccbe 523a 483e d000 19be 2577 8abd
00000350: 777f adbe 5f38 803d 6c6c fa3c 3afb 4c3e
00000360: 28be b6bc 9b6a e1be 15ab 95bd 3973 993d
00000370: 2a02 eebd 0b0b c63c 4a5e fe3e 6b2f b3bd
00000380: 1602 b63e b666 aa3e 7c0e 113e aa4b 1c3e
00000390: fe64 03be 2bc4 123e 20e1 53be 3960 3a3e
000003a0: 9411 50be f210 283e 92bd 483d 77ba 7cbd
000003b0: 66ac 3bbe d72a f8bd f3a0 e73d 515e a5bd
000003c0: 018e 9cbd 74f7 e83d c84c 6ebb 2149 2abe
000003d0: 5549 353e 3c63 7cbe f20e c8bd 39e7 d83e
000003e0: 95c4 ee3d 18f9 a8bd e96c 06bf 3d15 03be
000003f0: 5b0a b1be dbb9 a23c afa5 d9bd 46a6 2cbf
0.016187372 0.08987079 0.13890447 0.3076351 -0.4484163 -0.2531517 0.03670692 0.055557214
-0.037969355 0.030983403 -0.111362405 0.14216293 -0.046498872 -0.07663125 0.017085575 0.0005583216
-0.13647255 -0.041054066 -0.19052738 0.070533946 0.106696144 -0.10199198 -0.00058000506 0.23722005
-0.5492886 -0.31541815 0.014144845 0.028443731 -0.031119913 -0.2797963 0.35429734 -0.07186529
0.005767118 -0.14380954 0.21153717 0.030469427 -0.024981497 0.08541949 -0.08328418 0.30623806
-0.07010054 0.13270748 -0.011151125 -0.06946006 -0.008644549 -0.092565365 -0.03136708 0.03873078
0.051505078 0.19593254 -0.06450542 -0.68251044 0.09624982 -0.41113412 -0.10748494 0.30707142
-0.024448998 -0.24540792 -0.46391422 -0.09614432 -0.38591337 0.059212346 0.23992811 -0.17440072
-0.08688299 0.06183917 0.19641817 0.08841944 -0.0012597148 0.10855982 0.06897698 0.30131313
0.08204881 0.2645472 0.032314725 0.37824857 0.16464281 -0.0762222 0.13074814 0.049744777
-0.17253363 0.2375981 0.029334035 0.10369527 0.0960181 0.11952848 0.14608529 -0.21380353
-0.14456597 0.12238435 -0.014683081 0.23172726 0.43884364 -0.22444756 -0.16447453 -0.11620208
-0.21032214 -0.15049662 0.3698687 -0.23606786 0.16640717 0.29291096 0.36838272 -0.20854396
0.2151847 0.020096729 0.030943293 0.055544216 0.02354879 -0.16110054 0.0781935 0.054512903
0.040775485 0.3097132 0.0119588785 -0.30394426 0.4133974 0.1863419 0.1373146 0.047188867
0.030266954 -0.068132885 -0.3121287 0.41697282 0.08574956 0.3850766 0.34795254 -0.1638897
0.10968218 0.017563162 0.28504288 0.25454736 -0.31472602 0.064202614 0.035949875 -0.28150794
0.13153142 -0.035271797 0.024977013 0.14350337 0.18448415 -0.01942699 0.116467126 -0.054259725
-0.08854075 0.06480939 -0.022672255 0.13469106 0.44773293 0.06927361 0.048174042 0.20338656
-0.321726 -0.1898863 0.050666127 0.06520125 0.13064514 0.10066159 0.39749643 -0.17454378
0.104192786 0.07234238 0.35482416 -0.07038695 0.16312541 0.064445704 -0.19841522 0.24910031
0.26110172 0.12622811 -0.024887845 0.015421032 0.007812191 0.084296405 0.1932744 0.07051241
0.13502343 0.182097 -0.066219084 0.17299944 0.08969661 -0.115338355 0.02361935 0.40573534
-0.05272484 -0.1863091 -0.2699428 -0.10349357 -0.30485868 0.10175513 -0.021639023 -0.356748
0.10801034 -0.010788581 -0.0032978952 0.1945247 -0.21801369 0.06145369 0.08665372 -0.1741936
0.17235065 -0.027005633 0.0646796 -0.292233 0.18309437 -0.032000724 0.07530093 0.09098156
-0.39863545 0.19553497 -0.14941716 -0.06761006 -0.3388631 0.06260752 0.030569278 0.2001771
-0.02230747 -0.44026646 -0.07308022 0.0749268 -0.116215065 0.024175188 0.49681312 -0.08749279
0.35548466 0.33281487 0.14165682 0.15263239 -0.12831494 0.14332645 -0.20691347 0.18200769
-0.20319206 0.16412714 0.049008913 -0.061701264 -0.18327484 -0.12117546 0.113099955 -0.0807463
-0.076442726 0.11375323 -0.0036361683 -0.16629459 0.17703755 -0.2464723 -0.097684756 0.4236391
0.11658589 -0.08250636 -0.52509934 -0.1280107 -0.34578213 0.019864013 -0.10627305 -0.67441213

actor.4.bias f4 [36]
00000000: da6e b1bd bdee 963c 2cea e33d 1dd5 9dbd
00000010: 36e0 5a3c ae89 2fbe 9188 7e3e a87c 123e
00000020: 1a65 12be 37f5 59be 6d8c 87be 3f5e 853d
00000030: 84ab c03d 065f fb3d dabf 073e 366f bd3b
00000040: 86c3 293d 2745 a9ba e9cb d53c 76c6 093e
00000050: b6d7 2bbd 9ebf 03ba c0a8 883d ac8b 08bd
00000060: 686f 8dbc 8491 2f3e 6664 863e 9b33 cc3d
00000070: 4534 4bbe 70f8 213e 6d45 0f3d 9b1f 8a3d
00000080: c6be 123d 5140 50bd 0b6d 1c3e be31 ac3e
-0.086637214 0.018424386 0.11128649 -0.07706664 0.01335912 -0.17142364 0.24856783 0.14305365
-0.1429638 -0.21284948 -0.26474324 0.06512117 0.09407714 0.12273984 0.1325678 0.0057810796
0.04144623 -0.0012914286 0.026098209 0.13454613 -0.041953765 -0.00050258066 0.066728115 -0.033336326
-0.017265037 0.17145354 0.26248473 0.099707805 -0.19844158 0.15817428 0.03497832 0.067443095
0.035826467 -0.050842587 0.15275972 0.336317

critic.0.weight f4 [64, 62]
00000000: c860 9c3d 6a19 ab3d 31d8 abbd 6c5b 1b3c
00000010: ec7a 713c 5fdc 49bd 8355 00be 42b5 8bbd
00000020: e8d4 ddbd c4b5 5cbd 0a32 b1bc ebf5 62bd
00000030: 2ce2 eabd a5c9 f3bd e21f 10be 3aad 03be
00000040: fe10 09bc ab20 ddbd 13fe f7bd c876 b63d
00000050: 0c4a bbbd 7c17 b63d d610 103c 3e3c 98bc
00000060: ef3e c93d 2717 cbbd c034 793d b399 ad3d
00000070: 4921 d03d 6f23 5cbe 0140 983c af97 37bd
00000080: f2fb c0bd 9aa3 b13d 5232 b7bc 73eb af3d
00000090: 160d 8cbd 74b4 66bd 4bcf ea3d f7cf 27ba
000000a0: be09 da3d 1814 8d3d fc22 173e e5b2 28bd
000000b0: c14f 1f3e d7d2 623e 5e2c 173c b057 52bd
000000c0: 23b6 c73d 5f64 02be 52fd 96bd 84ad dabd
000000d0: 12b7 003d bbd1 d2bc f24e 53bd c548 fdbd
000000e0: c0f2 53bc 8a36 303d 6610 6bbd 3c5a 87bd
000000f0: e3dc ffbd e50e d5bd dd19 e7bd ccbf 833d
00000100: 2839 8dbc 1325 4dbd ef19 76bd 1127 d83e
00000110: 47d3 95bd 6e86 02bd 2940 c3bd 6cbe 79be
00000120: 0dad b23d 6c8b 803e db87 8dbe 91bd b9bd
00000130: df1a bc3d 130b f4bc a3f5 d43d fb2e df3d
00000140: bf91 8b3d 4504 dfbb 5d60 05bd 7659 f8bd
00000150: e2da 883d 00cd ebbc a810 a33c edf3 eabc
00000160: 15fc a73d bd3a 843b 9480 263d 2788 b1bd
00000170: b5da b3bb 5b2b e73d 73dd 703d 5f54 99bd
00000180: b5e9 b63d e77b c93d 289b 19bd a7aa d2bd
00000190: af64 0b3e 216d 323e 173d c5bd 672d abbc
000001a0: aca6 573d 1faf e5bd b562 94bd d47f c8bd
000001b0: 7284 e8bd 40ac bd3d 37d2 1f3e 9997 d2bd
000001c0: 0f03 95bc 00d5 1c3d b01b 3fbd 15c0 e0bd
000001d0: 7023 1cbe bfa9 8ebe e11e 8fbc 8e46 483d
000001e0: 97e1 0fbe b663 83bb 6ca0 1abc 29fb 093e
000001f0: 1a4f d7bd 1423 a33d 1f64 d73d 2324 473d
00000200: 752e 02be 53f4 acbc 93b5 0bbe 8dd5 cabd
00000210: 9d00 dd3c 7cc4 a6bc b387 3b3e 0184 9e3d
00000220: 8e7f 71bd 9b4c a8bc fe0f 01be 72ca 11be
00000230: 011f a3bc 0aa1 99bd de74 f23d 9b83 d3bd
00000240: 2bc6 f23d 77ec afbc ce58 bc3c 047c e23d
00000250: c3b2 70bd adbd 40bd c437 573d c2ca 03bd
00000260: b768 0abc b60b 863d 3234 96bc cff6 993d
00000270: a6e6 63bd c67e 533d fd69 493c 220e c8bd
00000280: d328 4fbd edf7 62bb 6b2a 4bbe 6c6f f63d
00000290: f271 eabd e0b0 373d a144 cd3a 2be6 a4bd
000002a0: 8958 b73c 0070 afbd bee5 94bd 84ca 7ebd
000002b0: 5773 3cbe 93b1 8a3c c1bc 04be 2f8b 2c3d
000002c0: de67 773d dc6f 2f3d a2d2 a3bc 6b5b 993b
000002d0: 12f4 5cbe b5a2 e9bb f35d 81bd 9777 5b3d
000002e0: e81a ef3c 9238 b8bc 5d8e ebbd c211 efbd
000002f0: 8dab d9bd 5cf5 b53d 6655 c8be f32b 9dbe
00000300: c3a8 98be 7fff c73e eaa0 2dbd 69d8 28be
00000310: 03c2 bbbd 36ad ba3d 069f 853c 3b49 5f3e
00000320: 175e b9bd d3b6 813d 915f 1bbd 4b6d a1bd
00000330: 82c9 abbd 4523 b83d daa5 ac3c 59b8 2a3d
00000340: d503 bdbd b2e2 c03c 8db4 e73d 4d75 8e3d
00000350: 4c09 b6bb 3779 6fbd 2ec0 903e d5c5 28be
00000360: 2c84 e3bd d49d 543e 0b87 13bd a704 a4bb
00000370: 5bdd f4bc 8e49 9abd 8464 4abd 1fe0 72bb
00000380: 5de5 55be 6cc6 173e 64d8 3ebd aac7 00be
00000390: badb 96bd 0f13 a63c a0ae eabe c8c2 83be
000003a0: 8e51 1d3d 0655 c53d 8f1b e1be 25d4 85be
000003b0: f2e9 933d 5b80 6d3c bd15 b73d 0ee1 c8bd
000003c0: f126 29be 7d6a 7cbd 9d0e 923b 1347 a0bc
000003d0: 10b9 a7bd 073f 85bd f6d0 babb cfe5 8d3c
000003e0: 3ef8 8b3d 0179 b83d d02e eabd c831 a8bd
000003f0: 24d2 2a3c 755c bbbd 5036 cb3d bc5e 8a3d
0.07635647 0.08354457 -0.083908446 0.009482246 0.0147387795 -0.049282428 -0.1253262 -0.068216816
-0.10831624 -0.053884283 -0.021630306 -0.055410307 -0.1146892 -0.11903695 -0.14074662 -0.1285905
-0.008365868 -0.107972465 -0.12109008 0.089093745 -0.09144983 0.08891198 0.0087930765 -0.018583413
0.09826457 -0.09916525 0.060841322 0.084765814 0.10162599 -0.21497892 0.018585207 -0.04482239
-0.09423055 0.08673783 -0.022362862 0.0858983 -0.068384334 -0.056324437 0.11465319 -0.00064015336
0.106463894 0.06888598 0.14759439 -0.041186232 0.15557767 0.22150742 0.009226887 -0.051353157
0.09751537 -0.12733601 -0.07372536 -0.10677627 0.03142459 -0.025734773 -0.05158896 -0.12367395
-0.012936294 0.043020763 -0.057388686 -0.06609008 -0.12493303 -0.104032315 -0.1128423 0.06433067
-0.017239168 -0.050084185 -0.060083326 0.42217305 -0.073156886 -0.031866483 -0.09533722 -0.24389046
0.08724413 0.2510637 -0.27642712 -0.0906936 0.09184813 -0.029790437 0.10398414 0.10897633
0.06814908 -0.006805929 -0.032562602 -0.12126438 0.066823736 -0.028784275 0.019905403 -0.028680766
0.08202378 0.0040353225 0.040649965 -0.08668547 -0.0054887184 0.11287566 0.05880494 -0.07486796
0.08931295 0.098380856 -0.037501484 -0.102864556 0.13612626 0.17424442 -0.096307926 -0.020895673
0.052649185 -0.11215042 -0.07245389 -0.09790006 -0.11353387 0.0926137 0.15607534 -0.10282821
-0.018189935 0.03828907 -0.046657264 -0.10974137 -0.15247893 -0.2786388 -0.017470779 0.04889541
-0.140509 -0.004009689 -0.009437662 0.13474716 -0.10513134 0.07965675 0.105171435 0.048618447
-0.12713034 -0.021112597 -0.13643484 -0.09904013 0.026977831 -0.020357363 0.18313484 0.077400215
-0.058959536 -0.02054434 -0.12603757 -0.14237383 -0.019912245 -0.07501419 0.11838697 -0.10327836
0.11854204 -0.02147506 0.022991564 0.1105881 -0.05876423 -0.04705589 0.052543417 -0.032175787
-0.0084478175 0.065452024 -0.018335436 0.07517778 -0.055639885 0.051634572 0.012293336 -0.097683206
-0.050576042 -0.0034632639 -0.198404 0.12032971 -0.114475146 0.044846416 0.0015660712 -0.080517136
0.022381084 -0.08566284 -0.07270382 -0.062204853 -0.18403374 0.016930377 -0.12962629 0.042124923
0.06040179 0.042831287 -0.019997898 0.0046800873 -0.2157748 -0.007129992 -0.063167475 0.053580847
0.029187635 -0.022487912 -0.11501763 -0.11673309 -0.10628424 0.08884689 -0.39127654 -0.30697593
-0.29816255 0.39062116 -0.042389788 -0.16488804 -0.09167864 0.091150686 0.01631118 0.21805279
-0.09051149 0.06333699 -0.037932936 -0.07882174 -0.08388044 0.08991102 0.021075178 0.041679714
-0.092292465 0.023545597 0.11313734 0.06955967 -0.0055553075 -0.05846521 0.2827162 -0.16481717
-0.11109194 0.20763332 -0.03601746 -0.0050054374 -0.029890707 -0.07533561 -0.049412265 -0.0037059856
-0.20888276 0.14821786 -0.046593085 -0.12576166 -0.07366128 0.02027276 -0.45836353 -0.25734544
0.038407855 0.096353576 -0.43966338 -0.26138416 0.07222356 0.014495934 0.08939693 -0.09808551
-0.16518761 -0.061624993 0.0044573084 -0.01956514 -0.08189595 -0.06506162 -0.0057011796 0.017321495
0.06834458 0.09007455 -0.1143471 -0.0821262 0.010426078 -0.09148494 0.09922469 0.067563504

critic.0.bias f4 [64]
00000000: f0d8 50be 3cae 3dbd d5ba 24be d7fb bbbd
00000010: f1c5 fcbd 1351 10bd 6761 60bd 81a7 3cbe
00000020: 0e0a 2cbe 4a1c cd3c 6130 25bd ac7e b0bd
00000030: e905 cfbd 1a39 edbb 0831 48bd 2079 10bd
00000040: fe89 09be a771 d03d 74dd 08be 0d94 153d
00000050: 4ac9 3fbe 3df5 30be 1ffa 70bd 3549 8cbc
00000060: 39fe a83b d6d9 80be a2e2 4fbe 4886 993d
00000070: cc43 0d3c 0933 a33d bc14 bfbd b591 0ebe
00000080: 63a6 24be 448f abbd 3365 afbd 6075 e1bb
00000090: 465c 9abd 43c8 ea3d 3240 84bc 1e41 863d
000000a0: d23d cbbd 2660 d8bd 97c0 c1bd 7786 23be
000000b0: 60c2 61be ca3f 11be 0ca6 10bc cb38 a6bd
000000c0: 45fa 2f3d c477 3b3d bee5 b8bb 6145 84bc
000000d0: b7e4 87bd d078 40bd 1d76 f5bd 3692 62be
000000e0: 9e6c 1a3e 93f8 8bbd 3231 dabd bad9 e9bd
000000f0: 8a95 443d 2123 2dbe 1ec2 0ebe be2e f7bd
-0.20395255 -0.04630874 -0.16086896 -0.09178894 -0.12342442 -0.03523357 -0.05478039 -0.18423273
-0.1680071 0.025037903 -0.04032934 -0.08617911 -0.10108549 -0.007239473 -0.048874885 -0.035271764
-0.13431546 0.101779275 -0.13365728 0.036518145 -0.1872913 -0.17281051 -0.058832284 -0.017124752
0.005157259 -0.25166196 -0.20301297 0.07496315 0.008622121 0.079687186 -0.09330127 -0.1392277
-0.16079096 -0.08376935 -0.08564224 -0.0068804473 -0.07537131 0.11463978 -0.016143892 0.06555389
-0.09923901 -0.10565214 -0.09460562 -0.15969263 -0.22046804 -0.1418449 -0.008828651 -0.08116301
0.042963285 0.045768514 -0.005642622 -0.016146364 -0.06635421 -0.046990216 -0.11985419 -0.22126088
0.15080497 -0.06834521 -0.106539145 -0.11418481 0.047994174 -0.16907932 -0.13941237 -0.12069462

critic.2.weight f4 [64, 64]
00000000: 72a2 c4bd 084a 4d3e d382 833c a1c3 043e
00000010: dbf3 03bd db1a 92bd b96c d53c e295 ed3d
00000020: f248 31be e39f 5cbe a81b c1bc 2cb7 a73e
00000030: 5c1c 1cbd e661 823e abe3 be3d b5b5 d63d
00000040: 29d2 483c cc92 863e bb0a ec3c 5ddb 263e
00000050: fbc1 40bc c51e 5cbd bf76 c83d 234c dc3d
00000060: 39d7 68be 360f 60bd 7d5f 1b3d c5b3 ea3d
00000070: 4695 5dbe 66b3 9b3e e84f 5bbd 05b8 2f3c
00000080: 9dd7 a3bd 2150 d4bd d77d c8bb e6da 133e
00000090: 17ed 4bbe 27cb 463e bbd6 2d3d 6791 80be
000000a0: 4b33 90bd d606 7f3e 5fbe b13e fb4a fcbd
000000b0: 4edb bcbc 26b1 18be c267 753d d5d5 66bd
000000c0: 23e0 2c3e da88 48be a4bf 64bd d9dd 5d3e
000000d0: c12c f5bc f6b4 413e 2d5f 6e3e 7e9d e4bd
000000e0: bd35 763e cad9 103e 95aa ac3c d183 36be
000000f0: 6c82 8a3c c29c a2bd 9a67 103e cc28 f03d
00000100: e049 6dbc 8b92 1e3b b5da 91bc 33f5 cebc
00000110: 6ac2 b3bd 1667 91bd 05ff a7bd 8c04 d23d
00000120: d942 5dbd 652c c7bd a0bc d4bd 0733 fcbd
00000130: cbc0 39bd 738d 88bd 9f4e d7bd a5f1 72bd
00000140: 2c15 a93d 3c9b e3bd 5a7d f6bc 495c 9e3d
00000150: c7e7 8a3d f2fc 5c3c b260 0d3d e3f9 6bbd
00000160: 49db e7bd 4e0c b7bd 0c67 b6bd b696 863d
00000170: f4da 52bc 3cae 0bbe aa71 0cbe 7cfb d6bc
00000180: 741a 903d f6e5 afba 899e f23b 9f57 19bd
00000190: bc80 1dbd dd7a 623d 25d7 d33c 9505 02bd
000001a0: 50cf ff3d 1e0f 963d f350 f33c 96f0 fe3c
000001b0: 8553 883d e364 00bd 95ce 48bc 6b18 53bd
000001c0: b5ac 7bbd 8077 4abc ab7d c8bd a0a9 903d
000001d0: e3f4 cebd 9485 cebd 1a65 fbbc 1940 883d
000001e0: e466 9bbd e48c 00bd 8faa 663d d8d5 e7bd
000001f0: 1d05 d83d cfcc 613d 8496 7d3c 8e5f 653b
00000200: 9c17 b43c 2e63 e4bd 08f1 caba 9759 923d
00000210: 2af5 f5bd fce2 063d ebcc 9d3b 6257 963c
00000220: 2b70 25be 21e0 11bc 7bc6 77bc 4a76 00be
00000230: da5d cdbd 7f1d 8ebd 77ed 7d3d 3dcc c2bc
00000240: c67a c2bd 7834 d33a 769f febc f420 c3bd
00000250: 61ac 513d 669d 263d 1c47 d63d e12b c63d
00000260: 0440 a5bd c9ff ba3d e833 85bb d3ea ffbd
00000270: 7e8c 6e3d 0677 21be 725c 683d 0450 c2bd
00000280: 026f 0bbe 9caa f4bc b977 173d bdab 24be
00000290: 35a5 bf3b 5dc0 a0bd 0ef3 913d 8054 7bbd
000002a0: c0f2 d93d 4b70 b3bc c697 dd3b ee5f a9bc
000002b0: 3dc5 64bc e119 5fbe 82cb 88bd f41d 813d
000002c0: 6f5e 873d e202 debc 8ab6 89bd 1101 bfbd
000002d0: e8e2 993d 2ad8 1cbe a10d 07bb 8341 483d
000002e0: f950 d1bd b615 90bd e9aa 2abe a2ea 9dbd
000002f0: 52bd efbd efe9 abbd ea56 513d 3297 12be
00000300: 3b77 953d d336 81bd 2f54 92bd 5b15 b1bc
00000310: 62b0 203c 4794 d1bd aebd 6d3e c771 2e3c
00000320: cbe9 bbbe 0983 1abd 0930 4d3d 3ad6 d6bd
00000330: 006b 773d 4c6e 6cbe b748 153c c168 e1bb
00000340: a257 2b3d c883 22bd 6e35 de3c eb41 663e
00000350: 4ffd 793d 2416 e13d eb35 d8bd a54f b0bd
00000360: 8fb5 8dbd 38b8 ebbd 50f2 06bd 77a3 9abd
00000370: 032f a63c 7f20 05be f624 35bd b1b0 1fbe
00000380: fd81 cfbd b637 1c3d 8918 85bd 82e8 81be
00000390: 81b2 383e 3094 1ebd 7e78 0fbe c512 3abe
000003a0: f5aa 9ebe 9ba5 7b3a a6ee e8bd 07e3 a03d
000003b0: aff6 93bd fe1a 493e 0761 0ebe ff8f 02bd
000003c0: 586c 32bd 11b0 d83d 1dd3 223d b5e4 1dbd
000003d0: 907d ad3d 70bb eabd b1ec 4bbc 67cc cd3d
000003e0: a08c 54bb 724a 8d3e a3e9 e8bd 9069 5ebe
000003f0: d145 03be 21eb 73bd 0f64 203e 7541 d6ba
-0.096012965 0.20047772 0.016053593 0.12965252 -0.03221498 -0.071340285 0.02605282 0.116008535
-0.17312983 -0.21545367 -0.023572758 0.32756937 -0.038112983 0.25465316 0.09320768 0.104838766
0.012257137 0.26283872 0.02881371 0.16294618 -0.011764999 -0.05374028 0.09788274 0.107567094
-0.22738351 -0.054702006 0.03793286 0.114600696 -0.21638975 0.30410308 -0.053543 0.010725026
-0.08000109 -0.10366846 -0.006118517 0.14438972 -0.19914661 0.19413434 0.04244111 -0.25110933
-0.07041033 0.24904951 0.34715554 -0.12318989 -0.023053791 -0.14911327 0.059913404 -0.05635627
0.16882376 -0.19583455 -0.055846825 0.2166666 -0.029928567 0.18916687 0.23278494 -0.11162852
0.24043937 0.1414558 0.021077434 -0.17823721 0.016907893 -0.079400554 0.14102021 0.117265314
-0.014482945 0.0024196233 -0.017804483 -0.025263404 -0.08777316 -0.0709974 -0.08202938 0.102547735
-0.05401883 -0.097252645 -0.1038754 -0.1231442 -0.045349877 -0.06667604 -0.10513043 -0.05931248
0.08255991 -0.11113593 -0.03008907 0.07732446 0.06782489 0.013488041 0.034516044 -0.057611357
-0.11321122 -0.08937894 -0.089063734 0.065717146 -0.012869585 -0.13640684 -0.13715234 -0.026242964
0.070362955 -0.0013419974 0.007404153 -0.037437078 -0.03845285 0.055292953 0.025859425 -0.031743605
0.124907136 0.07327102 0.029701686 0.03112058 0.06656555 -0.031346213 -0.012256284 -0.05153696
-0.061444003 -0.012357593 -0.09789594 0.070636034 -0.10105302 -0.10084072 -0.030687857 0.06652851
-0.07587984 -0.031384364 0.056315 -0.11320084 0.1054785 0.05512696 0.01547778 0.0034999582
0.021983914 -0.111517295 -0.001548321 0.07145994 -0.12009652 0.032931313 0.004815688 0.018352214
-0.1615607 -0.008903534 -0.015123005 -0.12545124 -0.100276664 -0.0693922 0.061994042 -0.023779029
-0.094960734 0.0016113659 -0.031081896 -0.0952777 0.051189784 0.04067745 0.10462782 0.09676338
-0.08068851 0.091308184 -0.0040650256 -0.12495961 0.058239453 -0.1576806 0.056728788 -0.09487918
-0.13616565 -0.02986651 0.03697941 -0.16081138 0.0058485516 -0.078491904 0.07126437 -0.061359882
0.10642004 -0.021904131 0.0067624776 -0.020675626 -0.013963041 -0.21787216 -0.06679441 0.06304541
0.06609809 -0.027100984 -0.0672427 -0.09326375 0.07513982 -0.15316835 -0.0020607489 0.0488906
-0.102205224 -0.07035391 -0.1666676 -0.07710768 -0.11706032 -0.08394229 0.05110828 -0.14315489
0.07298132 -0.06309285 -0.07144963 -0.021616628 0.009807678 -0.1023336 0.23216888 0.010647244
-0.36701807 -0.03772262 0.050094638 -0.10490079 0.060404778 -0.2308895 0.009111575 -0.0068789427
0.04183162 -0.039676458 0.027125087 0.22486083 0.06103259 0.10990551 -0.10557159 -0.08608941
-0.06919395 -0.11509746 -0.03294593 -0.0755071 0.020286089 -0.13000678 -0.0442247 -0.15594746
-0.10132215 0.038139068 -0.0649882 -0.25372702 0.18036844 -0.03871554 -0.14010808 -0.18171223
-0.30989805 0.0009599567 -0.113736436 0.07855802 -0.072247855 0.19639203 -0.139042 -0.031875607
-0.043560356 0.10580457 0.039752115 -0.03854819 0.08471215 -0.11461532 -0.012446568 0.10048752
-0.0032432452 0.2759586 -0.11372688 -0.21719956 -0.12819602 -0.05955041 0.1566317 -0.0016346412

critic.2.bias f4 [64]
00000000: 8ea8 2e3e 24bc a4bd d19e b9bd 7cdd 9cbd
00000010: 0aaf ff3b f13e 27be 29c4 debd fcaa 15be
00000020: e8d0 16be ceb6 15be 2aa3 abbc 8ce1 413d
00000030: f854 08bd ec75 c33d cb07 63bd 348c 10bd
00000040: 9241 f7bd 115a 15be fd98 17bd 7794 54bd
00000050: aa82 fc3c 87c9 9cbc a9ca 3abe da12 a3bb
00000060: 302d 01bd 1c78 3fbe 95a1 aebd cdb7 b0bd
00000070: cccf cbbd a69d 21bc 7a1e cdbd 9991 82bd
00000080: addd a4bd bb3a f8bc 24a5 3d3d c085 98bd
00000090: a25a 1dbe 0de4 673d 641c ee3d 9e10 f1bd
000000a0: 3485 8abd 75fd d5bd 3326 65bd 005d 6abd
000000b0: ae7e 9ebd c2d8 303d 6d74 04be 3bdb 2dbd
000000c0: 115b bebc 0b3b 5db9 50d3 803d 6909 9b3c
000000d0: 4d17 fbbd 0f4f cdbd aa56 debd 7d55 a8bb
000000e0: da40 1b3e 5228 e53c 394f 66bd ad28 abbd
000000f0: 5cd3 16be 8e25 a4bd b678 02be e6c6 03be
0.17056486 -0.080436975 -0.09063495 -0.07659432 0.0078028487 -0.16332604 -0.10877258 -0.14616007
-0.14728129 -0.14620516 -0.020951826 0.04733424 -0.033284158 0.09543976 -0.055427354 -0.035289958
-0.120730534 -0.14585139 -0.037011135 -0.0518994 0.030824024 -0.019139064 -0.18241371 -0.0049766125
-0.031537235 -0.18698162 -0.08526913 -0.08628807 -0.099517435 -0.0098642465 -0.100155786 -0.06375427
-0.08050094 -0.030301442 0.04630007 -0.07447386 -0.15366605 0.05661397 0.11626509 -0.117707476
-0.06763688 -0.10448734 -0.055944633 -0.057217598 -0.07739006 0.043175466 -0.12935038 -0.042445403
-0.023236783 -0.00021098198 0.06290305 0.018925386 -0.12260304 -0.10024845 -0.108563736 -0.005137144
0.15161458 0.027973328 -0.056227896 -0.08357368 -0.14729065 -0.080149755 -0.1274136 -0.12868842

critic.4.weight f4 [1, 64]
00000000: 479f 0dbe 6289 ac3c 7eb5 1a3c 502f 153d
00000010: 379b dcbd fb56 b63b a693 49bc a115 8b3d
00000020: 4619 083d ecfe a53c c47c 76bc 9ccd 133c
00000030: 8df7 46bb 84c5 ee3c 26db 01bd bb3e 8dbb
00000040: a35c 133b d99d 683c a2bd 1abb e30a 953c
00000050: 54b2 23bd d462 043b 531f 33bd c682 a83d
00000060: 33db a93a 53bc cc3a 6299 8e3d e3b6 b9bd
00000070: babe 50bb 722e 0a3c 286e f43b ca06 323d
00000080: ff01 e83c a625 e43d 6373 4bbc 6cc2 923c
00000090: 9b0b b73c af98 efbd d302 ffbd 4edd 6b3d
000000a0: 70ea f5bb 91ee e83d 5b6d fa3d 53fc 29bb
000000b0: e4d7 a8bd e513 8bbd 88c9 87bb a16f 113d
000000c0: d530 42bc 3b0c 49bb 22da 71bd 71e6 bf3c
000000d0: 7330 e73c ab6d 073c 0bc6 123b e255 cebc
000000e0: e970 863d 77bf b43d a2d2 98bc 03d7 26bb
000000f0: 022e 7d3c 42f0 c3ba 79f1 b6bb c7a0 80bd
-0.1383029 0.021061603 0.009442685 0.036422074 -0.107717924 0.005564568 -0.012303269 0.06791235
0.033227228 0.020263158 -0.015044395 0.009021189 -0.0030359954 0.029146917 -0.031703137 -0.0043104566
0.0022485636 0.01419779 -0.0023611565 0.018193668 -0.03996499 0.0020200508 -0.043731045 0.08228068
0.0012959003 0.001562009 0.06962849 -0.09068086 -0.0031851963 0.008433925 0.0074594207 0.043463506
0.028321264 0.11139993 -0.012417647 0.017914973 0.022344401 -0.11699044 -0.124517106 0.0575841
-0.007504754 0.11373628 0.12227889 -0.002593775 -0.08244303 -0.06790904 -0.0041438974 0.03550685
-0.011852463 -0.0030677456 -0.05904592 0.023425313 0.028221345 0.008265893 0.0022395875 -0.025187436
0.06564505 0.088255815 -0.018655125 -0.0025457747 0.015452864 -0.0014948922 -0.005582985 -0.06280666
