RL/CC2-Cardiff-implementation/GT-Cardiff-CC2/Models/PPOxCCE-C2/6000.pth (torch, 78850 bytes, 11 tensors)

actor.0.weight f4 [64, 62]
000000 ed 40 79 ba e7 86 8b 3d 2a 12 d6 bd 3c 6a bf bd
       -0.0009508271 0.0681284 -0.10452683 -0.093464345
000010 a8 7d 64 bd e4 89 3f 3e 2b 1c 1f 3e 61 72 94 3e
       -0.055783898 0.18704945 0.15538089 0.28993514
000020 1e a7 ba be 61 76 81 bb 4b ec 90 be a7 43 4e be
       -0.36455625 -0.0039508794 -0.28305277 -0.20142995
000030 d4 a0 07 be fa 80 67 be 17 74 de 3d f7 73 92 be
       -0.13244945 -0.22607794 0.10861986 -0.286041
000040 81 a6 4d 3d 4d 10 9c 3d 77 54 b0 bd 46 86 62 bd
       0.05020762 0.076202966 -0.086098604 -0.055303834
000050 5d f1 3c 3d 15 fb d7 3d 86 1c d6 bc 12 a2 c2 3d
       0.04612862 0.10545937 -0.026136648 0.09503569
000060 58 b1 a7 bc c0 2c 5c 3c cf 82 eb 3d 99 48 f1 bd
       -0.020470306 0.013438404 0.11499559 -0.11781425
000070 97 8b a1 be 7c 2e 08 3d c1 15 0a bd 67 a4 bd 3e
       -0.3155181 0.033247456 -0.033712152 0.37039492
000080 cf 96 a8 bd 33 76 6f bd b9 b6 b5 bd 94 98 f3 bd
       -0.082318895 -0.058462333 -0.08872742 -0.11894336
000090 f1 26 eb 3d b0 c5 a9 3e c1 58 ec bd f2 a7 1c be
       0.11482037 0.33158636 -0.11540366 -0.15298441
0000a0 67 3f e8 bd 79 f2 92 be 5c 3e d7 3d 2b cb 8c 3d
       -0.11340218 -0.28700617 0.10509941 0.06874689
0000b0 ca d3 dd bd c9 cf a8 bd 5f 28 b9 bb f4 07 c3 bd
       -0.10831411 -0.08242757 -0.0056505646 -0.09523001
0000c0 af da 17 bf eb ef 0a bf 8c aa 1b 3f 8e 11 40 3f
       -0.5931806 -0.54272336 0.6080711 0.75026786
0000d0 84 74 4e 3d fd c6 46 3d 52 a1 a4 3d 68 d9 b5 3d
       0.050404087 0.048529614 0.08038582 0.088793576
0000e0 37 b4 e1 3d 70 a7 c9 bd c6 9c 16 bd 35 1b d7 bd
       0.110207014 -0.09846389 -0.036770605 -0.10503236
0000f0 9a d0 22 be 6a 3c 9f 3e 94 11 9a bd 63 27 1d 3d
       -0.15899888 0.3110078 -0.07522884 0.03836764
000100 1b c9 8e 3d 8d 50 83 bc fc d7 16 be 5b cc fe bd
       0.069719516 -0.01602962 -0.14730829 -0.124413215
000110 02 6d 02 bb 76 cc 66 3d 36 07 74 3e 5e be 9b 3c
       -0.00199014 0.056347333 0.23830876 0.019011673
000120 a6 51 17 3e 8a 1a b6 3e 0c fd b5 3d 23 4c 8a bc
       0.1477724 0.35567123 0.088861555 -0.016882008
000130 d5 28 7c 3d 03 3c 32 be 4d 6a 3f 3c b5 b7 a2 bd
       0.061562378 -0.17405705 0.011683059 -0.079451956
000140 d5 65 f2 bd f4 17 e7 3d 48 c4 c5 3d 05 ba 01 be
       -0.11835829 0.112838656 0.09656578 -0.12668617
000150 23 bb c2 3c 66 43 af bc fb 34 ab bc 27 1f 6e bd
       0.023770874 -0.021394443 -0.020899286 -0.058135178
000160 12 0b 48 3d 51 0e 9a bd 15 30 5c 3d 1d 87 00 3d
       0.048838682 -0.07522262 0.053756792 0.031378854
000170 06 33 b0 3d 51 df 49 3c 95 b6 00 be 40 b9 a8 bd
       0.08603482 0.012321309 -0.1256965 -0.08238459
000180 b6 de 81 3d 05 c1 d9 3c 63 0a 85 be 95 f1 07 be
       0.06341307 0.026581297 -0.25984487 -0.1327575
000190 05 2d 6b 3e 5c 51 c3 3e cf 65 af 3e 29 ca 10 3c
       0.22966392 0.3814801 0.3425736 0.008837261
0001a0 ee 6e 09 be f3 de 40 bd bb fb e4 bd 15 be e9 bd
       -0.13421223 -0.04708762 -0.11180826 -0.114132084
0001b0 ab 1e d2 bd 8f 42 7a bd 3c 54 f4 bd 35 18 94 3c
       -0.10259756 -0.06109863 -0.11930129 0.018077949
0001c0 ad 1d b9 bd bd 12 01 3d 72 3e b2 3d 11 d6 9d be
       -0.09038863 0.03151201 0.08703317 -0.30827382
0001d0 be 20 32 bc 79 ed 93 3d 5b 93 cf 3d a8 c0 f6 3c
       -0.010872064 0.07223029 0.10135528 0.030121163
0001e0 38 ef ef 3d a3 0e ef 3c ef 69 3d be 3a 9f b9 bd
       0.11715549 0.029181784 -0.18497442 -0.09063573
0001f0 3e 7f f9 bd 29 29 9a bd 3f 38 02 bd 89 64 7d bd
       -0.12182473 -0.07527382 -0.03179192 -0.061863456
000200 56 e9 8f be e6 0a 44 be 52 59 0f be 6b 24 3f be
       -0.2810771 -0.19144782 -0.13998917 -0.18666236
000210 b2 a4 22 bf bc f9 01 be 78 4b d6 bc 17 db 5d bd
       -0.63532555 -0.12692922 -0.026159033 -0.05416402
000220 37 2c 5a 3e df 35 19 3e e7 9b 00 3e e2 50 01 3f
       0.21305929 0.14961956 0.12559472 0.5051404
000230 0c 60 f6 3d f8 2c a5 3d 5c f0 f6 3d 17 7c 16 bc
       0.12030038 0.08065218 0.12057564 -0.009184859
000240 6a a6 e9 bd 86 9c 76 bd d4 19 b1 3d 1e d1 57 ba
       -0.11408694 -0.060207866 0.086475044 -0.000823276
000250 a7 47 81 bd 98 50 c7 bd 5f 69 f3 bd fc 85 db bd
       -0.06312495 -0.09732169 -0.11885332 -0.10718915
000260 7f f5 90 3e 1b 1c 3f 3d 3c 6a ed 3d 82 22 65 be
       0.283123 0.046657663 0.11592528 -0.22376445
000270 4e 3e a2 3d 1c 87 cb bd b6 f2 db bc 80 ec 52 bd
       0.0792204 -0.099378794 -0.026849132 -0.051495075
000280 4a a3 97 bd 8c 6a d8 bc 8d 98 8f bd c0 6a 57 bc
       -0.07404192 -0.026417993 -0.070115186 -0.01314801
000290 c3 60 71 3c d4 fa 06 be 9d fa 11 3e 1a cf d3 3d
       0.014732542 -0.13181621 0.14255758 0.10342236
0002a0 fe 67 54 3c 14 82 58 3e df 2a 31 bd c7 50 37 be
       0.012964247 0.21143371 -0.043253776 -0.17901908
0002b0 32 84 36 be c3 5e 38 be 6c ec 29 3d e2 43 5b 3e
       -0.17823866 -0.18004899 0.041485235 0.21412614
0002c0 ff 1b 70 bc c4 19 d7 bd c8 dd 3e 3e d6 e5 be 3d
       -0.014655112 -0.10502961 0.1863929 0.093211815
0002d0 ce 92 e4 3c f6 d2 d9 bc 3d e7 e2 3d 14 82 a8 3d
       0.027902033 -0.026589852 0.110792615 0.082279354
0002e0 1e c3 d5 3c f7 76 28 3d b0 2f fa bc 74 cc da bc
       0.026094016 0.04112908 -0.030540317 -0.026708819
0002f0 2a 57 d6 bd 7f ee 8c 3d 65 ea a4 3e 18 f7 aa 3e
       -0.10465844 0.06881427 0.3221008 0.33391643
000300 e5 b2 fd 3d a5 31 cc 3e d2 98 cc be b7 80 56 be
       0.12387637 0.39881626 -0.39960343 -0.20947538
000310 0a 87 62 be 53 4c 26 be 07 89 2d be 68 07 50 bd
       -0.22121826 -0.16240053 -0.16946803 -0.050788313
000320 1c 12 15 3e c3 d4 91 3e aa 9c c4 bd 2c 8f b2 bd
       0.1455769 0.28482637 -0.09600194 -0.08718714
000330 24 07 97 bd d1 0c b6 3d b2 fd 3a bd 64 63 db 3d
       -0.07374409 0.08889163 -0.0456521 0.10712317
000340 05 1b 3c 3d 64 bd 83 3c 2e d4 77 ba 38 aa cd bc
       0.045924205 0.01608152 -0.00094539195 -0.02510558
000350 87 88 82 3c fe 90 ed bc c2 79 9b 3e 0a 9a 85 3d
       0.015934242 -0.028999802 0.3036633 0.06523521
000360 9c e8 1d bd 90 85 11 3d 9d 06 d2 3d 8b 14 d3 bd
       -0.03855191 0.035527766 0.10255168 -0.10306653
000370 84 69 15 bc 0e a6 00 3e 36 26 f7 bd 5a 80 13 be
       -0.009119395 0.12563345 -0.12067835 -0.14404431
000380 7b ea e1 bc 33 4f dd 3d 50 f1 96 bd cc 1d 28 be
       -0.02757763 0.10806122 -0.073702455 -0.16417617
000390 82 74 f9 3d 35 c5 45 3d 87 32 1f be d6 22 33 3e
       0.12180425 0.048283774 -0.15546618 0.17493758
0003a0 b3 91 4a be 55 e0 1e be 2a 16 d7 3c ab 86 14 be
       -0.19782142 -0.15515263 0.026255686 -0.14504497
0003b0 72 51 61 3d f8 c8 07 be 7d 78 5c bd b1 b4 04 bc
       0.055009313 -0.13260257 -0.053825844 -0.008099721
0003c0 fe 03 ba 3b 70 9e 51 3e 37 15 05 3d 82 2f 55 39
       0.0056767454 0.20470595 0.032490935 0.00020330961
0003d0 39 ed c4 3d 5e d1 16 be 63 35 25 3d 7e ac 0b bd
       0.09615559 -0.14728305 0.040334117 -0.03410005
0003e0 fc 6c e5 3a 05 e2 b0 bc 54 fc 88 bd 3e 82 89 3c
       0.0017503793 -0.02159215 -0.06688753 0.016785737
0003f0 71 0d 31 3e 44 e3 29 3e 43 83 2e 3e 24 8b 8d 3e
       0.17290284 0.16590601 0.1704226 0.27645218

actor.0.bias f4 [64]
000000 ca 75 7c bd 18 43 a9 3a ec f0 d2 3d 3b a6 88 bd
       -0.06163577 0.0012913672 0.102998585 -0.06672331
000010 49 17 83 bd 76 29 ac bd bb b4 44 3d 54 24 47 be
       -0.06400926 -0.084063455 0.04802392 -0.19447452
000020 4b b4 24 3e 39 c0 15 be bf 16 f7 bd 27 6d 2f be
       0.16084401 -0.14624108 -0.12064885 -0.17131482
000030 14 05 21 be 0b 39 da 3b 75 12 40 be 47 05 28 3e
       -0.15724593 0.006659632 -0.18757041 0.16408263
000040 da 74 aa 3d 36 c6 ec bc c3 76 10 be e7 1c 00 be
       0.08323069 -0.028903108 -0.14107804 -0.12511025
000050 49 e7 39 bd bb 2b e8 bd a7 52 1a 3d 98 f6 f6 bd
       -0.045386586 -0.11336466 0.03767648 -0.12058753
000060 d2 1b a6 3c 8d a4 86 3d a2 5c ae 3d d8 70 2b 3e
       0.020276938 0.06574354 0.08513762 0.16742265
000070 d6 9c 9a bd e0 bd 20 be 4e c1 b3 bd 84 41 0d bc
       -0.07549445 -0.15697432 -0.08777104 -0.008621577
000080 f5 3a 46 bc 9b 75 10 be 52 df b3 bc 7a 02 2d bc
       -0.012099017 -0.14107363 -0.021957073 -0.0105596725
000090 4c a7 29 3e 27 ad 0c 3e b6 5d 41 bd 5f 68 8d bd
       0.16567725 0.13737927 -0.04720851 -0.06904673
0000a0 7f 02 38 3e 93 61 7a 3c 5a c7 8e bd 15 e9 d9 bc
       0.17969702 0.015282053 -0.06971617 -0.0266004
0000b0 ee 67 01 3d c2 54 a5 3d 60 82 7d bd 5f 2d 8d bd
       0.031593256 0.08072807 -0.061891913 -0.068934195
0000c0 e8 45 0a 3e cd 08 bc 3b 92 a1 d3 3d c6 4d 74 be
       0.1350323 0.005738354 0.103335515 -0.23857793
0000d0 30 d2 da bd ee 51 8f bd 4b 8f 84 3e 50 03 97 3e
       -0.10684621 -0.06998049 0.25890574 0.29494715
0000e0 c1 d0 04 3e d7 ca 2d 3c bf 8c 2e be 62 d1 88 bc
       0.12970258 0.010607443 -0.17045878 -0.016701404
0000f0 4d 91 47 bc eb 1a 8f bd dc 10 8d bd 60 b6 0d bd
       -0.0121806385 -0.06987556 -0.06887981 -0.034597754

actor.2.weight f4 [64, 64]
000000 ec 59 ae bd f9 c9 27 be e5 2b 7f 3d d8 6d bf bd
       -0.08513245 -0.1638564 0.06229772 -0.09347123
000010 fa 23 a5 bc 3c 87 8f 3d c6 c7 0c bd 36 c9 a7 bd
       -0.020158757 0.07008216 -0.034370206 -0.08192675
000020 7f ec 13 be f1 e0 6f bc 7c 73 80 bd a1 c8 06 bc
       -0.14445685 -0.014641033 -0.06272027 -0.008226545
000030 c1 77 9c 3c 89 00 77 bd 9a 94 ad 3d 9c b1 59 bd
       0.019100072 -0.060303245 0.08475609 -0.053147897
000040 df dd 90 bd ec 3b cc bd 78 57 1b 3d c3 a6 c8 bd
       -0.070735686 -0.09972367 0.037925214 -0.09797432
000050 9e 6b 00 3c 16 12 09 bd 13 33 8b 3d f7 56 a1 bd
       0.007838158 -0.033464514 0.06796851 -0.07877915
000060 fc 38 7c bd 67 db 07 bd 52 24 d7 bd 46 73 d6 3b
       -0.061577782 -0.033168223 -0.105049744 0.0065445034
000070 96 29 9f bd 60 a1 c2 3b c0 98 4f 3d 85 80 44 3d
       -0.07771604 0.0059396476 0.050682783 0.04797413
000080 97 48 31 bd e8 be 2f 3d f5 6b d7 bd 09 2a 12 be
       -0.043282118 0.04290667 -0.10518638 -0.14273848
000090 d5 0b 27 bd 9d 7c f7 bd 94 54 c6 bd 07 e6 32 3c
       -0.04078277 -0.12084315 -0.09684101 0.010919101
0000a0 73 52 97 3d e2 ff 91 bd ee 12 f8 bc e5 44 fc bd
       0.07388773 -0.07128884 -0.030282464 -0.12317828
0000b0 5f e0 8c bc 59 28 55 bb e1 ce 2e bd 15 16 99 3d
       -0.017196832 -0.003252527 -0.042677764 0.07474915
0000c0 08 b3 f0 bd 82 b3 6a bd e4 a0 c2 bd 01 47 a8 3d
       -0.117528975 -0.0573001 -0.09503344 0.08216668
0000d0 11 00 b5 3d 11 34 ce 3d 93 46 9d 3d b3 ed ea 3c
       0.08837903 0.10068525 0.076794766 0.028677797
0000e0 d1 90 ee bd 9f 2b ce bd 54 90 43 3c 80 fb 18 be
       -0.11648715 -0.10066914 0.011936266 -0.1493969
0000f0 fb b3 0a 3d 3c 7e 77 3c 90 2c b3 3b c8 32 16 be
       0.03386305 0.01510578 0.0054679587 -0.14667809
000100 0b cf 84 3e 83 c6 bf 3d 54 3c 5d bd a9 ab 14 3e
       0.2593921 0.09364035 -0.05401261 0.14518608
000110 52 9b e7 3d af 28 01 3d 9f 89 26 3e de 70 92 bd
       0.11308922 0.03153294 0.16263436 -0.07150434
000120 cf 7c 84 3a 4a 30 77 3e 09 cb b6 3d 29 4a a1 3d
       0.0010107997 0.24139515 0.08925445 0.07875473
000130 83 4c 16 be 5a 18 d4 3d a4 3b 42 be c1 82 92 be
       -0.14677624 0.10356207 -0.18968064 -0.28615382
000140 0f 57 18 be 28 6e e2 3d fa d1 7a bd b7 4b c1 3d
       -0.1487696 0.11056167 -0.061235406 0.094382696
000150 f1 44 fa 3d eb ac 6f 3e 6a 15 c9 3e 4b db 7c be
       0.12220181 0.23405807 0.3927415 -0.24693029
000160 8a 3a 13 3d 55 3f 79 bd 08 5d c9 3d 83 d3 51 3e
       0.0359445 -0.060851414 0.098321974 0.20490842
000170 51 c3 31 3d a8 66 87 3e 8d 34 3d 3d 1a 30 80 3e
       0.04339916 0.26445508 0.046192694 0.250367
000180 78 b5 cd bd 8c da 0e 3e 28 cf 2f bc 25 17 98 3d
       -0.10044378 0.13950557 -0.010730542 0.074262895
000190 f1 b3 90 be 9d 91 1d be 59 98 7c 3d 92 98 69 3e
       -0.28262284 -0.15387578 0.061668728 0.22812107
0001a0 83 55 87 be 68 ea 3b 3e d7 4e 40 3e 5e 4a 65 3e
       -0.26432428 0.18351138 0.18780075 0.2239165
0001b0 f1 a9 8d 3d aa 7e b5 bc 83 c4 8f 3e d4 e3 99 bd
       0.069171794 -0.022155125 0.28079614 -0.07514158
0001c0 ec ae b7 bd 56 d3 01 3d 87 03 be 3d d2 85 9c bd
       -0.089689106 0.031695686 0.092780165 -0.07642712
0001d0 38 36 b1 3d ff 36 1e bd ea 6a 54 be c0 85 37 3e
       0.086529195 -0.038626667 -0.2074391 0.17922115
0001e0 d8 94 a7 bd 65 5e 8c 3e d4 59 99 3d d6 3e 2f 3d
       -0.081826866 0.27415767 0.074878365 0.042784534
0001f0 7f 48 3d 3d ba 22 9b 3e fc 4c 52 3c 93 2b b1 3b
       0.046211716 0.30299932 0.012835737 0.005406806
000200 91 67 55 be 74 b7 e3 3b e6 9e 09 3e cf a9 d3 3d
       -0.20840289 0.0069493596 0.13439521 0.10335123
000210 34 6f 8b 3e 6d 16 a7 3e 3b 92 80 3d cf 72 4a be
       0.2723328 0.32634297 0.06277891 -0.19770359
000220 7b 83 de bc 3f 28 a3 bd de fc ae bd ca 61 c4 bd
       -0.027162304 -0.07966661 -0.08544324 -0.09588964
000230 c7 d1 5d bd 4a e9 44 3d 6d 4d 2e bc fe fb 43 be
       -0.054155137 0.048074044 -0.010638577 -0.19139096
000240 5b dc 84 be d1 f0 9e 3e 79 5c 3b 3e 54 a1 e1 3d
       -0.25949368 0.31043103 0.18296994 0.11017099
000250 26 3d 40 3d b8 c6 a4 bd c6 6c 27 be 71 74 8e bd
       0.046933316 -0.08045715 -0.16350088 -0.06955803
000260 be bd 52 3c fc 8a 37 be d1 28 4e 3e b9 f0 e5 bd
       0.012862621 -0.17924112 0.20132758 -0.11227555
000270 bb 72 91 3e 62 2e c7 bd b6 34 d8 3d d5 fd 1b 3d
       0.28407845 -0.09725644 0.10556929 0.03808387
000280 32 6c 2a 3c 22 61 20 3e 7d 3b c7 be 86 35 f9 bd
       0.010401772 0.15662053 -0.38912573 -0.12168412
000290 47 c0 2f be eb 51 04 be a8 3d 83 3d d5 4f 2e be
       -0.17163192 -0.12921874 0.06408244 -0.17022641
0002a0 06 5d 8b be 36 6e 7e 3d 4e ee af 3c 96 63 a4 3d
       -0.2721941 0.062116824 0.021475937 0.08026807
0002b0 e4 d1 35 be 9a 6e 0e bc 6a 00 50 3e ce 1f e1 bb
       -0.17755848 -0.008693362 0.20312658 -0.0068702465
0002c0 6a 8b 05 be d9 b7 0e 3e 84 ca 7b be 01 a2 b2 bb
       -0.13041463 0.1393732 -0.24588972 -0.0054514413
0002d0 56 f7 cf 3d ae d5 93 bd d1 b5 f3 bd c7 9c 62 be
       0.101545975 -0.072184905 -0.11899913 -0.22130118
0002e0 a1 e7 12 be f7 6f 35 bb 19 1a 67 3e cd 25 0f be
       -0.14346172 -0.0027685144 0.22568549 -0.13979264
0002f0 31 9d 64 3d 4c 19 cb 3e 04 44 5d 3d ab e9 b2 bd
       0.055813972 0.39667737 0.054019943 -0.08735975
000300 99 a6 af 3d 49 dc 76 3d 1f 34 f9 3d 7d 36 7b 3c
       0.08576698 0.060268674 0.121681444 0.015332815
000310 83 d9 8e bd d5 f8 a8 3c 7e b8 05 be 0f b6 1b 3e
       -0.06975081 0.020626465 -0.1305866 0.15206169
000320 e6 11 c7 3d 67 ab 35 bd 50 1c 87 be 36 f6 4d bd
       0.09720211 -0.044352915 -0.26388788 -0.050283633
000330 94 1e 2e be 73 68 03 3d 9f 2b c2 bc 62 9a 99 bd
       -0.17003852 0.032082032 -0.02370244 -0.07500149
000340 c5 22 38 bd 83 85 e1 3c e3 75 2c 3b 3b 3d a4 3d
       -0.044955034 0.027529484 0.0026315383 0.08019491
000350 71 df 18 bd b6 fd 74 3d 84 b6 92 bd 98 05 2a 3d
       -0.037322465 0.05981227 -0.07163718 0.04150924
000360 e9 8c a8 bc e2 f0 c8 3d ee d3 8b 3d e4 99 98 bd
       -0.020575004 0.0981157 0.06827532 -0.07451227
000370 d4 d8 f2 bd c6 ea 17 be d3 23 c5 bd d9 da 16 3b
       -0.11857763 -0.14835653 -0.096259736 0.0023018627
000380 75 f7 d2 3d ea 54 bd ba 49 bc 07 3e 6f 13 de 3b
       0.10301105 -0.0014444862 0.13255419 0.006777219
000390 bc 3f 2d be b4 89 c1 bd 59 ba 43 bd 92 28 94 bd
       -0.16918844 -0.09450093 -0.047785137 -0.07234301
0003a0 f5 93 0a be 0b dc 5b bd c5 f7 d5 bd 14 79 af bc
       -0.13533004 -0.053676646 -0.10447649 -0.02142004
0003b0 71 5a 99 3d c7 10 14 3d 53 b0 2c bd f6 58 f6 3c
       0.074879535 0.036148813 -0.042160343 0.030071717
0003c0 b9 29 27 3d 5f 48 17 3e b2 0d 6f be 06 1b 9a bd
       0.040811274 0.14773701 -0.23345068 -0.075246856
0003d0 2b cb 11 be 3a 91 69 be 6c 32 e0 3d ec e9 f1 bd
       -0.14237659 -0.22809306 0.10947117 -0.11812195
0003e0 a8 19 d3 bd 8d ac 1f 3c 44 30 07 be 8a ed 0f 3c
       -0.10307628 0.009745729 -0.13202006 0.008784661
0003f0 7f 45 95 bb 19 28 85 bd e9 01 78 3d e6 57 84 bd
       -0.0045554037 -0.06501789 0.060548697 -0.06462078

actor.2.bias f4 [64]
000000 23 86 af bd 47 fc 2a 3d 57 dc a4 3c 07 e1 1a be
       -0.085705064 0.041744497 0.020124597 -0.15124904
000010 88 89 00 bd 5d 87 6f 3e 76 92 35 be fb 83 0c bc
       -0.03138116 0.2339148 -0.17731652 -0.0085763885
000020 f1 57 07 bc f1 df 5e 3d 66 f4 b1 bc 8d df c5 3d
       -0.008260713 0.054412786 -0.021722984 0.096617796
000030 16 8c 0b be a0 0b b3 bd 2b 71 10 3d 30 49 0b 3e
       -0.13627657 -0.08742452 0.035264175 0.13602138
000040 f4 54 a1 bd bd 65 1e 3e 31 4e cc 3c c6 55 2e bc
       -0.07877532 0.15468498 0.024939628 -0.010640567
000050 bc 63 fb bc eb 0b 01 3d 67 3f e6 3d 06 f8 c8 3c
       -0.030687205 0.031505506 0.11242562 0.02453233
000060 48 63 da 3d a2 d0 1f 3c c0 d5 8a 3d cb 57 15 3d
       0.10663468 0.009754332 0.06779051 0.03646068
000070 fd f4 95 bd 4c 46 12 bd a4 4a b9 bd b4 ca 02 bd
       -0.073221184 -0.03571157 -0.0904744 -0.031931594
000080 53 0c f4 bd c0 41 09 3e 9d 3e cb 3c 5c 59 ed 3c
       -0.11916413 0.13403988 0.02481013 0.028973274
000090 6c 5d 27 3e cc 79 90 3d ed 08 c5 3d 0b 7a 7b bd
       0.16344231 0.07054481 0.09620843 -0.061395686
0000a0 bc fc 17 bd 4c 35 29 be a4 a0 13 bd 5b 4b 22 be
       -0.03710626 -0.16524237 -0.03604187 -0.15849058
0000b0 e4 ce 25 3d 8d 42 69 bd ea e9 cb bd 25 bd 7f bd
       0.04048051 -0.056948233 -0.09956725 -0.06243624
0000c0 09 26 90 3c 9a 2c d2 3d e4 d8 c2 bc be fa 79 bd
       0.017596262 0.10262413 -0.023785062 -0.061030142
0000d0 61 6f 8c bc 24 47 e5 bd 94 9e 9e bc 51 6b e3 3b
       -0.017142953 -0.111952096 -0.019362725 0.0069402833
0000e0 ea 6b 38 bd 30 19 2f 3e 63 21 a5 bb 53 26 13 3d
       -0.04502479 0.17099452 -0.0050393804 0.03592522
0000f0 c0 a9 9c bd ac 75 29 3d 89 ac 65 3d 93 04 4c 3e
       -0.07649565 0.041371986 0.056072745 0.1992362

actor.4.weight f4 [36, 64]
000000 b0 39 3a 3c c8 a9 5b 3e 34 55 93 3e b1 2d e2 bd
       0.011366293 0.21451485 0.28775942 -0.11043871
000010 8c 3c 9a bc 5a aa 9b be bd af a3 3e d8 1b f7 3e
       -0.0188277 -0.30403405 0.31970015 0.4826343
000020 fa c5 12 3e 76 55 aa 3d 95 00 15 3e 18 32 ad 3e
       0.14333335 0.08317082 0.14551003 0.3382728
000030 34 82 67 bd 79 27 dc bd f6 be 12 3f f9 9f b8 be
       -0.056520656 -0.10749716 0.57322633 -0.3605955
000040 20 47 97 3e 4f a4 ab bc e4 1e ad 3d 4e 04 20 3f
       0.29546452 -0.020952372 0.084531575 0.6250657
000050 f7 a1 6a be 32 78 dd be 4c 13 f1 bd da a6 d3 3c
       -0.22913347 -0.43255764 -0.11771259 0.025836397
000060 21 a9 c1 3e d9 17 47 3e 15 85 0f 3d 4e d8 87 3e
       0.37824348 0.19442691 0.035039026 0.26532215
000070 3c fb c9 be 1a 52 ad be 11 ec 98 3e db 1d 23 3f
       -0.3944949 -0.338517 0.29867604 0.6371743
000080 f9 bb b3 be 9b cb 90 be bb 57 9f be ab e9 05 3d
       -0.3510435 -0.2828034 -0.3112162 0.032693546
000090 89 91 fe 3d 24 65 2f 3e 8e eb c7 bd 7e e8 e3 3d
       0.124301024 0.17128426 -0.09761725 0.11128329
0000a0 90 ab 88 be 5c 37 3a 3d 73 db 10 be 50 a0 2a bd
       -0.26693392 0.04546295 -0.14146213 -0.041656792
0000b0 52 61 10 be f4 d1 82 3d 68 22 be 3d df ff f1 3c
       -0.14099625 0.06387702 0.09283906 0.029540954
0000c0 76 a3 6b 3e cc 3d 1e 3e 4d 8c 03 bd d5 c7 9f be
       0.23011574 0.15453261 -0.032116223 -0.31207147
0000d0 ec a4 82 3d 4c 93 96 bd bc 74 09 3f 47 1c 68 3e
       0.063791126 -0.073523134 0.5369375 0.22667037
0000e0 c3 b7 c7 bc a7 61 8c be 06 57 b0 be cc cf dc bd
       -0.024379617 -0.27418253 -0.34441394 -0.107818216
0000f0 b8 41 a7 bd 2a 16 9a bc 4c c0 a7 3c d1 1c fb bd
       -0.08166832 -0.018809397 0.020477436 -0.12261356
000100 ab 3e b3 bd b4 3b 4e 3e 91 09 c8 3d 6d ff 0a 3d
       -0.08752187 0.20139962 0.0976745 0.033935
000110 d8 c0 a1 3d 00 cc 23 3e a4 0f 86 3e b0 88 38 3d
       0.0789811 0.15995789 0.26183808 0.04505223
000120 e4 81 60 be a0 05 87 3e 51 43 a9 3d 40 c6 8f 3e
       -0.2192455 0.2637148 0.08264793 0.2808094
000130 97 75 3a 3d 71 f3 2d be 73 9a 5a be 04 d8 4f 3e
       0.0455223 -0.16987397 -0.2134798 0.20297247
000140 bb 0d 5d be 31 e4 e7 3e 4b 98 81 be e0 0a 35 be
       -0.21587269 0.45291284 -0.25311503 -0.1767993
000150 ec 70 f7 3e e8 06 ed 3e 22 4e 42 be cc f2 9e bd
       0.4832834 0.46294332 -0.18975118 -0.077611536
000160 2a 2f 93 be e1 5a 8c 3e 80 a0 a2 bc f3 b7 51 3e
       -0.2874692 0.27413085 -0.019851923 0.20480327
000170 c6 d8 58 3e 62 40 bb 3c fc bb f8 bc 19 40 75 bc
       0.21176443 0.022857849 -0.030363075 -0.014968895
000180 ee 28 71 bd fc af 86 be 25 be 12 3f d7 e0 9f be
       -0.058876924 -0.2630614 0.5732139 -0.31226227
000190 a2 db 02 3f b7 01 87 3e f9 5b c6 3e 09 bb ed bd
       0.51116383 0.26368496 0.38742045 -0.1160794
0001a0 44 81 94 3e 2b f4 96 bd d0 1a 05 bd 60 cb a3 bd
       0.29004872 -0.0737079 -0.032496274 -0.07997775
0001b0 ca 64 b5 3d 04 91 cc 3c 92 b9 9c 3d 97 cb 35 3d
       0.088571146 0.024971493 0.07652582 0.04438361
0001c0 ec 63 94 be c7 7f 22 3e e9 d0 d2 3d 6b 27 5d bd
       -0.28982484 0.15869056 0.10293753 -0.05399267
0001d0 e7 d7 91 3e 23 43 bf 3d b8 e9 05 bc 37 62 b7 3d
       0.28485033 0.09338977 -0.008173399 0.0895428
0001e0 bb 3e c9 3c 82 29 5e 3e 81 3c 76 be 0a 28 f9 3d
       0.024566045 0.21695521 -0.24046518 0.1216584
0001f0 a8 4c a0 3d 51 50 91 3e 3b 1b 3e 3e cb 75 c9 bd
       0.07827121 0.2838159 0.18565075 -0.0983692
000200 34 2c df 3d 42 da 05 3e 77 83 f6 3e 00 3c b9 3c
       0.10897103 0.1307154 0.48147175 0.022611618
000210 ad 4a ac bb 4c 76 e3 3e 0a f9 40 be dc d2 d3 bd
       -0.0052579255 0.4442619 -0.18845001 -0.103429526
000220 5b bf 26 be ce 4c 59 3c 36 c2 3d 3e ae 71 1f 3d
       -0.16283934 0.013262941 0.18531117 0.038926773
000230 25 e3 68 3e 8f 6c 80 ba 8e 7c 91 be 31 22 bb be
       0.22742899 -0.0009797978 -0.2841534 -0.36549523
000240 9d a8 ad bb e7 f5 53 3e 74 8f 8f 3e 61 f2 2a be
       -0.0052996413 0.20699273 0.28039134 -0.16694023
000250 16 67 9c 3d a1 4d bf 3d e0 38 45 bc b9 15 13 bc
       0.076368496 0.093409784 -0.012037486 -0.008977347
000260 9a 9a 12 be 53 c2 b5 3d 98 a1 05 3b 08 0c 36 3e
       -0.14316788 0.08874955 0.0020390507 0.17778027
000270 b5 ab d2 3e 0d a4 74 bd a2 6b 45 3e 96 f8 07 be
       0.41146627 -0.059726764 0.1927934 -0.13278422
000280 00 1b 01 3e d8 8b b9 be ee 6a 74 3e cd cf 92 3e
       0.12607956 -0.36239505 0.23868915 0.28674164
000290 14 3a 81 3e 1f a5 1d 3c 47 d8 8b 3e 80 5c d6 3e
       0.25239623 0.0096218875 0.27313444 0.41867447
0002a0 aa 0b 9c 3e e0 17 61 3d a9 cc 96 ba 72 bf 03 be
       0.3047765 0.05495441 -0.0011505085 -0.12866
0002b0 46 4f c5 bd 9f ad 36 3d f8 1a fa 3e 30 4d a9 3d
       -0.09634261 0.04459917 0.488487 0.082666755
0002c0 cb 78 6b 3c 1a c4 7a 3e b2 ab a8 bd aa 43 82 3e
       0.014372061 0.2448887 -0.08235873 0.2544225
0002d0 44 33 54 3e ed f6 26 bd fd 44 91 bd 1b 41 db 3e
       0.20722681 -0.04076283 -0.070932366 0.4282311
0002e0 4a ab 57 bd ee 36 6d be c6 82 d6 be 31 35 1d 3b
       -0.05265359 -0.23165485 -0.41896647 0.0023988003
0002f0 10 ac 0c 3c cd 4c bb 3e 99 63 44 bd fe e9 32 be
       0.008585945 0.36582032 -0.047946546 -0.17472073
000300 14 53 de 3d c8 49 3f bc 0a 7a 0a bc 4f 31 82 3d
       0.1085569 -0.011675306 -0.008451948 0.06357061
000310 11 b5 97 3d d9 50 7e 3e 94 70 d4 3d 09 b9 e7 3d
       0.074075826 0.24835528 0.10373035 0.113145895
000320 0f 4f 51 be 87 dc 1d 3e 5d c4 94 3e e4 09 bd 3d
       -0.20440315 0.15416156 0.29056063 0.09230402
000330 8b 55 d8 3c c8 6c f3 bc fb 21 6b 3c 62 a0 85 3e
       0.026407978 -0.029714957 0.014351363 0.26098925
000340 e3 ee 07 3e 5d dc 16 3e 63 6f 30 be 7e 04 55 3d
       0.13274722 0.147325 -0.1722999 0.052006237
000350 fb 76 01 3d 57 7f e9 3d 79 ac b6 bd 1a 24 2b 3e
       0.03160761 0.11401241 -0.08919615 0.1671299
000360 09 9e b5 3d 6d 50 51 be dc 1d 52 bd 09 c8 f6 bc
       0.088680334 -0.20440836 -0.051298007 -0.030124681
000370 05 3e df 3d af 5e 0c 3e e7 95 0a 3e 76 47 11 be
       0.10900501 0.13707994 0.13533746 -0.14187416
000380 60 bd cb 3d c0 b8 9f 3e eb 65 93 3b 10 fe 29 bd
       0.0994823 0.3119564 0.0044982336 -0.04150206
000390 da ec 9b bd 44 f4 09 3e 0e dc 75 bc 47 73 83 ba
       -0.07613535 0.13472086 -0.015006078 -0.0010028862
0003a0 6c aa 7b 3d 76 5b 11 3e 59 7e 15 3e 8b 04 a2 be
       0.061441824 0.14195046 0.14598979 -0.3164409
0003b0 33 2a f9 bc ef 90 99 3d d9 90 c7 3d 02 8a 5a bd
       -0.03041563 0.07498347 0.097444244 -0.05335427
0003c0 66 e0 a1 be 6e c6 9f 3d ce 4d c2 bd ab 8f 75 bd
       -0.31616515 0.07801519 -0.09487496 -0.059951466
0003d0 42 db 85 3e 12 83 9d 3d 87 29 b8 3d a6 25 98 3d
       0.26143843 0.07691015 0.08992296 0.07429056
0003e0 c6 fc f9 3d d0 8c 92 bb 71 88 ed 3d 42 f9 94 3c
       0.12206416 -0.0044723526 0.1159829 0.018185262
0003f0 26 2f a3 bd 11 53 6a 3e aa 05 47 bd 99 6e b6 3d
       -0.07967977 0.2288325 -0.048589386 0.089078136

actor.4.bias f4 [36]
000000 5c 06 28 be b0 ad f0 3d 1d c8 11 be 09 86 61 3d
       -0.16408676 0.11751878 -0.14236493 0.055059467
000010 37 1f 6a 3e 68 94 b9 bd 1d ff 94 3d 85 0f 71 3e
       0.2286347 -0.09061509 0.072752215 0.23541076
000020 67 5c 9c bd fe d9 17 bc 2e 00 22 bd 84 3f b3 bd
       -0.07634812 -0.009268282 -0.039550953 -0.08752349
000030 c0 bd 0b bd 85 f5 45 3e 7d 28 2a 3e f7 dd 6f 3d
       -0.034116507 0.1933194 0.16617008 0.05856129
000040 b5 d8 10 3e 0e 70 79 bd c6 d8 0c 3d da ff 6d 3e
       0.14145167 -0.06089788 0.03438642 0.23242131
000050 d3 04 8c 3d 3a 01 a1 bc e6 9c 65 bd 2c b8 8d 3d
       0.06836858 -0.019653905 -0.056057833 0.069198936
000060 93 3e 56 3e 87 77 b1 3d 23 1d 62 3e c1 2f 67 be
       0.20922308 0.08665376 0.22081427 -0.2257681
000070 ac af c3 3c 1f 84 1d 3e 58 7a 33 3e 63 c9 b7 bc
       0.023887478 0.15382431 0.17527139 -0.022434896
000080 f0 07 a5 3d c4 51 14 3e e3 23 b5 3c 80 54 34 3e
       0.080581546 0.14484316 0.022111839 0.17610359

critic.0.weight f4 [64, 62]
000000 c8 60 9c 3d 6a 19 ab 3d 31 d8 ab bd 6c 5b 1b 3c
       0.07635647 0.08354457 -0.083908446 0.009482246
000010 73 08 72 bd a0 da fa bc d9 b9 01 3c 8d 36 c5 3c
       -0.05909009 -0.030621827 0.007917845 0.024073863
000020 73 bf 99 bd 94 15 a9 bc 03 29 70 bd 08 dc 05 bd
       -0.07507219 -0.020640172 -0.05863286 -0.03268054
000030 de a3 ad bd 16 de 87 bd 7f 87 a2 bd 9b 6b b4 bd
       -0.08478521 -0.066341564 -0.07936 -0.088095866
000040 fe 10 09 bc ab 20 dd bd 13 fe f7 bd c8 76 b6 3d
       -0.008365868 -0.107972465 -0.12109008 0.089093745
000050 0c 4a bb bd 7c 17 b6 3d d6 10 10 3c 3e 3c 98 bc
       -0.09144983 0.08891198 0.0087930765 -0.018583413
000060 ef 3e c9 3d 27 17 cb bd c0 34 79 3d b3 99 ad 3d
       0.09826457 -0.09916525 0.060841322 0.084765814
000070 c6 2d 73 3d 71 8b 04 be 41 27 8f bc 71 02 50 bc
       0.059369825 -0.12943818 -0.017474772 -0.012695895
000080 f2 fb c0 bd 9a a3 b1 3d 52 32 b7 bc 73 eb af 3d
       -0.09423055 0.08673783 -0.022362862 0.0858983
000090 16 0d 8c bd 74 b4 66 bd f1 95 43 3d 86 ef 84 3c
       -0.068384334 -0.056324437 0.047750417 0.016227495
0000a0 c4 10 95 3d 69 e9 5d 3d f8 85 9b 3d 3b ba bf bd
       0.072785884 0.054177675 0.07593912 -0.093616925
0000b0 33 15 eb 3c 61 2f c1 3d 07 ad 94 bd 24 07 a0 bd
       0.028696632 0.09432865 -0.07259565 -0.07813862
0000c0 73 ed ff 3d fe d0 d9 bd d4 20 1e bd 0e d7 ad bd
       0.12496462 -0.10635565 -0.038605526 -0.08488284
0000d0 12 b7 00 3d 2c 75 37 3b 52 7c 0c be 3b 07 39 3d
       0.03142459 0.0027993424 -0.137193 0.04517291
0000e0 4e 27 d9 3c 8a 36 30 3d af 98 fe bd d5 40 11 be
       0.026508 0.043020763 -0.12431466 -0.14184888
0000f0 08 35 15 be aa 2e 73 bd dd 19 e7 bd cc bf 83 3d
       -0.14571011 -0.059370674 -0.1128423 0.06433067
000100 28 39 8d bc 13 25 4d bd 21 aa 43 3d 16 44 67 3e
       -0.017239168 -0.050084185 0.04776967 0.22584566
000110 de 15 0e 3e 63 bc c9 3d 46 38 3e be 68 80 ab be
       0.13875529 0.09850385 -0.18576154 -0.33496404
000120 21 9b d7 bd a0 a9 27 3e 14 c0 02 bd 70 c7 26 3e
       -0.10527635 0.163733 -0.03192146 0.16287017
000130 8d 78 e4 3c 5e b7 a6 3d a3 f5 d4 3d fb 2e df 3d
       0.027889514 0.08140443 0.10398414 0.10897633
000140 bf 91 8b 3d 45 04 df bb 5d 60 05 bd 76 59 f8 bd
       0.06814908 -0.006805929 -0.032562602 -0.12126438
000150 e2 da 88 3d 00 cd eb bc a8 10 a3 3c ed f3 ea bc
       0.066823736 -0.028784275 0.019905403 -0.028680766
000160 15 fc a7 3d bd 3a 84 3b 1e bc 80 be fa 76 0f be
       0.08202378 0.0040353225 -0.25143522 -0.1401023
000170 d6 99 5e 3d ab 7a 8f be 73 dd 70 3d 5f 54 99 bd
       0.054345928 -0.28023276 0.05880494 -0.07486796
000180 b5 e9 b6 3d e7 7b c9 3d 14 8e 79 3e cb 67 2f 3d
       0.08931295 0.098380856 0.24370605 0.042823594
000190 65 bd 99 bc 8c b7 74 3e b7 be 18 3d e9 42 da bd
       -0.018767068 0.23898143 0.037291255 -0.10657293
0001a0 5d 0e fc bd a9 de 7d be 6f 18 60 3d 4d 9b 81 3b
       -0.12307427 -0.2479197 0.0547108 0.003955281
0001b0 75 15 df 3d dc db d7 3e 90 fd 08 be 0d 84 a0 bd
       0.108927645 0.42159927 -0.13377976 -0.07837687
0001c0 d9 1e df bc 31 13 4e bd b0 1b 3f bd 4d 10 06 3e
       -0.027236389 -0.05031127 -0.046657264 0.13092156
0001d0 71 e5 85 be 38 16 31 3d 5d 6c 47 3c 8e 46 48 3d
       -0.26151612 0.04323408 0.012171832 0.04889541
0001e0 c1 96 ec 3d 72 aa ad 3d 5e 38 26 3e a1 08 44 3d
       0.115521915 0.084797755 0.1623244 0.04785979
0001f0 1a 4f d7 bd 14 23 a3 3d 1f 64 d7 3d 23 24 47 3d
       -0.10513134 0.07965675 0.105171435 0.048618447
000200 5f 56 6f be 77 ec b2 bd 28 4d 3d be 8c 98 fe bd
       -0.23372792 -0.08736508 -0.18486464 -0.1243144
000210 6c f6 17 bd 3d 1c 0d be 66 18 dc 3d 5a a2 11 3d
       -0.03710024 -0.13780303 0.10746841 0.03555522
000220 87 56 55 be a8 7a a2 3c f6 95 29 be 93 97 bb bd
       -0.20833789 0.019833878 -0.16561112 -0.0915977
000230 01 1f a3 bc 0a a1 99 bd de 74 f2 3d 9b 83 d3 bd
       -0.019912245 -0.07501419 0.11838697 -0.10327836
000240 2b c6 f2 3d 77 ec af bc ce 58 bc 3c 04 7c e2 3d
       0.11854204 -0.02147506 0.022991564 0.1105881
000250 c3 b2 70 bd ad bd 40 bd c4 37 57 3d c2 ca 03 bd
       -0.05876423 -0.04705589 0.052543417 -0.032175787
000260 aa 33 ae bd 4f 3d 58 3b ee 3f 9d 3a 3b 58 d1 bc
       -0.08505948 0.0032995527 0.0011997202 -0.025554767
000270 a6 e6 63 bd c6 7e 53 3d fd 69 49 3c 22 0e c8 bd
       -0.055639885 0.051634572 0.012293336 -0.097683206
000280 ab 8e fa bd ac cc 31 be f1 a1 06 bd 42 a4 30 3e
       -0.12234243 -0.17363232 -0.032869283 0.1725016
000290 5f 25 c2 bd 43 1d 0f be 00 02 08 be 64 20 d6 bd
       -0.09479784 -0.13976006 -0.13282013 -0.10455397
0002a0 bb 92 a5 3d df 0f c3 3d e1 31 ec bd 41 11 ae 3e
       0.08084627 0.095245115 -0.11532951 0.3399754
0002b0 c9 1a 02 be fc f3 db 3d 3d dd 93 3d fc 66 4a 3e
       -0.1270553 0.10739896 0.07219932 0.19765848
0002c0 de 67 77 3d c0 9b 26 3e 61 ae 5f ba ef 22 58 3d
       0.06040179 0.16270351 -0.00085327594 0.05276769
0002d0 a6 71 f7 bd b5 a2 e9 bb 17 b3 73 bc 74 20 38 bc
       -0.120822236 -0.007129992 -0.014874241 -0.011238206
0002e0 ba 88 c1 3d 8a c2 c8 3d 5d 8e eb bd c2 11 ef bd
       0.09449907 0.098027304 -0.11501763 -0.11673309
0002f0 8d ab d9 bd 5c f5 b5 3d c0 bc a0 bd 16 89 6e be
       -0.10628424 0.08884689 -0.07848501 -0.23294482
000300 6c 94 81 3d 34 fe 29 3e 5e f3 55 3d e8 e6 00 be
       0.06327137 0.16600877 0.052234046 -0.12588084
000310 5c 3f b9 3d 1d f3 43 3e 4b 5b a8 3d 9f 7f d2 bd
       0.09045288 0.19135709 0.08220538 -0.10278248
000320 de 3e b6 3c e8 f9 83 bd 91 5f 1b bd 4b 6d a1 bd
       0.022246774 -0.0644415 -0.037932936 -0.07882174
000330 82 c9 ab bd 45 23 b8 3d da a5 ac 3c 59 b8 2a 3d
       -0.08388044 0.08991102 0.021075178 0.041679714
000340 d5 03 bd bd b2 e2 c0 3c 8d b4 e7 3d 4d 75 8e 3d
       -0.092292465 0.023545597 0.11313734 0.06955967
000350 4c 09 b6 bb 37 79 6f bd a6 98 86 3e 3a 45 b9 3d
       -0.0055553075 -0.05846521 0.26288337 0.09046407
000360 7a f7 87 bd 07 ed 65 3d 0b 87 13 bd a7 04 a4 bb
       -0.06638999 0.05613425 -0.03601746 -0.0050054374
000370 5b dd f4 bc 8e 49 9a bd 5a bf 78 bd 85 7e 02 bd
       -0.029890707 -0.07533561 -0.060729362 -0.03185894
000380 74 8c e3 bd 29 48 2b bc ce 55 b0 ba b1 f4 65 be
       -0.11110774 -0.010454216 -0.0013453306 -0.22456624
000390 49 c8 e1 3d 5f d3 3c 3c ab b3 0c 3d d1 c0 d7 bd
       0.110245295 0.011525004 0.034351032 -0.10534824
0003a0 ce 86 60 3b fa ba 7b 3d 72 8a 11 bd 9f 4e 0f be
       0.0034260037 0.06145761 -0.035532422 -0.13994835
0003b0 e5 f7 9f 3d 37 b5 cf bd bd 15 b7 3d 57 8d 7a 3c
       0.07810954 -0.10141986 0.08939693 0.015292487
0003c0 e9 01 3a bd 76 62 8c bd 48 41 05 be 13 47 a0 bc
       -0.045411978 -0.068547174 -0.13013184 -0.01956514
0003d0 03 59 13 be d3 cc 3a 3d 5f 2f a2 bb 8f 00 10 3d
       -0.14389424 0.04560549 -0.0049494947 0.035156783
0003e0 3e f8 8b 3d 01 79 b8 3d d0 2e ea bd c8 31 a8 bd
       0.06834458 0.09007455 -0.1143471 -0.0821262
0003f0 67 ef bd bc c4 0d 16 be 7e 16 49 3e 28 7f 15 3e
       -0.023185445 -0.14653689 0.19637486 0.14599288

critic.0.bias f4 [64]
000000 be aa 19 be 3e 1c c5 3d 68 e8 cb bd 80 43 da bd
       -0.15006539 0.096245274 -0.09956437 -0.10657406
000010 17 48 d3 bd 54 69 96 3d b2 b6 8a bd 58 28 37 be
       -0.103164844 0.073443085 -0.067731276 -0.17886484
000020 a6 41 1e be ca b2 ed bd 81 a0 ff bd 3c 3c 00 bb
       -0.1545473 -0.11606367 -0.124817856 -0.0019567152
000030 a6 2c ac bd 3c f9 49 be 82 3c 39 be 0f fd 10 3e
       -0.084069535 -0.19723982 -0.18089488 0.14159034
000040 87 71 7b bd f4 10 8f 3e 18 1b a4 bd b6 72 14 bd
       -0.061387565 0.27942622 -0.0801298 -0.03624221
000050 83 08 85 bd d3 95 12 be 15 e2 6c bd c2 d3 5d bd
       -0.06495764 -0.14314966 -0.057832796 -0.054157026
000060 62 ac 0f 3e a1 7e 55 be 4e 88 d7 bd ec 76 e5 bd
       0.14030603 -0.20849086 -0.10524045 -0.11204323
000070 89 43 92 bd fe 26 22 3d bc 16 0a bb 86 bc 51 bb
       -0.071417876 0.039587967 -0.002107068 -0.0032003238
000080 b4 8f d8 bd 45 f8 b9 bc e2 99 d5 3c f9 20 1e 3d
       -0.10574284 -0.022701392 0.026074354 0.038605664
000090 1a d2 53 be ca fd 7b bb 83 d8 28 bd a9 ea 12 3e
       -0.20685616 -0.003845083 -0.041222107 0.14347328
0000a0 65 ba 11 be c2 62 31 be fb dd 6b be 91 90 52 be
       -0.1423126 -0.1732283 -0.23033898 -0.2056296
0000b0 5c 8b ca bd 8d 2b 37 be 4b d7 f3 3d 4e 33 9b bd
       -0.09889862 -0.17887707 0.11906298 -0.07578145
0000c0 0f 0b 2c 3d 9b 85 73 bc c3 e7 39 3e 44 30 91 bc
       0.042002734 -0.014863397 0.18154816 -0.01772321
0000d0 3b b0 e3 bd f5 ca 1d be 38 6e 13 be 89 e6 52 be
       -0.11117598 -0.15409453 -0.14397514 -0.20595755
0000e0 9e 3e 98 3d 56 0a e0 bc a4 75 35 be b4 5e 6e 3b
       0.07433818 -0.027348679 -0.17720658 0.0036372365
0000f0 c4 0d c4 ba b8 66 3c be 91 98 de bd b7 f4 77 be
       -0.0014957716 -0.18398559 -0.108689435 -0.24214445

critic.2.weight f4 [64, 64]
000000 bf 41 ed bc 40 a3 47 b7 1e dd 55 bd 94 43 77 bc
       -0.028962014 -1.1899334e-05 -0.052212827 -0.0150917955
000010 e7 16 36 3b b6 16 32 3d 97 2e 46 be 85 ed ef 3c
       0.0027784647 0.04347869 -0.1935371 0.029288063
000020 46 0b 10 3d 37 02 8a bd 8e ad ed bc d1 db f9 3d
       0.035167 -0.06738704 -0.029013421 0.1220013
000030 f5 5c 50 bd ee 5a 64 3d 2d 0a c3 bc 7a 96 50 3d
       -0.0508699 0.05575078 -0.023808563 0.050924756
000040 23 d6 29 be a1 98 d3 3e a3 3c 26 bd 58 31 6d 3d
       -0.16585593 0.41327384 -0.04058517 0.057908386
000050 1e 13 c8 bd 4c 71 bf bb e0 63 84 3d 1b 41 d0 3d
       -0.09769271 -0.0058423635 0.06464362 0.10168668
000060 2f f7 55 be c7 1e d1 bd 9f 22 8a bd aa ae 73 3c
       -0.20895074 -0.102109484 -0.06744885 0.014873186
000070 d9 56 ac 3c ae 66 0e 3e 53 ac 68 3d a7 00 b5 3d
       0.021037506 0.13906357 0.056804966 0.08838015
000080 ef 13 6e bd a4 52 19 be b9 4a 6f 3d b9 7f f7 3d
       -0.05812448 -0.14972931 0.05842087 0.12084908
000090 0c 1b de bd df dd 93 3d 3f 91 90 3c 0c e1 99 3d
       -0.108450025 0.07220053 0.017647384 0.075136274
0000a0 4b aa 5a bd 13 5c 59 3d 12 04 19 3b 14 18 1c be
       -0.05338506 0.053066324 0.0023348373 -0.1524356
0000b0 b1 3e 62 be 96 25 d9 bd cd e0 e8 3b 7b cb 3b be
       -0.22094227 -0.10602872 0.0071068765 -0.1833934
0000c0 83 d6 d3 3d 62 9a 96 bc dc 1c 4b be 07 b4 dc 3d
       0.10343649 -0.018384162 -0.19835228 0.10776525
0000d0 c0 62 86 be ca f1 0d bd a8 89 9d be 48 8a 5e bd
       -0.26247215 -0.034654416 -0.30769086 -0.054331094
0000e0 e8 62 05 3e 4b 65 01 3c 72 a5 cb 3d a9 05 2b be
       0.13026011 0.007897685 0.099436656 -0.16701378
0000f0 c0 58 a1 bd c8 6b e1 bb 4d 4b 08 3e 31 9d 13 be
       -0.07878256 -0.0068793036 0.13309975 -0.14415433
000100 e0 49 6d bc 02 b3 87 bc f9 01 1d bd 04 93 1d bd
       -0.014482945 -0.01656485 -0.03833196 -0.038470283
000110 3e 76 db bd 5a fe 8e bd 7f 69 ba bd d4 f9 b3 3d
       -0.10715912 -0.069821075 -0.09102153 0.08787885
000120 ed ee 62 bd 34 99 d8 bd d3 fa d4 bd d9 41 db bd
       -0.05540364 -0.10576096 -0.103994034 -0.10705919
000130 65 69 45 bd 6a 2b 8a bd 60 54 d7 bd 6c 27 64 bd
       -0.048196215 -0.06746562 -0.1051414 -0.055701658
000140 86 8a 6a 3d 3c 9b e3 bd 1a 29 2a bd a3 db bb 3d
       0.057261012 -0.11113593 -0.041543104 0.09172752
000150 a1 12 4c 3d d8 69 63 3c 66 6e 0d 3d 37 76 98 bd
       0.049822453 0.013880216 0.034529112 -0.07444423
000160 01 1c e8 bd 68 37 b7 bd 8d dc b6 bd 10 0f 9a 3d
       -0.11333466 -0.08946115 -0.089287855 0.07522404
000170 66 de 57 bc ab 43 ec bd 62 0c e7 bd 7d 58 d7 bc
       -0.0131755825 -0.11536344 -0.11281659 -0.026287312
000180 cc bd 4a 3d 8b 44 4a bc b4 04 ef 3b c9 f0 84 bd
       0.04949741 -0.0123454435 0.007294262 -0.064912386
000190 46 3d b9 bc ae 1d 62 3d 18 71 ba 3c 61 c7 47 bd
       -0.022612225 0.055204086 0.022759005 -0.048774127
0001a0 50 cf ff 3d a6 15 8c 3d 74 4b ea 3c 86 3f 2d 3d
       0.124907136 0.068400666 0.028600432 0.04229691
0001b0 4e 0c 88 3d 7c 87 01 bd c8 6a 0d 3c 07 f8 53 bd
       0.06642972 -0.03162335 0.008631416 -0.05175021
0001c0 d1 b0 66 bd 90 7e 4d bc 12 df f1 bd b5 b3 90 3d
       -0.05632097 -0.012542382 -0.118101254 0.070655264
0001d0 c1 e9 ce bd d4 71 09 be 82 3e 6f bd 40 0a 88 3d
       -0.10103179 -0.13422328 -0.05840922 0.0664258
0001e0 e2 6a c9 bd 25 7b 39 bd 7e 5d 62 3d 95 b8 d1 bd
       -0.098348394 -0.045283455 0.055264942 -0.10240284
0001f0 90 66 c6 3d 00 8a 5d 3d a7 4d c3 3c 63 f1 45 bc
       0.09687531 0.054086685 0.023840738 -0.012081477
000200 f9 74 b1 3d 98 e1 a9 bd c7 5b 94 bd 0e c1 93 3c
       0.08664889 -0.08294982 -0.07244068 0.018036392
000210 e4 17 1a be 34 e2 87 3c 8b a8 6d 3d 80 c9 8e 3c
       -0.15048176 0.016587354 0.058022063 0.017430067
000220 64 53 fa bd 3d 63 21 39 dd b1 9d bc 36 42 ff bd
       -0.12222937 0.00015391126 -0.01924985 -0.124638006
000230 45 8d 88 bd 23 94 a0 bd 80 08 bc 3d de a7 ec bd
       -0.0666757 -0.07840755 0.09181309 -0.115554556
000240 b5 a5 ea bd 80 a9 cf ba 19 13 29 3d 49 b6 9e bd
       -0.11457387 -0.0015843362 0.04127798 -0.07749612
000250 b2 5e a3 3c d4 2c 81 3d 7d c6 e5 3d c1 55 99 3d
       0.019942615 0.063073784 0.11219499 0.074870594
000260 c3 96 8e bd 2a a7 a8 3d c3 c8 59 3d 95 7c 0e be
       -0.06962349 0.08235009 0.053169977 -0.13914712
000270 1a db 08 3c bb f5 0a be 6f 31 a9 3d 0c 99 01 be
       0.008353019 -0.13570301 0.08261382 -0.12656039
000280 45 fc 6f 3d fe 1e 90 bd 57 fb ab 3c c3 c1 17 be
       0.058590192 -0.07037161 0.020993872 -0.14820008
000290 cc e8 88 3d 8b 35 d0 3c d0 ff f0 3c 34 d2 05 be
       0.066850275 0.025416156 0.029418856 -0.13068467
0002a0 7e 99 d5 3d 3e ed 94 bc d0 49 62 bd 8c 41 f8 bc
       0.10429667 -0.018179532 -0.055246174 -0.030304693
0002b0 ab 07 45 bd b8 fd 41 be 85 5b 91 bc b6 a0 fb 3d
       -0.048103016 -0.18944442 -0.017743835 0.122865126
0002c0 43 19 f4 3c ea ce d6 3c eb 01 83 bd 19 76 e4 bd
       0.029797202 0.026221711 -0.0639685 -0.11155338
0002d0 50 c8 96 3d 74 bb c2 bc ca a5 5a bd 85 46 40 3c
       0.07362425 -0.023771025 -0.053380765 0.011735563
0002e0 6f 8c 76 bd 19 f2 fd bc b7 b5 25 be 86 00 d0 bc
       -0.06019252 -0.03099923 -0.161826 -0.025390875
0002f0 4d a0 0d bd af 49 d4 bd ae c7 6a 3d a2 dd 1a be
       -0.034576703 -0.103656165 0.057319336 -0.15123609
000300 bb 18 0d bd fc e7 e7 bc ca c0 c6 bd 4d f5 1b bd
       -0.034447413 -0.028308861 -0.0970474 -0.038075734
000310 9a 6e 69 3d 03 21 e3 bd ef 81 86 3c 60 22 9c bc
       0.056990243 -0.11090281 0.016419379 -0.01905936
000320 c5 22 de bd 9e 31 0a be fc 4d 31 bd e7 1b 8e bd
       -0.108464755 -0.1349549 -0.043287262 -0.06938916
000330 37 ef 0c 3c 90 09 08 be b5 55 1d 3e 45 c8 f2 3d
       0.008601955 -0.13284898 0.15364726 0.11854605
000340 75 e3 2c bd 75 7d b3 bd aa ad f8 bd a4 00 14 3d
       -0.042209107 -0.087641634 -0.12142499 0.036133423
000350 6f f3 23 3d 4d 79 e1 3d 58 5e 8f bd 07 6d b7 3c
       0.04002708 0.110094644 -0.070004165 0.022390855
000360 5d e5 43 bd 3d 60 0c be db 1e d6 3c 2e 86 64 bd
       -0.04782616 -0.13708587 0.02613776 -0.055792026
000370 31 bc 72 3d 3e 1a aa bd fc ee 04 3d 85 3b 71 bd
       0.059261505 -0.083057866 0.032454476 -0.058894653
000380 42 73 93 bc 5c e6 8a 3d 9a 5f 38 bd 76 bb e1 bd
       -0.017999295 0.06782219 -0.045013048 -0.110220835
000390 fe 29 37 3d 9a ae da bd c9 82 b1 bd ed ae 32 bd
       0.04471778 -0.10677834 -0.086675234 -0.043623853
0003a0 cf d8 95 bd ab f8 b2 3d f2 d0 e2 bd 15 ff 9b 3d
       -0.073167436 0.08738836 -0.110750094 0.076170124
0003b0 7b a0 e4 bd 52 2c ee 3d b5 d0 65 bd 1e cb a0 bd
       -0.11163422 0.11629547 -0.05610724 -0.078512415
0003c0 67 4c d7 bd 5f d8 41 3b 80 be 8f bd 88 2f db bd
       -0.105126195 0.002957843 -0.07018757 -0.10702425
0003d0 2e ef 48 3d 89 27 10 3d 69 59 d1 bd 2f b8 b7 3d
       0.049056225 0.035193954 -0.10222132 0.08970677
0003e0 4f 8b 0a bd ed f5 86 3d 19 df c1 bd 4f 56 2a be
       -0.03382426 0.06589875 -0.094663806 -0.16634487
0003f0 08 7b dc bd bd 0b e8 bd 31 b5 d9 3d f2 a9 d8 3d
       -0.10765654 -0.11330364 0.10630263 0.105792895

critic.2.bias f4 [64]
000000 24 9d df ba fd 1c ab bd a4 d6 40 bd f0 5b 6c bd
       -0.0017060381 -0.083551385 -0.047079697 -0.057704866
000010 38 84 c6 bd 5b 27 f4 bd 80 4d 84 bd e0 e8 d1 bd
       -0.096931875 -0.11921569 -0.064600945 -0.102494955
000020 31 3f a3 bd 71 99 fe bd 83 02 b8 3c 05 68 26 3c
       -0.07971037 -0.124316104 0.022462135 0.010156636
000030 94 24 46 bc c9 f1 23 bd 03 13 41 bd 28 18 b3 bc
       -0.012093682 -0.040025506 -0.04713727 -0.021862105
000040 e6 7e 59 3d 0d dc 1c be 9a df 25 3d 59 af 57 bd
       0.053099535 -0.15318318 0.040496446 -0.05265746
000050 af 5c 11 3e 5a 29 95 3e 44 01 ce bd 47 0d 15 be
       0.14195512 0.2913311 -0.10058835 -0.14555846
000060 e0 ce a4 bc 2a ae 01 be 4d ed c4 bd f5 5b 52 be
       -0.020118177 -0.12664095 -0.09615574 -0.20542891
000070 d6 50 48 bd 04 f9 cb ba 6a 85 78 bd 94 26 3e 3e
       -0.048905216 -0.0015561883 -0.06067411 0.18569404
000080 45 59 bf bd 02 2b 28 be f7 c2 7d 3d 41 26 1b bd
       -0.09343199 -0.16422656 0.06195351 -0.03787828
000090 2d e2 d6 bd c4 07 5d be 38 f5 76 3d d9 05 4f bd
       -0.10492358 -0.21584994 0.060292453 -0.050542686
0000a0 ca 64 76 3d 48 da d7 bd 2d 9f 31 bd c6 0b 8a bc
       0.060154714 -0.10539681 -0.043364692 -0.016851317
0000b0 78 5d b6 bd c6 d6 0d bd ee f3 9a bd 9d ca c5 3c
       -0.089045465 -0.034628652 -0.07566057 0.024144465
0000c0 d9 18 20 bd 5f 87 45 bd f4 22 58 bd af 57 08 be
       -0.039086197 -0.048224803 -0.05276771 -0.13314699
0000d0 22 9c d4 bd 1d ca ef bd 95 42 91 3c 7e dc a2 3d
       -0.103813425 -0.11708472 0.017731944 0.07952212
0000e0 25 92 6f 3b 50 b6 74 bd a2 b6 9d bd 9f 63 8a bd
       0.0036555615 -0.05974418 -0.0770085 -0.067572825
0000f0 88 36 12 be 7e b6 ce bc d1 03 1a be 4f ae f1 bd
       -0.14278615 -0.025233503 -0.15040518 -0.11800825

critic.4.weight f4 [1, 64]
000000 18 56 12 bd 1b e2 fd 3c 88 49 3b bc 05 82 25 bc
       -0.035726637 0.030991605 -0.011431105 -0.0101018
000010 38 cb ca bd c7 ca 34 3b e6 8a ef bd 2e 63 ef 3d
       -0.09902042 0.0027586685 -0.11696415 0.11688839
000020 95 5b 28 3d 62 7a e6 ba 93 a5 ac 3c fc 18 d2 ba
       0.041102964 -0.001758408 0.021075046 -0.0016029174
000030 d7 49 8f bc aa 78 c6 ba 56 bc 89 bd b4 38 28 3c
       -0.017491264 -0.0015142162 -0.06725375 0.010267425
000040 2c 68 7c be 18 3f 84 3c 0a 3c 8c bd 85 2d 41 bc
       -0.24649113 0.016143367 -0.06847389 -0.011790638
000050 95 2b bd bc 2b 47 f8 3d 94 1d 5b bd 6a 17 cc bc
       -0.02309207 0.12122949 -0.053495005 -0.024913508
000060 b0 ce a0 3b 5e 93 24 bd 01 65 91 3a e1 5b 10 37
       0.0049074516 -0.040179603 0.0011092724 8.604461e-06
000070 5c 50 52 bc 36 7d be ba 29 97 f9 3b 3c 3e a7 3d
       -0.012836542 -0.0014533165 0.0076168966 0.08166167
000080 fe 45 1c 3b 6d 03 c6 bb 0a a8 1c be 4d 6f 20 ba
       0.002384543 -0.006042889 -0.15298477 -0.0006120101
000090 26 7d a0 bb f7 7f 82 3c c3 7d 3d be 05 4a 8e 3d
       -0.0048977314 0.015930159 -0.18505006 0.06947712
0000a0 b0 20 87 bd 21 a8 cc 3c 16 e1 b9 3d 37 89 89 3c
       -0.065980315 0.024982514 0.09076135 0.016789062
0000b0 1a d2 c5 3a 73 e1 cd 3d bb 20 7f bc 62 d2 a6 3d
       0.0015092522 0.10052767 -0.015571768 0.08145596
0000c0 f7 22 ee 3b 77 9a 9d bc 60 67 e1 bb 53 fa 55 3d
       0.0072673517 -0.019238694 -0.0068787783 0.05224068
0000d0 da 4c 8e 3d 1e ce ff 3c 72 0b 4f bd b7 70 26 be
       0.06948252 0.031226214 -0.050548024 -0.16253935
0000e0 f4 87 82 bb ed c6 26 38 ac 87 4e bd bb 1a 4f bc
       -0.003983492 3.976275e-05 -0.050422356 -0.01264065
0000f0 37 10 7c bd c9 60 20 3c f1 5a b6 bc 94 2e 9d bd
       -0.0615389 0.0097887 -0.022260161 -0.076749
