RL/CC2-Cardiff-implementation/GT-Cardiff-CC2/Models/PPOxCCE-C2/7000.pth (torch, 78850 bytes, 11 tensors)

actor.0.weight f4 [64, 62]
-0.0009508271 0.0681284 -0.10452683 -0.093464345 -0.1584688 -0.15140098 -0.09917237 -0.00018859579
-0.08099361 -0.034710925 -0.020761155 0.011220811 0.12413097 -0.058223236 -0.26978505 -0.16809672
0.05020762 0.076202966 -0.086098604 -0.055303834 0.04612862 0.10545937 -0.026136648 0.09503569
-0.020470306 0.013438404 0.11499559 -0.11781425 -0.1522426 -0.19404027 -0.3052572 0.111421235
-0.082318895 -0.058462333 -0.08872742 -0.11894336 -0.14923552 0.03406867 -0.04113606 -0.037432443
-0.008829041 -0.027248511 -0.07753244 -0.16819772 -0.06917162 -0.0007203806 0.15286614 0.077676564
-0.09810208 -0.03758544 -0.042168006 0.019896511 0.050404087 -0.114017405 0.013088674 -0.10476658
-0.21672685 -0.09846389 -0.14987238 -0.08939282 -0.026531832 -0.072110854 -0.07522884 0.03836764
0.069719516 -0.01602962 -0.2723018 -0.11127736 0.043843806 0.15513536 0.5300507 0.26577187
0.16251703 0.53528124 0.07023267 -0.038339064 -0.12493072 -0.014220003 0.011683059 -0.079451956
-0.11835829 0.112838656 0.09656578 -0.12668617 0.023770874 -0.021394443 -0.020899286 -0.058135178
0.048838682 -0.07522262 -0.17377737 0.05674811 0.054853972 -0.1393313 -0.1256965 -0.08238459
0.06341307 0.026581297 -0.08574163 -0.14365858 0.0032643105 -0.02374299 -0.18560944 -0.19345118
-0.13548473 -0.029222703 -0.28792155 -0.12161319 0.13802488 0.00716813 -0.30772707 -0.10348244
-0.09468947 0.11873806 0.08703317 -0.19624731 -0.024456298 0.008071472 -0.15818605 0.030121163
-0.03926866 -0.06059339 -0.0886996 0.09783001 -0.12182473 -0.07527382 -0.03179192 -0.061863456
0.00082989526 -0.05976848 -0.29022318 -0.033352993 -0.01097527 -0.16448484 -0.16430017 0.24899901
-0.22131355 -0.16422634 -0.1464923 0.02040052 0.12030038 0.08065218 0.12057564 -0.009184859
-0.11408694 -0.060207866 0.086475044 -0.000823276 -0.06312495 -0.09732169 -0.11885332 -0.10718915
-0.12753832 0.021790052 -0.0050009973 -0.2663594 0.0792204 -0.099378794 -0.026849132 -0.051495075
-0.32143995 -0.29644704 -0.04562104 -0.31115946 -0.17849459 -0.014686417 0.010932615 -0.1755965
-0.31387267 -0.0765713 0.051915213 0.05208428 0.032704975 0.048853826 -0.16398196 -0.13648787
-0.014655112 -0.18238044 0.032579634 -0.32517004 -0.09320096 -0.026589852 0.053374473 -0.25142947
0.029207543 -0.048803754 -0.030540317 -0.026708819 -0.10465844 0.06881427 0.05467603 -0.30679953
-0.04997316 0.008956493 -0.056891702 0.011629955 -0.03651222 0.24725454 -0.12792379 -0.19480248
-0.41283685 0.048755247 -0.09600194 -0.08718714 -0.07374409 0.08889163 -0.0456521 0.10712317
0.045924205 0.01608152 -0.00094539195 -0.02510558 0.015934242 -0.028999802 -0.1900419 -0.07800783
-0.26955587 -0.10452993 0.10255168 -0.10306653 -0.009119395 0.12563345 -0.09258061 -0.1602461
-0.14064233 0.027967362 -0.13250697 -0.03794082 -0.09226563 -0.16688736 -0.2405068 -0.17408921
-0.13406175 0.19064264 -0.070694745 -0.21248472 -0.0672585 -0.27592662 -0.053825844 -0.034504708
-0.11097519 0.0288613 -0.21105036 0.00020330961 -0.07469023 -0.1973661 0.184098 -0.34622705
0.0017503793 -0.02159215 -0.06688753 0.016785737 -0.2763301 -0.5396567 -0.11287759 0.106826134
00000000: ed40 79ba e786 8b3d 2a12 d6bd 3c6a bfbd
00000010: a545 22be dc08 1bbe e21a cbbd ccc1 45b9
00000020: fadf a5bd 0b2d 0ebd 4c13 aabc 7ed7 373c
00000030: 6138 fe3d 7d7b 6ebd 4421 8abe 8c21 2cbe
00000040: 81a6 4d3d 4d10 9c3d 7754 b0bd 4686 62bd
00000050: 5df1 3c3d 15fb d73d 861c d6bc 12a2 c23d
00000060: 58b1 a7bc c02c 5c3c cf82 eb3d 9948 f1bd
00000070: 7ce5 1bbe 7eb2 46be ac4a 9cbe d130 e43d
00000080: cf96 a8bd 3376 6fbd b9b6 b5bd 9498 f3bd
00000090: 32d1 18be 978b 0b3d 497e 28bd c352 19bd
000000a0: afa7 10bc 4538 dfbc 54c9 9ebd 063c 2cbe
000000b0: daa9 8dbd ecd7 3cba f188 1c3e e414 9f3d
000000c0: bee9 c8bd 31f3 19bd 5cb8 2cbd 02fe a23c
000000d0: 8474 4e3d f581 e9bd e171 563c dc8f d6bd
000000e0: a5ed 5dbe 70a7 c9bd 2578 19be 9513 b7bd
000000f0: 4959 d9bc dbae 93bd 9411 9abd 6327 1d3d
00000100: 1bc9 8e3d 8d50 83bc 246b 8bbe 62e5 e3bd
00000110: 9095 333d cedb 1e3e 67b1 073f 4013 883e
00000120: dd6a 263e 3108 093f 25d6 8f3d 6c09 1dbd
00000130: addb ffbd 04fb 68bc 4d6a 3f3c b5b7 a2bd
00000140: d565 f2bd f417 e73d 48c4 c53d 05ba 01be
00000150: 23bb c23c 6643 afbc fb34 abbc 271f 6ebd
00000160: 120b 483d 510e 9abd b2f2 31be b570 683d
00000170: 8fae 603d ddac 0ebe 95b6 00be 40b9 a8bd
00000180: b6de 813d 05c1 d93c 4f99 afbd 3c1b 13be
00000190: 0bee 553b a980 c2bc 6710 3ebe 1118 46be
000001a0: 82bc 0abe 7364 efbc 746a 93be 5610 f9bd
000001b0: 6556 0d3e a2e2 ea3b 678e 9dbe 9aee d3bd
000001c0: 8eec c1bd f12c f33d 723e b23d 0ef5 48be
000001d0: 9358 c8bc 353e 043c 86fb 21be a8c0 f63c
000001e0: 2dd8 20bd c630 78bd 23a8 b5bd 1a5b c83d
000001f0: 3e7f f9bd 2929 9abd 3f38 02bd 8964 7dbd
00000200: 548d 593a cbcf 74bd 2298 94be 269d 08bd
00000210: 9ed1 33bc b76e 28be 4e3e 28be 99f9 7e3e
00000220: 05a0 62be f32a 28be 1402 16be fe1e a73c
00000230: 0c60 f63d f82c a53d 5cf0 f63d 177c 16bc
00000240: 6aa6 e9bd 869c 76bd d419 b13d 1ed1 57ba
00000250: a747 81bd 9850 c7bd 5f69 f3bd fc85 dbbd
00000260: 6899 02be 0d81 b23c 68df a3bb 4260 88be
00000270: 4e3e a23d 1c87 cbbd b6f2 dbbc 80ec 52bd
00000280: c793 a4be e8c7 97be 21dd 3abd 4b50 9fbe
00000290: 49c7 36be 4c9f 70bc b61e 333c 92cf 33be
000002a0: ebb3 a0be 6ad1 9cbd 0ca5 543d 5356 553d
000002b0: a7f5 053d f31a 483d e3ea 27be 7ac3 0bbe
000002c0: ff1b 70bc f0c1 3abe 3972 053d b07c a6be
000002d0: 25e0 bebd f6d2 d9bc 319f 5a3d 5dbb 80be
000002e0: a844 ef3c 72e6 47bd b02f fabc 74cc dabc
000002f0: 2a57 d6bd 7fee 8c3d f9f3 5f3d d414 9dbe
00000300: a8b0 4cbd 41be 123c 4607 69bd 918b 3e3c
00000310: d68d 15bd 4b30 7d3e 74fe 02be 4d7a 47be
00000320: 5a5f d3be 95b3 473d aa9c c4bd 2c8f b2bd
00000330: 2407 97bd d10c b63d b2fd 3abd 6463 db3d
00000340: 051b 3c3d 64bd 833c 2ed4 77ba 38aa cdbc
00000350: 8788 823c fe90 edbc 589a 42be 92c2 9fbd
00000360: 3a03 8abe ca13 d6bd 9d06 d23d 8b14 d3bd
00000370: 8469 15bc 0ea6 003e e79a bdbd 8e17 24be
00000380: 8b04 10be cf1b e53c e8af 07be d567 1bbd
00000390: c3f5 bcbd 85e4 2abe 6a47 76be 7144 32be
000003a0: 7c47 09be d337 433e 68c8 90bd 9895 59be
000003b0: d3be 89bd 4146 8dbe 7d78 5cbd cf54 0dbd
000003c0: f646 e3bd 886e ec3c 961d 58be 822f 5539
000003d0: 31f7 98bd 571a 4abe 3084 3c3e ac44 b1be
000003e0: fc6c e53a 05e2 b0bc 54fc 88bd 3e82 893c
000003f0: 247b 8dbe f126 0abf 5e2c e7bd a9c7 da3d

actor.0.bias f4 [64]
-0.19682924 0.0069685276 -0.172388 -0.110419095 -0.037424996 -0.111352675 -0.0603912 -0.011756223
-0.005123413 -0.08614462 0.11607022 -0.21110852 0.004086359 0.03925752 -0.2034747 0.08371864
-0.14166191 0.00094896404 -0.15367143 0.104891956 -0.15434194 -0.080793716 -0.01131253 -0.12272875
-0.008489413 0.18437605 0.059625503 0.053916834 -0.024254864 -0.1211484 -0.032335468 0.048504606
-0.06441262 -0.05351963 0.16416237 -0.25665212 0.032790024 0.03337748 -0.09883065 -0.19008274
0.13402522 -0.11780292 -0.045125343 -0.0056485687 0.16256152 -0.1027636 0.3263221 -0.09341233
0.05927655 0.032119427 0.454936 -0.15202716 0.12321809 0.009879775 -0.039598532 -0.0685047
0.122202225 -0.13185605 -0.2782475 -0.19274552 -0.007945206 -0.080527216 -0.09649505 -0.029219208
00000000: 9b8d 49be 3f58 e43b 7b86 30be 6823 e2bd
00000010: f44a 19bd df0c e4bd c35c 77bd 2c9d 40bc
00000020: 4ee2 a7bb 976c b0bd 39b6 ed3d d52c 58be
00000030: dde6 853b 7ecc 203d ac5b 50be ae74 ab3d
00000040: d20f 11be e6c3 783a 0b5c 1dbe 98d1 d63d
00000050: d00b 1ebe 2d77 a5bd 3158 39bc 3659 fbbd
00000060: 2e17 0bbc 13cd 3c3e df39 743d e6d7 5c3d
00000070: 23b2 c6bc a71c f8bd 3272 04bd c4ac 463d
00000080: c4ea 83bd 6637 5bbd 2e1a 283e e867 83be
00000090: d54e 063d d3b6 083d b967 cabd 0da5 42be
000000a0: e83d 093e a842 f1bd 5ad5 38bd a117 b9bb
000000b0: 8776 263e b975 d2bd b113 a73e f74e bfbd
000000c0: f8cb 723d a98f 033d 5fed e83e 02ad 1bbe
000000d0: c459 fc3d c8de 213c 1232 22bd 314c 8cbd
000000e0: 2945 fa3d 4605 07be 7576 8ebe 155f 45be
000000f0: 9c2c 02bc 74eb a4bd 329f c5bd 1f5d efbc

actor.2.weight f4 [64, 64]
-0.066379994 -0.13131247 0.06788947 -0.07591206 -0.012800787 0.06812678 -0.060809106 -0.08192675
-0.1581659 0.0044117295 -0.077607915 -0.0107647255 0.019169008 -0.05483173 0.08475609 -0.05342103
-0.04988587 -0.099722184 0.037925214 -0.095919 0.026276067 -0.06083697 0.06511027 -0.085273385
-0.061577782 -0.03315447 -0.09362373 0.0045056096 -0.059825707 0.016146705 0.040714 0.024759522
-0.052397076 0.034140103 -0.12352747 -0.12454367 -0.06488018 -0.12358003 -0.11725018 0.01156076
0.075942226 -0.06288481 -0.05753428 -0.10983519 -0.0082968185 -0.0035304304 -0.031291984 0.073830865
-0.12739104 -0.06846118 -0.08148362 0.073648654 0.072936244 0.08642146 0.06421319 0.04950708
-0.11643819 -0.084789485 0.029965416 -0.12858672 0.04621893 0.033595394 0.0037319483 -0.12605932
0.08706844 -0.043912854 -0.17337485 0.101759024 -0.027087923 -0.11537391 0.053363573 -0.2820803
-0.021703467 0.15527913 0.043974973 0.02396805 -0.11260742 -0.100758016 -0.112470426 -0.068371736
-0.17450655 0.09196559 0.15330979 -0.06715613 -0.30781856 0.067239396 0.074779995 0.06259583
0.02812943 -0.12188375 -0.06906293 -0.014875576 -0.08373768 0.0023976662 -0.22645918 -0.09877987
-0.2536415 -0.1824596 -0.15181683 -0.20070235 -0.22203985 -0.19553006 0.14736535 0.09608446
-0.12772602 -0.020237032 0.04373578 -0.066717066 -0.006534693 -0.21699837 0.026650215 -0.09652076
-0.15296437 -0.014124219 -0.15864041 0.022381008 0.092741475 -0.34266284 -0.26939008 -0.023900118
-0.06310422 -0.1765915 0.008101669 0.051600132 -0.1985913 -0.018876735 -0.06672698 0.03563127
-0.1299065 -0.06564294 -0.08051107 -0.10606768 0.35479313 0.004621302 0.022319607 -0.117248036
0.28567097 -0.14414896 0.038640518 -0.32077107 0.2356225 -0.032900166 -0.0313965 -0.05227666
0.13799398 -0.07133596 -0.012317454 0.37360412 -0.1701761 0.038432546 -0.11333184 -0.006202971
-0.12368861 -0.100402825 0.35854778 0.24049881 0.25849214 0.15916654 0.09951264 0.34486058
-0.1493144 0.062974386 0.021640984 -0.17590278 -0.21639557 -0.058498714 -0.014192865 -0.113284364
-0.1278364 -0.15077564 0.08545677 0.042141873 -0.254186 -0.06743529 0.17189206 -0.12828676
0.10269828 0.005073081 -0.14044905 0.0011031801 -0.3330344 -0.4656827 -0.1884888 -0.08666038
-0.32999063 -0.15392786 0.09686529 -0.032794833 -0.016406292 0.14627106 -0.5246114 -0.13901152
0.0741882 0.11472666 0.0819412 0.09514322 -0.13490072 0.15268409 -0.09502004 -0.056728978
0.052534558 -0.07481388 -0.2891167 -0.13352019 -0.280763 -0.10378523 -0.1426041 -0.17436448
-0.036146864 0.0892959 0.017274247 -0.10551228 0.15975048 -0.10259007 -0.14940116 -0.17449935
-0.2651647 0.23332867 -0.13569076 -0.106921464 -0.051146977 -0.15745884 -0.08736955 -0.07628742
0.011367582 -0.07014776 -0.03699035 0.094397984 -0.23799075 0.011233468 -0.023714188 -0.09464476
-0.13702215 -0.0063721514 -0.11894501 -0.2203811 -0.07552425 -0.059152775 -0.22896196 0.020495012
-0.051268928 -0.04520155 -0.32251763 -0.009866293 -0.18407138 -0.4091297 -0.0488827 -0.24521516
-0.27326205 0.11676092 -0.08848829 -0.04716295 0.003221741 -0.13000427 0.119218335 -0.005780588
00000000: 3cf2 87bd c776 06be a209 8b3d c877 9bbd
00000010: 64ba 51bc 0e86 8b3d f812 79bd 36c9 a7bd
00000020: 3ef6 21be 4590 903b e6f0 9ebd 885e 30bc
00000030: 5308 9d3c 3c97 60bd 9a94 ad3d 03d0 5abd
00000040: 2055 4cbd 253b ccbd 7857 1b3d 2e71 c4bd
00000050: e840 d73c 3030 79bd 8958 853d d0a3 aebd
00000060: fc38 7cbd fbcc 07bd ccbd bfbd cba3 933b
00000070: cd0b 75bd 1846 843c b9c3 263d 7bd4 ca3c
00000080: 519e 56bd 7ed6 0b3d f8fb fcbd c010 ffbd
00000090: e6df 84bd 8717 fdbd dd20 f0bd 5869 3d3c
000000a0: 9987 9b3d c0c9 80bd 11a9 6bbd 46f1 e0bd
000000b0: 61ef 07bc cb5e 67bb 062c 00bd a334 973d
000000c0: cc72 02be 6035 8cbd e2e0 a6bd 1bd5 963d
000000d0: 995f 953d bcfd b03d 3482 833d f0c7 4a3d
000000e0: 2577 eebd 1ca6 adbd 087a f53c 3dac 03be
000000f0: 1050 3d3d 539b 093d b493 743b b215 01be
00000100: f050 b23d f7dd 33bd 2d89 31be 0967 d03d
00000110: 7ee7 ddbc 2849 ecbd c393 5a3d d46c 90be
00000120: 78cb b1bc 7e01 1f3e 1a1f 343d a558 c43c
00000130: b89e e6bd 385a cebd e556 e6bd 7b06 8cbd
00000140: d8b1 32be 7558 bc3d 3efd 1c3e 2789 89bd
00000150: 659a 9dbe cfb4 893d 4126 993d 3e32 803d
00000160: b16f e63c 309e f9bd de70 8dbd b0b8 73bc
00000170: a97e abbd 2a22 1d3b eae4 67be 1a4d cabd
00000180: 4cdd 81be b0d6 3abe df75 1bbe eb84 4dbe
00000190: 6a5e 63be 0839 48be f1e6 163e eec7 c43d
000001a0: 9cca 02be 22c8 a5bc 4a24 333d f5a2 88bd
000001b0: fa20 d6bb d234 5ebe 8d51 da3c adac c5bd
000001c0: b1a2 1cbe 4569 67bc a272 22be 6058 b73c
000001d0: 3eef bd3d 8171 afbe 7fed 89be 2eca c3bc
000001e0: c93c 81bd 67d4 34be ddbc 043c a95a 533d
000001f0: 855b 4bbe 62a3 9abc 28a8 88bd 18f2 113d
00000200: 3606 05be ce6f 86bd fde2 a4bd 033a d9bd
00000210: 72a7 b53e 4a6e 973b 9cd7 b63c bd1f f0bd
00000220: 7743 923e c99b 13be 8545 1e3d 1b3c a4be
00000230: 0647 713e 53c2 06bd 9e99 00bd 0d20 56bd
00000240: 4b4e 0d3e 9618 92bd 26cf 49bc 0a49 bf3e
00000250: a542 2ebe 726b 1d3d 861a e8bd 4b42 cbbb
00000260: 7450 fdbd ff9f cdbd 9393 b73e 5245 763e
00000270: 1559 843e 8efc 223e 48cd cb3d 9191 b03e
00000280: e0e5 18be b7f8 803d 6f48 b13c dc1f 34be
00000290: cd96 5dbe 599c 6fbd 3189 68bc a201 e8bd
000002a0: 8ce7 02be ee64 1abe f603 af3d f59c 2c3d
000002b0: ab24 82be 831b 8abd 7904 303e 9b5d 03be
000002c0: 7a53 d23d 163c a63b e0d1 0fbe 9598 903a
000002d0: 7c83 aabe f66d eebe 3503 41be ff7a b1bd
000002e0: 88f4 a8be 449f 1dbe 4f61 c63d e053 06bd
000002f0: 7d66 86bc 15c8 153e ef4c 06bf 0959 0ebe
00000300: fcef 973d d0f5 ea3d cad0 a73d 73da c23d
00000310: 6a23 0abe 3859 1c3e de99 c2bd a55c 68bd
00000320: 7a2e 573d 0538 99bd 1b07 94be 84b9 08be
00000330: 2bc0 8fbe 5a8d d4bd cf06 12be 9a8c 32be
00000340: bc0e 14bd c5e0 b63d b982 8d3c d216 d8bd
00000350: a195 233e be1a d2bd 9efc 18be f5af 32be
00000360: abc3 87be b6ed 6e3e 85f2 0abe a4f9 dabd
00000370: 7e7f 51bd e43c 21be ceee b2bd 943c 9cbd
00000380: 183f 3a3c a1a9 8fbd 3183 17bd bb53 c13d
00000390: d9b3 73be 940c 383c 4244 c2bc 1dd5 c1bd
000003a0: 894f 0cbe 7bcd d0bb 7199 f3bd 95ab 61be
000003b0: 75ac 9abd 2e4a 72bd 0175 6abe 28e5 a73c
000003c0: 5eff 51bd 4325 39bd 0821 a5be 3ba6 21bc
000003d0: 357d 3cbe 7379 d1be 3a39 48bd af19 7bbe
000003e0: 01e9 8bbe 5920 ef3d 5939 b5bd f02d 41bd
000003f0: d823 533b d71f 05be be28 f43d 166b bdbb

actor.2.bias f4 [64]
-0.09158045 -0.1068007 -0.029947039 -0.17059907 0.077493995 -0.046274714 -0.15967797 0.12367122
-0.15644155 0.1620726 -0.13769123 0.07181121 0.018813515 -0.13946906 -0.039750285 -0.027517363
-0.09504264 0.0049597993 -0.077586025 0.17796077 -0.17122318 -0.034592018 -0.08562929 0.08916318
-0.024615757 0.09404287 0.096139416 -0.094419666 -0.14488347 -0.07592106 0.03655421 -0.12729189
-0.07958394 -0.066702686 0.05338585 -0.13543905 0.0027702448 -0.1630401 0.040054556 0.032890987
0.07197584 -0.119537294 -0.13788001 -0.10984974 0.21752737 0.08816453 -0.18069716 -0.052202746
-0.05618878 0.111748695 -0.017988365 -0.21234855 -0.1762888 0.036012962 -0.11664809 0.24242647
-0.056234404 0.039529875 0.23212169 -0.09814143 -0.067401044 0.013890143 0.0069109113 0.11534379
00000000: 888e bbbd 53ba dabd 7e53 f5bc 86b1 2ebe
00000010: 2cb5 9e3d 8e8a 3dbd 9f82 23be 5647 fd3d
00000020: 3732 20be 5cf6 253e eefe 0cbe c111 933d
00000030: cd1e 9a3c fad0 0ebe 32d1 22bd 186c e1bc
00000040: b7a5 c2bd d085 a23b 6ce5 9ebd 593b 363e
00000050: 2155 2fbe 5cb0 0dbd 695e afbd 2f9b b63d
00000060: fca6 c9bc 8c99 c03d bee4 c43d 195f c1bd
00000070: 555c 14be 807c 9bbd deb9 153d ce58 02be
00000080: e8fc a2bd 6b9b 88bd 1fab 5a3d 89b0 0abe
00000090: ff8c 353b fcf3 26be 3f10 243d b3b8 063d
000000a0: 1268 933d f8cf f4bd 6b30 0dbe e7f8 e0bd
000000b0: 7fbf 5e3e 9b8f b43d ad08 39be 8cd2 55bd
000000c0: 3526 66bd 80dc e43d 565c 93bc e671 59be
000000d0: 0d85 34be 5482 133d 32e5 eebd a53e 783e
000000e0: 0c56 66bd 14ea 213d 4fb1 6d3e 60fe c8bd
000000f0: 8f09 8abd 7b93 633c ed74 e23b 5d39 ec3d

actor.4.weight f4 [36, 64]
0.016187372 0.089871176 0.34762883 0.30763763 -0.3365098 -0.25313964 0.029761331 0.38518512
-0.0024387816 0.2022647 -0.118900366 -0.024742996 -0.037368573 -0.07663125 0.015554562 0.0005583216
-0.05734122 0.065259896 -0.19051762 0.32543012 0.051174268 -0.10199198 -0.0015050864 0.39520922
-0.6807424 -0.3814581 -0.10356647 0.18973126 -0.15827022 -0.27975526 0.5031447 0.02720703
-0.016894402 -0.14668202 0.11627506 0.035512872 -0.024981497 0.090916 -0.056771267 0.469222
-0.13293335 0.39196602 -0.0111128595 -0.06946006 -0.039866406 -0.033743262 -0.03136708 0.03873078
0.051505078 0.1344353 -0.06450542 -0.6915817 0.060247656 -0.3969438 -0.10748796 0.46327728
-0.024448998 -0.253871 -0.4891437 0.0026843362 -0.4602974 0.120341405 0.11021918 -0.2087015
-0.08688299 0.061845854 0.3547904 0.08828007 -0.07675626 0.109161995 0.06357745 0.36567488
0.10481387 0.33927158 0.023837408 0.457685 0.06243266 -0.0762222 0.12833922 0.049744777
-0.24320167 0.274076 0.029339409 -0.03482513 0.20267598 0.11952848 0.14395322 -0.3392543
-0.1919835 0.03152101 -0.16965307 0.24412355 0.53134316 -0.22448346 -0.19091053 -0.14283851
-0.14256729 -0.15118179 0.44953486 -0.17089283 0.16640717 0.3646819 0.40702155 -0.13279155
0.30683413 0.013808544 0.03152875 0.055544216 -0.1536553 -0.23841703 0.0781935 0.054512903
0.040775485 0.4201446 0.0119588785 -0.18799227 0.48213726 0.18535538 0.13732141 0.045279358
0.030266954 -0.07560742 -0.4672954 0.49100593 0.069087625 0.4606501 0.43200663 -0.32681492
0.10968218 0.01756334 0.629235 0.25458178 -0.49736592 0.06420343 0.031719044 -0.38318044
0.1697362 0.03348923 0.016246062 0.20112754 0.11461937 -0.01942699 0.11553678 -0.054259725
-0.011746054 0.010764136 -0.02267075 0.0908506 0.58171624 0.06927361 0.047407493 0.18855032
-0.4545238 -0.30263397 -0.08983322 0.16387509 0.22063388 0.10072592 0.47780704 -0.18818894
0.09442091 0.07435971 0.4663976 -0.048390657 0.16312541 0.02648245 -0.28877097 0.40848312
0.37987566 0.022687154 -0.024853734 0.015421032 -0.21180259 0.07604556 0.1932744 0.07051241
0.13502343 0.22814335 -0.066219084 0.24945857 -0.016376749 -0.2938287 0.023617234 0.57543874
-0.05272484 -0.19883466 -0.53047174 -0.06428625 -0.4861406 0.11777749 0.054244447 -0.6790023
0.10801034 -0.010788241 -0.010788024 0.19452786 -0.42501497 0.06145372 0.08609812 -0.364118
0.2251613 -0.15537576 0.057026822 -0.39768142 0.29858118 -0.032000724 0.07505597 0.09098156
-0.40990475 0.09252649 -0.1494162 -0.024339717 -0.45832807 0.06260752 0.02896107 0.36267152
-0.12088831 -0.6192714 -0.041212585 0.12521559 -0.08604239 0.02420336 0.63588005 -0.20720713
0.59560865 0.33011562 0.25910097 0.15751053 -0.12831494 0.13272871 -0.33958194 0.26845554
-0.29084435 0.19417459 0.049022578 -0.061701264 -0.3455869 -0.12797816 0.113099955 -0.0807463
-0.076442726 0.18113072 -0.0036361683 -0.32083982 0.17237355 -0.3586372 -0.09768693 0.55712426
0.11658589 -0.08289086 -0.7972904 -0.28629187 -0.40867996 -0.06699378 -0.15452679 -0.8388927
00000000: 619b 843c 610e b83d 68fc b13e ae82 9d3e
00000010: 034b acbe 859b 81be 09ce f33c fc36 c53e
00000020: f7d3 1fbb 7a1e 4f3e 0982 f3bd d3b1 cabc
00000030: ca0f 19bd d8f0 9cbd 90d8 7e3c 545c 123a
00000040: a1de 6abd fba6 853d 0d17 43be c79e a63e
00000050: 1c9c 513d 2ce1 d0bd 5246 c5ba dd58 ca3e
00000060: 2245 2ebf 7a4e c3be a81a d4bd e948 423e
00000070: 9711 22be 153c 8fbe 17ce 003f 47e1 de3c
00000080: 2166 8abc d033 16be 9e21 ee3d f275 113d
00000090: ffa5 ccbc 2b32 ba3d fd88 68bd de3d f03e
000000a0: ae1f 08be c5af c83e b612 36bc 1341 8ebd
000000b0: f54a 23bd 6036 0abd c47a 00bd 2ba4 1e3d
000000c0: fdf6 523d 68a9 093e 6b1b 84bd 800b 31bf
000000d0: 3fc6 763d 383c cbbe a622 dcbd ae32 ed3e
000000e0: 4449 c8bc 61fb 81be 0b71 fabe b0eb 2f3b
000000f0: 1aac ebbe 8e75 f63d 98ba e13d d9b5 55be
00000100: b6ef b1bd 1452 7d3d 16a7 b53e 2ecc b43d
00000110: 6332 9dbd 5390 df3d e534 823d bd39 bb3e
00000120: a7a8 d63d 01b5 ad3e ab46 c33c b055 ea3e
00000130: 64b9 7f3d 631a 9cbd 5b6b 033e 2ec1 4b3d
00000140: dc09 79be b153 8c3e 3359 f03c cca4 0ebd
00000150: 4b8a 4f3e 59cb f43d 7968 133e bdb2 adbe
00000160: 5397 44be 2d1c 013d 89b9 2dbe 86fb 793e
00000170: 1b06 083f fede 65be 0d7e 43be 4244 12be
00000180: 29fd 11be 66cf 1abe 6f29 e63e 88fe 2ebe
00000190: a466 2a3e 96b7 ba3e 2165 d03e 82fa 07be
000001a0: 5d19 9d3e 3b3d 623c 4a24 013d 5582 633d
000001b0: d157 1dbe 9823 74be ea23 a03d ec48 5f3d
000001c0: 3204 273d 311d d73e 2cef 433c 0c81 40be
000001d0: b2da f63e cdcd 3d3e fc9d 0c3e d976 393d
000001e0: 67f2 f73c 10d8 9abd 5841 efbe 2165 fb3e
000001f0: d07d 8d3d 54da eb3e f92f dd3e 4954 a7be
00000200: 0da1 e03d fee0 8f3c 8c15 213f 8b58 823e
00000210: bfa6 febe 177d 833d d4eb 013d 3a30 c4be
00000220: 54cf 2d3e 012c 093d 7616 853c 61f4 4d3e
00000230: 8fbd ea3d 5a25 9fbc 8c9e ec3d 723f 5ebd
00000240: 8572 40bc 0f5c 303c 02b8 b9bc e10f ba3d
00000250: 5beb 143f 53df 8d3d 5c2e 423d 5613 413e
00000260: 58b7 e8be d7f2 9abe 7bfa b7bd dfce 273e
00000270: d9ed 613e 6449 ce3d 20a3 f43e 9ab4 40be
00000280: c05f c13d e749 983d abcb ee3e 4835 46bd
00000290: 590a 273e b9f1 d83c cad9 93be b324 d13e
000002a0: 107f c23e 69da b93c 0f9a cbbc 7fa8 7c3c
000002b0: c7e2 58be c6bd 9b3d b9e9 453e cf68 903d
000002c0: 9543 0a3e 699e 693e df9d 87bd 1172 7f3e
000002d0: 8828 86bc b770 96be ee78 c13c f44f 133f
000002e0: 00f6 57bd 509b 4bbe ffcc 07bf 82a8 83bd
000002f0: 6ce7 f8be 5335 f13d 6d2f 5e3d 18d3 2dbf
00000300: 8634 dd3d 2ac1 30bc 41c0 30bc 5032 473e
00000310: 909b d9be e5b6 7b3d 3654 b03d ad6d babe
00000320: af90 663e d31a 1fbe f594 693d e69c cbbe
00000330: a2df 983e 3113 03bd f2b6 993d 8a54 ba3d
00000340: 09df d1be 877e bd3d 8f00 19be 1664 c7bc
00000350: faa9 eabe 5f38 803d c43f ed3c 15b0 b93e
00000360: 4a94 f7bd 9288 1ebf 87ce 28bd 8438 003e
00000370: fe36 b0bd 2046 c63c 09c9 223f 1b2e 54be
00000380: cf79 183f ea04 a93e e2a8 843e 714a 213e
00000390: fe64 03be 09ea 073e afdd adbe 0173 893e
000003a0: 8de9 94be b4d5 463e e6cb 483d 77ba 7cbd
000003b0: c4f0 b0be b50c 03be f3a0 e73d 515e a5bd
000003c0: 018e 9cbd 557a 393e c84c 6ebb 1e45 a4be
000003d0: b182 303e 4c9f b7be 1610 c8bd b29f 0e3f
000003e0: 95c4 ee3d afc2 a9bd 391b 4cbf d994 92be
000003f0: 803e d1be 0934 89bd 453c 1ebe acc1 56bf

actor.4.bias f4 [36]
0.0005058126 -0.12768933 0.14853624 -0.046253186 0.0337469 -0.048396837 0.327537 0.06602812
-0.20638904 0.08617056 -0.37595043 0.07681832 0.03185774 0.04515461 0.06672548 -0.032670595
0.15214641 0.04239159 0.23706388 0.15780878 -0.014152364 0.09127735 0.17147739 -0.10811682
-0.023781555 0.07683374 0.13864021 0.06164842 -0.14888905 0.17339899 0.10109649 0.018726924
-0.06192188 0.12519759 0.02191986 0.3799149
00000000: 8298 043a fec0 02be e219 183e fb73 3dbd
00000010: 303a 0a3d c33b 46bd eeb2 a73e c039 873d
00000020: a657 53be 317a b03d 937c c0be ec52 9d3d
00000030: 437d 023d 0af4 383d 5ea7 883d 9ad1 05bd
00000040: 45cc 1b3e cea2 2d3d e0c0 723e a098 213e
00000050: 51df 67bc 9fef ba3d c597 2f3e 5a6c ddbd
00000060: 89d1 c2bc 025b 9d3d b3f7 0d3e 0e83 7c3d
00000070: 5f76 18be 818f 313e ad0b cf3d 3569 993c
00000080: cca1 7dbd cc33 003e 4791 b33c 3584 c23e

critic.0.weight f4 [64, 62]
0.07635647 0.08354457 -0.083908446 0.009482246 0.0147387795 -0.049282428 -0.1253262 -0.068216816
-0.10831624 -0.053884283 -0.021630306 -0.055410307 -0.1146892 -0.11903695 -0.14074662 -0.1285905
-0.008365868 -0.107972465 -0.12109008 0.089093745 -0.09144983 0.08891198 0.0087930765 -0.018583413
0.09826457 -0.09916525 0.060841322 0.084765814 0.10162599 -0.21497892 0.018585207 -0.04482239
-0.09423055 0.08673783 -0.022362862 0.0858983 -0.068384334 -0.056324437 0.11465319 -0.00064015336
0.106463894 0.06888598 0.14759439 -0.041186232 0.15557767 0.22150742 0.009226887 -0.051353157
0.09751537 -0.12733601 -0.07372536 -0.10677627 0.03142459 -0.025734773 -0.05158896 -0.12367395
-0.012936294 0.043020763 -0.057388686 -0.06609008 -0.12493303 -0.104032315 -0.1128423 0.06433067
-0.017239168 -0.050084185 -0.033135384 0.51039314 -0.1193522 -0.038073536 -0.09533722 -0.24389046
0.09096728 0.2538719 -0.27642712 -0.0906936 0.0033401656 -0.09278147 0.10398414 0.10897633
0.06814908 -0.006805929 -0.032562602 -0.12126438 0.066823736 -0.028784275 0.019905403 -0.028680766
0.08202378 0.0040353225 0.040649965 -0.08668547 0.008684461 0.060699645 0.05880494 -0.07486796
0.08931295 0.098380856 -0.037501484 -0.102864556 0.116444856 0.16004395 -0.096307926 -0.020895673
0.08175786 -0.11215042 -0.0991152 -0.13398552 -0.10659855 0.065359436 0.122209564 -0.12236796
0.021049455 -0.005918289 -0.046657264 -0.117781274 -0.15168177 -0.44764012 -0.13574833 0.04889541
-0.15818241 -0.03077476 -0.023997998 0.10522708 -0.10513134 0.07965675 0.105171435 0.048618447
-0.12713034 -0.021112597 -0.13643484 -0.09904013 -0.015123741 -0.05806787 0.19039363 0.051260438
0.019370344 -0.02054434 -0.12603757 -0.19090037 -0.019912245 -0.07501419 0.11838697 -0.10327836
0.11854204 -0.02147506 0.022991564 0.1105881 -0.05876423 -0.04705589 0.052543417 -0.032175787
-0.0084478175 0.065452024 -0.018335436 0.07517778 -0.055639885 0.051634572 0.012293336 -0.097683206
-0.050576042 -0.0034632639 -0.198404 0.14605594 -0.12895466 0.009545748 0.14154267 0.07718722
-0.023587886 -0.08566284 -0.07270382 -0.062204853 -0.18403374 0.016930377 -0.12962629 0.02218962
0.06040179 0.0010146392 -0.050738677 0.05469308 -0.26430085 -0.007129992 -0.087729834 0.08585014
0.0008996595 -0.04240518 -0.11501763 -0.11673309 -0.10628424 0.08884689 -0.4705903 -0.3734496
-0.46856102 0.4888034 -0.042389788 -0.16488804 -0.09167864 0.091150686 -0.03335908 -0.007819586
-0.11012797 -0.031931978 -0.037932936 -0.07882174 -0.08388044 0.08991102 0.021075178 0.041679714
-0.092292465 0.023545597 0.11313734 0.06955967 -0.0055553075 -0.05846521 0.2418955 -0.10145901
-0.19857007 0.17508176 -0.03601746 -0.0050054374 -0.029890707 -0.07533561 -0.049412265 -0.0037059856
-0.20888276 0.14821786 -0.08414017 -0.12576166 -0.07366128 0.063550375 -0.49859127 -0.25734544
0.010800526 0.057837285 -0.6395679 -0.2823229 0.079691954 0.019980842 0.08939693 -0.049675472
-0.07998115 -0.11991444 -0.20512545 -0.01956514 -0.08189595 -0.02149731 -0.028579207 0.054029707
0.06834458 0.09007455 -0.1143471 -0.0821262 -0.00040495882 -0.08734774 0.09415342 0.06764685
00000000: c860 9c3d 6a19 ab3d 31d8 abbd 6c5b 1b3c
00000010: ec7a 713c 5fdc 49bd 8355 00be 42b5 8bbd
00000020: e8d4 ddbd c4b5 5cbd 0a32 b1bc ebf5 62bd
00000030: 2ce2 eabd a5c9 f3bd e21f 10be 3aad 03be
00000040: fe10 09bc ab20 ddbd 13fe f7bd c876 b63d
00000050: 0c4a bbbd 7c17 b63d d610 103c 3e3c 98bc
00000060: ef3e c93d 2717 cbbd c034 793d b399 ad3d
00000070: 4921 d03d 6f23 5cbe 0140 983c af97 37bd
00000080: f2fb c0bd 9aa3 b13d 5232 b7bc 73eb af3d
00000090: 160d 8cbd 74b4 66bd 4bcf ea3d f7cf 27ba
000000a0: be09 da3d 1814 8d3d fc22 173e e5b2 28bd
000000b0: c14f 1f3e d7d2 623e 5e2c 173c b057 52bd
000000c0: 23b6 c73d 5f64 02be 52fd 96bd 84ad dabd
000000d0: 12b7 003d bbd1 d2bc f24e 53bd c548 fdbd
000000e0: c0f2 53bc 8a36 303d 6610 6bbd 3c5a 87bd
000000f0: e3dc ffbd e50e d5bd dd19 e7bd ccbf 833d
00000100: 2839 8dbc 1325 4dbd f8b8 07bd 20a9 023f
00000110: ed6e f4bd fff2 1bbd 2940 c3bd 6cbe 79be
00000120: 0e4d ba3d 7ffb 813e db87 8dbe 91bd b9bd
00000130: aee6 5a3b 3604 bebd a3f5 d43d fb2e df3d
00000140: bf91 8b3d 4504 dfbb 5d60 05bd 7659 f8bd
00000150: e2da 883d 00cd ebbc a810 a33c edf3 eabc
00000160: 15fc a73d bd3a 843b 9480 263d 2788 b1bd
00000170: 4549 0e3c 31a0 783d 73dd 703d 5f54 99bd
00000180: b5e9 b63d e77b c93d 289b 19bd a7aa d2bd
00000190: a47a ee3d 90e2 233e 173d c5bd 672d abbc
000001a0: aa70 a73d 1faf e5bd e9fc cabd 8033 09be
000001b0: 5750 dabd 2bdb 853d 0249 fa3d 0e9c fabd
000001c0: e86f ac3c 35ee c1bb b01b 3fbd 4f37 f1bd
000001d0: 7752 1bbe 1631 e5be 9c01 0bbe 8e46 483d
000001e0: 92fa 21be 591b fcbc 7397 c4bc 4c81 d73d
000001f0: 1a4f d7bd 1423 a33d 1f64 d73d 2324 473d
00000200: 752e 02be 53f4 acbc 93b5 0bbe 8dd5 cabd
00000210: 91c9 77bc 93d8 6dbd 8cf6 423e 77f6 513d
00000220: 8eae 9e3c 9b4c a8bc fe0f 01be 637b 43be
00000230: 011f a3bc 0aa1 99bd de74 f23d 9b83 d3bd
00000240: 2bc6 f23d 77ec afbc ce58 bc3c 047c e23d
00000250: c3b2 70bd adbd 40bd c437 573d c2ca 03bd
00000260: b768 0abc b60b 863d 3234 96bc cff6 993d
00000270: a6e6 63bd c67e 533d fd69 493c 220e c8bd
00000280: d328 4fbd edf7 62bb 6b2a 4bbe b08f 153e
00000290: b10c 04be c565 1c3c 90f0 103e 5514 9e3d
000002a0: 623b c1bc 0070 afbd bee5 94bd 84ca 7ebd
000002b0: 5773 3cbe 93b1 8a3c c1bc 04be 02c7 b53c
000002c0: de67 773d a4fd 843a 5cd3 4fbd da05 603d
000002d0: 7152 87be b5a2 e9bb b3ab b3bd 33d2 af3d
000002e0: 21d7 6b3a 0eb1 2dbd 5d8e ebbd c211 efbd
000002f0: 8dab d9bd 5cf5 b53d 36f1 f0be c934 bfbe
00000300: 3be7 efbe 7044 fa3e eaa0 2dbd 69d8 28be
00000310: 03c2 bbbd 36ad ba3d 88a3 08bd b91d 00bc
00000320: c68a e1bd 1bcb 02bd 915f 1bbd 4b6d a1bd
00000330: 82c9 abbd 4523 b83d daa5 ac3c 59b8 2a3d
00000340: d503 bdbd b2e2 c03c 8db4 e73d 4d75 8e3d
00000350: 4c09 b6bb 3779 6fbd 74b3 773e bec9 cfbd
00000360: f455 4bbe a248 333e 0b87 13bd a704 a4bb
00000370: 5bdd f4bc 8e49 9abd 8464 4abd 1fe0 72bb
00000380: 5de5 55be 6cc6 173e ae51 acbd aac7 00be
00000390: badb 96bd b326 823d 5b47 ffbe c8c2 83be
000003a0: b0f4 303c cae6 6c3d b9ba 23bf a18c 90be
000003b0: 8935 a33d ddae a33c bd15 b73d 8278 4bbd
000003c0: 28cd a3bd b495 f5bd 680c 52be 1347 a0bc
000003d0: 10b9 a7bd 201b b0bc f11e eabc 414e 5d3d
000003e0: 3ef8 8b3d 0179 b83d d02e eabd c831 a8bd
000003f0: a750 d4b9 5fe3 b2bd 82d3 c03d 6f8a 8a3d

critic.0.bias f4 [64]
-0.20395255 -0.062381893 -0.17764351 -0.081222735 -0.13800591 -0.059775684 -0.06965874 -0.18423273
-0.11251445 0.078473166 -0.15077434 -0.037191965 -0.10205813 -0.035173815 0.02369588 -0.05082428
-0.13431546 0.09739344 -0.19223742 -0.0042863544 -0.1872913 -0.17281051 -0.054284997 0.013163059
0.025153685 -0.26790267 -0.19722156 0.048888363 -0.0025307075 0.104092725 -0.09330127 -0.21339765
-0.19748357 -0.06283728 -0.07999826 -0.055806004 -0.105266176 0.12616448 -0.10186347 0.16235776
-0.12445257 -0.13186643 -0.04901455 -0.15602146 -0.2204865 -0.23454963 0.038191136 -0.11848924
0.09358093 0.0870859 -0.023520753 -0.06588307 -0.06635421 -0.08921268 -0.1759988 -0.107671924
0.18558727 -0.10352088 -0.1986136 -0.094646074 -0.03411227 -0.16907932 -0.21658175 -0.09373592
00000000: f0d8 50be 2884 7fbd 2ee8 35be 1b58 a6bd
00000010: 6c51 0dbe 59d7 74bd 3ea9 8ebd 81a7 3cbe
00000020: fa6d e6bd 8ab6 a03d 9764 1abe 9a56 18bd
00000030: da03 d1bd 6b12 10bd dd1d c23c 1f2d 50bd
00000040: fe89 09be 3676 c73d e3d9 44be 8c74 8cbb
00000050: 4ac9 3fbe 3df5 30be f259 5ebd dfa9 573c
00000060: 1a0f ce3c 8a2a 89be 73f4 49be 2a3f 483d
00000070: 3ada 25bb 912e d53d bc14 bfbd ea84 5abe
00000080: 2239 4abe d5b0 80bd 21d6 a3bd d694 64bd
00000090: cb95 d7bd 4331 013e cc9d d0bd 1d41 263e
000000a0: fde0 febd fe07 07be 7bc3 48bd 17c4 1fbe
000000b0: 37c7 61be c72d 70be 4f6e 1c3d 7daa f2bd
000000c0: 5ca7 bf3d 185a b23d 98ae c0bc b4ed 86bd
000000d0: b7e4 87bd 23b5 b6bd 0839 34be 1983 dcbd
000000e0: 970a 3e3e c102 d4bd 5d61 4bbe cdd5 c1bd
000000f0: 4fb9 0bbd 2123 2dbe 9bc7 5dbe 9ef8 bfbd

critic.2.weight f4 [64, 64]
-0.096012965 0.20054568 -0.06563094 0.18959954 -0.04509802 -0.072482064 0.077994235 0.116008535
-0.28537524 -0.35448927 -0.03433473 0.4395118 0.16851132 0.25104824 0.16531967 0.10646722
0.012257137 0.45047525 0.02881371 0.11187048 -0.011764999 -0.05374028 0.100567326 0.11750574
-0.34865218 -0.04749052 0.06236888 0.09419548 -0.34598848 0.31958044 -0.053543 0.018668715
-0.079748526 -0.33006743 -0.006118517 0.117697686 -0.37238142 0.23804772 0.07146443 -0.4718126
-0.10798567 0.27014503 0.4214747 -0.17688234 -0.023053799 -0.13249624 -0.013691606 -0.13235646
0.22032696 -0.3752454 -0.07556613 0.19867939 -0.029928567 0.19826284 0.18098079 -0.29910085
0.23993874 0.124506906 0.0031450784 -0.21114953 0.0128719 -0.079400554 0.107122056 0.22233629
-0.014482945 0.0024196233 -0.017804483 -0.025263404 -0.08777316 -0.0709974 -0.08202938 0.102547735
-0.05401883 -0.097252645 -0.1038754 -0.1231442 -0.045349877 -0.06667604 -0.10513043 -0.05931248
0.08255991 -0.11113593 -0.03008907 0.07732446 0.06782489 0.013488041 0.034516044 -0.057611357
-0.11321122 -0.08937894 -0.089063734 0.065717146 -0.012869585 -0.13640684 -0.13715234 -0.026242964
0.070362955 -0.0013419974 0.007404153 -0.037437078 -0.03845285 0.055292953 0.025859425 -0.031743605
0.124907136 0.07327102 0.029701686 0.03112058 0.06656555 -0.031346213 -0.012256284 -0.05153696
-0.061444003 -0.012357593 -0.09789594 0.070636034 -0.10105302 -0.10084072 -0.030687857 0.06652851
-0.07587984 -0.031384364 0.056315 -0.11320084 0.1054785 0.05512696 0.01547778 0.0034999582
0.021983914 -0.111517295 -0.001548321 0.07145994 -0.12009652 0.032931313 0.004815688 0.018352214
-0.1615607 -0.008903534 -0.015123005 -0.12545124 -0.100276664 -0.0693922 0.061994042 -0.023779029
-0.094960734 0.0016113659 -0.031081896 -0.0952777 0.051189784 0.04067745 0.10462782 0.09676338
-0.08068851 0.091308184 -0.0040650256 -0.12495961 0.058239453 -0.1576806 0.056728788 -0.09487918
-0.13616565 -0.02986651 0.03697941 -0.16081138 0.0058485516 -0.078491904 0.07126437 -0.061359882
0.10642004 -0.021904131 0.0067624776 -0.020675626 -0.013963041 -0.21787216 -0.06679441 0.06304541
0.06609809 -0.027100984 -0.0672427 -0.09326375 0.07513982 -0.15316835 -0.0020607489 0.0488906
-0.102205224 -0.07035391 -0.1666676 -0.07710768 -0.11706032 -0.08394229 0.05110828 -0.14315489
0.07298132 -0.06309285 -0.03167188 -0.021616628 0.009807678 -0.13603319 0.1892519 0.010647244
-0.4620796 -0.09292915 0.00048498114 -0.15136112 -0.0013319174 -0.25770837 0.0066334885 -0.06343925
0.04183162 -0.1089009 0.0023627335 0.2048164 0.06103259 0.10990551 -0.10557159 -0.110636905
-0.11869226 -0.11509746 -0.03294593 -0.070895836 -0.03191683 -0.13930354 -0.0442247 -0.15594746
-0.10132215 0.021730004 -0.0649882 -0.24079645 0.12647146 -0.03726289 -0.14010808 -0.24244075
-0.31022605 -0.024911107 -0.113736436 0.016457047 -0.072247855 0.1943697 -0.13901414 -0.0064128456
-0.043560356 0.05303253 -0.015465904 -0.07477303 0.08471215 -0.11557736 -0.012446568 0.10012015
-0.052601773 0.24791805 -0.11372688 -0.21719956 -0.12819602 -0.05955041 0.11898784 0.032920517
00000000: 72a2 c4bd d95b 4d3e 8469 86bd 6226 423e
00000010: b4b8 38bd 7a71 94bd 71bb 9f3d e295 ed3d
00000020: b41c 92be 9e7f b5be 93a2 0cbd b107 e13e
00000030: 3b8e 2c3e 6589 803e 8f49 293e 7c0b da3d
00000040: 29d2 483c b1a4 e63e bb0a ec3c 5a1c e53d
00000050: fbc1 40bc c51e 5cbd 3ef6 cd3d d9a6 f03d
00000060: 8a82 b2be 6b85 42bd 8376 7f3d 8fe9 c03d
00000070: 6725 b1be 0ca0 a33e e84f 5bbd 22ef 983c
00000080: 3253 a3bd 99fe a8be d77d c8bb 7c0b f13d
00000090: c7a8 bebe c8c2 733e f15b 923d 6c91 f1be
000000a0: 9727 ddbd 7350 8a3e 88cb d73e a520 35be
000000b0: 52db bcbc 18ad 07be c252 60bc 7488 07be
000000c0: 649d 613e 2a20 c0be 6ac2 9abd 9c72 4b3e
000000d0: c12c f5bc 6a05 4b3e 0753 393e bf23 99be
000000e0: 80b2 753e 7afd fe3d a91d 4e3b 9537 58be
000000f0: a9e4 523c c29c a2bd cf62 db3d 20ac 633e
00000100: e049 6dbc 8b92 1e3b b5da 91bc 33f5 cebc
00000110: 6ac2 b3bd 1667 91bd 05ff a7bd 8c04 d23d
00000120: d942 5dbd 652c c7bd a0bc d4bd 0733 fcbd
00000130: cbc0 39bd 738d 88bd 9f4e d7bd a5f1 72bd
00000140: 2c15 a93d 3c9b e3bd 5a7d f6bc 495c 9e3d
00000150: c7e7 8a3d f2fc 5c3c b260 0d3d e3f9 6bbd
00000160: 49db e7bd 4e0c b7bd 0c67 b6bd b696 863d
00000170: f4da 52bc 3cae 0bbe aa71 0cbe 7cfb d6bc
00000180: 741a 903d f6e5 afba 899e f23b 9f57 19bd
00000190: bc80 1dbd dd7a 623d 25d7 d33c 9505 02bd
000001a0: 50cf ff3d 1e0f 963d f350 f33c 96f0 fe3c
000001b0: 8553 883d e364 00bd 95ce 48bc 6b18 53bd
000001c0: b5ac 7bbd 8077 4abc ab7d c8bd a0a9 903d
000001d0: e3f4 cebd 9485 cebd 1a65 fbbc 1940 883d
000001e0: e466 9bbd e48c 00bd 8faa 663d d8d5 e7bd
000001f0: 1d05 d83d cfcc 613d 8496 7d3c 8e5f 653b
00000200: 9c17 b43c 2e63 e4bd 08f1 caba 9759 923d
00000210: 2af5 f5bd fce2 063d ebcc 9d3b 6257 963c
00000220: 2b70 25be 21e0 11bc 7bc6 77bc 4a76 00be
00000230: da5d cdbd 7f1d 8ebd 77ed 7d3d 3dcc c2bc
00000240: c67a c2bd 7834 d33a 769f febc f420 c3bd
00000250: 61ac 513d 669d 263d 1c47 d63d e12b c63d
00000260: 0440 a5bd c9ff ba3d e833 85bb d3ea ffbd
00000270: 7e8c 6e3d 0677 21be 725c 683d 0450 c2bd
00000280: 026f 0bbe 9caa f4bc b977 173d bdab 24be
00000290: 35a5 bf3b 5dc0 a0bd 0ef3 913d 8054 7bbd
000002a0: c0f2 d93d 4b70 b3bc c697 dd3b ee5f a9bc
000002b0: 3dc5 64bc e119 5fbe 82cb 88bd f41d 813d
000002c0: 6f5e 873d e202 debc 8ab6 89bd 1101 bfbd
000002d0: e8e2 993d 2ad8 1cbe a10d 07bb 8341 483d
000002e0: f950 d1bd b615 90bd e9aa 2abe a2ea 9dbd
000002f0: 52bd efbd efe9 abbd ea56 513d 3297 12be
00000300: 3b77 953d d336 81bd 60ba 01bd 5b15 b1bc
00000310: 62b0 203c 494c 0bbe 40cb 413e c771 2e3c
00000320: b395 ecbe a351 bebd 1145 fe39 69fe 1abe
00000330: bb93 aeba 5af2 83be bc5d d93b 70ec 81bd
00000340: a257 2b3d 6f07 dfbd 17d8 1a3b 64bb 513e
00000350: 4ffd 793d 2416 e13d eb35 d8bd 9a95 e2bd
00000360: ed14 f3bd 38b8 ebbd 50f2 06bd d631 91bd
00000370: 39bb 02bd 96a5 0ebe f624 35bd b1b0 1fbe
00000380: fd81 cfbd 1f03 b23c 8918 85bd 5893 76be
00000390: bc81 013e f9a0 18bd 7e78 0fbe 6342 78be
000003a0: f3d5 9ebe 6112 ccbc a6ee e8bd eed0 863c
000003b0: aff6 93bd da08 473e b959 0ebe d922 d2bb
000003c0: 586c 32bd a338 593d b464 7dbc 9a22 99bd
000003d0: 907d ad3d d3b3 ecbd b1ec 4bbc cb0b cd3d
000003e0: f574 57bd 3bde 7d3e a3e9 e8bd 9069 5ebe
000003f0: d145 03be 21eb 73bd e6af f33d aad7 063d

critic.2.bias f4 [64]
0.22996241 -0.080436975 -0.09063495 -0.11508375 0.07528395 -0.1778597 -0.1099104 -0.14616007
-0.17373008 -0.20027326 0.04575555 0.02634166 -0.033284158 0.05759852 -0.07488726 -0.07783972
-0.12023349 -0.14585139 0.0990422 -0.0518994 -0.052099127 -0.02134354 -0.18241371 0.046310686
-0.031537235 -0.18910305 -0.08778895 -0.091498256 -0.11452844 -0.011021155 -0.100155786 -0.06375427
-0.08050094 0.02529501 0.004673736 -0.06671217 -0.1661093 0.11398306 0.1797293 -0.13837706
-0.07517962 -0.1254077 -0.07388793 -0.10587128 -0.08470257 -0.022574563 -0.14254838 -0.06332655
-0.06269265 -0.020183655 0.10442429 -0.07562398 -0.12260304 -0.10024845 -0.10667688 -0.030644
0.11096178 -0.03949904 -0.07013131 -0.09715118 -0.14729065 -0.10545485 -0.17158164 -0.12868842
00000000: 447b 6b3e 24bc a4bd d19e b9bd 07b1 ebbd
00000010: 792e 9a3d da20 36be b418 e1bd fcaa 15be
00000020: 4ce6 31be 6f14 4dbe 2c6a 3b3d 77ca d73c
00000030: f854 08bd 6dec 6b3d 7e5e 99bd 6e6a 9fbd
00000040: fa3c f6bd 115a 15be a3d6 ca3d 7794 54bd
00000050: e565 55bd a6d8 aebc a9ca 3abe 46b0 3d3d
00000060: 302d 01bd 3ba4 41be b1ca b3bd 7063 bbbd
00000070: e38d eabd 1392 34bc 7a1e cdbd 9991 82bd
00000080: addd a4bd 7b37 cf3c 2426 993b 64a0 88bd
00000090: 8e18 2abe f36f e93d f50a 383e b7b2 0dbe
000000a0: c6f7 99bd e06a 00be 8e52 97bd 0bd3 d8bd
000000b0: 8b78 adbd 4aee b8bc 34f8 11be 5ab1 81bd
000000c0: 0165 80bd 3158 a5bc 67dc d53d bfe0 9abd
000000d0: 4d17 fbbd 0f4f cdbd 6879 dabd 2009 fbbc
000000e0: ee3f e33d bfc9 21bd 01a1 8fbd 33f7 c6bd
000000f0: 5cd3 16be b6f8 d7bd 19b3 2fbe e6c6 03be

critic.4.weight f4 [1, 64]
-0.15618457 0.021061603 0.009442685 -0.012184989 -0.10236233 0.004264441 -0.012195202 0.06791235
0.015411243 0.01239676 -0.016664002 0.0019465565 -0.0030359954 0.0011903902 -0.03002267 0.028352456
-0.03177646 0.01419779 -0.19341505 0.018193668 0.0045239287 0.0015777184 -0.043731045 0.08231142
0.0012959003 0.001125989 0.07208968 -0.108428374 -0.0034919428 -0.0009614697 0.0074594207 0.043463506
0.028321264 0.10445742 0.005087815 0.020604288 0.020316165 -0.12903552 -0.14321153 0.05047053
-0.01336281 0.09505915 0.121654026 0.009319473 -0.020051116 -0.051585652 -0.0038783066 0.020516895
-0.036247738 -0.00036805475 -0.06772906 0.02013848 0.028221345 0.008265893 0.00391413 0.003721826
0.014666745 0.030389007 -0.06323059 0.012526607 0.015452864 -0.01915702 0.00284037 -0.06280666
00000000: d9ee 1fbe 6289 ac3c 7eb5 1a3c 8ca3 47bc
00000010: 57a3 d1bd b9bc 8b3b 62ce 47bc a115 8b3d
00000020: 707f 7c3c c81b 4b3c f282 88bc 9923 ff3a
00000030: 8df7 46bb de06 9c3a 1af2 f5bc 6943 e83c
00000040: 0928 02bd d99d 683c 980e 46be e30a 953c
00000050: 773d 943b 72cb ce3a 531f 33bd e492 a83d
00000060: 33db a93a ec95 933a c1a3 933d b20f debd
00000070: 14d9 64bb 240b 7cba 286e f43b ca06 323d
00000080: ff01 e83c c6ed d53d b0b7 a63b 53ca a83c
00000090: 166e a63c e321 04be 0ba6 12be 30ba 4e3d
000000a0: b0ef 5abc 5fae c23d bf25 f93d b4b0 183c
000000b0: 3d42 a4bc 7a4b 53bd 302b 7ebb 0c13 a83c
000000c0: 8278 14bd 79f7 c0b9 89b5 8abd 74f9 a43c
000000d0: 7330 e73c ab6d 073c 1a42 803b e1e9 733b
000000e0: ca4c 703c 5ef2 f83c 0a7f 81bd 663c 4d3c
000000f0: 022e 7d3c 2fef 9cbc 8025 3a3b c7a0 80bd
