RL/CC2-Cardiff-implementation/GT-Cardiff-CC2/Models/PPOxCCE-C2/8000.pth (torch, 78850 bytes, 11 tensors)

actor.0.weight f4 [64, 62]
0	0xba7940ed	-0.0009508271
1	0x3d8b86e7	0.0681284
2	0xbdd6122a	-0.10452683
3	0xbdbf6a3c	-0.093464345
4	0x3cd2ce55	0.025733152
5	0x3e310d37	0.17290197
6	0x3e1f1c2b	0.15538089
7	0x3e791918	0.24325979
8	0xbebaa767	-0.36455843
9	0xbb817661	-0.0039508794
10	0xbe90ec4b	-0.28305277
11	0xbe4e43a7	-0.20142995
12	0xbe8ce147	-0.27515623
13	0xbe6780fa	-0.22607794
14	0x3e203f2f	0.15649103
15	0xbea1859c	-0.31547248
16	0x3d4da681	0.05020762
17	0x3d9c104d	0.076202966
18	0xbdb05477	-0.086098604
19	0xbd628646	-0.055303834
20	0x3d3cf15d	0.04612862
21	0x3dd7fb15	0.10545937
22	0xbcd61c86	-0.026136648
23	0x3dc2a212	0.09503569
24	0xbca7b158	-0.020470306
25	0x3c5c2cc0	0.013438404
26	0x3deb82cf	0.11499559
27	0xbdf14899	-0.11781425
28	0xbe8c2544	-0.2737218
29	0x3d896912	0.06709494
30	0xbd155241	-0.036455397
31	0x3ec4751c	0.38370597
32	0xbda896cf	-0.082318895
33	0xbd6f7633	-0.058462333
34	0xbdb5b6b9	-0.08872742
35	0xbdf39894	-0.11894336
36	0x3e5401cd	0.20703812
37	0x3ee2d0cc	0.44299924
38	0xbe0afe13	-0.13573484
39	0xbd3e29ba	-0.046426512
40	0x3bd1edc6	0.0064065186
41	0xbe92f279	-0.28700617
42	0x3ce82fb9	0.028343068
43	0x3cef0031	0.029174896
44	0xbdddd3ca	-0.10831411
45	0xbda8cfc9	-0.08242757
46	0xbc4ba65a	-0.012429798
47	0xbd96fef8	-0.0737285
48	0xbf387956	-0.72060144
49	0xbf2bf9fc	-0.6717832
50	0x3f185433	0.5950348
51	0x3f5da8b7	0.86585563
52	0x3d4e7484	0.050404087
53	0xbd3457bd	-0.044028986
54	0x3debc003	0.11511233
55	0x3d841489	0.06449229
56	0x3e18ce17	0.14922367
57	0xbdc9a770	-0.09846389
58	0xbd252ded	-0.040327
59	0xbdbf3cf6	-0.09337799
60	0xbe07567c	-0.13216585
61	0x3e57be41	0.2106867
62	0xbd9a1194	-0.07522884
63	0x3d1d2763	0.03836764
64	0x3d8ec91b	0.069719516
65	0xbc83508d	-0.01602962
66	0xbe16d7fc	-0.14730829
67	0xbdfecc5b	-0.124413215
68	0xbb026d02	-0.00199014
69	0x3d66cc76	0.056347333
70	0x3e9baf7f	0.3040733
71	0xbdd89b95	-0.1057655
72	0x3e02ea6b	0.12784736
73	0x3eb1b7aa	0.34710437
74	0x3cac2e1b	0.021018079
75	0xbc947d4d	-0.018126154
76	0x3d7c28d5	0.061562378
77	0xbe328a7e	-0.17435643
78	0x3c3f6a4d	0.011683059
79	0xbda2b7b5	-0.079451956
80	0xbdf265d5	-0.11835829
81	0x3de717f4	0.112838656
82	0x3dc5c448	0.09656578
83	0xbe01ba05	-0.12668617
84	0x3cc2bb23	0.023770874
85	0xbcaf4366	-0.021394443
86	0xbcab34fb	-0.020899286
87	0xbd6e1f27	-0.058135178
88	0x3d480b12	0.048838682
89	0xbd9a0e51	-0.07522262
90	0x3d5c3015	0.053756792
91	0x3d00871d	0.031378854
92	0x3db03306	0.08603482
93	0x3c49df51	0.012321309
94	0xbe00b695	-0.1256965
95	0xbda8b940	-0.08238459
96	0x3d81deb6	0.06341307
97	0x3cd9c105	0.026581297
98	0xbea2791d	-0.31733027
99	0xbe0b337f	-0.13593863
100	0x3e48108d	0.19537564
101	0x3edb37ae	0.42815918
102	0x3ef253a9	0.47329453
103	0x3c857565	0.01629133
104	0xbe0cfebd	-0.1376905
105	0xbc0cc9da	-0.008593047
106	0xbde4fbbb	-0.11180826
107	0xbde9be15	-0.114132084
108	0xbdd21eab	-0.10259756
109	0xbd7a428f	-0.06109863
110	0xbdf4543c	-0.11930129
111	0x3c941835	0.018077949
112	0xbdb91dad	-0.09038863
113	0x3d0112bd	0.03151201
114	0x3db23e72	0.08703317
115	0xbe9dd611	-0.30827382
116	0xbd8a16a6	-0.06742601
117	0x3d82bf64	0.06384161
118	0x3dcf935b	0.10135528
119	0x3cf6c0a8	0.030121163
120	0x3e023a7f	0.12717627
121	0xbb49c13e	-0.0030785347
122	0xbe3d69ef	-0.18497442
123	0xbdb99f3a	-0.09063573
124	0xbdf97f3e	-0.12182473
125	0xbd9a2929	-0.07527382
126	0xbd02383f	-0.03179192
127	0xbd7d6489	-0.061863456
128	0xbe8fe956	-0.2810771
129	0xbe440ae6	-0.19144782
130	0xbe0f5952	-0.13998917
131	0xbe871a16	-0.2638709
132	0xbf1fc456	-0.6240896
133	0xbe01f9bc	-0.12692922
134	0xbd76dcbc	-0.060269102
135	0xbdb4c911	-0.08827413
136	0x3e405d86	0.18785676
137	0x3d90c640	0.07069063
138	0x3d9d1856	0.07670657
139	0x3eee4feb	0.46545348
140	0x3df6600c	0.12030038
141	0x3da52cf8	0.08065218
142	0x3df6f05c	0.12057564
143	0xbc167c17	-0.009184859
144	0xbde9a66a	-0.11408694
145	0xbd769c86	-0.060207866
146	0x3db119d4	0.086475044
147	0xba57d11e	-0.000823276
148	0xbd8147a7	-0.06312495
149	0xbdc75098	-0.09732169
150	0xbdf3695f	-0.11885332
151	0xbddb85fc	-0.10718915
152	0x3e87d1af	0.26527163
153	0x3d0eb742	0.034842737
154	0x3e3a7fb7	0.18212782
155	0xbe459616	-0.19295534
156	0x3da23e4e	0.0792204
157	0xbdcb871c	-0.099378794
158	0xbcdbf2b6	-0.026849132
159	0xbd52ec80	-0.051495075
160	0xbe02ea1b	-0.12784617
161	0xbd2172e2	-0.0394162
162	0xbe2ed215	-0.17072327
163	0xbd4343ad	-0.047671963
164	0xbd20654b	-0.0391591
165	0xbdc80031	-0.097656615
166	0x3da24890	0.079239964
167	0x3d970198	0.07373351
168	0xbcf1e45a	-0.029527832
169	0x3e58d3be	0.21174523
170	0xbe113e13	-0.14183836
171	0xbe5420c2	-0.20715621
172	0xbe8411b0	-0.25794744
173	0xbe66684e	-0.22500727
174	0xbd24fb13	-0.040278506
175	0x3e8547dc	0.26031387
176	0xbc701bff	-0.014655112
177	0xbdc9cfc8	-0.09854084
178	0x3e386bf7	0.18009935
179	0x3d18cf0a	0.037306823
180	0x3de779eb	0.11302551
181	0xbcd9d2f6	-0.026589852
182	0x3db8beb6	0.0902075
183	0xbc86728b	-0.01641204
184	0xbd95e089	-0.07318217
185	0xbd00c827	-0.03144088
186	0xbcfa2fb0	-0.030540317
187	0xbcdacc74	-0.026708819
188	0xbdd6572a	-0.10465844
189	0x3d8cee7f	0.06881427
190	0x3e961f00	0.29320526
191	0x3eb59429	0.354646
192	0x3dfdb2e5	0.12387637
193	0x3ec67bee	0.38766426
194	0xbecc98d2	-0.39960343
195	0xbe5680b7	-0.20947538
196	0xbe62870a	-0.22121826
197	0xbe264c53	-0.16240053
198	0xbe5c4f2f	-0.21514581
199	0xbe0babe3	-0.13639788
200	0x3e27e766	0.16396865
201	0x3e71d897	0.23617779
202	0xbdc49caa	-0.09600194
203	0xbdb28f2c	-0.08718714
204	0xbd970724	-0.07374409
205	0x3db60cd1	0.08889163
206	0xbd3afdb2	-0.0456521
207	0x3ddb6364	0.10712317
208	0x3d3c1b05	0.045924205
209	0x3c83bd64	0.01608152
210	0xba77d42e	-0.00094539195
211	0xbccdaa38	-0.02510558
212	0x3c828887	0.015934242
213	0xbced90fe	-0.028999802
214	0x3e7a0310	0.24415231
215	0x3ddc51d6	0.107577965
216	0x3a8540c8	0.0010166401
217	0x3d81e21e	0.063419566
218	0x3dd2069d	0.10255168
219	0xbdd3148b	-0.10306653
220	0xbc156984	-0.009119395
221	0x3e00a60e	0.12563345
222	0xbe07b0ef	-0.13251089
223	0xbe41ab84	-0.18913084
224	0xbca0fd1c	-0.019651942
225	0x3dec497d	0.11537454
226	0xbd96f150	-0.073702455
227	0xbe281dcc	-0.16417617
228	0x3df97482	0.12180425
229	0x3d45c535	0.048283774
230	0xbe0e373d	-0.13888259
231	0x3e77a426	0.24183711
232	0xbe9878ad	-0.29779568
233	0xbe84778e	-0.25872463
234	0x3c5e775a	0.01357826
235	0xbca11701	-0.01966429
236	0x3d0cbcf1	0.034359876
237	0xbd719ba7	-0.058986332
238	0xbd5c787d	-0.053825844
239	0x3b768ee0	0.0037621781
240	0x3b4ad86e	0.0030951756
241	0x3e49933b	0.1968507
242	0x3d905a33	0.07048454
243	0x39552f82	0.00020330961
244	0x3def561a	0.116863444
245	0xbd6daece	-0.058028035
246	0x3b94885c	0.004532857
247	0x3d1d0150	0.03833133
248	0x3ae56cfc	0.0017503793
249	0xbcb0e205	-0.02159215
250	0xbd88fc54	-0.06688753
251	0x3c89823e	0.016785737
252	0x3e7f85a4	0.24953324
253	0x3e370de1	0.17876388
254	0x3e2e8343	0.1704226
255	0x3e8905f4	0.26762354

actor.0.bias f4 [64]
0	0xbe10a4ec	-0.14125413
1	0xbc81fc60	-0.015867412
2	0x3d8302b6	0.063970014
3	0xbdaf3cb7	-0.08556502
4	0xbddcafe4	-0.10775736
5	0xbdfa28c2	-0.12214805
6	0x3c8427b7	0.016132219
7	0xbe472454	-0.19447452
8	0x3e40841c	0.18800396
9	0xbe336b2b	-0.1752135
10	0xbd69bc76	-0.057064496
11	0xbe4fd27c	-0.20295137
12	0xbe0a4098	-0.13501203
13	0xbd274966	-0.040841483
14	0xbe401275	-0.18757041
15	0x3e032a93	0.1280921
16	0x3d6dbcf9	0.058041546
17	0xbd595907	-0.05306342
18	0xbe2e26cf	-0.17006992
19	0xbdd35d56	-0.10320537
20	0xbd70a2be	-0.058748953
21	0xbe327771	-0.17428376
22	0xbb40a8ce	-0.002939749
23	0xbe19c61c	-0.15016979
24	0xbd70ee21	-0.058820847
25	0x3dc61cdf	0.096734755
26	0x3c627365	0.0138214575
27	0x3d3d5505	0.04622366
28	0xbd8b4991	-0.06801141
29	0xbe187428	-0.1488806
30	0xbdae240a	-0.08502968
31	0xbc1527cd	-0.0091037275
32	0xbe164d6e	-0.14677975
33	0xbe0569eb	-0.13028686
34	0xbd51d7d9	-0.05123124
35	0xbd3dfa75	-0.046381433
36	0x3e3bf414	0.18354827
37	0x3e390dbb	0.18071644
38	0xbdcfd61d	-0.10148261
39	0xbde554b1	-0.11197794
40	0x3e120650	0.1426022
41	0xbdbe7d51	-0.09301246
42	0xbe108234	-0.14112169
43	0x3d03b555	0.032155354
44	0xbda1387e	-0.07872103
45	0xbc43f596	-0.011960408
46	0xbc0193fb	-0.007908816
47	0xbc8947b0	-0.016757816
48	0x3df567fd	0.11982725
49	0xbdb296b0	-0.087201476
50	0x3dd500e1	0.10400558
51	0xbe578085	-0.2104512
52	0xbd5f50e9	-0.05452052
53	0xbddc17f1	-0.10746754
54	0x3e5cc91b	0.2156109
55	0x3e9d5f4a	0.30736762
56	0x3dad3048	0.084564745
57	0xbdb4db70	-0.08830917
58	0xbe806cdb	-0.2508305
59	0xbd903167	-0.07040673
60	0xbccf2f4e	-0.025291111
61	0xbdf515a0	-0.11967015
62	0xbe30a2e3	-0.17249636
63	0xbc9fb7fe	-0.019496914

actor.2.weight f4 [64, 64]
0	0xbdae59ec	-0.08513245
1	0xbe27c9f9	-0.1638564
2	0x3d7f2be5	0.06229772
3	0xbdbf6dd8	-0.09347123
4	0xbca523fa	-0.020158757
5	0x3d8f873c	0.07008216
6	0xbd0cc7c6	-0.034370206
7	0xbda7c936	-0.08192675
8	0xbe13ec7f	-0.14445685
9	0xbc6fe0f1	-0.014641033
10	0xbd80737c	-0.06272027
11	0xbc06c8a1	-0.008226545
12	0x3c9c77c1	0.019100072
13	0xbd770089	-0.060303245
14	0x3dad949a	0.08475609
15	0xbd59b19c	-0.053147897
16	0xbd90dddf	-0.070735686
17	0xbdcc3bec	-0.09972367
18	0x3d1b5778	0.037925214
19	0xbdc8a6c3	-0.09797432
20	0x3c006b9e	0.007838158
21	0xbd091216	-0.033464514
22	0x3d8b3313	0.06796851
23	0xbda156f7	-0.07877915
24	0xbd7c38fc	-0.061577782
25	0xbd07db67	-0.033168223
26	0xbdd72452	-0.105049744
27	0x3bd67346	0.0065445034
28	0xbd9f2996	-0.07771604
29	0x3bc2a160	0.0059396476
30	0x3d4f98c0	0.050682783
31	0x3d448085	0.04797413
32	0xbd314897	-0.043282118
33	0x3d2fbee8	0.04290667
34	0xbdd76bf5	-0.10518638
35	0xbe122a09	-0.14273848
36	0xbd270bd5	-0.04078277
37	0xbdf77c9d	-0.12084315
38	0xbdc65494	-0.09684101
39	0x3c32e607	0.010919101
40	0x3d975273	0.07388773
41	0xbd91ffe2	-0.07128884
42	0xbcf812ee	-0.030282464
43	0xbdfc44e5	-0.12317828
44	0xbc8ce05f	-0.017196832
45	0xbb552859	-0.003252527
46	0xbd2ecee1	-0.042677764
47	0x3d991615	0.07474915
48	0xbdf0b308	-0.117528975
49	0xbd6ab382	-0.0573001
50	0xbdc2a0e4	-0.09503344
51	0x3da84701	0.08216668
52	0x3db50011	0.08837903
53	0x3dce3411	0.10068525
54	0x3d9d4693	0.076794766
55	0x3ceaedb3	0.028677797
56	0xbdee90d1	-0.11648715
57	0xbdce2b9f	-0.10066914
58	0x3c439054	0.011936266
59	0xbe18fb80	-0.1493969
60	0x3d0ab3fb	0.03386305
61	0x3c777e3c	0.01510578
62	0x3bb32c90	0.0054679587
63	0xbe1632c8	-0.14667809
64	0x3e80ec1c	0.25180137
65	0x3e1a649b	0.1507744
66	0x3c314c78	0.010821454
67	0x3d6c81cb	0.057740968
68	0x3db77a55	0.0895888
69	0x3e0b8db3	0.13628273
70	0x3e833ef8	0.2563398
71	0xbd9270de	-0.07150434
72	0xbdf3af4c	-0.118986696
73	0x3e883bce	0.26608127
74	0x3dd43462	0.10361554
75	0x3e00cd19	0.12578239
76	0xbe3428b1	-0.17593648
77	0x3e132f79	0.14373578
78	0xbe423ba4	-0.18968064
79	0xbe54464a	-0.20729938
80	0xbe836f99	-0.2567108
81	0x3e237c70	0.15965438
82	0xbd115da4	-0.035489693
83	0xbca605f3	-0.020266509
84	0x3da0bc4d	0.078484155
85	0x3e5eba38	0.21750724
86	0x3ee5f521	0.4491358
87	0xbea6dcaa	-0.32590228
88	0xbd22be43	-0.03973223
89	0xbdf160ce	-0.11786042
90	0x3df6ba69	0.12047274
91	0x3e021027	0.12701474
92	0x3b01ecb7	0.001982493
93	0x3eb0de41	0.34544566
94	0x3db459fe	0.08806227
95	0x3eac2194	0.33619368
96	0xbe0c1110	-0.13678384
97	0x3dafbfdd	0.08581517
98	0xbdf0eec1	-0.11764289
99	0x3acd3543	0.0015656132
100	0xbebdf92a	-0.3710416
101	0xbd767881	-0.060173515
102	0x3d1bc6a3	0.03803123
103	0x3e736ca9	0.2377192
104	0xbec4efd8	-0.38464236
105	0x3e7d1612	0.2471545
106	0x3e1f8808	0.15579236
107	0x3e7b69ff	0.24552153
108	0xbbbb4371	-0.0057148268
109	0xbdd5c29d	-0.1043751
110	0x3e93eca3	0.28891477
111	0xbcae4e6f	-0.021277634
112	0x3af045ca	0.0018331346
113	0xbd1b6a9e	-0.037943475
114	0x3ccd0f47	0.025031699
115	0xbd81cc29	-0.063377686
116	0x3d2bce69	0.041944895
117	0xbc6c92bb	-0.01443928
118	0xbe8e6696	-0.27812642
119	0x3e22d3ed	0.15901156
120	0xbe2ff1e4	-0.17182118
121	0x3e70a8a9	0.23501839
122	0x3dd0ddd7	0.101985626
123	0xbcce5548	-0.02518715
124	0x3d61d0e8	0.05513087
125	0x3eba5bbd	0.36398116
126	0x3d8f0659	0.069836326
127	0x3bedd629	0.007258196
128	0xbe578dfb	-0.21050255
129	0x3d00389c	0.031303987
130	0x3e278bdf	0.1636195
131	0x3e12256a	0.14272085
132	0x3ea0c29c	0.31398475
133	0x3ebc868f	0.3682141
134	0x3d4a627a	0.04941032
135	0xbe4a72cf	-0.19770359
136	0xbe0d6a03	-0.13809972
137	0xbd2d1543	-0.042256605
138	0xbde3f308	-0.11130339
139	0xbd5cdcb7	-0.053921428
140	0xbd629e2f	-0.055326637
141	0x3e22526c	0.15851754
142	0xbc2e4d6d	-0.010638577
143	0xbdad6b89	-0.08467776
144	0xbe46c958	-0.19412744
145	0x3e8f4674	0.2798344
146	0x3e27e94d	0.16397591
147	0x3ddc73ab	0.107642494
148	0x3da9208a	0.082581595
149	0xbda05b2a	-0.07829888
150	0xbe500387	-0.20313846
151	0xbd58abc3	-0.05289818
152	0x3d75f1d3	0.060045075
153	0xbdbcfeeb	-0.09228309
154	0x3e842920	0.25812626
155	0xbddb5b12	-0.1071073
156	0x3e9fb1cf	0.31190345
157	0xbd8006c9	-0.06251294
158	0x3debbe04	0.11510852
159	0x3d3e3adc	0.04644285
160	0x3c7364c1	0.014855565
161	0x3e58a7e5	0.21157797
162	0xbecb48f8	-0.39704108
163	0xbdb848e9	-0.089982815
164	0xbe32a834	-0.17446977
165	0xbe206409	-0.1566316
166	0x3d7930f8	0.060837716
167	0xbdbe696f	-0.092974536
168	0xbe867907	-0.26264212
169	0x3da67c7e	0.08129214
170	0x3da172e0	0.07883239
171	0x3d4cd0ea	0.050003923
172	0xbdeac509	-0.11463363
173	0xbcec80a9	-0.028869944
174	0x3e432076	0.19055352
175	0x3e07ac5c	0.13249344
176	0xbe446c4f	-0.19181941
177	0x3e60c99f	0.21951912
178	0xbe9b93ed	-0.30386296
179	0xbb0a33f5	-0.0021088098
180	0x3e06b6d6	0.13155684
181	0x3cf63ccc	0.030058287
182	0xbdb8391c	-0.08995268
183	0xbe56785e	-0.20944354
184	0xbddc93a7	-0.1077035
185	0xbcc9c391	-0.024629386
186	0x3e411519	0.18855704
187	0xbe798008	-0.24365246
188	0x3db1c99d	0.08681033
189	0x3ec826f0	0.39092207
190	0x3e009402	0.1255646
191	0xbdc4a7bf	-0.096023075
192	0x3dafa699	0.08576698
193	0x3d76dc49	0.060268674
194	0x3df9341f	0.121681444
195	0x3c7b367d	0.015332815
196	0xbd8ed983	-0.06975081
197	0x3ca8f8d5	0.020626465
198	0xbe05b87e	-0.1305866
199	0x3e1bb60f	0.15206169
200	0x3dc711e6	0.09720211
201	0xbd35ab67	-0.044352915
202	0xbe871c50	-0.26388788
203	0xbd4df636	-0.050283633
204	0xbe2e1e94	-0.17003852
205	0x3d036873	0.032082032
206	0xbcc22b9f	-0.02370244
207	0xbd999a62	-0.07500149
208	0xbd3822c5	-0.044955034
209	0x3ce18583	0.027529484
210	0x3b2c75e3	0.0026315383
211	0x3da43d3b	0.08019491
212	0xbd18df71	-0.037322465
213	0x3d74fdb6	0.05981227
214	0xbd92b684	-0.07163718
215	0x3d2a0598	0.04150924
216	0xbca88ce9	-0.020575004
217	0x3dc8f0e2	0.0981157
218	0x3d8bd3ee	0.06827532
219	0xbd9899e4	-0.07451227
220	0xbdf2d8d4	-0.11857763
221	0xbe17eac6	-0.14835653
222	0xbdc523d3	-0.096259736
223	0x3b16dad9	0.0023018627
224	0x3dd2f775	0.10301105
225	0xbabd54ea	-0.0014444862
226	0x3e07bc49	0.13255419
227	0x3bde136f	0.006777219
228	0xbe2d3fbc	-0.16918844
229	0xbdc189b4	-0.09450093
230	0xbd43ba59	-0.047785137
231	0xbd942892	-0.07234301
232	0xbe0a93f5	-0.13533004
233	0xbd5bdc0b	-0.053676646
234	0xbdd5f7c5	-0.10447649
235	0xbcaf7914	-0.02142004
236	0x3d995a71	0.074879535
237	0x3d1410c7	0.036148813
238	0xbd2cb053	-0.042160343
239	0x3cf658f6	0.030071717
240	0x3d2729b9	0.040811274
241	0x3e17485f	0.14773701
242	0xbe6f0db2	-0.23345068
243	0xbd9a1b06	-0.075246856
244	0xbe11cb2b	-0.14237659
245	0xbe69913a	-0.22809306
246	0x3de0326c	0.10947117
247	0xbdf1e9ec	-0.11812195
248	0xbdd319a8	-0.10307628
249	0x3c1fac8d	0.009745729
250	0xbe073044	-0.13202006
251	0x3c0fed8a	0.008784661
252	0xbb95457f	-0.0045554037
253	0xbd852819	-0.06501789
254	0x3d7801e9	0.060548697
255	0xbd8457e6	-0.06462078

actor.2.bias f4 [64]
0	0xbdaf8623	-0.085705064
1	0xbcdf2e29	-0.02724369
2	0x3d8c0257	0.06836384
3	0xbe1ae107	-0.15124904
4	0x3cbd1025	0.023078987
5	0x3dfaee96	0.12252538
6	0xbe80b60d	-0.25138894
7	0xbcd396ac	-0.025828682
8	0x3d8b017c	0.067873925
9	0xbd33ca2b	-0.043893974
10	0x3d911560	0.07084155
11	0x3cdbd55f	0.026835142
12	0xbe0b8c16	-0.13627657
13	0xbdb30ba0	-0.08742452
14	0xbcad2ffc	-0.021141045
15	0x3e1198de	0.1421847
16	0xbd6560b5	-0.05600043
17	0x3dae6384	0.08515075
18	0x3dc97834	0.0983738
19	0x3cd93a39	0.02651702
20	0x3d9c30bd	0.076264836
21	0xbdf4a552	-0.11945595
22	0x3da4a1e5	0.080386914
23	0xbb872303	-0.004124047
24	0x3da07847	0.07835441
25	0xbd06635d	-0.032809604
26	0x3d2fb03a	0.042892672
27	0xbbf629ee	-0.0075123226
28	0xbdbde413	-0.09272017
29	0xbd7fb25a	-0.06242595
30	0xbdc41734	-0.09574738
31	0xbd7eb3b0	-0.062183082
32	0xbe392cec	-0.18083543
33	0x3dceff16	0.101072475
34	0xbb8bddd8	-0.004268389
35	0x3db37e98	0.0876438
36	0x3da87096	0.08224599
37	0x3e06b847	0.13156234
38	0x3d86a3fc	0.06574246
39	0xbd25a94c	-0.040444657
40	0x3d2696b5	0.04067107
41	0xbe29139e	-0.1651139
42	0xbd708adc	-0.058726177
43	0xbe5eeec7	-0.21770774
44	0xbb1b81ad	-0.0023728416
45	0xbd69428d	-0.056948233
46	0xbda32b80	-0.07967281
47	0xbd7fbd25	-0.06243624
48	0x3c28b5ed	0.010297281
49	0x3d4d3096	0.050095163
50	0xbcc2d8e4	-0.023785062
51	0xbdb64607	-0.089000754
52	0x3c98f459	0.018671202
53	0xbde54724	-0.111952096
54	0xbd412629	-0.047155533
55	0x3c003343	0.007824722
56	0xbd803f16	-0.06262033
57	0x3e4c2d1c	0.19939083
58	0xbdc3411c	-0.09533903
59	0x3ccf0baa	0.025274117
60	0xbd9ca9c0	-0.07649565
61	0x3e0eea00	0.13956451
62	0x3da66fdf	0.081268065
63	0x3e3e7e2a	0.18602815

actor.4.weight f4 [36, 64]
0	0x3c3a39b0	0.011366293
1	0x3e032f89	0.12811102
2	0x3e8d36de	0.27580923
3	0xbde22db1	-0.11043871
4	0x3cbbac36	0.022909265
5	0xbebb7cff	-0.36618802
6	0x3eb8dbf1	0.36105302
7	0x3f15f6cf	0.58579725
8	0x3e15e0f3	0.14636593
9	0x3d86dec3	0.06585457
10	0x3e55e94c	0.20889777
11	0x3ecc3930	0.3988738
12	0xbd678234	-0.056520656
13	0xbddc2779	-0.10749716
14	0x3f1a81f6	0.60354555
15	0xbe9c5afc	-0.30538166
16	0x3eb943a7	0.36184427
17	0xbd49d0c2	-0.049271353
18	0xbd859df3	-0.06524267
19	0x3f3180c8	0.6933713
20	0xbe4d92ce	-0.20075533
21	0xbedadba8	-0.4274571
22	0xbe40fd55	-0.18846639
23	0x3df448ad	0.11927924
24	0x3edd0183	0.43165216
25	0x3e8764f5	0.26444212
26	0x3d4a12a3	0.04933418
27	0x3ea15f90	0.3151822
28	0xbeb6717c	-0.35633457
29	0xbe90c5c1	-0.28275874
30	0x3eb283d9	0.34866217
31	0x3f331e19	0.699678
32	0xbecb7eb6	-0.3974511
33	0xbe34c584	-0.17653471
34	0xbe9c4cb1	-0.3052726
35	0xbd94934a	-0.07254656
36	0x3e5007e2	0.20315507
37	0x3e980df1	0.29698136
38	0xbd46a976	-0.048501454
39	0x3e520108	0.20508206
40	0xbdb4995f	-0.08818316
41	0x3d3a375c	0.04546295
42	0xbe175818	-0.14779699
43	0xbd8d93d2	-0.0691296
44	0xbe1c3db7	-0.15257917
45	0x3d82d1f4	0.06387702
46	0x3de46d47	0.111536555
47	0x3cf1ffdf	0.029540954
48	0x3e729623	0.23690085
49	0x3e411f1a	0.1885952
50	0xbd038c4d	-0.032116223
51	0xbe98afe3	-0.2982169
52	0x3e332d4f	0.17497753
53	0xbd96934c	-0.073523134
54	0x3f1959e8	0.5990281
55	0x3e84ddbf	0.2595043
56	0xbd688b46	-0.056773447
57	0xbe438712	-0.19094494
58	0xbe84b17d	-0.25916663
59	0xbddd6df0	-0.108119845
60	0xbda741b8	-0.08166832
61	0xbe6b13d7	-0.22956787
62	0xbd45a7f5	-0.04825588
63	0xbdecb816	-0.11558549
64	0xbdb33eab	-0.08752187
65	0x3e2624ef	0.16225027
66	0x3dcb8fa8	0.0993951
67	0x3d0aff6d	0.033935
68	0x3da21437	0.07914012
69	0x3e157d1c	0.14598507
70	0x3e77df58	0.24206293
71	0xbc86da47	-0.016461505
72	0xbe954323	-0.29152784
73	0x3e6fd198	0.23419797
74	0xbd507287	-0.05089047
75	0x3e7d4edd	0.24737115
76	0x3d3a7597	0.0455223
77	0xbe2df371	-0.16987397
78	0xbe927d83	-0.28611383
79	0x3e110088	0.14160359
80	0xbe8f79f1	-0.2802272
81	0x3efac7b6	0.48980492
82	0xbea83e75	-0.3286015
83	0xbe9d998c	-0.3078121
84	0x3f017349	0.50566536
85	0x3efb8dfe	0.4913177
86	0xbea8065c	-0.32817352
87	0xbe1ff787	-0.15621768
88	0xbed1dee4	-0.40990365
89	0x3e5a6ab8	0.21329772
90	0xbc26e924	-0.010187421
91	0x3e29266c	0.16518563
92	0x3e690adf	0.22758053
93	0xbe029f2a	-0.12756029
94	0xbd8ed0ae	-0.06973396
95	0xbdd9824d	-0.10620556
96	0xbe2001fa	-0.15625754
97	0xbea87424	-0.32901108
98	0x3f1a3e95	0.6025174
99	0xbeb682e9	-0.35646752
100	0x3f0da80f	0.5533456
101	0x3e90ff35	0.28319708
102	0x3eb33f3e	0.35009187
103	0xbdbd642e	-0.092476234
104	0x3eb839a1	0.35981467
105	0xbd9716df	-0.07377409
106	0xbb8f9d13	-0.0043827384
107	0xbdd4d176	-0.10391514
108	0x3d8f03a4	0.06983116
109	0x3ccc9104	0.024971493
110	0x3d93b293	0.07211795
111	0x3d35cb97	0.04438361
112	0xbe861e52	-0.26195008
113	0x3df5c343	0.12000134
114	0x3dd2d0e9	0.10293753
115	0xbde86538	-0.11347431
116	0x3e9c00f2	0.3046947
117	0x3dbf4323	0.09338977
118	0xbe0f06c2	-0.13967422
119	0x3dcbba15	0.09947602
120	0xbc21b2b6	-0.009869268
121	0x3dc3ea84	0.09566215
122	0xbeb5babd	-0.35494033
123	0x3df85d1f	0.121271364
124	0x3da04ca8	0.07827121
125	0x3ebfb69b	0.37444004
126	0x3dd28b15	0.10280434
127	0xbe32fa93	-0.17478399
128	0x3ddf2c34	0.10897103
129	0x3e2306ae	0.15920517
130	0x3efa2f49	0.488642
131	0x3cb93c00	0.022611618
132	0x3dbcfcdb	0.09227916
133	0x3eca4ee1	0.39513305
134	0xbe2d514b	-0.16925542
135	0x3d8ab5bf	0.067729466
136	0xbddc4a3d	-0.10756347
137	0x3e06fab4	0.13181573
138	0x3e44c373	0.19215183
139	0x3e1b9e47	0.15197097
140	0x3e68e325	0.22742899
141	0xba806c8f	-0.0009797978
142	0xbdde851f	-0.108652346
143	0xbe66b847	-0.22531234
144	0x3d38abb2	0.045085616
145	0x3e8cfe74	0.27537882
146	0x3e4d10c8	0.20025933
147	0xbde34f07	-0.11099058
148	0x3c898aad	0.016789759
149	0x3e19ca68	0.15018618
150	0x3c3b0ef2	0.011417137
151	0xbde597b6	-0.11210577
152	0xbde6db72	-0.112723246
153	0x3da204c3	0.079110645
154	0xbb8dff6c	-0.004333427
155	0x3e0f7c67	0.140123
156	0x3eb6a01e	0.35669035
157	0x3c674a8e	0.014116896
158	0x3e62dfdf	0.22155713
159	0xbd48b7f4	-0.049003556
160	0x3e5b64a9	0.21425118
161	0xbe8eddab	-0.27903494
162	0x3e42d663	0.19027095
163	0x3e652345	0.22376736
164	0x3e683e80	0.22680092
165	0x3d510d10	0.051037848
166	0x3e6d6cbd	0.23186012
167	0x3ece6f24	0.4031917
168	0x3ece2ba9	0.40267685
169	0x3d60e576	0.05490633
170	0x3e003406	0.12519845
171	0x3d419f54	0.047271088
172	0xbdf041f0	-0.117313266
173	0x3d36ad9f	0.04459917
174	0x3effb0fb	0.49939713
175	0x3da94d30	0.082666755
176	0x3dba0e57	0.09084766
177	0x3e75367b	0.23946564
178	0xbda8abb2	-0.08235873
179	0x3e81645a	0.25271875
180	0x3e70d7da	0.23519841
181	0xbd26f6ed	-0.04076283
182	0xbcc7bc00	-0.024381638
183	0x3ed9ac00	0.42514038
184	0xbdb3a563	-0.087717794
185	0xbe1ad2a3	-0.15119414
186	0xbe87d140	-0.26526833
187	0x3b048231	0.0020219202
188	0x3c0cac10	0.008585945
189	0x3eb83a0d	0.3598179
190	0x3c1b98ae	0.009496851
191	0xbe1411d4	-0.14459926
192	0x3dde5314	0.1085569
193	0x3cb66238	0.022263631
194	0x3c2b6baa	0.010462681
195	0x3d82314f	0.06357061
196	0x3e880af7	0.26570866
197	0x3ec7fc7c	0.39059818
198	0x3e8284ac	0.25491846
199	0x3e859a90	0.26094484
200	0xbe6b2c53	-0.22966127
201	0x3e950a7d	0.29109564
202	0x3eaafcb9	0.33395937
203	0x3e9059dd	0.2819356
204	0x3cd8558b	0.026407978
205	0xbcf36cc8	-0.029714957
206	0x3dd00c97	0.10158651
207	0x3e86078b	0.2617763
208	0x3e6d2b76	0.2316111
209	0x3dffd9f3	0.124927424
210	0xbd6c2d75	-0.05766054
211	0x3e791b37	0.24326788
212	0x3a287751	0.0006426471
213	0x3d59bb17	0.05315694
214	0x3c979c9a	0.01850729
215	0x3e85d2cb	0.26137385
216	0x3e512cd6	0.2042726
217	0xbd80f204	-0.06296161
218	0xbc905360	-0.017617881
219	0x3dc0dbc0	0.09416914
220	0xbc3c2681	-0.011483789
221	0x3e280abe	0.16410348
222	0x3e420de2	0.18950608
223	0xbc2cc986	-0.010546094
224	0x3e116091	0.14196993
225	0x3ec089f1	0.3760524
226	0xbd384095	-0.044983465
227	0x3a921e2c	0.0011147908
228	0xbdb6c4dc	-0.08924267
229	0x3e549219	0.20758857
230	0x3ce037f7	0.027370436
231	0x3db25f7c	0.087096184
232	0x3e464dd3	0.19365625
233	0x3e115b64	0.14195019
234	0x3e5cc921	0.215611
235	0xbe99d445	-0.3004476
236	0x3ccfaffe	0.025352474
237	0x3d9990ef	0.07498347
238	0x3e11826d	0.1420991
239	0xbd5a8a02	-0.05335427
240	0xbec5eb5f	-0.38656136
241	0x3e56e6a6	0.20986423
242	0xbdc24dce	-0.09487496
243	0xbd4b445c	-0.04962574
244	0x3e862cda	0.26206094
245	0x3d9d8312	0.07691015
246	0x3e9bc365	0.30422512
247	0x3ddc4888	0.10756022
248	0x3db64203	0.088993095
249	0x3d270550	0.04077655
250	0x3e197c5b	0.14988844
251	0x3c903248	0.017602101
252	0xbda32f26	-0.07967977
253	0x3e556653	0.20839815
254	0xbd8925d6	-0.0669667
255	0x3e0c3c06	0.13694772

actor.4.bias f4 [36]
0	0xbe30486f	-0.17215131
1	0x3d14f548	0.03636673
2	0xbe0041d7	-0.12525116
3	0x3d487295	0.0489374
4	0x3e0364c5	0.1283141
5	0xbda3a10e	-0.07989703
6	0xbc60b5fd	-0.013715264
7	0x3e44bd48	0.1921283
8	0x3db7a221	0.089664705
9	0x3cdf1df6	0.027235966
10	0xbdc814c8	-0.09769589
11	0xbe0c6b9c	-0.13712925
12	0xbde788b8	-0.11305374
13	0x3e460361	0.19337226
14	0x3e9e1765	0.30877224
15	0x3c8d496b	0.017246922
16	0x3e33a4ee	0.17543384
17	0xbd844b04	-0.064596206
18	0x3de8b30a	0.11362274
19	0x3e53db04	0.20689017
20	0x3da8df60	0.082457304
21	0x3e1e9e89	0.15490164
22	0xbddbc3bd	-0.107306935
23	0x3d9067d0	0.07051051
24	0x3e67c4fd	0.22633739
25	0x3c838277	0.016053421
26	0x3e83ae26	0.25718802
27	0xbdf1030c	-0.11768159
28	0xbc5db1a3	-0.013531121
29	0x3e2450c7	0.16046439
30	0x3e504610	0.20339227
31	0x3da99ca0	0.08281827
32	0x3e2f6e65	0.17131956
33	0x3e937372	0.28799015
34	0x3e2924a3	0.16517882
35	0x3d879a50	0.0662123

critic.0.weight f4 [64, 62]
0	0x3d9c60c8	0.07635647
1	0x3dab196a	0.08354457
2	0xbdabd831	-0.083908446
3	0x3c1b5b6c	0.009482246
4	0xbd720873	-0.05909009
5	0xbcfadaa0	-0.030621827
6	0x3c01b9d9	0.007917845
7	0x3cc5368d	0.024073863
8	0xbd99bf73	-0.07507219
9	0xbca91594	-0.020640172
10	0xbd702903	-0.05863286
11	0xbd05dc08	-0.03268054
12	0xbdada3de	-0.08478521
13	0xbd87de16	-0.066341564
14	0xbda2877f	-0.07936
15	0xbdb46b9b	-0.088095866
16	0xbc0910fe	-0.008365868
17	0xbddd20ab	-0.107972465
18	0xbdf7fe13	-0.12109008
19	0x3db676c8	0.089093745
20	0xbdbb4a0c	-0.09144983
21	0x3db6177c	0.08891198
22	0x3c1010d6	0.0087930765
23	0xbc983c3e	-0.018583413
24	0x3dc93eef	0.09826457
25	0xbdcb1727	-0.09916525
26	0x3d7934c0	0.060841322
27	0x3dad99b3	0.084765814
28	0x3d732dc6	0.059369825
29	0xbe048b71	-0.12943818
30	0xbc8f2741	-0.017474772
31	0xbc500271	-0.012695895
32	0xbdc0fbf2	-0.09423055
33	0x3db1a39a	0.08673783
34	0xbcb73252	-0.022362862
35	0x3dafeb73	0.0858983
36	0xbd8c0d16	-0.068384334
37	0xbd66b474	-0.056324437
38	0x3d4395f1	0.047750417
39	0x3c84ef86	0.016227495
40	0x3d9510c4	0.072785884
41	0x3d5de969	0.054177675
42	0x3d9b85f8	0.07593912
43	0xbdbfba3b	-0.093616925
44	0x3ceb1533	0.028696632
45	0x3dc12f61	0.09432865
46	0xbd94ad07	-0.07259565
47	0xbda00724	-0.07813862
48	0x3dffed73	0.12496462
49	0xbdd9d0fe	-0.10635565
50	0xbd1e20d4	-0.038605526
51	0xbdadd70e	-0.08488284
52	0x3d00b712	0.03142459
53	0x3b37752c	0.0027993424
54	0xbe0c7c52	-0.137193
55	0x3d39073b	0.04517291
56	0x3cd9274e	0.026508
57	0x3d30368a	0.043020763
58	0xbdfe98af	-0.12431466
59	0xbe1140d5	-0.14184888
60	0xbe153508	-0.14571011
61	0xbd732eaa	-0.059370674
62	0xbde719dd	-0.1128423
63	0x3d83bfcc	0.06433067
64	0xbc8d3928	-0.017239168
65	0xbd4d2513	-0.050084185
66	0x3d14ebd5	0.03635772
67	0x3e5eb785	0.21749695
68	0x3e0e15de	0.13875529
69	0x3d89a692	0.06721224
70	0xbe3e3846	-0.18576154
71	0xbeab8068	-0.33496404
72	0xbdc37b0d	-0.095449544
73	0x3e30bb62	0.17258981
74	0xbdd58b3b	-0.10426947
75	0x3dff620f	0.12469875
76	0xbc9ad1b4	-0.018898822
77	0x3da902b0	0.08252466
78	0x3dd4f5a3	0.10398414
79	0x3ddf2efb	0.10897633
80	0x3d8b91bf	0.06814908
81	0xbbdf0445	-0.006805929
82	0xbd05605d	-0.032562602
83	0xbdf85976	-0.12126438
84	0x3d88dae2	0.066823736
85	0xbcebcd00	-0.028784275
86	0x3ca310a8	0.019905403
87	0xbceaf3ed	-0.028680766
88	0x3da7fc15	0.08202378
89	0x3b843abd	0.0040353225
90	0xbe8803a2	-0.26565272
91	0xbe0f76fa	-0.1401023
92	0x3d889adb	0.06670161
93	0xbe9f2bad	-0.3108801
94	0x3d70dd73	0.05880494
95	0xbd99545f	-0.07486796
96	0x3db6e9b5	0.08931295
97	0x3dc97be7	0.098380856
98	0x3d1a655d	0.037694324
99	0xbdb85cee	-0.090021
100	0xbe572c44	-0.2101298
101	0x3dbaa52a	0.09113534
102	0xbce23643	-0.027613765
103	0xbe04abf3	-0.12956218
104	0xbdfc0e5d	-0.12307427
105	0xbe8b93ff	-0.2726135
106	0x3c406d68	0.0117448345
107	0xbd7460a6	-0.059662484
108	0x3e443b66	0.19163284
109	0x3ec809df	0.3907003
110	0xbc904193	-0.017609393
111	0xbe182f2a	-0.14861742
112	0xbe17dc97	-0.14830242
113	0xbdc712b5	-0.09720365
114	0xbd3f1bb0	-0.046657264
115	0x3e1b880a	0.15188614
116	0xbeac3797	-0.33636162
117	0x3db599dd	0.08867238
118	0x3da9150b	0.08255967
119	0x3d48468e	0.04889541
120	0xbd9979f4	-0.07493964
121	0xbd046efc	-0.032332405
122	0x3e301af3	0.1719778
123	0x3dab84ca	0.08374937
124	0xbdd74f1a	-0.10513134
125	0x3da32314	0.07965675
126	0x3dd7641f	0.105171435
127	0x3d472423	0.048618447
128	0xbe5548f7	-0.20828615
129	0xbdb5343e	-0.08847855
130	0xbe3d4d28	-0.18486464
131	0xbe007362	-0.12544015
132	0xbcb90d29	-0.022589283
133	0xbe0d1c3d	-0.13780303
134	0x3d93eb3f	0.07222604
135	0x3cd707fd	0.026248926
136	0xbe64788e	-0.22311613
137	0x3d8ec089	0.06970317
138	0xbe2995f6	-0.16561112
139	0xbdf196c9	-0.11796338
140	0xbca31f01	-0.019912245
141	0xbd99a10a	-0.07501419
142	0x3df274de	0.11838697
143	0xbdd3839b	-0.10327836
144	0x3df2c62b	0.11854204
145	0xbcafec77	-0.02147506
146	0x3cbc58ce	0.022991564
147	0x3de27c04	0.1105881
148	0xbd70b2c3	-0.05876423
149	0xbd40bdad	-0.04705589
150	0x3d5737c4	0.052543417
151	0xbd03cac2	-0.032175787
152	0xbdae33aa	-0.08505948
153	0x3b583d4f	0.0032995527
154	0x3a9d3fee	0.0011997202
155	0xbcd1583b	-0.025554767
156	0xbd63e6a6	-0.055639885
157	0x3d537ec6	0.051634572
158	0x3c4969fd	0.012293336
159	0xbdc80e22	-0.097683206
160	0xbdfa8eab	-0.12234243
161	0xbe31ccac	-0.17363232
162	0xbd2ccd82	-0.042188175
163	0x3e077036	0.13226399
164	0xbdc2255f	-0.09479784
165	0xbe0f1d43	-0.13976006
166	0xbe080200	-0.13282013
167	0xbdd62064	-0.10455397
168	0x3d4dcc22	0.050243504
169	0x3ca3c426	0.019990992
170	0xbbd99673	-0.0066402494
171	0x3eb20901	0.34772494
172	0xbe3bf089	-0.18353476
173	0x3d4dc359	0.050235126
174	0xbd211ea6	-0.03933587
175	0x3e7d0487	0.24708758
176	0x3d7767de	0.06040179
177	0x3e2c7d65	0.16844709
178	0xbc59a12c	-0.013283055
179	0xbdc8a785	-0.09797577
180	0xbd4daf2a	-0.050215878
181	0xbbe9a2b5	-0.007129992
182	0xbd4eca8d	-0.050486136
183	0xbc382074	-0.011238206
184	0x3e02f3d7	0.1278833
185	0x3da0b666	0.0784729
186	0xbdeb8e5d	-0.11501763
187	0xbdef11c2	-0.11673309
188	0xbdd9ab8d	-0.10628424
189	0x3db5f55c	0.08884689
190	0xbda0bcc0	-0.07848501
191	0xbe6e8916	-0.23294482
192	0x3d81946c	0.06327137
193	0x3dfd0d59	0.123560615
194	0x3d238979	0.039926026
195	0xbe127ee8	-0.14306223
196	0x3db93f5c	0.09045288
197	0x3e3277de	0.17428538
198	0x3d557d11	0.052121226
199	0xbdd27f9f	-0.10278248
200	0x3cb63ede	0.022246774
201	0xbddcea19	-0.10786838
202	0xbd1b5f91	-0.037932936
203	0xbda16d4b	-0.07882174
204	0xbdabc982	-0.08388044
205	0x3db82345	0.08991102
206	0x3caca5da	0.021075178
207	0x3d2ab859	0.041679714
208	0xbdbd03d5	-0.092292465
209	0x3cc0e2b2	0.023545597
210	0x3de7b48d	0.11313734
211	0x3d8e754d	0.06955967
212	0xbbb6094c	-0.0055553075
213	0xbd6f7937	-0.05846521
214	0x3e60b32c	0.21943349
215	0x3d408f43	0.047011625
216	0xbd87f77a	-0.06638999
217	0x3c4fed14	0.012690801
218	0xbd13870b	-0.03601746
219	0xbba404a7	-0.0050054374
220	0xbcf4dd5b	-0.029890707
221	0xbd9a498e	-0.07533561
222	0xbd78bf5a	-0.060729362
223	0xbd027e85	-0.03185894
224	0xbde38c74	-0.11110774
225	0xbc2b4829	-0.010454216
226	0xbab055ce	-0.0013453306
227	0xbe65f4b1	-0.22456624
228	0x3dd13e4f	0.102169625
229	0x3bba2fe9	0.005681981
230	0x3d0cb3ab	0.034351032
231	0xbdd7c0d1	-0.10534824
232	0x3b6086ce	0.0034260037
233	0x3d7bbafa	0.06145761
234	0xbd118a72	-0.035532422
235	0xbe0f4e9f	-0.13994835
236	0x3d4c5641	0.049886946
237	0xbdcfb537	-0.10141986
238	0x3db715bd	0.08939693
239	0xbccc643e	-0.024950143
240	0xbd52c508	-0.051457435
241	0xbdd7ef1a	-0.10543652
242	0xbe31b77b	-0.17355148
243	0xbca04713	-0.01956514
244	0xbe135903	-0.14389424
245	0x3ced62b5	0.028977731
246	0xbbbddff4	-0.0057945196
247	0xbc9c8f7f	-0.019111393
248	0x3d8bf83e	0.06834458
249	0x3db87901	0.09007455
250	0xbdea2ed0	-0.1143471
251	0xbda831c8	-0.0821262
252	0xbd4ec774	-0.050483182
253	0xbe2fa703	-0.17153554
254	0x3e49167e	0.19637486
255	0x3e54386a	0.20724645

critic.0.bias f4 [64]
0	0xbe19aabe	-0.15006539
1	0x3becf670	0.007231526
2	0xbdc6cdbb	-0.09707209
3	0xbe2280b3	-0.15869407
4	0xbe00d5d4	-0.12581569
5	0x3d9920f5	0.07476989
6	0xbd90fa01	-0.070789345
7	0xbe63a6ac	-0.22231549
8	0xbe65e151	-0.22449233
9	0xbdedb2ca	-0.11606367
10	0xbdffa081	-0.124817856
11	0x3c958ead	0.01825651
12	0xbe0aeda0	-0.13567209
13	0xbe4fbaf1	-0.20286156
14	0xbe393c82	-0.18089488
15	0x3d9904d9	0.07471628
16	0xbd921f8a	-0.07134922
17	0x3e913ff7	0.28369114
18	0xbdd7050c	-0.104990095
19	0xbd989a3e	-0.07451294
20	0xbe008221	-0.1254964
21	0xbe1295d3	-0.14314966
22	0xbd6ce215	-0.057832796
23	0xbdd50321	-0.104009874
24	0x3de30ca2	0.11086394
25	0xbe2b1dc1	-0.16710569
26	0xbdd7884e	-0.10524045
27	0xbdbc00b6	-0.09179823
28	0xbdc3ba17	-0.09556978
29	0xbd88f1d9	-0.06686754
30	0x3c204a86	0.009783393
31	0xbcbe8e13	-0.023261106
32	0xbe2a7a9f	-0.16648339
33	0x3cba36cb	0.022731205
34	0x3bfcadc4	0.007711144
35	0xbd826063	-0.063660406
36	0xbe53d21a	-0.20685616
37	0xbcece7ba	-0.02891909
38	0xbe1eb4f3	-0.15498714
39	0x3e219dbf	0.15782832
40	0xbe11ba65	-0.1423126
41	0xbe35e450	-0.17762876
42	0xbe7454be	-0.23860452
43	0xbe59d024	-0.21270806
44	0xbe29a69a	-0.1656746
45	0xbe372b8d	-0.17887707
46	0x3d9d0786	0.076674506
47	0xbdac9055	-0.08425967
48	0x3e1a06a6	0.15041599
49	0xbdac4d32	-0.08413161
50	0x3e5178b7	0.20456205
51	0xbde00c12	-0.10939802
52	0xbe397ee5	-0.18114813
53	0xbe48c6e6	-0.19607124
54	0xbe4efe25	-0.20214136
55	0xbe52e689	-0.20595755
56	0xbd9345f6	-0.07191078
57	0xbd02808f	-0.031860884
58	0xbe138c8c	-0.14409083
59	0x3d9878e6	0.074449345
60	0xbd89c101	-0.06726266
61	0xbe3c66b8	-0.18398559
62	0x3b4d31b5	0.0031310145
63	0xbe299778	-0.16561687

critic.2.weight f4 [64, 64]
0	0xbced41bf	-0.028962014
1	0xbdc44429	-0.09583313
2	0xbde9feff	-0.1142559
3	0xbc897f38	-0.016784295
4	0xbcdb1ddc	-0.026747636
5	0xbdf066d8	-0.11738366
6	0xbe44803f	-0.19189547
7	0x3cc45ec0	0.023970962
8	0x3d0155f2	0.031576104
9	0xbd8a0237	-0.06738704
10	0xbcedad8e	-0.029013421
11	0x3d268c60	0.040661216
12	0xbdf61d38	-0.12017292
13	0x3d5aca58	0.053415626
14	0xbcc30a2d	-0.023808563
15	0xbc9243f3	-0.017854666
16	0xbe30f655	-0.17281468
17	0x3ea866d2	0.32890946
18	0xbdc404b8	-0.095712125
19	0x3c20c980	0.009813666
20	0xbcdee85f	-0.027210413
21	0xbbbf714c	-0.0058423635
22	0x3d8463e0	0.06464362
23	0x3d31a48c	0.043369815
24	0xbe9796ee	-0.29607338
25	0xbe6a6f82	-0.228941
26	0xbd8a229f	-0.06744885
27	0x3cdc39e1	0.026883068
28	0xbd2866d7	-0.0411137
29	0x3dcf8bbf	0.10134076
30	0x3d201902	0.03908635
31	0x3bf0e02a	0.007350941
32	0xbddb9652	-0.10722031
33	0xbdf8f464	-0.12155989
34	0xbc8a0811	-0.01684955
35	0x3dce9dcb	0.1008869
36	0xbdde1b0c	-0.108450025
37	0x3d533db7	0.051572528
38	0x3cbbe9e2	0.022938672
39	0xbbb428c8	-0.0054980256
40	0xbd5aaa4b	-0.05338506
41	0x3d595c13	0.053066324
42	0x3b190412	0.0023348373
43	0xbe1c1814	-0.1524356
44	0xbe15a62c	-0.14614171
45	0xbdd92596	-0.10602872
46	0xbdb7f0d8	-0.08981484
47	0xbe316f7a	-0.17327681
48	0x3d11572b	0.03548352
49	0xbdd0441f	-0.10169243
50	0xbeb1205d	-0.34595004
51	0x3e8bc754	0.27300513
52	0xbe961c1a	-0.29318315
53	0xbd92aace	-0.07161485
54	0xbebcd321	-0.3687983
55	0xbd5e8a48	-0.054331094
56	0xbc66e3c5	-0.01409239
57	0x3b99c71c	0.004692925
58	0x3e06d6fc	0.13167948
59	0xbe980d73	-0.2969776
60	0xbe06192b	-0.13095538
61	0xbbe16bc8	-0.0068793036
62	0x3cf642cd	0.03006115
63	0xbe6211d3	-0.22077112
64	0xbc6d49e0	-0.014482945
65	0xbc87b302	-0.01656485
66	0xbd1d01f9	-0.03833196
67	0xbd1d9304	-0.038470283
68	0xbddb763e	-0.10715912
69	0xbd8efe5a	-0.069821075
70	0xbdba697f	-0.09102153
71	0x3db3f9d4	0.08787885
72	0xbd62eeed	-0.05540364
73	0xbdd89934	-0.10576096
74	0xbdd4fad3	-0.103994034
75	0xbddb41d9	-0.10705919
76	0xbd456965	-0.048196215
77	0xbd8a2b6a	-0.06746562
78	0xbdd75460	-0.1051414
79	0xbd64276c	-0.055701658
80	0x3d6a8a86	0.057261012
81	0xbde39b3c	-0.11113593
82	0xbd2a291a	-0.041543104
83	0x3dbbdba3	0.09172752
84	0x3d4c12a1	0.049822453
85	0x3c6369d8	0.013880216
86	0x3d0d6e66	0.034529112
87	0xbd987637	-0.07444423
88	0xbde81c01	-0.11333466
89	0xbdb73768	-0.08946115
90	0xbdb6dc8d	-0.089287855
91	0x3d9a0f10	0.07522404
92	0xbc57de66	-0.0131755825
93	0xbdec43ab	-0.11536344
94	0xbde70c62	-0.11281659
95	0xbcd7587d	-0.026287312
96	0x3d4abdcc	0.04949741
97	0xbc4a448b	-0.0123454435
98	0x3bef04b4	0.007294262
99	0xbd84f0c9	-0.064912386
100	0xbcb93d46	-0.022612225
101	0x3d621dae	0.055204086
102	0x3cba7118	0.022759005
103	0xbd47c761	-0.048774127
104	0x3dffcf50	0.124907136
105	0x3d8c15a6	0.068400666
106	0x3cea4b74	0.028600432
107	0x3d2d3f86	0.04229691
108	0x3d880c4e	0.06642972
109	0xbd01877c	-0.03162335
110	0x3c0d6ac8	0.008631416
111	0xbd53f807	-0.05175021
112	0xbd66b0d1	-0.05632097
113	0xbc4d7e90	-0.012542382
114	0xbdf1df12	-0.118101254
115	0x3d90b3b5	0.070655264
116	0xbdcee9c1	-0.10103179
117	0xbe0971d4	-0.13422328
118	0xbd6f3e82	-0.05840922
119	0x3d880a40	0.0664258
120	0xbdc96ae2	-0.098348394
121	0xbd397b25	-0.045283455
122	0x3d625d7e	0.055264942
123	0xbdd1b895	-0.10240284
124	0x3dc66690	0.09687531
125	0x3d5d8a00	0.054086685
126	0x3cc34da7	0.023840738
127	0xbc45f163	-0.012081477
128	0x3db174f9	0.08664889
129	0xbdcb14d2	-0.099160805
130	0xbd945bc7	-0.07244068
131	0x3c93c10e	0.018036392
132	0xbe1a17e4	-0.15048176
133	0x3c87e234	0.016587354
134	0x3d1b21d5	0.03787406
135	0x3c8ec980	0.017430067
136	0xbdfa5364	-0.12222937
137	0x3921633d	0.00015391126
138	0xbc9db1dd	-0.01924985
139	0xbdff4236	-0.124638006
140	0xbd888d45	-0.0666757
141	0xbdb027e2	-0.08601357
142	0x3dbc0880	0.09181309
143	0xbdeca7de	-0.115554556
144	0xbdeaa5b5	-0.11457387
145	0xbacfa980	-0.0015843362
146	0x3d291319	0.04127798
147	0xbd9eb649	-0.07749612
148	0x3ca35eb2	0.019942615
149	0x3d812cd4	0.063073784
150	0x3de5c67d	0.11219499
151	0x3d9955c1	0.074870594
152	0xbd8e96c3	-0.06962349
153	0x3da8a72a	0.08235009
154	0x3d59c8c3	0.053169977
155	0xbe0e7c95	-0.13914712
156	0x3c08db1a	0.008353019
157	0xbe0af5bb	-0.13570301
158	0x3da9316f	0.08261382
159	0xbe01990c	-0.12656039
160	0x3d6ffc45	0.058590192
161	0xbd901efe	-0.07037161
162	0x3cabfb57	0.020993872
163	0xbe17c1c3	-0.14820008
164	0x3d88e8cc	0.066850275
165	0x3cd0358b	0.025416156
166	0x3c20510d	0.009784949
167	0xbe05d234	-0.13068467
168	0x3dd5997e	0.10429667
169	0xbc94ed3e	-0.018179532
170	0xbd6249d0	-0.055246174
171	0xbcf8418c	-0.030304693
172	0xbd788563	-0.060674082
173	0xbe41fdb8	-0.18944442
174	0xbc915b85	-0.017743835
175	0x3dfba0b6	0.122865126
176	0x3c16efbc	0.009212431
177	0x3cd6ceea	0.026221711
178	0xbd8301eb	-0.0639685
179	0xbde47619	-0.11155338
180	0x3d5beb6b	0.05369131
181	0xbcc2bb74	-0.023771025
182	0xbd5aa5ca	-0.053380765
183	0x3c404685	0.011735563
184	0xbd768c6f	-0.06019252
185	0xbcfdf219	-0.03099923
186	0xbe25b5b7	-0.161826
187	0xbcd00086	-0.025390875
188	0xbd0da04d	-0.034576703
189	0xbdd449af	-0.103656165
190	0x3d6ac7ae	0.057319336
191	0xbe1adda2	-0.15123609
192	0xbd0d18bb	-0.034447413
193	0xbce7e7fc	-0.028308861
194	0xbdc6c0ca	-0.0970474
195	0xbd1bf54d	-0.038075734
196	0x3d696e9a	0.056990243
197	0xbde32103	-0.11090281
198	0x3c8681ef	0.016419379
199	0xbc9c2260	-0.01905936
200	0xbdde22c5	-0.108464755
201	0xbe0a319e	-0.1349549
202	0xbd314dfc	-0.043287262
203	0xbd8e1be7	-0.06938916
204	0x3c0cef37	0.008601955
205	0xbe080990	-0.13284898
206	0x3e1d55b5	0.15364726
207	0x3df2c845	0.11854605
208	0xbd2ce375	-0.042209107
209	0xbdb37d75	-0.087641634
210	0xbdf8adaa	-0.12142499
211	0x3d1400a4	0.036133423
212	0x3d23f36f	0.04002708
213	0x3de1794d	0.110094644
214	0xbd8f5e58	-0.070004165
215	0x3cb76d07	0.022390855
216	0xbd43e55d	-0.04782616
217	0xbe0c603d	-0.13708587
218	0x3cd61edb	0.02613776
219	0xbd64862e	-0.055792026
220	0x3d72bc31	0.059261505
221	0xbdaa1a3e	-0.083057866
222	0x3d04eefc	0.032454476
223	0xbd713b85	-0.058894653
224	0xbc937342	-0.017999295
225	0x3d8ae65c	0.06782219
226	0xbd385f9a	-0.045013048
227	0xbde1bb76	-0.110220835
228	0x3d3729fe	0.04471778
229	0xbddaae9a	-0.10677834
230	0xbdb182c9	-0.086675234
231	0xbd32aeed	-0.043623853
232	0xbd95d8cf	-0.073167436
233	0x3db2f8ab	0.08738836
234	0xbde2d0f2	-0.110750094
235	0x3d9bff15	0.076170124
236	0xbde4a07b	-0.11163422
237	0x3dee2c52	0.11629547
238	0xbd65d0b5	-0.05610724
239	0xbda0cb1e	-0.078512415
240	0xbdd74c67	-0.105126195
241	0x3b41d85f	0.002957843
242	0xbd8fbe80	-0.07018757
243	0xbddb2f88	-0.10702425
244	0x3d48ef2e	0.049056225
245	0x3d102789	0.035193954
246	0xbdd15969	-0.10222132
247	0x3db7b82f	0.08970677
248	0xbd0a8b4f	-0.03382426
249	0x3d86f5ed	0.06589875
250	0xbdc1df19	-0.094663806
251	0xbe2a564f	-0.16634487
252	0xbddc7b08	-0.10765654
253	0xbde80bbd	-0.11330364
254	0x3dd9b531	0.10630263
255	0x3dd8a9f2	0.105792895

critic.2.bias f4 [64]
0	0xbdd0d7f6	-0.10197441
1	0xbdab1cfd	-0.083551385
2	0xbd898329	-0.0671447
3	0xbd6c5bf0	-0.057704866
4	0xbdc9e5f6	-0.09858315
5	0xbe0cef21	-0.13763095
6	0xbd846d45	-0.06466154
7	0xbe06f125	-0.13177927
8	0xbda33f31	-0.07971037
9	0x3d72b6e4	0.05925645
10	0xbd3fabbb	-0.046794634
11	0x3dbcb98a	0.09215076
12	0x3d979e08	0.07403189
13	0xbd54aa41	-0.05192018
14	0xbd411303	-0.04713727
15	0x3ca65b14	0.020307101
16	0x3d7f77f8	0.06237027
17	0xbe1cdc0d	-0.15318318
18	0x3d39639b	0.045261007
19	0xbd738040	-0.05944848
20	0x3e281cfc	0.16417307
21	0x3e9fa9b2	0.31184155
22	0xbd129e1a	-0.03579531
23	0xbe2e4a26	-0.17020473
24	0xbd01e076	-0.031708203
25	0xbe0ff2b7	-0.14057432
26	0xbdc4ed4d	-0.09615574
27	0xbe525bf5	-0.20542891
28	0xbd8eabd6	-0.06966369
29	0xbcc1af88	-0.02364327
30	0xbd78856a	-0.06067411
31	0x3e3be4d8	0.18349016
32	0xbde10f60	-0.10989261
33	0xbe38e1f8	-0.1805495
34	0x3d86bd15	0.06579033
35	0xbcfbfc9d	-0.030760104
36	0xbdef8e92	-0.11697115
37	0xbe5e3eab	-0.21703593
38	0x3cc01d1d	0.023451382
39	0xbd9243e0	-0.071418524
40	0x3c90bd41	0.017668368
41	0xbdda83bc	-0.106696576
42	0xbd83a895	-0.06428639
43	0x3dab3cc3	0.08361199
44	0xbdf8fef1	-0.12158001
45	0xbd0dd6c6	-0.034628652
46	0xbd9af3ee	-0.07566057
47	0xbc628541	-0.0138257155
48	0xbda8f2fa	-0.08249469
49	0xbdac9372	-0.084265605
50	0x3df4e067	0.11956864
51	0xbe0d70e1	-0.13812591
52	0xbdd49c22	-0.103813425
53	0xbd9ecb0b	-0.07753571
54	0xbd835dea	-0.06414397
55	0x3db42bfe	0.08797453
56	0xbce8a55b	-0.02839916
57	0xbd743d50	-0.059628785
58	0xbddd664c	-0.10810527
59	0xbdee2f80	-0.11630154
60	0xbe123688	-0.14278615
61	0xbda3d5f3	-0.07999792
62	0xbe30643c	-0.17225736
63	0xbe0e45a3	-0.13893752

critic.4.weight f4 [1, 64]
0	0xbc83473b	-0.016025176
1	0x3cfde21b	0.030991605
2	0xbc32d229	-0.010914364
3	0xbc258205	-0.0101018
4	0xbdcab9a3	-0.09898689
5	0x3bb59f09	0.00554264
6	0xbdef8757	-0.11695736
7	0x3d282bf2	0.041057535
8	0x3d285b95	0.041102964
9	0xbe412ada	-0.18864003
10	0x3bda9ace	0.006671286
11	0xbdbfd542	-0.093668476
12	0xbe16552e	-0.14680931
13	0xbc3f092b	-0.011659901
14	0xbd89bc56	-0.06725375
15	0x3e0341f3	0.12818126
16	0xbe72cdc2	-0.23711303
17	0x3c843f18	0.016143367
18	0xbdd45bb9	-0.10369057
19	0xbb622d73	-0.0034511953
20	0xbdb56be8	-0.08858472
21	0x3ddc60c4	0.10760644
22	0xbe0be692	-0.13662174
23	0x3c377b63	0.011198851
24	0xbba45134	-0.005014563
25	0xbd231452	-0.0398143
26	0x3a916501	0.0011092724
27	0x37105be1	8.604461e-06
28	0xbba71901	-0.0050994162
29	0xbc5b8db9	-0.0134004885
30	0x3bf99729	0.0076168966
31	0x3d8d40e9	0.06897146
32	0xbca583b1	-0.020204397
33	0xba8b0acb	-0.0010608075
34	0xbdeb4a4d	-0.11488781
35	0x3cc86881	0.024463894
36	0x3c8bc2b8	0.017060623
37	0x3c14f729	0.009092131
38	0xbe28b796	-0.16476282
39	0x3d5446f0	0.051825464
40	0xbd1150a9	-0.035477314
41	0x3d3debdc	0.04636751
42	0x3d963fc5	0.07336382
43	0x3de8e70e	0.11372195
44	0xbc046cdb	-0.008082594
45	0x3dcde173	0.10052767
46	0xbc7f20bb	-0.015571768
47	0x3ca11945	0.01966537
48	0xbc960ab6	-0.018315654
49	0xbc2a14a8	-0.010380901
50	0xbde82795	-0.11335675
51	0x3d2739be	0.04082655
52	0x3d8e4cda	0.06948252
53	0x3d1bd7c0	0.038047552
54	0xbba9681f	-0.005169883
55	0xbe18ed8f	-0.14934371
56	0x3cea7680	0.028620958
57	0x3a2deaa0	0.0006634388
58	0xbd4cee78	-0.05003211
59	0xbbba7edb	-0.005691392
60	0xbd7c1037	-0.0615389
61	0x3c655f57	0.013999782
62	0xbc7d732a	-0.015469352
63	0xbd66e70d	-0.05637269
